tabsyn/vae/ckpt/shoppers/decoder.pt (torch, 26840 bytes, 47 tensors)

VAE_Decoder.layers.0.attention.W_q.weight f4 [4, 4]
0	0xbed7790e	-0.42084545
1	0xbdc5b87d	-0.09654329
2	0x3ead5b6a	0.33858806
3	0x3dc0d988	0.09416491
4	0x3d56be9b	0.05242787
5	0x3f441c23	0.76605433
6	0x3e310c7e	0.17289922
7	0xbd96a968	-0.073565304
8	0x3eb4b4fc	0.3529433
9	0x3f04b7d7	0.5184302
10	0x3e249c9f	0.16075371
11	0xbe573a83	-0.21018414
12	0x3e5e0aef	0.21683858
13	0x3f07ef9b	0.53099984
14	0xbf15b88c	-0.5848472
15	0x3eb1c7e2	0.3472281

VAE_Decoder.layers.0.attention.W_q.bias f4 [4]
0	0x3d4293f1	0.04750437
1	0xbe17b997	-0.1481689
2	0xbb4b80db	-0.0031052146
3	0xbdaa1520	-0.083048105

VAE_Decoder.layers.0.attention.W_k.weight f4 [4, 4]
0	0x3ecafebe	0.39647478
1	0xbce65d5c	-0.02812069
2	0xbeb9748b	-0.36221728
3	0xbe4736f6	-0.1945456
4	0xbeaed075	-0.34143415
5	0xbdc05d57	-0.09392803
6	0x3e2aae0e	0.16667959
7	0xbebd0c9e	-0.3692369
8	0x3dc2dac3	0.09514382
9	0x3e3fbd68	0.18724597
10	0x3ea236c0	0.31682396
11	0x3e29499c	0.16531986
12	0xbefb9864	-0.49139702
13	0x3e59b7bf	0.212615
14	0x3f5784f5	0.8418725
15	0xbdae2fa1	-0.08505178

VAE_Decoder.layers.0.attention.W_k.bias f4 [4]
0	0x3a5b3f8b	0.00083636557
1	0x3a8ee66f	0.0010902415
2	0x3b83399d	0.004004671
3	0x3b2498d8	0.0025115516

VAE_Decoder.layers.0.attention.W_v.weight f4 [4, 4]
0	0xbee61ebe	-0.4494533
1	0x3d2012f4	0.039080575
2	0x3e30848d	0.17238064
3	0x3e441e4d	0.19152184
4	0xbd92bedd	-0.071653105
5	0xbe15c6fd	-0.1462669
6	0x3e9426b4	0.28935778
7	0xbda3a576	-0.079905435
8	0xbd9a9026	-0.075470254
9	0x3c136123	0.008995327
10	0x3d9fe514	0.07807365
11	0x3db099bb	0.08623072
12	0xbe932de2	-0.28745943
13	0xbde4049f	-0.11133694
14	0x3ebb6bcd	0.36605683
15	0x3d458455	0.048221905

VAE_Decoder.layers.0.attention.W_v.bias f4 [4]
0	0xbd1a0fdd	-0.037612785
1	0x3d310cc8	0.04322508
2	0xbc586232	-0.013207005
3	0xb9058fc3	-0.00012737424

VAE_Decoder.layers.0.linear0.weight f4 [128, 4]
0	0xbeeb2af4	-0.45931208
1	0xbea1c4d1	-0.31595472
2	0x3ee22826	0.44171256
3	0xbe835d62	-0.25657183
4	0x3f3d2a9a	0.7389313
5	0x3db5ea89	0.08882625
6	0x3e62b021	0.221375
7	0xbef3ae0a	-0.4759372
8	0xbede5646	-0.43425196
9	0x3efcd742	0.4938298
10	0x3f149a51	0.5804797
11	0x3e5eb285	0.21747787
12	0xbf1a37d7	-0.60241455
13	0x3d4f4db4	0.050611213
14	0x3ef93b45	0.48678032
15	0xbf1a308f	-0.60230345
16	0x3ed11a5e	0.4084043
17	0xbeaa4ecf	-0.3326325
18	0x3eed0824	0.46295273
19	0xbc853a02	-0.016263012
20	0xbe8d0b59	-0.2754772
21	0x3c1964f4	0.009362448
22	0x3ec11cdf	0.3771734
23	0xbefb4116	-0.49073094
24	0x3d11aeea	0.0355672
25	0x3e8dc211	0.27687123
26	0xbeda89b3	-0.4268318
27	0x3f091dab	0.53560895
28	0x3f07eb8f	0.5309381
29	0x3e1de523	0.1541944
30	0x3ca17203	0.019707685
31	0x3ddd38d6	0.10801856
32	0x3eb3a287	0.35084936
33	0x3ec71b56	0.38888043
34	0xbedb52aa	-0.42836505
35	0xbe499aec	-0.19688004
36	0x3f056a78	0.52115583
37	0x3f235d25	0.63814
38	0xbe5e3302	-0.21699145
39	0xbea55a64	-0.32295525
40	0xbf445f7f	-0.76708215
41	0x3d0538be	0.032524817
42	0xbdda010e	-0.106447324
43	0x3e8d9020	0.2764902
44	0x3f2b2d92	0.6686641
45	0x3f1fe20a	0.62454283
46	0xbeb86d45	-0.36020866
47	0xbf0b1a76	-0.5433725
48	0xbe6f1eb4	-0.23351556
49	0x3e544041	0.20727636
50	0xbe8c5cb9	-0.27414492
51	0x3f047be4	0.5175154
52	0xbe8e43e7	-0.2778618
53	0x3e3acaa5	0.18241365
54	0x3ec292d4	0.38002646
55	0xbe50c6eb	-0.20388381
56	0xbd06cbb4	-0.03290911
57	0xbe968dd8	-0.29405093
58	0xbf02ea5b	-0.5113885
59	0x3e494284	0.1965428
60	0xbd17aa9f	-0.03702795
61	0x3ebba955	0.36652628
62	0x3dba56c1	0.09098578
63	0xbee92193	-0.45533428
64	0x3e1e80d9	0.15478839
65	0x3c312667	0.0108123785
66	0x3ede5d95	0.43430772
67	0xbec3d599	-0.382489
68	0xbf182a21	-0.59439284
69	0xbe3dce1d	-0.18535657
70	0xbecb81c4	-0.3974744
71	0x3e7b8a5f	0.24564503
72	0x3f25bc99	0.647409
73	0x3e891f0a	0.26781493
74	0xbc7b5583	-0.015340212
75	0x3e2e276a	0.17007223
76	0x3f2d9a8d	0.6781395
77	0xbee72433	-0.45144805
78	0x3e2873f6	0.16450486
79	0x3e211cdc	0.15733665
80	0xbf2fbfb5	-0.68651897
81	0x3e76dd48	0.2410785
82	0x3e4ef3dc	0.20210212
83	0xbeb81cee	-0.35959572
84	0xbebaa8ea	-0.36456996
85	0x3ecef47d	0.40420905
86	0x3e768974	0.24075872
87	0xbee5453b	-0.4477938
88	0xbe97f2b8	-0.29677367
89	0xbd1ed90a	-0.038781203
90	0xbe433b03	-0.1906548
91	0xbe95d82e	-0.29266495
92	0x3c97e7cb	0.018543145
93	0xbe249249	-0.16071428
94	0xbe690c17	-0.22758518
95	0x3f3d20dc	0.73878264
96	0x3deb24c0	0.11481619
97	0xbd808c08	-0.06276709
98	0x3ee7c79a	0.4526947
99	0x3f10d163	0.565695
100	0xbf164cb7	-0.5871081
101	0xbd70b595	-0.05876692
102	0x3f24f738	0.64439726
103	0x3ed1e43d	0.40994444
104	0x3f0977cf	0.5369844
105	0xbede9101	-0.43470004
106	0x3ea57b3e	0.3232059
107	0xbe962ef9	-0.29332712
108	0x3ea879ca	0.32905418
109	0x3f122cd4	0.5709965
110	0xbe3be14d	-0.18347664
111	0x3eca3e50	0.39500666
112	0x3e1c759a	0.15279236
113	0x3e8dbaed	0.27681676
114	0xbee8a13a	-0.45435506
115	0xbeb99375	-0.36245313
116	0x3e6af7aa	0.22946039
117	0xbd60e0fd	-0.054902066
118	0xbee7284f	-0.4514794
119	0xbe6f66b5	-0.23379023
120	0xbe57df18	-0.21081197
121	0x3e9bfd55	0.30466715
122	0xbe6ea7e4	-0.23306233
123	0x3eaea6bd	0.34111586
124	0xbecfff59	-0.40624502
125	0xbdcc175c	-0.09965393
126	0xbef80d5e	-0.48447698
127	0x3ef8a213	0.48561153
128	0xbe159395	-0.1460708
129	0xbe8e1d91	-0.27756932
130	0x3e0ac1ba	0.13550463
131	0xbe1752bb	-0.14777653
132	0x3e8c432a	0.27394992
133	0xbe400f8e	-0.18755934
134	0xbe2295c5	-0.15877445
135	0xbf1bcc83	-0.60858935
136	0xbdf9377b	-0.12168785
137	0x3f195d8d	0.5990837
138	0x3e8fc542	0.28080183
139	0xbf01ac0d	-0.50653154
140	0x3e6c67b0	0.23086429
141	0xbec8d1f7	-0.3922269
142	0x3e7f8b2f	0.24955438
143	0xbcbb81d9	-0.022889065
144	0xbeb26f3c	-0.3485049
145	0x3f02a114	0.51027036
146	0xbe8c2f18	-0.2737968
147	0xbdfc2595	-0.12311856
148	0x3e4fada5	0.20281084
149	0xbf0669b4	-0.5250504
150	0xbe65f16b	-0.22455375
151	0x3e9640dd	0.29346362
152	0x3ca42795	0.020038405
153	0x3d4c9e12	0.049955435
154	0x3d8a4de1	0.067531355
155	0xbe25fd75	-0.16209967
156	0xbf171ad5	-0.5902532
157	0x3ecb8ba7	0.39754984
158	0x3e61ba01	0.22043611
159	0x3d53f15d	0.051743854
160	0xbe9176e0	-0.28411007
161	0xbd98d2e0	-0.07462096
162	0x3f37c911	0.7179118
163	0x3e32c167	0.1745659
164	0xbe94e4b2	-0.2908073
165	0xbea1f9d1	-0.31635907
166	0xbf07de97	-0.5307402
167	0x3edcb2fc	0.43105304
168	0xbefa9e97	-0.4894912
169	0x3ef21c1d	0.47287074
170	0x3f20c540	0.6280098
171	0x3e1a7a76	0.15085778
172	0xbf1392ee	-0.5764607
173	0x3dc854c0	0.0978179
174	0xbd56c684	-0.052435413
175	0x3cf8dddc	0.030379228
176	0xbdef920c	-0.11697778
177	0x3f15c09e	0.58497036
178	0x3d9293b2	0.07157077
179	0x3ea9773c	0.3309878
180	0xbc9f59eb	-0.019452056
181	0xbe79ffa1	-0.24413921
182	0xbead60f9	-0.33863047
183	0xbe3c5fa7	-0.18395863
184	0xbefc9410	-0.49331713
185	0x3e8a265f	0.269824
186	0xbeaf6f0a	-0.34264404
187	0x3eab28d3	0.33429584
188	0x3d6bb068	0.05754128
189	0xbec3b923	-0.38227186
190	0xbe0c2902	-0.13687518
191	0x3eaccdd8	0.33750796
192	0x3e0707c8	0.13186562
193	0x3ecb075d	0.39654055
194	0xbe6e1b04	-0.23252493
195	0xbec8c82b	-0.39215216
196	0x3f5c6b7e	0.8610152
197	0xbebd2c7f	-0.3694801
198	0x3f107ed6	0.56443536
199	0x3c32f20b	0.010921965
200	0x3e05a4a2	0.13051084
201	0xbf163251	-0.58670527
202	0xbcc10bed	-0.023565257
203	0x3eb3f7cf	0.3515
204	0xbec05168	-0.37562108
205	0x3dbd35dc	0.092387885
206	0xbd33a9d8	-0.043863147
207	0x3eec2d4f	0.46128318
208	0x3d8673eb	0.06565078
209	0x3e9a17c6	0.30096263
210	0xbf18331a	-0.59452975
211	0xbd8c8be4	-0.068626195
212	0x3ed671a1	0.41883567
213	0x3e26692f	0.16251062
214	0xbf1d9c88	-0.6156697
215	0xbeb5f71e	-0.35540098
216	0x3f655eae	0.89597595
217	0xbeaeb790	-0.34124422
218	0x3e8a18ce	0.2697205
219	0xbec2b899	-0.38031462
220	0xbf269e19	-0.6508499
221	0x3eb86f34	0.3602234
222	0xbe4a4c4b	-0.19755666
223	0xbe6586ce	-0.22414705
224	0x3deed038	0.11660808
225	0xbe80ab07	-0.25130484
226	0xbebe10db	-0.37122235
227	0x3e91d372	0.28481632
228	0xbe4ecc85	-0.20195206
229	0xbebc5b9d	-0.36788645
230	0xbea59f46	-0.32348078
231	0xbecb2e38	-0.396837
232	0x3f130168	0.5742402
233	0x3daad21b	0.08340856
234	0x3dfb26ef	0.12263285
235	0x3f030a20	0.51187325
236	0x3d71ca7d	0.059031
237	0x3ecded95	0.40220323
238	0xbe744dbf	-0.23857783
239	0x3c6a2c45	0.014292781
240	0xbee6eeb5	-0.45103994
241	0x3eaaf88d	0.33392754
242	0x3f1916b2	0.59800255
243	0x3e187dfb	0.14891808
244	0xbecc5dc0	-0.39915276
245	0x3ed4477e	0.41460794
246	0xbce6f85a	-0.028194595
247	0xbe949410	-0.29019213
248	0xbefa9cde	-0.48947805
249	0xbdea5833	-0.11442604
250	0x3edfc257	0.43702957
251	0x3f0228a0	0.5084324
252	0xbe41228a	-0.18860832
253	0xbe989fc1	-0.29809383
254	0xbeb966fa	-0.36211377
255	0x3eed677f	0.46368024

VAE_Decoder.layers.0.linear0.bias f4 [128]
0	0x3df5b8b5	0.11998121
1	0xbd879a2b	-0.06621202
2	0x3e3b58ae	0.18295547
3	0xbdc61553	-0.09672036
4	0xbe3fdba3	-0.18736129
5	0xbd26509e	-0.040604226
6	0x3e816101	0.2526932
7	0x3e2139e1	0.15744735
8	0x3f1ebb2f	0.6200437
9	0x3f1b1062	0.60571873
10	0x3ec354f2	0.38150746
11	0x3c9d04b9	0.019167291
12	0xbe60c646	-0.21950635
13	0x3e1eca35	0.15506823
14	0xbe93627a	-0.2878607
15	0x3f0a1a6f	0.53946584
16	0x3ec50812	0.3848272
17	0xbe96292c	-0.29328287
18	0x3e7f6167	0.249395
19	0x3d9022cd	0.07037888
20	0xbd92bef8	-0.07165331
21	0x3ec2ff61	0.38085464
22	0x3df203c2	0.11817123
23	0x3e5d6da4	0.21623856
24	0x3ed709c4	0.41999638
25	0xbeaaa6c3	-0.33330354
26	0xbe844380	-0.25832748
27	0x3f0ca245	0.54935104
28	0xbe3787f9	-0.17922963
29	0x3e8eb3c9	0.2787154
30	0xbea3ace6	-0.3196785
31	0xbcffa74a	-0.0312077
32	0x3edfea90	0.43733644
33	0x3f0a33e8	0.5398545
34	0x3e7b58ef	0.24545644
35	0x3da15ee4	0.07879427
36	0x3ec4943b	0.3839434
37	0x3ec11e3d	0.37718382
38	0xbef8fc55	-0.48630014
39	0xbddd0d6c	-0.10793576
40	0x3b2bb0c1	0.0026197883
41	0x3e20f16b	0.15717094
42	0x3e90efd8	0.28307986
43	0xbe1010cf	-0.14068912
44	0xbe80dfe2	-0.2517081
45	0x3e29b7fa	0.16574088
46	0xbda7173d	-0.08158729
47	0x3ee97441	0.45596507
48	0x3e9f0a52	0.3106256
49	0x3ef309eb	0.47468504
50	0x3e841dec	0.2580408
51	0x3ed185bd	0.40922347
52	0x3f20dd44	0.62837625
53	0xbe8d8b47	-0.27645323
54	0x3eed1dca	0.4631179
55	0x3e5f8cf1	0.21831109
56	0x3e9522d1	0.29128125
57	0xbe996e6f	-0.29967067
58	0x3ce348db	0.027744701
59	0xbe1db864	-0.1540237
60	0xbbb73a5c	-0.005591674
61	0x3e7fda4c	0.24985617
62	0xbe2d96bc	-0.16952032
63	0xbda77d4b	-0.081781946
64	0x3ebb5024	0.3658458
65	0x3eec8ac0	0.46199608
66	0xbab89376	-0.0014082033
67	0x3db891e5	0.09012202
68	0xbdceeb26	-0.10103445
69	0x3e37f775	0.17965491
70	0x3d324d7d	0.04353093
71	0x3dcbf8d1	0.09959567
72	0xbdada72a	-0.0847915
73	0xbe48f4e1	-0.19624664
74	0x3e811dc8	0.25218034
75	0x3e811d9d	0.25217906
76	0x3daf8f72	0.08572282
77	0x3e85bef9	0.26122263
78	0x3e9ca9f2	0.30598408
79	0x3f05f1d2	0.52322114
80	0xbeab58c4	-0.3346616
81	0xbe58c5e7	-0.21169244
82	0x3e943ced	0.28952733
83	0x3eb7dee2	0.35912234
84	0xbe9e20a7	-0.30884287
85	0x3ba41351	0.0050071855
86	0x3cd389bb	0.025822511
87	0xbe50b4bd	-0.20381446
88	0xbeb07564	-0.34464562
89	0xbd87e202	-0.066349044
90	0xbcac6060	-0.021042049
91	0xbe52df34	-0.20592958
92	0xbe7be8e1	-0.24600555
93	0x3f20d6fa	0.6282803
94	0xbd9e5bc1	-0.077323444
95	0x3f04b60d	0.5184029
96	0xbe44d14d	-0.19220467
97	0xbeebab88	-0.46029305
98	0xbba68ac0	-0.0050824583
99	0xbe66f08d	-0.225527
100	0xbd1bced7	-0.038039055
101	0x3e9ad5c8	0.30241227
102	0x3e951bd0	0.29122782
103	0xbda626c5	-0.081128635
104	0x3d61f13b	0.055161696
105	0xbf17a139	-0.5923038
106	0xbdc898d4	-0.09794775
107	0xbe7ad63e	-0.2449579
108	0x3d5c81bf	0.053834673
109	0x3c1ab4f1	0.009442554
110	0x3dcc3d74	0.09972659
111	0xbe223837	-0.15841757
112	0xbc8845b3	-0.016634798
113	0x3ee1c283	0.44093713
114	0xbe2beb2b	-0.16788928
115	0x3e1bcf94	0.15215904
116	0x3edba4d9	0.42899206
117	0xbe060fc9	-0.13091959
118	0xbe43c374	-0.19117528
119	0xbea1112d	-0.31458417
120	0x3e034100	0.12817764
121	0xbe7e9e59	-0.24865092
122	0xbe000a25	-0.1250387
123	0xbed6ad06	-0.4192888
124	0x3ea31f16	0.31859654
125	0x3f0a5f0b	0.54051274
126	0xbd7cb0d5	-0.061692078
127	0xbecdf674	-0.4022709

VAE_Decoder.layers.0.linear1.weight f4 [4, 128]
0	0xbd69a1e1	-0.057039145
1	0x3e0915f9	0.13387288
2	0xbe3ef2d8	-0.18647325
3	0xbe83d326	-0.2574703
4	0xbb1d4a6f	-0.0024000665
5	0xbe8087d2	-0.25103623
6	0x3d99cfb6	0.07510321
7	0x3ea21bd1	0.31661847
8	0x3e203b75	0.15647681
9	0x3e348c06	0.1763154
10	0xbd845e50	-0.06463301
11	0x3e13eabe	0.14445016
12	0xbda519ef	-0.08061587
13	0xbdf9de6a	-0.12200625
14	0x3b91288b	0.004429882
15	0x3dd01e42	0.10162021
16	0xbd6d017b	-0.05786274
17	0x3ca7bbfc	0.02047538
18	0x3ea318d3	0.31854877
19	0x3cb7c801	0.022434236
20	0xbe935721	-0.28777412
21	0xbd32d9eb	-0.043664854
22	0xbd0e146b	-0.03468744
23	0xbdaf7237	-0.08566707
24	0xbdfdaa3d	-0.12385986
25	0xbdd035fc	-0.10166547
26	0x3d152549	0.03641251
27	0x3e227a2c	0.15866917
28	0x3f016903	0.5055086
29	0x3c7b3b4d	0.015333963
30	0xbcd29f6c	-0.025710784
31	0xbdc12691	-0.09431184
32	0xbe0c3c96	-0.13694987
33	0x3e2b2ef0	0.16717124
34	0xbcf95a0a	-0.030438442
35	0xbe214136	-0.15747532
36	0xbd0bfbf2	-0.03417582
37	0xbdd9fdc0	-0.10644102
38	0x3d92ede0	0.07174277
39	0xbe0a2262	-0.13489679
40	0xbdacddda	-0.08440752
41	0xbdb9045d	-0.09034035
42	0xbe59d010	-0.21270776
43	0xbd5347b9	-0.051582072
44	0x3ddc74f7	0.10764497
45	0x3c50d15d	0.012745229
46	0x3c485daa	0.0122293625
47	0xbd82ff92	-0.063964024
48	0x3e1651f6	0.14679703
49	0x3c8c1680	0.017100573
50	0xbe28337f	-0.16425894
51	0x3c92144d	0.017831946
52	0x3e6e0a42	0.232461
53	0x3cfb7d75	0.030699471
54	0x3db6ddb6	0.08929007
55	0xbd985b07	-0.07439237
56	0xbd9b9285	-0.07596306
57	0xbd5ea531	-0.054356758
58	0xbc9be486	-0.019029867
59	0x3e4536a4	0.19259125
60	0xbe4bdc3b	-0.1990823
61	0xbd542206	-0.05179026
62	0xbdc90c4b	-0.09816798
63	0xbcce25b1	-0.025164457
64	0xbdc7d1a1	-0.097567804
65	0x3dad7ede	0.084714636
66	0x3cc099be	0.02351081
67	0x3d83deef	0.064390056
68	0xbe3954db	-0.18098776
69	0x3e16223c	0.14661497
70	0xbdbeee2b	-0.09322771
71	0xbd9dcd14	-0.07705131
72	0x3d433953	0.04766209
73	0x3ebebb08	0.3725207
74	0x3e0b2e3e	0.13591859
75	0x3da29b09	0.07939727
76	0xbe2bf9cb	-0.16794507
77	0xbdeec127	-0.11657935
78	0xbe73284a	-0.23745838
79	0xbd7e1d38	-0.062039584
80	0x3c542a0d	0.012949479
81	0x3de7c181	0.11316205
82	0xbf0f14f0	-0.55891323
83	0x3d30802f	0.043090995
84	0x3f517de8	0.8183274
85	0xbe51906a	-0.20465246
86	0xbc83f585	-0.016108284
87	0x3cfbdbb6	0.030744415
88	0x3eb50829	0.35357788
89	0xbd8b049c	-0.067879885
90	0x3eabaebb	0.33531746
91	0xbe041878	-0.12899959
92	0x3b6e6de0	0.0036381409
93	0xbe52e36d	-0.20594569
94	0x3e48e10f	0.19617103
95	0x3e349bfb	0.17637627
96	0xbd799909	-0.06093696
97	0xbd8c4fd6	-0.06851165
98	0xbe62d373	-0.22150974
99	0x3d1bdad7	0.0380505
100	0xbda6c114	-0.081422955
101	0xbe2b5864	-0.16732937
102	0xbda327a8	-0.07966548
103	0x3dddef8f	0.10836708
104	0x3e3faeba	0.18718997
105	0xbdf7d284	-0.121006995
106	0x3d97571c	0.07389662
107	0xbd00a2ae	-0.031405143
108	0x3e4b53fb	0.19856255
109	0xbc586e04	-0.0132098235
110	0x3e905c90	0.2819562
111	0x3d741421	0.05958951
112	0x3d36b1a6	0.044603013
113	0x3de55371	0.11197556
114	0xbd64878c	-0.05579333
115	0xbe9244a5	-0.28567997
116	0x3e37b183	0.17938809
117	0x3de3482d	0.11097751
118	0xbe22b034	-0.15887529
119	0xbb40bbdf	-0.0029408855
120	0x3b5d037b	0.0033723998
121	0xbd1aaf74	-0.03776498
122	0x3dccfea8	0.10009509
123	0xbe9edfb1	-0.31030038
124	0xbe6fffc3	-0.23437409
125	0x3d95908c	0.07302961
126	0xbdb262c0	-0.08710241
127	0xbda74cbb	-0.08168932
128	0x3d9d23e0	0.07672858
129	0x3da8e3dc	0.08246586
130	0x3ddb4ad2	0.1070763
131	0x3dd1a1f2	0.10235967
132	0xbe6ee061	-0.23327781
133	0x3e22b76d	0.15890284
134	0xbd4f3ca0	-0.050594926
135	0xbb5afc3e	-0.0033414508
136	0x3e3fff87	0.1874982
137	0x3e246a39	0.16056146
138	0xbd998fc3	-0.074981235
139	0x3d70de97	0.05880603
140	0x3da56d66	0.08077507
141	0x3e0c589c	0.13705677
142	0xbe0da35f	-0.13831852
143	0x3e36f3e2	0.17866471
144	0x3e0d7e36	0.13817677
145	0x3bd57792	0.006514498
146	0xbc1ee30a	-0.009697685
147	0xbe7f8b88	-0.2495557
148	0x3e24955a	0.16072598
149	0x3e172327	0.14759503
150	0x3cd7b5c6	0.026331794
151	0xbdc5515f	-0.09634661
152	0xbe3a6358	-0.18201959
153	0xbe319624	-0.1734243
154	0xbdba77e3	-0.09104898
155	0x3d227911	0.03966624
156	0x3dd4c0e9	0.10388357
157	0xbc2cf39a	-0.010556126
158	0x3e1fc088	0.15600789
159	0x3d2ba02a	0.04190079
160	0xbd6df868	-0.058098227
161	0x3b935663	0.004496382
162	0x3e2246df	0.15847348
163	0xbe30ec80	-0.17277718
164	0x3e114edc	0.14190239
165	0xbde5a388	-0.11212832
166	0x3d27f9da	0.04100976
167	0x3d4d25c4	0.050084844
168	0xbdcc9572	-0.09989442
169	0xbbe4ef71	-0.0069865515
170	0x3d29a72b	0.04141919
171	0xbd9b051e	-0.075693354
172	0x3cb5303e	0.02211773
173	0x3c8a1d7c	0.016859762
174	0xbdb128a4	-0.0865033
175	0xbdb59e38	-0.088680685
176	0x3d838474	0.06421748
177	0xbf6796e1	-0.904646
178	0xbd61997a	-0.055078007
179	0xbcf31283	-0.029671913
180	0x3d8880bc	0.06665179
181	0x3d9a50cd	0.07534943
182	0x3d1b6f09	0.03794769
183	0x3e1ed391	0.15510394
184	0xbd97ef14	-0.074186474
185	0x3d0175b1	0.03160638
186	0x3d143bc7	0.03618982
187	0x3ce7706a	0.028251845
188	0x3d3e5e86	0.046476863
189	0x3dc48439	0.09595532
190	0xbe495c8d	-0.19664212
191	0xbda22ad5	-0.07918326
192	0x3e2eee28	0.17083037
193	0x3c9a69ae	0.01884922
194	0xbdb4c2d6	-0.088262245
195	0x3df6dee2	0.1205423
196	0x3de98922	0.11403109
197	0x3c886ba7	0.016652895
198	0xbde45bb1	-0.11150301
199	0xbe12ecdb	-0.14348166
200	0x3ddde5f4	0.10834876
201	0x3d7bf8c7	0.06151655
202	0x3cd86fbe	0.02642047
203	0xbd0f2a70	-0.03495258
204	0xbddc64f1	-0.107614405
205	0xbdbd1307	-0.09232145
206	0xbdd5059c	-0.104014605
207	0x3e33b2cb	0.17548673
208	0x3d840c5c	0.0644767
209	0x3d5023b3	0.050815295
210	0xbf3c08cd	-0.7345093
211	0x3e3f28c1	0.1866789
212	0x3f5c1b8e	0.85979545
213	0x3e1654d7	0.14680801
214	0xbe693899	-0.22775497
215	0xbd4e394e	-0.05034762
216	0x3e69720c	0.22797412
217	0xbd9d0ec8	-0.07668835
218	0x3ebceb61	0.3689833
219	0x3e200e04	0.15630347
220	0x3e1b5aae	0.1517131
221	0x3deb0417	0.114753895
222	0x3e03b9c4	0.12863833
223	0x3d513dde	0.05108439
224	0x3e05d52c	0.130696
225	0xbe071641	-0.13192083
226	0x3d9d0acf	0.07668077
227	0x3d24ca12	0.04023177
228	0x3daae2d9	0.08344049
229	0xbdbbe7c0	-0.09175062
230	0x3dbc09e9	0.09181578
231	0x3d935e51	0.07195724
232	0x3c03707b	0.008022423
233	0xbd46f81e	-0.048576467
234	0xbdbd7346	-0.09250502
235	0x3db61f87	0.08892732
236	0x3d18756a	0.03722135
237	0xbe04f1a7	-0.12982808
238	0x3dc5e6e2	0.09663178
239	0x3e65c37c	0.22437853
240	0xbe0a3c10	-0.13499475
241	0x3d839728	0.06425315
242	0xbe5604c3	-0.20900254
243	0x3d3fcf81	0.04682875
244	0x3e219063	0.15777735
245	0xbc98c89c	-0.018650346
246	0x3cd83ea9	0.026397066
247	0xbdd8c44c	-0.10584316
248	0xbde6afdb	-0.112640105
249	0xbd8b7a90	-0.06810486
250	0x3ce7da4e	0.028302338
251	0x3dee7e92	0.11645235
252	0x3db93db6	0.090449736
253	0xbd534926	-0.05158343
254	0xbdbe0c00	-0.092796326
255	0xbe837acc	-0.25679624

VAE_Decoder.layers.0.linear1.bias f4 [4]
0	0x3a4dc0c4	0.0007848854
1	0x3dc032ac	0.09384665
2	0xbdc00789	-0.09376437
3	0x3d18f8b3	0.037346553

VAE_Decoder.layers.0.norm1.weight f4 [4]
0	0x3fbb22bf	1.4619979
1	0x3faba16c	1.3408637
2	0x3fa16298	1.2608213
3	0x3f98d9ec	1.1941504

VAE_Decoder.layers.0.norm1.bias f4 [4]
0	0xbe030016	-0.12793002
1	0x3ea61438	0.324373
2	0x3e783a51	0.24240996
3	0xbdf5ce3d	-0.120022275

VAE_Decoder.layers.1.attention.W_q.weight f4 [4, 4]
0	0x3e909103	0.28235635
1	0xbcc13fba	-0.023589958
2	0x3e930ddd	0.28721514
3	0x3f0e525c	0.5559442
4	0x3e9e4a8a	0.30916244
5	0x3d307f69	0.043090258
6	0xbe0ed201	-0.13947298
7	0xbed179d0	-0.40913248
8	0x3ea05189	0.31312206
9	0x3ed2f26c	0.41200578
10	0x3d313045	0.043258924
11	0xbf132840	-0.5748329
12	0x3db1bbf3	0.086784266
13	0xbe0bae7c	-0.1364078
14	0x3f1f108d	0.6213463
15	0x3e61e7e7	0.2206112

VAE_Decoder.layers.1.attention.W_q.bias f4 [4]
0	0xbdcf8b8d	-0.10134039
1	0x3e1c6720	0.15273714
2	0xbbb890ea	-0.0056325095
3	0xbe4476ad	-0.19185896

VAE_Decoder.layers.1.attention.W_k.weight f4 [4, 4]
0	0x3f0fc72c	0.5616329
1	0xbee1e180	-0.44117355
2	0xbed289c1	-0.41120723
3	0xbe23c637	-0.15993582
4	0xbf01b915	-0.5067304
5	0x3d9be342	0.07611705
6	0xbdeeaec6	-0.11654429
7	0xbdd4c010	-0.103881955
8	0xbf091677	-0.53549904
9	0xbf008994	-0.5020993
10	0x3f0384b9	0.51374394
11	0xbea600b7	-0.3242242
12	0x3f43dd9b	0.7651002
13	0xbe4e1060	-0.20123434
14	0xbe6e7662	-0.23287347
15	0x3da4019c	0.080081195

VAE_Decoder.layers.1.attention.W_k.bias f4 [4]
0	0xb97c7706	-0.00024076932
1	0x392e185c	0.00016603008
2	0x3982820c	0.00024892425
3	0xb89dfd5a	-7.533534e-05

VAE_Decoder.layers.1.attention.W_v.weight f4 [4, 4]
0	0xbd9dcb22	-0.0770476
1	0xbe3763ac	-0.17909116
2	0x3e83083f	0.2559223
3	0xbeb3b5cf	-0.35099646
4	0xbe387318	-0.18012655
5	0x3da6f592	0.081523076
6	0x3e0fecb0	0.14055133
7	0x3e50a149	0.20374025
8	0x3e5df4f9	0.21675481
9	0x3f005662	0.5013181
10	0xbdd9ba90	-0.10631287
11	0x3ec3b54d	0.3822426
12	0xbe55cca9	-0.20878853
13	0x3dca494f	0.09877264
14	0xbe4986bb	-0.19680302
15	0xbd9d6813	-0.07685866

VAE_Decoder.layers.1.attention.W_v.bias f4 [4]
0	0xbcbde205	-0.023179064
1	0x3d605e8f	0.054777678
2	0xbce05548	-0.027384415
3	0xbaf85b55	-0.0018948118

VAE_Decoder.layers.1.linear0.weight f4 [128, 4]
0	0xbe706f35	-0.23479922
1	0xbf0d7de9	-0.5527025
2	0xbed52fc1	-0.41637996
3	0xbda94415	-0.08264939
4	0x3eea99bd	0.45820418
5	0x3f183f9d	0.59472066
6	0xbed8e25d	-0.423602
7	0xbe103e82	-0.14086345
8	0xbe47b29f	-0.19501732
9	0x3e8e52b9	0.27797487
10	0x3cb1f2d9	0.021722244
11	0x3ef15a19	0.47139052
12	0x3e6a7028	0.22894347
13	0x3edfe31e	0.43727964
14	0x3e96214d	0.2932228
15	0xbea1ed45	-0.31626335
16	0xbe67a120	-0.22620058
17	0xbe92f83f	-0.28705022
18	0xbe66e1a7	-0.22547017
19	0xbf16e384	-0.5894091
20	0x3eed2fd8	0.46325564
21	0xbc85f318	-0.016351268
22	0xbe5b4267	-0.21412049
23	0x3dba3f85	0.09094147
24	0x3d4326ab	0.0476443
25	0xbea0689e	-0.31329817
26	0xbe8f3000	-0.2796631
27	0x3f1e61e6	0.6186813
28	0x3e89de73	0.26927528
29	0xbf0a0e33	-0.53927916
30	0x3e4b1843	0.19833474
31	0x3ebe6d9f	0.3719301
32	0xbf3b7b9a	-0.73235476
33	0x3ed09082	0.4073525
34	0x3ecb1f44	0.3967229
35	0xbe7df4c5	-0.24800403
36	0x3e2076bc	0.15670294
37	0x3ec67112	0.3875814
38	0x3e880dc6	0.26573008
39	0xbf049c0c	-0.5180061
40	0x3ec57745	0.38567558
41	0xbea1a41d	-0.3157052
42	0xbdb5b381	-0.08872128
43	0x3dbac730	0.09120023
44	0xbbb00eb1	-0.005372845
45	0xbe8978cc	-0.26849973
46	0x3e8df5a9	0.27726486
47	0x3f06eb75	0.5270303
48	0xbc336d99	-0.010951423
49	0xbee53709	-0.4476855
50	0xbe7fcf33	-0.24981384
51	0x3de5628c	0.11200437
52	0xbddb1462	-0.10697247
53	0xbea1c9df	-0.31599328
54	0xbe48d77d	-0.19613452
55	0xbf053166	-0.520285
56	0xbe049fde	-0.1295161
57	0xbe7fddf4	-0.24987012
58	0xbe6407bb	-0.22268574
59	0xbef35870	-0.4752841
60	0x3eb3ec31	0.35141137
61	0xbbcbcde1	-0.006219611
62	0xbee59686	-0.44841403
63	0x3ee405db	0.44535717
64	0x3e910a63	0.28328237
65	0xbdf943e0	-0.12171149
66	0x3eed3026	0.46325797
67	0xbe5dd9f2	-0.21665171
68	0xbeafbfa5	-0.343259
69	0x3ebc8ecb	0.36827692
70	0xbed7408c	-0.42041433
71	0x3f0ed25f	0.5578975
72	0x3df894dc	0.12137768
73	0x3e5b84a5	0.21437319
74	0x3ec1f82f	0.37884662
75	0xbea2b5ff	-0.31779477
76	0xbf275dc8	-0.65377474
77	0xbe05c5d8	-0.13063753
78	0x3f4286b1	0.7598677
79	0x3f12603c	0.5717809
80	0x3ea02c13	0.31283626
81	0x3e0d271e	0.13784453
82	0xbecfa310	-0.40554094
83	0x3ec1a648	0.37822175
84	0x3e3c92c9	0.18415369
85	0x3f1471aa	0.5798594
86	0xbf02a175	-0.51027614
87	0x3e8aa1c2	0.27076536
88	0xbec3de36	-0.3825547
89	0x3f0d64af	0.55231756
90	0x3c515967	0.012777663
91	0xbf21d99c	-0.6322267
92	0xbe167052	-0.14691284
93	0xbeacf045	-0.3377706
94	0x3dbb77e9	0.091537304
95	0x3ed22f65	0.41051784
96	0x3e14b115	0.14520676
97	0x3e8719b1	0.26386788
98	0xbe772b12	-0.24137524
99	0x3f0e745f	0.5564632
100	0xbf337b53	-0.7011005
101	0x3eaceb4e	0.33773273
102	0x3ebd93d8	0.37026858
103	0x3e9bd192	0.30433327
104	0xbeb0524b	-0.34437785
105	0x3f0653ad	0.5247143
106	0xbe5cb642	-0.21553901
107	0x3d8640f1	0.06555355
108	0x3d28554c	0.04109697
109	0x3eae3f30	0.34032583
110	0x3e73ab7a	0.23795882
111	0xbebfa436	-0.3742997
112	0x3ec6795c	0.38764465
113	0xbe95ada9	-0.29234055
114	0x3ecebfd7	0.40380737
115	0x3ecb63b0	0.39724493
116	0xbec095a7	-0.37614176
117	0x3ef3dcc0	0.47629356
118	0xbc3123ba	-0.0108117405
119	0x3f4b98d1	0.79530054
120	0xbf891af9	-1.0711356
121	0x3fac80f9	1.3476859
122	0xbf6c13ea	-0.92217886
123	0x3f8f2ac5	1.1184927
124	0xbdbc3f6e	-0.09191786
125	0xbe5dbaf6	-0.21653351
126	0xbe89950f	-0.26871535
127	0x3f0e130f	0.5549783
128	0xbd6e5d44	-0.058194414
129	0xbe018324	-0.12647682
130	0xbe3d1079	-0.18463315
131	0xbf5b46f6	-0.8565515
132	0xbf1ecc09	-0.6203008
133	0x3dc5f76a	0.09666331
134	0x3f1897f8	0.59606886
135	0x3ea44895	0.32086626
136	0x3e469eb4	0.19396478
137	0x3ee4320e	0.4456944
138	0xbed05b99	-0.40694883
139	0xbf0323f7	-0.51226753
140	0xbed2d46c	-0.4117769
141	0x3decfe0f	0.11571895
142	0xbedbae6b	-0.42906508
143	0xbd96710b	-0.0734578
144	0xbe636048	-0.22204697
145	0x3e8e9697	0.27849266
146	0x3e91c6a2	0.28471857
147	0x3ede7de2	0.43455416
148	0x3e940730	0.28911734
149	0x3b8ac9e7	0.0042354944
150	0xbeeb928f	-0.46010253
151	0xbea3b240	-0.3197193
152	0x3e2c48ab	0.16824596
153	0xbe2d41b5	-0.16919596
154	0x3e89984c	0.26874006
155	0xbe221d3a	-0.15831462
156	0x3ef49351	0.47768643
157	0x3f11efcb	0.5700652
158	0xbcf789c7	-0.030217065
159	0x3e21ab38	0.15787971
160	0xbed8b0e6	-0.42322463
161	0x3f2e17de	0.6800517
162	0x3e11d9c0	0.14243221
163	0xbe814a60	-0.25252056
164	0xbd58fd98	-0.05297622
165	0x3dc64dbf	0.09682798
166	0xbf03c6e6	-0.5147537
167	0x3e455db2	0.19274023
168	0x3f0c7953	0.54872626
169	0xbee6680a	-0.4500125
170	0xbef878e5	-0.48529735
171	0xbe61585f	-0.22006367
172	0x3ebc1184	0.36732113
173	0x3d708068	0.058716208
174	0x3e861960	0.26191235
175	0x3f0c7997	0.5487303
176	0xbd07c6d8	-0.033148617
177	0x3f276bb0	0.65398693
178	0x3ec37050	0.38171625
179	0xbe56ba56	-0.20969519
180	0x3eb8cfb0	0.36095953
181	0x3f031b2d	0.5121334
182	0xbf1c8f77	-0.6115641
183	0xbed5fcee	-0.41794533
184	0xbe3f0a91	-0.18656375
185	0xbe670afc	-0.22562784
186	0xbea65004	-0.32482922
187	0x3e820f67	0.25402376
188	0xbe861226	-0.2618572
189	0xbd1cb8d6	-0.03826221
190	0xbdf4e189	-0.1195708
191	0x3f0804b2	0.53132164
192	0x3dfb6a5f	0.12276148
193	0xbeef3885	-0.46722808
194	0x3f38153f	0.7190742
195	0xbe56f060	-0.20990133
196	0x3f5260fb	0.8217923
197	0x3e227574	0.15865117
198	0xbf2507c6	-0.64464986
199	0x3ac5d018	0.0015091924
200	0xbc2e9fab	-0.010658185
201	0xbea9f4f5	-0.331947
202	0xbec362bd	-0.3816127
203	0xbd90885c	-0.070572585
204	0xbdefb4c2	-0.11704399
205	0xbd5a5b87	-0.053309944
206	0xbcee9309	-0.029122846
207	0xbef52dcc	-0.47886503
208	0x3ea61ab6	0.32442254
209	0x3efe8732	0.4971252
210	0xbf28ae07	-0.65890545
211	0xbdb0d56c	-0.08634457
212	0xbeb2983d	-0.34881774
213	0x3da2c093	0.07946887
214	0x3e30effd	0.17279048
215	0x3d806e06	0.06270985
216	0x3eea951d	0.4581689
217	0xbd57f662	-0.052725203
218	0x3c0da7b6	0.008645942
219	0x3ebc7469	0.36807564
220	0x3e33486f	0.175081
221	0x3eb8052a	0.3594144
222	0xbf01c949	-0.5069776
223	0x3ef0eb31	0.47054437
224	0x3ea92367	0.33034822
225	0x3d96df27	0.07366782
226	0x3cb3cfcb	0.02194967
227	0x3eed5fa9	0.46362045
228	0x3de50853	0.11183228
229	0x3e81eafe	0.25374597
230	0x3e00f6fa	0.12594214
231	0x3ecf8030	0.40527487
232	0xbead68c3	-0.3386899
233	0xbefeebcb	-0.4978927
234	0x3da0360f	0.07822811
235	0x3d97fd47	0.07421356
236	0x3e885727	0.26628992
237	0xbf0a07c8	-0.53918123
238	0x3eb9a5f6	0.3625943
239	0x3dbaaa5b	0.09114524
240	0x3ecef7b4	0.40423357
241	0xbe9a5045	-0.30139366
242	0xbf1e127b	-0.6174695
243	0x3df40ec3	0.11916878
244	0x3cb27f89	0.02178933
245	0x3e11228c	0.14173335
246	0xbe2a7fb1	-0.16650273
247	0x3e9f6ce5	0.31137767
248	0x3e5c9530	0.21541286
249	0x3e860e45	0.26182762
250	0xbece2193	-0.4025999
251	0xbf21f6ca	-0.63267195
252	0xbe557dcc	-0.20848769
253	0x3e95f1f3	0.29286155
254	0x3d4bdb03	0.049769413
255	0xbedffd92	-0.43748146

VAE_Decoder.layers.1.linear0.bias f4 [128]
0	0x3e0fb5ed	0.14034243
1	0x3cab8672	0.020938132
2	0x3ed87980	0.42280197
3	0x3f136922	0.57582295
4	0x3ed740cd	0.42041627
5	0xbe8f7daf	-0.28025576
6	0x3eaaca07	0.3335726
7	0x3ef7a39b	0.4836701
8	0xbe692dea	-0.22771421
9	0x3e227bb7	0.15867506
10	0xbe9ae401	-0.30252078
11	0xbe90d57d	-0.2828788
12	0xbef8218c	-0.48463094
13	0xbe5e8b3e	-0.21732804
14	0x3ed79e14	0.42112792
15	0x3ed6d590	0.4195981
16	0xbdbce158	-0.092226684
17	0xbea99d7c	-0.33127964
18	0x3f0d3f76	0.5517496
19	0x3e977830	0.29583883
20	0x3ef42aa8	0.47688794
21	0x3e29c5b6	0.16579327
22	0xbe9c67ad	-0.30547848
23	0x3e9c63ed	0.30544987
24	0x3e6b695d	0.22989412
25	0xbc97b24f	-0.018517641
26	0xbdd85f16	-0.10565011
27	0xbe764510	-0.24049783
28	0xbe8bf6a8	-0.2733662
29	0x3e54370c	0.20724124
30	0xbf45e262	-0.7729856
31	0x3dca6e2d	0.098842956
32	0x3d404dce	0.0469492
33	0xbe48db86	-0.19614992
34	0x3e694111	0.22778727
35	0x3ea0b1b5	0.3138558
36	0x3ef754bb	0.48306832
37	0x3d0e8c57	0.034801807
38	0x3cc13143	0.02358306
39	0x3decb003	0.11557009
40	0x3ed2d01c	0.411744
41	0xbe8bd6c9	-0.27312306
42	0xbde88935	-0.11354295
43	0xbe065fdc	-0.13122505
44	0xbed7a81e	-0.4212045
45	0xbedd2be4	-0.43197548
46	0x3dac280b	0.08406075
47	0xbec9f00e	-0.3944096
48	0x3e9b9332	0.3038574
49	0x3f27ef4e	0.65599525
50	0x3eaaaa22	0.33332926
51	0xbebef788	-0.37298226
52	0x3f123a22	0.57119954
53	0xbed2c21d	-0.41163722
54	0xbeb735be	-0.3578319
55	0xbd9defae	-0.07711731
56	0x3ed938bd	0.424261
57	0x3d8a092a	0.06740029
58	0x3ec4975e	0.38396734
59	0xbef71c3d	-0.48263732
60	0x3eef724f	0.46766898
61	0x3edabc3e	0.42721742
62	0x3e4dc63f	0.20095156
63	0xbe5dfb82	-0.21677974
64	0xbefb6f11	-0.49108174
65	0xbbd09ff9	-0.0063667265
66	0xbe428741	-0.18996908
67	0x3ef38d2e	0.4756865
68	0x3df772c1	0.120824344
69	0x3dd8385d	0.105576254
70	0xbdd57a18	-0.10423678
71	0xbe65f36d	-0.22456141
72	0xbec001f7	-0.375015
73	0x3dd8735c	0.10568878
74	0xbdaaf210	-0.08346951
75	0x3ebf7443	0.37393388
76	0xbe0e6b19	-0.13908042
77	0x3ede1eeb	0.43382964
78	0x3ed60019	0.4179695
79	0x3b53066f	0.003219988
80	0xbd88ceed	-0.06680093
81	0xbef7a4a4	-0.48367798
82	0x3d8e85ac	0.0695909
83	0xbe64159e	-0.22273871
84	0x3f00de6a	0.50339377
85	0xbe2e9663	-0.17049555
86	0x3ec232cc	0.3792938
87	0xbedf835b	-0.43654904
88	0x3e987b76	0.29781693
89	0x3e10bd59	0.1413473
90	0xbec28821	-0.37994483
91	0xbe00496f	-0.12528013
92	0xbc9841f6	-0.01858614
93	0xbebc726a	-0.3680604
94	0xbe042f0c	-0.12908572
95	0x3ec9bf52	0.39403778
96	0x3eabdc0d	0.33566323
97	0xbde8a43d	-0.11359451
98	0x3ebdd7ae	0.37078613
99	0x3e1eb7af	0.15499757
100	0x3f05edb2	0.5231582
101	0x3dbfef42	0.09371807
102	0xbea1dd91	-0.31614354
103	0x3e573780	0.21017265
104	0x3e033776	0.12814125
105	0x3eb76630	0.3582015
106	0x3eb74fbc	0.3580302
107	0x3e49dcb2	0.19713095
108	0xbbf48e9d	-0.00746329
109	0x3dd18394	0.10230175
110	0x3b7b5d21	0.003835507
111	0x3ea4bd39	0.32175615
112	0x3e933c48	0.28756928
113	0x3e9d30ed	0.3070139
114	0x3f05ad9e	0.52218044
115	0xbd684947	-0.056710508
116	0x3ef9e5e0	0.48808193
117	0x3e73a620	0.2379384
118	0x3edd62b4	0.43239367
119	0x3eb8a16f	0.36060664
120	0xbd88626e	-0.06659399
121	0x3e8e108d	0.27747002
122	0xbd974e98	-0.073880374
123	0x3f004f4c	0.50121
124	0xbe81f219	-0.25380018
125	0xbdabe274	-0.08392802
126	0x3ea86b26	0.32894248
127	0x3e8160ec	0.25269258

VAE_Decoder.layers.1.linear1.weight f4 [4, 128]
0	0xbdce0f95	-0.10061566
1	0x3e8c07ce	0.27349705
2	0xbca368b4	-0.019947387
3	0x3ce9d6bd	0.028544778
4	0x3d18d0e3	0.037308585
5	0x3c8a83c5	0.016908536
6	0x3d19f62b	0.03758828
7	0xbe022b2d	-0.12711783
8	0xbe3c4893	-0.1838706
9	0xbb7a717b	-0.0038214612
10	0x3e2993da	0.16560307
11	0xbe12bb42	-0.14329246
12	0x3d93c8cd	0.07216034
13	0x3d80fc70	0.06298149
14	0xbcdd5aec	-0.027020894
15	0x3e489193	0.19586782
16	0xbdafe8e4	-0.08589342
17	0x3c21674f	0.009851291
18	0xbda78ccb	-0.08181151
19	0xbe4d66fe	-0.2005882
20	0x3e6e2501	0.23256303
21	0x3e617555	0.22017415
22	0xbd8ed2ba	-0.06973787
23	0xbd30da19	-0.043176744
24	0x3dc8cce1	0.098047026
25	0xbe1c1824	-0.15243584
26	0x3d31b127	0.043381836
27	0x3c09d724	0.00841311
28	0x3d508209	0.05090526
29	0xbd26affc	-0.040695176
30	0xbf1cb0ad	-0.61207086
31	0xbdab82ce	-0.083745584
32	0x3d68b138	0.056809634
33	0xbe4987e4	-0.19680744
34	0x3db91924	0.09037998
35	0xbb3a9dbc	-0.0028475365
36	0xbe38b2ea	-0.18037
37	0x3e1ff5db	0.1562113
38	0xbd75c45d	-0.06000172
39	0x3e0f437f	0.13990591
40	0xbd347905	-0.044060726
41	0x3e2824ac	0.16420239
42	0x3e874f26	0.26427573
43	0x3d99d80e	0.07511912
44	0xbe448f06	-0.19195184
45	0x3e18e61d	0.14931531
46	0x3b8dda65	0.004329013
47	0xbd0e65b2	-0.034764953
48	0xbe0277fa	-0.1274108
49	0x3e60228f	0.21888183
50	0x3deeb4e2	0.116555944
51	0xbe4bd7d3	-0.19906549
52	0x3e0a751e	0.13521239
53	0xbc8a2e92	-0.01686791
54	0x3e20cfb6	0.15704235
55	0x3d8c310d	0.06845293
56	0x3d61ed80	0.05515814
57	0xbcfc77db	-0.03081887
58	0xbccf3d28	-0.025297716
59	0x3d43e795	0.047828276
60	0x3e8047a6	0.25054663
61	0xbc363b2c	-0.011122506
62	0x3d95027d	0.07275865
63	0xbe990335	-0.2988526
64	0x3dd64133	0.104616545
65	0x3d0daf3c	0.034590945
66	0xbda75822	-0.08171107
67	0xbdf00f5f	-0.11721682
68	0xbcf8070e	-0.030276801
69	0xbd5b57e9	-0.053550635
70	0xbd6cfe2c	-0.057859585
71	0x3e05b2fd	0.1305656
72	0x3d2d8766	0.042365454
73	0xbe998dd4	-0.2999102
74	0xbdc3cd3d	-0.095606305
75	0xbde46128	-0.111513436
76	0x3b2c8710	0.002632562
77	0x3db28500	0.08716774
78	0x3e13dad1	0.1443894
79	0xbe97c302	-0.29640967
80	0xbd2ec200	-0.04266548
81	0x3c49c785	0.012315636
82	0xbcfcad90	-0.03084448
83	0xbe48faba	-0.19626895
84	0xbcc94135	-0.024567226
85	0x3d89bf3f	0.067259304
86	0xbe010179	-0.12598218
87	0x3d2df0ec	0.04246609
88	0x3d5caa63	0.05387343
89	0x3ca7376b	0.020412168
90	0xbd5448f5	-0.05182739
91	0xbdbce2d3	-0.09222951
92	0x3d915ee8	0.0709818
93	0x3e91609a	0.28394014
94	0x3c954efc	0.01822614
95	0x3d825b46	0.06365065
96	0x3e2e1b68	0.17002642
97	0x3da460cd	0.08026276
98	0x3de75036	0.11294596
99	0x3de2d0ba	0.11074968
100	0x3db8b8e8	0.09019643
101	0x3e4eb075	0.201845
102	0xbdc81cba	-0.09771104
103	0x3e149f20	0.14513826
104	0x3df9a8d5	0.12190405
105	0xbb485b62	-0.0030572047
106	0xbe4e990f	-0.20175575
107	0xbce48588	-0.027895704
108	0x3d19e05f	0.037567493
109	0xbe2a87b0	-0.16653323
110	0xbe0433be	-0.12910363
111	0xbe447079	-0.1918353
112	0xbf94cc5e	-1.1624868
113	0xbc4bcf9e	-0.0124396365
114	0xbe243109	-0.1603433
115	0x3dbecab1	0.09316004
116	0x3dc3d034	0.09561196
117	0xbe1f6108	-0.15564358
118	0x3d9d415b	0.07678481
119	0x3f10682d	0.5640896
120	0xbdca07de	-0.09864782
121	0xbde22bae	-0.110434875
122	0x3f0aca54	0.5421498
123	0xbd33bf5f	-0.043883678
124	0x3ca5a120	0.020218432
125	0xbc862c61	-0.016378583
126	0x3d4f48ba	0.050606467
127	0x3e528d45	0.20561703
128	0xbe3310a2	-0.17486814
129	0x3efd0542	0.49418074
130	0x3c7273f9	0.014798158
131	0x3e0a5936	0.13510594
132	0x3d4c4ca7	0.04987779
133	0xbd6890b3	-0.05677862
134	0xbdd7cad6	-0.10536735
135	0xbdcb9892	-0.0994121
136	0x3dfdc9af	0.12391984
137	0x3e46b836	0.19406208
138	0xbe56ee41	-0.20989324
139	0xbda845ab	-0.08216413
140	0xbe175626	-0.14778957
141	0x3dee0de9	0.11623747
142	0x3dc5b2ed	0.09653268
143	0xbded08fa	-0.11573978
144	0x3d9af4ac	0.07566199
145	0xbd8aaf20	-0.06771684
146	0x3dffe994	0.12495723
147	0xbde45814	-0.11149612
148	0xbdaac47d	-0.083382584
149	0x3dbc8e21	0.092067964
150	0x3df0b1ed	0.11752687
151	0xbe29014c	-0.16504401
152	0xbd89d36c	-0.06729779
153	0x3d919d5c	0.07110092
154	0x3e2731cb	0.16327588
155	0x3e6cb609	0.23116316
156	0xbe30405e	-0.17212054
157	0x3e0fca0c	0.14041919
158	0x3fe30824	1.7736859
159	0xbda99734	-0.08280793
160	0x3cab5151	0.020912798
161	0xbe408381	-0.18800165
162	0x3e564618	0.20925176
163	0x3dc77fff	0.0974121
164	0xbd42a740	-0.047522783
165	0x3d9d8c18	0.076927364
166	0x3d03f5fe	0.03221702
167	0x3e850acf	0.2598481
168	0x3e10d4d1	0.14143683
169	0xbd658bb6	-0.05604144
170	0xbd76cbeb	-0.060253065
171	0xbe03c936	-0.12869725
172	0x3e40b76c	0.1881997
173	0x3da41734	0.08012238
174	0x3cb85bc4	0.022504695
175	0xbdc201b4	-0.09472981
176	0xbd3688f3	-0.0445642
177	0x3d174a24	0.03693594
178	0xbd8e56a6	-0.06950121
179	0x3e9a16af	0.3009543
180	0x3e06c121	0.1315961
181	0xbd69a261	-0.057039622
182	0xbe33e98c	-0.1756956
183	0xbd770dfa	-0.060316063
184	0xbe198ab2	-0.14994314
185	0x3d4d636d	0.050143648
186	0xbe0933e4	-0.13398701
187	0xbe91b99f	-0.2846193
188	0xbd850311	-0.064947255
189	0xbc1873af	-0.009304925
190	0x3d4112d4	0.047137097
191	0x3e883e24	0.2660991
192	0x3db68d16	0.08913629
193	0xbe484c6b	-0.19560401
194	0x3c2ddd71	0.010611878
195	0xbd99fb7c	-0.0751867
196	0x3e29a0cf	0.1656525
197	0xbdaf77b6	-0.08567755
198	0x3c12bccc	0.0089561455
199	0x3d35090f	0.044198092
200	0x3e69468d	0.22780819
201	0x3c401d2f	0.011725708
202	0xbcf1888b	-0.029484054
203	0x3e12b9b2	0.1432865
204	0x3bf7c854	0.007561723
205	0xbc4d2cea	-0.012522915
206	0x3d76f2af	0.060290035
207	0xbd62a965	-0.05533733
208	0x3e375cac	0.17906445
209	0xbd89aa4c	-0.06721935
210	0xbe0d85a7	-0.13820516
211	0xbccdd777	-0.025127156
212	0xbd34f05a	-0.04417453
213	0x3df5584f	0.11979734
214	0xbd963b64	-0.073355466
215	0x3ddd50a0	0.108063936
216	0x3e28045d	0.16407914
217	0x3e452697	0.19253002
218	0x3d1f269c	0.03885518
219	0xbf16a7d4	-0.58849835
220	0x3d9f4cee	0.07778345
221	0xbdac9788	-0.0842734
222	0xbdd8856c	-0.10572323
223	0xbdec8404	-0.115486175
224	0x3e972f89	0.29528454
225	0xbe206b2d	-0.15665884
226	0xbdb93d6e	-0.0904492
227	0xbb1249ad	-0.0022321746
228	0x3dc2fb5c	0.09520599
229	0xbd88d931	-0.06682051
230	0x3e619b4f	0.22031902
231	0xbcfb0254	-0.030640759
232	0x3db5b15e	0.08871721
233	0xbd793e68	-0.06085053
234	0x3c8d375b	0.01723831
235	0xbd9471ed	-0.07248292
236	0xbd635bd6	-0.055507503
237	0xbe9fb4bd	-0.3119258
238	0xbd45c898	-0.048287004
239	0x3e03ad0b	0.1285898
240	0xbeebb9e6	-0.46040267
241	0x3e4557f1	0.19271828
242	0x3ca12bc5	0.019674191
243	0x3e4a6e2c	0.1976859
244	0x3d638d6e	0.0555548
245	0x3e2ee892	0.17080906
246	0x3d9f6b49	0.07784135
247	0xbf83dc13	-1.0301536
248	0x3da3b68c	0.079938024
249	0x3e37429b	0.17896502
250	0xbfb8edec	-1.4447608
251	0x3d5c5e15	0.05380066
252	0xbeb67efc	-0.35643756
253	0x3d078c61	0.03309286
254	0xbc8a5da9	-0.016890364
255	0x3d8792c4	0.0661979

VAE_Decoder.layers.1.linear1.bias f4 [4]
0	0xbd82fcf4	-0.06395903
1	0xbca155d4	-0.019694246
2	0x3af58e80	0.0018734485
3	0x3d9c91cc	0.07644996

VAE_Decoder.layers.1.norm1.weight f4 [4]
0	0x3fafeabc	1.374351
1	0x3fb1faba	1.3904641
2	0x3fa7cf05	1.3110052
3	0x3f98da23	1.194157

VAE_Decoder.layers.1.norm1.bias f4 [4]
0	0xbd58127f	-0.052752014
1	0x3d20a493	0.03921945
2	0x3c8e98b1	0.017406793
3	0x3c930deb	0.017950973

VAE_Decoder.layers.1.norm0.weight f4 [4]
0	0x3f8647b1	1.0490628
1	0x3f6a451e	0.91511714
2	0x3f7143e8	0.9424424
3	0x3f814094	1.0097833

VAE_Decoder.layers.1.norm0.bias f4 [4]
0	0xbd7c7ddf	-0.061643478
1	0xbbeca541	-0.0072218482
2	0xbc0c0b42	-0.008547606
3	0xbc938204	-0.018006332

VAE_Decoder.last_normalization.weight f4 [4]
0	0x3f800000	1.0
1	0x3f800000	1.0
2	0x3f800000	1.0
3	0x3f800000	1.0

VAE_Decoder.last_normalization.bias f4 [4]
0	0x00000000	0.0
1	0x00000000	0.0
2	0x00000000	0.0
3	0x00000000	0.0

VAE_Decoder.head.weight f4 [4, 4]
0	0x3d7ed7d0	0.062217534
1	0xbce2efe0	-0.027702272
2	0x3e50757c	0.20357317
3	0x3e3d7d94	0.18504936
4	0xbe9bf21e	-0.30458158
5	0xbe2f64ac	-0.17128247
6	0x3ed8d660	0.42351055
7	0xbd78ae60	-0.060713172
8	0x3ef56588	0.47929025
9	0xbdbcbf38	-0.092161596
10	0xbc630f40	-0.013858616
11	0x3e18536c	0.14875573
12	0x3e43b728	0.19112837
13	0xbe0e9e08	-0.13927472
14	0x3e9b489a	0.30328828
15	0xbe902434	-0.2815262

VAE_Decoder.head.bias f4 [4]
0	0x3d099710	0.03359133
1	0xbebf413c	-0.37354457
2	0x3e8c5178	0.27405906
3	0xbef870dc	-0.48523605

Detokenizer.weight f4 [10, 4]
0	0x3e9913c8	0.29897904
1	0x3d11208d	0.035431433
2	0x3ea4363e	0.32072634
3	0xbdb23fff	-0.087036125
4	0xbe7b037d	-0.2451305
5	0xbe20eb86	-0.15714845
6	0xbe558a34	-0.20853502
7	0xbe3eacb9	-0.18620576
8	0x3ebc6712	0.36797386
9	0xbe9a48fb	-0.30133805
10	0x3e29dd3c	0.165883
11	0xbe8e5181	-0.27796558
12	0x3ddab511	0.10679067
13	0x3d7bb920	0.061455846
14	0x3ebcbe67	0.36864015
15	0xbe823894	-0.2543379
16	0x3e31bc94	0.17357093
17	0x3e2d0205	0.16895302
18	0x3e75fb40	0.24021626
19	0xbe4c839c	-0.1997208
20	0xbe4d01d4	-0.20020229
21	0xbe3708af	-0.17874406
22	0xbed554b9	-0.416662
23	0x3c466592	0.012109177
24	0x3e98cc86	0.2984354
25	0x3e069685	0.13143356
26	0x3eb3fdac	0.35154474
27	0x3c4e2350	0.012581661
28	0xbe6656d0	-0.22494054
29	0xbe097f0a	-0.13427368
30	0xbe9c2ec8	-0.3050444
31	0x3e7c135d	0.24616762
32	0x3e4e3228	0.2013632
33	0xbe4a2549	-0.19740786
34	0x3e04b0c8	0.12958062
35	0xbba4d36c	-0.0050300863
36	0xbe80c951	-0.25153592
37	0xbd9039bb	-0.07042261
38	0xbea4cc2c	-0.3218702
39	0x3e822701	0.25420383

Detokenizer.cat_recons.0.weight f4 [2, 4]
0	0x3e9a317e	0.30115885
1	0x3f1c8341	0.6113778
2	0xbe728f84	-0.2368756
3	0x3d9a5d06	0.07537274
4	0xbf1ccb51	-0.61247736
5	0xbe5829a3	-0.21109633
6	0xbe865b12	-0.26241356
7	0x3eff7a84	0.4989816

Detokenizer.cat_recons.0.bias f4 [2]
0	0x3d9c1266	0.07620697
1	0xbebac872	-0.36481053

Detokenizer.cat_recons.1.weight f4 [10, 4]
0	0x3ea76d95	0.32700792
1	0xbf0fb3f7	-0.5613398
2	0xbf272b4a	-0.6530043
3	0xbea9d251	-0.3316827
4	0xbf145ad1	-0.57951075
5	0xbf0cd4fb	-0.5501248
6	0xbf008990	-0.50209904
7	0x3e3af31c	0.18256801
8	0xbe9de291	-0.3083692
9	0xbeda9ac4	-0.42696202
10	0x3f31199f	0.6917972
11	0xbefb7007	-0.49108908
12	0xbe864a17	-0.262284
13	0x3f0c256e	0.54744613
14	0xbe89bf07	-0.26903555
15	0x3f83ef9b	1.0307497
16	0x3f87e314	1.0616174
17	0xbecbd993	-0.39814433
18	0xbe000369	-0.12501301
19	0x3f087a0f	0.53311247
20	0x3f530337	0.8242678
21	0x3edbbf1b	0.4291924
22	0xbeb38859	-0.35064963
23	0xbd997987	-0.074938826
24	0xbea4459b	-0.32084355
25	0x3dc665b6	0.096873686
26	0x3f4dd002	0.8039552
27	0x3f5a0003	0.8515627
28	0xbe14b42d	-0.14521857
29	0x3f25ce51	0.6476794
30	0xbed51622	-0.41618448
31	0xbf1a2abe	-0.6022147
32	0xbe6a5e96	-0.22887644
33	0xbe008b15	-0.12553056
34	0xbd8cf701	-0.0688305
35	0xbf8f10f9	-1.1177055
36	0x3eba09db	0.36335644
37	0x3cb2e46f	0.021837441
38	0xbf30be86	-0.69040716
39	0xbf5dc740	-0.86632156

Detokenizer.cat_recons.1.bias f4 [10]
0	0x3e70b443	0.23506264
1	0xbd720c9a	-0.05909405
2	0xbecfc17e	-0.4057731
3	0xbe3285a8	-0.17433798
4	0xbda84df2	-0.08217992
5	0xbea93233	-0.3304611
6	0x3d06ffa7	0.032958653
7	0x3e06f823	0.13180594
8	0x3ebd3e34	0.3696152
9	0xbf214cd5	-0.6300786

Detokenizer.cat_recons.2.weight f4 [8, 4]
0	0xbe1fdd8f	-0.15611862
1	0x3edf0312	0.4355703
2	0xbdb82bd2	-0.08992733
3	0xbf02f8ba	-0.51160777
4	0xbeaf9a0b	-0.34297213
5	0xbef5f04a	-0.48034889
6	0xbe456de7	-0.19280206
7	0xbe866bee	-0.2625422
8	0xbdedbea2	-0.11608626
9	0xbc805234	-0.015664198
10	0x3f3a5be1	0.72796446
11	0x3f126ffd	0.5720213
12	0xbe602164	-0.21887738
13	0xbea4fa72	-0.32222325
14	0x3f88df8f	1.0693225
15	0xbed13e1e	-0.40867704
16	0x3e2bfb48	0.16795075
17	0x3da5547d	0.080727555
18	0xbf251dfd	-0.64498883
19	0xbd8adaa6	-0.06779985
20	0x3e1bafb2	0.15203741
21	0x3e4f3521	0.20235111
22	0xbd1e125d	-0.03859173
23	0x3ec384d4	0.38187277
24	0x3ea13719	0.3148735
25	0xbe59afe0	-0.21258497
26	0x3e850326	0.25978965
27	0x3ef450f9	0.47718027
28	0x3f0b8bb5	0.5451005
29	0xbea5ab5e	-0.32357305
30	0x3e8ce6c8	0.27519822
31	0xbf80267f	-1.0011748

Detokenizer.cat_recons.2.bias f4 [8]
0	0xbe5d9030	-0.21637034
1	0x3efd9991	0.49531224
2	0x3c01eac2	0.007929506
3	0xbf2be5ec	-0.6714771
4	0xbdb123a7	-0.08649378
5	0x3de42cbe	0.111413464
6	0x3e8aa672	0.27080113
7	0xbe8ea347	-0.27858946

Detokenizer.cat_recons.3.weight f4 [13, 4]
0	0x3ed6fec0	0.41991234
1	0x3e9b94fa	0.30387098
2	0x3f03e353	0.51518744
3	0x3f59c59d	0.8506716
4	0xbde3ae2a	-0.111172035
5	0x3efb3d89	0.49070385
6	0x3f342b3e	0.7037848
7	0x3e75f882	0.2402058
8	0xbe278085	-0.1635762
9	0x3ed1a8dc	0.40949142
10	0xbe5e3206	-0.2169877
11	0xbf15c26f	-0.5849981
12	0xbda272d9	-0.07932062
13	0xbeb84081	-0.35986713
14	0xbf20fd42	-0.6288644
15	0xbf430052	-0.76172364
16	0xbe9310da	-0.28723794
17	0xbf066f40	-0.52513504
18	0x3f4631aa	0.7741953
19	0x3eaa9f87	0.33324835
20	0x3f077da1	0.5292607
21	0xbdf325e6	-0.11872463
22	0xbf13233a	-0.57475626
23	0x3ecf07d1	0.4043565
24	0xbc82daa5	-0.015973398
25	0xbf1b0293	-0.605508
26	0xbf2dacaa	-0.6784159
27	0x3d0c9f46	0.034331582
28	0x3f15744a	0.5838057
29	0xbd34906b	-0.04408304
30	0xbeb92432	-0.36160427
31	0xbf2f1d39	-0.68403965
32	0xbdbd55a1	-0.09244848
33	0x3daa779e	0.083235964
34	0x3f287193	0.657983
35	0xbefb1e76	-0.49046677
36	0x3f0a34ac	0.5398662
37	0x3f03c63a	0.51474345
38	0x3dba4245	0.09094671
39	0x3c912797	0.017719073
40	0xbecd114f	-0.40052268
41	0xbddcb8fe	-0.10777472
42	0xbda4ea62	-0.080525175
43	0xbeef4909	-0.4673541
44	0xbe9d264f	-0.3069329
45	0xbf4102e5	-0.7539504
46	0xbd3cd836	-0.046104632
47	0x3d55b97d	0.05217885
48	0xbe658c6c	-0.22416848
49	0xbef2ee72	-0.47447544
50	0xbe590927	-0.21194898
51	0x3f54de03	0.83151263

Detokenizer.cat_recons.3.bias f4 [13]
0	0xbe986396	-0.29763478
1	0x3d8718cc	0.065965265
2	0xbe462205	-0.19348915
3	0xbec9a0d9	-0.3938053
4	0x3d6502a2	0.055910714
5	0x3eb43b04	0.35201275
6	0x3eabfa43	0.33589372
7	0xbf445ebd	-0.7670706
8	0xbe99149c	-0.29898536
9	0x3eb9430a	0.3618396
10	0x3ddc6f2e	0.10763393
11	0xbeea0730	-0.4570861
12	0xbef95d23	-0.4870387

Detokenizer.cat_recons.4.weight f4 [9, 4]
0	0x3e4a46e9	0.19753613
1	0xbe4cedec	-0.20012635
2	0xbf0bd6d9	-0.54624707
3	0xbf034631	-0.5127898
4	0x3f268a5f	0.6505489
5	0x3e863558	0.26212573
6	0x3ca83e12	0.02053741
7	0x3e79f76d	0.24410792
8	0xbe886b9d	-0.26644602
9	0x3eb656c5	0.35613075
10	0x3d9ea31c	0.077459544
11	0x3f31a845	0.69397384
12	0xbecce8ae	-0.4002127
13	0x3f077eee	0.52928054
14	0xbc20ae4c	-0.009807181
15	0xbef5e227	-0.48024103
16	0xbeeae8ef	-0.4588084
17	0xbf2a2ff2	-0.6647941
18	0xbc8a5e47	-0.016890658
19	0x3edc0782	0.42974478
20	0xbec8d2b7	-0.39223263
21	0xbf3480db	-0.7050912
22	0x3e062021	0.13098194
23	0xbf1f30c7	-0.62183803
24	0xbead493a	-0.3384493
25	0xbda931c6	-0.08261447
26	0x3f4d17d6	0.80114496
27	0xbe8bb7e7	-0.27288744
28	0x3e178cc2	0.14799789
29	0xbf68f0ed	-0.90992624
30	0xbe9ab48a	-0.30215865
31	0xbcf571c6	-0.029961478
32	0x3d708c71	0.058727685
33	0xbcc533fc	-0.02407264
34	0xbf13e51f	-0.57771486
35	0x3f6861fc	0.9077451

Detokenizer.cat_recons.4.bias f4 [9]
0	0x3f0a2bdd	0.5397318
1	0xbe4603aa	-0.19337335
2	0x3d38343a	0.044971682
3	0xbeb0b526	-0.34513205
4	0x3da5aa17	0.08089083
5	0xbe53f960	-0.20700598
6	0x3ef19c48	0.47189546
7	0xbda24325	-0.07922963
8	0xbdf3cd57	-0.119044

Detokenizer.cat_recons.5.weight f4 [20, 4]
0	0xbeb3887c	-0.35065067
1	0x3e82c2e9	0.2553933
2	0x3f4df594	0.8045285
3	0xbecd4e49	-0.4009879
4	0xbcc3206f	-0.023819176
5	0x3ea1ba72	0.3158756
6	0x3ec1f000	0.37878418
7	0x3f261358	0.64873266
8	0xbd87c315	-0.06629006
9	0xbf7ad911	-0.9798747
10	0xbf76b946	-0.96376455
11	0xbddf431f	-0.10901474
12	0x3f302c6f	0.688178
13	0x3ec2ffa3	0.3808566
14	0x3ce488f9	0.027897345
15	0xbf0a1f19	-0.539537
16	0xbf2fe040	-0.68701553
17	0xbc956c4b	-0.018240115
18	0xbe1f0acc	-0.15531462
19	0xbf86ff12	-1.0546591
20	0xbf1e3716	-0.61802804
21	0xbe880bb2	-0.26571423
22	0x3dc02d58	0.09383649
23	0x3f36ba63	0.71378154
24	0x3f2d39a5	0.67666084
25	0xbf088d2d	-0.5334042
26	0xbee8f4bb	-0.45499215
27	0xbf2e3303	-0.6804659
28	0xbe015883	-0.12631421
29	0xbf100675	-0.5625985
30	0xbf05a685	-0.52207214
31	0x3f7fa3b8	0.9985919
32	0x3ef1c760	0.47222424
33	0xbd1ec5d1	-0.03876287
34	0xbd951e0a	-0.0728112
35	0x3f5c1b16	0.8597883
36	0xbf310cc0	-0.6916008
37	0xbf4d830b	-0.8027808
38	0xbe7cc400	-0.24684143
39	0xbf2688a7	-0.65052265
40	0xbf07a819	-0.5299087
41	0xbf7214b6	-0.9456285
42	0xbe8c29cb	-0.27375636
43	0x3ec3d2b6	0.38246697
44	0x3f346de4	0.7048018
45	0x3d779df6	0.060453378
46	0xbe3b6fd9	-0.18304385
47	0x3eaa04a6	0.3320667
48	0x3f1d0ae3	0.61344737
49	0xbf0c94ec	-0.54914737
50	0xbf661e99	-0.8989044
51	0x3ecb7044	0.3973409
52	0x3e02bed8	0.12768114
53	0x3d94e82f	0.07270848
54	0xbebc8d24	-0.36826432
55	0xbf880222	-1.0625651
56	0xbbbf0b8c	-0.005830234
57	0x3f1ff7fc	0.6248777
58	0x3e20a556	0.1568807
59	0xbe0754c3	-0.13215928
60	0x3f0efb94	0.5585263
61	0x3e9935fe	0.29924005
62	0x3e2f94e4	0.17146641
63	0x3ea0bb0c	0.31392705
64	0x3ecaeab2	0.39632183
65	0x3ea4ff46	0.32226008
66	0x3d3168c5	0.043312807
67	0x3ebb6f22	0.36608225
68	0xbe6f2d27	-0.23357068
69	0x3efacae6	0.48982924
70	0xbe9610e7	-0.2930977
71	0xbf405524	-0.75129914
72	0x3cdf12cb	0.02723064
73	0xbf1c5125	-0.61061317
74	0xbe9c3325	-0.3050777
75	0xbf865458	-1.049449
76	0xbe89172c	-0.2677549
77	0xbf3c9463	-0.7366392
78	0x3f8dc276	1.107497
79	0xbee8fc19	-0.45504835

Detokenizer.cat_recons.5.bias f4 [20]
0	0x3f220ccf	0.63300794
1	0x3e6b5d1b	0.22984736
2	0xbec21f38	-0.37914443
3	0x3d0e5f73	0.034758996
4	0x3e58583e	0.21127412
5	0xbdcd7a28	-0.10033065
6	0xbc924057	-0.017852945
7	0x3e3ca2b1	0.18421437
8	0x3d4fd75e	0.0507425
9	0xbeb0bbbf	-0.3451824
10	0x3d838e07	0.06423574
11	0xbe9f4131	-0.31104425
12	0xbddb2d98	-0.10702056
13	0xbec358d0	-0.38153696
14	0x3c1eb5bf	0.009686886
15	0x3e6b7e76	0.2299746
16	0x3c1a784d	0.009428096
17	0xbec2e176	-0.38062638
18	0x3e29329a	0.16523209
19	0x3d3e5d25	0.04647555

Detokenizer.cat_recons.6.weight f4 [3, 4]
0	0x3e9a9056	0.30188245
1	0xbf4cab16	-0.79948556
2	0x3f0c6727	0.548449
3	0xbed0278b	-0.4065517
4	0xbf0e6889	-0.5562826
5	0x3f321256	0.6955923
6	0x3eb15d01	0.3464127
7	0xbf04b71f	-0.5184192
8	0x3f41a9c4	0.75649667
9	0x3b99b1fe	0.004690408
10	0x3ecd2f9f	0.40075395
11	0xbebd4f4f	-0.3697457

Detokenizer.cat_recons.6.bias f4 [3]
0	0xbdf38b82	-0.118918434
1	0xbec6c2c4	-0.3882047
2	0x3e45843a	0.19288722

Detokenizer.cat_recons.7.weight f4 [2, 4]
0	0xbee3ceb3	-0.44493636
1	0xbf10a8b4	-0.5650742
2	0x3e0f23f8	0.13978565
3	0x3f0bbfb6	0.545894
4	0xbd5d992d	-0.054101158
5	0x3e49f3a0	0.19721842
6	0xbf151562	-0.5823575
7	0xbde7542c	-0.112953514

Detokenizer.cat_recons.7.bias f4 [2]
0	0xbc6cf36c	-0.014462333
1	0x3eb9f347	0.36318418
