tabsyn/vae/ckpt/shoppers/encoder.pt (torch, 22911 bytes, 33 tensors)

Tokenizer.weight f4 [11, 4]
0.071495235 0.1814332 -0.180515 -0.41153172 0.42958638 0.37326726 0.032561496 -0.13286428
-0.46943358 -0.29198343 -0.23156978 -0.19678158 0.3058281 -0.12809534 0.057143897 -0.36411285
0.010960656 0.17547625 0.29854044 0.023002408 0.086186774 0.07014306 -0.028938277 -0.4145151
-0.012500163 -0.2464002 -0.18559329 0.09394504 -0.11395647 0.44154423 -0.16167402 -0.2916172
-0.17051327 -0.24380618 -0.035210177 0.2896428 -0.048481993 -0.43638453 -0.3326167 0.116193995
-0.30393225 0.18275431 -0.1522473 0.4316652
00000000: 186c 923d a0c9 393e edd8 38be 49b4 d2be
00000010: bff2 db3e e31c bf3e 345f 053d 930d 08be
00000020: 9959 f0be da7e 95be a120 6dbe 1c81 49be
00000030: 8095 9c3e 6d2b 03be b80f 6a3d 006d babe
00000040: 5394 333c 0cb0 333e 4bda 983e 8c6f bc3c
00000050: b182 b03d 2aa7 8f3d f70f edbc 533b d4be
00000060: 7ccd 4cbc 5650 7cbe 2b0c 3ebe 4266 c03d
00000070: 0262 e9bd 1612 e23e e08d 25be da4e 95be
00000080: 089b 2ebe 54a8 79be 8c38 10bd 104c 943e
00000090: 0e95 46bd cb6d dfbe bc4c aabe 1ef7 ed3d
000000a0: 029d 9bbe f223 3b3e b7e6 1bbe 3903 dd3e

Tokenizer.bias f4 [18, 4]
0.47005287 0.30287406 -0.5227563 0.16592398 -0.13047503 0.28228238 0.29090938 -0.3159206
0.13647965 0.31662187 0.10878039 -0.5975063 0.343392 -0.33727825 0.10610981 -0.016999414
-0.5538591 -0.008024486 0.6865985 0.17583221 0.6620312 0.050525203 -0.4181999 -0.48328114
-0.07168355 0.31364247 0.35881233 0.042682443 -0.30196157 0.5511311 0.5655436 0.18102379
-0.008771036 -0.11073403 0.2101632 -0.20319287 0.022266934 0.5612217 0.36910903 0.2617316
-0.013996874 0.079830825 -0.17661206 0.2572104 -0.11145063 -0.06868312 0.05581363 -0.05862664
-0.09096102 0.19892408 0.24245156 0.3353114 -0.10647902 0.30617464 -0.35360917 0.123564504
-0.15284237 -0.13156962 -0.07466047 0.016302953 0.15276286 0.2351976 -0.2159623 0.3296867
0.02716323 -0.2950596 0.1713813 0.037578672 -0.1814386 -0.27792987 0.21160127 -0.04690215
00000000: c5aa f03e 4f12 9b3e 5bd3 05bf fae7 293e
00000010: 3f9b 05be 5187 903e 13f2 943e 58c0 a1be
00000020: 52c1 0b3e 431c a23e 41c8 de3d 2cf6 18bf
00000030: 14d1 af3e bcaf acbe 1a50 d93d 5b42 8bbc
00000040: b6c9 0dbf 2279 03bc ebc4 2f3f 5c0d 343e
00000050: e07a 293f 84f3 4e3d 4c1e d6be a070 f7be
00000060: d3ce 92bd bf95 a03e 40b6 b73e c9d3 2e3d
00000070: b59a 9abe ee16 0d3f 77c7 103f 4d5e 393e
00000080: 64b4 0fbc 86c8 e2bd 0635 573e cb11 50be
00000090: 2569 b63c 3aac 0f3f dcfb bc3e af01 863e
000000a0: 2553 65bc 587e a33d cbd9 34be 15b1 833e
000000b0: 3a40 e4bd bca9 8cbd d59c 643d 7d22 70bd
000000c0: c549 babd c1b2 4b3e 3945 783e f0ad ab3e
000000d0: ac11 dabd ecc2 9c3e 430c b5be 630f fd3d
000000e0: b682 1cbe 30ba 06be 97e7 98bd c58d 853c
000000f0: de6d 1c3e a4d7 703e 3925 5dbe b2cc a83e
00000100: 6c85 de3c 0d12 97be 947e 2f3e 18ec 193d
00000110: 0acb 39be d34c 8ebe 01ae 583e 781c 40bd

Tokenizer.category_embeddings.weight f4 [67, 4]
0.24503025 0.40273118 -0.2703351 -0.34492096 -0.119296186 -0.2527653 -0.30901104 -0.015328446
-0.25119725 -0.64010984 -0.6660414 0.22021008 -0.55598015 -0.1534223 -0.73169917 0.6454384
-0.5256643 -0.09596359 0.09182776 0.3172157 0.20838197 0.2108052 0.08286574 -0.3741852
0.772825 0.15550126 -0.07272236 0.38784924 0.24653505 -0.28494722 0.0918829 -0.4520412
-0.060171463 0.7438099 0.20771365 -0.19651972 -0.16789046 -0.4536516 0.08529431 -0.2788492
-0.13100712 -0.14329875 0.1532648 0.4771219 -0.018058801 -0.68351525 -0.05659151 -0.037713744
0.13937783 -0.23190002 0.104760244 -0.23646723 -0.081875086 -0.13654393 -0.3163768 0.65289724
0.20190619 0.47955206 -0.16186763 -0.5461967 -0.3405639 0.19266802 0.24439165 0.34444922
0.18831268 -0.36671326 -0.32640082 -0.6214288 0.28728032 0.226814 -0.1605668 -0.8858429
0.63803977 0.23380937 -0.07251588 0.34596682 0.18624167 -0.8151879 -0.11244242 -0.040148154
0.18887982 0.11483983 0.23803462 -0.34304774 -0.14166194 0.4111367 0.029431075 -0.32366353
-0.46095118 -0.5510098 -0.3907019 -0.40667674 -0.065111294 -0.26719528 0.1360133 0.104881644
-0.5801767 0.097279906 0.51382774 0.23830946 0.44585514 -0.36876917 0.10647284 -0.20167723
-0.17213051 -0.7637404 -0.24649864 0.22904314 0.09025772 -1.2000434 0.42810816 -0.5366132
-0.21312183 -0.12744646 0.061473984 -0.13077222 0.023985647 -0.52469015 0.36427346 -0.9028022
-0.3668282 -0.0951541 -0.3091539 0.23733325 -0.2258159 -0.11831612 0.08552803 0.5625192
0.19676588 -0.14511716 -0.021166747 0.4453444 0.22153665 -0.5172348 0.29212576 -0.01803455
0.30749527 0.11954726 0.27245176 -0.17750734 0.23698315 0.30497026 0.2313966 -0.3489082
0.14373448 -0.037660778 0.40368935 -0.04180181 -0.033071898 0.4014195 -0.58216846 0.5132138
-0.43857032 -0.27077496 0.037984602 0.3866098 -0.4230614 0.28987357 -0.026635543 -0.30179262
-0.20811437 -0.41403043 -0.5233817 -0.0069658305 0.19047044 0.12594394 -0.44787732 -0.0928431
-0.04399879 -0.0399751 0.6427175 -0.26760134 -0.17785043 0.5395441 0.032078445 -0.6669718
-0.19200732 -0.28355083 0.23267463 0.5993503 0.20176913 -0.22399548 0.76457405 -0.07081856
-0.18244226 0.22627461 0.15661621 0.12896112 -0.08003831 0.4033679 -0.3166673 0.23861185
0.9915525 -0.7984862 0.9412606 0.0055256877 -0.15980776 -0.38512522 -0.5272193 -0.15457039
0.38582858 1.0562872 -0.34706545 0.2794541 -0.5087629 -0.20784079 -0.028794618 0.021969108
-0.42244852 0.20952643 -0.23065814 0.72380596 0.0912448 -0.12788202 0.3064204 -0.53186005
0.37682042 -0.3034785 0.066370755 -0.17625049 -0.17491966 -0.9319609 0.5913214 -0.24097492
-0.15877415 -0.21445581 0.43872902 -0.9839523 -0.086030535 0.11937208 -0.10622835 -0.055957537
-0.042010937 0.076011345 0.0015534614 -0.043051094 -0.36173886 -0.74877024 0.47158244 -0.47802848
-0.09819348 -0.81948644 0.72877884 0.5686944 -0.99083924 0.20780598 0.4745401 0.2449399
-0.3836217 -0.27894485 -0.17362121 0.70921385 0.039360903 0.79988974 -0.24056083 0.36092636
00000000: 36e9 7a3e c832 ce3e 5d69 8abe 7b99 b0be
00000010: 8f51 f4bd 746a 81be b236 9ebe 2a24 7bbc
00000020: ed9c 80be 3dde 23bf b081 2abf c07e 613e
00000030: b754 0ebf bc1a 1dbe a350 3bbf 733b 253f
00000040: f091 06bf 8f88 c4bd 3110 bc3d 196a a23e
00000050: 1562 553e 51dd 573e 83b5 a93d 3495 bfbe
00000060: dcd7 453f b93b 1f3e 76ef 94bd 2d94 c63e
00000070: af73 7c3e 9ae4 91be 1a2d bc3d f271 e7be
00000080: 5a76 76bd 536a 3e3f e3b2 543e 773c 49be
00000090: 7aeb 2bbe 0645 e8be c8ae ae3d 53c5 8ebe
000000a0: bb26 06be e8bc 12be 73f1 1c3e 5249 f43e
000000b0: 0df0 93bc dbfa 2ebf 80cc 67bd ba79 1abd
000000c0: 10b9 0e3e 3377 6dbe 8a8c d63d 7724 72be
000000d0: 20ae a7bd 2cd2 0bbe 24fc a1be 4624 273f
000000e0: 7fc0 4e3e d987 f53e a1c0 25be 8cd3 0bbf
000000f0: 645e aebe c44a 453e ce41 7a3e a65b b03e
00000100: 0ad5 403e d7c1 bbbe 021e a7be f515 1fbf
00000110: 6816 933e ee41 683e a06b 24be 9ac6 62bf
00000120: 9356 233f b96b 6f3e 3583 94bd 9022 b13e
00000130: 23b6 3e3e 27b0 50bf 3648 e6bd 6472 24bd
00000140: b669 413e 2531 eb3d 59bf 733e f4a3 afbe
00000150: d40f 11be 8280 d23e 7019 f13c 3ab7 a5be
00000160: cb01 ecbe fa0e 0dbf 140a c8be ef37 d0be
00000170: 1259 85bd d2cd 88be 1247 0b3e 30cc d63d
00000180: 7686 14bf b03a c73d 378a 033f 6507 743e
00000190: 2047 e43e 50cf bcbe 6f0e da3d 7a84 4ebe
000001a0: fb42 30be 7e84 43bf 246a 7cbe 498a 6a3e
000001b0: 0ad9 b83d 069b 99bf fe30 db3e 7c5f 09bf
000001c0: 9c3c 5abe 5381 02be 25cc 7b3d 27e9 05be
000001d0: 8c7d c43c 1852 06bf 0d82 ba3e 0c1e 67bf
000001e0: e8d0 bbbe 27e0 c2bd 6c49 9ebe 7d07 733e
000001f0: 493c 67be b94f f2bd 5229 af3d 4201 103f
00000200: ff7c 493e 9899 14be e365 adbc 2e04 e43e
00000210: 81da 623e 8069 04bf 8291 953e 31bd 93bc
00000220: 0570 9d3e 32d5 f43d cc7e 8b3e 7cc4 35be
00000230: b6ab 723e 1025 9c3e 3bf3 6c3e 18a4 b2be
00000240: 222f 133e 3042 1abd 5fb0 ce3e 6038 2bbd
00000250: 6676 07bd db86 cd3e fe08 15bf fb61 033f
00000260: 4a8c e0be 04a3 8abe be95 1b3d b8f1 c53e
00000270: 819b d8be 4f6a 943e c832 dabc 9084 9abe
00000280: ef1b 55be ccfb d3be 58fc 05bf 9f41 e4bb
00000290: af0a 433e 73f7 003e 2d50 e5be 8624 bebd
000002a0: 1338 34bd eebc 23bd 2289 243f 0b03 89be
000002b0: 6c1e 36be 901f 0a3f b064 033d aabe 2abf
000002c0: 919d 44be 932d 91be 4242 6e3e 056f 193f
000002d0: 919c 4e3e 125f 65be 20bb 433f 5209 91bd
000002e0: 25d2 3abe 88b4 673e 0060 203e 620e 043e
000002f0: 20eb a3bd 3d86 ce3e 3722 a2be aa56 743e
00000300: 62d6 7d3f 9769 4cbf 74f6 703f d410 b53b
00000310: a5a4 23be 222f c5be d8f7 06bf b347 1ebe
00000320: 538b c53e 6b34 873f 90b2 b1be 9c14 8f3e
00000330: 493e 02bf 37d4 54be b1e2 ebbc 8ff8 b33c
00000340: 2c4b d8be 198e 563e a631 6cbe 594b 393f
00000350: 8ede ba3d 81f3 02be 22e3 9c3e fb27 08bf
00000360: 9bee c03e 8961 9bbe 64ed 873d 027b 34be
00000370: 241e 33be fd94 6ebf d760 173f 21c2 76be
00000380: b195 22be 4e9a 5bbe 17a1 e03e 4ce4 7bbf
00000390: c730 b0bd 5979 f43d 408e d9bd bb33 65bd
000003a0: a913 2cbd d6ab 9b3d 849d cb3a 5856 30bd
000003b0: d635 b9be 68af 3fbf 4173 f13e 26c0 f4be
000003c0: aa19 c9bd ddc9 51bf 4091 3a3f f595 113f
000003d0: a4a7 7dbf 17cb 543e ecf6 f23e 86d1 7a3e
000003e0: 106a c4be dcd1 8ebe c2c9 31be 0a8f 353f
000003f0: e638 213d 93c5 4c3f 9455 76be 57cb b83e

VAE_Encoder.layers.0.attention.W_q.weight f4 [4, 4]
-0.2259222 -0.1669577 0.122483835 -0.27631527 -0.2925233 0.23362096 -0.34813517 -0.11574538
0.0653245 -0.40691286 0.46854055 -0.18123724 -0.12547705 -0.112755574 0.27389652 -0.2388086
00000000: 2658 67be f6f6 2abe ced8 fa3d 3279 8dbe
00000010: 9dc5 95be 553a 6f3e c63e b2be ea0b edbd
00000020: dac8 853d e256 d0be 8ce4 ef3e 4196 39be
00000030: 0e7d 00be 65ec e6bd 2a3c 8c3e 3e8a 74be

VAE_Encoder.layers.0.attention.W_q.bias f4 [4]
0.1476727 0.10582984 0.061608244 0.12419896
00000000: 8337 173e 51bd d83d ed58 7c3d 065c fe3d

VAE_Encoder.layers.0.attention.W_k.weight f4 [4, 4]
-0.4266598 -0.16142595 -0.46080145 -0.09296625 -0.106539816 0.13717641 -0.23567921 -0.32850012
-0.41719458 0.039510395 0.21712124 -0.030073844 0.34965736 -0.46811014 -0.2948951 -0.46200714
00000000: 2773 dabe d84c 25be 2bee ebbe 1765 bebd
00000010: 8c31 dabd f977 0c3e e455 71be 2b31 a8be
00000020: 879a d5be a7d5 213d 0855 5e3e 6c5d f6bc
00000030: 4a06 b33e 22ac efbe 7efc 96be 338c ecbe

VAE_Encoder.layers.0.attention.W_k.bias f4 [4]
-7.506085e-05 0.0010981971 -0.00047304612 0.00014961173
00000000: fd69 9db8 61f1 8f3a 2d03 f8b9 18e1 1c39

VAE_Encoder.layers.0.attention.W_v.weight f4 [4, 4]
0.09123754 0.09756462 0.0086507 0.24975929 0.09078221 0.11774031 -0.03938549 0.23619595
0.0858094 0.12674825 -0.013495042 0.24624658 0.08525501 0.13771611 -0.009700421 0.29877567
00000000: bfda ba3d f6cf c73d aabb 0d3c e6c0 7f3e
00000010: 06ec b93d d521 f13d ae52 21bd 5add 713e
00000020: d7bc af3d 4bca 013e 4f1a 5dbc 1028 7c3e
00000030: 2e9a ae3d 7405 0d3e 84ee 1ebc 20f9 983e

VAE_Encoder.layers.0.attention.W_v.bias f4 [4]
0.003358839 -0.056544762 0.06450194 -0.117695
00000000: f81f 5c3b 7b9b 67bd 9819 843d 130a f1bd

VAE_Encoder.layers.0.linear0.weight f4 [128, 4]
0.25513482 -0.30316666 0.30748463 0.34220687 -0.2593771 -0.47608906 -0.5188738 -0.15358493
0.35501528 0.28263727 -0.117381684 -0.4005814 -0.13460009 0.10380379 -0.1707913 -0.09281814
-0.09968668 -0.14999475 -0.26811996 -0.41747758 -0.16905464 -0.07993762 -0.16574624 0.28909492
-0.20120832 0.075791806 -0.31017524 0.22563617 0.38319734 -0.35773316 0.052937772 -0.08747243
-0.18173873 -0.036423676 0.12657297 0.3594403 0.4726836 0.32225862 0.16089182 0.26569128
-0.32515672 0.18330096 -0.53856933 0.06408634 0.14511393 -0.18836415 0.2642425 0.28151023
0.47119474 -0.18623325 0.054172844 0.2816965 -0.45874122 -0.13506624 -0.44889396 0.5073091
0.5617171 -0.56394005 0.088034175 -0.05093988 0.19660099 -0.23407735 -0.21015906 -0.5349258
-0.61607516 0.42507058 -0.1328664 -0.3057498 -0.038655657 0.19006139 -0.30682698 0.17267598
-0.03678104 0.076844715 0.16740593 0.44483995 -0.36024353 0.3165396 -0.03198305 -0.3460988
0.16602589 0.306152 0.28052548 0.29238358 0.5002855 -0.37763909 0.36779767 0.12977548
-0.035462257 0.19650944 0.14380312 0.090496816 0.3460254 0.4780021 -0.0013960027 0.051593114
0.19736268 -0.039592214 0.4062938 0.3338359 0.12869175 0.35932803 0.4095879 -0.44688264
-0.21371163 -0.5158948 0.029748598 -0.01323209 0.09462425 0.4359644 -0.3310286 -0.08593899
0.34678534 -0.4683697 -0.5035317 0.43328223 0.45940158 -0.23744632 -0.4188622 0.43886825
0.058445677 -0.28295106 -0.308689 -0.1691003 0.2152221 0.24653026 -0.16874425 -0.2624171
0.4507258 0.30469683 -0.37960085 0.060777992 -0.2044719 -0.46012592 -0.30138874 0.067636594
-0.08601054 0.1457977 -0.36593923 -0.29894108 -0.31553292 -0.3266131 0.4801349 -0.115235485
-0.47099182 0.28050506 0.6225539 0.22752415 0.3176255 0.2347245 0.523389 -0.08974176
-0.42660773 0.18729873 0.32880533 0.13594757 -0.40416065 0.23057051 0.30342323 0.06597807
-0.109730974 0.40706405 0.09062123 -0.09009648 -0.25461784 -0.28165355 -0.2499236 -0.13032635
0.06942283 -0.014352413 -0.23331866 -0.100537956 0.04765198 0.6083614 -0.41704637 0.5673353
0.32470232 -0.046303753 -0.17353097 -0.16618992 -0.46953893 0.034906853 -0.050120547 0.3276648
-0.33678138 0.3618329 0.32867637 0.21112424 0.29349312 0.41219553 -0.21925737 0.016410045
-0.5270484 0.45493641 0.4423722 0.03214604 -0.07270049 0.20815484 -0.34369764 0.32642502
0.5098795 0.06497752 -0.2733829 -0.0875989 -0.36161545 -0.29642153 -0.12851371 0.34286729
-0.64005494 -0.30888754 0.15800974 0.10206173 -0.4742435 0.116492726 0.011676972 -0.031611044
0.19611916 0.40132564 -0.33718473 -0.1289441 0.00037785334 -0.025848603 0.10827214 -0.33445713
0.2652134 -0.5191139 0.2579557 0.027847538 -0.14779875 0.26362264 -0.30203608 -0.26480785
0.14865324 -0.22629541 -0.2534277 -0.35019174 -0.41201878 -0.20130223 0.21568136 -0.48373604
0.4471906 -0.32472262 0.24527134 -0.33735514 -0.30019587 -0.21099533 -0.21339214 -0.3768403
0.41888738 0.21936771 -0.39502597 -0.2813666 0.16485156 0.32820863 -0.34311423 -0.29976925
00000000: 08a1 823e a938 9bbe a06e 9d3e bd35 af3e
00000010: 13cd 84be f2c1 f3be ead4 04bf 5e45 1dbe
00000020: 90c4 b53e d5b5 903e cf65 f0bd 0119 cdbe
00000030: 9bd4 09be 1597 d43d eae3 2ebe 7017 bebd
00000040: 8828 ccbd 3998 19be 0547 89be 9fbf d5be
00000050: a91c 2dbe 56b6 a3bd 62b9 29be 4004 943e
00000060: 8e09 4ebe bc38 9b3d 4acf 9ebe 2b0d 673e
00000070: 7132 c43e cd28 b7be 47d5 583d bf24 b3bd
00000080: b819 3abe fe30 15bd 589c 013e 8f08 b83e
00000090: 9603 f23e 15ff a43e d3c0 243e b008 883e
000000a0: f17a a6be 3fb3 3b3e aedf 09bf b33f 833d
000000b0: bf98 143e 88e2 40be cb4a 873e 1c22 903e
000000c0: 7040 f13e eeb3 3ebe 58e4 5d3d 863a 903e
000000d0: 21e0 eabe ce4e 0abe 6ed5 e5be 02df 013f
000000e0: b1cc 0f3f 605e 10bf 434b b43d 56a6 50bd
000000f0: c551 493e f9b1 6fbe f033 57be e6f0 08bf
00000100: 1ab7 1dbf daa2 d93e 210e 08be 3d8b 9cbe
00000110: 6555 1ebd 749f 423e 6d18 9dbe f9d1 303e
00000120: b7a7 16bd c360 9d3d 766c 2b3e 10c2 e33e
00000130: d771 b8be 7a11 a23e a900 03bd dd33 b1be
00000140: b102 2a3e f4bf 9c3e 09a1 8f3e 4db3 953e
00000150: b612 003f e959 c1be fa4f bc3e dde3 043e
00000160: df40 11bd c539 493e 2041 133e 6556 b93d
00000170: 3e2a b13e b1bc f43e 14fa b6ba 4d53 533d
00000180: 7119 4a3e 722b 22bd be05 d03e 8aec aa3e
00000190: c5c7 033e d8f9 b73e 81b5 d13e cdcd e4be
000001a0: 39d7 5abe ae11 04bf 55b3 f33c 68cb 58bc
000001b0: 5cca c13d ba36 df3e 957c a9be c800 b0bd
000001c0: d98d b13e 27ce efbe 74e7 00bf 2bd7 dd3e
000001d0: af36 eb3e 2125 73be 1b75 d6be 57b3 e03e
000001e0: bc64 6f3d f6de 90be 7c0c 9ebe a128 2dbe
000001f0: 2f63 5c3e 6e72 7c3e 4bcb 2cbe 895b 86be
00000200: 88c5 e63e 3901 9c3e 0b5b c2be 58f2 783d
00000210: 1561 51be a095 ebbe a04f 9abe 0e85 8a3d
00000220: 4b26 b0bd fe4b 153e 635c bbbe ce0e 99be
00000230: 888d a1be d539 a7be 3ed4 f53e 9500 ecbd
00000240: d725 f1be 5c9e 8f3e b15f 1f3f 17fc 683e
00000250: cf9f a23e 9f5b 703e d2fc 053f 87ca b7bd
00000260: 546c dabe 3dcb 3f3e 2c59 a83e d735 0b3e
00000270: 25ee cebe ad1a 6c3e 4a5a 9b3e 831f 873d
00000280: a2ba e0bd b36a d03e a097 b93d 8184 b8bd
00000290: 455d 82be e534 90be f9eb 7fbe 4574 05be
000002a0: 8f2d 8e3d 6226 6bbc 16eb 6ebe d8e6 cdbd
000002b0: b92e 433d 93bd 1b3f 1a87 d5be e33c 113f
000002c0: 623f a63e 01a9 3dbd 1ab2 31be b12d 2abe
000002d0: 6867 f0be 7dfa 0e3d 344b 4dbd aec3 a73e
000002e0: 9c6e acbe 2942 b93e 4548 a83e f430 583e
000002f0: bb44 963e 4b0b d33e 0185 60be 5c6e 863c
00000300: a5ec 06bf 6ded e83e 9c7e e23e 91ab 033d
00000310: ffe3 94bd 8b26 553e 23f9 afbe 2e21 a73e
00000320: 7787 023f ef12 853d d8f8 8bbe 0d67 b3bd
00000330: a925 b9be 90c4 97be 1999 03be 4d8c af3e
00000340: a4da 23bf 8226 9ebe 4ecd 213e be05 d13d
00000350: 0bd0 f2be bd93 ee3d c550 3f3c 957a 01bd
00000360: 76d3 483e 8e7a cd3e 7aa3 acbe ec09 04be
00000370: 9e1a c639 73c0 d3bc c9bd dd3d f73d abbe
00000380: 0dca 873e a6e4 04bf c512 843e 8520 e43c
00000390: 8e58 17be 8cf9 863e 79a4 9abe e594 87be
000003a0: 8e38 183e fcb9 67be 47c1 81be 554c b3be
000003b0: 20f4 d2be 2c22 4ebe 93db 5c3e 40ac f7be
000003c0: 2bf6 e43e 0b42 a6be 6928 7b3e d0b9 acbe
000003d0: 46b3 99be 290f 58be 7883 5abe 36f1 c0be
000003e0: 6878 d63e eea1 603e d840 cabe 480f 90be
000003f0: d9ce 283e f60a a83e abac afbe 5b7b 99be

VAE_Encoder.layers.0.linear0.bias f4 [128]
-0.1277145 0.3422554 0.116034046 -0.46497014 0.2730307 -0.3551262 -0.39532727 -0.08468782
0.18829577 0.5170138 -0.46215624 0.32499912 0.26923507 -0.14817181 -0.2387497 -0.06056236
-0.27383456 -0.2598389 0.1659324 -0.33987764 -0.26164225 -0.34986812 0.23066434 -0.13409165
-0.11602148 0.14695518 -0.16184415 -0.017501341 -0.013265224 0.16192207 -0.30848646 0.33092156
0.40689442 0.33979928 0.3948832 0.45581496 -0.16726859 -0.14553072 -0.28029618 -0.32666874
0.56468886 -0.2982794 -0.37639704 -0.47472155 0.13166 0.09460098 0.28720558 -0.26732463
0.45301157 0.47687173 0.21114562 0.08714189 0.10395936 -0.16780686 0.005953125 0.35396278
0.4279116 0.12833114 0.14869697 -0.5594466 -0.4047302 0.060640723 0.09097933 -0.24493876
-0.23704913 0.18413454 -0.19523074 0.25652385 0.32782462 0.24445137 -0.09841465 -0.060732163
0.48831522 0.092934035 -0.2637967 0.49568757 0.30880848 0.15011843 -0.2882093 0.33111098
-0.31183946 -0.3824432 -0.39526358 0.48898932 0.4644766 -0.30897626 0.01893391 -0.20814683
-0.30321118 -0.33789444 -0.26446462 -0.3006011 -0.4008384 0.28139532 -0.108389564 0.4852512
-0.21576221 -0.26497197 0.30054104 -0.17426084 -0.0284025 0.25776654 -0.37781715 -0.02301106
0.16551886 0.20043415 -0.1851489 0.29088688 0.40192753 -0.46983603 -0.00043510238 0.041400854
0.48840263 -0.025663292 -0.20067565 -0.028646415 -0.37377352 -0.43513128 0.13395552 -0.108488604
0.2363006 -0.1863781 -0.32531676 -0.23813953 0.17021638 0.38361588 0.43377885 0.08593688
00000000: 97c7 02be 1a3c af3e 42a3 ed3d 9110 eebe
00000010: aeca 8b3e 1ad3 b5be 5668 cabe cf70 adbd
00000020: 9bd0 403e 045b 043f be9f ecbe 4966 a63e
00000030: 2ed9 893e 5aba 17be cd7a 74be 3d10 78bd
00000040: 0b34 8cbe 9b09 85be 2fea 293e 7104 aebe
00000050: f9f5 85be ea21 b3be 4633 6c3e 524f 09be
00000060: ab9c edbd 6b7b 163e 79ba 25be f95e 8fbc
00000070: 6256 59bc e6ce 253e f0f1 9dbe 8d6e a93e
00000080: 7754 d03e 2cfa ad3e 212e ca3e 9460 e93e
00000090: 7548 2bbe 0106 15be fb82 8fbe 2041 a7be
000000a0: 738f 103f 14b8 98be 1db7 c0be b40e f3be
000000b0: e1d1 063e 29be c13d 9c0c 933e c6de 88be
000000c0: 22f1 e73e 8828 f43e 8f36 583e 7277 b23d
000000d0: a5e8 d43d 90d5 2bbe 6f12 c33b 9c3a b53e
000000e0: 3b17 db3e 3d69 033e 0544 183e e437 0fbf
000000f0: cc38 cfbe 6862 783d 5f53 ba3d 3ad1 7abe
00000100: 02bd 72be c48d 3c3e 91ea 47be 1857 833e
00000110: a1d8 a73e 7651 7a3e 9f8d c9bd 4ac2 78bd
00000120: 7404 fa3e 3354 be3d 5c10 87be c3ca fd3e
00000130: 251c 9e3e a5b8 193e 2b90 93be 6187 a93e
00000140: 6ca9 9fbe 98cf c3be fd5f cabe cf5c fa3e
00000150: e0cf ed3e 2332 9ebe 4a1b 9b3c 7124 55be
00000160: 7f3e 9bbe 8000 adbe e867 87be 63e8 99be
00000170: b13a cdbe 0c13 903e 59fb ddbd d872 f83e
00000180: c5f0 5cbe 68aa 87be 84e0 993e 6f71 32be
00000190: 5cac e8bc faf9 833e 4071 c1be b181 bcbc
000001a0: c77d 293e 9c3e 4d3e ac97 3dbe 20ef 943e
000001b0: 72c9 cd3e 598e f0be 741e e4b9 f193 293d
000001c0: e90f fa3e d33b d2bc eb7d 4dbe e3ab eabc
000001d0: 3e5f bfbe 87c9 debe a32b 093e 462f debd
000001e0: c9f8 713e e7d9 3ebe eb8f a6be d9da 73be
000001f0: 344d 2e3e 4d69 c43e 4318 de3e adff af3d

VAE_Encoder.layers.0.linear1.weight f4 [4, 128]
0.11664166 0.05287884 -0.008431579 0.025144137 0.0349781 0.08655336 -0.0575606 -0.027184516
-0.008911006 0.07561316 -0.020557338 0.04509916 0.08327824 -0.045813374 0.0796503 -0.011045879
0.2704275 0.041905086 -0.10145279 -0.016626151 -0.05266889 0.062453266 -0.019911053 0.1590381
0.08834761 -0.045351636 0.030562978 -0.005155608 -0.09943984 -0.071674086 -0.05373275 -0.0616525
-0.05951002 0.065950565 -0.01198617 -0.0041010557 -0.04148851 0.046409577 -0.09290582 0.046326157
-0.097908854 -0.030145077 -0.093692966 -0.3107561 0.110802345 -0.10398021 -0.027922675 0.07360665
-0.023388745 -0.015499351 -0.013569467 0.0019348745 0.023326358 0.07011067 0.07105273 0.046502758
0.0327282 0.19302912 0.12436593 0.42469212 0.1203917 0.0031257712 0.040273797 0.15512781
-0.09227137 -0.07576686 0.049485214 -0.011546267 0.033146333 -0.061126146 -0.0293653 -0.11375309
-0.12262204 0.09219408 0.018218871 -0.044491395 -0.07832482 0.029522557 0.004869496 0.006418838
0.052701652 -0.045510214 0.05979674 0.087245025 -0.002156558 -0.056810323 -0.10009475 -0.101849966
0.08100586 0.08500992 -0.0021815505 0.040724806 0.12712364 -0.069540456 0.08775377 -0.06448448
0.081798606 0.15889777 -0.033343174 0.09481931 0.07477637 0.006124367 0.09423637 0.068439476
-0.046051156 0.15158595 -0.030235384 -0.11323788 0.02934093 -0.04857613 0.0008031067 -0.06897234
-0.05805911 -0.018983701 0.106769845 -0.11783091 -0.11696236 0.027576018 0.020167647 -0.047274806
0.070996836 0.07843858 0.104745165 -0.061819248 -0.0154978195 0.019422203 -0.01325774 0.017027058
-0.024895057 -0.12938598 -0.022117618 0.041796483 -0.04275695 -0.020474939 -0.006699348 -0.07627465
-0.004298263 0.048369747 0.07642185 -0.099683784 -0.05186094 -0.09511051 -0.01240176 0.028811164
0.0087353615 -0.017682668 -0.13583794 0.05072378 0.018974546 -0.10454282 -0.020127255 0.1611548
0.066849545 0.10232496 0.088175714 0.13920408 -0.020750204 0.025863284 0.012110799 0.010647977
0.064456746 -0.11018888 0.06121793 -0.031929955 -0.02321918 0.08029688 -0.016998138 0.0055599897
-0.055685434 0.05609759 -0.07967806 0.12363581 0.07006397 -0.0845099 0.004110854 0.13032474
-0.07593747 -0.15180372 0.0018905905 -0.0067200493 -0.08576755 -0.0037477086 0.043465737 0.10347864
0.03741923 -0.025546867 -0.09973328 -0.08207962 0.04172487 0.12481777 0.09793393 0.07368899
0.08929466 0.041090135 -0.08987042 -0.14595048 -0.10303986 0.0043860427 0.122993305 0.13977967
0.11946972 0.0036680598 -0.004257306 0.03080036 0.06889933 -0.021571193 0.11006952 -0.0065052398
-0.11295031 0.00081582635 -0.06157563 0.026515935 -0.06796803 -0.014056273 0.012042264 0.09087577
0.07248874 0.031506613 0.017091593 0.106288105 -0.00689944 -0.026697172 0.039595548 -0.018058259
0.09912572 0.14021407 0.034249328 0.14985037 0.112912364 0.05596988 0.09116551 0.08371787
0.080875166 0.027534874 0.0049969517 0.041040294 -0.05888318 0.033213012 0.051035624 0.07020228
-0.0064334315 -0.012880715 -0.10980286 0.08967581 -0.012113739 -0.0947428 -0.042755745 -0.10749907
-0.047403168 -0.047384445 -0.5112634 0.04442073 -0.1239184 -0.044836324 -0.13515912 0.1242637
00000000: d3e1 ee3d 7c97 583d 9b24 0abc 14fb cd3c
00000010: 3245 0f3d e342 b13d aac4 6bbd 10b2 debc
00000020: 78ff 11bc 13db 9a3d dd67 a8bc e6b9 383d
00000030: c88d aa3d cea6 3bbd b21f a33d c6f9 34bc
00000040: 7975 8a3e aba4 2b3d 7bc6 cfbd 9133 88bc
00000050: 56bb 57bd ffce 7f3d 811c a3bc e2da 223e
00000060: 97ef b43d a3c2 39bd 365f fa3c 60f0 a8bb
00000070: 1da7 cbbd ddc9 92bd df16 5cbd 5587 7cbd
00000080: c7c0 73bd 1711 873d a461 44bc 2662 86bb
00000090: dbef 29bd f817 3e3d 6845 bebd 7fc0 3d3d
000000a0: 7084 c8bd cff2 f6bc 19e2 bfbd 6c1b 9fbe
000000b0: 57ec e23d 94f3 d4bd 18be e4bc 15bf 963d
000000c0: c199 bfbc fdf0 7dbc 7852 5ebc 9d9b fd3a
000000d0: eb16 bf3c 2f96 8f3d 1884 913d ad79 3e3d
000000e0: 010e 063d 6da9 453e 91b3 fe3d 3f71 d93e
000000f0: ec8f f63d bdd9 4c3b 23f6 243d d3d9 1e3e
00000100: c6f8 bcbd a82b 9bbd 02b1 4a3d 8e2c 3dbc
00000110: 73c4 073d 695f 7abd 7f8f f0bc 61f7 e8bd
00000120: 4421 fbbd 40d0 bc3d be3f 953c 9c3c 36bd
00000130: c368 a0bd 4ad9 f13c 4b90 9f3b 1e55 d23b
00000140: b0dd 573d eb68 3abd 6ded 743d 85ad b23d
00000150: 0a55 0dbb f1b1 68bd 7afe ccbd b796 d0bd
00000160: 66e6 a53d ae19 ae3d 58f8 0ebb 0ecf 263d
00000170: b32c 023e 3a6b 8ebd 40b8 b33d 7010 84bd
00000180: 0786 a73d 19b6 223e da92 08bd a030 c23d
00000190: 5a24 993d eaae c83b fffe c03d ff29 8c3d
000001a0: 23a0 3cbd 5939 1b3e 32b0 f7bc 43e9 e7bd
000001b0: 645c f03c c4f7 46bd 9487 523a 5f41 8dbd
000001c0: 64cf 6dbd b583 9bbc 26aa da3d 5551 f1bd
000001d0: f689 efbd 1ae7 e13c 9f36 a53c 3aa3 41bd
000001e0: ca66 913d 68a4 a03d a284 d63d 2e36 7dbd
000001f0: 91ea 7dbc 501b 9f3c fe36 59bc 547c 8b3c
00000200: b8f0 cbbc c27d 04be 0230 b5bc ca32 2b3d
00000210: e921 2fbd 0fbb a7bc 3486 dbbb e235 9cbd
00000220: 72d8 8cbb 5b1f 463d 0f83 9c3d 0327 ccbd
00000230: 236c 54bd 4dc9 c2bd c030 4bbc 6405 ec3c
00000240: c31e 0f3c 3edb 90bc 1a19 0bbe bdc3 4f3d
00000250: 8270 9b3c 8c1a d6bd eae1 a4bc c405 253e
00000260: 6ae8 883d c08f d13d 7895 b43d 848b 0e3e
00000270: 55fc a9bc 3ddf d33c 5f6c 463c da74 2e3c
00000280: e601 843d b5aa e1bd a7bf 7a3d fcc8 02bd
00000290: 2636 bebc b172 a43d ae3f 8bbc 9330 b63b
000002a0: 6916 64bd 96c6 653d 402e a3bd c634 fd3d
000002b0: b37d 8f3d 8713 adbd 58b4 863b d973 053e
000002c0: 1b85 9bbd 6f72 1bbe b1cd f73a dc33 dcbb
000002d0: e6a6 afbd 1e9c 75bb 2109 323d 9cec d33d
000002e0: e844 193d aa47 d1bc f640 ccbd 5c19 a8bd
000002f0: b3e7 2a3d 76a0 ff3d 9691 c83d 41ea 963d
00000300: 1ee0 b63d 214e 283d fc0d b8bd 0b74 15be
00000310: 9006 d3bd cbb8 8f3b eae3 fb3d 6722 0f3e
00000320: 8aac f43d d563 703b df80 8bbb 0951 fc3c
00000330: 181b 8d3d 12b6 b0bc 216c e13d e829 d5bb
00000340: 7e52 e7bd 2edd 553a ba36 7cbd f237 d93c
00000350: d332 8bbd 484c 66bc eb4c 453c 131d ba3d
00000360: fa74 943d 140d 013d ab03 8c3c 94ad d93d
00000370: b314 e2bb 07b4 dabc f12e 223d eaee 93bc
00000380: 6d02 cb3d 4794 0f3e 0649 0c3d 6072 193e
00000390: 993e e73d ac40 653d fcb4 ba3d 4674 ab3d
000003a0: e1a1 a53d d190 e13c 78bd a33b de19 283d
000003b0: 7d2f 71bd 5e0a 083d bb0a 513d 37c6 8f3d
000003c0: 89cf d2bb a209 53bc 52e0 e0bd f3a7 b73d
000003d0: b478 46bc 8308 c2bd a620 2fbd 7928 dcbd
000003e0: d329 42bd 3116 42bd 28e2 02bf 83f2 353d
000003f0: eec8 fdbd 4ba6 37bd 2767 0abe f77d fe3d

VAE_Encoder.layers.0.linear1.bias f4 [4]
-0.07162875 -0.030121008 0.026715582 -0.030606331
00000000: 18b2 92bd 55c0 f6bc a3da da3c 21ba fabc

VAE_Encoder.layers.0.norm1.weight f4 [4]
1.0886731 1.0789773 1.075623 1.0910586
00000000: a459 8b3f ee1b 8a3f 04ae 893f cfa7 8b3f

VAE_Encoder.layers.0.norm1.bias f4 [4]
0.016291492 -0.006843989 0.047561705 -0.022921376
00000000: bc75 853c 8a43 e0bb 10d0 423d 9cc5 bbbc

VAE_Encoder.layers.1.attention.W_q.weight f4 [4, 4]
-0.24507509 0.40872443 -0.013007465 0.32142866 -0.45279607 0.08875045 -0.11192036 0.17692226
0.032781683 0.29967496 0.3597169 0.425638 -0.0673295 0.49049965 0.54570615 -0.12872057
00000000: f7f4 7abe 5444 d13e 431d 55bc 4c92 a43e
00000010: e3d4 e7be ccc2 b53d 8036 e5bd 1c2b 353e
00000020: 1646 063d ff6e 993e d02c b83e 39ed d93e
00000030: 0de4 89bd c522 fb3e 66b3 0b3f 53cf 03be

VAE_Encoder.layers.1.attention.W_q.bias f4 [4]
-0.02276991 -0.039004087 0.15574202 0.028994255
00000000: f687 babc c0c2 1fbd d67a 1f3e 5c85 ed3c

VAE_Encoder.layers.1.attention.W_k.weight f4 [4, 4]
0.33969688 -0.22755092 -0.05972527 -0.0798104 0.5401425 -0.2515954 -0.17719772 -0.4154452
-0.123804465 -0.40949413 -0.16069499 0.35996318 0.41760525 0.12402798 0.5278208 -0.0008821326
00000000: c0ec ad3e 1c03 69be 7ca2 74bd a373 a3bd
00000010: c746 0a3f 1dd1 80be 5273 35be 3cb5 d4be
00000020: 328d fdbd 37a9 d1be 3a8d 24be 184d b83e
00000030: 5bd0 d53e 6202 fe3d 441f 073f eb3e 67ba

VAE_Encoder.layers.1.attention.W_k.bias f4 [4]
0.00022142327 0.00013916146 0.00014242518 -2.5353655e-05
00000000: db2d 6839 dfeb 1139 f857 1539 8fae d4b7

VAE_Encoder.layers.1.attention.W_v.weight f4 [4, 4]
0.23304638 0.14325987 -0.081061386 0.046343956 0.077554315 -0.013743253 -0.29306653 -0.06686525
0.10110273 -0.048055112 0.036885515 -0.066974245 0.2474808 0.14496529 -0.06689545 0.049692582
00000000: b6a3 6e3e b7b2 123e 8303 a6bd 29d3 3d3d
00000010: ccd4 9e3d 622b 61bc d10c 96be a6f0 88bd
00000020: f30e cf3d 70d5 44bd 4415 173d cb29 89bd
00000030: 9b6b 7d3e c871 143e 7b00 89bd 738a 4b3d

VAE_Encoder.layers.1.attention.W_v.bias f4 [4]
-0.02668467 -0.021848135 -0.03062503 0.0109314695
00000000: cf99 dabc dcfa b2bc 58e1 fabc e819 333c

VAE_Encoder.layers.1.linear0.weight f4 [128, 4]
-0.37481627 0.13800094 0.26325157 0.07087108 -0.033182066 -0.32437995 0.37252694 0.36755016
0.22318228 0.3426368 0.15775119 0.2411826 -0.44574928 0.27165952 -0.14867286 -0.08781163
-0.21139413 -0.042307924 0.19676423 -0.23311062 -0.35287276 0.35526875 -0.62520367 0.3252949
0.2870569 -0.29748195 0.12381886 -0.12376665 0.35165033 0.00028882438 -0.21589294 0.36718136
-0.16577463 -0.20793864 -0.31728113 0.50859237 -0.35159653 0.0824504 0.2879587 0.025352726
0.27940327 0.39584854 0.20145667 0.047832955 0.52173096 0.2511033 -0.03609486 -0.1646631
0.37827837 0.14704598 0.40481323 -0.34425837 0.36363426 0.018583393 -0.088094 -0.38131377
0.31931138 -0.4384823 0.40033588 0.19417702 0.5078431 -0.45041743 -0.3613467 -0.33207917
0.219759 -0.41173744 0.25581327 0.16473779 0.1386904 -0.2951168 0.095033206 -0.27438998
-0.3230813 0.24620768 -0.37587115 0.44404674 -0.21462579 0.082218185 -0.35966644 -0.18965387
-0.09425716 0.15769002 -0.14778621 0.14802445 0.29399163 -0.049338568 0.18153717 -0.31376052
0.33874315 -0.44411173 -0.33140343 0.40320545 -0.027479053 -0.16227221 0.04965931 -0.0834021
-0.26315087 -0.49008182 0.48855865 0.12752135 -0.027246227 -0.49224254 -0.3054609 0.056549527
-0.23794837 -0.20150352 -0.14817066 0.30765876 -0.60322565 -0.22486635 0.10030259 -0.20783031
-0.09970806 -0.4056392 -0.29181626 0.1223955 0.07264233 -0.016740968 -0.39849246 -0.060890332
-0.34340805 -0.28192514 0.48463234 0.08864862 0.31944755 0.11294015 0.19648723 0.35961318
-0.41998553 -0.23959376 0.38848734 -0.009404239 -0.08254883 -0.27881476 -0.12472189 0.4290817
0.4412864 0.1628594 0.37509415 -0.46159336 0.21005492 0.028467001 0.445458 0.006516518
0.26126513 0.4487628 -0.17808294 0.41745782 -0.32670164 -0.10422279 0.24017756 -0.24800782
-0.24035649 0.1314181 -0.4818818 0.25275135 1.0367204 -0.041588273 0.4749108 -0.3195303
0.054071613 -0.47385412 -0.22504672 0.4822668 -0.52355397 0.1653976 -0.40000865 -0.16670775
-0.33452263 -0.25291628 0.49034896 -0.18349253 0.3382211 0.5186078 0.27361608 -0.48536664
-0.04876 0.4554976 -0.35110047 0.5567116 0.1444181 0.2198035 0.28064746 -0.45511964
0.14117917 -0.49436095 -0.31647962 -0.10170925 -0.26895848 0.3842647 -0.047296807 -0.20383984
-0.23809804 0.09644128 0.48512477 0.31191212 0.36377776 0.359392 0.23071793 -0.3948087
-0.3983165 -0.74219096 0.20368499 0.05033391 0.33687195 -0.8182231 -0.6097956 0.54636276
0.2103389 0.1921879 -0.12982666 -0.020344885 -0.018137515 0.26913083 -0.2810563 0.0556005
-0.06273023 0.89357036 -0.28679636 0.5658387 -0.21087769 -0.44868618 -0.14068797 -0.17357892
-0.29289046 -0.3297784 0.31724057 0.35639358 -0.17501782 0.021639066 -0.41159332 0.24409626
-0.1926981 -0.37143153 -0.57008153 0.5385329 -0.27143434 -0.41281897 0.069254614 0.014110496
0.18709996 -0.4688903 -0.3158812 0.05533555 -0.14488739 -0.25888678 -0.05855477 0.4320142
-0.398157 -0.4838165 -0.3479543 0.52203757 -0.21485677 -0.3707578 -0.21204688 -0.48002043
00000000: ebe7 bfbe 1e50 0d3e e9c8 863e db24 913d
00000010: ebe9 07bd 2115 a6be dabb be3e 892f bc3e
00000020: e589 643e 176e af3e 8789 213e 92f8 763e
00000030: 4039 e4be f516 8b3e b33d 18be 95d6 b3bd
00000040: b477 58be 134b 2dbd 907c 493e 8db4 6ebe
00000050: bdab b4be c9e5 b53e 590d 20bf 0e8d a63e
00000060: 1ff9 923e 8e4f 98be be94 fd3d 5f79 fdbd
00000070: 830b b43e 5a6d 9739 0a13 5dbe 32ff bb3e
00000080: d3c0 29be deed 54be ac72 a2be 1c33 023f
00000090: 7604 b4be c1db a83d 536f 933e 85b0 cf3c
000000a0: f20d 8f3e a9ac ca3e a84a 4e3e 7dec 433d
000000b0: 2990 053f 9d90 803e 34d8 13bd 729d 28be
000000c0: b4ad c13e 3993 163e ae43 cf3e a242 b0be
000000d0: 452e ba3e 333c 983c a16a b4bd 8f3b c3be
000000e0: c87c a33e c180 e0be d3f8 cc3e 57d6 463e
000000f0: 0102 023f 1d9d e6be 6f02 b9be 4806 aabe
00000100: 8108 613e 40cf d2be f5f9 823e 06b1 283e
00000110: db04 0e3e 8d19 97be c5a0 c23d d87c 8cbe
00000120: ea6a a5be de1d 7c3e 2f72 c0be 185a e33e
00000130: ddc6 5bbe 0262 a83d 3326 b8be a034 42be
00000140: e609 c1bd 7e79 213e 4555 17be b993 173e
00000150: 1286 963e 3d17 4abd e1e4 393e 38a5 a0be
00000160: be6f ad3e 9d62 e3be b6ad a9be f270 ce3e
00000170: c01b e1bc b02a 26be 9067 4b3d b8ce aabd
00000180: b6bb 86be 01ec fabe 5c24 fa3e f594 023e
00000190: 7b33 dfbc 3707 fcbe 5f65 9cbe 7aa0 673d
000001a0: bda8 73be f056 4ebe 0dba 17be 7385 9d3e
000001b0: ff6c 1abf 5d43 66be 726b cd3d 78d1 54be
000001c0: bd33 ccbd f1af cfbe f168 95be 7eaa fa3d
000001d0: 80c5 943d 5b24 89bc 3407 ccbe 2468 79bd
000001e0: 2ed3 afbe 7e58 90be bb21 f83e 688d b53d
000001f0: a18e a33e 2a4d e73d f333 493e 381f b83e
00000200: 5808 d7be 1158 75be d0e7 c63e 3d14 1abc
00000210: 5c0f a9bd cfc0 8ebe 316e ffbd 99b0 db3e
00000220: 4bf0 e13e 9dc4 263e 570c c03e f755 ecbe
00000230: a318 573e a133 e93c 1213 e43e 8488 d53b
00000240: 8bc4 853e 3dc4 e53e 605b 36be 08bd d53e
00000250: 7045 a7be c272 d5bd 1bf1 753e c3f5 7dbe
00000260: 0320 76be 7792 063e 36b9 f6be a068 813e
00000270: 41b3 843f 7758 2abd 8227 f33e 7a99 a3be
00000280: 327a 5d3d 029d f2be a672 66be adeb f63e
00000290: a207 06bf fd5d 293e efcd ccbe 70b5 2abe
000002a0: 8d46 abbe 3e7e 81be 050f fb3e 77e5 3bbe
000002b0: 512b ad3e 7bc3 043f 6817 8c3e fa81 f8be
000002c0: 91b8 47bd fb36 e93e 71c3 b3be a784 0e3f
000002d0: 57e2 133e 2b14 613e 06b1 8f3e 7105 e9be
000002e0: 4691 103e e11c fdbe 9e09 a2be f04c d0bd
000002f0: edb4 89be 58be c43e 4cba 41bd 64bb 50be
00000300: f9cf 73be 0183 c53d 4662 f83e f2b2 9f3e
00000310: 1441 ba3e 3a02 b83e 5241 6c3e 5e24 cabe
00000320: 24f0 cbbe 3a00 3ebf cc92 503e ee2a 4e3d
00000330: 7b7a ac3e 1277 51bf 901b 1cbf 6ede 0b3f
00000340: 1563 573e e8cc 443e 48f1 04be 51aa a6bc
00000350: 2095 94bc 84cb 893e 9de6 8fbe 5abd 633d
00000360: b578 80bd 07c1 643f f9d6 92be ceda 103f
00000370: 52f0 57be 32ba e5be 8210 10be acbe 31be
00000380: bdf5 95be b7d8 a8be 5b6d a23e 3879 b63e
00000390: df37 33be 6944 b13c 5cbc d2be 5ff4 793e
000003a0: a752 45be 462c bebe ddf0 11bf 4bdd 093f
000003b0: 71f9 8abe 025d d3be 5dd5 8d3d b62f 673c
000003c0: 2297 3f3e 6412 f0be 2ebb a1be 88a7 623d
000003d0: 5c5d 14be cf8c 84be 20d7 6fbd f730 dd3e
000003e0: 3cdb cbbe ccb6 f7be 1127 b2be 41a4 053f
000003f0: 6a03 5cbe f7d3 bdbe d122 59be 3dc5 f5be

VAE_Encoder.layers.1.linear0.bias f4 [128]
0.09063846 0.08135435 -0.25722274 -0.3429084 0.051790915 -0.41627026 0.24247806 -0.27380255
0.36883348 -0.28314352 -0.50563747 0.16893473 -0.13096604 0.4531047 -0.42939678 -0.28272015
0.42146653 0.537403 0.31689298 -0.18748431 0.47479028 -0.15895496 0.28426105 -0.34067738
0.5131783 0.045360148 0.35914242 -0.023689417 0.21299814 -0.033049814 0.3853151 0.3083807
0.35672003 0.32919106 0.054921832 0.108576566 -0.13883623 0.03235664 -0.15776198 -0.25326976
0.03383256 -0.38787505 -0.040098064 -0.28315717 -0.26791647 0.19979039 -0.37840337 -0.40601066
0.4123901 -0.16537611 -0.07206995 0.11642247 0.41032186 0.4593182 -0.3692156 -0.11133642
0.24145733 0.22477968 -0.07974393 -0.5311326 -0.13125269 -0.27730137 -0.4306565 0.4854455
0.14037915 -0.1505782 0.19997846 -0.018474856 -0.020518476 -0.362932 -0.0150659885 -0.093489386
0.21248016 -0.15551694 -0.0004986283 -0.08900639 0.21132252 -0.24627724 0.3365414 -0.43446493
0.14799036 -0.16136384 0.4937234 0.05511014 -0.35512358 -0.10841448 -0.12896234 -0.0077782567
-0.2931035 -0.3309293 0.07004814 -0.13792168 0.32047087 0.10839253 0.35335228 0.0072354586
-0.2819583 -0.466443 -0.27573255 -0.26205692 0.114889465 0.4682083 0.36296585 -0.028606044
-0.31975093 0.40046677 0.16473742 -0.26666665 0.37328196 0.07996113 -0.05752834 0.258524
0.51896477 0.15257506 -0.107425876 -0.2773184 0.15034842 -0.43881482 0.16752367 -0.18227515
-0.03481679 0.27126127 -0.43931755 0.27892542 -0.17882134 0.28822246 0.43195623 -0.34694406
00000000: a8a0 b93d 1c9d a63d b3b2 83be b191 afbe
00000010: b622 543d 6021 d5be 2b4c 783e d92f 8cbe
00000020: bed7 bc3e 30f8 90be 7571 01bf 3afd 2c3e
00000030: f61b 06be 57fd e73e e5d9 dbbe b2c0 90be
00000040: 76ca d73e 3e93 093f cc3f a23e e3fb 3fbe
00000050: b617 f33e 17c5 22be aa8a 913e 446d aebe
00000060: a75f 033f 90cb 393d 84e1 b73e 4f10 c2bc
00000070: 2f1c 5a3e 3e5f 07bd 0548 c53e 13e4 9d3e
00000080: 02a4 b63e bb8b a83e b7f5 603d 645d de3d
00000090: 162b 0ebe 6588 043d 5b8c 21be 93ac 81be
000000a0: 0394 0a3d 8f97 c6be de3d 24bd faf9 90be
000000b0: 592c 89be da95 4c3e 16be c1be a1e0 cfbe
000000c0: cc24 d33e 5b58 29be 6999 93bd e76e ee3d
000000d0: b515 d23e c12b eb3e d409 bdbe 5904 e4bd
000000e0: 9740 773e a52c 663e c950 a3bd 4ef8 07bf
000000f0: 1b67 06be 72fa 8dbe 027f dcbe 508c f83e
00000100: 8dbf 0f3e 2c31 1abe 27c7 4c3e 9558 97bc
00000110: 5d16 a8bc 39d2 b9be 56d7 76bc 5d77 bfbd
00000120: 6694 593e d53f 1fbe 61b6 02ba fb48 b6bd
00000130: ee64 583e 1a30 7cbe 284f ac3e 3072 debe
00000140: c98a 173e 903c 25be 50c9 fc3e 2cbb 613d
00000150: c2d2 b5be 6908 debd b40e 04be bfe0 febb
00000160: a911 96be 916f a9be 6675 8f3d 573b 0dbe
00000170: c214 a43e e7fc dd3d 97ea b43e 6d17 ed3b
00000180: d75c 90be 9ed1 eebe d12c 8dbe 532c 86be
00000190: 2b4b eb3d 00b9 ef3e a9d6 b93e 3957 eabc
000001a0: 65b6 a3be fb09 cd3e edb0 283e 8888 88be
000001b0: d01e bf3e a9c2 a33d d6a2 6bbd 425d 843e
000001c0: e0da 043f a33c 1c3e 1902 dcbd adfc 8dbe
000001d0: f0f4 193e 56ac e0be 538b 2b3e 56a6 3abe
000001e0: 0d9c 0ebd c2e2 8a3e 3bee e0be 50cf 8e3e
000001f0: f11c 37be e591 933e 5e29 dd3e a7a2 b1be

VAE_Encoder.layers.1.linear1.weight f4 [4, 128]
-0.0951428 0.03994736 -0.042360283 0.03101896 -0.019361531 -0.08288474 0.11539456 -0.0056290003
-0.06543607 0.17425136 0.0032752953 0.11036564 0.04621889 0.023166815 -0.09347604 -0.058652982
0.05782011 0.09280183 0.042083174 0.19053726 -0.06047675 0.052946974 -0.03504253 -0.07946996
0.02124902 -0.05984716 -0.0022114255 -0.026086787 0.03944064 0.0045611938 -0.0039522434 0.010844824
0.0016984266 0.03661511 0.039205216 -0.028343022 -0.08497759 -0.05078287 -0.10033355 -0.40616477
-0.081724346 -0.024115272 -0.08653047 -0.027411297 -0.10625345 0.08297509 -0.015341175 0.06094594
0.000277683 0.054355167 0.107976094 0.36478344 -0.00024050755 -0.060788546 -0.5268108 -0.061091587
0.060370516 0.057270348 -0.052577574 -0.101076536 -0.116461165 -0.012025653 -0.08656362 0.088826545
-0.05938644 -0.118972875 0.016684793 0.057608847 0.123769484 0.035584453 -0.037904263 0.07773132
-0.059084594 0.025923746 -0.054451205 -0.043757834 -0.026172431 0.11452833 -0.020694094 -0.022909364
-0.048316896 -0.051722795 0.086419605 -0.018427428 0.047433473 -0.014172098 0.021819415 -0.03032062
-0.044346046 0.3091303 0.119974054 0.0067702895 0.040471144 -0.05130391 -0.09146575 0.01456957
0.04487362 0.052412808 0.052234996 0.12484678 0.07437182 -0.10075439 0.019289257 0.053400706
-0.014934567 0.049371365 -0.017456062 -0.1377873 -0.015554233 -0.0004338302 0.025510155 -0.041584443
0.043469828 0.10350822 0.001920643 0.09977264 -0.06456095 0.24064876 0.021883065 0.063875906
0.04857148 -0.028736532 0.004031168 -0.068830684 -0.14244168 0.013655611 -0.015980039 0.04111224
-0.047263175 -0.002524817 -0.014323868 0.0281818 0.052365724 0.081634104 0.07418524 0.21725595
0.018627984 -0.21657234 -0.073587164 0.090880565 -0.033630997 0.09426576 -0.054204464 -0.13056737
0.003030764 0.028770156 -0.030542063 0.050198942 -0.023391034 0.060396317 -0.035181776 -0.0050356737
-0.14496526 0.049205977 -0.053645276 -0.26865554 -0.05865685 -0.03646843 -0.025544198 -0.001625558
-0.1559706 0.011565605 0.120022185 -0.028872883 -0.053033993 0.047898788 -0.029879462 0.3861863
0.047644883 0.16319384 -0.00015155846 0.091040924 -0.21424773 0.028729096 0.038764264 0.1331051
-0.05174962 0.0777801 0.33117822 0.85030407 -0.03952501 0.039799042 -0.27342677 -0.0853094
-0.07373546 -0.07130254 -0.12687998 -0.100052364 -0.09525528 0.025558613 -0.14833905 -0.025451694
-0.07080672 -0.06765415 -0.12861192 -0.04178677 0.065711536 0.13006055 0.011421021 0.03966968
0.08598207 -0.024198435 0.036056355 -0.055465963 0.029628428 0.25783816 0.046842825 0.018213427
-0.0108548375 -0.06947802 0.06639998 -0.1350447 -0.018341733 -0.08632693 0.06510953 -0.021470422
0.0054413537 0.115605794 -0.041225422 -0.03702376 -0.1407435 0.048678886 -0.022373423 -0.12433677
-0.08127794 0.05847909 -0.035357077 -0.10994847 -0.110921025 -0.10161798 -0.15737557 -0.1036376
-0.01801203 0.01884966 -0.118175134 0.02170988 -0.06816805 -0.057207987 0.02086681 -0.064551346
-0.07771017 -0.03164161 -0.0113451835 -0.033477604 -0.054851133 0.18686938 0.03580489 -0.03733005
0.05731797 0.11149732 -0.10620564 0.06144597 -0.01834152 -0.000639637 -0.11375402 -0.021794334
00000000: 3ada c2bd d89f 233d fa81 2dbd 791b fe3c
00000010: 139c 9ebc 79bf a9bd fc53 ec3d 7a73 b8bb
00000020: 5903 86bd f36e 323e 56a6 563b 6107 e23d
00000030: 0550 3d3d 55c8 bd3c 5e70 bfbd 1c3e 70bd
00000040: c8d4 6c3d e30e be3d 685f 2c3d 331c 433e
00000050: 78b6 77bd edde 583d c288 0fbd 25c1 a2bd
00000060: 6d12 ae3c 4c22 75bd 90ed 10bb f5b3 d5bc
00000070: 828c 213d 1176 953b d281 81bb 7dae 313c
00000080: bd9d de3a baf9 153d a695 203d a02f e8bc
00000090: bb08 aebd b301 50bd ad7b cdbd d4f4 cfbe
000000a0: 185f a7bd 648d c5bc e336 b1bd a88d e0bc
000000b0: 699b d9bd d8ee a93d 8d59 7bbc 73a2 793d
000000c0: fb95 9139 86a3 5e3d 9222 dd3d e5c4 ba3e
000000d0: c130 7cb9 69fd 78bd 13dd 06bf 2c3b 7abd
000000e0: 1347 773d 5094 6a3d 955b 57bd 3701 cfbd
000000f0: 3183 eebd 3f07 45bc 4448 b1bd b1ea b53d
00000100: 323f 73bd 0da8 f3bd 8cae 883c 41f7 6b3d
00000110: db7a fd3d 01c1 113d 8041 1bbd 9931 9f3d
00000120: b002 72bd 095e d43c 3a08 5fbd 6a3b 33bd
00000130: 9167 d6bc d48d ea3d a986 a9bc 6bac bbbc
00000140: f0e7 45bd 48db 53bd c3fc b03d 1ef5 96bc
00000150: 9a49 423d 1632 68bc a1be b23c f362 f8bc
00000160: 33a4 35bd 5446 9e3e f5b4 f53d 4ed9 dd3b
00000170: 12c5 253d 0c24 52bd 6552 bbbd 35b5 6e3c
00000180: 67cd 373d d0ae 563d 5df4 553d abaf ff3d
00000190: 4150 983d 5158 cebd 8104 9e3c b3ba 5a3d
000001a0: 1db0 74bc a139 4a3d 0400 8fbc 1d18 0dbe
000001b0: 2fd7 7ebc b473 e3b9 acfa d03c 7354 2abd
000001c0: 6b0d 323d 1efc d33d 16be fb3a 9955 cc3d
000001d0: 8838 84bd a16c 763e 1d44 b33c 5fd1 823d
000001e0: e3f2 463d e068 ebbc e317 843b 1af7 8cbd
000001f0: 3bdc 11be c9bb 5f3c 92e8 82bc 4f65 283d
00000200: 0897 41bd 6677 25bb a8ae 6abc 85dd e63c
00000210: 717d 563d c82f a73d 6eee 973d 5878 5e3e
00000220: b799 983c 24c5 5dbe deb4 96bd 971f ba3d
00000230: a8c0 09bd 680e c13d 8005 5ebd 74b3 05be
00000240: c89f 463b 64af eb3c 5933 fabc 689d 4d3d
00000250: 8e9e bfbc 2162 773d c41a 10bd 4b02 a5bb
00000260: c671 14be 358c 493d 26bb 5bbd 388d 89be
00000270: 2a42 70bd ec5f 15bd 1142 d1bc ad10 d5ba
00000280: c2b6 1fbe aa7d 3d3c 31ce f53d d386 ecbc
00000290: 2c3a 59bd 8531 443d c6c5 f4bc 36ba c53e
000002a0: 4827 433d 491c 273e aaeb 1eb9 aa73 ba3d
000002b0: c263 5bbe 4859 eb3c 47c7 1e3d b44c 083e
000002c0: 69f7 53bd 2c4b 9f3d 3190 a93e 87ad 593f
000002d0: fae4 21bd 5204 233d 98fe 8bbe b2b6 aebd
000002e0: 9e02 97bd 1107 92bd d3ec 01be 41e8 ccbd
000002f0: 3315 c3bd 4c60 d13c 31e6 17be 1280 d0bc
00000300: 1d03 91bd 428e 8abd d8b2 03be 9b28 2bbd
00000310: c593 863d 982e 053e 3c1f 3b3c ad7c 223d
00000320: 5e17 b03d cc3b c6bc d4af 133d 4730 63bd
00000330: 51b7 f23c 5d03 843e 43de 3f3d 5334 953c
00000340: 7dd8 31bc 7e4a 8ebd b6fc 873d 2849 0abe
00000350: 6741 96bc 2ccc b0bd 2558 853d bde2 afbc
00000360: 624d b23b bbc2 ec3d fddb 28bd 3aa6 17bd
00000370: 101f 10be 8363 473d 7848 b7bc 47a4 febd
00000380: 0c75 a6bd c587 6f3d 95d2 10bd aa2c e1bd
00000390: 902a e3bd 161d d0bd 1027 21be f33f d4bd
000003a0: f78d 93bc 9a6a 9a3c ce05 f2bd ebd8 b13c
000003b0: b19b 8bbd ec52 6abd dff0 aa3c 7f33 84bd
000003c0: 8226 9fbd a29a 01bd 26e1 39bc d01f 09bd
000003d0: 95ab 60bd b05a 3f3e 26a8 123d 65e7 18bd
000003e0: 3fc6 6a3d b558 e43d 5882 d9bd c5ae 7b3d
000003f0: f540 96bc 50ad 27ba def7 e8bd 088a b2bc

VAE_Encoder.layers.1.linear1.bias f4 [4]
-0.06364449 -0.09947209 -0.02079883 0.059868615
00000000: 0b58 82bd 06b8 cbbd 4f62 aabc cb38 753d

VAE_Encoder.layers.1.norm1.weight f4 [4]
1.0427494 1.0728573 1.0476254 1.0476998
00000000: d078 853f 6353 893f 9718 863f 071b 863f

VAE_Encoder.layers.1.norm1.bias f4 [4]
0.0105967065 -0.07256382 -0.054574303 0.046159282
00000000: cf9d 2d3c 579c 94bd 4e89 5fbd 8411 3d3d

VAE_Encoder.layers.1.norm0.weight f4 [4]
1.0199764 0.771014 0.8461354 0.8088278
00000000: 968e 823f 2c61 453f 549c 583f 570f 4f3f

VAE_Encoder.layers.1.norm0.bias f4 [4]
-0.009432496 0.02839692 0.02646715 0.005114726
00000000: c18a 1abc a8a0 e83c a3d1 d83c 6e99 a73b

VAE_Encoder.last_normalization.weight f4 [4]
1.0 1.0 1.0 1.0
00000000: 0000 803f 0000 803f 0000 803f 0000 803f

VAE_Encoder.last_normalization.bias f4 [4]
0.0 0.0 0.0 0.0
00000000: 0000 0000 0000 0000 0000 0000 0000 0000

VAE_Encoder.head.weight f4 [4, 4]
0.4279281 0.20581466 0.20320785 -0.45816427 0.31248158 -0.015446126 -0.42967397 -0.48042095
0.11541563 -0.0925076 -0.09508729 0.1340403 0.09159589 0.39742702 -0.3767084 0.3329609
00000000: 6419 db3e 14c1 523e b815 503e 8294 eabe
00000010: 96fd 9f3e c011 7dbc 3afe dbbe bcf9 f5be
00000020: 085f ec3d a074 bdbd 20bd c2bd dc41 093e
00000030: a096 bb3d 8e7b cb3e ecdf c0be da79 aa3e

VAE_Encoder.head.bias f4 [4]
0.19215077 0.041282713 -0.42422706 0.41424596
00000000: 2cc3 443e 1018 293d 4a34 d9be 0c18 d43e
