tabsyn/vae/ckpt/shoppers/model.pt (torch, 68673 bytes, 110 tensors)

VAE.Tokenizer.weight f4 [11, 4]
00000000: 3a6c 923d a3ca 393e 83d8 38be f4b2 d2be
00000010: bff2 db3e 4a1c bf3e ac54 053d 2319 08be
00000020: 6a5c f0be e37d 95be ff1a 6dbe ff81 49be
00000030: 2e98 9c3e ba2c 03be 3a00 6a3d a96f babe
00000040: fc42 333c f7af 333e f1da 983e ca63 bc3c
00000050: 4684 b03d 18a7 8f3d cf1f edbc 1b41 d4be
00000060: 2be8 4abc 5e60 7cbe e311 3ebe 3d4a c03d
00000070: 0469 e9bd 1312 e23e 248c 25be a54e 95be
00000080: bc9f 2ebe 8aa8 79be 7a38 10bd bd4e 943e
00000090: f29c 46bd f369 dfbe 4b4e aabe 63fd ed3d
000000a0: 779d 9bbe c728 3b3e 8ee8 1bbe b006 dd3e
0.07149549 0.18143706 -0.18051343 -0.41152155 0.42958638 0.3732627 0.032551453 -0.13290839
-0.46945506 -0.29197606 -0.2315483 -0.19678496 0.30584854 -0.1281003 0.057129122 -0.36413315
0.010941263 0.17547594 0.2985454 0.022996802 0.08618979 0.070142925 -0.028945832 -0.41455922
-0.012384455 -0.24646136 -0.1856151 0.0938916 -0.11396983 0.44154415 -0.1616674 -0.29161564
-0.17053121 -0.24380699 -0.03521011 0.28966323 -0.04848952 -0.4363552 -0.33262858 0.11620595
-0.30393574 0.18277274 -0.15225431 0.43169165

VAE.Tokenizer.bias f4 [18, 4]
00000000: e0ae f03e 6710 9b3e 1dd8 05bf 4fe9 293e
00000010: 459e 05be 578a 903e 50f6 943e 75c1 a1be
00000020: e0c1 0b3e da19 a23e 88cf de3d 5cf4 18bf
00000030: 28cf af3e 58af acbe 1541 d93d aeff 8abc
00000040: 4bc9 0dbf c0fc 03bc ddc4 2f3f d50f 343e
00000050: f175 293f 98fe 4e3d c51c d6be 076d f7be
00000060: 6fc0 92bd ec97 a03e ffb3 b73e 30c2 2e3d
00000070: 0699 9abe aa16 0d3f d1c6 103f 2460 393e
00000080: 5df1 0fbc 6cce e2bd 4136 573e cc18 50be
00000090: d5a3 b63c f7ab 0f3f 2afe bc3e 0b00 863e
000000a0: 4a88 65bc 748d a33d 89d5 34be 13b1 833e
000000b0: 9d3e e4bd efa7 8cbd ed74 643d ce2f 70bd
000000c0: c949 babd 29b7 4b3e 3b45 783e aaad ab3e
000000d0: 1d0f dabd dcc1 9c3e 150d b5be 2315 fd3d
000000e0: bb82 1cbe 97b5 06be c8e9 98bd 9075 853c
000000f0: eb6d 1c3e 7dd8 703e 3d24 5dbe f0cb a83e
00000100: 3c5d de3c 0d12 97be f184 2f3e f6eb 193d
00000110: 5acb 39be cf4c 8ebe 2d97 583e 01fd 3fbd
0.4700842 0.30285951 -0.5228289 0.16592906 -0.13048656 0.28230545 0.29094172 -0.31592909
0.13648176 0.31660348 0.10879427 -0.5974786 0.34337735 -0.33727527 0.106081165 -0.01696762
-0.55385274 -0.008055866 0.68659765 0.17584164 0.6619559 0.05053577 -0.41818824 -0.4832537
-0.0716561 0.31365907 0.35879514 0.04266566 -0.30194873 0.5511271 0.5655337 0.18103081
-0.008785573 -0.11074528 0.2101679 -0.2032196 0.022294918 0.5612177 0.36912662 0.26171908
-0.014009545 0.079859644 -0.17659582 0.25721034 -0.11144755 -0.06867968 0.05577557 -0.05863934
-0.09096105 0.19894089 0.2424516 0.33530933 -0.10647414 0.30616653 -0.35361543 0.12357547
-0.15284245 -0.13155209 -0.07466465 0.01629141 0.15276305 0.23520084 -0.21595855 0.32968092
0.027144067 -0.2950596 0.17140557 0.037578546 -0.18143979 -0.27792975 0.21151419 -0.046872143

VAE.Tokenizer.category_embeddings.weight f4 [67, 4]
00000000: 16eb 7a3e d934 ce3e 6669 8abe 3998 b0be
00000010: 1f61 f4bd 4467 81be 9c33 9ebe 465b 7bbc
00000020: ed9c 80be 73e0 23bf 6a7f 2abf 557b 613e
00000030: b754 0ebf 1d16 1dbe f453 3bbf 733b 253f
00000040: 3394 06bf 1e5b c4bd 0d09 bc3d cc66 a23e
00000050: c462 553e fcdd 573e cfa6 a93d 6b93 bfbe
00000060: dcd7 453f 1c2e 1f3e 4bcd 94bd 2d94 c63e
00000070: 0077 7c3e 6ee3 91be 2617 bc3d c776 e7be
00000080: a875 76bd 536a 3e3f ebb9 543e 8a2c 49be
00000090: cdee 2bbe 7149 e8be 74b2 ae3d d1cb 8ebe
000000a0: a62a 06be 81b7 12be c5f4 1c3e 5249 f43e
000000b0: a6da 93bc dbfa 2ebf 04ce 67bd a68e 1abd
000000c0: 8dbb 0e3e 9c76 6dbe 5f8c d63d c12f 72be
000000d0: b2ba a7bd dbce 0bbe 24fc a1be 4624 273f
000000e0: 68b9 4e3e c887 f53e 46c2 25be 2cd0 0bbf
000000f0: 2d6f aebe ae58 453e 2d49 7a3e 5f57 b03e
00000100: 8ed7 403e dabc bbbe ba1a a7be 7214 1fbf
00000110: 091f 933e 0031 683e 7081 24be ccc7 62bf
00000120: ac54 233f 436c 6f3e b380 94bd 5e21 b13e
00000130: 6ebf 3e3e 66ab 50bf 493b e6bd 67bb 24bd
00000140: 7d6d 413e 8629 eb3d 5bbb 733e 12a4 afbe
00000150: 4513 11be 6580 d23e c058 f13c 53af a5be
00000160: e901 ecbe 000c 0dbf b909 c8be 6b3b d0be
00000170: 5660 85bd f1cd 88be 9547 0b3e 62d0 d63d
00000180: 7686 14bf 4334 c73d 7f8a 033f 2502 743e
00000190: 2047 e43e fad5 bcbe b817 da3d ad8b 4ebe
000001a0: 7842 30be 7b83 43bf 5069 7cbe d686 6a3e
000001b0: 78d9 b83d 069b 99bf c630 db3e bf62 09bf
000001c0: 2e3d 5abe d27a 02be a0b6 7b3d 3fed 05be
000001d0: 4b85 c43c 6955 06bf 457c ba3e fb20 67bf
000001e0: 79cd bbbe 2fc9 c2bd 7f49 9ebe fb02 733e
000001f0: 5643 67be b54a f2bd d91c af3d d205 103f
00000200: 3478 493e ea9e 14be 5fbc adbc c808 e43e
00000210: 89da 623e 8069 04bf 8291 953e f7cc 93bc
00000220: 8d74 9d3e 64d4 f43d 337d 8b3e 7cc4 35be
00000230: 42af 723e 3c25 9c3e 6af3 6c3e b1a2 b2be
00000240: 5132 133e 743d 1abd 5fb0 ce3e c04e 2bbd
00000250: 1f93 07bd 6779 cd3e f204 15bf 5166 033f
00000260: 398e e0be b49f 8abe 88a8 1b3d b8f1 c53e
00000270: aba2 d8be 0865 943e 4f38 dabc 8e89 9abe
00000280: 051d 55be 1dff d3be 58fc 05bf 2137 e4bb
00000290: cc05 433e f8ff 003e a253 e5be 4415 bebd
000002a0: 8543 34bd 32b1 23bd 2289 243f 3408 89be
000002b0: c91a 36be b61f 0a3f 773e 033d b0be 2abf
000002c0: 0ba5 44be 422a 91be 9842 6e3e 946f 193f
000002d0: f1a4 4e3e cd53 65be 20bb 433f 9505 91bd
000002e0: 32ca 3abe 16ad 673e 5458 203e ee18 043e
000002f0: a0df a3bd 3986 ce3e 7322 a2be 305d 743e
00000300: 26d6 7d3f 1874 4cbf e0f8 703f 75c0 ae3b
00000310: 149a 23be 352f c5be 24fb 06bf 8354 1ebe
00000320: 9a8c c53e fb30 873f dbb5 b1be fc10 8f3e
00000330: 783e 02bf d5de 54be 7ba5 ebbc d96a b43c
00000340: 9843 d8be a08a 563e 8f39 6cbe 0848 393f
00000350: 03e1 ba3d 4fff 02be 32e1 9c3e 2c22 08bf
00000360: 26f9 c03e 395e 9bbe 5420 883d c791 34be
00000370: d61a 33be 9e92 6ebf e860 173f d6cb 76be
00000380: 1096 22be 00a1 5bbe 659f e03e 94e5 7bbf
00000390: 7033 b0bd 0a74 f43d 868d d9bd 382b 65bd
000003a0: bd13 2cbd 01ad 9b3d b4e2 cb3a 5758 30bd
000003b0: ce32 b9be 37ac 3fbf 8e75 f13e 89c4 f4be
000003c0: fc24 c9bd fec4 51bf e994 3a3f 0492 113f
000003d0: 86af 7dbf 1ecb 543e a9f9 f23e 3fcd 7a3e
000003e0: 106a c4be dcd1 8ebe 75c4 31be 0a8f 353f
000003f0: ac30 213d 93c5 4c3f e750 76be a8ce b83e
0.2450374 0.40274695 -0.27033538 -0.34491137 -0.11932587 -0.25274098 -0.3089875 -0.0153415855
-0.25119725 -0.6401436 -0.6660067 0.22019704 -0.55598015 -0.15340467 -0.7317498 0.6454384
-0.52569884 -0.09587692 0.09181414 0.31719053 0.20838457 0.21080774 0.08283769 -0.37417158
0.772825 0.15544933 -0.07265719 0.38784924 0.2465477 -0.28493828 0.09184103 -0.45207807
-0.0601708 0.7438099 0.20774047 -0.19645897 -0.16790314 -0.4536853 0.08530131 -0.27889875
-0.13102207 -0.14327814 0.15327747 0.4771219 -0.018048596 -0.68351525 -0.056592956 -0.037733696
0.13938732 -0.23189777 0.104759924 -0.23651029 -0.08189906 -0.13653128 -0.3163768 0.65289724
0.20187914 0.47955155 -0.1618739 -0.5461452 -0.34069195 0.1927211 0.24441977 0.3444166
0.18832228 -0.3666752 -0.32637578 -0.6214057 0.28734615 0.22674942 -0.16065001 -0.88586116
0.63801074 0.23381142 -0.0725111 0.3459577 0.18627712 -0.81511533 -0.112417765 -0.040217783
0.18889423 0.11482529 0.23801939 -0.34304863 -0.14167507 0.41113582 0.029461265 -0.32360324
-0.46095207 -0.55096436 -0.39069918 -0.40670332 -0.06512515 -0.2671962 0.13601525 0.104889646
-0.5801767 0.09726765 0.51383203 0.23828943 0.44585514 -0.36882 0.10649055 -0.2017047
-0.17212856 -0.763725 -0.24649549 0.22902998 0.09025854 -1.2000434 0.4281065 -0.536663
-0.213124 -0.12742165 0.06145346 -0.13078783 0.02398934 -0.52474076 0.36422935 -0.902847
-0.366802 -0.09511029 -0.30915448 0.23731606 -0.2258428 -0.118306555 0.08550424 0.5625888
0.1967476 -0.14513746 -0.021207986 0.4453795 0.22153677 -0.5172348 0.29212576 -0.01804207
0.30752984 0.11954573 0.27243957 -0.17750734 0.23699668 0.30497158 0.2313973 -0.3488975
0.14374663 -0.037656263 0.40368935 -0.04182315 -0.03309929 0.40131685 -0.5821067 0.51328
-0.43858507 -0.2707497 0.03800252 0.3866098 -0.42311606 0.2898333 -0.026638178 -0.3018307
-0.20811851 -0.41405573 -0.5233817 -0.0069645797 0.1904518 0.12597644 -0.4479037 -0.092814
-0.044009704 -0.03996391 0.6427175 -0.2676407 -0.17783655 0.5395464 0.032041993 -0.66697216
-0.19203584 -0.28352553 0.23267591 0.5993588 0.20180108 -0.22395249 0.76457405 -0.07081143
-0.18241194 0.22624621 0.15658695 0.12900135 -0.080016375 0.4033678 -0.31666908 0.23863673
0.9915489 -0.79864645 0.94129753 0.0053330013 -0.15976745 -0.3851258 -0.5272696 -0.15461926
0.38583833 1.0561823 -0.34709057 0.27942646 -0.5087657 -0.20788129 -0.02876543 0.022023605
-0.4223907 0.20951319 -0.23068832 0.72375536 0.09124949 -0.12792705 0.3064056 -0.5317714
0.37690085 -0.30345324 0.06646791 -0.17633735 -0.17490706 -0.9319247 0.5913224 -0.24101195
-0.15877557 -0.21448135 0.43871608 -0.98397183 -0.08603561 0.11936195 -0.106226966 -0.05594942
-0.04201101 0.07601357 0.0015555234 -0.043052997 -0.36171573 -0.74872154 0.4716 -0.47806194
-0.09821507 -0.8194121 0.7288347 0.5686343 -0.9909595 0.20780608 0.474561 0.24492358
-0.3836217 -0.27894485 -0.17360099 0.70921385 0.039353058 0.79988974 -0.240543 0.36095166

VAE.encoder_mu.layers.0.attention.W_q.weight f4 [4, 4]
00000000: 2557 67be f5fd 2abe 2dd3 fa3d 3279 8dbe
00000010: 4cc2 95be 553a 6f3e c63e b2be a408 edbd
00000020: bad2 853d 625a d0be 8ce4 ef3e b693 39be
00000030: 7778 00be c7e4 e6bd 393d 8c3e dd89 74be
-0.22591837 -0.1669844 0.1224731 -0.27631527 -0.292498 0.23362096 -0.34813517 -0.11573914
0.065343335 -0.40693957 0.46854055 -0.18122754 -0.12545954 -0.112741046 0.2739046 -0.23880716

VAE.encoder_mu.layers.0.attention.W_q.bias f4 [4]
00000000: 3234 173e f1b4 d83d 6270 7c3d 835a fe3d
0.14766005 0.10581387 0.061630614 0.124196075

VAE.encoder_mu.layers.0.attention.W_k.weight f4 [4, 4]
00000000: 2573 dabe 7649 25be daea ebbe 7160 bebd
00000010: c328 dabd 1075 0c3e fc53 71be 2b31 a8be
00000020: 899a d5be dee0 213d e756 5e3e 9a5a f6bc
00000030: d007 b33e 22ac efbe 2df9 96be 338c ecbe
-0.42665973 -0.16141304 -0.46077615 -0.092957385 -0.10652306 0.13716531 -0.23567194 -0.32850012
-0.41719463 0.03952109 0.21712838 -0.030072499 0.34966898 -0.46811014 -0.2948698 -0.46200714

VAE.encoder_mu.layers.0.attention.W_k.bias f4 [4]
00000000: c969 9db8 61f1 8f3a 2d03 f8b9 1fe1 1c39
-7.5060474e-05 0.0010981971 -0.00047304612 0.00014961183

VAE.encoder_mu.layers.0.attention.W_v.weight f4 [4, 4]
00000000: e9d2 ba3d 50d5 c73d 61eb 0d3c bad4 7f3e
00000010: ccf0 b93d 9730 f13d e487 21bd 38f0 713e
00000020: 16a5 af3d eecf 013e 6bb8 5cbc 013d 7c3e
00000030: f276 ae3d d40a 0d3e 6aae 1ebc ae02 993e
0.09122259 0.09757483 0.008662076 0.24983492 0.090791315 0.11776846 -0.039436236 0.23626792
0.085764095 0.12676975 -0.013471703 0.24632646 0.08518781 0.13773662 -0.009685138 0.29884857

VAE.encoder_mu.layers.0.attention.W_v.bias f4 [4]
00000000: 47af 5b3b 0392 67bd a513 843d 6a06 f1bd
0.0033521221 -0.056535732 0.064490594 -0.117688015

VAE.encoder_mu.layers.0.linear0.weight f4 [128, 4]
00000000: d09b 823e 5938 9bbe 5c74 9d3e 2736 af3e
00000010: 40ca 84be 71c2 f3be 37d5 04bf 9f48 1dbe
00000020: aec4 b53e 85b5 903e b062 f0bd 6619 cdbe
00000030: 9bd4 09be 1597 d43d eae3 2ebe 7017 bebd
00000040: 302a ccbd 1a9a 19be b546 89be 19be d5be
00000050: bb1b 2dbe 6cb2 a3bd 23b7 29be ec01 943e
00000060: 100b 4ebe ec39 9b3d a6d0 9ebe 9d10 673e
00000070: 3234 c43e 8f27 b7be cacc 583d 632c b3bd
00000080: 0123 3abe 8929 15bd a5a2 013e 4206 b83e
00000090: a503 f23e b8fd a43e 35c1 243e 7c09 883e
000000a0: 1e7b a6be abb1 3b3e d9df 09bf 6448 833d
000000b0: 4b9d 143e 95e9 40be ac49 873e b923 903e
000000c0: d943 f13e dcb4 3ebe 72d3 5d3d f438 903e
000000d0: 48df eabe 884f 0abe f5d6 e5be 69df 013f
000000e0: bacc 0f3f 505e 10bf 494b b43d cfa6 50bd
000000f0: be4f 493e 4caf 6fbe ec2e 57be b1f1 08bf
00000100: 21b9 1dbf caa0 d93e f70e 08be ed84 9cbe
00000110: 7d57 1ebd db9e 423e e917 9dbe c1d1 303e
00000120: 609f 16bd e769 9d3d 276a 2b3e 26c0 e33e
00000130: 826f b8be a011 a23e 7bf3 02bd d837 b1be
00000140: b102 2a3e f4bf 9c3e 09a1 8f3e 4db3 953e
00000150: a912 003f b15c c1be ea4f bc3e b5e7 043e
00000160: ee42 11bd 5d3b 493e 0841 133e 8654 b93d
00000170: 1028 b13e 8bbd f43e f5da b4ba 6452 533d
00000180: af12 4a3e 8331 22bd 3b07 d03e 5def aa3e
00000190: 44cb 033e adfd b73e 67b5 d13e b3d1 e4be
000001a0: 2fd5 5abe 7d11 04bf 539d f33c 79cc 58bc
000001b0: c7c1 c13d bc38 df3e 247a a9be 5d02 b0bd
000001c0: 9d8e b13e 7ace efbe 84e7 00bf ddd6 dd3e
000001d0: ea35 eb3e 5323 73be 8675 d6be 4eb4 e03e
000001e0: b461 6f3d 65df 90be 7c0c 9ebe 8324 2dbe
000001f0: db61 5c3e 3f7e 7c3e 38c9 2cbe 845f 86be
00000200: a3c4 e63e 3701 9c3e 3f5c c2be d607 793d
00000210: 8f61 51be 4397 ebbe 9f4f 9abe 318c 8a3d
00000220: f82b b0bd bc4a 153e d65b bbbe 7d0c 99be
00000230: 218e a1be bd3b a7be a7d3 f53e 00f7 ebbd
00000240: fb26 f1be 4a9a 8f3e c25f 1f3f bd04 693e
00000250: e6a0 a23e ab58 703e befc 053f f1c6 b7bd
00000260: 106d dabe 65c6 3f3e 6459 a83e 8639 0b3e
00000270: f3ef cebe b41a 6c3e 3857 9b3e 6930 873d
00000280: d9bf e0bd 586c d03e 6696 b93d fe80 b8bd
00000290: 455d 82be e534 90be f9eb 7fbe 4574 05be
000002a0: 4130 8e3d 1140 6bbc 74ee 6ebe 38de cdbd
000002b0: 892b 433d b0bc 1b3f 7a86 d5be b23d 113f
000002c0: 813e a63e 34b2 3dbd 84ae 31be b52d 2abe
000002d0: 4366 f0be 79ec 0e3d ce47 4dbd 78c3 a73e
000002e0: a26d acbe 4a42 b93e d049 a83e bc2b 583e
000002f0: 0744 963e 6b0c d33e 7782 60be 265c 863c
00000300: 97ec 06bf bbec e83e 8480 e23e 029c 033d
00000310: 87ce 94bd f531 553e d1f8 afbe f514 a73e
00000320: 5a87 023f 510f 853d f6f6 8bbe 326b b3bd
00000330: 1323 b9be 65c6 97be 9b98 03be 0d8c af3e
00000340: 38db 23bf 8824 9ebe 1ed2 213e 31f8 d03d
00000350: 4dd0 f2be 529b ee3d ad37 3f3c 4d7e 01bd
00000360: 80d2 483e a17a cd3e e9a1 acbe 090b 04be
00000370: 8bc0 c639 4ac6 d3bc 05c2 dd3d 263f abbe
00000380: d9c9 873e d2e4 04bf d615 843e 3d12 e43c
00000390: f752 17be 3df8 863e 38a5 9abe 7195 87be
000003a0: 9f37 183e 08bf 67be a8c0 81be d34a b3be
000003b0: 62f7 d2be f124 4ebe f8d0 5c3e 6aa5 f7be
000003c0: d7f4 e43e 3d40 a6be a02f 7b3e 2dbb acbe
000003d0: 6ab2 99be 9a17 58be 037a 5abe 3ef2 c0be
000003e0: f777 d63e 3da2 603e 613f cabe 7c10 90be
000003f0: 84cc 283e 6b0b a83e dcaa afbe 4e7c 99be
0.255095 -0.30316427 0.30752838 0.34221002 -0.25935555 -0.47609285 -0.5188784 -0.15359734
0.35501617 0.28263488 -0.11737573 -0.4005844 -0.13460009 0.10380379 -0.1707913 -0.09281814
-0.09968984 -0.15000191 -0.26811758 -0.41746596 -0.1690511 -0.07993016 -0.16573767 0.28907716
-0.20121408 0.07579407 -0.3101856 0.22564931 0.38321072 -0.35772368 0.052929677 -0.087487005
-0.18177415 -0.036416564 0.126597 0.35942274 0.47268406 0.32224822 0.16089328 0.26569736
-0.32515806 0.18329494 -0.5385719 0.06410292 0.14513128 -0.18839104 0.26423395 0.28152254
0.47122076 -0.1862368 0.054156728 0.28168452 -0.45873475 -0.13506901 -0.44890562 0.5073152
0.5617176 -0.5639391 0.08803422 -0.05094033 0.19659325 -0.23406714 -0.21013993 -0.5349379
-0.6161061 0.42505485 -0.13286959 -0.30570164 -0.038657654 0.19005911 -0.30682305 0.17267515
-0.036773086 0.07686215 0.16739713 0.44482535 -0.36022574 0.31654072 -0.031970482 -0.34612918
0.16602589 0.306152 0.28052548 0.29238358 0.50028473 -0.3776603 0.3677972 0.12979014
-0.03546422 0.19651552 0.14380276 0.09049325 0.34600878 0.4780086 -0.0013798164 0.051592246
0.1973369 -0.039598 0.40630516 0.33385745 0.12870508 0.35935727 0.40958712 -0.44691238
-0.21370386 -0.51589185 0.029738104 -0.013232344 0.09460788 0.43597972 -0.33100998 -0.08594201
0.34679118 -0.46837217 -0.50353265 0.4332799 0.4593957 -0.23743944 -0.41886538 0.43887562
0.058442786 -0.28295437 -0.308689 -0.1690846 0.21521704 0.24657534 -0.16873634 -0.26244748
0.45071897 0.30469677 -0.37961003 0.06079849 -0.20447372 -0.4601384 -0.3013887 0.06765021
-0.086021364 0.1457929 -0.36593503 -0.2989234 -0.31553748 -0.32662764 0.4801304 -0.11521721
-0.47100052 0.280474 0.6225549 0.22755714 0.3176338 0.23471324 0.5233878 -0.08973492
-0.42661333 0.18728025 0.328807 0.13596162 -0.40417442 0.23057061 0.3033998 0.066010304
-0.10974092 0.4070766 0.09061889 -0.09008978 -0.25461784 -0.28165355 -0.2499236 -0.13032635
0.069427975 -0.014358536 -0.2333315 -0.100521505 0.04764894 0.6083479 -0.4170416 0.56734765
0.32469562 -0.046312526 -0.17351729 -0.16618998 -0.4695302 0.034893487 -0.050117306 0.32766318
-0.33677393 0.36183387 0.32868814 0.21110433 0.29348776 0.41220412 -0.21924768 0.016401362
-0.5270476 0.4549311 0.44238675 0.032131203 -0.072659545 0.20819838 -0.3436952 0.32633176
0.5098778 0.06497062 -0.27336854 -0.0876068 -0.36159572 -0.2964355 -0.12851183 0.34286538
-0.64006376 -0.30887246 0.1580281 0.10203589 -0.47424546 0.11650719 0.011670989 -0.03161459
0.1961155 0.4013262 -0.33717278 -0.12894835 0.0003790896 -0.025851388 0.10828022 -0.33446616
0.26521185 -0.5191165 0.2579791 0.027840728 -0.14777742 0.26361266 -0.30204177 -0.26481202
0.14864968 -0.22631466 -0.25342298 -0.35018024 -0.41204363 -0.2013128 0.2156409 -0.48368388
0.44718048 -0.32470885 0.24529886 -0.33736554 -0.30018932 -0.21102753 -0.21335606 -0.37684816
0.418884 0.21936889 -0.3950148 -0.28137577 0.16484267 0.3282121 -0.34310043 -0.2997765

VAE.encoder_mu.layers.0.linear0.bias f4 [128]
00000000: edcd 02be 1d3d af3e a8a9 ed3d 9110 eebe
00000010: a8cc 8b3e a4d4 b5be 2966 cabe a46d adbd
00000020: b5ce 403e 355b 043f af9e ecbe cb64 a63e
00000030: 09d8 893e e8b9 17be 0d7e 74be 2f03 78bd
00000040: 3935 8cbe 490a 85be 23ea 293e dc01 aebe
00000050: f9f5 85be 7022 b3be c732 6c3e 2755 09be
00000060: 8a88 edbd 1f7f 163e d8b8 25be a96e 8fbc
00000070: 5639 59bc 60ce 253e f3ef 9dbe 776f a93e
00000080: 7952 d03e 49f7 ad3e df2d ca3e 625e e93e
00000090: 1749 2bbe 4809 15be 2884 8fbe 2d43 a7be
000000a0: e78e 103f 14b8 98be 4db6 c0be d60f f3be
000000b0: d5cd 063e 12b9 c13d c50d 933e 60de 88be
000000c0: a7f2 e73e 0c2d f43e a638 583e 4b82 b23d
000000d0: 7cef d43d 03d6 2bbe 4864 c33b 713b b53e
000000e0: 2517 db3e b266 033e 0646 183e 6d39 0fbf
000000f0: 3039 cfbe e26b 783d 0c53 ba3d f9d2 7abe
00000100: eabc 72be ed88 3c3e aaec 47be de57 833e
00000110: 4bd6 a73e 7f4c 7a3e 1d85 c9bd 84aa 78bd
00000120: 8907 fa3e cf56 be3d 5c10 87be eec6 fd3e
00000130: f01c 9e3e 84ba 193e 1d90 93be a186 a93e
00000140: 6aa9 9fbe f8cf c3be 6f5f cabe 855c fa3e
00000150: b9ce ed3e 8431 9ebe f749 9b3c ed22 55be
00000160: 4243 9bbe d601 adbe 7268 87be 5ce8 99be
00000170: 8933 cdbe 6215 903e 86ff ddbd b272 f83e
00000180: 03ef 5cbe 65ac 87be 39e1 993e 327f 32be
00000190: f2a5 e8bc 56fa 833e 6271 c1be e89a bcbc
000001a0: 7783 293e 853e 4d3e 8592 3dbe 18ee 943e
000001b0: 3ec4 cd3e 598e f0be eb3f f5b9 fda1 293d
000001c0: 3810 fa3e db43 d2bc d97b 4dbe 1893 eabc
000001d0: 505e bfbe a7ca debe de2a 093e 8a1b debd
000001e0: e0fd 713e 50d4 3ebe f48e a6be addd 73be
000001f0: 3446 2e3e d46c c43e f916 de3e a304 b03d
-0.12773867 0.34226313 0.11604625 -0.46497014 0.27304578 -0.35513794 -0.39531067 -0.08468178
0.18828852 0.5170167 -0.46214816 0.32498774 0.26922634 -0.14817011 -0.2387621 -0.06054991
-0.27384356 -0.2598441 0.16593222 -0.33985794 -0.26164225 -0.3498721 0.23066245 -0.1341139
-0.115983084 0.1469693 -0.16183794 -0.017508822 -0.013258299 0.16192007 -0.3084713 0.33092853
0.40687922 0.33977726 0.39488122 0.4557982 -0.167271 -0.14554322 -0.28030515 -0.3266844
0.5646805 -0.2982794 -0.37639084 -0.4747302 0.13164456 0.094591275 0.28721443 -0.2673216
0.45302317 0.47690618 0.2111536 0.08716258 0.103972405 -0.16780858 0.005962882 0.35396913
0.42791095 0.12832144 0.14870462 -0.55947 -0.40473318 0.06064976 0.09097871 -0.24494542
-0.23704877 0.18411608 -0.19523874 0.25652975 0.3278068 0.24443243 -0.098398425 -0.06070949
0.48833874 0.09293901 -0.2637967 0.49565834 0.30881453 0.15012556 -0.28820887 0.33110526
-0.3118394 -0.38244605 -0.39525935 0.48898712 0.4644678 -0.30897152 0.018956168 -0.20814104
-0.3032475 -0.33790463 -0.26446873 -0.3006009 -0.4007838 0.28141314 -0.10839753 0.48525006
-0.2157555 -0.26498714 0.30054644 -0.17431334 -0.028399441 0.2577693 -0.37781817 -0.023023084
0.16554056 0.2004338 -0.18512924 0.290879 0.40188783 -0.46983603 -0.00046777664 0.04141425
0.488405 -0.025667122 -0.20066775 -0.028634593 -0.37376642 -0.43513986 0.13395259 -0.108450964
0.23632002 -0.18635678 -0.3253094 -0.23815031 0.17018968 0.3836428 0.43376902 0.085946344

VAE.encoder_mu.layers.0.linear1.weight f4 [4, 128]
00000000: 45e7 ee3d 5598 583d b824 0abc 14fb cd3c
00000010: be40 0f3d 2e40 b13d ecc3 6bbd 7590 debc
00000020: 08e7 11bc 24db 9a3d c56b a8bc 03c9 383d
00000030: 0394 aa3d 36a4 3bbd 1b2a a33d 3efe 34bc
00000040: 3674 8a3e 819b 2b3d f7bf cfbd 2053 88bc
00000050: 56bb 57bd 26dd 7f3d df26 a3bc add8 223e
00000060: 73f3 b43d e3ce 39bd 108c fa3c 5906 a9bb
00000070: afa7 cbbd d4c9 92bd 6916 5cbd 6b87 7cbd
00000080: 21c2 73bd 4b13 873d 3d6d 44bc dd45 86bb
00000090: eff0 29bd 94ff 3d3d 8044 bebd 0bc3 3d3d
000000a0: 7e88 c8bd cff2 f6bc 54e5 bfbd c51c 9fbe
000000b0: e3ea e23d 7ff1 d4bd 9dc0 e4bc 55b9 963d
000000c0: 78ab bfbc cfea 7dbc f75c 5ebc bf8c fe3a
000000d0: 9f16 bf3c 5296 8f3d e081 913d 6174 3e3d
000000e0: 3726 063d 51a7 453e 21b2 fe3d aa6b d93e
000000f0: 0590 f63d 4920 4c3b 9cf4 243d 22d7 1e3e
00000100: abff bcbd f329 9bbd d4bf 4a3d c9fd 3cbc
00000110: 50c1 073d 5460 7abd bc88 f0bc 7bfd e8bd
00000120: f321 fbbd 73c9 bc3d be3f 953c ad3e 36bd
00000130: 2567 a0bd 6ed3 f13c 28ed 9f3b 2b55 d23b
00000140: dae1 573d 7066 3abd d9fe 743d 10ac b23d
00000150: 4cdc 0dbb cfbc 68bd 5504 cdbd 529b d0bd
00000160: 9fec a53d d214 ae3d cdfd 0ebb a9b7 263d
00000170: 982e 023e d66e 8ebd ecc0 b33d aa12 84bd
00000180: 7c8d a73d 76b3 223e fb9a 08bd 0d21 c23d
00000190: eb2f 993d 019c c83b 4c03 c13d c628 8c3d
000001a0: f1ab 3cbd cf35 1b3e 7bb4 f7bc fbe8 e7bd
000001b0: c855 f03c c4f7 46bd 8466 4f3a 0f44 8dbd
000001c0: b0d1 6dbd 9899 9bbc 00a9 da3d 3d4e f1bd
000001d0: 4b86 efbd e4f8 e13c b72f a53c d097 41bd
000001e0: 9466 913d 80a9 a03d b865 d63d ef3e 7dbd
000001f0: 32e4 7dbc 3b2e 9f3c b616 59bc 565d 8b3c
00000200: 9de5 cbbc b680 04be 9115 b5bc ca32 2b3d
00000210: be15 2fbd 7b8d a7bc 3174 dbbb 393f 9cbd
00000220: f384 8cbb bf1f 463d c57e 9c3d 6127 ccbd
00000230: 4079 54bd 3dc5 c2bd 4b7f 4bbc c228 ec3c
00000240: 16f6 0e3c d7f0 90bc c115 0bbe 62c4 4f3d
00000250: 8270 9b3c 4a1d d6bd a0db a4bc e406 253e
00000260: 7ae5 883d d997 d13d 1e8e b43d 9f8a 0e3e
00000270: 521f aabc 41b9 d33c e53e 463c 1e9e 2e3c
00000280: 75ff 833d 9fac e1bd f4c6 7a3d 7ac4 02bd
00000290: 7346 bebc 0c7a a43d b052 8bbc eace b53b
000002a0: 640f 64bd 96c6 653d 0026 a3bd 4b2e fd3d
000002b0: 947a 8f3d 7b0d adbd 2594 863b 9074 053e
000002c0: 1886 9bbd 7770 1bbe 0d6e f63a 5085 dbbb
000002d0: 31a6 afbd c63c 76bb d104 323d 6ff2 d33d
000002e0: 673f 193d 3c35 d1bc 2a3e ccbd b623 a8bd
000002f0: 3fdd 2a3d f2a4 ff3d 3093 c83d 95ef 963d
00000300: 56dc b63d 4f43 283d 9c08 b8bd bf6f 15be
00000310: 3bfc d2bd 1d70 8f3b d3e2 fb3d 2421 0f3e
00000320: ddaf f43d acc0 703b df80 8bbb a14c fc3c
00000330: dc17 8d3d 58ca b0bc 4c71 e13d b8d1 d4bb
00000340: 4f57 e7bd 5504 583a 6d2e 7cbd 6a31 d93c
00000350: 6a2f 8bbd 8c40 66bc 5433 453c d818 ba3d
00000360: 7d6a 943d 4c11 013d 87e1 8b3c 0da4 d93d
00000370: 33a3 e2bb 979e dabc c01e 223d 80e5 93bc
00000380: 3601 cb3d df98 0f3e 014f 0c3d 3b71 193e
00000390: 4034 e73d 074b 653d 37ac ba3d 2971 ab3d
000003a0: db9f a53d 369e e13c e900 a33b b424 283d
000003b0: 922f 71bd 5e0a 083d 9b14 513d 20c7 8f3d
000003c0: 838f d2bb 7a10 53bc f3eb e0bd 60a7 b73d
000003d0: 31d3 45bc 5603 c2bd c62b 2fbd 7321 dcbd
000003e0: f528 42bd 260e 42bd c9dc 02bf cdee 353d
000003f0: 07ca fdbd 419f 37bd 5d63 0abe 7f7d fe3d
0.11665205 0.05287965 -0.008431606 0.025144137 0.034973852 0.086548194 -0.057559893 -0.027168492
-0.00890518 0.07561329 -0.020559201 0.045113575 0.08329012 -0.0458109 0.07967015 -0.011046944
0.27041787 0.041896347 -0.10144036 -0.0166412 -0.05266889 0.062466763 -0.019915996 0.15902968
0.08835497 -0.04536332 0.030584365 -0.0051582274 -0.099440925 -0.07167402 -0.05373231 -0.061652582
-0.059511308 0.06595477 -0.011988935 -0.004097684 -0.041489538 0.046386316 -0.09290409 0.046328586
-0.09791659 -0.030145077 -0.09369913 -0.31076637 0.11079957 -0.10397624 -0.027923876 0.07359568
-0.023397192 -0.015497877 -0.013571969 0.0019420608 0.023326216 0.07011093 0.0710485 0.046497706
0.03275129 0.19302107 0.12436319 0.42464954 0.12039188 0.0031147173 0.04027234 0.15511754
-0.09228452 -0.075763606 0.049499348 -0.0115351165 0.03314334 -0.061127022 -0.029362075 -0.113764726
-0.12262335 0.09218111 0.018218871 -0.044493366 -0.07832173 0.029519763 0.004880566 0.006418844
0.052705623 -0.04550785 0.059813354 0.087242246 -0.00216462 -0.056820687 -0.10010592 -0.10185875
0.081017725 0.08500065 -0.0021818758 0.040702496 0.12713087 -0.06954734 0.08777031 -0.064488724
0.08181283 0.15888771 -0.033350926 0.0947896 0.07479843 0.0061221127 0.09424457 0.068437144
-0.046062414 0.15157245 -0.030237427 -0.113237344 0.029337779 -0.04857613 0.00079116994 -0.06897747
-0.0580613 -0.018994138 0.106767654 -0.11782501 -0.11695536 0.0275845 0.020164354 -0.04726392
0.07099643 0.078448296 0.1046862 -0.061827596 -0.0154963005 0.019431224 -0.013250044 0.01701228
-0.024889762 -0.12939724 -0.02210501 0.041796483 -0.042745344 -0.020453205 -0.0066972007 -0.07629246
-0.0042883097 0.04837012 0.07641367 -0.099684484 -0.051873446 -0.095102765 -0.012420486 0.028828029
0.008725664 -0.017692966 -0.13582517 0.050724395 0.018974546 -0.10454805 -0.020124257 0.1611591
0.06684394 0.10234041 0.08816169 0.13920067 -0.020766888 0.025845172 0.012099956 0.010657815
0.06445209 -0.11019253 0.061224893 -0.031925656 -0.023226952 0.08031091 -0.017007202 0.0055483477
-0.05567874 0.05609759 -0.07966232 0.12362345 0.07005802 -0.08449837 0.0041070157 0.13032746
-0.07593936 -0.1517962 0.0018801108 -0.0066992417 -0.0857662 -0.0037572845 0.043461625 0.10348975
0.03741398 -0.02553808 -0.09972794 -0.08209936 0.041714903 0.12482633 0.09793699 0.073699154
0.089287445 0.041079815 -0.08986017 -0.14593409 -0.103020154 0.0043773786 0.12299123 0.13977486
0.11947606 0.0036735935 -0.004257306 0.030798258 0.068893164 -0.02158086 0.11007938 -0.006494727
-0.1129595 0.00082403916 -0.061567713 0.02651282 -0.06796153 -0.014053475 0.012036163 0.0908677
0.072468735 0.031510636 0.017075313 0.10626993 -0.0069164275 -0.02668695 0.039580107 -0.01805377
0.0991234 0.1402316 0.03425503 0.149846 0.11289263 0.055979755 0.091148786 0.08371193
0.08087131 0.027541261 0.0049744737 0.041050628 -0.058883257 0.033213012 0.05104504 0.07020402
-0.0064257993 -0.012882346 -0.10982504 0.08967471 -0.012074278 -0.094732925 -0.042766355 -0.107485674
-0.04740234 -0.047376774 -0.5111814 0.04441719 -0.12392049 -0.04482961 -0.13514467 0.1242628

VAE.encoder_mu.layers.0.linear1.bias f4 [4]
00000000: f9b1 92bd fab8 f6bc 58d1 da3c d7bd fabc
-0.07162852 -0.0301175 0.026711151 -0.0306081

VAE.encoder_mu.layers.0.norm1.weight f4 [4]
00000000: a459 8b3f e91b 8a3f cdad 893f cea7 8b3f
1.0886731 1.0789768 1.0756165 1.0910585

VAE.encoder_mu.layers.0.norm1.bias f4 [4]
00000000: 147c 853c 0ff7 e0bb d7e4 423d 2ec8 bbbc
0.016294517 -0.006865389 0.04758152 -0.022922602

VAE.encoder_mu.layers.1.attention.W_q.weight f4 [4, 4]
00000000: 29f4 7abe c249 d13e be11 56bc 3b8f a43e
00000010: d7d4 e7be b6db b53d 0266 e5bd 9925 353e
00000020: e16a 063d f372 993e 9129 b83e 16e7 d93e
00000030: cdfc 89bd 1726 fb3e 66b3 0b3f b8c9 03be
-0.24507202 0.40876585 -0.0130657535 0.32140526 -0.4527957 0.08879797 -0.11201097 0.17690124
0.03281677 0.29970512 0.35969213 0.42559117 -0.06737671 0.49052498 0.54570615 -0.12869918

VAE.encoder_mu.layers.1.attention.W_q.bias f4 [4]
00000000: d9bd babc 76e3 1fbd d182 1f3e d959 ed3c
-0.022795605 -0.039035283 0.15577246 0.028973507

VAE.encoder_mu.layers.1.attention.W_k.weight f4 [4, 4]
00000000: e0ef ad3e 7612 69be 7962 74bd 298e a3bd
00000010: c746 0a3f 27d8 80be 465f 35be c2bf d4be
00000020: 2ca3 fdbd 39a9 d1be ab80 24be cc49 b83e
00000030: f9d0 d53e 0bfc fd3d 441f 073f 28f4 67ba
0.33972073 -0.22760949 -0.059664223 -0.07986099 0.5401425 -0.2516491 -0.17712125 -0.4155255
-0.12384638 -0.4094942 -0.16064708 0.35993803 0.41760996 0.12401589 0.5278208 -0.0008848333

VAE.encoder_mu.layers.1.attention.W_k.bias f4 [4]
00000000: d32d 6839 ddeb 1139 f857 1539 4caf d4b7
0.00022142315 0.00013916144 0.00014242518 -2.5353998e-05

VAE.encoder_mu.layers.1.attention.W_v.weight f4 [4, 4]
00000000: 19aa 6e3e 63b8 123e 432e a6bd 1cf0 3d3d
00000010: 9cda 9e3d 3a38 60bc 0418 96be 4fe6 88bd
00000020: e815 cf3d 3dfb 44bd c75e 173d ed4c 89bd
00000030: 5271 7d3e e076 143e 4816 89bd 228d 4b3d
0.23307075 0.1432815 -0.081142925 0.046371564 0.0775654 -0.01368528 -0.29315197 -0.06684553
0.101116 -0.048091162 0.03695562 -0.067041256 0.2475026 0.14498472 -0.06693703 0.04969514

VAE.encoder_mu.layers.1.attention.W_v.bias f4 [4]
00000000: 669f dabc 45f9 b2bc 7fd2 fabc 71ff 323c
-0.026687335 -0.021847377 -0.03061795 0.01092516

VAE.encoder_mu.layers.1.linear0.weight f4 [128, 4]
00000000: 02e7 bfbe 4353 0d3e 12c7 863e 5e1e 913d
00000010: f5c9 07bd 3817 a6be b0b7 be3e f130 bc3e
00000020: e589 643e 176e af3e 8789 213e 92f8 763e
00000030: 8e38 e4be 7e13 8b3e 653f 18be c2ce b3bd
00000040: d277 58be 8262 2dbd 4a80 493e f2b2 6ebe
00000050: 75ac b4be 8ade b53e 0a0c 20bf 5e90 a63e
00000060: eaf6 923e fb50 98be 899a fd3d 076e fdbd
00000070: a80a b43e 08f5 bb39 3f16 5dbe 3bfe bb3e
00000080: 79bd 29be 05ea 54be f277 a2be 1733 023f
00000090: b104 b4be b8fb a83d 1371 933e 6856 cf3c
000000a0: fc0d 8f3e caac ca3e 0e48 4e3e caea 433d
000000b0: 1f90 053f 9294 803e 44ec 13bd f39a 28be
000000c0: 07ae c13e 8192 163e b544 cf3e 9343 b0be
000000d0: e32b ba3e 4269 983c be66 b4bd e03a c3be
000000e0: 027f a33e e080 e0be 5df8 cc3e ced5 463e
000000f0: 9902 023f 2d9d e6be a702 b9be b707 aabe
00000100: bd0d 613e 0bce d2be f1f8 823e 4da3 283e
00000110: 0504 0e3e c119 97be eda4 c23d e47c 8cbe
00000120: 096b a5be 0c1a 7c3e 9b70 c0be 5c5a e33e
00000130: 1cc3 5bbe a25f a83d 3425 b8be 9e38 42be
00000140: b108 c1bd 1c7a 213e 1757 17be c193 173e
00000150: c285 963e 03fc 49bd d3df 393e 21a4 a0be
00000160: 436e ad3e 5963 e3be 28ad a9be 7671 ce3e
00000170: c01b e1bc b02a 26be 9067 4b3d b8ce aabd
00000180: b4bc 86be aaea fabe d625 fa3e cb92 023e
00000190: f73f dfbc 6605 fcbe da64 9cbe 9d99 673d
000001a0: c0ab 73be 8655 4ebe ffb5 17be 8c84 9d3e
000001b0: 426d 1abf 2c35 66be 9767 cd3d 8ed6 54be
000001c0: 9029 ccbd ebae cfbe f96b 95be 4ea8 fa3d
000001d0: 79c9 943d f57c 89bc 5b06 ccbe 0163 79bd
000001e0: 6cd2 afbe 7458 90be b51e f83e 938e b53d
000001f0: d390 a33e 2d51 e73d c130 493e 901b b83e
00000200: a407 d7be 8556 75be 95e6 c63e d835 1abc
00000210: 5f09 a9bd 51c1 8ebe 4077 ffbd c8b2 db3e
00000220: feee e13e 9ed4 263e f909 c03e 2a56 ecbe
00000230: f71d 573e d444 e93c 5d10 e43e b132 d53b
00000240: e5c3 853e f2c4 e53e be5a 36be 41bd d53e
00000250: 8647 a7be 906a d5bd 86ec 753e 0cf0 7dbe
00000260: e51f 76be 058b 063e 72ba f6be 116d 813e
00000270: 3db3 843f 8098 2abd 1d27 f33e b18c a3be
00000280: 4f50 5d3d ac9b f2be 5c6f 66be deed f63e
00000290: 8b07 06bf b152 293e abcc ccbe 19a9 2abe
000002a0: 7044 abbe 6f7f 81be b80c fb3e f6e3 3bbe
000002b0: 8327 ad3e 54c6 043f 3f19 8c3e b082 f8be
000002c0: 70b9 47bd 2632 e93e 10c2 b3be 3184 0e3f
000002d0: aee1 133e ec15 613e a2b0 8f3e 8605 e9be
000002e0: ec8f 103e a21b fdbe c308 a2be 4359 d0bd
000002f0: 29b4 89be 6fbe c43e 60a2 41bd d3c8 50be
00000300: 49d4 73be 2e92 c53d e661 f83e 19b3 9f3e
00000310: f03e ba3e cc06 b83e 1243 6c3e 8724 cabe
00000320: 0cf1 cbbe 6afd 3dbf 1894 503e 0812 4e3d
00000330: b979 ac3e 8275 51bf c81b 1cbf d3de 0b3f
00000340: b762 573e 72cc 443e eeef 04be 4bae a6bc
00000350: b3a2 94bc 12d0 893e 7fe6 8fbe 53b3 633d
00000360: d07b 80bd 20bf 643f 93d7 92be 79df 103f
00000370: e5f1 57be b7b7 e5be d60c 10be 6ac1 31be
00000380: b3f7 95be d0d6 a8be 7e6c a23e d57a b63e
00000390: 4d39 33be 6d24 b13c aaba d2be bdf5 793e
000003a0: 9452 45be 1d2b bebe 43f1 11bf a5dd 093f
000003b0: 5ffc 8abe f054 d3be cbd3 8d3d b41e 673c
000003c0: f89a 3f3e 4513 f0be 69bb a1be 6298 623d
000003d0: 0161 14be a58b 84be d7d4 6fbd c92f dd3e
000003e0: 95df cbbe 72ae f7be 9627 b2be 16a2 053f
000003f0: 7404 5cbe 4cd3 bdbe 6820 59be 12c6 f5be
-0.37480932 0.13801293 0.26323754 0.0708587 -0.033151586 -0.3243959 0.37249517 0.3675609
0.22318228 0.3426368 0.15775119 0.2411826 -0.44574398 0.2716331 -0.14867933 -0.0877967
-0.21139458 -0.042330272 0.19677845 -0.2331045 -0.35287824 0.35521346 -0.6251837 0.32532018
0.28704005 -0.29749283 0.12382991 -0.12374502 0.3516438 0.00035849982 -0.21590517 0.367174
-0.16576184 -0.20792396 -0.31732136 0.50859207 -0.3515983 0.082511365 0.28797206 0.025309756
0.27940357 0.39584953 0.20144674 0.047831334 0.52173036 0.2511335 -0.036113992 -0.16465358
0.37828085 0.14704324 0.40482107 -0.34426555 0.36361608 0.018604878 -0.08808659 -0.38130856
0.31932837 -0.43848324 0.40033236 0.19417498 0.50785214 -0.4504179 -0.36134836 -0.3320901
0.21977897 -0.41172823 0.25580552 0.16468544 0.13868721 -0.29511836 0.09504113 -0.27439034
-0.32308224 0.24619311 -0.3758591 0.44404876 -0.21461147 0.082213655 -0.35965884 -0.1896691
-0.09425486 0.15769237 -0.14779316 0.14802457 0.29398924 -0.049312603 0.18151788 -0.3137522
0.33873186 -0.44411734 -0.3313992 0.4032094 -0.027479053 -0.16227221 0.04965931 -0.0834021
-0.26315844 -0.4900716 0.48856992 0.1275131 -0.02725218 -0.4922287 -0.30545694 0.05654298
-0.23795986 -0.20149812 -0.1481552 0.30765188 -0.60322964 -0.22481221 0.10029524 -0.20784971
-0.09968865 -0.4056314 -0.2918394 0.12239133 0.0726499 -0.016783217 -0.398486 -0.060885433
-0.34340227 -0.28192484 0.48460928 0.088650845 0.3194643 0.1129478 0.19647504 0.3595853
-0.41998017 -0.23958786 0.38847795 -0.009412251 -0.082537405 -0.27881864 -0.12473917 0.42909837
0.4412765 0.16292045 0.3750761 -0.46159488 0.21007524 0.028475203 0.44543734 0.006506287
0.26126018 0.4487682 -0.17808053 0.41745952 -0.32671756 -0.10420716 0.24016008 -0.24798602
-0.24035604 0.13138969 -0.4818912 0.25278524 1.0367199 -0.04164934 0.4749078 -0.31943277
0.054031666 -0.47384393 -0.22503418 0.48228353 -0.5235526 0.1653545 -0.399999 -0.16666068
-0.3345065 -0.25292537 0.4903314 -0.18348679 0.33819208 0.51865125 0.2736301 -0.48537207
-0.04876083 0.45546073 -0.35108995 0.5567046 0.14441559 0.21981019 0.28064448 -0.45512027
0.14117402 -0.49435145 -0.3164731 -0.10173275 -0.26895264 0.3842654 -0.047273993 -0.20389108
-0.23811449 0.09647022 0.4851219 0.31191328 0.36376143 0.35942686 0.2307246 -0.39480993
-0.39832342 -0.74214804 0.20368993 0.050310165 0.33686617 -0.8181993 -0.6097989 0.5463688
0.2103375 0.19218615 -0.12982151 -0.020346781 -0.018143987 0.26916558 -0.28105542 0.05559094
-0.06273615 0.89354134 -0.28680095 0.5659099 -0.21088369 -0.44866726 -0.14067397 -0.17358938
-0.29290542 -0.3297639 0.31723398 0.35640588 -0.17502327 0.021623814 -0.41158038 0.24410148
-0.19269782 -0.37142268 -0.5700876 0.5385383 -0.2714567 -0.4127574 0.06925162 0.014106441
0.1871146 -0.468897 -0.31588295 0.055321105 -0.14490129 -0.2588779 -0.05855259 0.4320052
-0.39819017 -0.4837528 -0.34795827 0.5220045 -0.21486074 -0.3707527 -0.21203768 -0.48002678

VAE.encoder_mu.layers.1.linear0.bias f4 [128]
00000000: 6b9a b93d f598 a63d b3b2 83be 6992 afbe
00000010: 8d22 543d 3023 d5be ed4f 783e f52f 8cbe
00000020: f0d5 bc3e cdf5 90be 7671 01bf 5cf8 2c3e
00000030: 951c 06be 0fff e73e cdd8 dbbe 5ac0 90be
00000040: 36c9 d73e 4893 093f ba3f a23e d2f9 3fbe
00000050: a917 f33e 95c7 22be 278c 913e 446d aebe
00000060: 3a5f 033f 96c8 393d 39e2 b73e e013 c2bc
00000070: b21b 5a3e 1c5a 07bd 864a c53e 81e3 9d3e
00000080: b6a6 b63e 7e87 a83e f3ff 603d 935c de3d
00000090: fa29 0ebe 466b 043d 4487 21be bab0 81be
000000a0: 6ab7 0a3d 3b9a c6be de36 24bd 8df0 90be
000000b0: 0630 89be fe94 4c3e 70be c1be 6ddf cfbe
000000c0: 9e23 d33e d253 29be 43a3 93bd 2463 ee3d
000000d0: 8115 d23e 672b eb3e 740c bdbe 5210 e4bd
000000e0: 8141 773e 032b 663e 1e45 a3bd 4af8 07bf
000000f0: 2c66 06be cbfa 8dbe 4d85 dcbe e58c f83e
00000100: 48c4 0f3e 8130 1abe 4bc5 4c3e 1a47 97bc
00000110: b103 a8bc 4ace b9be 00c0 76bc 5877 bfbd
00000120: 2399 593e 3040 1fbe 6958 08ba 4450 b6bd
00000130: 2e5f 583e 922e 7cbe 6450 ac3e da6e debe
00000140: 2e89 173e 033e 25be 4bc9 fc3e c7c4 613d
00000150: 77d0 b5be c308 debd b612 04be 843f febb
00000160: 1f18 96be 306d a9be fd6c 8f3d 283b 0dbe
00000170: 8414 a43e e200 de3d ecea b43e 4a51 ec3b
00000180: e35a 90be 9ed1 eebe 7a2d 8dbe cd29 86be
00000190: 304c eb3d 8dba ef3e dbd9 b93e 3e69 eabc
000001a0: b6b6 a3be 210a cd3e e1b2 283e aa8a 88be
000001b0: 341f bf3e c7bd a33d 4179 6bbd 2f5b 843e
000001c0: a0da 043f 8f36 1c3e 820b dcbd a7fc 8dbe
000001d0: f1f1 193e deac e0be 7a8e 2b3e 2da8 3abe
000001e0: 74dc 0ebd 02e3 8a3e b4e9 e0be 6fcd 8e3e
000001f0: ba1a 37be 8e91 933e 8527 dd3e 899f b1be
0.09062656 0.08134643 -0.25722274 -0.3429139 0.051790763 -0.41628408 0.2424924 -0.27380338
0.3688197 -0.2831253 -0.5056375 0.16891617 -0.1309684 0.45311782 -0.42938843 -0.28271753
0.421457 0.5374036 0.31689245 -0.18747643 0.4747899 -0.15896447 0.2842724 -0.34067738
0.5131718 0.04535731 0.35914782 -0.023691118 0.21299627 -0.03304492 0.3853342 0.30837634
0.35674065 0.32915872 0.054931592 0.10857501 -0.138832 0.032328866 -0.15774256 -0.25330144
0.033866324 -0.38789544 -0.040091388 -0.28308526 -0.2679445 0.19978711 -0.37840605 -0.40600148
0.4123811 -0.16535881 -0.07208874 0.11640003 0.4103203 0.4593155 -0.36923563 -0.11135925
0.24146082 0.22477345 -0.079721674 -0.53113234 -0.13124913 -0.27730402 -0.4307045 0.48544994
0.14039719 -0.15057565 0.19997136 -0.018466521 -0.020509573 -0.362902 -0.015060425 -0.09348935
0.21249823 -0.1555183 -0.00052011624 -0.08902028 0.21130058 -0.2462714 0.33655083 -0.43443948
0.14798424 -0.16136937 0.49372324 0.055119302 -0.3551061 -0.10841515 -0.12897763 -0.0077590365
-0.29315278 -0.33091116 0.0700321 -0.13792098 0.32046902 0.10840012 0.3533548 0.007211839
-0.2819434 -0.466443 -0.27573758 -0.26203766 0.11489141 0.46822014 0.36299023 -0.028614637
-0.31975335 0.4004679 0.16474487 -0.26668292 0.37328494 0.079951815 -0.057488684 0.25850818
0.51896095 0.15255187 -0.107443824 -0.2773182 0.150337 -0.43881887 0.16753569 -0.18228216
-0.03487821 0.27126318 -0.439283 0.27891108 -0.17881289 0.28821987 0.43194214 -0.34692028

VAE.encoder_mu.layers.1.linear1.weight f4 [4, 128]
00000000: 29d7 c2bd c6a3 233d fa81 2dbd ac31 fe3c
00000010: 9193 9ebc ffc4 a9bd 8755 ec3d 8b95 b8bb
00000020: 7403 86bd 1170 323e 5c91 563b df05 e23d
00000030: 5f4e 3d3d 48bf bd3c 7174 bfbd 663c 70bd
00000040: f0dc 6c3d 1813 be3d 5351 2c3d 2211 433e
00000050: 31bd 77bd 19da 583d 6f94 0fbd 25c1 a2bd
00000060: 5f1a ae3c 3420 75bd d6cc 10bb 5aa1 d5bc
00000070: 3090 213d 36ff 943b 4259 81bb 5e9e 313c
00000080: 2155 df3a 57f9 153d 2892 203d 6317 e8bc
00000090: 4314 aebd b5f7 4fbd ba87 cdbd 9ef2 cfbe
000000a0: ac5d a7bd 3340 c5bc 8230 b1bd 4483 e0bc
000000b0: f9b0 d9bd b8f2 a93d f68d 7bbc f4be 793d
000000c0: c502 9439 c0aa 5e3d 862c dd3d 24c4 ba3e
000000d0: 8837 7fb9 f20c 79bd d2e0 06bf f92e 7abd
000000e0: 6e4c 773d 1279 6a3d 025c 57bd 39ec cebd
000000f0: e386 eebd ace3 44bc 0746 b1bd a0ed b53d
00000100: 7640 73bd ac9e f3bd 6baa 883c 02f2 6b3d
00000110: 1777 fd3d ebc5 113d b63b 1bbd 112d 9f3d
00000120: 7a08 72bd 8b51 d43c 07fb 5ebd 5a36 33bd
00000130: 0c6e d6bc 7c92 ea3d cc6f a9bc 60b2 bbbc
00000140: 6be6 45bd 56d2 53bd 53fc b03d e9e8 96bc
00000150: 634c 423d 3849 68bc c9f4 b23c 4164 f8bc
00000160: 6da4 35bd 814a 9e3e f7b3 f53d 5e01 de3b
00000170: 89b5 253d d120 52bd 5055 bbbd 0f80 6e3c
00000180: 65e2 373d d0ae 563d 2ce7 553d b19f ff3d
00000190: 6152 983d 805e cebd c60e 9e3c d5b7 5a3d
000001a0: 1bd8 74bc 0f2c 4a3d c21c 8fbc 7c16 0dbe
000001b0: 6ac5 7ebc cf61 e8b9 e3fb d03c 6657 2abd
000001c0: b608 323d 7dff d33d b924 fc3a 4957 cc3d
000001d0: be34 84bd fe6c 763e c940 b33c 17d2 823d
000001e0: 8cf4 463d ed64 ebbc 71a3 853b a7ef 8cbd
000001f0: 9fd5 11be 18cc 5f3c 5ff0 82bc 2376 283d
00000200: 739a 41bd e67c 25bb a8ae 6abc 5cf3 e63c
00000210: 3f83 563d 5f27 a73d 70ed 973d 6f78 5e3e
00000220: 928d 983c 84c5 5dbe deb4 96bd 5a1f ba3d
00000230: 20ca 09bd 6f0c c13d 3405 5ebd 15b6 05be
00000240: 99f5 453b 83a7 eb3c 5125 fabc 75b2 4d3d
00000250: 5297 bfbc 4655 773d 0a1e 10bd 4b02 a5bb
00000260: 5771 14be e27f 493d 65bb 5bbd 638d 89be
00000270: f148 70bd ac5a 15bd f43d d1bc bfa9 d5ba
00000280: f9b5 1fbe dc5a 3d3c 46cb f53d 2080 ecbc
00000290: 072e 59bd c031 443d dca6 f4bc adb8 c53e
000002a0: a524 433d f01a 273e 0bda 19b9 2c70 ba3d
000002b0: 6559 5bbe ba5c eb3c faa3 1e3d 154a 083e
000002c0: d1f6 53bd fd48 9f3d 0490 a93e 3bad 593f
000002d0: 92e3 21bd db0c 233d ad08 8cbe 3cad aebd
000002e0: d901 97bd 7f01 92bd 08ef 01be 39dc ccbd
000002f0: 291c c3bd 5980 d13c cede 17be 1f82 d0bc
00000300: f602 91bd 3d89 8abd 54b3 03be 2225 2bbd
00000310: 3d8c 863d d129 053e f90f 3b3c 9c86 223d
00000320: d816 b03d de39 c6bc ebb2 133d 7934 63bd
00000330: 6abd f23c dd02 843e d5da 3f3d d039 953c
00000340: 5cdb 31bc 894a 8ebd 86fd 873d 224a 0abe
00000350: 5d68 96bc e2ce b0bd 9556 853d 7be7 afbc
00000360: 1b72 b23b bbb5 ec3d bedb 28bd d89b 17bd
00000370: ec1e 10be 0c61 473d 874b b7bc 79a6 febd
00000380: f678 a6bd c587 6f3d 5bbd 10bd 6a1b e1bd
00000390: d329 e3bd f41c d0bd 8825 21be fe41 d4bd
000003a0: 8b80 93bc d267 9a3c 9607 f2bd fcd1 b13c
000003b0: e099 8bbd db51 6abd c3f6 aa3c 7032 84bd
000003c0: 0d27 9fbd 5a84 01bd 5be0 39bc 9b1f 09bd
000003d0: 03a9 60bd 1856 3f3e bbab 123d 23e8 18bd
000003e0: 39c9 6a3d 5655 e43d 9870 d9bd c8aa 7b3d
000003f0: 2f3b 96bc 37cd 25ba 78f8 e8bd 0962 b2bc
-0.09513695 0.03995111 -0.042360283 0.031029545 -0.019357475 -0.08289527 0.115397505 -0.0056330613
-0.065436274 0.17425562 0.003274045 0.11036276 0.04621732 0.0231625 -0.09348381 -0.05865135
0.05782789 0.092809856 0.042069744 0.19049504 -0.06048316 0.05294237 -0.035053667 -0.07946996
0.02125281 -0.059845164 -0.0022094748 -0.026077915 0.03944415 0.004547025 -0.003947408 0.01084098
0.001703892 0.036614742 0.039201885 -0.028331464 -0.08499958 -0.05077334 -0.100356534 -0.4061479
-0.08172163 -0.024078464 -0.0865183 -0.027406342 -0.10629458 0.08298248 -0.01535367 0.060973123
0.00028230823 0.05436206 0.10799508 0.36477768 -0.00024339382 -0.06080336 -0.526868 -0.061079953
0.060375623 0.057244368 -0.05257798 -0.1010365 -0.11646821 -0.012017172 -0.08655935 0.08883214
-0.059387647 -0.11895499 0.016682824 0.057603844 0.1237623 0.03558914 -0.03789874 0.077722676
-0.059090115 0.025917789 -0.054438617 -0.043753006 -0.026175521 0.11453721 -0.020683192 -0.022912204
-0.048315447 -0.051714264 0.08641877 -0.018421607 0.04743613 -0.014177613 0.021845238 -0.030321242
-0.04434626 0.30916217 0.11997216 0.0067750653 0.04045633 -0.051300827 -0.091471314 0.014556899
0.04489364 0.052412808 0.052222416 0.124816306 0.074375875 -0.10076618 0.019294154 0.053397972
-0.014944102 0.049358424 -0.017469767 -0.13778108 -0.015549997 -0.0004432336 0.025510734 -0.041587256
0.04346534 0.10351465 0.0019237018 0.09977586 -0.06455372 0.24065015 0.021881478 0.06387728
0.04857306 -0.028734649 0.0040783216 -0.068816476 -0.14241646 0.0136595 -0.015983758 0.04112829
-0.047266435 -0.0025251447 -0.014323868 0.028192215 0.05237126 0.08161806 0.074183345 0.2172563
0.018622193 -0.21657377 -0.073587164 0.09088011 -0.033640027 0.094262 -0.05420418 -0.1305774
0.0030206202 0.0287664 -0.030535372 0.050219018 -0.023387585 0.060384057 -0.035184897 -0.0050356737
-0.1449636 0.049194224 -0.05364551 -0.26865682 -0.058663312 -0.036463425 -0.025542237 -0.0016301199
-0.15596761 0.011557307 0.12001662 -0.028869689 -0.05302241 0.047899008 -0.029864721 0.3861746
0.04764237 0.1631887 -0.00014672444 0.09103426 -0.2142082 0.028730739 0.0387306 0.1330951
-0.051749054 0.07777593 0.33117688 0.85029954 -0.03952367 0.03980718 -0.2735037 -0.085291356
-0.07373399 -0.071291916 -0.1268884 -0.10002942 -0.095268555 0.025573896 -0.14831087 -0.025452672
-0.07080643 -0.067644574 -0.12861377 -0.04178346 0.06569717 0.13004233 0.011417382 0.039679155
0.08598107 -0.024197515 0.0360593 -0.055469964 0.029631335 0.25783435 0.046839554 0.018216044
-0.010855522 -0.0694781 0.06640153 -0.13504842 -0.018360311 -0.0863321 0.06510655 -0.021472683
0.0054457313 0.115581 -0.041225187 -0.03701386 -0.14074296 0.048676535 -0.022374881 -0.12434096
-0.0812854 0.05847909 -0.035336833 -0.10991557 -0.11091962 -0.10161772 -0.15736973 -0.103641495
-0.01800563 0.018848334 -0.11817853 0.021706574 -0.06816459 -0.05720697 0.020869618 -0.06454933
-0.0777112 -0.03162036 -0.011344994 -0.033477407 -0.054848682 0.18685186 0.035808306 -0.037330758
0.057320807 0.11149089 -0.10617179 0.061442167 -0.018338768 -0.000632483 -0.11375517 -0.021775262

VAE.encoder_mu.layers.1.linear1.bias f4 [4]
00000000: a557 82bd d3b7 cbbd 8167 aabc 0736 753d
-0.06364373 -0.09947171 -0.020801308 0.059865978

VAE.encoder_mu.layers.1.norm1.weight f4 [4]
00000000: cf78 853f ed52 893f 9118 863f 071b 863f
1.0427493 1.0728432 1.0476247 1.0476998

VAE.encoder_mu.layers.1.norm1.bias f4 [4]
00000000: e5ce 2c3c 839c 94bd bd7e 5fbd bc05 3d3d
0.010547374 -0.07256415 -0.054564226 0.046148047

VAE.encoder_mu.layers.1.norm0.weight f4 [4]
00000000: 968e 823f 2465 453f c09f 583f 570f 4f3f
1.0199764 0.77107453 0.8461876 0.8088278

VAE.encoder_mu.layers.1.norm0.bias f4 [4]
00000000: bd74 1abc 3775 e83c 6ada d83c bf38 a73b
-0.009427247 0.028376205 0.026471335 0.0051032

VAE.encoder_mu.last_normalization.weight f4 [4]
00000000: 0000 803f 0000 803f 0000 803f 0000 803f
1.0 1.0 1.0 1.0

VAE.encoder_mu.last_normalization.bias f4 [4]
00000000: 0000 0000 0000 0000 0000 0000 0000 0000
0.0 0.0 0.0 0.0

VAE.encoder_mu.head.weight f4 [4, 4]
00000000: 6419 db3e 14c1 523e b815 503e 8294 eabe
00000010: 96fd 9f3e c011 7dbc 3afe dbbe bcf9 f5be
00000020: 085f ec3d a074 bdbd 20bd c2bd dc41 093e
00000030: a096 bb3d 8e7b cb3e ecdf c0be da79 aa3e
0.4279281 0.20581466 0.20320785 -0.45816427 0.31248158 -0.015446126 -0.42967397 -0.48042095
0.11541563 -0.0925076 -0.09508729 0.1340403 0.09159589 0.39742702 -0.3767084 0.3329609

VAE.encoder_mu.head.bias f4 [4]
00000000: 2cc3 443e 1018 293d 4a34 d9be 0c18 d43e
0.19215077 0.041282713 -0.42422706 0.41424596

VAE.encoder_logvar.layers.0.attention.W_q.weight f4 [4, 4]
00000000: ac8d 4dbf 83f1 963e c917 dbbe f8c0 193e
00000010: 9866 1b3e c178 a43e da8d 09bf beda 6abe
00000020: f335 a13c 3342 a9be 6082 07be c221 d53e
00000030: 9629 833e 0037 8d3e 7c8b 95be 9638 1a3e
-0.802943 0.29481134 -0.42791584 0.15015018 0.15175855 0.32123378 -0.53732073 -0.22935006
0.019679045 -0.33058318 -0.13233328 0.41627318 0.25617665 0.27581024 -0.2920798 0.15060648

VAE.encoder_logvar.layers.0.attention.W_q.bias f4 [4]
00000000: d325 2e3e 2320 35be e22d 38be ef8f afbc
0.17006616 -0.1768804 -0.17986253 -0.021430938

VAE.encoder_logvar.layers.0.attention.W_k.weight f4 [4, 4]
00000000: 3bd2 3fbe 0507 b3be b391 1fbe 010e f4be
00000010: 025b ad3e c028 0a3f 02aa adbb 92f6 2cbd
00000020: 069b 923e 4f72 523e c9a1 153e 84a2 dc3e
00000030: e73c 63be d233 273f cf7e 9f3e c51a 61be
-0.1873254 -0.34966293 -0.15582924 -0.47666934 0.33858496 0.5396843 -0.0052998075 -0.042227335
0.28633898 0.20551418 0.14612497 0.4309274 -0.22191201 0.65313447 0.31151435 -0.21982868

VAE.encoder_logvar.layers.0.attention.W_k.bias f4 [4]
00000000: 74bd 0139 9461 ed38 3cdc bdb8 4808 c738
0.00012372975 0.00011319216 -9.053244e-05 9.490602e-05

VAE.encoder_logvar.layers.0.attention.W_v.weight f4 [4, 4]
00000000: fa7d 953e 7e46 59be 7327 8cbd 08d2 31be
00000010: 1978 c0bc 4d51 5dbe e658 553e 25f8 1dbe
00000020: d614 8a3e 7c72 8c3d 47b4 3a3c d539 7d3e
00000030: 5339 c23e 206d b2bc 135d 13be 8990 323e
0.29197675 -0.21218297 -0.06843462 -0.17365277 -0.023494767 -0.21613045 0.20834693 -0.15426691
0.26969022 0.06857774 0.0113955205 0.24729092 0.3793436 -0.02178055 -0.14390974 0.17437948

VAE.encoder_logvar.layers.0.attention.W_v.bias f4 [4]
00000000: aa94 57bd 4552 0d3d cc57 5fbd 9b23 01be
-0.05263201 0.034502286 -0.05452709 -0.12611239
