tabsyn/vae/ckpt/magic/decoder.pt (torch, 21058 bytes, 33 tensors)

VAE_Decoder.layers.0.attention.W_q.weight f4 [4, 4]
000000 0d 44 87 3d d9 51 ac 3c 0d 64 49 3e df d2 fc bd
       0.066047765 0.021035122 0.19667073 -0.12344908
000010 68 b2 d8 be a3 1b 53 be 46 8f 2e 3d 09 3a f1 3e
       -0.42323613 -0.20616011 0.042617105 0.4711459
000020 fa c8 1d 3e da 01 98 3e b2 77 b6 bd 44 68 94 3e
       0.15408698 0.29688913 -0.08909549 0.28985798
000030 b3 2b 6b 3e 85 c7 7a be 4f d1 9d 3e 20 f1 49 be
       0.22965889 -0.24490173 0.30823752 -0.19720888

VAE_Decoder.layers.0.attention.W_q.bias f4 [4]
000000 29 9c b2 be e7 41 8a 3e 53 ea 88 be 6d 60 0c be
       -0.34884766 0.27003404 -0.26741275 -0.13708659

VAE_Decoder.layers.0.attention.W_k.weight f4 [4, 4]
000000 c7 18 bb 3e 53 76 e4 3c ab 7a a1 be 5e b9 dd be
       0.3654234 0.027888453 -0.315389 -0.43305486
000010 81 60 e9 3c 48 c4 83 bb 4d a6 a7 be 0e 61 01 3f
       0.0284884 -0.0040212013 -0.32744065 0.5053872
000020 32 da 8f be 85 24 1d 3e 3a a4 19 3e 78 7b 27 be
       -0.28096157 0.15345962 0.15004054 -0.16355693
000030 cc 93 94 3d 3e 15 81 3e 88 82 54 be 11 2c 9d bd
       0.072547525 0.2521152 -0.20752919 -0.076744206

VAE_Decoder.layers.0.attention.W_k.bias f4 [4]
000000 92 77 53 39 1c f3 1a b9 9e ef 6b 39 38 29 92 b8
       0.00020167071 -0.0001477715 0.00022500611 -6.9695e-05

VAE_Decoder.layers.0.attention.W_v.weight f4 [4, 4]
000000 db d1 a4 3e 28 c2 57 3e 8c 33 86 3c cd 33 3d 3e
       0.32191357 0.21070158 0.016382001 0.18476792
000010 6a eb 98 bc 0c 20 dd 3b 32 6c 23 bd aa f9 16 3d
       -0.018666942 0.006748205 -0.039898105 0.036859192
000020 6b 79 ce 3d 38 e4 de 3d 25 fc 0d 3e b5 82 b7 be
       0.100817524 0.10883373 0.13865717 -0.3584191
000030 64 7f 9d bc c1 ae 65 bc e2 d3 07 bd f8 2b 96 3d
       -0.019225784 -0.014018715 -0.03316105 0.07332605

VAE_Decoder.layers.0.attention.W_v.bias f4 [4]
000000 8e ca 8d bd eb c3 9c 3d 27 5e d5 bd 19 1a df 3d
       -0.069234 0.07654556 -0.10418349 0.108936496

VAE_Decoder.layers.0.linear0.weight f4 [128, 4]
000000 b7 af 41 3e 4b 06 c0 be bb 47 b3 be 6b db 96 be
       0.18914686 -0.375048 -0.35015664 -0.29464278
000010 46 e2 fb bd 19 e1 88 3c a5 95 90 bd c8 e5 d8 3e
       -0.122990176 0.016708897 -0.070597924 0.4236281
000020 9c ac 18 bf 47 6f b4 3c b2 61 86 be 88 b1 cc 3e
       -0.5963838 0.022025717 -0.2624641 0.39979196
000030 05 57 a5 3e 49 03 8c 3d f4 58 41 be 1e 0b 98 be
       0.32292953 0.06836564 -0.18881589 -0.29695982
000040 0e d8 f0 be aa c3 8a 3e 2d ed a5 3e 22 54 1e bf
       -0.47039837 0.27102405 0.32407513 -0.61847126
000050 54 6a 44 be 39 62 cd 3e ba 55 d5 3e 61 1c 4c 3e
       -0.19181186 0.40114 0.41666967 0.199327
000060 4d 4f a1 be a1 2a c2 be cf bb c0 be 3f c9 c2 be
       -0.31505814 -0.37923148 -0.37643287 -0.38044164
000070 83 d7 fa be 04 10 58 3e d0 fe e2 be c8 05 9f bd
       -0.48992547 0.2109986 -0.44335032 -0.077647746
000080 b1 03 8d 3e 87 89 cc bd 43 46 96 3e c2 53 3e be
       0.2754188 -0.09987169 0.2935048 -0.18586639
000090 ee ec 83 bd 42 c7 33 3d 63 70 06 bf 23 12 3a 3d
       -0.06441675 0.0438912 -0.5251524 0.045427453
0000a0 39 06 ea 3e cb 30 ff 3e 47 b3 74 3d 09 02 b2 be
       0.45707873 0.49841914 0.059741285 -0.34767178
0000b0 b7 06 bb be fb 50 26 bd 14 26 26 bd 94 28 be 3d
       -0.3652856 -0.040604573 -0.040563658 0.092850834
0000c0 e6 32 e7 bd 50 7d d7 be ff e5 d5 be 89 f5 2d 3e
       -0.11289005 -0.42087793 -0.41777036 0.16988195
0000d0 af ae 9d be bc 76 f4 bd 50 0a ea be 99 1a c1 bc
       -0.30797336 -0.11936709 -0.45710993 -0.023572253
0000e0 88 39 ae 3d 08 cc a5 3e d7 8d 12 be 9a 28 f0 3e
       0.08507067 0.32382226 -0.1431192 0.46905977
0000f0 a8 b8 03 be d0 a7 29 3e 7f 93 e8 be 86 a2 10 bd
       -0.1286341 0.16567922 -0.4542503 -0.035311244
000100 66 ff f3 3e 25 b1 a6 3e b1 33 c4 be b1 ab 78 3e
       0.4765579 0.32557026 -0.38320687 0.24284245
000110 53 4b ce 3e e7 1b c3 be 11 37 47 3e 30 38 53 be
       0.40291843 -0.38107225 0.194546 -0.20626903
000120 dc 42 98 3e a3 a7 49 bd 86 f4 af 3e c5 b8 8d 3e
       0.2973851 -0.049232136 0.34366244 0.2768003
000130 b9 4a 34 be c0 f3 c2 be 2c 46 ab be b7 78 18 3e
       -0.1760663 -0.38076591 -0.33451974 0.14889799
000140 9d f7 60 3e 84 ca ea be 8d 74 b1 be 4d 9e 83 3e
       0.21969457 -0.45857632 -0.34659234 0.2570671
000150 bd d6 18 3e 19 85 b5 be 8b 3c f8 3d be 80 04 be
       0.14925666 -0.35453108 0.12120923 -0.12939736
000160 74 cf d1 3e bc 97 3e 3d 6d 81 da bd d6 f9 dc 3d
       0.40978587 0.046531424 -0.10669217 0.1078984
000170 b3 55 11 3e fb 15 b6 be 88 9e 16 be 76 8c 9f be
       0.14192848 -0.35563645 -0.14708912 -0.3116185
000180 b6 e5 93 bd 77 f3 ba be 47 90 d4 bd e8 b6 6b 3d
       -0.07221548 -0.36513874 -0.10379081 0.05754748
000190 19 07 0e 3d 04 bb c5 3e d5 7f 1e 3e 42 2e e7 3e
       0.034674738 0.38619244 0.15478452 0.4515248
0001a0 1a 2c 55 be f2 17 09 bf d4 02 b3 be 84 d3 c6 be
       -0.20817605 -0.5355216 -0.34963095 -0.3883325
0001b0 16 51 ea bd 19 02 d2 be 0f 28 29 be 7f 4e 9c bd
       -0.11441247 -0.41017225 -0.16519187 -0.076321594
0001c0 ff ee 7a 3e 13 d2 ca 3d 7f d9 8d 3e 30 75 85 3d
       0.24505232 0.0990335 0.27705 0.06516492
0001d0 1e ce cd 3d 3a 15 90 3e 26 b4 bf be c2 bc 09 bf
       0.10049079 0.28141195 -0.3744213 -0.53803647
0001e0 d2 83 48 3e 11 be be be 06 aa c6 3e 9d 0b a5 3e
       0.19581535 -0.37254384 0.38801593 0.32235423
0001f0 c9 7a 9e 3e b0 6a da 3e ff 74 90 3e 1f 92 19 bb
       0.30953053 0.4265952 0.2821426 -0.0023433042
000200 90 6e b2 3e c1 e3 f7 be ea d3 8b 3e 88 0f 52 3e
       0.34849977 -0.4841595 0.27310115 0.20513737
000210 36 94 61 3e 06 bd 18 bd 66 3e 3b 3e 0e 54 55 be
       0.22029194 -0.03728964 0.18285522 -0.20832846
000220 54 5f d4 be c2 4c 8c 3e 9a fb 61 3d a2 7c e3 bd
       -0.4147898 0.27402312 0.055171587 -0.11107756
000230 43 dc 00 bd 20 65 27 3d 93 5e e7 be 80 d7 c0 3d
       -0.031460058 0.040867925 -0.45189342 0.09416103
000240 2a bc 06 bf 9c c3 82 be ed e1 3c be bd 94 02 3f
       -0.52630866 -0.25539863 -0.18445559 0.51008207
000250 06 0d 28 be db 81 1a bf 57 23 08 bd 75 bc c8 3e
       -0.16411218 -0.60354394 -0.033236828 0.3920628
000260 3d f9 bf 3e 6c 9c 10 bf 50 1d 6e 3e ff 1a 0b be
       0.3749484 -0.5648868 0.2325337 -0.13584517
000270 14 72 28 3e 19 f6 43 3e b5 ab 1f 3e 2d 33 b4 be
       0.16449767 0.19136848 0.15592845 -0.35195294
000280 31 61 bb 3e 13 86 cb 3e d1 40 cd 3e c4 32 22 bd
       0.3659759 0.39750728 0.40088513 -0.039599195
000290 2a 83 cb 3c 39 cb 0d 3e e9 e5 02 3f cd 83 0b 3e
       0.024842817 0.13847055 0.51132065 0.13624497
0002a0 51 20 dc 3e 15 95 a0 3e b4 64 b3 be ba a8 76 3e
       0.42993405 0.3136374 -0.35037768 0.24087802
0002b0 52 42 03 3f 18 df c9 3d a4 dc 67 3d 28 28 17 3f
       0.5127307 0.09857005 0.056606904 0.5904565
0002c0 9d 8c 03 bf d2 6d 87 be 24 07 b2 3e 2e eb 86 3e
       -0.51386434 -0.26450974 0.34771073 0.26351303
0002d0 e8 ee d4 3e 43 f5 11 bf 12 b9 44 3e 91 fd d0 3e
       0.4158852 -0.57014865 0.19211224 0.40818456
0002e0 f9 c1 b4 be a5 22 e3 3e 67 02 92 be 78 28 66 3e
       -0.3530424 0.4436237 -0.28517458 0.22476375
0002f0 48 7e 06 be df da e0 be e7 b4 86 3e 22 e3 65 3e
       -0.1313411 -0.43916985 0.26309893 0.22449926
000300 3a d9 99 3e ff dc af 3e 90 49 34 3e b5 97 ac bd
       0.30048543 0.34348294 0.17606187 -0.08427373
000310 37 44 20 be 31 1c ba 3e 52 c8 26 3e 17 7b db be
       -0.15651022 0.36349633 0.16287354 -0.42867348
000320 2e f0 da be 11 ce 32 be 4d 88 e8 3e 45 e2 23 3e
       -0.42761368 -0.1746142 0.4541649 0.16004284
000330 97 40 85 3e 40 e6 a3 3e 37 7a 47 3e f9 fb 02 3f
       0.2602584 0.32011604 0.19480215 0.5116573
000340 3a 00 77 3d 33 d1 ad be e3 9b c8 3d 13 39 c6 be
       0.06030295 -0.3394867 0.09795358 -0.3871542
000350 a1 c1 44 3e eb 5c 7f be 1f 0f c3 3e b3 9f d2 be
       0.19214489 -0.24937789 0.38097474 -0.41137466
000360 3d d1 b5 3e 3f 22 a3 be 53 df 01 3f 6c 21 c8 3d
       0.355112 -0.31862065 0.5073139 0.09772
000370 b4 2e ec be b4 e0 80 3e 57 96 13 bd 45 3f 1d 3e
       -0.46129382 0.25171435 -0.036032047 0.15356167
000380 7e 28 ba be 5c 5d f3 3e 39 c2 42 3e 13 d9 a7 be
       -0.36359018 0.47532165 0.19019403 -0.32782802
000390 0a 12 3f be 63 de e0 bd 2f 15 7e 3b e2 1d 79 be
       -0.18659225 -0.10979917 0.003876995 -0.24327806
0003a0 16 4c af be 66 3e a7 be d6 58 05 be c5 15 6e bd
       -0.34237736 -0.32664794 -0.1302217 -0.05812623
0003b0 18 37 11 bd 29 ef 37 3d 3f a9 87 3e e3 45 f9 be
       -0.035452932 0.044905815 0.26496312 -0.48686132
0003c0 12 ec e1 bc 2b 0b b6 bd 77 4c 29 be 6b bf c0 be
       -0.027578387 -0.08888849 -0.16533075 -0.3764604
0003d0 ba f3 78 3e b2 9e 07 bf d7 87 d0 be ea dc 15 3e
       0.24311724 -0.52976525 -0.40728638 0.14635053
0003e0 e2 43 a3 be d5 2c c9 3e 40 7c 77 bd 85 ba 15 3f
       -0.31887728 0.39292017 -0.06042123 0.5848773
0003f0 ec d4 bd 3e db 6b e0 be 3f 2e d2 be 25 5b 92 bd
       0.3707651 -0.43832287 -0.41050908 -0.07146291

VAE_Decoder.layers.0.linear0.bias f4 [128]
000000 5d b9 c0 3e cf 97 d3 be c7 46 ea 3d 48 e3 28 3e
       0.3764142 -0.41326758 0.11439281 0.16492951
000010 c0 48 d9 be 00 11 af 3e a6 b1 c5 3c 65 44 91 3e
       -0.42438316 0.34192657 0.024132561 0.28372493
000020 de 13 53 be c3 5e 4f bd 10 29 8a 3e 7d 7a e7 be
       -0.20613047 -0.05062748 0.26984453 -0.4521064
000030 2a f0 5c be 85 f1 90 3d 5c 7b 22 3e 2f 8f 0b 3f
       -0.2157599 0.07077316 0.1586737 0.54515356
000040 d1 e3 87 3e 24 a9 29 3e 86 4f ad 3e bb ad 45 3d
       0.26540998 0.16568428 0.33849734 0.048261385
000050 33 5b b9 3c 8e 53 15 3e ca 82 dd 3e 37 da e5 3d
       0.022626495 0.14582655 0.43263847 0.11223262
000060 73 da ca 3e 16 ef b1 be 89 48 b1 3e 67 2a d9 3e
       0.3961979 -0.3475272 0.34625652 0.42415163
000070 0b dc 6f 3e bf f5 9a bb e8 0d da 3e f2 9f ad 3e
       0.23423783 -0.0047290022 0.42588735 0.3391109
000080 95 63 9a 3e 73 5e c9 bd cb 92 8c 3e a4 a8 e5 3e
       0.301541 -0.09832468 0.27455744 0.44855225
000090 6e 68 cc be c6 07 1c be c4 fe ee 3d 85 d6 b5 be
       -0.39923424 -0.1523734 0.116696864 -0.35515228
0000a0 25 32 b9 3c 94 f2 59 3e ae fd ed 3e 7f da 92 be
       0.022606919 0.21283942 0.46482605 -0.28682324
0000b0 f1 0d c0 3e 9f 5b 02 be 1b 1f 9e 3e 15 73 04 bf
       0.37510636 -0.12730263 0.30883107 -0.517381
0000c0 b8 68 b9 be 9c ee 99 3d 13 e5 f9 3e 18 c0 5f be
       -0.36212707 0.07516214 0.48807582 -0.21850622
0000d0 2d 26 aa 3d 0c 16 90 bd 20 9f 86 bd 43 20 8a 3e
       0.08308063 -0.07035455 -0.065733194 0.2697774
0000e0 50 5a 8d 3d fc 13 28 be 8a 93 c8 3e 18 ed 88 be
       0.06901991 -0.16413873 0.39175063 -0.26743388
0000f0 2d cb 1e bd 72 07 2b 3e dd 60 c8 bd 2d 2d 39 be
       -0.038767982 0.16702059 -0.097841 -0.1808364
000100 d7 f8 50 3d a3 5a e2 bc 50 30 3c be a0 59 34 3e
       0.051018562 -0.02763111 -0.18377805 0.17612314
000110 7f f4 64 be 3b e3 b5 3d cd 67 25 bd d9 9c 03 3e
       -0.22358893 0.088812314 -0.040382195 0.12852801
000120 7d eb 9e 3e 1f 81 cc bd 4c cf 52 3d 9c 37 96 3e
       0.31039038 -0.099855654 0.051467225 0.29339302
000130 d3 50 3a bd b1 ad 9d be af 51 a1 3e 51 39 db 3e
       -0.045487236 -0.3079658 0.31507632 0.42817166
000140 86 38 09 3d c2 78 3f 3e e4 00 55 be 71 0c 33 be
       0.03350117 0.18698409 -0.20801121 -0.17485215
000150 1d 09 f8 3d e5 d3 cc be 1f db 57 3e 83 c0 93 bc
       0.12111113 -0.40005413 0.21079682 -0.018036133
000160 92 4e 73 3e ea c6 86 3e 21 86 3b be c3 99 05 3f
       0.23760441 0.26323634 -0.18312885 0.52187747
000170 ad 69 e8 bc b7 70 47 bd 0f c5 04 be 1d 18 8b be
       -0.028370703 -0.048691478 -0.12965797 -0.27166834
000180 17 f1 00 3d 72 fe 88 be d4 7a 02 be 5d ff 05 3f
       0.03147992 -0.26756626 -0.12742168 0.5234278
000190 f3 d7 1a be a5 de e9 3e 5a ba 83 3d da b6 e3 3e
       -0.1512144 0.45677677 0.06432028 0.44475442
0001a0 f3 d1 45 be b3 ee f5 3e b6 1f f4 bd 2e 86 3b 3e
       -0.1931837 0.48033676 -0.11920111 0.18312904
0001b0 1c 46 d7 3e 78 0e 5b 3e 6b 46 bd be 25 c8 b1 3e
       0.42045677 0.21392238 -0.36967787 0.3472301
0001c0 c5 cf e7 3e d7 45 cd 3e 92 43 6f be b6 63 a6 3e
       0.45275703 0.40092346 -0.2336562 0.32497948
0001d0 6d 5a 02 be 26 29 db be a1 c9 ca bd 87 63 b8 3e
       -0.12729807 -0.4280483 -0.09901739 0.36013433
0001e0 aa f1 6d 3e ad 2a 88 be 31 de f8 3e 96 5e 27 be
       0.23236719 -0.2659506 0.4860702 -0.16344675
0001f0 43 ae 0b 3e 10 09 65 3e d1 83 be be 79 16 3d be
       0.13640694 0.22366738 -0.37209943 -0.18465604

VAE_Decoder.layers.0.linear1.weight f4 [4, 128]
000000 48 0c ce bd f8 c8 39 3e e9 65 a9 3d ce 38 6a 3d
       -0.10060936 0.1814307 0.08271391 0.05718308
000010 ce 31 73 3e a2 20 a6 3d 72 19 cc bd 3a f6 d7 3d
       0.23749468 0.08111693 -0.09965791 0.10545011
000020 db 65 04 bd b0 68 96 3d 13 03 a7 3d 10 7d f0 3e
       -0.0323237 0.07344186 0.08154883 0.46970415
000030 d7 5d d8 b9 7e 5c c6 3d 0e 56 aa 3c d2 5b 0d 3e
       -0.00041268647 0.0968561 0.020792987 0.13804558
000040 47 70 e8 3c d4 5e d3 bd e7 7a 4c bd 9c a9 12 3d
       0.02837385 -0.103208214 -0.049921896 0.035806283
000050 bc 14 69 3d 7a 47 ee bd 10 ef e4 bc cc 28 76 bd
       0.05690454 -0.11634727 -0.027946025 -0.0600975
000060 e1 fa 64 3d 67 19 0a 3e 7c b9 88 bd 5d 10 51 bd
       0.05590332 0.13486253 -0.06676003 -0.051040996
000070 50 03 a2 bd 45 45 e6 3d 0a d4 04 be 8e 2b 04 3e
       -0.07910788 0.11243681 -0.12971511 0.1290724
000080 64 bd 4a bd 5f 51 a8 bd bb 38 ee 3d 5d 5b bb 3c
       -0.049497023 -0.08218645 0.11631914 0.022870714
000090 8e 30 0e 3e 9c 3d 43 bd e2 7e 81 bd 59 b3 bc 3d
       0.1388571 -0.047666177 -0.06323029 0.09213895
0000a0 73 1c a9 bc af a2 cf 3d 0b fd 09 bd a5 b0 27 bd
       -0.020643448 0.10138451 -0.033688586 -0.040939946
0000b0 40 d7 ff 3b df 71 57 bd 2c 09 a5 3d 17 31 88 bd
       0.007807642 -0.05259883 0.0805839 -0.06649988
0000c0 f9 cb 28 3d 4b 8c 82 bb ea 53 c3 bb b4 67 46 3d
       0.04121015 -0.0039840094 -0.005960931 0.048438743
0000d0 00 24 d4 3b 02 42 4c 3d d2 9d 13 3d 0b b4 55 3d
       0.006474018 0.049867637 0.03603918 0.052173655
0000e0 ee 39 e2 3d 73 f9 ed bc 8d 30 5b bd 1d 9e 91 3d
       0.110462055 -0.02904961 -0.0535131 0.07110236
0000f0 36 29 94 bd 3d a0 49 3d c0 49 fa 3d 39 76 ce bd
       -0.07234423 0.04922508 0.12221098 -0.10081143
000100 da 68 16 bd 90 50 d5 bd fa ad bd be 02 c5 a2 bd
       -0.036721088 -0.10415757 -0.37046796 -0.079477325
000110 01 24 fe 3e 34 56 f8 bd 33 bb 93 bd 1d 33 41 3e
       0.49636844 -0.12125817 -0.0721344 0.18867154
000120 b3 9a 30 bc 01 7b c3 3c c3 8d cc bd ce 47 49 3d
       -0.010779071 0.023862364 -0.099879764 0.049140744
000130 63 be 35 3e c6 52 ce 3c 48 d9 0b 3d b4 16 1d 3e
       0.17748408 0.025185954 0.034142762 0.15340692
000140 6e ba d4 3d 66 d0 0c be 19 15 22 3e 32 08 8e 3a
       0.10387121 -0.13751373 0.1582836 0.0010836183
000150 b7 a4 ab bd ec d9 8b 3d 55 22 96 bd be f1 a4 3d
       -0.08381026 0.06828675 -0.07330767 0.08053921
000160 2c bf 83 bd d5 e3 2f bd 7e ba c0 bd af b8 21 3e
       -0.064329475 -0.042941887 -0.094105706 0.15793107
000170 5a db de 3d 25 01 6b 3d c9 ba 86 3e 26 f5 68 3d
       0.10881682 0.05737414 0.2631438 0.056874417
000180 3f 36 2c 3e b3 46 40 bd 0c 3d 8a 3c 8f c7 fd 3d
       0.16817568 -0.046942424 0.016874813 0.123915784
000190 a5 d1 a9 bd 8f 2d 73 3d 99 ea 09 3e 08 93 db 3d
       -0.0829194 0.05936962 0.13468398 0.10721403
0001a0 27 37 39 3d db f8 d2 3c 8d f4 e4 bd e8 ab dd bb
       0.045218613 0.02575343 -0.11179457 -0.0067648776
0001b0 86 0c 6f 3c 78 e8 9a 3b 17 f3 fb 3d 44 ba ff 3c
       0.014590388 0.0047274195 0.12302225 0.031216748
0001c0 d2 42 11 3e 06 f5 3d 3a 23 a1 e4 be 35 dc 05 3e
       0.14185646 0.0007246289 -0.44654188 0.13072284
0001d0 5f e2 7e bd 59 37 05 3d 7b 38 85 bd 15 ad 64 bc
       -0.062227603 0.032523487 -0.065049134 -0.013957282
0001e0 77 cd 83 3c d4 a9 84 3d 52 0b 5c 3c 00 d8 76 3d
       0.016089184 0.06477705 0.013430433 0.060264587
0001f0 a9 7b 48 3b cb 42 84 3d e8 c0 63 bd 07 59 0b be
       0.0030591285 0.06458052 -0.05560389 -0.1360818
000200 ec e9 9f 3c d0 6f 4c be e6 1d ca 3c a3 13 78 3d
       0.019520722 -0.19964528 0.02467246 0.060565602
000210 7f 36 41 3d 03 72 86 bd 7a 04 42 bd 20 79 10 bd
       0.047171112 -0.06564715 -0.04736755 -0.035271764
000220 c1 b8 f0 bd a3 ad 0a 3d 5b e3 95 bd 7d b4 cf bd
       -0.11753989 0.033857 -0.07318755 -0.10141847
000230 ab a5 2f bd 9b f5 61 3d bd b3 8c 3c a6 33 16 bd
       -0.042882603 0.05516587 0.01717555 -0.03667035
000240 1e 38 8e 3d 1f ca 98 bd 86 ed dc 3c c2 c7 3c 3d
       0.06944297 -0.074604265 0.026968729 0.04608894
000250 66 39 72 bd 83 88 d1 3c af fa 88 3c da e1 89 bc
       -0.05913677 0.02557779 0.016721098 -0.016831327
000260 48 ca 32 bd 86 c6 37 3e ee 88 b6 3d bc 8c c7 3d
       -0.04364994 0.17946824 0.08912836 0.0974364
000270 b0 7e 95 bd 06 81 37 3d c5 d0 2b bd 72 a0 57 bd
       -0.07299554 0.04480078 -0.041947145 -0.052643247
000280 8a 47 bb bc d1 d5 82 3d 84 1f 7a 3d 55 ad 68 3d
       -0.02286126 0.063884385 0.061065212 0.056805927
000290 86 e2 53 3d 29 5b 0b bd 9d 46 4b bd 8c 0c ab 3d
       0.0517297 -0.034022484 -0.04962789 0.083520025
0002a0 86 c4 04 3c dd 84 b6 3d 05 a6 66 bd a0 4e 02 3d
       0.008103495 0.089120604 -0.056310672 0.031813264
0002b0 89 da 8b 3d 71 6d 7f 3d ed 2d ac 3b a4 cb 9e bd
       0.06828792 0.06236023 0.005254498 -0.07753685
0002c0 ac d5 0b bc 5c ef 92 3d 33 ff f5 bc 9c 86 4f be
       -0.00853483 0.071745604 -0.030028915 -0.20266193
0002d0 6b 5d 45 3d c1 5e b0 3d 8a 4a a4 bc d5 5f 72 3d
       0.048184793 0.08611823 -0.020055074 0.059173424
0002e0 64 06 44 bc 26 91 97 3d c6 ad 80 3d e2 0b 8f bd
       -0.011964414 0.07400732 0.06283145 -0.06984688
0002f0 ec 77 8b 3b b4 5c 4f 3d 60 e9 19 bd b8 7a 2f bd
       0.004256239 0.050625518 -0.03757608 -0.042841643
000300 b5 25 32 bb 46 af 70 bd c5 59 48 bc c1 30 93 bc
       -0.002718312 -0.058760904 -0.012228434 -0.017967584
000310 3e 43 38 bc 0f 0f 43 3c bf 84 66 bd bf 03 37 3c
       -0.011246501 0.011905446 -0.05627894 0.011170327
000320 4b b9 bd bc 36 e8 4a bd 28 4b 94 3d d5 51 84 bd
       -0.023159644 -0.04953786 0.072408974 -0.06460921
000330 3d 39 2d 3c a7 5f 4f bd ee 95 bc 3d d2 4a 2d 3d
       0.010572729 -0.05062833 0.09208284 0.042307682
000340 ff 78 8e bc 0f 91 92 bc 2f a2 27 bd e5 a5 18 3d
       -0.01739168 -0.017891435 -0.040926155 0.037267584
000350 fb ab 84 3c 9f 0d 52 3d 53 5f 8c 3d 93 dc 38 3c
       0.016195288 0.05128252 0.06854119 0.011283058
000360 7c 35 f9 bc 5e 8a a2 3c d1 b5 d2 3d a3 57 36 3d
       -0.030421011 0.01984137 0.10288585 0.04451717
000370 a5 2d ba 3c ab af 5e 3c 0b a3 e3 3b 24 6b 63 3c
       0.022726843 0.013591687 0.0069469265 0.013880525
000380 e1 f4 86 3d 8d 67 d4 3c eb 74 91 bd 14 77 9e bc
       0.06589676 0.025928283 -0.071023785 -0.01934389
000390 5d 9f 9a bb 33 1d 52 bd 6a 63 08 bd 33 88 89 bd
       -0.0047187046 -0.051297378 -0.033297934 -0.06715431
0003a0 ce 0c 17 bd ca 3a ce 3b d7 1e 84 bd bc 8f b5 3c
       -0.036877446 0.0062936293 -0.06451195 0.022163264
0003b0 c0 41 1c 3d 64 c3 2d 3d bd f7 65 bc d4 63 01 3d
       0.03814864 0.042422667 -0.014036116 0.031589344
0003c0 94 03 a5 3c 90 62 72 bd fa 97 bd 3d 93 a1 25 bd
       0.020143308 -0.059176028 0.09257503 -0.040437292
0003d0 6c 61 4b 3d f6 0e 94 3d 0a 56 6d bd dd b6 3f 3d
       0.049653456 0.07229416 -0.05794338 0.04680525
0003e0 7a 85 58 3d c7 1e 88 3c c4 1c 84 bd fb a1 cc 3c
       0.05286167 0.016616238 -0.06450799 0.024979582
0003f0 98 c7 67 bd 2c 9a 3c 3d 64 69 95 bd 89 79 bf 3d
       -0.05658683 0.046045467 -0.07295492 0.09349353

VAE_Decoder.layers.0.linear1.bias f4 [4]
000000 9a d0 2e 3d 0b 93 3c 3d de 4c 1f bd 34 e8 a5 bc
       0.042679407 0.04603867 -0.038891666 -0.020252325

VAE_Decoder.layers.0.norm1.weight f4 [4]
000000 97 8d 91 3f d1 6b a1 3f 10 03 84 3f e4 05 8b 3f
       1.1371335 1.2611028 1.0313435 1.0861173

VAE_Decoder.layers.0.norm1.bias f4 [4]
000000 69 33 ad bd f6 be cb 3d 8d bf f7 bc a0 9d 27 3e
       -0.08457071 0.09948532 -0.030242706 0.16368723

VAE_Decoder.layers.1.attention.W_q.weight f4 [4, 4]
000000 06 c9 96 be ee d6 e3 be 40 cf 4c 3e d5 ef 1e 3e
       -0.29450244 -0.44499916 0.20000935 0.15521176
000010 ea 62 ae 3d 7a b4 54 3e 62 3c 05 3f 64 ae a6 be
       0.0851496 0.20771971 0.5204526 -0.32554924
000020 09 5c f2 be 99 8b f2 3e 36 f2 93 be f7 4f 60 be
       -0.47335842 0.4737213 -0.2889573 -0.21905504
000030 41 5d 09 bf 38 a4 0b be c9 0b 60 be c7 e5 0c 3e
       -0.5365792 -0.13636863 -0.21879496 0.13759528

VAE_Decoder.layers.1.attention.W_q.bias f4 [4]
000000 8d 56 8c 3d b7 9e 41 bd b6 f2 8d 3b d2 7c 7c bd
       0.06852446 -0.047270503 0.004331912 -0.061642475

VAE_Decoder.layers.1.attention.W_k.weight f4 [4, 4]
000000 54 87 40 3e 54 10 00 be 1c 5f 7e be 53 c0 b6 3e
       0.18801624 -0.12506229 -0.24840969 0.35693607
000010 5e 7f 7c 3e 23 10 e8 3e 7b 5d d4 bb 41 6f 86 be
       0.24657962 0.4532481 -0.0064808703 -0.26256755
000020 db da 42 be cc b0 b8 be da f0 03 3f a1 05 40 bd
       -0.19028799 -0.36072385 0.51539385 -0.04688037
000030 40 6e 9a 3e 96 2c d5 3e e8 52 a9 3d d5 6e 73 bc
       0.3016224 0.4163558 0.08267766 -0.014857967

VAE_Decoder.layers.1.attention.W_k.bias f4 [4]
000000 48 0b 45 b6 af 7c 8d 38 bb 9e 04 b8 7b ef bf b7
       -2.9361854e-06 6.746628e-05 -3.161908e-05 -2.2880491e-05

VAE_Decoder.layers.1.attention.W_v.weight f4 [4, 4]
000000 dc ef 84 3e 64 f6 39 3d 7b 2a 89 3e c6 b2 25 bc
       0.25964248 0.045400992 0.26790223 -0.010113424
000010 31 29 27 3e f6 d7 73 3e 90 60 a0 3e 0c c5 9b 3e
       0.16324307 0.23812851 0.3132367 0.30423772
000020 80 56 d1 3d 07 73 9f be 14 e7 05 3e 30 2c 9b 3c
       0.10221577 -0.31142446 0.1307643 0.018941969
000030 35 f4 d1 3d 77 9b 89 3e 47 ac e3 3d 1c 3a 39 3e
       0.10251657 0.26876423 0.11116844 0.18088573

VAE_Decoder.layers.1.attention.W_v.bias f4 [4]
000000 f3 3d 9f 3c 91 16 15 3b bf 1a f6 bb 30 4a 6c 3b
       0.01943872 0.0022749046 -0.0075105126 0.0036054961

VAE_Decoder.layers.1.linear0.weight f4 [128, 4]
000000 a3 01 ae bd b2 7b c7 3e af 76 25 be 5f 22 77 be
       -0.08496406 0.3896156 -0.16158555 -0.24134205
000010 42 ec 07 bf f0 e3 fd bd 0a 3a 93 3e f1 f5 26 be
       -0.53094876 -0.12396991 0.28755218 -0.16304757
000020 b4 51 99 be 8d 49 bf be 48 79 30 be 38 86 34 3d
       -0.29945147 -0.37360802 -0.17233765 0.044073313
000030 56 cf a6 3e 33 e2 01 3f f5 69 2c 3d cd 6f 28 3d
       0.3258006 0.5073578 0.042093236 0.041122247
000040 63 73 f8 3d aa 29 1b bf 7a 93 df be de 16 d3 be
       0.12131383 -0.6061045 -0.43667203 -0.41228384
000050 5c 17 bd be a2 7d b0 3e dd 7e 40 be 62 c3 db 3e
       -0.36931884 0.3447085 -0.18798395 0.42922503
000060 19 c9 69 3c 3f 00 ea be 96 29 52 3e 53 01 ca be
       0.014269137 -0.45703313 0.20523676 -0.39454135
000070 c2 04 83 be d3 a4 24 3f 6c 83 cb be 56 a9 b6 bb
       -0.25589567 0.64314 -0.39748704 -0.0055743856
000080 d2 85 bf 3e fe 94 02 bf ea f3 d3 bd 0c 1e 4f 3e
       0.37406784 -0.51008594 -0.10349257 0.20226306
000090 53 7f be 3d 1f c0 92 3e 7b b5 d3 be e3 8a 7c 3e
       0.09301629 0.28662202 -0.41349396 0.24662356
0000a0 bf a9 39 bc fb 75 66 3d 03 0d 83 be ec 77 f4 be
       -0.0113319745 0.05626486 -0.25595865 -0.47747743
0000b0 ca ce 8f be 39 b6 8a 3d a2 60 1b be ca 0d 90 be
       -0.28087455 0.067730375 -0.15173581 -0.2813552
0000c0 f8 61 50 be 66 1e 34 3e b1 52 ec 3d 39 1c 7c 3e
       -0.20349872 0.17589721 0.1153921 0.24620141
0000d0 df 44 e7 3e d1 70 b8 be 0b fe d5 3e 47 63 64 be
       0.45169732 -0.36023572 0.41795382 -0.22303496
0000e0 8a 5f de 3d 18 3d 91 3c ab 5a 37 bd 68 e2 e6 3d
       0.108580664 0.017729327 -0.044764202 0.11273652
0000f0 f8 36 86 3e 31 f9 07 3f 73 71 f2 be 08 73 e9 3d
       0.26213813 0.5311461 -0.4735218 0.113988936
000100 ba 19 30 3e 0c b4 02 3e 4b 68 80 3e d9 51 03 be
       0.17197314 0.12763995 0.2507957 -0.12824191
000110 d2 e5 ee 3c 17 e4 b3 be bf d5 06 be b2 74 ec be
       0.029162321 -0.35134956 -0.13167475 -0.4618278
000120 c2 c8 03 3c 47 25 be be 34 01 86 be 25 6d 31 be
       0.00804347 -0.37137815 -0.26172793 -0.17326792
000130 38 86 35 3e 81 88 1b 3f 99 b9 a1 be 14 e5 e5 bc
       0.17726982 0.60755163 -0.31586912 -0.028063335
000140 06 93 98 bd 86 68 b7 3e 4a f0 e5 be 60 b9 b8 3d
       -0.074499175 0.35821933 -0.44909889 0.090197325
000150 a8 02 cd 3d 84 ba 88 be 3b 94 d6 3e d4 7b a2 be
       0.10010272 -0.267048 0.41909966 -0.31735098
000160 13 fa c4 3e b7 82 04 bf 7c ce 78 bd 29 10 ea 3e
       0.3847204 -0.51761955 -0.060743794 0.45715454
000170 4c 97 ab 3d e2 3c f2 bb 23 2a 67 3e 35 83 95 be
       0.08378467 -0.0073925117 0.22574668 -0.29201666
000180 a9 90 ca 3e a8 a5 d6 3d 56 1f f8 3d c9 36 e2 3e
       0.39563492 0.10480815 0.12115352 0.44182423
000190 1e 40 b7 3e 6a f5 df 3e f1 dd e2 be f9 c5 5a 3e
       0.35791105 0.43741924 -0.44309953 0.21364583
0001a0 b4 af 7b be 96 4a 17 3f da ca d7 3e 79 07 df bd
       -0.24578744 0.59098184 0.4214695 -0.10890097
0001b0 f2 11 55 be ab ce 10 3f c6 1f 09 bf b7 9d d2 bd
       -0.20807627 0.5656535 -0.5356411 -0.10283988
0001c0 1c f5 c6 3d 1e bc e0 be 27 f0 d3 be d6 39 81 bd
       0.0971472 -0.43893522 -0.4139416 -0.063098595
0001d0 25 78 b2 3e 07 de 0e 3f a1 0f fe be 8e 3d 35 be
       0.34857288 0.55807537 -0.496213 -0.17699262
0001e0 e0 3c 15 bf d3 73 86 be 2d 9b 96 3e 9a dc e5 bd
       -0.5829601 -0.26260242 0.29415265 -0.11223717
0001f0 3a 50 49 3e 7c 1c ae be 97 6f fc bd 64 40 e2 3e
       0.1965951 -0.34006107 -0.123259716 0.4418975
000200 41 e6 89 be a2 ee 5d 3e 9e 89 a7 be 63 57 7a be
       -0.26933482 0.21673062 -0.3272218 -0.24447398
000210 c6 6e b1 3d 80 e3 1d bf e5 4e bb be 82 26 43 3d
       0.086637065 -0.6167526 -0.3658363 0.047644146
000220 8f 7d ed be 14 63 f4 3e b4 d9 a5 3e 1e d8 c4 bd
       -0.46384856 0.4773184 0.32392657 -0.096115336
000230 f0 4c f7 3c c9 b6 88 be 83 c9 dc bd 45 84 9d be
       0.030188054 -0.26701954 -0.10780623 -0.30764976
000240 66 2b e2 bd 22 2a 36 bf 42 dc d5 3e bd 79 97 3e
       -0.11043434 -0.7115804 0.41769606 0.29585066
000250 06 9e 28 be a8 f3 d0 3e f1 8e d5 3e e6 97 a7 3e
       -0.16466531 0.40810895 0.41710618 0.32733077
000260 cb a0 f2 be 38 8f 0b bc 99 03 c6 be c8 ec 0a 3d
       -0.473883 -0.008518033 -0.3867462 0.03391722
000270 41 42 03 3e c9 9a bf bc a5 d8 eb be e7 05 48 3e
       0.12818243 -0.023389237 -0.46063724 0.19533502
000280 03 63 95 3e 37 7f 30 bf ca a5 ea 3c 11 eb cb bd
       0.29177102 -0.68944114 0.028643508 -0.09956945
000290 20 0e d5 3e 82 35 24 be 5c 9a c9 3e 41 35 62 be
       0.4161234 -0.16036037 0.3937558 -0.22090627
0002a0 db 16 cf 3e 0f 32 65 be fb 7b 50 3e 9f d5 ad be
       0.40447125 -0.22382377 0.20359795 -0.33952042
0002b0 b8 21 47 bf f9 8b 9b 3e 37 d4 f9 3e ab c5 0d bf
       -0.77785826 0.30380228 0.4879472 -0.5537974
0002c0 6b 62 c4 be d5 5b 0e 3f 4e a1 12 3f 0a 6d 88 be
       -0.38356337 0.55608875 0.5727738 -0.2664569
0002d0 6e ee 59 be 01 98 fb 3d b1 2e 33 be 1c 16 e3 be
       -0.2128236 0.12284852 -0.1749828 -0.44352806
0002e0 ae 9c 8f 3e bf dd cc 3d ed 90 73 3e 94 53 b6 be
       0.28049225 0.10003232 0.23785754 -0.3561064
0002f0 8d 30 a4 3e ee 04 0d bb 29 a3 d8 bd 9b 7e b4 3e
       0.3206829 -0.002151783 -0.10577995 0.35252842
000300 80 56 a6 be 79 84 75 be ce 58 75 3d 59 c7 12 bd
       -0.3248787 -0.23976316 0.059899144 -0.035834644
000310 09 80 ab 3e 34 36 f9 3d 10 e9 7e 3e 3c 40 c5 3e
       0.3349612 0.121685416 0.24893594 0.3852557
000320 c8 80 05 bf c4 39 ca be 9f d4 e0 be 9d 86 32 3e
       -0.5214963 -0.39497197 -0.43912217 0.17434163
000330 e3 54 95 be d7 75 ae 3d b3 71 bc 3e 8d d3 b5 3e
       -0.29166326 0.0851857 0.36805496 0.35512963
000340 15 53 8b be 5b 58 d3 3e 7b ae 1b 3e 44 db 83 3e
       -0.27211824 0.41278347 0.15203278 0.25753224
000350 71 47 dd 3e b8 07 94 3e b4 89 89 be 32 ce d9 3e
       0.43218568 0.2891214 -0.26862872 0.42540127
000360 ef f4 15 bf 3b 44 f1 bd 58 3d f0 bc 99 45 28 3e
       -0.58576864 -0.11780592 -0.029326126 0.164328
000370 c0 dd 9a 3d aa 10 81 3e 78 4d 89 3d a0 82 2a 3e
       0.07561827 0.25208026 0.06704229 0.16651392
000380 68 56 3b bc b0 50 24 bf 13 08 86 3d cb c3 cd bd
       -0.011434175 -0.6418562 0.06544509 -0.1004711
000390 b4 5b b5 bd 34 16 c1 be b9 fb 97 be 82 ca 40 bc
       -0.088553816 -0.37712252 -0.29684237 -0.011767032
0003a0 61 22 d4 3c 3e 93 3f 3d 3f 85 bf bd 1a 3d f4 3e
       0.0258953 0.04677128 -0.093515866 0.47702867
0003b0 24 0d 6a bd 48 d6 8a bf d2 f0 9c 3d 68 af 12 be
       -0.057141438 -1.0846643 0.0766312 -0.14324725
0003c0 7c a5 81 3e 6b 5f a1 be 2d 99 f6 3e d9 4b b4 be
       0.25321567 -0.3151811 0.4816374 -0.35214117
0003d0 05 18 4f be de cc 9d 3e f4 24 3e be ed c7 4b be
       -0.20224006 0.30820364 -0.18568784 -0.19900484
0003e0 c6 83 8e 3e c6 10 19 bf 1b 51 85 3e 90 e4 91 bd
       0.2783491 -0.5979122 0.2603844 -0.07123673
0003f0 71 2f 4b be 48 7c 9f bd 6b 4e a6 be a8 ea e0 3d
       -0.19842316 -0.07787377 -0.32481703 0.10982257

VAE_Decoder.layers.1.linear0.bias f4 [128]
000000 3d 5e c0 be 78 62 32 be ec 5e 5a bc fe 85 86 be
       -0.37571898 -0.17420375 -0.013328295 -0.26274103
000010 d2 d1 25 3e 59 31 50 be 3b 9e c7 be 98 fc cf 3d
       0.16193321 -0.20331325 -0.38987908 0.101556
000020 59 16 61 be 71 1a 30 bd 33 c6 9a be 04 ab a8 be
       -0.21981181 -0.042993966 -0.3022934 -0.32942975
000030 47 6f 13 3e 80 7d 25 bd aa 6a d0 3e 61 9c ce 3e
       0.14397918 -0.04040289 0.40706378 0.40353683
000040 65 1d a8 3d 5a 15 87 be b0 e2 e1 3e 88 8f e6 3e
       0.082087316 -0.26383477 0.4411826 0.4503138
000050 75 b7 32 3e e1 b4 a2 3e a9 9d 09 3d 2b d3 8b 3e
       0.17452796 0.31778625 0.033597622 0.27309546
000060 4c 8b b1 bb bf c6 cc 3c da e3 91 bd 9a 6f 8a bd
       -0.005418217 0.024997113 -0.07123537 -0.067595676
000070 ae 96 aa 3e d0 4f ba be 43 53 8d bd 7b 9c c7 bd
       0.33318084 -0.36389017 -0.069006465 -0.09746643
000080 3a 90 f9 3e a0 ba b9 bd 2c cd 35 3e 7f d7 f9 be
       0.4874285 -0.09068799 0.17754048 -0.48797223
000090 07 ac 5f bd 2b 88 dc 3e 9f 7a 7a be 73 c7 0b bd
       -0.054607417 0.43072638 -0.24460839 -0.034125756
0000a0 47 2b ed 3e a5 4d 9b be 81 d3 66 3e b5 76 69 be
       0.4632208 -0.30332676 0.2254162 -0.2279919
0000b0 ac 3b e7 be 23 ac 29 3d a8 14 04 3f de 15 82 3e
       -0.45162714 0.041423928 0.5159402 0.25407308
0000c0 33 23 19 3e 68 5f e2 be c9 c1 8e be 68 9a a5 3d
       0.14954834 -0.44213414 -0.2788222 0.08086091
0000d0 f0 4e d8 3d df 6c 3a be 7d cc ed bd fa 51 d8 be
       0.10561931 -0.18205594 -0.11611269 -0.42250043
0000e0 68 25 b1 3e 02 f6 08 bc d0 32 7f be 26 63 36 be
       0.3459885 -0.008359434 -0.24921727 -0.1781126
0000f0 fd 21 19 be 0e 16 bb 3e ff 65 d7 bd 24 b7 85 be
       -0.14954372 0.36540264 -0.10517501 -0.26116288
000100 2b 36 21 bf 2e 5f b8 be bd 6e b2 3e 18 4b fb 3e
       -0.6297328 -0.36010116 0.34850112 0.4908073
000110 25 5e 17 3d 42 9e 80 3d b1 78 39 3e d1 1c a9 bd
       0.036955018 0.06280185 0.18112446 -0.082574494
000120 6d 5f 10 bd e9 a3 de bc ad d0 98 3e b6 50 f5 3e
       -0.035247255 -0.027177768 0.29846707 0.4791314
000130 35 ea 37 3e d5 5d e8 3e a9 7e bd bc 6c 7a 96 be
       0.17960437 0.45384088 -0.023131685 -0.29390275
000140 73 55 ce be 8a 43 db 3e 5a d5 d6 3e d3 1d 92 3c
       -0.40299568 0.42824966 0.4195965 0.017836487
000150 a7 02 7a be 9f 0b d6 bc 6d e1 3d 3e 04 ed d9 3c
       -0.24415074 -0.026128588 0.18543024 0.026602276
000160 db 9c 26 be 35 ae 91 3e d8 14 ba be 34 3f cc 3e
       -0.16270773 0.28453222 -0.36344028 0.3989197
000170 5f d7 a6 be ef e4 83 3e 8f 40 d8 3e b6 ee c8 be
       -0.3258619 0.257606 0.42236754 -0.39244622
000180 dd fe 5f 3e 7c 2a ae 3d 91 d2 10 bb b4 b3 d2 3e
       0.21874566 0.08504197 -0.0022098164 0.41152728
000190 55 a4 08 be 75 60 2d be 32 dd cd 3d 46 c0 e2 be
       -0.13343938 -0.16931327 0.10051955 -0.44287318
0001a0 15 10 ec be e3 1b d3 3e ce 3e b2 3e 83 6c 7a 3e
       -0.4610602 0.41232213 0.3481354 0.24455456
0001b0 d3 fa 89 be 57 29 d2 3d 4c a8 2e bd 5b 4c da be
       -0.26949176 0.10261791 -0.04264097 -0.4263638
0001c0 21 af fc bd b7 12 9a 3e 27 4b 1a be 53 67 9d be
       -0.12338091 0.30092403 -0.15067731 -0.30742893
0001d0 c0 e6 8e bd ac 88 05 bf ed 69 ec be a9 52 8c be
       -0.06977606 -0.5216167 -0.46174565 -0.27406815
0001e0 78 03 c8 be b5 ed 95 bc 7a dd af 3e 3f 8f 10 3f
       -0.39065146 -0.018301824 0.3434866 0.56468576
0001f0 3c ea 47 be 03 29 20 bd c5 e1 29 be 3c d9 84 be
       -0.19522947 -0.03910161 -0.1659003 -0.25946987

VAE_Decoder.layers.1.linear1.weight f4 [4, 128]
000000 13 d4 ec 3c be 63 2b 3c 23 38 cf bd 66 76 ed 3d
       0.028909719 0.010460792 -0.10118129 0.11594848
000010 0a 57 ac bd 14 33 04 3d ad 81 40 3c fb 44 d0 3d
       -0.08415039 0.032275274 0.011749667 0.10169407
000020 30 f2 cf bd 23 ba a4 3d 99 e8 8f 3d 3e 34 0c bd
       -0.101536155 0.08043315 0.07026786 -0.03422951
000030 ae c3 eb 3d 9a 95 fa bd c9 a9 5f bd 74 8b a8 3d
       0.11511932 -0.122355655 -0.05460528 0.082297236
000040 5c c4 05 3d b4 3d 0a be 97 7a e9 bc 94 c4 04 3e
       0.032657966 -0.135001 -0.028500838 0.12965614
000050 f2 19 49 bc 9c 95 a2 3d 92 e0 0d be 37 c9 99 3d
       -0.012274252 0.07938692 -0.13855198 0.07509082
000060 88 2f 04 3d 5c 51 a9 3d 3d c5 46 3e 56 06 42 3e
       0.03227189 0.08267471 0.19411178 0.1894773
000070 70 51 8b bd 75 78 7a 3c 09 1b 91 bd c6 a5 c3 bd
       -0.06802642 0.015287508 -0.07085235 -0.09553103
000080 a6 a3 ad 3d 6e 3d 28 bc 91 7c 29 3e aa 78 82 3d
       0.08478479 -0.010268552 0.16551425 0.06370671
000090 ab 0f a8 bd 2e 63 12 3e 6f a1 1b 3e 11 7a 30 bc
       -0.082061134 0.14295647 0.15198301 -0.01077129
0000a0 86 e4 02 be bb b5 fc bd 22 ab 09 3d a2 ea 42 3e
       -0.12782487 -0.1233935 0.03361047 0.19034818
0000b0 55 43 65 3c f4 72 56 37 3c 8d 25 3d 7a 13 8f bd
       0.013993104 1.2782159e-05 0.040417895 -0.06986137
0000c0 96 dd 4a bd b5 0c 97 3c 75 28 26 bc f7 b3 d6 bc
       -0.049527727 0.018438676 -0.010141482 -0.02620886
0000d0 e1 77 93 bc a1 29 02 bd 23 d0 8c 3d a7 bb 83 3d
       -0.018001499 -0.03177798 0.068756364 0.06432276
0000e0 c1 0b 6e bd 6f 39 b3 bd a7 9a 93 bd fc 4c cb bf
       -0.05811668 -0.08751189 -0.07207232 -1.5882869
0000f0 bc d6 68 bd 02 93 c5 3d 6c ab 42 3b 8b ca c1 b9
       -0.05684541 0.0964718 0.0029704226 -0.00036962735
000100 c4 cf a7 bd ea 69 39 3d fb d8 6c bd ec 2f 7a bd
       -0.08193925 0.045267023 -0.057824116 -0.061080858
000110 c6 17 ae 3f fd 56 9a 3d b9 d1 63 be 14 8a 81 3e
       1.3601005 0.07536123 -0.22247972 0.25300658
000120 3d 7a 82 3d df 3f 3e bd 05 b9 26 3c 41 ea ab 3c
       0.06370971 -0.04644763 0.010175948 0.020985724
000130 ef e7 c3 bc 27 d8 fd 3d af 53 ce bd 18 00 9b 3d
       -0.023914305 0.123947434 -0.10074555 0.07568377
000140 9b 01 25 ba 36 7c bc bd ea 2f 7a 3c 1e 49 8c 3d
       -0.000629449 -0.09203379 0.015270213 0.068498835
000150 69 fa 98 bc e8 2b 8c 3b 43 9f c3 3c d9 5b 1d 3e
       -0.018674092 0.004277695 0.023879653 0.15367068
000160 fc 5f 2b 3d 49 ce f5 3d d0 fa 74 3d b7 f7 88 bc
       0.041839585 0.120022364 0.059809506 -0.016719682
000170 e9 77 2d 3d 25 d8 ba 3d 17 59 ab 3d 91 a3 d0 bd
       0.042350683 0.091232575 0.08366602 -0.10187448
000180 e9 f4 95 bd 78 30 40 be b2 89 d5 3c 7d 7a c9 3d
       -0.073221035 -0.1876849 0.026066635 0.09837816
000190 e4 38 c1 3d a1 b1 80 be 0b c8 84 3d 94 83 99 bc
       0.09434679 -0.2513552 0.06483468 -0.0187395
0001a0 24 7e 31 bb cb ee 97 bd 4c 13 3d 3d cf 2e 91 3d
       -0.0027083242 -0.07418593 0.04616098 0.07089006
0001b0 d0 35 96 3c 6f d4 65 bb a7 60 bb bc 99 82 0f 3e
       0.018336207 -0.0035069247 -0.022873236 0.14014663
0001c0 b0 e8 f4 bd af 66 00 3e e3 0c 08 be 1e a4 3d 3e
       -0.11958444 0.1253917 -0.13286166 0.18519637
0001d0 01 d5 6e 3d 91 fb b3 bd 61 a4 41 bd e3 2f 2f bc
       0.058308605 -0.08788217 -0.047275905 -0.010692569
0001e0 dc e6 4f bc be a3 00 3e cd f5 6d 3d 19 1c f6 3d
       -0.0126893185 0.12562463 0.058095742 0.12017078
0001f0 04 93 92 3d 42 5c 0f bc 18 05 0d bf e3 94 a7 3d
       0.07156947 -0.008750023 -0.550859 0.08182695
000200 37 49 52 bd a0 9e 43 3d 56 b5 d1 bd f8 d8 b2 bd
       -0.051339354 0.0477587 -0.10239665 -0.0873279
000210 55 52 e0 3b 36 b9 74 bd 3e b1 95 bc 88 78 cc bd
       0.0068457522 -0.059746943 -0.018272992 -0.09983927
000220 ae 0a ad 3d 39 be 5f 3d 4b 4a 1b 3c e2 92 f0 3d
       0.084493026 0.05462477 0.009478162 0.11746766
000230 8b 96 9a bc 06 fb 60 3d 35 20 4b bc 0d dc 84 3c
       -0.018870613 0.054926895 -0.0123978155 0.01621821
000240 1a 7f dc bc 36 6e 86 bb 26 e0 c2 bd cd ac 5b 3d
       -0.026916075 -0.0041024936 -0.09515409 0.053631593
000250 02 53 2e bc 69 19 df bb 39 53 5e bd a8 ad b6 3d
       -0.010639908 -0.006808449 -0.054278586 0.08919841
000260 3d 8c 58 bd fe 45 85 3d 93 d8 7b bd fb 11 df 3c
       -0.052868117 0.065074906 -0.06148584 0.027230253
000270 8a ee 56 3d 10 dc e0 bb 82 32 11 3e 74 58 25 bc
       0.052473582 -0.006862171 0.14179423 -0.01009189
000280 07 5b 2b 3c 0b f2 a8 bc 13 de 58 3d 07 5f 7d 3d
       0.010458714 -0.020623228 0.05294616 0.061858203
000290 9a 7f b1 be 7e 4a 0b 3d 99 42 46 be af ca a3 bd
       -0.34667665 0.03400659 -0.19361342 -0.07997643
0002a0 0c 6c 5b b9 83 1a 0d 3d ed f5 86 bd 48 1a 4e 3e
       -0.00020925718 0.03444911 -0.06589875 0.20127213
0002b0 f5 2d c6 3d 24 2f b0 3d 8f 3b 9d 3c fe dd dd ba
       0.09676734 0.08602741 0.019193439 -0.0016927121
0002c0 3e d5 3c 3c c6 15 33 bd 88 a1 a8 bc 69 95 0f 3e
       0.01152545 -0.043721937 -0.020584837 0.14021839
0002d0 dc e6 04 bd c8 57 d6 3c e8 90 98 3d f9 05 2b 3d
       -0.032446727 0.026164904 0.07449514 0.041753743
0002e0 5a 4f e2 bb 3e 52 a5 bd 2b 83 24 3d f9 77 70 bf
       -0.006906432 -0.08072327 0.040164154 -0.93933064
0002f0 a9 7a 89 3d f3 35 a6 bd 2b ef 2e be b6 77 77 3d
       0.06712849 -0.08115759 -0.17083423 0.0604169
000300 c0 27 5c 3d 1d fe a3 3d c0 8c a5 bc 40 86 f6 bc
       0.053748846 0.08007453 -0.020208716 -0.030093312
000310 9c 3e 90 3e be 9f 8f 3d 61 73 40 3d 49 17 6c 3b
       0.28172767 0.0701289 0.046985034 0.0036024621
000320 2f 65 ef 3b 32 bf ef bc aa 81 19 3d 0e 75 33 3e
       0.007305763 -0.029265974 0.037477173 0.17525122
000330 9d aa 39 3b 85 23 11 bd 6a f3 51 bc 47 25 bf bb
       0.0028330453 -0.035434265 -0.012814382 -0.005833301
000340 69 9d bf be 7c 99 5d 3d b2 74 72 bd 56 0b 55 3c
       -0.37424782 0.054101452 -0.05919332 0.013003191
000350 f7 40 0c 3d d7 c9 ae 3c 82 ff 82 bd 35 82 61 3c
       0.034241643 0.02133648 -0.063963905 0.013763954
000360 49 68 e8 3c c7 38 3f bd 7d ed c8 bd dd 84 22 bd
       0.02837004 -0.046685006 -0.09810922 -0.03967749
000370 ff 4f 0f be 2b cd 23 bd fc 9c 4b 3d 9c 41 2a be
       -0.1399536 -0.039990585 0.04971026 -0.1662659
000380 6b 56 ab bd ac 1b f0 3d 48 66 03 3c 39 fe 9d bd
       -0.08366092 0.11724028 0.008019991 -0.07714505
000390 ab 03 42 3c 1b eb d7 3d 9c 39 8c 3d ce d9 c3 3c
       0.011841695 0.1054289 0.068469256 0.023907568
0003a0 47 0a 07 bd fe 5b 01 3d 2a 5e 83 3d eb 83 03 3e
       -0.032968786 0.03158187 0.06414445 0.12843291
0003b0 c9 83 57 3d c0 73 71 3d d5 58 43 bd c3 a3 31 be
       0.052615914 0.05894828 -0.04769214 -0.17347626
0003c0 e4 05 7c bd 10 63 13 bd 29 c2 bd bd 17 c4 31 be
       -0.061529055 -0.035983145 -0.09265549 -0.17359959
0003d0 e9 97 bf 3c de 18 0b bc ad 3e 69 3d 21 5c d4 3d
       0.023387866 -0.0084898155 0.056944538 0.10369135
0003e0 cd ea 22 3c d6 84 81 bd 16 88 2a 37 bf 9d 29 3d
       0.009943676 -0.063241646 1.0164475e-05 0.041410204
0003f0 c0 b9 c3 bc 94 77 0c ba 4b a1 b2 be 81 5f 91 3c
       -0.023892283 -0.00053583947 -0.34888682 0.017745735

VAE_Decoder.layers.1.linear1.bias f4 [4]
000000 39 a8 7b bd e2 8c 9b b8 cf b7 d2 bc 34 d5 48 bd
       -0.061439727 -7.4172174e-05 -0.025722412 -0.04903145

VAE_Decoder.layers.1.norm1.weight f4 [4]
000000 7f d0 90 3f f9 33 b8 3f 7f b7 85 3f 98 ae 87 3f
       1.1313628 1.4390861 1.0446624 1.0600157

VAE_Decoder.layers.1.norm1.bias f4 [4]
000000 67 ea 95 bd b4 7f 10 bb 6a d2 ce 3d 19 ad 0f 3c
       -0.07320099 -0.0022048773 0.10098727 0.008769297

VAE_Decoder.layers.1.norm0.weight f4 [4]
000000 70 60 68 3f 0b 2a 6f 3f 0c ea 84 3f d6 39 41 3f
       0.9077215 0.9342353 1.0383925 0.75478876

VAE_Decoder.layers.1.norm0.bias f4 [4]
000000 4c 42 1d 3c 73 7a 37 3b e4 dd 98 3c 1f 62 04 3c
       0.009598326 0.002799657 0.018660493 0.0080800345

VAE_Decoder.last_normalization.weight f4 [4]
000000 00 00 80 3f 00 00 80 3f 00 00 80 3f 00 00 80 3f
       1.0 1.0 1.0 1.0

VAE_Decoder.last_normalization.bias f4 [4]
000000 00 00 00 00 00 00 00 00 00 00 00 00 00 00 00 00
       0.0 0.0 0.0 0.0

VAE_Decoder.head.weight f4 [4, 4]
000000 98 91 ed 3d 30 18 6b 3e a8 c8 41 3e a8 78 7a be
       0.116000354 0.22958446 0.189242 -0.24460089
000010 56 25 81 3e f0 f1 e8 3d 5a 86 c0 be b0 79 86 bd
       0.25223798 0.11374271 -0.37602502 -0.06566179
000020 72 28 94 3e 54 77 5e be b8 6d 58 3e 5a c3 c7 be
       0.28937107 -0.21725208 0.21135604 -0.3901623
000030 48 0c cf bd e6 c1 eb 3e a0 28 b4 3d 38 55 8d 3d
       -0.10109764 0.4604637 0.08796811 0.0690102

VAE_Decoder.head.bias f4 [4]
000000 ec 1e 9c be 50 d1 51 3d 86 aa f8 3e 44 c0 65 3e
       -0.30492342 0.051225007 0.485676 0.22436625

Detokenizer.weight f4 [10, 4]
000000 81 60 2a 3e b1 ec b4 3e be b7 84 3e 02 3d aa 3c
       0.16638376 0.3533683 0.25921434 0.020781044
000010 84 23 48 3e 4e b3 31 bf c4 8c 0a 3e a2 7b 08 3f
       0.19544798 -0.6941422 0.1353026 0.5331365
000020 d1 37 42 3e 62 88 70 be e9 95 62 be 2e c6 4a bf
       0.18966605 -0.23489526 -0.22127499 -0.7920865
000030 56 f3 96 3e 4e 70 80 3e 9a 8a 98 3e 52 cf 94 3e
       0.29482526 0.25085682 0.29793245 0.29064423
000040 66 2d a0 bc c1 7d de 3e ed 0f dc bd 26 71 ef be
       -0.019552898 0.43455318 -0.10745225 -0.46766013
000050 a4 be 7e be 51 17 f3 bd 10 fe 96 be f0 58 bd be
       -0.24877411 -0.118696816 -0.2949071 -0.36981916
000060 30 9f d3 bc 9d 3c ec be 8b c3 4d bd af d7 bb 3e
       -0.025832742 -0.46139994 -0.050235312 0.3668799
000070 e7 fc ad bc 29 8a ca 3e b9 88 ba 3d f0 0a 09 bf
       -0.021238757 0.39558533 0.09108109 -0.53532314
000080 79 26 f3 3c 4c 66 15 3f 9b 6f 8f 3d 3f d7 ab be
       0.029681431 0.5835922 0.07003709 -0.33562657
000090 cc a1 98 be 0f b3 1e 3b fe 7c c0 be 58 98 a2 3e
       -0.2981094 0.0024215614 -0.3759536 0.31756854

Detokenizer.cat_recons.0.weight f4 [2, 4]
000000 2b 6b 3e bf 6d 05 8b be f3 ae d7 be 58 20 36 3f
       -0.74382275 -0.27152577 -0.42125663 0.711431
000010 ce 3e 33 3f cc b3 cf 3e 3e 92 49 3f 00 71 1d 3e
       0.7001771 0.40566862 0.7873877 0.15375137

Detokenizer.cat_recons.0.bias f4 [2]
000000 bc 68 93 3e bf 8e 38 3c
       0.28790843 0.011264502
