tabsyn/vae/ckpt/diabetes/decoder.pt (torch, 21058 bytes, 33 tensors)

VAE_Decoder.layers.0.attention.W_q.weight f4 [4, 4]
-0.3670221 -0.1898379 -0.16665082 -0.0154401725 0.0063379393 -0.36751705 0.1617366 0.236271
-0.46671572 -0.0049344087 0.13143474 -0.04925878 0.39956713 0.09676647 -0.53979564 0.23266158
00000000: 52ea bbbe de64 42be 83a6 2abe c7f8 7cbc
00000010: 7dae cf3b 322b bcbe 479e 253e 06f1 713e
00000020: 5df5 eebe d2b0 a1bb d496 063e 93c3 49bd
00000030: 1094 cc3e 802d c63d 0c30 0abf d63e 6e3e

VAE_Decoder.layers.0.attention.W_q.bias f4 [4]
-0.02337958 -0.027208207 -0.17558685 -0.02395658
00000000: 8886 bfbc bfe3 debc 0acd 33be 9740 c4bc

VAE_Decoder.layers.0.attention.W_k.weight f4 [4, 4]
-0.03939526 -0.43004948 0.27640033 -0.41499949 -0.063411474 0.1994663 -0.281051 0.24403796
-0.3292616 -0.31934142 -0.4484629 0.24908331 0.14003986 0.19972089 0.012551962 -0.15262958
00000000: ed5c 21bd 722f dcbe 5884 8d3e d07a d4be
00000010: e0dd 81bd e540 4c3e ebe5 8fbe 16e5 793e
00000020: fa94 a8be b880 a3be ee9c e5be b20f 7f3e
00000030: 9c66 0f3e a283 4c3e bfa6 4d3c ee4a 1cbe

VAE_Decoder.layers.0.attention.W_k.bias f4 [4]
-0.003285223 0.0006232378 0.00076843204 4.7946647e-05
00000000: e54c 57bb c860 233a 9a70 493a 521a 4938

VAE_Decoder.layers.0.attention.W_v.weight f4 [4, 4]
-0.13063861 -0.2097449 -0.15840946 0.13671821 0.44452772 0.33849448 -0.07942828 -0.33347315
0.17131896 0.0014887596 -0.07667213 -0.114039585 -0.35701036 0.038565118 -0.35718673 0.26056117
00000000: 21c6 05be 5ec7 56be 1736 22be dcff 0b3e
00000010: 2399 e33e 264f ad3e 4bab a2bd febc aabe
00000020: 3d6e 2f3e 7c22 c33a 4706 9dbd 968d e9bd
00000030: 10ca b6be 75f6 1d3d 2ee1 b6be 4668 853e

VAE_Decoder.layers.0.attention.W_v.bias f4 [4]
-0.01254583 -0.13127029 -0.022298219 -0.013705652
00000000: 068d 4dbc b86b 06be c1aa b6bc ac8d 60bc

VAE_Decoder.layers.0.linear0.weight f4 [128, 4]
-0.28348953 0.22056483 0.5173708 -0.10587896 0.14646974 -0.17502534 -0.3766534 0.31480366
-0.33026218 -0.07882417 0.4737204 -0.18046446 -0.5679244 -0.1484109 -0.15743144 0.3710952
0.3478729 0.22446465 -0.20594433 0.23082232 -0.43896735 -0.36153415 0.2974323 0.06530097
-0.16840664 0.24655779 0.40393385 -0.114069365 -0.19750445 0.026428951 0.030824166 -0.3809658
-0.4649633 -0.050570343 -0.410315 -0.12333473 -0.35726637 0.35793525 -0.42864275 0.46241298
-0.12397615 -0.22392808 0.31846756 -0.25077593 -0.038049072 -0.34336078 0.33630595 0.29124022
-0.41908988 0.3312767 0.5455527 0.38185507 -0.22801676 0.40363732 -0.42880473 -0.036350973
0.31617808 0.14473118 -0.19211228 -0.03826041 0.48967338 0.3863805 0.42163926 0.38400233
0.4737384 -0.45189905 -0.077572316 -0.067692995 -0.57106644 -0.4791861 0.21551815 0.21958332
0.16891149 0.33928213 0.2069653 -0.14287533 -0.010026993 0.3124255 0.08748244 0.23806134
-0.10930478 0.23328535 -0.44885564 0.27781945 -0.14924398 0.039678667 -0.17141075 -0.41887283
0.304817 0.12764803 0.48850325 -0.4765672 0.41627452 -0.5102676 0.26716554 0.24712586
-0.34018895 -0.007257712 -0.44098353 -0.16182785 -0.3950657 0.09632734 -0.37754875 0.24466695
0.45518878 0.43909672 -0.46362498 -0.002413679 0.4303029 -0.49965644 -0.35095415 -0.51778877
0.34390762 0.28212678 -0.47032633 0.2733252 0.24187028 0.37806684 -0.2444077 0.28021273
0.08674077 -0.32398608 -0.5594903 0.4336128 0.21508914 0.05866304 -0.2798911 0.15698436
-0.28885943 0.02884605 0.264061 -0.21518564 0.40648502 0.3912745 -0.34252816 -0.15166064
-0.26531425 0.11283566 0.31224212 0.03763002 0.27693698 -0.09539691 0.15519272 -0.41190377
0.104121625 0.22018586 0.30386215 -0.5289376 0.29125303 0.0060467124 -0.33734736 0.1609201
0.28129593 0.28240994 -0.3627296 0.25895762 -0.4516576 -0.37354577 -0.3801685 0.4294629
-0.43189833 -0.34047925 0.07081079 -0.05103099 0.08473014 0.30236578 -0.20463175 0.039021146
-0.03001601 0.5393795 -0.35514158 -0.047088236 0.071302585 -0.3266317 0.12069091 -0.11976873
0.15379807 -0.35664916 -0.21978028 0.2758915 -0.2898666 -0.012026742 -0.025875974 -0.31556052
-0.35632795 -0.47277242 0.25241923 -0.020831987 0.07148619 -0.04617207 0.46923667 -0.22046494
0.29022542 -0.33434322 0.3500536 0.14753565 -0.21939576 -0.1304795 0.02997002 0.4529736
0.13983187 0.09285201 -0.27997681 -0.10257839 0.15624039 -0.34853038 -0.020651404 0.11667771
0.4587532 -0.31624672 -0.17806362 0.13748677 0.13013549 0.22817795 -0.40303877 0.115335576
-0.4869385 -0.010193624 -0.31301793 0.31513697 0.4186822 0.48485103 -0.54366654 -0.41643894
0.5361472 -0.15585944 0.046971187 0.33926675 -0.49180883 -0.20144552 -0.35765034 0.3524522
-0.13410167 0.41434565 -0.21448159 -0.4470828 0.2059395 -0.53073645 0.43909785 -0.32540584
0.5248812 0.37120944 -0.3550755 0.09892839 -0.20109373 0.4553556 -0.35252374 0.5057625
0.1350384 0.4109748 -0.3686774 0.26464957 0.3409858 0.35103694 0.2429947 -0.32035568
00000000: 8a25 91be bfdb 613e 6a72 043f 11d7 d8bd
00000010: 2afc 153e d839 33be b7d8 c0be f22d a13e
00000020: 2018 a9be 916e a1bd 7b8b f23e adcb 38be
00000030: 7e63 11bf 07f9 17be b535 21be 3100 be3e
00000040: 661c b23e 10da 653e 12e3 52be b05c 6c3e
00000050: 54c0 e0be 011b b9be 0c49 983e 84bc 853d
00000060: ca72 2cbe a579 7c3e 6bd0 ce3e 339d e9bd
00000070: 9b3e 4abe 8781 d83c f682 fc3c f30d c3be
00000080: ab0f eebe d922 4fbd cf14 d2be eb96 fcbd
00000090: 9eeb b6be 4a43 b73e 1077 dbbe 65c1 ec3e
000000a0: 35e7 fdbd 674d 65be 2e0e a33e b465 80be
000000b0: 58d9 1bbd fccc afbe 4b30 ac3e 701d 953e
000000c0: f392 d6be 1a9d a93e 57a9 0b3f 8282 c33e
000000d0: 3a7d 69be 8da9 ce3e 4b8c dbbe c2e4 14bd
000000e0: 18e2 a13e 6934 143e 15b9 44be f3b6 1cbd
000000f0: 78b6 fa3e aad3 c53e 1ae1 d73e f49b c43e
00000100: d78d f23e 505f e7be 3cde 9ebd a0a2 8abd
00000110: 6931 12bf e157 f5be cab0 5c3e 73da 603e
00000120: 22f7 2c3e 63b6 ad3e b6ee 533e e94d 12be
00000130: 4248 24bc 3cf6 9f3e fe29 b33d 5ac6 733e
00000140: 2fdb dfbd 5be2 6e3e 68d0 e5be 5a3e 8e3e
00000150: 6ad3 18be 1986 223d 4d86 2fbe 8076 d6be
00000160: f910 9c3e 2ab6 023e 191d fa3e 9e00 f4be
00000170: ef21 d53e e6a0 02bf ecc9 883e 900e 7d3e
00000180: 3f2d aebe 1ad2 edbb 98c8 e1be 33b6 25be
00000190: 0d46 cabe 4547 c53d 124e c1be f989 7a3e
000001a0: 810e e93e 49d1 e03e 4160 edbe d02e 1ebb
000001b0: a950 dc3e f8d2 ffbe 43b0 b3be ce8d 04bf
000001c0: a914 b03e ec72 903e 9dce f0be 48f1 8b3e
000001d0: d8ac 773e fa91 c13e 0346 7abe 0b78 8f3e
000001e0: 25a5 b13d 81e1 a5be c23a 0fbf 7f02 de3e
000001f0: 5440 5c3e a848 703d e34d 8fbe 82c0 203e
00000200: 62e5 93be 8d4e ec3c 0133 873e a059 5cbe
00000210: ce1e d03e 2255 c83e da5f afbe ed4c 1bbe
00000220: 45d7 87be 6216 e73d 33de 9f3e f021 1a3d
00000230: afca 8d3e 755f c3bd d7ea 1e3e 0de5 d2be
00000240: b83d d53d 6778 613e d293 9b3e 7468 07bf
00000250: 1e1f 953e 8023 c63b cbb8 acbe 3dc8 243e
00000260: 0506 903e 0998 903e b2b7 b9be 1896 843e
00000270: aa3f e7be 6441 bfbe 72a5 c2be 90e2 db3e
00000280: c721 ddbe 4c53 aebe 3f05 913d df05 51bd
00000290: ff86 ad3d b0cf 9a3e fc8a 51be a3d4 1f3d
000002a0: 23e4 f5bc c614 0a3f 1ed5 b5be 98df 40bd
000002b0: 1707 923d 453c a7be cc2c f73d 4f49 f5bd
000002c0: 3e7d 1d3e b89a b6be 150e 61be a741 8d3e
000002d0: 6569 94be d00b 45bc daf9 d3bc 2691 a1be
000002e0: 9e70 b6be 3a0f f2be 183d 813e d8a7 aabc
000002f0: 5a67 923d ed1e 3dbd ca3f f03e 90c1 61be
00000300: 6d98 943e 092f abbe 3a3a b33e 9613 173e
00000310: 48a9 60be 6b9c 05be b083 f53c 28ec e73e
00000320: 1630 0f3e 3229 be3d 1f59 8fbe 9e14 d2bd
00000330: 7bfd 1f3e 9372 b2be 222d a9bc b9f4 ee3d
00000340: b3e1 ea3e 17eb a1be 4f56 36be 55c9 0c3e
00000350: 3d42 053e 7ba7 693e 195b cebe 0f35 ec3d
00000360: 0150 f9be 2803 27bc e343 a0be a259 a13e
00000370: 835d d63e 653e f83e bb2d 0bbf 7c37 d5be
00000380: f140 093f 9e99 1fbe dc64 403d 5fb4 ad3e
00000390: 5ece fbbe bc47 4ebe f21d b7be 9d74 b43e
000003a0: f351 09be 1d25 d43e 10a1 5bbe 09e8 e4be
000003b0: cee1 523e 58de 07bf 6fd1 e03e 989b a6be
000003c0: 9d5e 063f 2a0f be3e 75cc b5be f89a ca3d
000003d0: 84eb 4dbe 5f24 e93e fe7d b4be a779 013f
000003e0: 8247 0a3e 4a6b d23e 49c3 bcbe 2680 873e
000003f0: b195 ae3e 1dbb b33e 9ad3 783e a905 a4be

VAE_Decoder.layers.0.linear0.bias f4 [128]
-0.07736158 0.27079538 -0.09282669 -0.5358242 -0.48862267 -0.3979828 0.26713502 -0.06445353
0.01982314 -0.37082055 -0.1968455 0.38687855 -0.09135719 -0.1582465 -0.16595152 -0.39932978
-0.3406264 -0.16219983 -0.11726173 0.40640488 -0.20497139 0.12193968 0.55310553 -0.38142544
0.25592288 -0.20980914 0.3527185 -0.15479484 0.4727116 -0.063098446 0.43057463 -0.38375527
0.23549771 -0.43383053 0.07278286 -0.33858094 -0.2651297 -0.40911233 -0.30497128 0.3019006
0.31227812 0.20418492 0.08883964 0.43471164 -0.024617122 0.10244126 0.23809443 -0.23594862
0.48579884 0.18130274 -0.1215785 -0.016669827 0.41436097 0.026018918 -0.13471079 -0.027248891
0.22707738 0.41953987 -0.4211399 0.47834492 0.16763863 0.42423317 0.48355347 -0.44698104
0.23943646 -0.006054676 0.08839256 0.41658416 0.49288657 -0.2779408 -0.25710657 0.23484217
0.43960792 0.33728135 0.1698322 0.021318397 0.59911436 -0.080284506 0.2621319 0.10210491
-0.36400142 0.19654886 -0.48887002 0.32354248 -0.37492165 -0.0018174221 0.18564758 0.35583788
-0.41559887 -0.3150325 0.50495505 -0.058072302 0.31046584 0.29569405 -0.19936994 0.26793748
-0.208437 -0.08332702 0.24844521 0.15646887 0.375975 -0.097272545 0.3934484 -0.108634084
-0.22114946 0.10301422 0.17716762 0.15882008 -0.42961392 -0.3094654 0.078770444 0.21643437
0.1988765 0.41102174 -0.35180458 -0.12747201 -0.10150157 -0.21241255 -0.32541645 0.5422105
0.3922935 0.29911026 -0.1506725 0.31152588 0.2878028 -0.03946523 0.27836293 -0.14473026
00000000: c06f 9ebd b1a5 8a3e eb1b bebd c62b 09bf
00000010: c02c fabe 67c4 cbbe ecc5 883e 3600 84bd
00000020: 2364 a23c 31dc bdbe de91 49be f214 c63e
00000030: 7a19 bbbd 5f0b 22be 32ef 29be f474 ccbe
00000040: 9566 aebe b617 26be eb26 f0bd 4d14 d03e
00000050: 05e4 51be 83bb f93d 5398 0d3f 324a c3be
00000060: 5308 833e 35d8 56be 8597 b43e 8a82 1ebe
00000070: 4107 f23e c239 81bd 4774 dc3e 927b c4be
00000080: 5026 713e 091f debe 2e0f 953d 7b5a adbe
00000090: 14bf 87be 2c77 d1be 3225 9cbe b792 9a3e
000000a0: ebe2 9f3e da15 513e 8ff1 b53d 8692 de3e
000000b0: d9a9 c9bc b9cc d13d 07cf 733e 849c 71be
000000c0: a0ba f83e 6da7 393e 26fe f8bd 298f 88bc
000000d0: 1f27 d43e a025 d53c a0f1 09be 1139 dfbc
000000e0: f986 683e eecd d63e a69f d7be a0e9 f43e
000000f0: 76a9 2b3e 1735 d93e 5294 f73e b3da e4be
00000100: d52e 753e 4e66 c6bb 2907 b53d 854a d53e
00000110: a15b fc3e 424e 8ebe 79a3 83be 777a 703e
00000120: 4a14 e13e 24b0 ac3e 7ee8 2d3e eba3 ae3c
00000130: 8f5f 193f 346c a4bd 2736 863e 611c d13d
00000140: 655e babe 1b44 493e 2c4d fabe 5ca7 a53e
00000150: bbf5 bfbe 9136 eeba 661a 3e3e 6230 b63e
00000160: 60c9 d4be f14b a1be bc44 013f 39dd 6dbd
00000170: 61f5 9e3e 3665 973e a227 4cbe 1a2f 893e
00000180: 8270 55be 5ba7 aabd 6c68 7e3e 6039 203e
00000190: cc7f c03e d436 c7bd 1272 c93e 8c7b debd
000001a0: 0175 62be 1ff9 d23d 6e6b 353e bba1 223e
000001b0: 5bf6 dbbe 4072 9ebe 6652 a13d f9a0 5d3e
000001c0: 48a6 4b3e 7171 d23e bb1f b4be 0688 02be
000001d0: 0ee0 cfbd ad82 59be fc9c a6be 4fce 0a3f
000001e0: b2da c83e fb24 993e e449 1abe 5280 9f3e
000001f0: e35a 933e 4ba6 21bd 9685 8e3e 2b34 14be

VAE_Decoder.layers.0.linear1.weight f4 [4, 128]
0.055446308 0.012913268 -0.024510544 -0.12954086 0.025660206 0.0130065195 0.00071970565 0.05365257
-0.07494451 -0.14849742 -0.08524539 -0.091587245 0.0030972825 -0.010523866 -0.040433936 0.07840736
-0.040968426 -0.104281574 -0.019817483 0.013071496 -0.100935355 -0.014209429 -0.0019323376 -0.119918786
0.004475762 -0.12673306 0.04240737 -0.07732824 -0.051342744 0.004129226 -0.08829293 -0.035557088
0.05869729 0.06414315 0.05536699 0.0728618 0.120591074 -0.019275332 0.22707097 0.014545034
-0.16332339 -0.012471594 -0.03718132 -0.04781203 -0.05333933 0.07253335 -0.019816415 0.018450866
-0.0776793 -0.06672043 0.024314169 -0.0056257155 -0.10110535 0.035475288 -0.0966022 -0.020501988
-0.09698223 -0.10954976 0.12944186 -0.03215391 -0.01924827 -0.1258782 -0.009057785 0.06954922
0.043821655 0.02377326 0.003532917 -0.05783232 -0.11933881 -0.17533486 0.043367453 -0.049051613
-0.0037153745 -0.019968066 0.034645695 -0.07358104 0.036879025 -0.053783998 0.082197934 0.17294154
0.010060513 0.009661411 0.06709296 -0.0026647148 -0.02342085 0.09425994 -0.11039192 -0.028000634
0.059725963 -0.11614573 -0.017848851 -0.049326528 0.028815981 -0.101152845 0.018918943 -0.04245537
0.124814354 -0.030156732 -0.08394032 0.04789179 0.08952932 -0.047705922 0.04938344 -0.02121456
0.046136532 -0.06340271 -0.1366517 -0.09682491 -0.15158099 -0.04850848 -0.0543495 -0.06570645
0.075429514 -0.017949302 -0.0006222661 -0.05679921 -0.057667073 0.12435805 -0.07379282 0.0013947509
0.05849379 -0.069203034 0.27490473 -0.06627293 0.02794257 0.03889846 0.03361592 -0.016586252
0.06469928 -0.0010117871 0.056148294 0.056204442 0.055114023 0.11967985 0.009525416 -0.05860118
0.08543922 0.1968875 -0.06361227 -0.0862652 0.014273968 -0.011754838 -0.07290436 -0.047123674
0.023330795 0.024534466 0.07823663 -0.021801222 0.059077945 -0.02164044 -0.021250317 -0.123273194
0.064790875 0.05475415 0.085050866 -0.11186233 0.0771922 0.047856793 0.04673542 0.04160225
-0.025512904 -0.036755215 -0.03602025 -0.09182896 -0.035121176 0.037452344 0.04245267 0.0033293893
-0.03563002 0.018160766 0.03528089 -0.13168702 -0.102656424 0.07501043 -0.00205246 -0.17226164
-0.051525876 0.08966865 0.036594894 -0.040876452 -0.09778254 0.0387907 0.17597543 0.11492549
-0.08485062 0.051874544 0.08427497 -0.074441746 -0.028579991 0.13860871 0.11098924 -0.048093956
0.02329138 0.075017884 -0.012202281 -0.0030176644 -0.0133344615 -0.030196777 0.040469754 0.039976597
0.07335229 0.021517793 0.050796457 0.054238804 0.116779834 -0.004307543 -0.055653155 -0.12344877
0.047286596 0.09482261 0.016898356 -0.048232988 0.13592668 0.05168558 0.10366284 0.007999912
-0.055148013 0.20214489 0.11700065 0.021675557 0.076907754 0.11199354 0.011570267 0.03581565
0.033382453 -0.0344802 0.07639903 -0.009595496 -0.062271852 0.20470858 0.038445894 -0.03464223
-0.10004042 -0.050382167 0.15665694 0.13526186 0.07784434 -0.061789703 0.086225405 0.12330449
0.12897328 0.14439827 -0.045749154 -0.038149286 -0.00024717516 0.089400075 -0.15104187 0.052694157
-0.0023875844 -0.09144404 -0.27952328 0.06589714 -0.0011895559 -0.03465037 0.070608705 -0.08639255
00000000: ab1b 633d 2c92 533c 56ca c8bc 5ca6 04be
00000010: 5a35 d23c 4c19 553c a1aa 3c3a ccc2 5b3d
00000020: 827c 99bd b50f 18be 2395 aebd 1892 bbbd
00000030: c7fb 4a3b 4b6c 2cbc 0e9e 25bd 0a94 a03d
00000040: 82ce 27bd 9491 d5bd 4658 a2bc d429 563c
00000050: 32b7 cebd aace 68bc 7e46 fdba fb97 f5bd
00000060: 6aa9 923b 50c6 01be 5ab3 2d3d 455e 9ebd
00000070: c54c 52bd 754e 873b ecd2 b4bd 4fa4 11bd
00000080: 926c 703d 7c5d 833d 7fc8 623d 9138 953d
00000090: 74f8 f63d 4de7 9dbc 4b85 683e 4b4e 6e3c
000000a0: 3f3e 27be a855 4cbc 714b 18bd 8cd6 43bd
000000b0: 577a 5abd 5d8c 943d 0956 a2bc 4526 973c
000000c0: 5316 9fbd b9a4 88bd 822e c73c ec57 b8bb
000000d0: 5210 cfbd 894e 113d 60d7 c5bd c9f3 a7bc
000000e0: 9f9e c6bd a05b e0bd 688c 043e d1b3 03bd
000000f0: 8cae 9dbc 37e6 00be 1b67 14bc d26f 8e3d
00000100: 567e 333d 24c0 c23c 8388 673b 95e1 6cbd
00000110: e867 f4bd fb8a 33be 12a2 313d 58ea 48bd
00000120: a47d 73bb 1294 a3bc a5e8 0d3d a8b1 96bd
00000130: 760e 173d 9c4c 5cbd 6457 a83d 9617 313e
00000140: dad4 243c e54a 1e3c 0968 893d 7fa2 2ebb
00000150: 15dd bfbc 5b0b c13d 2915 e2bd 9661 e5bc
00000160: 36a3 743d d0dd edbd c137 92bc 9d0a 4abd
00000170: 7e0f ec3c 3929 cfbd e6fb 9a3c afe5 2dbd
00000180: ab9e ff3d 400b f7bc e7e8 abbd 2e2a 443d
00000190: 265b b73d 4967 43bd 4a46 4a3d 28ca adbc
000001a0: a9f9 3c3d 48d9 81bd 6cee 0bbe 234c c6bd
000001b0: 0c38 1bbe d4b0 46bd 959d 5ebd 1a91 86bd
000001c0: ca7a 9a3d 6a0a 93bc 921f 23ba 4aa6 68bd
000001d0: 4f34 6cbd 6faf fe3d b120 97bd 13d0 b63a
000001e0: 2f97 6f3d 52ba 8dbd 50c0 8c3e 1aba 87bd
000001f0: d1e7 e43c fe53 1f3d d9b0 093d e4df 87bc
00000200: 0e81 843d f19d 84ba c1fb 653d a136 663d
00000210: 3ebf 613d b61a f53d 7e10 1c3c ca07 70bd
00000220: c2fa ae3d e09c 493e 2647 82bd cfab b0bd
00000230: 5cdd 693c 5d97 40bc e24e 95bd c104 41bd
00000240: 3920 bf3c 81fc c83c 873a a03d 7a98 b2bc
00000250: b7fb 713d 4b47 b1bc 2515 aebc a876 fcbd
00000260: 14b1 843d e345 603d 262f ae3d 1418 e5bd
00000270: f216 9e3d 7c05 443d a46d 3f3d 1f67 2a3d
00000280: 7000 d1bc a38c 16bd f889 13bd d210 bcbd
00000290: 39db 0fbd a167 193d dae2 2d3d e231 5a3b
000002a0: c9f0 11bd e3c5 943c b282 103d f6d8 06be
000002b0: 883d d2bd 119f 993d 9182 06bb 5b65 30be
000002c0: cc0c 53bd 32a4 b73d 87e4 153d 116e 27bd
000002d0: 3642 c8bd ffe2 1e3d e732 343e 0e5e eb3d
000002e0: 29c6 adbd 677a 543d 5b98 ac3d ea74 98bd
000002f0: 9620 eabc 71ef 0d3e 544e e33d 2bfe 44bd
00000300: 90cd be3c faa2 993d 13ec 47bc 02c4 45bb
00000310: c978 5abc 3b5f f7bc 9dc3 253d 80be 233d
00000320: ba39 963d 1546 b03c f20f 503d 8229 5e3d
00000330: 442a ef3d 4a26 8dbb 90f4 63bd b5d2 fcbd
00000340: 97af 413d 5b32 c23d 6c6e 8a3c f48f 45bd
00000350: 5d30 0b3e 42b4 533d 2f4d d43d 1012 033c
00000360: e2e2 61bd 12ff 4e3e 099e ef3d f090 b13c
00000370: d081 9d3d de5c e53d 3891 3d3c 6eb3 123d
00000380: 0abc 083d 1c3b 0dbd 1877 9c3d 6d36 1dbc
00000390: c510 7fbd 209f 513e 7179 1d3d 03e5 0dbd
000003a0: fee1 ccbd 885d 4ebd ad6a 203e 1682 0a3e
000003b0: da6c 9f3d 3317 7dbd f296 b03d 1087 fc3d
000003c0: 9211 043e 24dd 133e 7763 3bbd 6d42 1cbd
000003d0: 4a97 81b9 6317 b73d b8aa 1abe d4d5 573d
000003e0: 0579 1cbb 0347 bbbd ad1d 8fbe 14f5 863d
000003f0: dfea 9bba 8ced 0dbd 4c9b 903d 94ee b0bd

VAE_Decoder.layers.0.linear1.bias f4 [4]
-0.010543081 -0.051719528 -0.085471034 -0.063049816
00000000: e3bc 2cbc dbd7 53bd 700b afbd 4320 81bd

VAE_Decoder.layers.0.norm1.weight f4 [4]
1.0487269 1.140761 1.108277 1.0511068
00000000: af3c 863f 7504 923f 05dc 8d3f ab8a 863f

VAE_Decoder.layers.0.norm1.bias f4 [4]
-0.03256678 -0.022261845 0.0066656987 0.011037546
00000000: be64 05bd 795e b6bc ef6b da3b d3d6 343c

VAE_Decoder.layers.1.attention.W_q.weight f4 [4, 4]
-0.24229287 -0.28824422 0.17743975 -0.017505301 0.28558055 0.32979986 -0.28750142 0.23800562
-0.3260655 -0.019222576 0.41057318 -0.09808663 0.004817522 -0.35386553 -0.21319628 0.063190825
00000000: 9f1b 78be bf94 93be c4b2 353e 4767 8fbc
00000010: 9d37 923e 87db a83e 6333 93be bfb7 733e
00000020: 0ff2 a6be aa78 9dbc a636 d23e a5e1 c8bd
00000030: 4edc 9d3b dd2d b5be 2050 5abe 316a 813d

VAE_Decoder.layers.1.attention.W_q.bias f4 [4]
0.03206889 0.055441808 0.0465073 0.0478268
00000000: ab5a 033d f316 633d 707e 3e3d 09e6 433d

VAE_Decoder.layers.1.attention.W_k.weight f4 [4, 4]
-0.100353435 -0.36188722 0.066695824 0.16700499 0.2891168 0.2355731 0.19095747 0.18766777
-0.09167917 -0.3206164 0.23290747 0.1108799 0.14831854 -0.52092904 0.24454413 0.3186297
00000000: 1a86 cdbd 4849 b9be d297 883d 5b03 2b3e
00000010: 1e07 943e 133a 713e 5b8a 433e fb2b 403e
00000020: 4ac2 bbbd d527 a4be 4c7f 6e3e 0015 e33d
00000030: d1e0 173e 9b5b 05bf c769 7a3e 6f23 a33e

VAE_Decoder.layers.1.attention.W_k.bias f4 [4]
-0.00034165487 -0.00015220126 -0.00014272722 -3.2565622e-05
00000000: 2420 b3b9 3798 1fb9 0ca9 15b9 1297 08b8

VAE_Decoder.layers.1.attention.W_v.weight f4 [4, 4]
-0.21743496 0.16752465 -0.17893136 -0.1661019 -0.19162163 -0.05470055 -0.33120885 0.24404655
-0.036079984 0.27624625 0.20725192 0.36239934 -0.13408151 -0.44204295 0.2180012 0.45762047
00000000: 45a7 5ebe 958b 2b3e c839 37be 9e16 2abe
00000010: 7638 44be af0d 60bd 3594 a9be 57e7 793e
00000020: 9bc8 13bd 2670 8d3e d939 543e 688c b93e
00000030: aa4c 09be 7453 e2be b53b 5f3e 3b4d ea3e

VAE_Decoder.layers.1.attention.W_v.bias f4 [4]
-0.032261036 0.056592792 -0.058793087 -0.022036472
00000000: 2624 04bd d8cd 673d 05d1 70bd d585 b4bc

VAE_Decoder.layers.1.linear0.weight f4 [128, 4]
-0.6700513 -0.5235907 0.6854293 -0.30152646 -0.59779793 0.342207 0.12233963 0.43117326
0.012400978 0.30808952 -0.4370432 0.2865854 0.4948511 -0.32866287 0.49973777 -0.24822493
0.1096442 0.44689775 0.017974047 0.35487527 0.32260174 -0.28530237 0.41190416 0.37651613
0.47603524 -0.15956695 0.030381817 -0.46030727 -0.3413426 -0.25276488 0.17945632 -0.20707077
-0.26002607 0.20152657 0.17806754 -0.4200327 -0.20980908 0.4487739 -0.0785823 0.2244824
-0.0749523 -0.13668412 -0.560614 0.42467302 0.11436402 0.3693708 0.50979245 -0.05829591
-0.37773052 0.08131751 0.3910652 0.42179322 -0.26395237 0.07564967 -0.21266194 0.22555152
-0.71774065 -0.67312026 0.7073134 -0.056515586 -0.23331222 -0.2810486 0.69315064 0.3891209
-0.21735255 0.50930053 -0.38193092 0.40900916 -0.53248686 0.33351913 0.55846864 0.08983173
0.124367066 0.16528636 -0.1939808 0.34696442 0.5174938 -0.4361714 0.5441174 -0.5175829
-0.54936427 -0.11554911 0.6273836 0.02671229 0.009912814 -0.19285196 -0.047649022 -0.046874072
0.44878036 0.053692486 0.41575417 0.42369384 -0.026125746 0.3082178 -0.17154701 0.16982351
0.26945496 -0.22402933 0.12240955 0.56940293 -0.40136153 -0.03049021 0.05606497 0.212278
0.32760018 0.34785149 0.4728043 -0.14453283 -0.074431024 0.34029487 -0.56139344 0.33332694
-0.10650793 0.2797324 0.20016877 -0.3923993 0.21333888 -0.3139657 -0.23230459 -0.08454974
-0.31596252 0.33031514 0.36953437 0.07642379 0.20429838 0.3578297 0.23393828 0.118137956
-0.17358942 0.29278308 -0.41224506 -0.3453939 0.20518132 0.6052961 -0.042655088 0.01279572
-0.43333852 -0.32893562 -0.35017306 0.019340334 0.5582464 -0.48539677 -0.43436316 -0.07691995
0.39116246 0.10704298 -0.41505525 0.03142557 0.38880748 -0.24617915 -0.43922466 0.168769
0.32047006 0.33072752 -0.31007138 0.12815285 0.20671059 -0.39220852 0.015966602 0.39923704
0.17886445 0.4210913 0.3766604 -0.108941995 0.32575363 -0.025646226 0.39147893 0.063600674
0.30576473 -0.073214054 0.41551822 0.12763828 0.42214394 0.16757026 0.2564786 0.18398467
-0.0080477195 0.5788563 -0.25878334 -0.3820256 0.5076266 -0.61551 0.35088053 0.23646064
-0.19956122 -0.33465168 -0.04918664 -0.15545452 0.33601546 -0.11174891 -0.19801575 -0.070927136
-0.330642 -0.16183671 -0.37457553 0.031578 -0.24237628 0.047880866 -0.38720766 0.51813704
0.2827346 -0.31879318 0.6159178 0.37958795 -0.30318913 0.2680757 -0.46321407 0.14336784
-0.5176065 0.1086449 -0.21964641 0.5374785 0.46425325 0.19372104 -0.51103264 -0.5721796
0.21309602 -0.10366393 -0.5520706 0.014578651 -0.22830525 0.58683246 0.2342411 0.31070024
-0.41812444 0.014795293 0.50762206 -0.058144514 0.37844843 0.027701456 0.22809722 0.41127074
0.19299679 0.31078506 0.48138735 0.45971045 -0.5134714 -0.4840739 0.540443 -0.16383663
0.43280518 -0.57289165 -0.16809657 0.35330766 -0.06008535 -0.2060418 -0.15960999 0.21485318
0.3834696 0.16154897 -0.13242021 -0.21131279 -0.25693154 0.5090987 -0.3725491 0.45409524
00000000: 7b88 2bbf 0a0a 06bf 4b78 2f3f ad61 9abe
00000010: 4909 19bf c235 af3e 338d fa3d bec2 dc3e
00000020: 792d 4b3c e9bd 9d3e 20c4 dfbe 52bb 923e
00000030: 205d fd3e 8046 a8be a1dd ff3e ad2e 7ebe
00000040: 238d e03d c8cf e43e 4f3e 933c 36b2 b53e
00000050: 0e2c a53e 2713 92be 1ae5 d23e b9c6 c03e
00000060: e4ba f33e 8565 23be 4ae3 f83c 65ad ebbe
00000070: 75c4 aebe 666a 81be 66c3 373e 5c0a 54be
00000080: 2322 85be fb5c 4e3e 5657 363e 870e d7be
00000090: 31d8 56be b1c5 e53e c2ef a0bd b7de 653e
000000a0: 9780 99bd ecf6 0bbe 6684 0fbf be6e d93e
000000b0: af37 ea3d 2b1e bd3e c281 023f b1c7 6ebd
000000c0: e565 c1be cb89 a63d b339 c83e 48f5 d73e
000000d0: c424 87be 37ee 9a3d 0dc4 59be faf6 663e
000000e0: dabd 37bf 9c51 2cbf 7e12 353f e37c 67bd
000000f0: 66e9 6ebe 9ae5 8fbe 5272 313f db3a c73e
00000100: ab91 5ebe 8561 023f 738c c3be a669 d13e
00000110: 0f51 08bf 05c3 aa3e cdf7 0e3f b3f9 b73d
00000120: 29b4 fe3d d440 293e e7a2 46be 52a5 b13e
00000130: 797a 043f dc51 dfbe 474b 0b3f 5080 04bf
00000140: 23a3 0cbf 03a5 ecbd 369c 203f bbd3 da3c
00000150: 5b69 223c fc7a 45be 9f2b 43bd 07ff 3fbd
00000160: 8ac6 e53e a7ec 5b3d bbdd d43e 66ee d83e
00000170: a905 d6bc b9ce 9d3e 05aa 2fbe 37e6 2d3e
00000180: 00f6 893e f267 65be dcb1 fa3d 64c4 113f
00000190: 427f cdbe 9bc6 f9bc 62a4 653d 675f 593e
000001a0: 36bb a73e 9719 b23e 6813 f23e 6a00 14be
000001b0: 4b6f 98bd 213b ae3e 7bb7 0fbf d4a9 aa3e
000001c0: d420 dabd 1639 8f3e 0bf9 4c3e 90e8 c8be
000001d0: 8275 5a3e 1dc0 a0be 41e1 6dbe 6a28 adbd
000001e0: d7c5 a1be 111f a93e 9c33 bd3e 1384 9c3d
000001f0: 9833 513e 7435 b73e 848d 6f3e 50f2 f13d
00000200: 6dc1 31be aae7 953e c911 d3be 78d7 b0be
00000210: 0d1b 523e aff4 1a3f 1ab7 2ebd 24a5 513c
00000220: 8cde ddbe 406a a8be e249 b3be 9f6f 9e3c
00000230: 3ce9 0e3f ed85 f8be d964 debe 3588 9dbd
00000240: 7246 c83e 5a39 db3d 1f82 d4be 19b8 003d
00000250: c611 c73e 6316 7cbe 0ee2 e0be c8d1 2c3e
00000260: a714 a43e 1e55 a93e adc1 9ebe 803a 033e
00000270: f1ab 533e 8ecf c8be 64cc 823c cc68 cc3e
00000280: 3e28 373e 4799 d73e a2d9 c03e fb1c dfbd
00000290: 2ec9 a63e 0918 d2bc ed6f c83e 1241 823d
000002a0: 328d 9c3e 40f1 95bd cebe d43e 9cb3 023e
000002b0: 4023 d83e 8a97 2b3e 2a51 833e 7a66 3c3e
000002c0: 95da 03bc ed2f 143f 407f 84be dc98 c3be
000002d0: d1f3 013f 1092 1dbf 9da6 b33e bd22 723e
000002e0: c759 4cbe 7757 abbe ee77 49bd 782f 1fbe
000002f0: 380a ac3e 9ddc e4bd a4c4 4abe 3f42 91bd
00000300: e949 a9be 86b8 25be 5dc8 bfbe ef57 013d
00000310: 7d31 78be ba1e 443d 1540 c6be a1a4 043f
00000320: 97c2 903e dc38 a3be caac 1d3f 5a59 c23e
00000330: 9b3b 9bbe 3841 893e 652a edbe 05cf 123e
00000340: dc81 04bf 3881 de3d fdea 60be 3198 093f
00000350: 9ab2 ed3e cf5e 463e 09d3 02bf 5d7a 12bf
00000360: d835 5a3e c14d d4bd 8054 0dbf 4bdb 6e3c
00000370: dac8 69be a73a 163f e6dc 6f3e 1a14 9f3e
00000380: 6814 d6be f567 723c 85f3 013f f128 6ebd
00000390: fec3 c13e 2aee e23c 5192 693e 1492 d23e
000003a0: f3a0 453e 381f 9f3e 6778 f63e 2b5f eb3e
000003b0: dd72 03bf 89d8 f7be 795a 0a3f cac4 27be
000003c0: a498 dd3e 07a9 12bf 8221 2cbe bee4 b43e
000003d0: 0e1c 76bd 9ffc 52be cd70 23be 7902 5c3e
000003e0: 2156 c43e 186d 253e 2a99 07be 6162 58be
000003f0: 888c 83be 4b54 023f c1be bebe 2c7f e83e

VAE_Decoder.layers.1.linear0.bias f4 [128]
-0.15226646 -0.35715544 -0.07517111 -0.2521163 0.3138393 -0.21221256 0.5968224 0.2423109
0.48471683 -0.2890027 -0.2675347 -0.010187273 0.011261723 -0.016021337 -0.21463357 -0.35636333
0.07489302 0.24396394 0.072374545 0.56249577 -0.12115539 0.36286882 -0.43225896 0.46559298
-0.29570433 0.1592229 -0.46676895 -0.124094345 -0.22522673 0.45418003 0.3074474 -0.36369675
0.27995026 -0.20756653 -0.06608413 -0.35984793 -0.1257135 -0.33274883 -0.46960783 -0.12442134
-0.04163294 -0.06283923 0.4581117 0.41028345 -0.37484914 0.6105299 -0.4079193 0.13397434
0.28670803 0.2975745 -0.17350043 0.0008470751 -0.30216 0.02589324 -0.09316136 -0.36906445
-0.16894937 0.10409215 0.39384478 0.41344932 0.047100686 -0.50003886 0.0041344874 0.17263198
0.3752117 0.4223117 -0.32306942 0.40187317 -0.25634423 -0.49716705 -0.3423415 0.18049783
0.3408935 0.34578106 0.37270507 0.017253606 0.21467288 0.006428486 -0.25696152 0.22654453
0.26655 0.4493661 -0.36381617 0.39187837 -0.4481516 0.23225872 0.17151979 -0.056783117
0.5359041 0.10087882 -0.2482258 -0.23323186 -0.0787771 0.38523683 0.10183636 -0.29997012
-0.13184279 -0.063442916 -0.17124176 0.13932589 -0.2622592 0.254128 -0.02238376 0.32024205
0.3874573 -0.48880363 0.13202663 -0.30804533 0.32285345 0.26381925 -0.283299 0.4186162
-0.30275378 0.20364888 0.13619554 -0.12233673 -0.036630172 -0.2638103 -0.08534083 0.28718072
0.026162246 -0.22737044 0.45825136 0.36934072 0.024212083 0.1545412 0.031884454 -0.05873518
00000000: bdeb 1bbe 14dd b6be 50f3 99bd 6315 81be
00000010: 8baf a03e 404e 59be 5ac9 183f 5920 783e
00000020: ce2c f83e 29f8 93be 4ffa 88be 85e8 26bc
00000030: 1783 383c 2e3f 83bc e7c8 5bbe 4175 b6be
00000040: 8361 993d afd1 793e 1b39 943d b9ff 0f3f
00000050: 5120 f8bd f1c9 b93e 0c51 ddbe 3462 ee3e
00000060: 8f66 97be 540b 233e 57fc eebe 2d25 febd
00000070: d6a1 66be 498a e83e bf69 9d3e 7636 babe
00000080: a455 8f3e 528c 54be 1e57 87bd fd3d b8be
00000090: 0abb 00be 0e5e aabe 7070 f0be 9ed0 febd
000000a0: 4d87 2abd dbb1 80bd 9e8d ea3e ac10 d23e
000000b0: 3aec bfbe b04b 1c3f ccda d0be 9230 093e
000000c0: 65cb 923e af5b 983e 19aa 31be 3f0e 5e3a
000000d0: b7b4 9abe 0f1e d43c 62cb bebd 04f6 bcbe
000000e0: 1001 2dbe 442e d53d 06a6 c93e a1af d33e
000000f0: a6ec 403d 8c02 00bf 987a 873b 70c6 303e
00000100: bf1b c03e 3d39 d83e 5b69 a5be 52c2 cd3e
00000110: 8d3f 83be ae8c febe 6347 afbe 6cd4 383e
00000120: 9889 ae3e 370a b13e 33d3 be3e 6f57 8d3c
00000130: 35d3 5b3e 0da6 d23b 7690 83be 4afb 673e
00000140: 3e79 883e 5013 e63e 1d46 babe 48a4 c83e
00000150: 2074 e5be 3bd5 6d3e e2a2 2f3e 6a95 68bd
00000160: 0331 093f 8e99 ce3d e72e 7ebe 55d4 6ebe
00000170: e355 a1bd c33d c53e 958f d03d af95 99be
00000180: cc01 07be 5cee 81bd 005a 2fbe 72ab 0e3e
00000190: d646 86be 111d 823e 265e b7bc c4f6 a33e
000001a0: ce60 c63e 7844 fabe fd31 073e 1eb8 9dbe
000001b0: 0c4d a53e 5113 873e 910c 91be dd54 d63e
000001c0: 8b02 9bbe 5589 503e d876 0b3e ae8b fabd
000001d0: 8509 16bd 2512 87be 2cc7 aebd 5a09 933e
000001e0: 3552 d63c ccd3 68be ec9f ea3e 3a1a bd3e
000001f0: 6b58 c63c 0c40 1e3e 4699 023d 4d94 70bd

VAE_Decoder.layers.1.linear1.weight f4 [4, 128]
-0.008509082 -0.24630897 0.055147048 0.068703614 -0.10734278 -0.035140306 0.10043545 0.09091191
0.008938083 -0.0041403016 0.022960212 0.03640485 -0.070724815 0.0033256293 0.06609512 -0.0159625
0.0027120705 0.036683638 -0.01792641 0.105302446 0.11450978 -0.053004965 0.05344427 -0.03718138
0.00058432657 -0.12498683 0.07377939 -0.026891002 0.06991692 0.055748925 -0.033447318 0.041220438
-0.08545286 -0.16169493 -0.12800837 -0.048834972 -0.01362683 0.025881158 -0.07847268 0.044535328
-0.017437628 0.014748086 -0.08973879 -0.06675222 -0.073838145 0.049107306 0.03177121 0.0043385173
0.0027467269 -0.09135741 -0.049619965 -0.025135571 -0.08126285 0.078281954 0.045811657 -0.051783502
0.108445756 0.017066915 -0.124086834 0.07378594 -0.0655463 -0.2300928 0.05249472 6.300242e-05
0.15509349 -0.045086246 -0.06420611 0.011371253 -0.03854368 -0.0743794 -0.114841476 0.10960853
-0.0059781945 0.08081665 -0.08698391 0.12053034 0.018457985 0.081585445 -0.07398098 -0.082791194
0.12692605 0.06907128 -0.061442748 0.06538707 0.0170069 -0.07969276 0.02474736 0.009793657
-0.05631775 -0.008687722 0.014054058 0.05202563 0.1326902 0.037680782 0.034020822 -0.060973145
0.033114403 0.08977535 -0.09064308 -0.13442016 0.08796472 0.046452697 0.12802055 0.067907915
-0.12539601 0.010573036 0.043016285 0.11691985 0.049643267 -0.07541335 -0.03911971 -0.083257005
-0.056939766 0.031056069 -0.10490125 -0.17411351 0.11718854 0.18492995 -0.023476345 -0.08976275
-0.11379509 0.17734997 -0.11941987 0.07256094 0.027907023 0.08209388 0.04913236 0.06300252
-0.09158327 0.18236832 0.038510174 -0.1526067 -0.00929539 -0.16292688 -0.11956906 0.01794066
0.0886134 0.14862016 0.18125741 0.080113925 0.08225731 0.12051379 -0.096023776 -0.030041007
0.037121255 -0.044835392 0.13293764 -0.14395392 0.081699446 0.0025393788 -0.034541823 0.018076275
-0.019792572 0.14230594 0.016379245 0.068890326 -0.06478124 0.005457602 0.03537586 0.0676084
0.03824229 0.28666273 0.017494688 -0.10903227 -0.06250112 -0.10886754 0.049072213 -0.14048105
-0.010140845 0.0032378605 -0.06797435 -0.1374182 0.09473064 -0.08331945 0.10567562 -0.109783515
0.13818206 0.015212806 -0.14273335 -0.017760176 0.09956106 -0.002087113 0.032737117 0.031766184
0.030684592 -0.010146204 -0.06562293 -0.10308182 -0.11607344 0.119240694 -0.014755172 0.15827389
0.012208782 0.0113661215 -0.14894004 -0.09860137 0.011044904 0.07385736 0.057494808 -0.065526366
-0.07256216 -0.11291764 0.049122434 -0.22928962 -0.119763635 -0.044741638 0.1585753 0.002996405
-0.051399183 0.02504682 -0.113241404 -0.082474366 -0.06577024 -0.06794225 0.03781676 -0.034453638
0.14515509 -0.10924595 0.019682355 0.12069448 -0.1412624 -0.14944993 0.007114611 -0.016856408
-0.08902248 -0.14017798 0.06578041 0.05607675 -0.001973506 0.075439915 -0.044109598 -0.11645149
-0.03334031 0.051563725 -0.095078066 -0.098458864 0.04010683 0.022754276 0.25424612 0.09603268
0.10365552 -0.031624842 0.07305664 0.076023795 -0.03576752 -0.11775996 0.06852364 0.08502698
0.17964152 -0.11342359 -0.0075095026 -0.19885083 0.082660004 0.104400635 0.08781964 -0.0486681
00000000: ad69 0bbc 6b38 7cbe dfe1 613d 7bb4 8c3d
00000010: 88d6 dbbd 48ef 0fbd 1ab1 cd3d 0630 ba3d
00000020: 0a71 123c 5eab 87bb 0e17 bc3c 411d 153d
00000030: 2cd8 90bd cdf2 593b e15c 873d cac3 82bc
00000040: febc 313b 9541 163d 68da 92bc cfa8 d73d
00000050: 1b84 ea3d bc1b 59bd 61e8 5a3d 814b 18bd
00000060: 7e2d 193a 18f9 ffbd a619 973d 854a dcbc
00000070: 9a30 8f3d fc58 643d 0e00 09bd c3d6 283d
00000080: e901 afbd 5b93 25be a014 03be 2e07 48bd
00000090: 1143 5fbc b904 d43c 49b6 a0bd ad6a 363d
000000a0: 5bd9 8ebc f5a1 713c f9c8 b7bd 63b5 88bd
000000b0: 7438 97bd be24 493d 8722 023d 1f2a 8e3b
000000c0: 6e02 343b 9819 bbbd 4e3e 4bbd 1de9 cdbc
000000d0: 236d a6bd 4a52 a03d 01a5 3b3d f01a 54bd
000000e0: cf18 de3d eacf 8b3c 3d21 febd 151d 973d
000000f0: 233d 86bd 729d 6bbe b404 573d 2b20 8438
00000100: d4d0 1e3e 5bac 38bd 7e7e 83bd 7e4e 3a3c
00000110: fadf 1dbd 3a54 98bd 0232 ebbd 707a e03d
00000120: bbe4 c3bb 3383 a53d 9f24 b2bd 9cd8 f63d
00000130: 3335 973c 4516 a73d 5783 97bd 6e8e a9bd
00000140: e7f8 013e 3e75 8d3d 64ab 7bbd a8e9 853d
00000150: 0e52 8b3c f535 a3bd faba ca3c 9375 203c
00000160: 71ad 66bd f256 0ebc fe42 663c d418 553d
00000170: f1df 073e 2a57 1a3d 6b59 0b3d fabe 79bd
00000180: f8a2 073d 24dc b73d 14a3 b9bd 70a5 09be
00000190: d926 b43d 2f45 3e3d d217 033e 4e13 8b3d
000001a0: d067 00be 873a 2d3c d831 303d ad73 ef3d
000001b0: bd56 4b3d 5072 9abd fd3b 20bd a682 aabd
000001c0: ac39 69bd 4c69 fe3c 77d6 d6bd d04a 32be
000001d0: 8c00 f03d 475e 3d3e 7751 c0bc 88d5 b7bd
000001e0: 660d e9bd 3b9b 353e 6892 f4bd d59a 943d
000001f0: 459d e43c d620 a83d 033f 493d 7707 813d
00000200: 0290 bbbd c3be 3a3e d8bc 1d3d ee44 1cbe
00000210: b14b 18bc 4ed6 26be a0e0 f4bd 4af8 923c
00000220: f17a b53d e22f 183e 8b9b 393e c512 a43d
00000230: 8576 a83d efcf f63d 1da8 c4bd 8f18 f6bc
00000240: 750c 183d 51a5 37bd ce20 083e a868 13be
00000250: 0a52 a73d b56b 263b ba7b 0dbd b214 943c
00000260: 0824 a2bc a6b8 113e c42d 863c 5f16 8d3d
00000270: 07ac 84bd afd5 b23b 47e6 103d 4676 8a3d
00000280: f3a3 1c3d 75c5 923e 0551 8f3c 504c dfbd
00000290: 9600 80bd f2f5 debd f2ff 483d 44da 0fbe
000002a0: c925 26bc 4932 543b 2336 8bbd 5bb7 0cbe
000002b0: 2302 c23d 63a3 aabd 766c d83d 2ed6 e0bd
000002c0: 997f 0d3e 223f 793c b128 12be ca7d 91bc
000002d0: abe6 cb3d f2c7 08bb 5b17 063d 421d 023d
000002e0: 415e fb3c 443c 26bc 5165 86bd 901c d3bd
000002f0: e9b7 edbd 7734 f43d adbf 71bc 8d12 223e
00000300: 5807 483c f838 3a3c bd83 18be 84ef c9bd
00000310: aff5 343c 8742 973d ad7f 6b3d b032 86bd
00000320: 789b 94bd 5d41 e7bd 9b34 493d e6ca 6abe
00000330: a346 f5bd 0243 37bd 9061 223e 555f 443b
00000340: f387 52bd fd2e cd3c 1ceb e7bd 52e8 a8bd
00000350: 8cb2 86bd 4e25 8bbd bfe5 1a3d 421f 0dbd
00000360: 89a3 143e 57bc dfbd e43c a13c ab2e f73d
00000370: 17a7 10be 6709 19be af21 e93b 7316 8abc
00000380: 6b51 b6bd d18a 0fbe e1b7 863d bcb0 653d
00000390: f055 01bb 3e80 9a3d 44ac 34bd 1e7e eebd
000003a0: d98f 08bd 7c34 533d 4ab8 c2bd cda4 c9bd
000003b0: 0f47 243d 2d67 ba3c 8c2c 823e c8ac c43d
000003c0: 5849 d43d 0d89 01bd b89e 953d 5db2 9b3d
000003d0: f780 12bd 222c f1bd 1f56 8c3d a022 ae3d
000003e0: f2f3 373e a14a e8bd 4612 f6bb 8d9f 4bbe
000003f0: a649 a93d 00d0 d53d c9da b33d 3458 47bd

VAE_Decoder.layers.1.linear1.bias f4 [4]
-0.105580114 -0.0848525 -0.0539081 -0.05930851
00000000: 633a d8bd 26c7 adbd bdce 5cbd 7bed 72bd

VAE_Decoder.layers.1.norm1.weight f4 [4]
1.1263452 1.1337808 1.2793051 1.1513209
00000000: 142c 903f bb1f 913f 45c0 a33f 7c5e 933f

VAE_Decoder.layers.1.norm1.bias f4 [4]
0.0013599965 -0.06015363 0.051198218 -0.055956967
00000000: e941 b23a a763 76bd 39b5 513d 2233 65bd

VAE_Decoder.layers.1.norm0.weight f4 [4]
0.8536404 0.9680922 1.0288786 0.9634725
00000000: 2d88 5a3f e4d4 773f 4bb2 833f 22a6 763f

VAE_Decoder.layers.1.norm0.bias f4 [4]
0.024132865 -0.04694813 -0.010190066 -0.029472891
00000000: 49b2 c53c af4c 40bd 3cf4 26bc 2271 f1bc

VAE_Decoder.last_normalization.weight f4 [4]
1.0 1.0 1.0 1.0
00000000: 0000 803f 0000 803f 0000 803f 0000 803f

VAE_Decoder.last_normalization.bias f4 [4]
0.0 0.0 0.0 0.0
00000000: 0000 0000 0000 0000 0000 0000 0000 0000

VAE_Decoder.head.weight f4 [4, 4]
-0.13532197 0.22094488 0.2892688 0.3398111 0.1891672 -0.016002417 0.13921171 -0.054312825
0.16520244 -0.21724474 0.037941277 0.2550544 0.49998224 0.49198818 -0.030460358 0.40112454
00000000: d891 0abe 603f 623e 0a1b 943e b8fb ad3e
00000010: 0cb5 413e 8017 83bc 848d 0e3e 2077 5ebd
00000020: d42a 293e 6875 5ebe 5068 1b3d 7e96 823e
00000030: acfd ff3e e0e5 fb3e 0088 f9bc 3260 cd3e

VAE_Decoder.head.bias f4 [4]
-0.35831845 -0.35461444 -0.31686997 0.44010848
00000000: 8475 b7be 0690 b5be c83c a2be e655 e13e

Detokenizer.weight f4 [8, 4]
-0.24798986 0.45207363 -0.21198148 -0.03303192 0.508263 -0.27670312 -0.6398163 -0.0057529625
0.23961684 -0.478843 -0.023266409 0.4679872 0.04704056 -0.23196805 0.37598562 0.12662469
0.088664085 0.47279903 0.02548294 0.40971914 -0.24504542 -0.0046279873 0.23395884 0.50569075
-0.41475305 0.20241106 -0.22282608 -0.58103365 0.10689446 0.14654642 -0.0023088774 0.56318533
00000000: 0ef1 7dbe 3276 e73e ac11 59be 7b4c 07bd
00000010: 861d 023f 08ac 8dbe 00cb 23bf 5983 bcbb
00000020: 1e5e 753e e92a f5be 3299 bebc 059c ef3e
00000030: 9aad 403d 0889 6dbe 3081 c03e e7a9 013e
00000040: 8495 b53d b712 f23e 99c1 d03c b5c6 d13e
00000050: 30ed 7abe 5fa6 97bb e892 6f3e f374 013f
00000060: 835a d4be d844 4f3e 852c 64be 9fbe 14bf
00000070: 7ceb da3d 4410 163e 8950 17bb ea2c 103f

Detokenizer.cat_recons.0.weight f4 [2, 4]
-0.373102 0.74453455 0.043687116 -0.038385414 0.27656338 -0.43870834 0.281281 -0.25176063
00000000: 3a07 bfbe d199 3e3f 43f1 323d 063a 1dbd
00000010: b799 8d3e 619e e0be 1004 903e c5e6 80be

Detokenizer.cat_recons.0.bias f4 [2]
0.45618922 -0.37224555
00000000: a291 e93e f896 bebe
