tabsyn/vae/ckpt/diabetes/decoder.pt (torch, 21491 bytes, 33 tensors)

VAE_Decoder.layers.0.attention.W_q.weight f4 [4, 4]
000000 a7 cf e3 3e e0 ca aa bd 91 fd c3 3e 9f bd 3d bc
       0.44494364 -0.083394766 0.38279393 -0.011580854
000010 f0 85 dc 3e 15 81 ce 3d fd c2 9d 3e 48 69 00 3e
       0.43070936 0.10083214 0.30812827 0.12540162
000020 14 9c 3d 3e 91 f5 3d 3e 68 b9 bc bc 5b b6 4b 3e
       0.1851657 0.18550707 -0.023037627 0.19893782
000030 b1 e0 8f 3c a3 93 79 3e 44 8e a2 be 8d 08 9c 3e
       0.017563196 0.24372725 -0.31749165 0.30475274

VAE_Decoder.layers.0.attention.W_q.bias f4 [4]
000000 ec 2a 08 be d7 af d1 39 e2 76 50 3e 78 0f 82 bd
       -0.13297623 0.00039994597 0.2035785 -0.06350607

VAE_Decoder.layers.0.attention.W_k.weight f4 [4, 4]
000000 8c 0c a1 be 94 68 f8 be bb 2b ce be 76 9e 42 3e
       -0.31454885 -0.48517287 -0.4026774 0.1900576
000010 be 20 a6 3e 27 ff e7 be e6 56 30 be d4 ee 9c be
       0.32446855 -0.45311853 -0.17220649 -0.3065096
000020 55 ae d3 3e 71 f8 6f 3e a2 ef 9e bd c4 15 b2 be
       0.41343942 0.23434617 -0.0776055 -0.3478223
000030 89 97 cb be cf 2d ab be 19 1e d9 be 5d 4e c1 3e
       -0.3976405 -0.33433387 -0.42405775 0.377551

VAE_Decoder.layers.0.attention.W_k.bias f4 [4]
000000 01 6b d9 b9 2d b9 05 3a 0f 9c 53 39 ae 8a 77 39
       -0.0004146919 0.00051011407 0.00020180664 0.00023607418

VAE_Decoder.layers.0.attention.W_v.weight f4 [4, 4]
000000 d8 59 8d 3d 36 1e d7 3d fc ce d3 3c 8f b6 3e 3e
       0.06901902 0.10503809 0.025855534 0.18624328
000010 c7 77 2d 3d 7e bf 8a be 71 d9 d6 be 7d 3e b4 bd
       0.042350557 -0.27099222 -0.4196277 -0.08800981
000020 93 6f 08 be 9d 6d 3a be 9b 85 6c bd 46 22 8c be
       -0.13323812 -0.18205877 -0.057744604 -0.273699
000030 c1 79 24 bd ca 68 42 be 6a 38 a4 be 24 28 91 3c
       -0.040155176 -0.18985286 -0.3207429 0.017719336

VAE_Decoder.layers.0.attention.W_v.bias f4 [4]
000000 22 50 91 3d cb 18 8f 3c be 7f a4 3c 26 d7 99 bd
       0.07095362 0.017467877 0.020080443 -0.075117394

VAE_Decoder.layers.0.linear0.weight f4 [128, 4]
000000 77 99 ce bd 0c 5a 1c bf 4a 2b 28 3f 3e e6 b6 3e
       -0.10087865 -0.610749 0.65691054 0.35722536
000010 73 ca 8f 3d a5 cd 93 be b2 64 54 be 01 ef 6c 3d
       0.07021036 -0.28867832 -0.20741537 0.05784512
000020 9b 41 32 3e 3c 5c 02 bf 62 36 2d 3f cf ca 0a bf
       0.17407839 -0.5092199 0.67661107 -0.5421571
000030 6a d9 19 bf 65 27 a0 3d 77 a4 b2 3e 54 99 4f 3e
       -0.6009737 0.07820014 0.34891102 0.20273334
000040 cb cb f2 be e7 79 7a be 49 6f 43 be 21 95 b9 3e
       -0.47421107 -0.24460565 -0.1908542 0.3624659
000050 de 52 d8 bb fa 88 67 3d ac 5e a9 be 72 38 52 3e
       -0.0066016754 0.056527115 -0.3308004 0.20529345
000060 77 2d 31 b6 16 25 b0 be 0d 7e 12 bd b0 78 af be
       -2.640152e-06 -0.34403294 -0.035764743 -0.34271765
000070 92 d0 5a 3e 8f 4f d1 3e 1e d4 01 3f 72 bf 07 bf
       0.21368626 0.4088101 0.5071429 -0.530265
000080 1e d9 34 be ff e2 2f 3e 8c 30 78 be 2c 83 ae 3d
       -0.17660949 0.17176436 -0.24237269 0.08521113
000090 68 a1 41 3e 39 a0 f4 bd 86 55 3e 3e fb 2e 06 bf
       0.18909228 -0.119446225 0.18587312 -0.52415437
0000a0 25 3d d7 3e ec 2d 8c 3d 95 5a e1 3e 40 78 33 3e
       0.42038837 0.068446964 0.4401442 0.1752634
0000b0 35 2c f6 3e 06 69 f9 be 7a 9f 6d be fb 96 c2 3d
       0.48080602 -0.4871294 -0.23205367 0.095014535
0000c0 88 68 aa 3e f7 03 0e 3e 29 fb 2a 3c 7c 44 68 bb
       0.33282876 0.138687 0.010435858 -0.003544121
0000d0 37 8f e1 bd b7 19 0c bf b4 04 08 3d bf 82 fd 3e
       -0.11013644 -0.5472674 0.03320761 0.49513814
0000e0 b0 a0 a2 be 15 f1 03 3e f0 69 80 be 45 42 00 bf
       -0.3176322 0.12884934 -0.25080824 -0.5010112
0000f0 c9 68 dc 3d 72 4c fb 3d 43 91 ae be 82 5d 2b 3e
       0.10762174 0.1227044 -0.340952 0.16734889
000100 cf b8 77 3b fb 30 d3 be 51 3a 01 3f 7e b8 8b be
       0.0037799363 -0.41248307 0.5047961 -0.27289194
000110 c6 bd c6 be 8a 5d 5d bc e1 2c b9 bd 62 13 02 3f
       -0.3881666 -0.013511071 -0.09041763 0.50810826
000120 1f e7 5c 3c 06 7d d0 3e d3 71 8c be f1 f5 3f 3e
       0.013482838 0.40720385 -0.2743059 0.18746163
000130 42 35 c2 3e 3d 57 e9 3e 0c 21 03 3f 37 bf eb 3e
       0.37931257 0.4557437 0.512223 0.46044323
000140 15 d2 d2 bc b8 48 0e bf 31 26 32 be 47 77 cd 3e
       -0.02573494 -0.5557971 -0.17397381 0.40130064
000150 42 3e 96 3e dd da 03 3f af 41 5a 3d 89 13 cf bb
       0.29344374 0.51505834 0.053285297 -0.0063194674
000160 ac 55 ae be 54 2b bc be ac da 02 3f 61 0e 93 be
       -0.34049737 -0.36751807 0.51114917 -0.28721908
000170 d2 e4 bb bd 19 a2 37 bb fe e0 3e 3b 55 60 bb 3e
       -0.091745034 -0.0028020202 0.0029125805 0.36596933
000180 16 d3 cf bd b8 ff 12 3f 38 a7 47 3e b4 22 15 be
       -0.10147683 0.57421446 0.19497383 -0.1456402
000190 9a ff e0 3d 54 d5 a1 3d 9f fe f3 3c 21 8a 09 3e
       0.10986252 0.07902017 0.029784499 0.13431598
0001a0 ef 1a 11 be eb 74 18 be 3a a0 6a 3e ce 7b 0d 3f
       -0.1417043 -0.1488835 0.22912684 0.55267036
0001b0 c1 22 e0 3e 86 2c 07 bc dd da ec 3e 44 b0 cf 3d
       0.43776515 -0.008250361 0.4626073 0.10141042
0001c0 a1 04 93 be 21 f5 54 3e 4d a1 ec be 8f fd bb bd
       -0.2871447 0.20796634 -0.46216813 -0.09179222
0001d0 fb 8a 70 be 5a cd af bd 51 7c 60 3e a0 e5 a0 be
       -0.23490517 -0.085840896 0.21922423 -0.3142519
0001e0 2a f4 ae 3e 3f 4a 5e 3e e6 0b 07 3f 59 77 09 bf
       0.34170657 0.2170801 0.5275253 -0.53697735
0001f0 f0 43 73 be d1 50 85 be 05 d2 b1 bd 59 49 f0 3e
       -0.23756385 -0.2603822 -0.08682636 0.4693096
000200 65 2e c1 be 23 88 ef be 95 c4 58 3e 19 e4 a5 be
       -0.3773071 -0.46783552 0.2116874 -0.32400587
000210 bb 26 8c be be 96 23 be ac 67 71 be f7 eb 18 bf
       -0.273733 -0.15975472 -0.23574704 -0.59735054
000220 08 ff a7 be 5b 79 81 3e ba 36 ca be f4 a7 46 be
       -0.3281176 0.252879 -0.39494878 -0.19400007
000230 0f 74 10 be e5 78 fb be 94 5b 66 bd 96 95 08 3f
       -0.14106773 -0.49115673 -0.05623968 0.5335325
000240 13 06 ac be bb d3 1e be ff b6 c8 3e 29 aa 41 3b
       -0.33598384 -0.15510456 0.39202115 0.0029550886
000250 a0 9c 34 be 38 38 08 bf 49 a3 e7 3e 37 4b 0c bf
       -0.17637873 -0.53210783 0.45241764 -0.5480227
000260 62 58 dc 3d ae ae ce 3d a3 c5 16 bd 33 26 82 3e
       0.10759045 0.10091911 -0.036809575 0.2541977
000270 f0 c7 6c bd b7 8f 8e 3e c9 b9 8e be 2c 91 ed 3e
       -0.057807863 0.2784402 -0.27876118 0.4639982
000280 80 50 c7 be 12 cb 9e be 0c 52 de be ed 58 aa 3d
       -0.38928604 -0.31014305 -0.43421972 0.083177425
000290 b9 f4 1f be a6 26 8f 3e 97 58 8d be ab 70 2c bd
       -0.15620698 0.27959174 -0.2760665 -0.042099636
0002a0 91 21 0b bf b5 fb db bd d6 d6 3c 3e c5 7b f0 3e
       -0.54348093 -0.10741369 0.18441328 0.4696943
0002b0 94 43 38 be a1 c9 f6 be c5 20 c4 be 22 bb 42 3d
       -0.17994529 -0.48200706 -0.3830625 0.047541745
0002c0 de 42 81 be 3a df dd 3d c0 f6 b3 be c9 fb dc 3e
       -0.25246328 0.10833593 -0.35149193 0.43160847
0002d0 c9 5f 1c 3e aa 44 ae be 7b cd 16 3d 06 8d ac 3e
       0.15270914 -0.34036762 0.036817055 0.33701342
0002e0 82 43 f4 3c a9 c2 53 3e 22 29 54 3e c9 22 4a be
       0.029817346 0.20679726 0.20718816 -0.19739832
0002f0 e4 21 2d 3d 23 5c 15 3e 82 e8 85 bc f5 77 6c 3e
       0.04226865 0.14585929 -0.01634622 0.23092635
000300 70 b8 e6 3e 4b 7d f7 be 29 e0 be 3d 33 9b ca 3e
       0.4506259 -0.48337778 0.09320099 0.39571533
000310 72 d2 d4 ba fc 5f 19 3f d1 e1 a2 bc ba d0 a1 be
       -0.0016237034 0.59912086 -0.019883068 -0.31604558
000320 47 80 8f 3d 24 d7 a3 3e 76 4d 75 be 24 49 84 be
       0.07006889 0.32000077 -0.2395533 -0.25837052
000330 89 98 c0 be 8b 4c f9 3e ee 6e 41 3d 56 4e a4 3d
       -0.37616375 0.4869121 0.04722493 0.08022754
000340 03 48 7d be bd 77 45 bd e5 59 02 bf 78 a8 25 be
       -0.24734502 -0.048209894 -0.5091842 -0.16177547
000350 e5 a9 84 3e e7 7d 81 3e 6f 1a ae bd 1e 86 75 3e
       0.2591087 0.25291368 -0.085011356 0.23976943
000360 c9 08 4b 3e 04 85 79 3e bb 29 8f be bb 73 df 3e
       0.1982757 0.24367148 -0.27961525 0.43642983
000370 04 da ba be 9d b4 9a 3e 3d e9 21 be d5 1b 1f 3e
       -0.36494458 0.30215922 -0.1581163 0.15537961
000380 1a f0 ac be dd f0 c4 3e 7a 4a 04 bf 62 a3 a8 bd
       -0.33776933 0.38465014 -0.5167614 -0.08234288
000390 19 0d 4b bd 3e 72 c2 be 95 db 43 be 07 6b e5 3e
       -0.049573038 -0.37977785 -0.19126733 0.44808218
0003a0 ed 3c 95 be 15 88 15 bf 06 0e ee 3e b5 47 e2 be
       -0.29148045 -0.5841077 0.46495074 -0.44195333
0003b0 ea ce 95 be 7a 73 db be 23 5d f1 3e d9 85 0a be
       -0.29259425 -0.4286154 0.4714137 -0.13527621
0003c0 22 5f ac be c8 d9 f7 3c 51 8e b6 3d 3a 2f 92 be
       -0.3366633 0.030255213 0.089138635 -0.28551656
0003d0 90 c3 ac 3e 6e 47 5b 3e 78 cb 12 be e7 76 88 3e
       0.33742952 0.21413967 -0.1433543 0.26653215
0003e0 a6 d8 7e 3e 07 9c db 3e 16 6d 8d 3e 53 20 15 bf
       0.24887332 0.42892477 0.27622288 -0.5825245
0003f0 af f1 a7 be 61 86 26 be 52 07 76 3e bb bb 0b bf
       -0.32801577 -0.16262199 0.2402623 -0.5458333

VAE_Decoder.layers.0.linear0.bias f4 [128]
000000 53 70 9a be 84 a2 5b 3c eb a5 2b be fa 84 94 3e
       -0.30163822 0.013405446 -0.16762511 0.29007703
000010 7f c7 c5 3e c4 16 da be 9a 93 a8 be e3 44 22 bc
       0.38628766 -0.42595494 -0.3292511 -0.009904119
000020 6a 4f eb 3d 0b e0 ee be 1d bc a2 3d 7a 73 40 3d
       0.114897564 -0.46655306 0.07946036 0.046985127
000030 d9 90 e1 3e 0d c1 b3 3e 2d 7d f9 bd 54 6d 8b be
       0.44055822 0.35108224 -0.121820785 -0.27231848
000040 75 8a c1 3d 31 ee db be 89 06 b2 3d aa 2d 20 be
       0.09450237 -0.42955163 0.08692653 -0.1564242
000050 08 9f 29 3e 71 16 a8 be 53 54 cf 3e 61 7a 90 3e
       0.16564572 -0.3282962 0.40494022 0.28218368
000060 76 d4 8e be 03 f2 5a be 58 bd 99 3e f4 6a bc 3e
       -0.2789647 -0.21381383 0.3002727 0.3680035
000070 4e e6 48 be f4 ba c5 3e ad b1 00 3f 2f b7 f5 be
       -0.19619104 0.38619196 0.5027111 -0.4799132
000080 f8 ca 73 be 31 6b 19 3e 91 c1 a3 be ab 48 d5 bd
       -0.23807895 0.14982297 -0.31983617 -0.10414251
000090 2d 5a 3d 3d 19 7e e1 3d 0e cb 0a be bc ec e1 be
       0.046228576 0.11010379 -0.13554022 -0.44125926
0000a0 b0 48 6e bc d6 44 93 be 3b 2d 0a 3e 2c 58 a5 bc
       -0.014543697 -0.28763455 0.13493817 -0.020183645
0000b0 df c1 c3 be 94 da e5 bc 54 4f f0 3e 2e d6 05 3f
       -0.3823385 -0.028058328 0.46935523 0.5227994
0000c0 e9 60 ed be bb 81 e0 be 3c 15 54 3d 5c c3 dd bd
       -0.46363 -0.43848976 0.051778063 -0.108282775
0000d0 54 d9 63 3e 85 22 4b bb 33 d1 7f bd 23 12 04 bf
       0.22250873 -0.0030995917 -0.062455367 -0.51590174
0000e0 3b 9e 59 be 90 9e d7 3e 53 fe 6a be e7 d0 ee 3e
       -0.21251766 0.4211316 -0.2294858 0.46643755
0000f0 2b 5e c1 3e 96 4e 51 3e 4f 13 ba bd f5 52 74 3d
       0.37767157 0.20440134 -0.09085714 0.059649426
000100 ab c3 80 3e 9e 77 47 bd 09 a3 0c 3f fa 7c ad 3e
       0.25149283 -0.04869806 0.5493627 0.33884412
000110 5b c0 cd 3e 02 be d6 bd 56 4f c7 be ad 74 28 3e
       0.40185818 -0.1048546 -0.38927716 0.16450758
000120 58 07 bb 3e d2 e7 90 be 9b c9 a5 3e 20 f2 b0 3e
       0.3652904 -0.28301865 0.32380375 0.34559727
000130 f5 77 f3 3e 39 b9 61 3e cf e9 80 be e3 1a 7d be
       0.47552457 0.22043313 -0.25178382 -0.24717288
000140 eb ea 8e bc 15 0c 46 3b c5 78 76 3e ae 35 9e be
       -0.017446002 0.0030219604 0.24069507 -0.3090033
000150 32 f2 83 be 56 4f a7 3e 11 96 be be 6d e2 eb 3d
       -0.25770718 0.32677716 -0.37223867 0.11517797
000160 81 44 0f be 14 f0 49 3e 3e c6 4d 3d ab 35 d1 3e
       -0.13990976 0.19720489 0.050237887 0.40861258
000170 b0 f2 0c 3e 02 9a 61 bc 33 78 a0 be d9 d8 88 bd
       0.13764453 -0.0137696285 -0.31341705 -0.066819854
000180 06 d8 a0 bd a5 46 82 3e a7 7c 4c be 5d 3e 5c 3d
       -0.07853703 0.25444523 -0.19969426 0.05377041
000190 1c 6c f5 be 43 3d c6 3e ae a1 cf be 1f a8 97 be
       -0.47934043 0.38718614 -0.4055304 -0.29620454
0001a0 29 7d ee 3e ac 9f 20 3e e2 63 88 3e 4e 50 83 be
       0.46579865 0.1568591 0.26638705 -0.25647205
0001b0 34 76 1d 3e 81 5c d2 3e 96 fe b5 3e 47 10 2d bd
       0.15377122 0.410862 0.35545796 -0.04225185
0001c0 80 cc ea 3d 9e e9 74 be 5f 1c ad bd 75 e2 06 bf
       0.114647865 -0.23917243 -0.08452677 -0.52689296
0001d0 c7 54 c3 3e f6 c8 80 3e 37 6a d3 be 18 34 e1 bd
       0.38150617 0.2515332 -0.41291973 -0.10996264
0001e0 d6 e3 a3 3e a2 f1 ae 3e a1 a1 fa 3e 31 4e a0 be
       0.32009763 0.34168726 0.48951438 -0.31309655
0001f0 73 92 5d bd 49 93 2b bd 33 55 21 3e 24 03 9b 3e
       -0.054094743 -0.04188851 0.15755157 0.30275834

VAE_Decoder.layers.0.linear1.weight f4 [4, 128]
000000 7b bd d5 bd bc 52 6b bd 67 60 c9 3d 57 fe 78 3d
       -0.10436531 -0.05745195 0.098328404 0.060789432
000010 ec 7c 6d bd ed 0a 07 be f4 90 9c 3b 7c d5 04 3e
       -0.057980463 -0.13187762 0.004778022 0.12972063
000020 e5 4a 00 bd 65 1d 1c 3d 93 2f 15 bd 66 f2 a9 3c
       -0.031321425 0.03811397 -0.036422323 0.020745467
000030 4d 4b ba bc f5 7d 08 be b0 86 a0 3d 2e a4 44 be
       -0.022740984 -0.13329299 0.078381896 -0.19203255
000040 3b 97 d8 3d f6 8e d8 3c 10 a1 24 bc 8d 6a 45 3d
       0.1057572 0.026435357 -0.010048166 0.048197318
000050 a1 a8 25 bd 0e b0 15 3d 54 ad f1 3d f9 c2 26 be
       -0.04044402 0.036544852 0.11800638 -0.16285314
000060 eb ca 41 3e 4a cd d9 bc dd 8f 9e bd 6d 43 90 bb
       0.18925063 -0.026587147 -0.077422835 -0.004402569
000070 b1 08 85 3d 86 77 13 3c 18 32 0e 3e 8b 26 61 bc
       0.064957984 0.009000665 0.13886297 -0.0137420995
000080 04 1d 08 3e cc a8 4f 3d 82 77 17 3e fa d7 d0 bd
       0.13292319 0.050698087 0.14791682 -0.10197444
000090 f0 e8 96 3d 23 5d 0c bd 35 0f ec 3c 9e 4c 7f 3d
       0.07368648 -0.03426851 0.028815845 0.062328927
0000a0 b6 63 9f bc 11 59 1d 3d 9f a4 60 bc 99 92 93 bd
       -0.019456726 0.03841502 -0.013711124 -0.07205696
0000b0 07 3e e7 bd 42 fc 07 bd 0b 43 25 3e c2 86 f8 bc
       -0.11291128 -0.033199556 0.16138856 -0.030337695
0000c0 eb bc b4 3b 02 ec ff 3d a6 44 c6 3d f1 b5 fc 3d
       0.005515685 0.12496187 0.096810624 0.1233939
0000d0 62 d5 5b 3c 68 f0 89 bd a2 1f 12 be 6e 74 9e bc
       0.013417574 -0.06735307 -0.1426988 -0.019342627
0000e0 14 53 e6 3c 7c d2 13 be 0c ac 03 3e ee 1f b5 3d
       0.028115787 -0.14435762 0.128586 0.08843981
0000f0 dd 51 4b 3d eb 6c b4 bd 28 6c 8d 3d 95 73 9f 3c
       0.049638618 -0.08809837 0.06905395 0.019464293
000100 dd 9a 3c bd 3f 62 d9 bd 95 dc 8a 3c 5c 7e 72 3d
       -0.046046127 -0.10614442 0.016950885 0.059202537
000110 c2 65 58 3d 40 d0 31 3d 80 c4 dd 3c 31 33 88 bd
       0.05283142 0.043411493 0.027071238 -0.06650389
000120 10 2f 86 3d 36 ef 8d 3e de b9 33 3d 05 18 e1 bc
       0.06551945 0.27721566 0.04387843 -0.027477274
000130 e1 09 67 bc 3e eb ce 3c ad 1d 69 3c cf 89 e1 3d
       -0.014101476 0.025258657 0.014228267 0.11012613
000140 4e f0 f4 3c 11 71 d6 3d e6 e1 8a 3d 29 da 08 3e
       0.029899742 0.104707845 0.06781368 0.13364471
000150 3c d2 45 bc 91 60 18 bd 81 18 fa bc 38 42 39 3c
       -0.01207405 -0.037201468 -0.030529262 0.011307292
000160 2c c2 95 3b d3 3e 19 3c fe 00 32 3d 53 6b c0 3c
       0.004570266 0.009353357 0.043457977 0.023488676
000170 d9 1b 84 bd dd 9d f3 bc 5a 39 ac 3d c5 d5 2a 3e
       -0.06450624 -0.029738361 0.084093764 0.16683109
000180 fb f8 03 3e a0 61 a8 3c 86 88 96 bc e8 e3 30 bc
       0.12887947 0.020554364 -0.018375646 -0.010796525
000190 c1 bc 37 3d fd 37 fa 3d ad ae 97 3d ee 2a eb bd
       0.044857744 0.1221771 0.07406364 -0.114827976
0001a0 c1 3f cb 3d 20 7d fb bc 30 49 74 bd f5 df c1 3d
       0.099242695 -0.030699313 -0.05964011 0.094665445
0001b0 cd e4 4c bd 9e e2 5f bd 28 4d c4 3d 42 41 91 be
       -0.05002289 -0.05465948 0.09585029 -0.283701
0001c0 33 5d 57 3c e6 c9 3d 3d d3 db 93 bd 12 e2 0f bd
       0.013144779 0.046335123 -0.072196625 -0.035127707
0001d0 c6 3c 02 bd e2 c9 39 bd 4f 6b ce bd 1a e0 5f 3e
       -0.03179624 -0.045358546 -0.10079061 0.21862832
0001e0 25 23 30 3e 5e 95 be bd a3 74 ef bd 6a 8e 79 3c
       0.17200907 -0.09305833 -0.116921686 0.015231708
0001f0 83 4e 63 3d cb 9b 5c 3d 17 eb e5 bd 0f 60 94 bd
       0.055494796 0.053859513 -0.112264805 -0.07244884
000200 fd 16 83 be 93 75 9e ba bc 64 b6 bd a5 57 03 bd
       -0.25603476 -0.0012089483 -0.08905932 -0.032066006
000210 e8 2d bf 3b 4b dc ee 3c 9b 15 40 3c 4a 0d 42 3c
       0.00583433 0.029157778 0.011723901 0.011843989
000220 7f ad f4 3d 86 0e d3 3c a7 e2 2d 3b 92 ba 9b bd
       0.11947154 0.025763761 0.00265328 -0.07603945
000230 a1 16 e3 3d a0 17 89 bc 82 d6 3c 3e 08 68 7f bb
       0.110883005 -0.016734898 0.18441203 -0.003897192
000240 4d 8e 35 be fd 25 45 3d 54 ff e4 3d 8a 7c bb 3d
       -0.17730065 0.04813193 0.111815125 0.09154613
000250 8e ea ef bb a0 ca 69 3e 06 36 22 bd 59 10 ba 3d
       -0.0073216623 0.22831202 -0.039602302 0.09085149
000260 55 8d b6 3e 31 f9 3b bd 8c c0 02 bd be 71 3d bd
       0.35654703 -0.045891944 -0.03192191 -0.04625105
000270 06 06 29 3e 74 32 c6 bd 53 ae 10 bd 68 d3 9a 3d
       0.16506204 -0.09677592 -0.0353225 0.07559854
000280 9a 80 86 be 49 83 51 3e d0 fc 6c 3d 34 5a 0c 3d
       -0.2626999 0.20460238 0.05785829 0.034265712
000290 d0 34 19 bd 3c 1d 30 be 6e 49 c8 3d b5 66 53 b9
       -0.03740388 -0.17198652 0.097796306 -0.0002016079
0002a0 e9 b6 2e 3d d1 43 db 3a 61 bc ad 3d 74 0a da 3c
       0.042654905 0.0016728585 0.08483196 0.026616313
0002b0 9a 23 90 3d 4b f2 8c bd dd b5 c6 bc f7 68 fa 3d
       0.070380405 -0.06882151 -0.024256641 0.12227052
0002c0 e4 46 db bd 67 51 ce 3d 9c c4 81 3d c7 d3 52 3d
       -0.10706881 0.1007412 0.063363284 0.051471498
0002d0 9c 80 b4 3d 3e 36 cf 3d 0e af 21 bb 5a ae 4e bc
       0.08813593 0.10117768 -0.002467099 -0.012614811
0002e0 e6 3a 13 3e 93 38 05 bd a3 ac 18 be 90 93 22 bc
       0.14377937 -0.032524657 -0.14909606 -0.009922877
0002f0 e1 69 62 3c 6a aa 4e 3d ea f0 aa 3d d3 ff 99 bd
       0.013819189 0.05045549 0.08346732 -0.07519498
000300 e8 96 0f 3b d5 77 ff bc 9a 14 e5 bd 94 65 f9 bc
       0.0021910015 -0.03118507 -0.1118557 -0.030443944
000310 2c fc ed bd 67 a8 51 bd d5 2d ef 3d 54 1b aa 3d
       -0.116203636 -0.05118599 0.11678664 0.08305994
000320 fa 8a 41 bd 8f 8e db bd 51 63 02 be 15 93 4d 3c
       -0.04725168 -0.1072055 -0.12733199 0.012547274
000330 76 fc c0 3d 5e c2 ea 3d c4 47 07 be f3 e6 af bc
       0.09423153 0.11462854 -0.1321097 -0.02147243
000340 6c 66 4c bb 04 18 29 3e 90 3e f4 3c 6b bf 11 bc
       -0.0031188978 0.16513067 0.029814988 -0.008895735
000350 35 89 5d 3c 3c 9b c3 3c cc 39 87 bd a2 7d 38 be
       0.013521482 0.023877732 -0.06602821 -0.18016675
000360 4a cf 32 3e ff 17 aa 3d a7 3f 39 be 09 cc 35 3d
       0.17461887 0.08305358 -0.18090688 0.044384036
000370 de 4b 21 3e 5d f5 a3 3d 6d be fe 3c 74 89 ce 3d
       0.15751597 0.08005784 0.031096661 0.10084811
000380 0d 15 a1 be 9a b1 0e 3d d6 4c 9c bc d8 99 4b 3e
       -0.31461373 0.034837343 -0.019079607 0.19882905
000390 d4 cb 0e 3b 6e db c6 bb 2e 36 0f 3e 0b c3 1f 3c
       0.0021788971 -0.0060686385 0.13985512 0.009751092
0003a0 5e dd 6a 3d 13 cb fa 3d ea 10 1b bd 96 5e 46 3e
       0.05734002 0.122457646 -0.037857927 0.19372019
0003b0 68 8e 4f bd f0 54 96 bd 84 30 38 3c ff 65 2b bd
       -0.05067292 -0.07340419 0.011242036 -0.041845318
0003c0 05 9b d6 3d 5e f6 2c be 2f b3 8e 3d 4f f3 b2 3c
       0.104787864 -0.16890857 0.0696777 0.021844534
0003d0 3d 18 be 3c 5d e9 79 3d 9b d2 f2 3d 8b 66 07 bc
       0.023204917 0.06101357 0.11856576 -0.008264194
0003e0 18 18 ae 3c 03 eb a9 bc 0b 6b 71 3d 23 0b 33 bc
       0.021251723 -0.020741945 0.058939975 -0.010927948
0003f0 98 63 92 3d af 85 38 be 09 d4 ed 3b 03 96 9d bc
       0.07147902 -0.18019746 0.0072579426 -0.01923657

VAE_Decoder.layers.0.linear1.bias f4 [4]
000000 ed ef 0b be 08 14 25 bd 71 0e 81 3d 6c b7 e6 b9
       -0.13665743 -0.040302306 0.063015826 -0.00044005679

VAE_Decoder.layers.0.norm1.weight f4 [4]
000000 11 d8 93 3f 90 ab 92 3f e9 38 8f 3f d3 c3 8f 3f
       1.1550313 1.1458607 1.1189243 1.1231636

VAE_Decoder.layers.0.norm1.bias f4 [4]
000000 b9 27 6c 3c f6 c4 57 bc a5 81 df 3c aa a0 a3 bd
       0.0144137675 -0.013169518 0.027283499 -0.079896286

VAE_Decoder.layers.1.attention.W_q.weight f4 [4, 4]
000000 f8 5e bb be a0 7e cf be 8e 96 4b be 36 bd c9 3e
       -0.36595893 -0.40526295 -0.19881651 0.3940217
000010 e8 cb 81 3e 58 f4 2b be 40 5c e2 3e a4 4c 20 3e
       0.2535088 -0.16792428 0.44211006 0.15654236
000020 4f 54 5a be 8d d4 f2 be 26 c8 cf 3e 27 86 52 be
       -0.21321224 -0.47427788 0.4058239 -0.20558988
000030 d8 be 0c 3e 7d dd 3d 3e af 59 21 3e 4c a5 8c 3e
       0.13744676 0.18541522 0.15756868 0.27469862

VAE_Decoder.layers.1.attention.W_q.bias f4 [4]
000000 f4 9f 65 bd 72 2d ab bd e7 5f dd 3a 0e 04 24 be
       -0.056060746 -0.083582774 0.0016889543 -0.16017172

VAE_Decoder.layers.1.attention.W_k.weight f4 [4, 4]
000000 db c8 37 be ea e3 c3 3e ca b7 94 3e 32 8e 03 3e
       -0.17947714 0.38259822 0.2904647 0.12847212
000010 c5 43 d1 be 02 54 a0 bd 00 5b fb 3d 60 8b 94 be
       -0.40872017 -0.07828523 0.12273216 -0.29012585
000020 79 03 4b be 5a d6 ab 3e d4 19 d8 3c f4 d1 1e be
       -0.19825543 0.33561975 0.026379503 -0.15509778
000030 09 5c ae bd 96 45 b5 3e cd bf 96 3e 7b 44 cb 3e
       -0.08513648 0.35404652 0.29443207 0.39700684

VAE_Decoder.layers.1.attention.W_k.bias f4 [4]
000000 1e c4 e5 b9 f7 dd 43 39 ac 00 34 38 6a 64 80 37
       -0.00043824402 0.00018679338 4.291597e-05 1.5305548e-05

VAE_Decoder.layers.1.attention.W_v.weight f4 [4, 4]
000000 56 ad f6 be c7 8f d8 bd b6 3d 60 3e 69 ef b8 3d
       -0.4817912 -0.10574298 0.21898541 0.09030039
000010 08 5f b1 be 25 57 eb be 7e 50 c1 be 34 1c 97 be
       -0.34642816 -0.45964924 -0.37756723 -0.29513705
000020 4e 91 e7 3c 66 c1 5c 3e 58 7e 8c 3e 72 5e d6 3e
       0.028267529 0.2155815 0.27440143 0.4186893
000030 7e 48 3b be db 3f ad 3d 76 d8 c3 3e 3a da e5 bd
       -0.18289372 0.08459445 0.38251084 -0.11223264

VAE_Decoder.layers.1.attention.W_v.bias f4 [4]
000000 0c 9f 3b bd 8c e5 ed 3c 8c 0e 82 3c 54 0a 11 bc
       -0.045805976 0.02904012 0.015876077 -0.00885256

VAE_Decoder.layers.1.linear0.weight f4 [128, 4]
000000 02 7d a6 3e 90 e2 ed 3d 6f 0c 6b bd e7 35 df 3d
       0.32517248 0.11615479 -0.057384904 0.10898953
000010 2a ae df be fc 4f 43 3d 3f f4 ab bd c0 ef a8 be
       -0.43687564 0.0476837 -0.083961956 -0.32995415
000020 13 16 e9 be fd 0a 93 bd 5c 15 69 3e ff 32 42 3d
       -0.45524654 -0.0717983 0.22762054 0.047411915
000030 32 9d 49 be 99 e0 53 3e 0a 52 25 3d e9 0a bf 3d
       -0.19688872 0.20691146 0.04036144 0.09328253
000040 5c 7d a1 3e fa 7e 8f 3e 2b 3b f3 be 7b f7 30 3e
       0.31540954 0.28026563 -0.4750608 0.17281906
000050 07 e4 35 be 4b 0a 9e 3e 99 2f 00 bf 7c f0 f7 3e
       -0.17762767 0.30867228 -0.5007263 0.48425663
000060 c8 55 d8 3d 38 9a 36 3e df f1 9a be 33 58 4f 3e
       0.105632365 0.17832267 -0.30262658 0.20248489
000070 64 89 62 3e 47 b9 5b 3c 7a 78 43 3d 67 d7 a0 3d
       0.22122723 0.013410873 0.047722317 0.07853585
000080 fb 26 f2 3e a8 0e 5f be 0c 5b 2f 3c 61 0c 9a be
       0.47295365 -0.21782935 0.01070286 -0.3008757
000090 05 99 05 bd c2 a7 70 3e ae 7b 28 3c 07 bf f4 3e
       -0.032616634 0.23501495 0.010283394 0.47801992
0000a0 0f 93 50 bd dd 9a 77 3e bc 03 9d 3e d7 70 c1 bc
       -0.050921496 0.2418017 0.30666912 -0.023613377
0000b0 6b 31 91 be 68 fa 10 3e ed 60 08 3f ab 63 26 3c
       -0.28358015 0.14158022 0.53272897 0.010155599
0000c0 4d 7a 40 be 06 f2 55 3d f4 06 f1 bd 95 30 b0 be
       -0.18796654 0.052232765 -0.11768904 -0.34412065
0000d0 92 e7 cd 3e b5 d9 26 be 55 f3 8c be 85 a9 a6 3e
       0.40215737 -0.16293986 -0.27529398 0.32551208
0000e0 c6 ba c6 3e 45 ab 89 be d8 f8 7d be ca 2b e7 3e
       0.38814372 -0.2688848 -0.24801958 0.45150596
0000f0 d8 a6 3c bf ea 9e b1 3d 9f 98 95 3e dc d8 b0 3e
       -0.73692083 0.086728886 0.29218003 0.3454045
000100 b1 67 fc bd b2 21 d8 be 4c 74 8e be 42 bb 1f be
       -0.12324465 -0.42213207 -0.27823102 -0.15598777
000110 97 ff 3c 3e 7b 50 a6 be c5 04 d3 3d 34 06 a6 3e
       0.18456875 -0.32483277 0.10303644 0.32426608
000120 ab 1c a2 3c 99 93 f9 be 0b 9d 8e be 9c ff 66 3e
       0.01978906 -0.4874542 -0.2785419 0.22558445
000130 b0 7e 8a be 5a 48 6d be 41 33 b3 be 78 40 8d 3d
       -0.2704978 -0.23172131 -0.3500004 0.06897062
000140 70 a7 b0 be 6e f1 81 bd bf a8 16 3f ea 32 fa 3d
       -0.34502745 -0.06344877 0.58851236 0.12216742
000150 47 08 8f 3e 9b 99 0f be b3 d7 fe 3d 8c 54 d5 3e
       0.27936003 -0.1402344 0.12443485 0.41666067
000160 10 35 18 3d 4c 5f 86 bd 1e 52 28 3f f4 06 9d 3e
       0.03715998 -0.06561145 0.657503 0.30669367
000170 71 37 51 be 51 d4 33 bd 4c e3 f2 be 1d 5c 7e 3c
       -0.20431305 -0.043903653 -0.4743904 0.015524891
000180 a6 6b 8a be 2f 66 6e be e8 40 06 3f 5d 06 1f bf
       -0.27035254 -0.23281167 0.5244279 -0.62119085
000190 2a e6 f9 be f4 01 56 3d 7f 23 3f be 30 f2 9f be
       -0.48808414 0.052247956 -0.18665884 -0.31239462
0001a0 1a b2 e1 3e 51 14 a8 3e 2c a6 f8 3e f3 10 a5 bd
       0.44081193 0.32828 0.4856428 -0.080598734
0001b0 c1 d1 b8 3a 3a 73 a2 be 6c 5c 06 3e e3 0c 04 3f
       0.0014100597 -0.31728536 0.13121194 0.51582164
0001c0 ba 90 0c 3f 65 0e e4 3e 59 78 cf be dd 23 f6 3e
       0.54908335 0.44542232 -0.40521505 0.48074237
0001d0 12 16 d1 be 0c 4c e4 3e 3a 69 a9 3d 8f 47 ed 3e
       -0.4083715 0.4458927 0.082720235 0.46343657
0001e0 ea 8b 8d 3d 7a 4f b6 3e 8e 9b e9 bd 25 82 2e 3d
       0.06911452 0.3560751 -0.11406623 0.042604584
0001f0 a0 ca 5e be 3f 7d 3f be 95 ba fd 3e b9 4f a6 be
       -0.21756983 -0.18700121 0.49556413 -0.324827
000200 82 7a c0 be d4 e7 52 3e b4 47 b1 be 49 00 d2 3e
       -0.37593466 0.20596248 -0.34625018 0.41015843
000210 bc 6b 40 3e a4 f6 8f 3e b4 e5 d7 bd b8 e3 82 bd
       0.18791097 0.2811786 -0.10541859 -0.0639109
000220 4d ed b3 3d 28 86 90 3e 74 26 7b be bd ad 9b 3e
       0.08785496 0.28227353 -0.24526387 0.3040599
000230 8e 1c f4 bd 56 7b fd 3e 18 70 56 3d 8c da cf 3e
       -0.11919509 0.4950816 0.052352995 0.40596426
000240 d1 d1 62 bd 71 a6 5d be 64 de ac 3e c5 31 69 3e
       -0.055375878 -0.21645524 0.3376342 0.22772892
000250 82 67 20 3d 3b 83 b7 be 85 d2 0d 3f 2b 8b e5 3e
       0.039161213 -0.35842308 0.5539935 0.4483274
000260 ca e0 49 3e ea 22 9e 3e 86 d6 f0 be 12 dc c3 3d
       0.19714656 0.30886012 -0.47038668 0.095634595
000270 50 eb 26 be ce 9e e3 3e b4 1a 07 3f 7d e9 22 bd
       -0.16300702 0.44457096 0.5277512 -0.039773453
000280 7a 93 60 be 3f 3a f1 bd e0 16 d5 be 5b 65 dc be
       -0.21931258 -0.11778688 -0.41619015 -0.43046078
000290 bd 9c e7 3e 6c a4 a8 bb 0c e7 c5 be 6f b6 5e bd
       0.4523677 -0.0051465537 -0.38652837 -0.0543732
0002a0 93 e9 92 3d 12 c6 f9 3e 56 47 c7 be e6 fb c5 be
       0.07173457 0.48783928 -0.38921613 -0.38668746
0002b0 e7 07 88 3e 9a c2 be be 93 d0 4e 3e 3d 27 79 be
       0.2656853 -0.37257844 0.20196752 -0.24331374
0002c0 04 ff 52 be 20 7e 27 3e e0 48 cb ba 47 b8 9d 3d
       -0.20605093 0.16356707 -0.0015509389 0.07701164
0002d0 b6 fd d7 3e d7 04 ce be 1c 5b 9f be 0d b3 83 3e
       0.42185754 -0.40238068 -0.31124198 0.25722542
0002e0 e8 04 50 3e 21 45 61 be fa cf be 3c e3 1b 42 be
       0.20314372 -0.21999027 0.02329253 -0.1895595
0002f0 66 0b f8 be 44 13 8e 3e 23 7c 71 3b 88 01 3d 3e
       -0.48446196 0.27749074 0.0036847673 0.18457615
000300 ba 48 04 3e 45 18 c0 3e 5d ba fc 3d 8f 0a 85 3d
       0.12918368 0.37518516 0.123402335 0.064961545
000310 2a 79 64 be e1 35 36 3e 28 f1 6d be a1 21 37 3e
       -0.22311845 0.1779399 -0.23236525 0.17883922
000320 f3 ab 92 3e 4b 5d 6b 3e 83 06 33 be 53 8f f1 bd
       0.28646812 0.22984807 -0.17482953 -0.11794915
000330 5b d1 bd 3e 0d d6 a0 bc 7e 33 f1 3e 25 d8 ba be
       0.37073788 -0.019633317 0.47109598 -0.3649303
000340 c6 7b 86 3e c1 14 76 be ab 5d 90 3e 13 23 a2 be
       0.26266307 -0.24031354 0.28196463 -0.31667385
000350 ed ac 1b 3c c4 c1 e1 3d 33 ae 88 3e 68 0b d8 be
       0.009501678 0.11023286 0.26695403 -0.42196202
000360 d1 65 51 be 05 b1 c9 3d 07 59 9f be 9c 08 99 be
       -0.20448996 0.09848217 -0.3112261 -0.2988938
000370 73 c1 83 3e 73 85 50 3d a4 39 42 be ec 0e d2 3d
       0.25733528 0.050908517 -0.189673 0.10256752
000380 ef 93 cb bc 12 0d 1a 3e 7c 4c 5c 3e ac f3 03 3e
       -0.024850814 0.15044048 0.21513551 0.12885922
000390 95 9d 10 be 7d 3c ce 3e 11 20 b0 3d 34 59 a9 be
       -0.14122613 0.40280524 0.08599866 -0.3307587
0003a0 0f 5c 2e bf 10 5d d6 3e bf d9 58 3e 7f 13 8a 3e
       -0.6810922 0.41867876 0.21176814 0.26968
0003b0 00 0f 12 3e 7b a2 95 3d 4f 75 de 3e 0b 0a 4d be
       0.14263535 0.07306381 0.43448874 -0.20023362
0003c0 dd d8 27 3e 16 fd 00 3e e6 96 10 bf 93 27 94 be
       0.1639132 0.12596545 -0.5648025 -0.28936443
0003d0 60 1a 24 bf d6 49 cf 3e 9f 3c a9 be b8 fb 81 be
       -0.64102745 0.4048602 -0.33054063 -0.2538736
0003e0 e8 d4 ba be 8f c3 83 3d fc c0 25 be ec eb 00 3f
       -0.3649056 0.06433784 -0.16186899 0.5035999
0003f0 e3 4a fb be 55 1d 51 3c e4 53 9b 3e 07 00 5b be
       -0.49080572 0.012763341 0.3033744 -0.21386729

VAE_Decoder.layers.1.linear0.bias f4 [128]
000000 ce 5c 67 be a1 e9 c0 3e 28 cb 23 be 01 9a 03 3f
       -0.22593996 0.37678245 -0.15995467 0.51406866
000010 6e dc 5e 3c 1e 34 c8 bd 6a 27 c1 3e ce 4f ad bd
       0.013602359 -0.097755656 0.37725383 -0.08462487
000020 c5 a3 9b bd 4d d1 cd be f1 82 06 bf 73 a2 83 3e
       -0.07599596 -0.40198746 -0.5254355 0.25709876
000030 70 1b b2 3e ba ea c2 3e f5 01 a9 be 75 8f 74 3c
       0.34786558 0.38069707 -0.33009306 0.014926781
000040 06 0c f6 be 3c cf fd bc e8 4d dd 3e b4 3f 3e 3c
       -0.48056048 -0.030982606 0.432235 0.011611868
000050 1a 6e a9 3e 64 c7 e7 3e 27 60 10 3e e9 a2 9f 3d
       0.33091813 0.4526931 0.14099179 0.077947445
000060 de 45 1c be ce 7a 06 bf 8d 7e cb 3e e1 f0 f8 3e
       -0.15261027 -0.52531135 0.39744988 0.48621276
000070 f1 b1 ea 3e 24 53 95 3e e7 3e 2b be 24 44 36 bd
       0.45838884 0.29164994 -0.16723214 -0.044498578
000080 be 8c 1d bc df e8 f2 be d6 ff d3 3e 16 09 57 3e
       -0.009616075 -0.47443292 0.41406125 0.2099956
000090 c0 3c 39 3e 6e da 70 be 63 30 25 3e 31 da e2 3e
       0.1808958 -0.23520824 0.1613174 0.44307092
0000a0 09 a3 c3 3e bd af de be 51 14 1f 3e 90 4a 7a be
       0.38210323 -0.43493453 0.15535094 -0.24442506
0000b0 1c 0a 18 3e 83 d5 e4 3e 6c 9f eb 3d 13 3c cd 3e
       0.14847606 0.44694147 0.11505017 0.40084895
0000c0 93 6c f5 be e5 48 ce be 6c 23 62 3e 3d 5f 34 be
       -0.47934398 -0.4028999 0.22083825 -0.17614456
0000d0 20 aa 90 be 62 73 01 3e ad bf 4d 3e 74 9d be 3e
       -0.28254795 0.12641671 0.2009265 0.37229502
0000e0 72 0e e5 3e 4b 22 56 be 2e 8c eb be 0a f8 ca 3d
       0.44737583 -0.20911519 -0.46005386 0.09910591
0000f0 67 63 e0 3e 9b c0 06 3f 83 5f 11 be f0 b2 05 3e
       0.43825838 0.5263764 -0.14196591 0.1305654
000100 b8 f6 56 3e 3e b0 ea 3e af b5 40 3e 77 30 87 3e
       0.20992553 0.45837587 0.18819307 0.26404163
000110 06 b9 8c 3e 85 b4 0a 3f 68 b4 74 be ca fc b7 be
       0.27484912 0.541817 -0.23896945 -0.3593505
000120 3d 7b e7 be 19 5c 3d 3e 7d 8f 6b bd 22 84 d1 be
       -0.4521121 0.18492164 -0.057509888 -0.40921122
000130 d9 50 37 3e 70 2c 78 be ff b0 08 3f 3c f3 e2 3e
       0.17901935 -0.24235702 0.53395075 0.44326198
000140 6b ba f3 be ef 33 e9 3d 7b 0f 2a be a7 e3 f9 be
       -0.47603163 0.11386859 -0.16607468 -0.48806497
000150 7b d7 d1 3e 5d 4e 03 3f 6d 91 22 3e b7 cb 62 be
       0.4098471 0.5129145 0.15875788 -0.22148024
000160 45 98 80 be 03 49 e1 3e 7a 7a c6 3d 40 48 e0 3e
       -0.25116172 0.44001016 0.09691329 0.43805122
000170 3f 3e 59 be 04 b5 7a 3d 8f 46 c8 3d 91 4f c6 be
       -0.21215151 0.061207786 0.09779083 -0.3873258
000180 14 50 6a 3e 34 96 e8 bd 06 f7 36 3d 8a 85 8b 3e
       0.2288211 -0.11356774 0.044669174 0.2725032
000190 13 87 7f bd 3e bf 16 3e 81 8b 7c be e0 02 dc be
       -0.062384676 0.1472139 -0.24662592 -0.42970943
0001a0 1a 79 87 3e b6 6e d0 be 7a 6b 4d 3e d5 ba d5 3e
       0.2645958 -0.40709466 0.2006053 0.41744104
0001b0 22 f5 c7 3e 5e 79 93 3d ef 08 85 be b9 b9 ef be
       0.3905421 0.07200883 -0.25983378 -0.46821383
0001c0 da c5 cb 3e 2a ad c5 be a4 a6 9e be a3 6c d1 3e
       0.39799386 -0.38608676 -0.30986512 0.40903196
0001d0 a3 91 d5 3e 33 38 07 3e 69 3d bf 3e 5c a1 db be
       0.41712674 0.13205032 0.3735154 -0.42896545
0001e0 36 e0 b6 be b4 ea b1 3e 33 9c 59 be 4e 1f af 3e
       -0.35717934 0.34749377 -0.21250992 0.3420357
0001f0 0c 49 56 3d 31 e4 88 3e 27 1a a1 be 24 e0 af 3e
       0.052315757 0.26736596 -0.31465265 0.34350693

VAE_Decoder.layers.1.linear1.weight f4 [4, 128]
000000 7b ef 02 3c 1a 25 a9 3d 09 1f e1 3d 0c b9 1d bd
       0.007991667 0.0825903 0.109922476 -0.038506553
000010 6c 9e 03 be 3e 29 82 bd 8d 22 4e bc 2e 38 88 3d
       -0.12853402 -0.063555226 -0.01258148 0.066513404
000020 7a 37 f0 3c fc af 8c 3c 30 fd 9b bc 5d c7 89 3d
       0.029323328 0.01717376 -0.019041628 0.06727479
000030 42 15 40 3d 08 fd 1d bc 4c ed 4e 3c ea 0f c7 3c
       0.046895273 -0.009642847 0.012629818 0.02429958
000040 93 13 7b 3c be 1a 24 be 21 96 35 bc 34 85 04 be
       0.015324491 -0.16025826 -0.011083157 -0.12941438
000050 35 95 09 bb 59 fb 45 bd 79 28 cc 3c 51 b0 45 bd
       -0.0020993475 -0.048335407 0.024921643 -0.04826385
000060 99 25 d4 3d c1 01 72 bd aa f7 ab 3c 37 17 e1 bd
       0.10358734 -0.059083704 0.020992119 -0.10990756
000070 06 a0 5d bd 53 b5 3f bd 0a 9c e2 bc 18 fc f0 3c
       -0.05410769 -0.046803784 -0.027662296 0.029417083
000080 88 1c 40 bd c8 fb 2e 3d ec 79 b8 bd 09 6f d8 bc
       -0.04690221 0.042720586 -0.0900763 -0.026420133
000090 10 99 df bd dd e5 97 bd 76 fd 54 bd d8 5a 4d bc
       -0.10917866 -0.0741689 -0.05199953 -0.012533866
0000a0 8f 37 43 3c dd ee 01 3d 57 e3 f6 3c bd 67 97 3d
       0.011915102 0.03172194 0.030137701 0.073928334
0000b0 d3 ed a1 3d c1 5c dc 3c 3a e9 46 bd e7 91 c6 3d
       0.079066895 0.026899697 -0.048562266 0.096957974
0000c0 b1 b7 56 3d 0d eb bf 3c 21 7d e1 3c d8 d1 2e 3c
       0.052421276 0.02342751 0.027525486 0.010670148
0000d0 46 4a 02 3e b6 f5 62 3d 9d c4 eb 3c 70 2b 4c ba
       0.12723646 0.05541011 0.028780276 -0.0007788455
0000e0 0c f5 3d 3d fc da 0e bd 17 b4 f1 bc 48 11 b8 bc
       0.046376273 -0.03487681 -0.029504819 -0.022469178
0000f0 9c c9 c1 bb 93 5e 16 bd f7 62 23 bd bf 42 9e 3b
       -0.0059139263 -0.036711287 -0.039889302 0.004829734
000100 d6 2d 90 3c d2 6a 1d 3d 9f bc 06 bd 3d ec c8 3d
       0.017599981 0.03843195 -0.032894727 0.09810684
000110 c7 3c cc bb 0c e4 b9 bd 54 84 4b be 6c 95 87 3d
       -0.006232831 -0.090766996 -0.19874698 0.06620297
000120 71 e4 c1 3d 6d da 39 3a cd 42 c1 3a f5 91 b2 bd
       0.094674 0.0007089738 0.001474464 -0.08719245
000130 3d 37 9b 3c e2 6b c2 3a f6 7f 31 be 9a 93 b9 bc
       0.018947238 0.0014833177 -0.1733397 -0.02265339
000140 dd 41 07 bd f5 99 6d 3c 2f 28 bf bd cf 7d 84 3d
       -0.033021796 0.014502038 -0.09333836 0.064693086
000150 c8 05 1c 3c ee 93 d0 bd dc c3 45 bd a8 41 57 bd
       0.009522863 -0.10184465 -0.04828249 -0.05255285
000160 15 dd 44 3d 19 b1 bb bd 14 3f d4 3a 8d 3c 0b be
       0.048062403 -0.09164638 0.0016193115 -0.13597317
000170 51 22 42 3d 62 69 aa bc 46 45 9d 3d 89 7c f8 3d
       0.047396008 -0.020802204 0.076792285 0.12133128
000180 8b 37 0f be 35 93 a7 bc 40 95 54 3d 12 cd 59 bd
       -0.13986032 -0.020455936 0.05190015 -0.053174086
000190 e9 94 4f 3c cc 73 df bd e0 fe 24 bc d0 9d cd 3c
       0.01266978 -0.109107584 -0.010070533 0.025099665
0001a0 da dc 67 bd de 8b 8a 3d 2f fe 63 bd 13 58 5b 3d
       -0.056607105 0.06764959 -0.05566233 0.05355079
0001b0 a0 a2 ed bc e0 58 99 3d f4 a1 6f bd 2f fe 8f bb
       -0.02900821 0.07487655 -0.05850406 -0.0043943147
0001c0 b0 53 bf bd 18 94 93 3c cf 1e 6c bd bc e5 80 bd
       -0.09342134 0.018014953 -0.05764657 -0.06293818
0001d0 59 3c ce bd c6 f5 bd bd f4 0f f0 bd 12 98 ea 3e
       -0.10070104 -0.09275393 -0.11721793 0.45819145
0001e0 07 12 f8 bd 5f 6f 2e 3c ff c4 85 3e 98 ac 5f 3d
       -0.121128134 0.01064667 0.2612686 0.054607958
0001f0 2e 52 07 bc 7f c5 34 3d 43 fd 40 bd 38 c9 01 bd
       -0.008259339 0.04413366 -0.04711653 -0.031686038
000200 fb 2e f3 bc 65 6c 48 3d 3f 7f 58 bc 59 43 63 3d
       -0.029685488 0.048931498 -0.013213932 0.05548415
000210 5c bb 96 3d 58 46 ba 3d 10 19 98 bc 44 b1 95 3d
       0.07359955 0.09095448 -0.018566638 0.07309201
000220 72 de 63 3b 24 53 14 3e 15 0e 01 3c 9f bb 40 be
       0.003477004 0.1448484 0.007876893 -0.18821572
000230 a8 30 9d 3a 60 1c ab 3d 43 26 09 3d 74 07 2c bd
       0.001199265 0.083550215 0.033483755 -0.041999295
000240 cf b7 a6 3b 27 02 62 bd 77 2a 3f bd a8 15 8a 3d
       0.0050878297 -0.055177834 -0.046671357 0.06742412
000250 fa 14 1a be 5d e6 44 3d ac 56 17 be c7 fa 8c 3d
       -0.15047064 0.048071254 -0.14779156 0.068837695
000260 ca 99 51 be a8 18 b6 bd e2 4e 99 bd d8 ee ba bc
       -0.20468822 -0.088914216 -0.07485749 -0.022818968
000270 dc 66 14 3d ef c3 d3 3d df a9 91 bb f5 89 28 be
       0.036230907 0.10340106 -0.004445299 -0.16458876
000280 4c 1d 18 3d 68 a4 38 3e 27 08 9c 3d 49 d3 14 3c
       0.037137315 0.18031466 0.076187424 0.009083577
000290 ca b3 4f be cf 1e 31 bd 21 16 b4 3d 92 69 48 bc
       -0.20283428 -0.043242272 0.08793283 -0.012232201
0002a0 fc 0c 5d 3c 2c ed 5a 3c e8 e7 a4 3c 7f 0b 01 be
       0.013491865 0.01336221 0.020130113 -0.12602042
0002b0 00 a6 a6 b8 d5 50 ba 3c a6 e6 5e bd 8c 04 c4 bc
       -7.946417e-05 0.022743622 -0.054419182 -0.02392795
0002c0 bd 10 f5 bc 33 c0 0a bd b4 84 16 3e cb 3b ee bd
       -0.029915208 -0.0338747 0.1469906 -0.11632498
0002d0 49 d3 06 be ce 85 7f bd 23 99 9a bc cd a5 51 bc
       -0.13166536 -0.062383465 -0.01887185 -0.012795878
0002e0 29 e3 00 3d 3c e0 d6 3d 9e 59 41 3d d9 2c 15 be
       0.031466637 0.10491988 0.047204606 -0.1456789
0002f0 91 83 d7 3d d1 2c d7 3d d8 09 25 bd 8f 2d f8 bc
       0.10523141 0.10506595 -0.04029259 -0.030295162
000300 31 aa 46 bc bb a5 01 bd 46 99 4d bd 9d 62 1e 3e
       -0.012125538 -0.031652194 -0.050195 0.15467305
000310 9e 53 0d be 63 65 ab 3d 10 5b f7 bd d1 6f 6c 3d
       -0.13801429 0.08368947 -0.12077916 0.057723824
000320 f8 5e 57 3b ff 98 41 be 86 11 69 3c 4b fe 64 bd
       0.0032863002 -0.1890602 0.014225369 -0.055906575
000330 22 dd 24 3d af 23 e7 3c 75 df a6 3d 19 1e b4 bb
       0.04024995 0.028215257 0.0814809 -0.005496752
000340 04 dd a7 3d d4 b8 a3 3d 6a 18 aa 3d b6 7b d2 3c
       0.08196452 0.079942375 0.08305438 0.025693756
000350 2e 20 63 3c 8d 1d e3 3d dc 8e 11 3e c4 f9 21 bd
       0.013862653 0.11089621 0.14214653 -0.039544836
000360 54 37 03 bd 5a 43 a8 3d 99 bf c9 3d 1d cf a2 3d
       -0.032035187 0.08215971 0.098509975 0.0794966
000370 ac 76 b1 bd 26 e4 53 3c c5 7e a1 bc b8 72 ef 3d
       -0.08665213 0.012932813 -0.019713769 0.11691803
000380 04 a8 97 3d dd b7 61 3d de 18 c5 bd 83 32 33 be
       0.07405093 0.055106986 -0.09623884 -0.17499737
000390 a3 43 a9 3d a7 6f 01 3b b8 3d fa 3c 09 7f a5 3b
       0.08264854 0.0019750388 0.030547008 0.005050544
0003a0 de a7 8e 3c 51 bc d8 bc c1 ad 0e be b6 2c c4 3d
       0.01741403 -0.026456984 -0.1393347 0.095788404
0003b0 99 1c 8f bc 70 9c 21 3c 06 cd 35 bb cd 42 bd 3c
       -0.017469691 0.009863958 -0.0027740612 0.023103142
0003c0 c4 7a fa 3d 8a 70 ad bc a2 95 1f 3e 54 b4 e8 3d
       0.12230447 -0.021171827 0.15584424 0.1136252
0003d0 68 65 26 3d 7f 47 28 3e 72 23 a2 bc 7b 66 b7 3e
       0.040624052 0.16433524 -0.019792292 0.35820374
0003e0 81 43 ae 3c fc ac 13 3e 1e b7 d0 be cc 7a 04 3d
       0.021272423 0.14421457 -0.40764707 0.03234367
0003f0 1a ee 54 bd 75 69 80 3d b6 06 87 bd 16 27 17 be
       -0.051984884 0.06270114 -0.06593077 -0.14761004

VAE_Decoder.layers.1.linear1.bias f4 [4]
000000 5a 15 c3 bd ea cf eb 3c c7 02 9f 3c 67 c5 3f 3d
       -0.09525557 0.028785665 0.019410504 0.046819117

VAE_Decoder.layers.1.norm1.weight f4 [4]
000000 2c 5e 91 3f de e5 8f 3f 57 ec 8e 3f 57 01 87 3f
       1.1356864 1.1242025 1.1165875 1.0547284

VAE_Decoder.layers.1.norm1.bias f4 [4]
000000 b1 ff f6 bd 02 72 58 bb 42 81 90 39 c9 2b 5a 3b
       -0.12060488 -0.0033026938 0.00027562125 0.0033290258

VAE_Decoder.layers.1.norm0.weight f4 [4]
000000 af 01 71 3f e4 06 83 3f 3c bd 7e 3f f8 5d 81 3f
       0.94143194 1.0236478 0.995075 1.0106802

VAE_Decoder.layers.1.norm0.bias f4 [4]
000000 22 80 9d bc 4d 00 d4 bc 2c 98 04 bd 67 a4 37 bd
       -0.019226138 -0.02587905 -0.032371685 -0.04483452

VAE_Decoder.last_normalization.weight f4 [4]
000000 00 00 80 3f 00 00 80 3f 00 00 80 3f 00 00 80 3f
       1.0 1.0 1.0 1.0

VAE_Decoder.last_normalization.bias f4 [4]
000000 00 00 00 00 00 00 00 00 00 00 00 00 00 00 00 00
       0.0 0.0 0.0 0.0

VAE_Decoder.head.weight f4 [4, 4]
000000 c0 c6 d7 bc 7c 7a 28 be a6 17 f6 be 7c 4c 3f be
       -0.026339889 -0.16452974 -0.48064917 -0.1868152
000010 00 dc 93 bc b0 3e 11 bd 80 f1 69 3d 1c 3a 5e 3e
       -0.01804924 -0.035460174 0.057115078 0.21701854
000020 38 2b 9e 3d a0 aa b3 be 58 e4 dc 3e de 0b b5 3e
       0.07723087 -0.35091114 0.43142962 0.35360616
000030 98 ef be be 18 c0 e8 bd 60 4e e7 3c b8 68 51 be
       -0.3729217 -0.11364764 0.028235614 -0.20450103

VAE_Decoder.head.bias f4 [4]
000000 d2 31 f9 3e 64 21 3e be 98 ea ce 3e ee 36 8c 3e
       0.48670822 -0.18567425 0.40413356 0.27385658

Detokenizer.weight f4 [8, 4]
000000 f0 8a cd 3d 8c 02 ae bd 19 fd ce be 83 a0 fe be
       0.10036266 -0.084965795 -0.40427473 -0.49731836
000010 b0 f6 a7 3e 8d 45 a0 3e d0 f4 b1 be 0e aa a9 3c
       0.32805395 0.31303063 -0.3475709 0.020710971
000020 8c 21 b4 be 9f 70 a5 3e 60 ed 08 bf e0 fe 25 be
       -0.35181844 0.32312486 -0.53487206 -0.16210508
000030 a5 08 f2 3e a0 8b bb be fe c4 e7 3e e4 94 ca 3e
       0.4727222 -0.36629963 0.4526748 0.3956672
000040 fb 3f cf bd d1 76 f9 be 9f fa c9 3d fb 4d 91 3d
       -0.10119625 -0.48723462 0.09862255 0.07094952
000050 e7 d2 f5 3d e6 1f be bd 4e bf 1d be 42 31 2c 3f
       0.12003117 -0.09283428 -0.15405008 0.6726266
000060 35 d8 9e 3e bd 7e 6f 3e 57 25 67 3e 34 c8 d9 3e
       0.31024328 0.2338819 0.22572838 0.42535555
000070 e6 87 9d be 6a 6f 9f be dc 7d d8 3e 47 7a 82 bd
       -0.30767745 -0.3113969 0.42283523 -0.06370979

Detokenizer.cat_recons.0.weight f4 [2, 4]
000000 2b 2f ba 3e 21 21 aa 3e 90 75 3a 3e 87 2b 70 bd
       0.3636411 0.332284 0.18208909 -0.05863526
000010 c2 a5 ae be e6 ec 3f bf f5 bd b6 3d 4a 3b a7 be
       -0.34110838 -0.74970853 0.0892295 -0.3266242

Detokenizer.cat_recons.0.bias f4 [2]
000000 ca 68 a1 3d 33 c5 a6 3e
       0.07881315 0.32572326
