tabsyn/vae/ckpt/diabetes/encoder.pt (torch, 22128 bytes, 33 tensors)

Tokenizer.weight f4 [9, 4]
0.015888926 0.59921414 0.1976842 -0.3571929 -0.11616089 0.14747378 0.15255834 -0.3161094
0.20460792 0.53284454 0.17201069 0.080694504 0.04686224 -0.18478996 -0.44920465 -0.088737294
0.21714878 0.34784096 0.5141758 -0.33703643 -0.13240503 -0.18883467 0.023782117 -0.28480434
-0.16921495 -0.17857717 -0.18420757 0.49401093 0.08447554 -0.042915154 -0.15486242 0.19196327
-0.08477873 -0.28311718 0.103316195 0.13590741
00000000: 7e29 823c 1966 193f ba6d 4a3e fde1 b6be
00000010: c3e5 edbd 5e03 173e 4138 1c3e 17d9 a1be
00000020: bd84 513e 8068 083f 9223 303e 2943 a53d
00000030: 9ff2 3f3d 9439 3dbe 27fe e5be e6bb b5bd
00000040: 405c 5e3e 3618 b23e 06a1 033f 0a90 acbe
00000050: 2f95 07be e05d 41be b7d2 c23c e0d1 91be
00000060: af46 2dbe efdc 36be e9a0 3cbe 00ef fc3e
00000070: 8301 ad3d cdc7 2fbd 4194 1ebe 0592 443e
00000080: 79a0 adbd bcf4 90be 7197 d33d 502b 0b3e

Tokenizer.bias f4 [9, 4]
-0.04158466 0.5387449 -0.29083663 0.29210597 0.5727728 0.00591083 0.23114851 0.32140714
0.33634752 0.10772032 -0.06433628 -0.45857278 0.020058474 -0.39638406 0.07556869 -0.24080884
0.4188304 -0.19675402 -0.18366602 0.42285043 -0.3326002 0.81960875 -0.7058534 -0.37402946
0.4360489 -0.0020360423 -0.42314735 0.34252566 0.31058133 -0.4743189 -0.41690964 -0.19345932
-0.30517423 0.06264558 0.02409696 0.23706967
00000000: ad54 2abd 30eb 093f 8ae8 94be ea8e 953e
00000010: 3da1 123f a3af c13b 32b2 6c3e 7a8f a43e
00000020: be35 ac3e 799c dc3d bdc2 83bd 0dca eabe
00000030: ab51 a43c daf2 cabe c2c3 9a3d 9896 76be
00000040: f070 d63e e379 49be f212 3cbe da7f d83e
00000050: 934a aabe e1d1 513f cfb2 34bf ca80 bfbe
00000060: cd41 df3e 1f6f 05bb c5a6 d8be 865f af3e
00000070: 8404 9f3e edd9 f2be 2e75 d5be 331a 46be
00000080: cc3f 9cbe 534c 803d fd66 c53c 64c2 723e

Tokenizer.category_embeddings.weight f4 [2, 4]
0.09989535 0.24320199 0.029319383 0.17506741 -0.55033845 0.10226455 0.06457926 -0.16331953
00000000: ef95 cc3d f109 793e 342f f03c df44 333e
00000010: fbe2 0cbf 1470 d13d 2242 843d 3c3d 27be

VAE_Encoder.layers.0.attention.W_q.weight f4 [4, 4]
0.41527924 0.22877917 -0.42558438 -0.061356463 -0.41447133 -0.4257496 0.39258504 0.23205844
-0.4450552 -0.45281646 0.3697777 -0.2112486 0.43587673 0.29899043 0.36850992 -0.46000603
00000000: 7b9f d43e 1645 6a3e 32e6 d9be ea50 7bbd
00000010: 9635 d4be dafb d9be e800 c93e baa0 6d3e
00000020: 46de e3be 8fd7 e7be 8153 bd3e 8e51 58be
00000030: 3c2b df3e 4615 993e 55ad bc3e e985 ebbe

VAE_Encoder.layers.0.attention.W_q.bias f4 [4]
0.12425252 -0.10772967 0.06470898 -0.1323505
00000000: 1b78 fe3d 60a1 dcbd 2486 843d e486 07be

VAE_Encoder.layers.0.attention.W_k.weight f4 [4, 4]
-0.16867825 0.26870933 0.0013576455 -0.163902 0.2604133 -0.54555357 -0.27352604 0.24324577
-0.14300822 -0.45781547 0.16058601 -0.22787526 0.041290164 0.2929714 0.4655529 0.3336346
00000000: feb9 2cbe 4594 893e 06f3 b13a edd5 27be
00000010: e454 853e 66a9 0bbf 9b0b 8cbe 6b15 793e
00000020: bf70 12be ca66 eabe a970 243e 2258 69be
00000030: e01f 293d 5900 963e f35c ee3e 27d2 aa3e

VAE_Encoder.layers.0.attention.W_k.bias f4 [4]
-0.00031923054 -5.8235142e-05 -0.00022212556 -0.0010988149
00000000: 665e a7b9 8241 74b8 60ea 68b9 1c06 90ba

VAE_Encoder.layers.0.attention.W_v.weight f4 [4, 4]
0.35363498 0.38807997 -0.22590283 0.1682567 -0.028536804 0.040302854 0.1807644 0.05607973
-0.028079735 -0.111013085 0.31447163 0.032947984 0.2630814 -0.028331501 0.22858717 0.17033178
00000000: a50f b53e 6bb2 c63e 1253 67be 7c4b 2c3e
00000010: 04c6 e9bc 9b14 253d 4e1a 393e dcb3 653d
00000020: 7907 e6bc d45a e3bd 6d02 a13e 77f4 063d
00000030: 9bb2 863e 7717 e8bc c112 6a3e 746b 2e3e

VAE_Encoder.layers.0.attention.W_v.bias f4 [4]
0.15541433 0.0899642 -0.098791815 -0.064521894
00000000: ef24 1f3e 273f b83d 5d53 cabd 0e24 84bd

VAE_Encoder.layers.0.linear0.weight f4 [128, 4]
0.28568467 0.29350203 0.24454772 0.15571605 0.44803858 -0.03861799 0.15847991 -0.49361652
-0.4553494 0.027374288 -0.3766512 0.20074046 0.0064744498 -0.34441245 0.33630064 -0.2964242
0.51020133 -0.46763018 -0.5518658 0.40600732 -0.38918412 -0.47250316 -0.10551566 0.41194177
0.45568138 0.53688025 -0.2775614 0.09850789 0.04123741 -0.5124378 0.28778753 0.1049465
-0.09329128 -0.44723824 -0.3436023 0.16805997 0.4107408 0.27509093 -0.044203125 0.14691319
-0.42019323 0.045822665 0.422705 0.26991814 -0.47217867 0.31619298 -0.015249115 0.18368268
-0.10300077 -0.4227644 -0.36143205 0.022843616 0.5078717 0.23699896 0.24523391 0.16444176
-0.02421618 0.3768896 -0.036664978 0.30126116 0.061871044 0.3877094 -0.20423232 0.29161024
-0.40460443 -0.078547 0.41463652 0.24166708 0.30688438 0.36179915 -0.00771695 -0.2353965
-0.052584276 0.34636173 0.1907746 -0.4877915 0.47199243 -0.5305751 -0.15115292 -0.06755203
-0.33615407 0.31419852 -0.5580791 0.12340282 -0.52369404 0.09695317 -0.50492656 -0.24735877
0.07366496 -0.5606803 0.19555049 0.27612397 0.42041647 -0.036490258 0.37709332 -0.15032399
-0.27935717 -0.38235813 0.39515308 -0.055886373 -0.48955333 -0.10795742 0.048358597 -0.35489437
0.27033734 -0.3678918 -0.03411915 -0.115340866 -0.2232937 0.04581548 -0.3361083 0.4147518
-0.46450335 0.028363386 0.19123554 0.12921537 0.09464475 -0.12601992 0.53234094 -0.025698032
-0.027892647 0.16317749 0.26246095 0.11492168 0.1667259 -0.00878435 0.4824241 -0.2942159
0.036673095 0.41890344 0.485712 -0.19909614 0.3002055 0.24535964 -0.26846135 0.17845866
0.14153159 0.15285629 -0.25153893 -0.057152923 0.472468 -0.032657266 0.2155432 0.25457305
-0.24912234 -0.26901817 0.3820749 0.040475514 -0.40783665 -0.4348202 -0.5054245 -0.38537773
-0.14831905 0.08370042 -0.27121776 0.19194242 0.00816491 0.45006898 -0.44378868 -0.04712812
0.4183355 0.3231813 -0.19260392 -0.030376524 -0.014296317 0.2682577 0.5411758 0.10560283
-0.21113944 0.0029380787 -0.095040135 0.04436272 -0.25197536 -0.062450405 -0.020604314 0.2250232
-0.48503026 0.35420233 -0.106000446 -0.26527312 -0.33670837 -0.26333714 -0.23766273 -0.15866637
0.28548527 -0.12607414 0.4190768 0.4163808 -0.12131723 0.2919606 -0.2969449 0.36021128
-0.2719696 0.49475986 0.3459996 0.42653596 -0.37987894 -0.34155002 0.2755821 -0.022030758
0.26836967 -0.24381381 0.16685285 0.231578 -0.1876089 -0.26610252 -0.13831381 0.39883742
0.20964582 -0.34274387 -0.23272865 -0.24656443 -0.56181353 0.07118067 -0.16741437 -0.28474435
-0.6542356 -0.37661302 0.44429138 -0.20306875 0.5662947 -0.49793953 0.124421224 -0.03880056
0.32272726 0.3930765 -0.09944655 -0.3349363 0.072774194 0.49164692 -0.118881755 0.14031878
-0.43200043 -0.4268237 -0.017012112 -0.37654006 0.3099071 -0.1195601 -0.05217069 -0.269853
0.036269452 0.21388426 -0.43509984 0.3546516 0.14243543 0.21712764 -0.2430497 0.18212874
-0.068753764 0.4078701 -0.17293781 0.029401923 -0.27398124 0.46228155 -0.43735406 -0.3903339
00000000: 4345 923e e645 963e b86a 7a3e 0774 1f3e
00000010: 5065 e53e e62d 1ebd 8f48 223e 4ebb fcbe
00000020: 8e23 e9be 0b40 e03c 6dd8 c0be e88e 4d3e
00000030: 9f27 d43b d456 b0be 992f ac3e eac4 97be
00000040: 8e9c 023f 396d efbe 1447 0dbf 31e0 cf3e
00000050: 2443 c7be efeb f1be 9818 d8bd 08ea d23e
00000060: 124f e93e fc70 093f 871c 8ebe 81be c93d
00000070: 8fe8 283d 202f 03bf e358 933e 31ee d63d
00000080: 800f bfbd 69fc e4be a4ec afbe ea17 2c3e
00000090: 9e4c d23e b8d8 8c3e 560e 35bd 6970 163e
000000a0: 9123 d7be 8cb0 3b3d ca6c d83e b632 8a3e
000000b0: 67c1 f1be 0ce4 a13e 6dd7 79bc 5017 3c3e
000000c0: 11f2 d2bd 9374 d8be 9f0d b9be 8922 bb3c
000000d0: e103 023f dbaf 723e 991e 7b3e 6c63 283e
000000e0: 0361 c6bc acf7 c03e 042e 16bd e73e 9a3e
000000f0: 7e6c 7d3d d981 c63e 4722 51be f04d 953e
00000100: 5028 cfbe 40dd a0bd 3d4b d43e 9377 773e
00000110: f31f 9d3e bd3d b93e 78de fcbb c80b 71be
00000120: 9c62 57bd 5356 b13e 6b5a 433e cfbf f9be
00000130: fea8 f13e c5d3 07bf d5c7 1abe b858 8abd
00000140: 631c acbe a1de a03e 46de 0ebf 9eba fc3d
00000150: d010 06bf 628f c63d de42 01bf 9e4b 7dbe
00000160: a8dd 963d bf88 0fbf 633e 483e 1f60 8d3e
00000170: d440 d73e cf76 15bd 6012 c13e 88ee 19be
00000180: e707 8fbe 72c4 c3be 8151 ca3e 1ce9 64bd
00000190: bca6 fabe c818 ddbd aa13 463d b7b4 b5be
000001a0: a869 8a3e 505c bcbe 86c0 0bbd d537 ecbd
000001b0: 1ba7 64be 03a9 3b3d 6316 acbe 595a d43e
000001c0: 62d3 edbe 555a e83c 40d3 433e 0951 043e
000001d0: 1bd5 c13d 5e0b 01be 7f47 083f ae84 d2bc
000001e0: 1f7f e4bc 0018 273e 4861 863e 0f5c eb3d
000001f0: 32ba 2a3e 3cec 0fbc 4b00 f73e 77a3 96be
00000200: 8736 163d 837a d63e 3eaf f83e dcdf 4bbe
00000210: 89b4 993e 8f3f 7b3e c473 89be debd 363e
00000220: a8ed 103e 5c86 1c3e b6c9 80be 2f19 6abd
00000230: 53e7 f13e a0c3 05bd 5bb7 5c3e 6657 823e
00000240: ed19 7fbe c0bc 89be 529f c33e a7c9 253d
00000250: f7cf d0be c1a0 debe 8063 01bf 3b50 c5be
00000260: f3e0 17be 206b ab3d 0edd 8abe 8e8c 443e
00000270: 1dc6 053c 716f e63e 4538 e3be 6a09 41bd
00000280: 1230 d63e 0578 a53e f639 45be 30d8 f8bc
00000290: 193b 6abc 1359 893e 7f8a 0a3f 4c46 d83d
000002a0: f034 58be c88c 403b 67a4 c2bd afb5 353d
000002b0: ea02 81be ffcb 7fbd 61ca a8bc 7b6c 663e
000002c0: e355 f8be 025a b53e c316 d9bd e1d1 87be
000002d0: 0a65 acbe 20d4 86be dc5d 73be 7079 22be
000002e0: 202b 923e 9419 01be 3c91 d63e dd2f d53e
000002f0: 2b75 f8bd dc7b 953e 2909 98be 9d6d b83e
00000300: 993f 8bbe 2a51 fd3e dc26 b13e ec62 da3e
00000310: 7e7f c2be a5df aebe 1919 8d3e d979 b4bc
00000320: c067 893e 54aa 79be 79db 2a3e c922 6d3e
00000330: 8c1c 40be 973e 88be 23a2 0dbe 6b34 cc3e
00000340: 65ad 563e 207c afbe 6b50 6ebe 637b 7cbe
00000350: 03d3 0fbf 2cc7 913d ac6e 2bbe 03ca 91be
00000360: fc7b 27bf 6cd3 c0be 297a e33e 41f1 4fbe
00000370: b1f8 103f eef1 febe 8ed0 fe3d 56ed 1ebd
00000380: 823c a53e 5341 c93e a2aa cbbd c57c abbe
00000390: a30a 953d 25b9 fb3e 4778 f3bd baaf 0f3e
000003a0: 292f ddbe a388 dabe fc5c 8bbc dcc9 c0be
000003b0: 25ac 9e3e eddb f4bd efb0 55bd 2c2a 8abe
000003c0: 478f 143d 7a04 5b3e 68c5 debe e594 b53e
000003d0: 98da 113e b556 5e3e 05e2 78be f57f 3a3e
000003e0: c6ce 8cbd 5ad4 d03e 9c16 31be 4ddc f03c
000003f0: 4547 8cbe 2bb0 ec3e dfec dfbe d8d9 c7be

VAE_Encoder.layers.0.linear0.bias f4 [128]
-0.30499515 -0.30249715 0.0015379827 -0.15072314 -0.19634815 0.4089172 -0.40901154 0.14690419
-0.20352724 0.3896748 -0.25586516 -0.025965188 -0.39114422 0.40772367 -0.13049574 0.3406859
-0.1252906 -0.289547 0.26252097 -0.22068083 -0.1498848 -0.24146451 -0.22728127 0.18369691
-0.5208748 0.2866163 0.2603321 -0.4373736 -0.22923632 0.40704924 -0.35712907 -0.19572052
0.31535128 -0.4765004 -0.29910225 0.07038663 -0.36502638 0.5095276 0.07020431 0.13881882
0.31113115 0.2635422 0.40521073 0.54013944 -0.006630789 -0.30826068 0.2775268 -0.105808206
-0.4142415 -0.2817911 -0.26940042 -0.41017136 0.550486 0.0966429 0.31368563 -0.088756554
-0.40193263 -0.24122824 0.26464817 0.4618671 -0.4080098 0.24823746 0.04771748 0.315923
0.13035578 0.27529934 -0.047274783 0.10192197 -0.40106252 0.23927744 0.15454404 -0.4699742
-0.0044084336 -0.23744433 -0.10407612 -0.32980254 -0.2934172 0.18102625 -0.24101728 0.38889733
0.4038863 0.09596793 0.09395757 -0.2608004 -0.42842206 -0.15628715 -0.4585362 0.35994723
0.27384725 -0.080859974 0.24668904 0.020271374 0.39756802 -0.18117946 -0.2267738 -0.024283433
-0.40059656 -0.23989457 -0.116858415 -0.11601149 0.17297189 0.16772091 -0.18386434 0.22644727
0.17651574 -0.4351792 -0.2379886 0.005997621 -0.27900416 0.41036886 -0.059179477 -0.15208836
-0.25699028 0.20885094 0.083197206 0.29865494 0.038356427 0.45153877 -0.015516314 -0.0025938759
-0.07545434 0.3317434 0.11023912 0.37109986 0.22602536 0.2952682 -0.3764799 -0.23982032
00000000: 5328 9cbe e8e0 9abe 2396 c93a 2b57 1abe
00000010: 7d0f 49be 985d d13e f669 d1be 0d6e 163e
00000020: 7269 50be 7583 c73e c200 83be f2b4 d4bc
00000030: 0e44 c8be 28c1 d03e ada0 05be 626e ae3e
00000040: 2e4c 00be 813f 94be 2669 863e 28fa 61be
00000050: 677b 19be 7942 77be 6cbc 68be 0b1b 3c3e
00000060: 0d58 05bf 5fbf 923e 404a 853e 6fef dfbe
00000070: edbc 6abe c268 d03e 9fd9 b6be f66a 48be
00000080: b975 a13e dcf7 f3be ee23 99be de26 903d
00000090: bde4 babe 6770 023f 47c7 8f3d 8526 0e3e
000000a0: 954c 9f3e 01ef 863e c877 cf3e 9446 0a3f
000000b0: 1747 d9bb 58d4 9dbe fe17 8e3e f9b1 d8bd
000000c0: 7617 d4be ec46 90be daee 89be fb01 d2be
000000d0: a7ec 0c3f b6ec c53d 679b a03e ffc5 b5bd
000000e0: 1dca cdbe 8904 77be f77f 873e d879 ec3e
000000f0: a9e6 d0be f631 7e3e 6873 433d a9c0 a13e
00000100: fc7b 053e 09f4 8c3e 34a3 41bd 77bc d03d
00000110: 1158 cdbe 2505 753e cb40 1e3e 75a0 f0be
00000120: 9f74 90bb 9b24 73be dc25 d5bd e1db a8be
00000130: c73a 96be f25e 393e 3ccd 76be 8d1d c73e
00000140: 2fca ce3e d68a c43d d46c c03d a187 85be
00000150: 235a dbbe bd09 20be 42c5 eabe 014b b83e
00000160: b535 8c3e ea99 a5bd 0d9c 7c3e 2710 a63c
00000170: 098e cb3e 1c87 39be 6437 68be 0dee c6bc
00000180: fe1a cdbe eca6 75be 7753 efbd 6f97 edbd
00000190: 8b1f 313e 08bf 2b3e ef46 3cbe cbe1 673e
000001a0: 8bc0 343e cfcf debe 49b3 73be b187 c43b
000001b0: a2d9 8ebe de1b d23e 2e66 72bd 0dbd 1bbe
000001c0: 3b94 83be 05dd 553e 4c63 aa3d 4de9 983e
000001d0: a11b 1d3d 1730 e73e 2338 7ebc 04fe 29bb
000001e0: ce87 9abd 45da a93e 0cc5 e13d cd00 be3e
000001f0: 3173 673e 652d 973e f9c1 c0be 7593 75be

VAE_Encoder.layers.0.linear1.weight f4 [4, 128]
0.06727593 0.020002345 0.0759908 0.0014346131 -0.12439001 0.05403613 -0.099088766 -0.16787633
-0.042480744 0.03839577 0.035273794 -0.036203366 -0.1139623 -0.06286168 0.026108447 0.062219985
-0.037361402 -0.037512306 -0.053846948 -0.10670802 0.025875416 0.036516715 -0.10857115 -0.06502559
0.010987108 -0.10198264 0.020796722 0.13595828 -0.060527537 -0.05708666 -0.06981796 -0.09638352
-0.06016883 -0.11525348 0.049919702 -0.08866897 0.22406985 -0.10570724 0.08728153 -0.043540966
-0.10352191 -0.10986768 -0.042380307 0.07509047 0.017268607 -0.063613996 -0.09892196 0.1041614
-0.19502962 0.2007157 -0.051372524 0.05889771 0.019622741 -0.034796122 -0.047502406 -0.0811986
-0.055105686 0.009168976 -0.011522175 -0.1422101 0.14334379 -0.02347063 -0.044999603 -0.078388356
0.08249864 -0.12247265 0.027923461 0.11915563 -0.12911513 -0.14491287 -0.081665464 0.027777165
-0.01917284 0.061314683 -0.08272792 -0.04406236 -0.13611943 0.038194302 0.05608276 -0.030748066
-0.14361945 0.023834994 0.01552778 0.062050346 0.013522891 0.044005513 -0.0854322 -0.013869352
-0.11602384 -0.112999015 0.06942165 0.021162672 -0.024824718 -0.12504105 0.0038421482 -0.07141505
-0.08943334 -0.120807536 -0.08883567 -0.02600952 -0.069350295 -0.06564714 -0.09977719 -0.13344139
-0.09690164 0.08949099 -0.16133185 0.0014198184 0.056791015 -0.03146134 -0.20396288 0.03832718
0.15024716 -0.10439356 0.017243095 -0.060216624 -0.17064875 -0.09933031 0.0968589 0.022286195
-0.025100857 -0.022473877 -0.059292722 -0.10494704 0.040305253 -0.0026153862 0.03105495 -0.15750752
-0.07272862 -0.0026254682 0.0916698 -0.00374586 0.08205151 0.07585132 0.052083448 -0.072539076
-0.029170267 0.07682211 -0.14303079 0.0019988297 -0.01917619 0.0770502 0.12212843 0.06971825
-0.019281266 -0.012999954 -0.030973025 0.017973341 0.12797506 0.32387882 0.021066125 -0.019991444
-0.15007018 -0.09036949 0.10796471 0.06148162 -0.1078311 -0.010454435 0.030957839 -0.15141387
-0.07781131 -0.15327732 -0.01174718 0.01083499 -0.12429274 0.12362563 0.04628538 0.055622857
0.073326744 -0.12771493 0.11368811 0.08078729 -0.093997285 0.023211028 0.12878758 0.07022893
-0.058402885 -0.136899 -0.08355064 0.033618636 0.15841725 -0.08339959 -0.017033378 0.10043293
0.094183065 0.003907855 -0.117681995 -0.004721548 0.0577523 0.13558197 0.111361824 0.051552095
0.022411495 -0.021389294 -0.050599746 0.085846566 0.03828535 -0.065203615 -0.03277384 -0.03482771
-0.06936497 -0.16259073 0.047562048 -0.08012082 -0.046965223 -0.041936867 0.0745411 -0.026386362
-0.07565059 -0.09493171 0.03251093 0.053960964 0.12353438 -0.08309156 0.10161003 -0.085114695
-0.004549656 -0.054313704 0.11904688 0.04734838 0.05680529 0.10524811 0.1118678 -0.039779443
-0.016530713 0.029071206 -0.08118378 0.1596769 -0.14593276 -0.056720123 0.047943562 -0.15362312
-0.09308695 0.009827699 -0.09038939 0.0038973347 -0.109429374 -0.07038631 0.066791534 0.13994893
0.00026561538 0.026760355 -0.0762084 -0.031520594 0.027510645 -0.0773445 0.01218224 0.07287225
0.008527429 0.015769951 0.052670907 0.011043555 0.10022391 0.021889677 -0.11631744 -0.10170089
00000000: f6c7 893d f5db a33c 11a1 9b3d a109 bc3a
00000010: 31c0 febd fd54 5d3d 0def cabd c6e7 2bbe
00000020: 4a00 2ebd e244 1d3d 417b 103d fb49 14bd
00000030: 1165 e9bd a0bd 80bd 62e1 d53c 62da 7e3d
00000040: 4508 19bd 81a6 19bd 9e8e 5cbd bc89 dabd
00000050: aef8 d33c 8d92 153d 8d5a debd 232c 85bd
00000060: 4503 343c 46dc d0bd e35d aa3c a638 0b3e
00000070: b9eb 77bd b4d3 69bd b8fc 8ebd b964 c5bd
00000080: 9773 76bd 040a ecbd 9a78 4c3d 1498 b5bd
00000090: 9172 653e 0a7d d8bd a9c0 b23d 0358 32bd
000000a0: 4c03 d4bd 4e02 e1bd f996 2dbd 08c9 993d
000000b0: e576 8d3c 0e48 82bd 9997 cabd 9252 d53d
000000c0: d8b5 47be 6b88 4d3e ff6b 52bd ba3e 713d
000000d0: dfbf a03c 6186 0ebd e291 42bd 744b a6bd
000000e0: 80b6 61bd 7939 163c 81c7 3cbc 869f 11be
000000f0: b7c8 123e 7b45 c0bc 8151 38bd 138a a0bd
00000100: 0cf5 a83d f1d2 fabd bebf e43c de07 f43d
00000110: c236 04be 0a64 14be 3940 a7bd f08c e33c
00000120: 5c10 9dbc 1b25 7b3d 416d a9bd bc7a 34bd
00000130: e462 0bbe a171 1c3d 09b7 653d 5ee3 fbbc
00000140: fa10 13be 9b41 c33c 3b68 7e3c 8128 7e3d
00000150: 1e8f 5d3c 203f 343d 14f7 aebd 473c 63bc
00000160: e89d edbd 076c e7bd f02c 8e3d 575d ad3c
00000170: 355d cbbc c30a 00be 8dcc 7b3b 0e42 92bd
00000180: d428 b7bd f169 f7bd 7aef b5bd eb11 d5bc
00000190: 8707 8ebd 0272 86bd fc57 ccbd dca4 08be
000001a0: 5e74 c6bd 0d47 b73d 2d34 25be 3319 ba3a
000001b0: b29d 683d 9bdd 00bd a5db 50be f6fc 1c3d
000001c0: 64da 193e 4acc d5bd 6441 8d3c b5a5 76bd
000001d0: 8cbe 2ebe b16d cbbd f55d c63d 8a91 b63c
000001e0: 50a0 cdbc 231b b8bc eddc 72bd 79ee d6bd
000001f0: 1f17 253d e666 2bbb f366 fe3c a749 21be
00000200: bef2 94bd 0c10 2cbb 60bd bb3d 1a7d 75bb
00000210: 9f0a a83d f057 9b3d 7455 553d 5e8f 94bd
00000220: 7cf6 eebc e954 9d3d aa76 12be ccfe 023b
00000230: 6317 9dbc 7fcc 9d3d 781e fa3d 71c8 8e3d
00000240: bff3 9dbc c2fd 54bc 24bb fdbc d43c 933c
00000250: e50b 033e 72d3 a53e de92 ac3c 19c5 a3bc
00000260: ffab 19be a413 b9bd 9a1c dd3d 27d4 7b3d
00000270: 8dd6 dcbd 1449 2bbc 4b9b fd3c 3d0c 1bbe
00000280: 895b 9fbd bbf4 1cbe 3e77 40bc 3e85 313c
00000290: 318d febd 6f2f fd3d bd95 3d3d cbd4 633d
000002a0: 552c 963d b4c7 02be 50d5 e83d cf73 a53d
000002b0: a681 c0bd 0e25 be3c e4e0 033e 2fd4 8f3d
000002c0: dd37 6fbd 402f 0cbe 991c abbd b2b3 093d
000002d0: 2238 223e 67cd aabd 9589 8bbc c8af cd3d
000002e0: 0de3 c03d 770d 803b 4203 f1bd 37b7 9abb
000002f0: ad8d 6c3d 00d6 0a3e ab11 e43d 4a28 533d
00000300: 5098 b73c 9a38 afbc ae41 4fbd 53d0 af3d
00000310: 19d1 1c3d 7989 85bd dd3d 06bd 80a7 0ebd
00000320: 390f 8ebd 2f7e 26be 6cd0 423d 6216 a4bd
00000330: 9b5e 40bd fec5 2bbd 01a9 983d 3628 d8bc
00000340: b2ee 9abd 8e6b c2bd 2e2a 053d 2c06 5d3d
00000350: 98ff fc3d e82b aabd eb18 d03d 9d50 aebd
00000360: 4815 95bb 0c78 5ebd dace f33d 60f0 413d
00000370: aaac 683d 528c d73d f21a e53d c5ef 22bd
00000380: 6b6b 87bc bd26 ee3c af43 a6bd 5782 233e
00000390: 666f 15be 5c53 68bd 7860 443d 614f 1dbe
000003a0: 5fa4 bebd 5b04 213c 131e b9bd 6d6a 7f3b
000003b0: 821c e0bd b326 90bd 00ca 883d c64e 0f3e
000003c0: 4b42 8b39 8838 db3c 2613 9cbd bd1b 01bd
000003d0: 015e e13c cb66 9ebd 0598 473c 0c3e 953d
000003e0: a1b6 0b3c fc2f 813c 73bd 573d 07f0 343c
000003f0: 3142 cd3d fb51 b33c d737 eebd 8e48 d0bd

VAE_Encoder.layers.0.linear1.bias f4 [4]
-0.11596358 0.050674383 -0.0111688245 0.045915566
00000000: 507e edbd f18f 4f3d 72fd 36bc f611 3c3d

VAE_Encoder.layers.0.norm1.weight f4 [4]
1.1241202 1.1094295 1.0995951 1.0319833
00000000: 2ce3 8f3f c901 8e3f 88bf 8c3f 0718 843f

VAE_Encoder.layers.0.norm1.bias f4 [4]
-0.03694304 -0.017100003 -0.0031083955 0.031632233
00000000: 9651 17bd 4e15 8cbc 39b6 4bbb cd90 013d

VAE_Encoder.layers.1.attention.W_q.weight f4 [4, 4]
0.4216605 -0.16668028 0.5014975 -0.15816249 -0.27961394 -0.18925399 -0.2412997 0.2258787
0.22228791 0.23269181 -0.1435084 0.44707882 0.33231458 -0.40519673 0.32323918 0.07422378
00000000: e3e3 d73e 3cae 2abe 2462 003f 59f5 21be
00000010: 8f29 8fbe cccb 41be 4517 77be bf4c 673e
00000020: 719f 633e c346 6e3e def3 12be 84e7 e43e
00000030: 2325 aa3e f275 cfbe 9b7f a53e a302 983d

VAE_Encoder.layers.1.attention.W_q.bias f4 [4]
-0.014863966 0.082035616 0.055006187 -0.101112224
00000000: fe87 73bc 4a02 a83d 2b4e 613d ed13 cfbd

VAE_Encoder.layers.1.attention.W_k.weight f4 [4, 4]
-0.38188678 0.24552527 0.25741744 0.51326466 -0.11008301 0.22344987 -0.39757934 -0.0023077454
0.30742404 0.2459147 0.35697204 -0.108051226 0.40795022 -0.24375613 -0.08102482 0.061232675
00000000: aa86 c3be fa6a 7b3e 38cc 833e 5065 033f
00000010: 3373 e1bd 0bd0 643e 858f cbbe 8b3d 17bb
00000020: af66 9d3e 10d1 7b3e 0ac5 b63e f649 ddbd
00000030: dade d03e 359b 79be 57f0 a5bd 1dcf 7a3d

VAE_Encoder.layers.1.attention.W_k.bias f4 [4]
-0.0007657188 -0.00040833128 9.8346034e-05 -0.0003231382
00000000: 85ba 48ba 4c15 d6b9 203f ce38 e06a a9b9

VAE_Encoder.layers.1.attention.W_v.weight f4 [4, 4]
-0.15502417 0.06851397 -0.38460612 -0.49751312 -0.39253357 -0.31405535 -0.017783714 -0.41652358
-0.33377877 0.36320817 0.29810163 0.16748653 -0.34409687 -0.08713988 0.16577557 -0.31988922
00000000: a8be 1ebe 0d51 8c3d 18eb c4be 0aba febe
00000010: 29fa c8be ddcb a0be 27af 91bc 9442 d5be
00000020: 0de5 aabe 6cf6 b93e c7a0 983e 9781 2b3e
00000030: 772d b0be 6576 b2bd 12c1 293e 85c8 a3be

VAE_Encoder.layers.1.attention.W_v.bias f4 [4]
-0.013371041 0.022989655 0.02955818 -0.033350646
00000000: 3612 5bbc cd54 bc3c ff23 f23c b09a 08bd

VAE_Encoder.layers.1.linear0.weight f4 [128, 4]
0.10299495 0.29448766 -0.53841084 -0.42968753 -0.3263693 0.45209187 -0.3078708 -0.4177
-0.2952978 -0.46201983 0.24092229 -0.1459658 0.13622455 0.2880745 -0.20278576 -0.3513365
0.31041065 0.111768134 0.25740764 -0.45672768 0.005323063 -0.56209713 0.1943882 0.067725286
-0.11983419 0.21681732 0.09571121 -0.03739302 -0.28428975 0.1024449 -0.0012309757 -0.28930628
-0.46299866 -0.46754974 -0.19076262 0.24211758 -0.0032579761 -0.017725758 0.32464525 -0.3792027
-0.23307289 0.36794388 -0.4122105 -0.36121053 -0.19201523 0.39918056 -0.3973643 -0.040971495
0.30593687 0.23235607 -0.20731412 -0.45373172 0.09304412 0.23390344 -0.43264517 0.038020607
0.45627838 0.25502688 -0.2233072 0.21476027 0.27978447 0.20716743 -0.3077032 0.15947959
-0.25508085 -0.30997276 0.22939 -0.51736736 -0.23415427 0.49525255 0.15931822 -0.19091378
-0.46762604 -0.027702078 0.57370687 -0.46921754 0.08188672 0.213585 0.21189845 -0.12205446
-0.11734151 0.044666577 -0.55173415 -0.0716544 -0.33009177 -0.055220485 0.033672366 -0.256924
0.3853716 0.27667716 0.44168454 0.010044336 -0.08557557 0.1403494 0.5516837 0.10188028
-0.13655174 0.054012477 -0.11928558 -0.09550494 0.19881411 0.15127839 -0.12185892 -0.26232287
0.20444624 0.18171425 0.16087349 0.3346733 -0.16138175 0.15992774 -0.21565668 0.13212126
-0.32536998 0.10396576 -0.17478858 -0.25414932 -0.21796288 -0.13848084 0.35422522 -0.40765417
-0.02093875 -0.43649572 -0.18778524 -0.5959981 0.008666057 0.44053662 -0.28922635 -0.3695965
-0.5047283 -0.29090613 0.03229571 0.29580978 0.04912736 -0.31619978 0.44655123 -0.39204895
0.17156191 -0.4790085 0.34110346 -0.6388313 -0.27351883 -0.5918262 0.42204025 0.55536693
-0.10023653 -0.12116914 -0.21507683 0.48031265 -0.036880534 -0.033286195 -0.5339747 0.28583816
0.5143704 -0.04976211 -0.09124527 0.40614137 -0.43571678 0.29903278 0.22017318 -0.46062335
0.1547636 0.09722578 -0.27970284 -0.19549972 -0.24747604 0.3545013 0.53462857 0.45218992
-0.314787 0.29439053 0.050911296 -0.39540678 -0.3971011 0.13345079 -0.2833068 0.062956385
0.048897713 0.08297873 0.13655902 0.22006285 0.08670058 0.37906066 0.35292512 -0.26157036
0.2858946 0.4490024 0.15622653 -0.16198008 0.17741638 0.13985455 -0.39414883 0.5130705
-0.09235434 -0.13315324 0.18462645 0.3724164 0.20044747 -0.23206814 -0.123861864 0.21234505
-0.48928556 0.31518498 -0.25578746 -0.22198814 -0.48720747 -0.11417198 -0.0022115014 0.2743636
-0.08616899 -0.09285762 -0.38230896 -0.16193296 0.20393549 0.38552797 -0.20748742 0.14171927
0.35855392 -0.16209741 0.3942078 -0.45097998 -0.34952623 0.5086299 0.21137439 -0.04856804
-0.43734604 -0.4611147 -0.16035701 0.08409509 0.15480612 -0.40531403 0.56975615 -0.042562034
-0.5303248 -0.23568384 -0.019727938 -0.40954888 -0.2692711 0.47784197 -0.45672563 -0.14401463
-0.10787745 0.36156034 -0.042258397 -0.29606384 0.34120953 -0.3323546 -0.113395855 0.41352698
-0.5269386 0.10563448 0.4188632 -0.4629337 0.28278303 0.14135912 0.05353542 -0.0034054122
00000000: 04ef d23d 16c7 963e 4bd5 09bf 0100 dcbe
00000010: e019 a7be 9678 e73e 3ea1 9dbe c6dc d5be
00000020: 4631 97be dd8d ecbe 55b4 763e 0f78 15be
00000030: 737e 0b3e 807e 933e 12a7 4fbe 61e2 b3be
00000040: 25ee 9e3e b1e6 e43d efca 833e 36d8 e9be
00000050: 176d ae3b 99e5 0fbf b30d 473e 8eb3 8a3d
00000060: a16b f5bd 5c05 5e3e 3d04 c43d 6c29 19bd
00000070: 6d8e 91be a2ce d13d b158 a1ba f41f 94be
00000080: 290e edbe ae62 efbe 4757 43be aced 773e
00000090: c583 55bb 9c35 91bc e737 a63e db26 c2be
000000a0: a9aa 6ebe 2463 bc3e 410d d3be 96f0 b8be
000000b0: a49f 44be 6561 cc3e 5573 cbbe bad1 27bd
000000c0: c2a3 9c3e c0ee 6d3e 274a 54be 864f e8be
000000d0: ea8d be3d 6284 6f3e ab83 ddbe 7fbb 1b3d
000000e0: 529d e93e e292 823e a5aa 64be 1eea 5b3e
000000f0: e93f 8f3e b323 543e 468b 9dbe 9e4e 233e
00000100: f599 82be c0b4 9ebe 36e5 6a3e 3072 04bf
00000110: 23c6 6fbe be91 fd3e 5124 233e e77e 43be
00000120: ae6c efbe 78ef e2bc 74de 123f 483d f0be
00000130: 3ab4 a73d 07b6 5a3e e8fb 583e b0f7 f9bd
00000140: bf50 f0bd 4df4 363d 733e 0dbf 8bbf 92bd
00000150: ca01 a9be e02e 62bd 09ec 093d 8b8b 83be
00000160: 6d4f c53e a1a8 8d3e 7a24 e23e 0091 243c
00000170: 3f42 afbd c1b7 0f3e 253b 0d3f 9ca6 d03d
00000180: 38d4 0bbe 303c 5d3d 004c f4bd 1898 c3bd
00000190: ed95 4b3e b9e8 1a3e 2b91 f9bd 2f4f 86be
000001a0: 5b5a 513e 4d13 3a3e 05bc 243e 4c5a ab3e
000001b0: 4241 25be 19c4 233e 1bd5 5cbe cc4a 073e
000001c0: e596 a6be 00ec d43d c7fb 32be dc1f 82be
000001d0: a931 5fbe eccd 0dbe 025d b53e 0cb8 d0be
000001e0: be87 abbc 5e7c dfbe c64a 40be 5593 18bf
000001f0: 14fc 0d3c 048e e13e 7a15 94be c13b bdbe
00000200: e035 01bf a6f1 94be 8248 043d 6174 973e
00000210: c539 493d f0e4 a1be 5da2 e43e a4ba c8be
00000220: edad 2f3e 9a40 f5be 1da5 ae3e 738a 23bf
00000230: a90a 8cbe ec81 17bf a915 d83e 872c 0e3f
00000240: cf48 cdbd 8727 f8bd 1a3d 5cbe 8aeb f53e
00000250: 0b10 17bd 1b57 08bd 91b2 08bf 6159 923e
00000260: c7ad 033f 5bd3 4bbd cdde babd c3f1 cf3e
00000270: 4516 dfbe d31a 993e 1475 613e d3d6 ebbe
00000280: 597a 1e3e 4f1e c73d 3635 8fbe 1431 48be
00000290: 5c6a 7dbe 3281 b53e 6bdd 083f 7085 e73e
000002a0: c32b a1be 5bba 963e 5d88 503d c272 cabe
000002b0: d650 cbbe 53a7 083e 970d 91be 47ef 803d
000002c0: f848 483d c1f0 a93d 21d6 0b3e 2858 613e
000002d0: 1390 b13d 3d14 c23e 9ab2 b43e 8dec 85be
000002e0: c760 923e a4e3 e53e d9f9 1f3e 1bde 25be
000002f0: a4ac 353e 0836 0f3e e0cd c9be 9758 033f
00000300: 4624 bdbd 5359 08be b70e 3d3e 5dad be3e
00000310: 1a42 4d3e 45a3 6dbe 4aab fdbd fb70 593e
00000320: a383 fabe ed5f a13e 93f6 82be dc50 63be
00000330: 4273 f9be 00d3 e9bd d6ee 10bb 6379 8c3e
00000340: 5e79 b0bd 232c bebd 00be c3be c1d1 25be
00000350: 77d4 503e ec63 c53e 9577 54be db1e 113e
00000360: 6194 b73e ddfc 25be 9bd5 c93e d9e6 e6be
00000370: 1af5 b2be 9235 023f 8772 583e 48ef 46bd
00000380: d2eb dfbe 3a17 ecbe a134 24be 0c3a ac3d
00000390: 7f85 1e3e 5285 cfbe 8adb 113f 8755 2ebd
000003a0: 5ec3 07bf 1b57 71be 7c9c a1bc 64b0 d1be
000003b0: e7dd 89be b4a7 f43e f1d7 e9be 9278 13be
000003c0: daee dcbd 701e b93e 2417 2dbd ae95 97be
000003d0: 04b3 ae3e 622a aabe 163c e8bd cfb9 d33e
000003e0: 73e5 06bf e456 d83d 3d75 d63e a505 edbe
000003f0: f0c8 903e 72c0 103e f547 5b3d 562d 5fbb

VAE_Encoder.layers.1.linear0.bias f4 [128]
0.42328814 -0.39879397 0.038681276 -0.35924858 0.15829988 0.15677938 0.24386854 -0.24338639
0.0051675215 0.3898717 0.28587618 -0.30630732 0.17783566 0.15635042 0.45549595 0.48734468
-0.29691562 -0.13984385 0.11692145 0.33134547 -0.0081102755 -0.18426368 0.17069292 0.30014613
-0.35290146 -0.037999075 -0.14026184 0.17380355 0.3406865 -0.034264024 0.051618736 0.3050088
-0.19364466 -0.3603273 0.12570526 0.0949854 0.018007053 0.0043118875 -0.34057695 -0.16654629
0.34990078 -0.319008 0.11562671 0.16175319 0.024137825 0.32436985 -0.08217873 -0.30202278
-0.15980259 -0.083407864 0.41321704 0.38926166 0.06531113 0.24421412 0.37992617 -0.39194062
0.19014126 0.28373116 0.45500657 0.46144354 -0.3534453 0.25090045 0.28935084 0.33390817
-0.040615425 -0.29817477 -0.20152655 -0.26839408 0.054321386 -0.37771812 0.24975619 0.43607992
-0.42991745 -0.4282685 0.09053746 -0.19434679 -0.5158692 -0.3720948 0.14799201 -0.41986096
-0.45054626 -0.55388606 0.2782819 -0.29371658 -0.39043474 0.22973001 -0.3181011 0.15119202
0.47070363 -0.5265743 0.41688246 0.24697323 -0.08641462 0.34229952 -0.0063543185 0.4247078
0.15390112 -0.1665911 0.35495886 0.4389252 0.25819615 -0.46564662 -0.028398179 0.046942312
0.09844445 0.13712052 0.31301585 -0.07921959 -0.2548409 0.33582872 0.4473702 0.15676889
0.21012676 0.04780495 -0.37085345 0.31033453 0.101659454 -0.3264332 0.43478444 0.23771375
0.3657346 0.216213 -0.23037507 0.21502338 0.51583374 0.023852222 0.2994249 0.28228953
00000000: 39b9 d83e b92e ccbe 4270 1e3d 6eef b7be
00000010: 5d19 223e c68a 203e adb8 793e 483a 79be
00000020: 5054 a93b 439d c73e 5d5e 923e 50d4 9cbe
00000030: 8d1a 363e 531a 203e c436 e93e 3e85 f93e
00000040: 5305 98be 3a33 0fbe 8374 ef3d 1da6 a93e
00000050: f6e0 04bc 9eaf 3cbe 20ca 2e3e c1ac 993e
00000060: 80af b4be eba4 1bbd cda0 0fbe 8ff9 313e
00000070: 766e ae3e 6f58 0cbd 2b6e 533d 1d2a 9c3e
00000080: c94a 46be d27c b8be e1b8 003e b587 c23d
00000090: 8783 933c bc4a 8d3b 1a60 aebe 1c8b 2abe
000000a0: 3226 b33e 0455 a3be b2cd ec3d a1a2 253e
000000b0: b0bc c53c ce13 a63e 524d a8bd bba2 9abe
000000c0: 4aa3 23be bed1 aabd 2f91 d33e 4e4d c73e
000000d0: d7c1 853d 4413 7a3e af85 c23e 71ac c8be
000000e0: 64b4 423e 3645 913e 9ff6 e83e 5442 ec3e
000000f0: c8f6 b4be 0676 803e cb25 943e 03f6 aa3e
00000100: 5c5c 26bd 5daa 98be fa5c 4ebe f36a 89be
00000110: 1a80 5e3d 4564 c1be 16c0 7f3e de45 df3e
00000120: 241e dcbe 0246 dbbe b46b b93d d802 47be
00000130: 0110 04bf 3683 bebe 388b 173e 04f8 d6be
00000140: 00ae e6be 7acb 0dbf f77a 8e3e 0562 96be
00000150: 10e7 c7be 583e 6b3e 26de a2be 15d2 1a3e
00000160: 1100 f13e 93cd 06bf 9e71 d53e 8de6 7c3e
00000170: 26fa b0bd e241 af3e e337 d0bb 4d73 d93e
00000180: 4198 1d3e db96 2abe 2bbd b53e ceba e03e
00000190: 4932 843e 3c69 eebe 4ca3 e8bc 9546 403d
000001a0: 3e9d c93d 5269 0c3e 9d43 a03e e13d a2bd
000001b0: 827a 82be bef1 ab3e b50d e53e 0688 203e
000001c0: 782b 573e 20cf 433d 81e0 bdbe 2be4 9e3e
000001d0: d532 d03d 4122 a7be 119c de3e 3c6b 733e
000001e0: 9141 bb3e f166 5d3e 71e7 6bbe 172f 5c3e
000001f0: ae0d 043f bc65 c33c 384e 993e 4188 903e

VAE_Encoder.layers.1.linear1.weight f4 [4, 128]
0.0036720738 0.0564405 0.10055607 -0.2834315 0.050009925 -0.11202374 0.14726609 0.13076663
-0.07226875 0.09540068 -0.02558962 -0.020133564 -0.04486806 0.076590225 -0.078739576 -0.05554422
0.13113675 -0.029074378 0.08084131 -0.013195727 -0.05368003 0.0864117 0.06910882 0.1342666
-0.066479705 -0.037063815 -0.020818574 0.10143838 0.006806164 0.076007076 -0.079907835 0.021768538
0.030691944 0.02608085 0.060928375 -0.15753476 -0.06937833 0.048355166 -0.050454453 0.11274285
-0.12299645 -0.020537173 0.015854377 0.011249496 -0.044059224 0.05600948 -0.0018395192 -0.060981825
-0.010239957 -0.14389089 0.047009945 0.0031293589 -0.038855996 0.08229346 0.038605046 0.090812996
-0.048369896 0.003686606 0.1369868 0.049096603 -0.1219365 -0.14194332 0.003598839 -0.10371383
-0.043232806 -0.018158354 -0.0017549234 -0.16335118 -0.010299704 -0.012450744 0.008545778 0.027191477
-0.090768546 0.039786745 0.04632082 0.089735374 -0.0018251713 -0.020621767 -0.14328475 -0.1444621
-0.03281053 -0.03087094 -0.051972467 0.16406676 -0.06458926 0.1026474 -0.08358423 -0.036250193
-0.055519454 -0.04906099 0.05850109 0.077144 -0.12934479 0.10096748 -0.17436174 0.088040635
0.011158628 -0.007779108 0.00029090655 0.06900301 0.004195522 0.025739394 -0.09008764 0.05276007
-0.040941745 -0.040365655 0.07143011 -0.069098584 -0.079095475 -0.06270148 0.06099732 0.06312659
0.087175414 0.027240545 0.19842917 -0.02458727 0.14098734 0.08773236 -0.07908655 0.025679309
0.083456 -0.050677855 0.04036975 0.14153136 -0.14695562 0.016885953 -0.0037469864 -0.007821524
0.11904911 -0.02396403 -0.04419438 0.011294963 0.024219355 -0.11060062 0.009880996 -0.05721668
-0.0006083669 -0.049095605 0.13166656 -0.032565072 0.1324565 0.10874447 0.12844513 0.122714765
-0.029771391 0.048059665 -0.10235272 -0.07425554 0.10940988 0.0016411925 -0.034793552 -0.13994114
0.08545254 -0.0019088297 -0.041405305 0.13281152 0.07233918 -0.13171992 -0.064894825 0.10337643
-0.10241365 -0.039079893 -0.071734674 -0.05032163 0.02026832 0.07760602 0.02276875 -0.11834381
0.13356784 -0.051066946 -0.051947303 -0.0030235683 0.023026869 -0.09060847 -0.028961807 0.120043196
0.008825756 -0.0125731435 0.026510132 -0.054330423 0.047037404 -0.024525989 -0.111034326 0.045430485
-0.052047 -0.08120357 -0.109768525 -0.0013419455 0.016483996 0.09680475 -0.105201334 0.032918688
0.0029570004 0.07390408 0.0025146885 -0.017482083 0.05505526 -0.13391984 -0.051110517 -0.002230695
0.07016022 -0.11094931 -0.16937412 -0.057470355 -0.00520136 -0.08940194 0.016341362 0.10178028
0.002887411 -0.09233476 -0.09888358 -0.050796583 0.09944611 -0.110251874 0.04592754 -0.071268454
0.08897609 0.05495531 -0.12551711 -0.06356051 -0.039316084 -0.033334047 -0.007498296 -0.13180336
-0.019180775 -0.053027842 0.121278025 0.069503784 -0.037679214 -0.032828096 0.06626482 -0.04023254
-0.16662426 -0.05883472 0.017401136 0.04304187 0.07084318 0.07654421 -0.10554539 0.04233968
-0.077586584 -0.08976896 -0.005607766 0.0078587 -0.15999238 -0.021423027 0.048459753 -0.094660506
0.10246948 -0.039444916 -0.022591354 -0.054707494 0.051118307 -0.1339907 0.092123926 -0.043432236
00000000: 2da7 703b 272e 673d 57f0 cd3d ef1d 91be
00000010: 35d7 4c3d b46c e5bd eccc 163e b0e7 053e
00000020: a301 94bd 6f61 c33d 53a1 d1bc 25ef a4bc
00000030: 92c7 37bd 56db 9c3d 3742 a1bd 5682 63bd
00000040: b648 063e 642d eebc 2190 a53d e432 58bc
00000050: 97df 5bbd 9ef8 b03d ed88 8d3d 2f7d 093e
00000060: 8326 88bd 3ad0 17bd b78b aabc edbe cf3d
00000070: 3e06 df3b 99a9 9b3d b8a6 a3bd ef53 b23c
00000080: ac6d fb3c 82a7 d53c 0890 793d cb50 21be
00000090: 3a16 8ebd 1110 463d 54a9 4ebd b9e5 e63d
000000a0: 90e5 fbbd 933d a8bc 0ae1 813c ce4f 383c
000000b0: 7277 34bd 326a 653d 061c f1ba 14c8 79bd
000000c0: 7ec5 27bc 2258 13be 808d 403d ee15 4d3b
000000d0: 7727 1fbd 7989 a83d 5320 1e3d 2afc b93d
000000e0: 831f 46bd fc9a 713b 4546 0c3e 8519 493d
000000f0: d8b9 f9bd 9759 11be 80da 6b3b eb67 d4bd
00000100: e214 31bd d4c0 94bc 7505 e6ba 8845 27be
00000110: 17c0 28bc 35fe 4bbc 9703 0c3c a9c0 de3c
00000120: dce4 b9bd 6df7 223d e6ba 3d3d 2ec7 b73d
00000130: 963a efba fbee a8bc 3db9 12be dfed 13be
00000140: 5664 06bd 0ee5 fcbc 15e1 54bd 1e01 283e
00000150: 6047 84bd cd38 d23d 352e abbd 157b 14bd
00000160: 5e68 63bd 2df4 48bd d79e 6f3d acfd 9d3d
00000170: f672 04be 0ac8 ce3d e28b 32be a64e b43d
00000180: aed2 363c e3e7 febb d184 9839 7351 8d3d
00000190: 977a 893b 6cdb d23c de7f b8bd f11a 583d
000001a0: 88b2 27bd 7556 25bd f349 923d 8f83 8dbd
000001b0: cffc a1bd a269 80bd 53d8 793d 8348 813d
000001c0: 0689 b23d 9027 df3c 0431 4b3e 3e6b c9bc
000001d0: fc5e 103e 06ad b33d 21f8 a1bd 6a5d d23c
000001e0: fbea aa3d 9593 4fbd c05a 253d 99ed 103e
000001f0: 897b 16be 6954 8a3c 0090 75bb d925 00bc
00000200: 05d0 f33d 3750 c4bc 2b05 35bd 820e 393c
00000210: ab67 c63c 9482 e2bd e7e3 213c 0a5c 6abd
00000220: d07a 1fba 7918 49bd 99d3 063e f462 05bd
00000230: ada2 073e 6cb5 de3d 1f87 033e e151 fb3d
00000240: 22e3 f3bc 36da 443d 4e9e d1bd 4a13 98bd
00000250: 4a12 e03d 481d d73a af83 0ebd bb4c 0fbe
00000260: be01 af3d b231 faba 9c98 29bd beff 073e
00000270: 9026 943d 96e1 06be 94e7 84bd 06b7 d33d
00000280: 3fbe d1bd 3d12 20bd a1e9 92bd 0e1e 4ebd
00000290: bf09 a63c e8ef 9e3d 8885 ba3c 3d5e f2bd
000002a0: 02c6 083e 932b 51bd b2c6 54bd 0f27 46bb
000002b0: d8a2 bc3c ef90 b9bd 5041 edbc 35d9 f53d
000002c0: e799 103c 96ff 4dbc c72b d93c 9489 5ebd
000002d0: 4baa 403d baea c8bc f765 e3bd 5115 3a3d
000002e0: 3c2f 55bd 0f4e a6bd 52ce e0bd 38e4 afba
000002f0: 7209 873c 9241 c63d cc73 d7bd bfd5 063d
00000300: 3cca 413b 065b 973d 79cd 243b 9636 8fbc
00000310: a081 613d 4822 09be 4359 51bd da30 12bb
00000320: 29b0 8f3d 6439 e3bd 6970 2dbe 0966 6bbd
00000330: 2c70 aabb 5d18 b7bd 52de 853c 2e72 d03d
00000340: b83a 3d3b 021a bdbd 7983 cabd 1410 50bd
00000350: 67aa cb3d bccb e1bd 841e 3c3d 32f5 91bd
00000360: 1939 b63d d218 613d 8f87 00be 032c 82bd
00000370: e709 21bd 4889 08bd 44b4 f5bb 76f7 06be
00000380: 0021 9dbc b933 59bd 9d60 f83d 0058 8e3d
00000390: 8555 1abd c176 06bd dab5 873d e0ca 24bd
000003a0: 8d9f 2abe adfc 70bd d48c 8e3c ac4c 303d
000003b0: 3b16 913d 36c3 9c3d 2e28 d8bd 5f6c 2d3d
000003c0: b7e5 9ebd cad8 b7bd 5ac1 b7bb c7c1 003c
000003d0: 0bd5 23be 587f afbc bc7d 463d 5edd c1bd
000003e0: 85db d13d fe90 21bd 8111 b9bc f714 60bd
000003f0: 6e61 513d dc34 09be 78ab bc3d 00e6 31bd

VAE_Encoder.layers.1.linear1.bias f4 [4]
-0.13373525 -0.019087646 -0.02573537 0.065629795
00000000: e5f1 08be b25d 9cbc fcd2 d2bc ea68 863d

VAE_Encoder.layers.1.norm1.weight f4 [4]
1.0839 1.1253871 1.0835258 1.125536
00000000: 3cbd 8a3f af0c 903f f9b0 8a3f 9011 903f

VAE_Encoder.layers.1.norm1.bias f4 [4]
0.03613806 -0.036542233 -4.467656e-05 -0.14465031
00000000: 8105 143d 4fad 15bd 1763 3bb8 361f 14be

VAE_Encoder.layers.1.norm0.weight f4 [4]
0.9587227 1.0156124 0.894547 1.0359769
00000000: da6e 753f 96ff 813f 0801 653f e49a 843f

VAE_Encoder.layers.1.norm0.bias f4 [4]
-0.046040338 0.014548441 0.012624314 0.009018059
00000000: cb94 3cbd 965c 6e3c 36d6 4e3c 7bc0 133c

VAE_Encoder.last_normalization.weight f4 [4]
1.0 1.0 1.0 1.0
00000000: 0000 803f 0000 803f 0000 803f 0000 803f

VAE_Encoder.last_normalization.bias f4 [4]
0.0 0.0 0.0 0.0
00000000: 0000 0000 0000 0000 0000 0000 0000 0000

VAE_Encoder.head.weight f4 [4, 4]
-0.32519895 0.28178763 0.009292543 0.046153963 -0.05867994 0.34575665 0.30674618 -0.27753294
0.02709061 0.39387733 0.31720972 0.3092959 0.0061534047 -0.302033 0.09010422 0.09983641
00000000: 7a80 a6be 7846 903e c03f 183c f00b 3d3d
00000010: 605a 70bd 0407 b13e d60d 9d3e cc18 8ebe
00000020: 20ed dd3c 4aaa c93e 5069 a23e 085c 9e3e
00000030: 80a2 c93b 12a4 9abe 9088 b83d 0877 cc3d

VAE_Encoder.head.bias f4 [4]
0.1537118 0.41696697 -0.22404885 -0.19814438
00000000: a066 1d3e b27c d53e 106d 65be 5ce6 4abe
