tabsyn/vae/ckpt/diabetes/model.pt (torch, 61820 bytes, 96 tensors)

VAE.Tokenizer.weight f4 [9, 4]
0	0xbeda949e	-0.4269151
1	0xbe17c3d6	-0.14820799
2	0x3e8719a7	0.2638676
3	0x3eb9dcac	0.36301172
4	0x3e60534e	0.21906778
5	0x3f028515	0.5098432
6	0x3e8d9c41	0.27658275
7	0x3f0fb860	0.5614071
8	0x3e90d33d	0.28286162
9	0xbe6eec63	-0.23332362
10	0xbebe4cbe	-0.37167925
11	0x3e1bd4a6	0.15217838
12	0xbe2941cf	-0.1652901
13	0xbee1ddc5	-0.4411451
14	0x3e294752	0.16531113
15	0xbed32909	-0.41242245
16	0x3e38f88a	0.1806356
17	0xbec8f612	-0.39250237
18	0x3f05cd23	0.5226614
19	0xbc3e7ba1	-0.011626155
20	0xbe9ec285	-0.31007782
21	0x3e8b9b2d	0.27266827
22	0x3e6148d9	0.22000445
23	0xbd647d69	-0.055783663
24	0xbbe8111f	-0.007082119
25	0xbe972000	-0.29516602
26	0x3e92ca4e	0.2866997
27	0x3acac6a0	0.0015470572
28	0x3d965c69	0.073418446
29	0x3e2ba1d9	0.16760959
30	0xbe958a21	-0.29206946
31	0x3e2121c8	0.15735543
32	0xbdeafe89	-0.1147433
33	0x3e4e239f	0.20130776
34	0x3e9e34ea	0.30899745
35	0x3cee7b56	0.029111546

VAE.Tokenizer.bias f4 [9, 4]
0	0x3edabb18	0.42720866
1	0x3ed5b7b0	0.41741705
2	0xbdb083c5	-0.08618883
3	0x3db6bbbb	0.089225255
4	0xbead416b	-0.33838972
5	0x3ef0da92	0.47041756
6	0xbc36e0bf	-0.011161982
7	0x3f08afde	0.5339335
8	0xbf0c0206	-0.5469059
9	0x3eb45da3	0.3522769
10	0xbb35d960	-0.0027747974
11	0x3e8153ad	0.25259152
12	0xbe90be25	-0.2827007
13	0xbe74933c	-0.2388429
14	0x3e7e94d4	0.24861461
15	0xbe817ca3	-0.25290403
16	0xbc16eed9	-0.009212219
17	0xbf063f24	-0.52440095
18	0x3e50cf81	0.20391656
19	0xbb7500aa	-0.003738443
20	0xbe436735	-0.19082339
21	0x3e628f8a	0.22125068
22	0xbebbcdc2	-0.36680418
23	0xbef08f2a	-0.46984226
24	0x3ed02e31	0.4066024
25	0xbe89f69d	-0.26945964
26	0x3de9bd8a	0.11413105
27	0xbea31588	-0.31852365
28	0xbe9d759d	-0.30753794
29	0x3f0b1285	0.54325134
30	0xbe6118d3	-0.21982126
31	0x3d0b3436	0.03398534
32	0x3e97f8a3	0.29681882
33	0xbcb1056c	-0.02160903
34	0xba64c39d	-0.00087266584
35	0x3e645844	0.22299296

VAE.Tokenizer.category_embeddings.weight f4 [2, 4]
0	0x3d1087c7	0.035285737
1	0x3e915a06	0.28388995
2	0x3edacbf2	0.42733723
3	0x3ec88478	0.39163566
4	0x3f021ce4	0.50825334
5	0xbf191381	-0.59795386
6	0xbe59c7d2	-0.21267632
7	0xbedd724b	-0.4325126

VAE.encoder_mu.layers.0.attention.W_q.weight f4 [4, 4]
0	0x3ee3f214	0.44520628
1	0x3e47f388	0.19526494
2	0x3bcb1441	0.006197483
3	0x3eaf8521	0.34281257
4	0xbe9214c8	-0.2853148
5	0x3ed6cd27	0.41953394
6	0xbe35aa33	-0.17740707
7	0xbdd36870	-0.10322654
8	0xbdc38cd7	-0.095483474
9	0xbe82ff27	-0.2558529
10	0x3e31781e	0.17330977
11	0xbd81df41	-0.063414104
12	0xbee61753	-0.4493967
13	0x3e022847	0.12710677
14	0xbe599d6c	-0.21251458
15	0x3e0110c9	0.1260406

VAE.encoder_mu.layers.0.attention.W_q.bias f4 [4]
0	0x3c765b6b	0.015036444
1	0x3c65d27f	0.014027237
2	0xbd0eac12	-0.034832068
3	0xbd8f6a39	-0.07002682

VAE.encoder_mu.layers.0.attention.W_k.weight f4 [4, 4]
0	0x3efcef57	0.49401352
1	0xbecf4dbf	-0.40489003
2	0x3dfca68f	0.12336456
3	0x3d9e790d	0.07737932
4	0xbe9528a4	-0.2913257
5	0xbe0e530c	-0.13898867
6	0xbee5ac44	-0.4485799
7	0xbea04815	-0.31304994
8	0xbec3236e	-0.38112968
9	0x3e8f8d6c	0.28037584
10	0x3dc49487	0.09598642
11	0x3efcea5b	0.4939755
12	0x3e616ffb	0.22015373
13	0xbdd67c81	-0.10472966
14	0xbdeda5fd	-0.116039254
15	0x3ecb33e2	0.3968802

VAE.encoder_mu.layers.0.attention.W_k.bias f4 [4]
0	0xb9bce8a8	-0.00036031497
1	0x36bbec66	5.6005547e-06
2	0x389295b7	6.989709e-05
3	0x394aa563	0.00019325833

VAE.encoder_mu.layers.0.attention.W_v.weight f4 [4, 4]
0	0xbe9bd2d8	-0.304343
1	0x3d8c89b8	0.06862205
2	0x3cbf0081	0.02331567
3	0x3ddcaa5c	0.10774681
4	0xbde7d00e	-0.1131898
5	0x3e6ca3f1	0.23109414
6	0xbdcd423d	-0.100223996
7	0xbd817b8b	-0.06322392
8	0xbe7aa225	-0.24475916
9	0x3dd9b8b8	0.106309354
10	0x3b8470c7	0.0040417644
11	0x3db6ad2d	0.089197494
12	0xbea8d3a1	-0.3297396
13	0xbda96322	-0.08270861
14	0x3e200b73	0.15629368
15	0x3e0a70c4	0.13519579

VAE.encoder_mu.layers.0.attention.W_v.bias f4 [4]
0	0xbcccb9e4	-0.024990983
1	0x3d4542e0	0.04815948
2	0x3b95411a	0.00455488
3	0xbd82c6be	-0.06385563

VAE.encoder_mu.layers.0.linear0.weight f4 [128, 4]
0	0xbe9a0348	-0.30080628
1	0xbeac707a	-0.33679563
2	0xbea17b84	-0.31539547
3	0xbe9769de	-0.29572958
4	0x3ebe8362	0.37209612
5	0xbeea9301	-0.4581528
6	0xbcaf461f	-0.021395741
7	0xbeb60c2b	-0.35556158
8	0x3d8baf8b	0.068205915
9	0x3df1bfaa	0.11804135
10	0xbea5d5c3	-0.3238965
11	0xbe8baa7a	-0.272785
12	0x3e39f453	0.18159609
13	0x3ebf8e58	0.37413287
14	0xbea5d733	-0.32390746
15	0xbef0c533	-0.4702545
16	0x3e9e0521	0.30863288
17	0x3eb1f760	0.34759045
18	0x3e249dac	0.16075772
19	0xbf19f83e	-0.6014441
20	0xbed6a696	-0.4192397
21	0x3d5eab79	0.054362748
22	0x3e48098f	0.19534896
23	0xbd7aacb2	-0.06119985
24	0xbe83a66d	-0.2571291
25	0x3ef18449	0.47171238
26	0x3ee3fc8f	0.44528624
27	0x3ece34bd	0.4027461
28	0xbed04b1b	-0.406823
29	0x3e0c65c3	0.13710694
30	0x3ecc4830	0.39898825
31	0x3e50a1b9	0.20374192
32	0x3eececad	0.4627432
33	0x3eefb572	0.4681812
34	0xbebb87f0	-0.3662715
35	0xbe58e385	-0.21180542
36	0xbeb40271	-0.35158113
37	0xbd1c5de7	-0.03817549
38	0x3d59f384	0.05321075
39	0x3ccb4cb4	0.024816848
40	0x3e131975	0.1436518
41	0xbeafbb92	-0.34322792
42	0x3e8160df	0.2526922
43	0x3f1fb7e2	0.6238996
44	0x3e028314	0.12745315
45	0xbeb01b78	-0.34395957
46	0x3e62b385	0.22138794
47	0xbe7e0b63	-0.24809031
48	0x3e5e20da	0.2169222
49	0xbec97596	-0.39347523
50	0xbe795213	-0.24347715
51	0xbeaf6ee6	-0.34264296
52	0x3de05fb7	0.10955756
53	0xbecbe7f1	-0.39825395
54	0x3d1fc873	0.039009523
55	0xbe31565f	-0.17318104
56	0x3ef3916b	0.47571883
57	0xbde9973a	-0.11405797
58	0xbe9e4416	-0.3091132
59	0xbed116ae	-0.40837616
60	0x3ebfaa9d	0.37434855
61	0x3cd82416	0.026384395
62	0xbe9a257f	-0.30106732
63	0x3ea2402b	0.3168958
64	0x3e7705bb	0.2412328
65	0x3e41a093	0.1890891
66	0xbdd723d9	-0.10504884
67	0x3e54692a	0.20743242
68	0x3ed72328	0.4201901
69	0x3e272d8e	0.16325971
70	0xbda60921	-0.0810721
71	0x3e60a329	0.2193724
72	0xbeda6f2e	-0.42662948
73	0x3ed1c7cb	0.40972742
74	0xbea711f8	-0.32630897
75	0x3ed5bfd6	0.41747922
76	0x3e81e891	0.25372747
77	0xbec4a23a	-0.3840502
78	0xbe996b5a	-0.29964715
79	0x3d53deea	0.05172626
80	0x3e1a21e0	0.15051985
81	0x3ebd6f86	0.36999148
82	0xbf0c2cba	-0.5475575
83	0xbe2732bc	-0.16327947
84	0x3e245f4e	0.16051981
85	0xbeee5866	-0.46551818
86	0x3ead86e7	0.33891985
87	0x3e99283a	0.29913503
88	0x3edcfa88	0.4315989
89	0x3ea2ca9f	0.31795213
90	0x3da21d09	0.07915694
91	0x3c93854d	0.018007899
92	0x3d9fc9b4	0.07802144
93	0xbdc5ef35	-0.09664766
94	0xbdd97bf2	-0.10619344
95	0xbeb61897	-0.35565636
96	0xbe3e0e8f	-0.18560241
97	0x3f0c52a9	0.5481363
98	0x3e1c4d6d	0.1526391
99	0x3e0bc5ca	0.1364967
100	0xbea6af5f	-0.32555673
101	0x3e9879ef	0.29780528
102	0x3e0dc0a3	0.13843016
103	0xbee9fc82	-0.4570046
104	0x3dff39f7	0.12462228
105	0xbe9e4263	-0.30910024
106	0x3e3abb20	0.18235445
107	0xbda7bedb	-0.081907
108	0x3caeb6ed	0.02132746
109	0x3ea8dd1f	0.32981202
110	0xbecacacc	-0.39607847
111	0x3eb77cd3	0.3583742
112	0xbdf8b90e	-0.121446714
113	0xbed35273	-0.4127384
114	0x3dc16d18	0.09444636
115	0x3ed6efd6	0.41979855
116	0x3e989911	0.2980428
117	0x3e6a6980	0.22891808
118	0x3f055d09	0.52095085
119	0x3d32e245	0.04367282
120	0xbee52ba3	-0.44759855
121	0x3e4819e1	0.19541122
122	0xbe5f2cac	-0.21794385
123	0x3e987a91	0.2978101
124	0xbec23eb2	-0.37938458
125	0x3e1a1ec5	0.150508
126	0xbe673c41	-0.22581579
127	0xbe2d5f7c	-0.16930956
128	0x3e8fb61f	0.28068635
129	0xbee6cd1c	-0.4507836
130	0xbef607d0	-0.48052835
131	0x3ee70528	0.4512112
132	0xbd40912e	-0.047013454
133	0xbed89f73	-0.4230915
134	0xbebbc45e	-0.36673254
135	0x3eea66da	0.45781595
136	0xbe978464	-0.29593194
137	0xbd2559db	-0.040368896
138	0x3e1264f6	0.14296326
139	0x3ec95661	0.39323714
140	0xbe4f8a80	-0.20267677
141	0x3eda562e	0.42643875
142	0xbd86044c	-0.06543788
143	0x3e1466d8	0.14492357
144	0x3f01f421	0.50763136
145	0xbd8896d1	-0.06669391
146	0x3dbe528a	0.09293087
147	0xbed3880f	-0.41314742
148	0xbccbfba4	-0.024900265
149	0xbe8bcfb5	-0.27306905
150	0xbebeee54	-0.37291205
151	0xbeeea8e7	-0.46613237
152	0xbc653a7d	-0.0139909955
153	0xbe835c56	-0.25656384
154	0x3eae9cc7	0.34103987
155	0xbee73a33	-0.4516159
156	0xbf076ad9	-0.5289741
157	0x3e04ac38	0.12956321
158	0xbda93e5d	-0.08263848
159	0xbd932537	-0.071848325
160	0x3e621570	0.2207849
161	0x3e314a0a	0.173134
162	0xbec0128b	-0.37514147
163	0xbeed00fc	-0.46289814
164	0xbeb66c55	-0.35629526
165	0xbe8c3946	-0.27387446
166	0x3f02073a	0.50792277
167	0xbe3c6214	-0.18396789
168	0x3e0392c2	0.12848952
169	0x3eed50cb	0.46350703
170	0xbe8d446d	-0.27591267
171	0xbd8cf44e	-0.06882535
172	0xbe5f42ad	-0.21802779
173	0x3e899efa	0.26879102
174	0xbeb2ee5a	-0.34947473
175	0xbe841842	-0.25799757
176	0xbdc47e97	-0.095944576
177	0x3e0166e9	0.12636913
178	0x3ef894c3	0.48550996
179	0x3eda319a	0.42615968
180	0xbe165c8c	-0.14683741
181	0x3e4e036b	0.20118491
182	0x3ea99741	0.3312321
183	0xbedafb74	-0.42769969
184	0x3e51bdeb	0.20482604
185	0x3d9cac81	0.0765009
186	0xbeb970d8	-0.36218905
187	0xbed38b81	-0.4131737
188	0xbf07ae4d	-0.53000337
189	0x3e5e13b3	0.21687202
190	0x3f074f5b	0.5285546
191	0xbe8a05d8	-0.26957583
192	0x3e5568b3	0.20840721
193	0x3e87223d	0.2639331
194	0xbee1acae	-0.44077057
195	0xbe18f86f	-0.1493852
196	0x3e02ffcd	0.12792893
197	0x3ecb40c3	0.39697847
198	0xbebf3fce	-0.37353367
199	0xbe6fdbde	-0.23423716
200	0xbd9ee2e4	-0.0775812
201	0x3dc571bf	0.09640836
202	0xbeb55170	-0.35413694
203	0xbebb0114	-0.3652426
204	0xbe8bc6c3	-0.2730008
205	0x3dc3a25a	0.095524505
206	0xbce6efe9	-0.02819057
207	0xbe74759e	-0.23872992
208	0x3e21b75d	0.15792604
209	0xbeb21428	-0.34781003
210	0xbec9f6cb	-0.394461
211	0xbe6c3bba	-0.23069659
212	0x3e33db6e	0.17564175
213	0xbf143d5d	-0.5790613
214	0x3e34c4ab	0.17653148
215	0xbee3d242	-0.4449635
216	0xbd32841d	-0.043583024
217	0x3e3f4ead	0.18682356
218	0x3edc4c82	0.4302712
219	0x3ebefeac	0.37303674
220	0xbeac9062	-0.33703905
221	0xbf03f98b	-0.5155265
222	0x3ea280bb	0.3173884
223	0xbecec771	-0.40386537
224	0x3de20963	0.110369466
225	0xbec9728e	-0.3934521
226	0xbef5ed61	-0.48032668
227	0x3e68b2f0	0.22724509
228	0xbee5bde2	-0.44871432
229	0xbebb8dde	-0.36631674
230	0x3edb561e	0.4283914
231	0xbd25b7e2	-0.040458567
232	0xbe99edf6	-0.30064362
233	0xbd8d8e2e	-0.06911884
234	0x3e3a7778	0.18209636
235	0x3eb38d60	0.35068798
236	0x3e80056f	0.25004146
237	0x3ecd96f2	0.40154225
238	0xbc578395	-0.01315393
239	0x3e05a53b	0.13051312
240	0xbcc58b65	-0.02411432
241	0x3cb74a14	0.02237419
242	0x3e485ac2	0.19565871
243	0xbce6a5f4	-0.028155304
244	0xbdb4cfb0	-0.08828676
245	0xbf006850	-0.5015917
246	0x3eb37670	0.35051298
247	0x3f2151ce	0.6301545
248	0x3e42617d	0.18982501
249	0x3e844e79	0.2584112
250	0xbed845c6	-0.42240733
251	0x3e88deca	0.26732475
252	0x3e9efc59	0.310519
253	0x3f0018c6	0.500378
254	0x3e9f9e41	0.31175426
255	0xbdeb858f	-0.11500084

VAE.encoder_mu.layers.0.linear0.bias f4 [128]
0	0xbe5c20c0	-0.21496868
1	0x3ebb0206	0.3652498
2	0x3e9209b6	0.28523034
3	0xbdf1a90f	-0.117998235
4	0x3daffadb	0.08592769
5	0x3e391233	0.18073349
6	0x3e41ac8a	0.18913475
7	0xbe93cbe7	-0.28866503
8	0x3e95e638	0.29277205
9	0xbea014fe	-0.31266016
10	0xbe8d9278	-0.2765081
11	0x3da76522	0.081735864
12	0xbdaac1e4	-0.08337763
13	0xbd5f519e	-0.054521196
14	0x3e15fb5b	0.14646666
15	0xbe9ab4df	-0.3021612
16	0xbec59c51	-0.38595822
17	0x3ea77d8c	0.32712972
18	0x3e1020b6	0.14074978
19	0x3ecb13a9	0.39663437
20	0x3ed508e6	0.4160835
21	0xbee4e55e	-0.44706243
22	0xbe3604e9	-0.1777531
23	0xbef3ae60	-0.47593975
24	0xbe8ba156	-0.27271527
25	0x3dd97b2a	0.10619195
26	0xbe88da70	-0.26729155
27	0xbec04f1c	-0.37560356
28	0xbd8ab722	-0.06773211
29	0x3d7591a8	0.05995336
30	0x3c6d352a	0.014478007
31	0xbe471e60	-0.19445181
32	0x3ebc4c88	0.3677714
33	0x3e788fe8	0.24273646
34	0xbe594f4f	-0.2122166
35	0xbe93f643	-0.2889882
36	0x3dc3027e	0.0952196
37	0x3dd2772b	0.10276636
38	0xbe8754f8	-0.26432014
39	0xbe890b13	-0.2676626
40	0xbeab38c4	-0.33441746
41	0xbd8c2b38	-0.06844181
42	0xbd388507	-0.04504874
43	0xbd6b37fd	-0.05742644
44	0xbd63ceed	-0.05561726
45	0x3eaf3400	0.3421936
46	0xbe857cb4	-0.26071703
47	0x3e048859	0.12942638
48	0x3e29bd27	0.16576062
49	0xbe68defd	-0.22741313
50	0xbe9cbedf	-0.30614373
51	0x3d862896	0.0655071
52	0xbc14f5f5	-0.009091844
53	0xbe6a2c78	-0.22868526
54	0x3dc47039	0.09591717
55	0x3db99e47	0.09063392
56	0xbe1426a3	-0.14467864
57	0x3c7f06f5	0.0155656235
58	0x3e268f58	0.16265619
59	0xbeb79020	-0.35852146
60	0x3e818119	0.25293806
61	0xbec2a64f	-0.38017508
62	0xbef8a31b	-0.4856194
63	0xbf04c596	-0.5186399
64	0x3d5e2ba1	0.054240827
65	0x3edbffae	0.42968506
66	0x3e9adfa3	0.30248746
67	0xbd57ccd5	-0.052685577
68	0xbebf6a45	-0.37385765
69	0x3e494ff7	0.1965941
70	0xbeb234f7	-0.34806034
71	0xbf01b9cf	-0.50674146
72	0x3c856cc6	0.016287219
73	0x3eb857e6	0.3600456
74	0x3e7af462	0.24507287
75	0xbebe1a17	-0.3712928
76	0xbe2c84cc	-0.16847533
77	0x3f14597f	0.5794906
78	0xbefafddb	-0.490218
79	0x3ebed1ce	0.37269443
80	0xbea298e4	-0.3175727
81	0xbeada970	-0.33918333
82	0x3e09ab2f	0.13444208
83	0xbeb8f03f	-0.36120793
84	0x3eeed202	0.46644598
85	0x3eeb0d4f	0.4590859
86	0xbe4d1374	-0.20026952
87	0x3ef35d6b	0.4753221
88	0x3e889bef	0.26681468
89	0xbebbe5d1	-0.36698774
90	0x3d032c7d	0.03202485
91	0xbe0ff4b3	-0.14058189
92	0x3da72344	0.08161023
93	0x3e68cd8d	0.22734661
94	0xbecdf2e4	-0.40224373
95	0xbece8ea4	-0.403432
96	0xbefea2a5	-0.49733463
97	0x3f0cb5da	0.54964983
98	0xbd74e9d9	-0.059793327
99	0xbe9c0089	-0.30469158
100	0xbe0aac70	-0.13542342
101	0x3da9510c	0.082674116
102	0x3d8d628c	0.06903562
103	0x3e82b441	0.25528148
104	0x3eda3a45	0.4262258
105	0x3e1406da	0.14455739
106	0x3da04804	0.07826236
107	0xbd16fa1f	-0.036859628
108	0xbd9017c7	-0.07035785
109	0xbeac486e	-0.3364901
110	0xbe418d1a	-0.18901482
111	0x3e83bff6	0.25732392
112	0x3d7e7284	0.06212093
113	0x3e364290	0.17798829
114	0xbeb4cd5c	-0.35312927
115	0xbdf6c97f	-0.12050151
116	0xbe1c931d	-0.15290494
117	0x3f1955ed	0.5989674
118	0x3ebbae9c	0.36656654
119	0xbe6fa4e7	-0.23402749
120	0x3e68026c	0.22657174
121	0xbea7821a	-0.32716447
122	0xbf00c813	-0.5030529
123	0xbe9aebe6	-0.302581
124	0xbe89b730	-0.26897573
125	0xbf0d8dfb	-0.5529477
126	0x3b91ffb1	0.0044555296
127	0xbef9bc68	-0.48776555

VAE.encoder_mu.layers.0.linear1.weight f4 [4, 128]
0	0xbc864d90	-0.016394407
1	0x3d18b7ea	0.03728477
2	0x3d9dd466	0.077065274
3	0xbd844f73	-0.06460466
4	0x3d047782	0.032340534
5	0x3d92c977	0.071673326
6	0x3ab8d305	0.0014100975
7	0x3c9849ad	0.018589819
8	0xbbc8b052	-0.0061245346
9	0xbd8aab8b	-0.067710005
10	0xbdcb2501	-0.09919167
11	0xbd8985a9	-0.06714947
12	0xbd8e949c	-0.06961939
13	0xbdd212a5	-0.102574624
14	0x3dd885c9	0.105723925
15	0xbd085a2f	-0.03328913
16	0x3ccbf30a	0.024896163
17	0xbd882f37	-0.066496305
18	0xbdb7fd17	-0.0898382
19	0x3cd0eb6c	0.025502883
20	0xbdae730a	-0.08518036
21	0xbd2a9bf9	-0.041652653
22	0x3d63c422	0.05560697
23	0xbc8e72ec	-0.017388783
24	0xbdc0f989	-0.09422595
25	0xbcc8eaf1	-0.024526091
26	0x3cb1dbf1	0.021711322
27	0x3c71cfa3	0.014758977
28	0xbd93816f	-0.07202422
29	0xbd95f2fd	-0.07321737
30	0xbcbf683e	-0.023365136
31	0x3d2f01ae	0.04272621
32	0xbd1d069a	-0.038336374
33	0xbd967c3d	-0.07347915
34	0x3dc2e9e7	0.095172696
35	0xbc5fa9b3	-0.013651299
36	0x3c86edbf	0.016470788
37	0x3c99abff	0.018758772
38	0x3d3fa5f6	0.046789132
39	0x3ddd3d37	0.108026914
40	0x3dcaa72c	0.09895167
41	0xbdaa622a	-0.083195046
42	0x3d805499	0.06266136
43	0xbbe28121	-0.006912366
44	0xbb397500	-0.0028298497
45	0x3d72b7e0	0.059257388
46	0x3d870f8d	0.06594763
47	0xbd53c004	-0.051696792
48	0xbda19116	-0.07889001
49	0xbb9a12d5	-0.004701952
50	0xbc19a8a8	-0.00937859
51	0x3d8a773b	0.06761023
52	0x3c81d3e6	0.015848111
53	0xbda668cf	-0.081254594
54	0x3d2c5b36	0.042079173
55	0x3c23c69d	0.009996084
56	0xbdc7a1b5	-0.0974764
57	0xbdf5de9c	-0.1200535
58	0xbda6cade	-0.081441626
59	0x3ca934f9	0.020655142
60	0x3d4f9fa3	0.05068935
61	0xbe3fe741	-0.1874056
62	0xbd557de3	-0.052122008
63	0x3c6e0933	0.01452856
64	0x3d7b46df	0.061346885
65	0xbc84c3e9	-0.016206698
66	0xbd289431	-0.04115695
67	0xbb753c76	-0.003742007
68	0xbd65fae7	-0.056147482
69	0x3a97b3ad	0.0011573933
70	0x3da82f69	0.08212168
71	0xbe2cc946	-0.16873655
72	0x3d4f6401	0.05063248
73	0x3d08679e	0.033301942
74	0x3cd72d34	0.026266672
75	0x3da4dce7	0.08049946
76	0x3cdb4c69	0.026769834
77	0xbcfeaaa3	-0.031087225
78	0xbd68e8a0	-0.056862473
79	0xbca81755	-0.020518938
80	0xbda8d93a	-0.08244558
81	0x3d0fcf78	0.035109967
82	0x3d1d8feb	0.03846733
83	0xbc80da49	-0.015729086
84	0xbd528b4c	-0.051402375
85	0xbd461b88	-0.0483661
86	0xbe044d05	-0.12920006
87	0xbddddd25	-0.108331956
88	0xbd7adc64	-0.061245337
89	0x3c975994	0.018475331
90	0x3d661527	0.056172516
91	0xbe58a72b	-0.2115752
92	0xbd9ae01d	-0.075622775
93	0xbb9d3f14	-0.0047987793
94	0x3d7f0d2e	0.06226843
95	0xbe74b573	-0.23897342
96	0x3cc8afde	0.024497923
97	0xbdba470f	-0.090955846
98	0xbc6bc46e	-0.014390094
99	0xba5a278e	-0.0008321934
100	0x3cbc7160	0.02300328
101	0xbddc1d49	-0.10747773
102	0xbcc65b76	-0.024213534
103	0xbd4c42ee	-0.049868517
104	0xbcc25ebc	-0.023726813
105	0xbdd64b56	-0.10463588
106	0x3d882576	0.0664777
107	0x3c31756a	0.010831216
108	0x3df3f990	0.11912835
109	0xbdb6d0d5	-0.0892655
110	0x3db398b8	0.08769363
111	0x3d3686e8	0.04456225
112	0xbde0b294	-0.10971561
113	0x3c53d246	0.012928551
114	0x3ce1edaf	0.027579157
115	0xbd7b5b93	-0.06136663
116	0x3a11eed7	0.0005566901
117	0x3b93e53e	0.004513412
118	0x3ca6df9b	0.020370295
119	0x3c7d04e9	0.015443065
120	0x3d4b217d	0.049592484
121	0x3ca6fcd3	0.020384228
122	0x3be40ba6	0.0069593964
123	0xbdb1522e	-0.08658253
124	0x3e0a02f7	0.13477693
125	0xbe06f7be	-0.13180444
126	0x3de22df7	0.11043923
127	0xbbab1646	-0.005221161
128	0xbd188b3b	-0.037242156
129	0xbdbc6c7a	-0.09200378
130	0xbddcd8a3	-0.10783508
131	0x3d30e5f6	0.043188058
132	0xbd97d8c7	-0.07414394
133	0x3a930945	0.0011217972
134	0xbd9f9e34	-0.07793847
135	0x3dace16c	0.08441433
136	0xbb10b3e2	-0.0022079875
137	0x3dafb9cb	0.08580359
138	0x3e1c79d7	0.15280853
139	0xbe271390	-0.16316056
140	0xbc9516b9	-0.018199312
141	0xbd92673e	-0.07148598
142	0xbdb4f0d9	-0.088350005
143	0xbd29293d	-0.041299094
144	0x3db151af	0.08658158
145	0xbdde5eb2	-0.108579054
146	0x3da665d5	0.08124892
147	0x3c3176bb	0.01083153
148	0xbdb49acb	-0.08818587
149	0x3bbbcb4a	0.005731021
150	0x3d48ed74	0.049054578
151	0x3d28b567	0.041188624
152	0xbd55e825	-0.052223343
153	0xbdca99bb	-0.09892603
154	0xbd555074	-0.05207868
155	0x3d1d78c0	0.038445234
156	0x3d9bf82d	0.07615695
157	0xbbdbb390	-0.006704755
158	0x3dc7c628	0.09754592
159	0xbd486ef6	-0.048933946
160	0x3d1ac440	0.037784815
161	0xbdb41302	-0.08792688
162	0x3dd76ffa	0.10519405
163	0xbe0b2d13	-0.13591413
164	0xbd264670	-0.04059452
165	0xbe17e98e	-0.14835188
166	0xbdd1aa51	-0.102375634
167	0x3de28007	0.110595755
168	0x3d4130c4	0.047165647
169	0x3d84968e	0.064740285
170	0xbc1f12a5	-0.009709035
171	0xbcccb318	-0.024987742
172	0x3d405a91	0.04696137
173	0x3cf43d96	0.029814523
174	0xbde89a70	-0.113575816
175	0xbd3c2d2f	-0.045941528
176	0x3d32c083	0.043640625
177	0xbd641cfe	-0.05569171
178	0x3d872c02	0.06600191
179	0x3cdc39da	0.026883055
180	0xbb760c0f	-0.0037543809
181	0xbdb48a6b	-0.08815464
182	0x3ca8879d	0.020572478
183	0xbcacc892	-0.021091733
184	0xbc2ab58b	-0.01041926
185	0xbc800d25	-0.015631268
186	0x3d182346	0.037143014
187	0x3cd1424a	0.025544304
188	0x3cd3a65d	0.025836164
189	0x3cf34f7f	0.029700993
190	0xbdac171a	-0.08402844
191	0xbe2cb82d	-0.16867132
192	0xbc894312	-0.016755614
193	0xbd780d8f	-0.060559805
194	0x3b08c8c7	0.0020871626
195	0xbcc3fe3a	-0.023924936
196	0xbdf2023d	-0.11816833
197	0x3dacbfd2	0.08435024
198	0xbdedf4bd	-0.11618946
199	0xbbe2f7cc	-0.0069265123
200	0x3c6afcfe	0.014342545
201	0xbccb91f4	-0.02484987
202	0xbda018ba	-0.07817216
203	0x3be44b08	0.0069669522
204	0x3d47baf8	0.04876229
205	0xbd52a0ee	-0.051423006
206	0x3d87320a	0.06601341
207	0x3cd0673c	0.025439851
208	0xbdd97ecf	-0.1061989
209	0x3d26f11f	0.040757295
210	0xbd21ce3d	-0.039503325
211	0xbdbbfe13	-0.0917932
212	0xbd63dafd	-0.055628765
213	0xbd454493	-0.0481611
214	0x3e0b3ace	0.13596651
215	0x3d315bd1	0.043300454
216	0xbd5b7499	-0.053577993
217	0xbd2348b8	-0.039864272
218	0x3ce5113a	0.027962316
219	0x3ded51db	0.11587878
220	0x3d96269f	0.07331585
221	0xbda8b19b	-0.082370006
222	0xbde88c02	-0.11354829
223	0x3e1e84ec	0.15480393
224	0xbd9ac190	-0.0755645
225	0xbdf12051	-0.11773742
226	0xbcfb6238	-0.030686483
227	0xbd8f24d5	-0.06989447
228	0x3c2458e0	0.010030955
229	0xbd04fc34	-0.032467082
230	0x3d8de96e	0.06929289
231	0xbcf70e1b	-0.030158093
232	0x3cfcb2b4	0.030846931
233	0x3dee8809	0.116470404
234	0xbdcd522b	-0.10025438
235	0xbd6d6eab	-0.05796687
236	0xbdc1e9af	-0.094684
237	0xbc899836	-0.016796213
238	0xbc80556c	-0.015665732
239	0x3c41c2b8	0.01182621
240	0x3da3483d	0.07972763
241	0xbdcb1ac9	-0.09917218
242	0xbc254074	-0.010086168
243	0x3d552bed	0.052043844
244	0xbca67593	-0.020319736
245	0xbdc54d68	-0.09633905
246	0xbda69458	-0.08133763
247	0x3c47d1da	0.012196029
248	0xbc917634	-0.017756559
249	0x3df5a0b4	0.11993542
250	0x3cbe72ad	0.023248041
251	0xba533afe	-0.0008057802
252	0xbba3fe41	-0.0050046747
253	0x3e1b5c20	0.15171862
254	0xbdd136c8	-0.10215527
255	0x3d8aae00	0.06771469

VAE.encoder_mu.layers.0.linear1.bias f4 [4]
0	0xbdc05e42	-0.09392978
1	0xbd327b0f	-0.04357439
2	0x3c93811b	0.018005898
3	0x3de99bb2	0.1140665

VAE.encoder_mu.layers.0.norm1.weight f4 [4]
0	0x3f839690	1.0280323
1	0x3f84ba2b	1.0369314
2	0x3f85ed3c	1.0463023
3	0x3f8ecb9b	1.1155885

VAE.encoder_mu.layers.0.norm1.bias f4 [4]
0	0xbd907014	-0.07052627
1	0xbd56c54f	-0.052434262
2	0x3cf88f59	0.030341791
3	0xbbfd3ec5	-0.00772843

VAE.encoder_mu.layers.1.attention.W_q.weight f4 [4, 4]
0	0xbe44a416	-0.19203219
1	0xbe8e5af5	-0.2780377
2	0xbdc9bc45	-0.09850363
3	0x3d32938d	0.043597747
4	0xbe802247	-0.25026152
5	0x3dad1cd2	0.08452763
6	0x3e8eb9b9	0.2787607
7	0xbdcd85aa	-0.1003526
8	0x3e963aa3	0.2934161
9	0xbe44e8e2	-0.19229463
10	0x3c061cbc	0.008185562
11	0x3e8e621d	0.2780923
12	0xbee0de23	-0.43919477
13	0x3ed01b54	0.4064585
14	0x3db63797	0.08897322
15	0xbec7476d	-0.3892168

VAE.encoder_mu.layers.1.attention.W_q.bias f4 [4]
0	0x3dbb1b0e	0.0913602
1	0xbe15d5e9	-0.14632381
2	0x3c858bde	0.016302045
3	0xbd1bc52a	-0.038029827

VAE.encoder_mu.layers.1.attention.W_k.weight f4 [4, 4]
0	0x3d897c40	0.06713152
1	0x3eb269eb	0.34846434
2	0x3efe0f4c	0.49621046
3	0xbe71fb3f	-0.23630999
4	0x3ef696be	0.48161882
5	0xbeedeb91	-0.46468785
6	0xbef811c2	-0.48451048
7	0xbeb86b92	-0.3601957
8	0x3e99276f	0.29912898
9	0xbe0d3f44	-0.13793665
10	0x3efb46ef	0.49077556
11	0x3ec8738f	0.39150664
12	0xbe07a93c	-0.13248152
13	0x3c91ccb6	0.01779781
14	0xbe816fe0	-0.25280666
15	0xbedd7927	-0.43256494

VAE.encoder_mu.layers.1.attention.W_k.bias f4 [4]
0	0xb7e9b902	-2.7861915e-05
1	0x3a804622	0.0009786526
2	0x38bf59ae	9.124294e-05
3	0x3b1219fe	0.0022293325

VAE.encoder_mu.layers.1.attention.W_v.weight f4 [4, 4]
0	0x3e5ee116	0.21765551
1	0x3e032bb4	0.1280964
2	0xbe2804a3	-0.16408019
3	0x3e4d00cb	0.20019834
4	0x3ec08f89	0.3760951
5	0xbe2a98a6	-0.16659793
6	0x3db2bdff	0.08727645
7	0xbe00a8cd	-0.12564392
8	0x3e673bc0	0.22581387
9	0x3e349ad1	0.17637183
10	0xbe9304bc	-0.2871455
11	0xbea6e5d4	-0.3259722
12	0x3eacea92	0.33772713
13	0x3e465a96	0.19370493
14	0xbe0c2f44	-0.13689905
15	0xbe5d55bf	-0.21614741

VAE.encoder_mu.layers.1.attention.W_v.bias f4 [4]
0	0xbd3f3693	-0.046682905
1	0xbce98cb2	-0.028509472
2	0x3c799cdd	0.015235153
3	0xbaa16214	-0.0012312555

VAE.encoder_mu.layers.1.linear0.weight f4 [128, 4]
0	0x3e01a9fe	0.12662503
1	0x3e0fe80f	0.14053367
2	0xbeccf715	-0.4003226
3	0xbe997be9	-0.29977348
4	0xbeb807e5	-0.35943523
5	0xbd8c281b	-0.06843587
6	0x3dfcc82a	0.12342866
7	0x3e655904	0.22397238
8	0x3ea018c8	0.31268907
9	0xbefbf79d	-0.4921235
10	0xbee692d4	-0.45033896
11	0xbf001e00	-0.50045776
12	0x3e82a78d	0.25518456
13	0x3e6b27d0	0.22964406
14	0xbec11230	-0.37709188
15	0x3e9c488d	0.30524102
16	0xbe81c299	-0.2534378
17	0xbeb9fa5c	-0.36323822
18	0x3eb21457	0.34781143
19	0xbef69a45	-0.48164573
20	0xbe71d57a	-0.23616591
21	0x3d68cb98	0.056834787
22	0x3ef810f3	0.4845043
23	0xbecad935	-0.3961884
24	0x3e9333fa	0.28750592
25	0x3dfd0e66	0.12356262
26	0x3e4c58e5	0.19955786
27	0xbed92c41	-0.42416576
28	0xbe87f154	-0.26551306
29	0xbecd1b29	-0.40059784
30	0xbe20ff4f	-0.15722392
31	0x3e7971c6	0.24359807
32	0xbe26b8c3	-0.16281419
33	0xbe5fa690	-0.21840882
34	0xbd928c33	-0.07155647
35	0xbee90adc	-0.45516098
36	0x3edfd12a	0.43714267
37	0xbea3e324	-0.32009232
38	0x3e9e4989	0.30915478
39	0x3f13e314	0.5776837
40	0xbea22b12	-0.31673485
41	0x3b261919	0.002534455
42	0xbe08f1ab	-0.13373439
43	0x3ed7e63c	0.42167842
44	0xbea49182	-0.32142264
45	0xbebe2ed7	-0.3714511
46	0x3eac5ed5	0.336661
47	0xbe1c9e63	-0.15294795
48	0x3eee507d	0.46545783
49	0xbeaa7613	-0.33293208
50	0xbf0410d3	-0.5158817
51	0x3ec5b47d	0.38614264
52	0xbcae2a8c	-0.021260522
53	0x3e1e19ca	0.15439525
54	0xbdc3642d	-0.095405914
55	0x3eedf21c	0.46473777
56	0x3f109c8c	0.5648887
57	0xbe29c579	-0.16579236
58	0xbd9c7f6d	-0.07641492
59	0xbebd7235	-0.37001196
60	0xbefb7ea7	-0.49120066
61	0xbebfe00e	-0.37475628
62	0xbec88b7e	-0.39168924
63	0x3e3c3934	0.18381196
64	0x3e3b13e0	0.182693
65	0x3e8cc9f0	0.27497816
66	0x3e7b6d55	0.24553426
67	0xbea37216	-0.31922978
68	0xbe4c0334	-0.19923097
69	0xbe19a085	-0.1500264
70	0x3efa782e	0.48919815
71	0xbe642ac8	-0.22281945
72	0x3d54282e	0.05179613
73	0xbed1dc42	-0.40988356
74	0x3ed821fc	0.42213428
75	0xbebf1c64	-0.37326348
76	0x3e237ea2	0.15966275
77	0xbeca3e0e	-0.3950047
78	0x3a4740f0	0.0007600924
79	0xbe61a867	-0.22036897
80	0xbf0101c3	-0.50393313
81	0xbc90c2a8	-0.017670944
82	0xbd833199	-0.064059444
83	0x3e8a9f76	0.27074784
84	0xbddeba31	-0.10875357
85	0xbf0db74a	-0.553578
86	0xbdaaa372	-0.08331956
87	0x3efaa0c0	0.48950768
88	0x3e16187a	0.14657775
89	0xbefcd8b4	-0.4938408
90	0x3e917618	0.2841041
91	0x3bbb0dd3	0.005708435
92	0xbedbd01b	-0.4293221
93	0x3f04108a	0.51587737
94	0x3e86450d	0.26224557
95	0xbcb4146b	-0.021982392
96	0x3e8050c6	0.25061625
97	0x3ea7f0ee	0.32801002
98	0x3f01fc8e	0.5077599
99	0xbeb35138	-0.35022902
100	0xbe5031a0	-0.2033143
101	0xbec30149	-0.38086918
102	0x3dcc4e04	0.09975818
103	0x3d468977	0.04847094
104	0x3ea227da	0.3167103
105	0xbe1502b9	-0.1455182
106	0x3edd2b5d	0.43197146
107	0xbd9514e0	-0.07279372
108	0xbde93dbe	-0.113887295
109	0x3f05a548	0.52205324
110	0xbed4ddd9	-0.41575506
111	0x3e8dbd17	0.27683327
112	0xbd9451e2	-0.072421804
113	0xbdcb7901	-0.09935189
114	0xbe132ed1	-0.14373328
115	0x3ea4126e	0.3204531
116	0xbe0f5487	-0.13997088
117	0xbee2dd7e	-0.4430961
118	0xbdade3c6	-0.0849071
119	0xbe35c340	-0.17750263
120	0x3ef389db	0.47566113
121	0x3e18fdc8	0.1494056
122	0xb9cca425	-0.0003903221
123	0xbe617845	-0.22018535
124	0xbe3f36c0	-0.18673229
125	0xbe177720	-0.14791536
126	0x3cbd6b20	0.02312237
127	0xbe038620	-0.12844133
128	0x3e21140d	0.15730305
129	0x3f031810	0.5120859
130	0x3dd1f934	0.1025261
131	0xbe06f3ca	-0.13178936
132	0x3f01f9f8	0.5077205
133	0x3e996aef	0.29964396
134	0xbecd5d45	-0.40110222
135	0xbda34db7	-0.07973807
136	0x3e899946	0.2687475
137	0xbeb696c0	-0.35661888
138	0x3e0c33be	0.13691613
139	0x3d882f76	0.066496775
140	0x3e26b3d4	0.16279536
141	0x3dce5ecc	0.10076675
142	0xbda39e3b	-0.079891644
143	0x3e34f07e	0.17669865
144	0x3e818f48	0.25304627
145	0x3d813a2b	0.06309923
146	0x3d212e3b	0.03935073
147	0x3e4e0026	0.20117244
148	0x3eb489f0	0.35261488
149	0x3efd3c7a	0.49460202
150	0x3ee2ad44	0.44272816
151	0x3ee31a98	0.44356227
152	0xbf002133	-0.5005066
153	0xbd426e2a	-0.047468342
154	0x3d118259	0.0355247
155	0xbebb2693	-0.36552867
156	0xbe82a94a	-0.25519782
157	0xbf05c423	-0.52252406
158	0x3eda5d20	0.42649174
159	0x3ebc552c	0.3678373
160	0xbea049fa	-0.3130644
161	0xbe0b7b32	-0.13621214
162	0x3eec37a1	0.4613619
163	0xbe9f9504	-0.31168377
164	0x3e551802	0.2080994
165	0x3e4454e6	0.19173011
166	0xbebd8801	-0.37017825
167	0x3e078649	0.1323482
168	0xbef666ee	-0.48125404
169	0xbd2191b4	-0.039445594
170	0xbe7f6508	-0.24940884
171	0x3ef2d640	0.47429085
172	0x3ede7a29	0.43452576
173	0xbea9f851	-0.33197263
174	0x3dd0cedd	0.10195706
175	0xbe716aff	-0.23575972
176	0xbddf665c	-0.109081954
177	0xbed83257	-0.42225906
178	0x3efe0452	0.4961267
179	0xbe989c7f	-0.29806897
180	0xbdc81667	-0.09769898
181	0xbea2ba70	-0.31782866
182	0xbefe51b7	-0.49671718
183	0xbda2bf71	-0.07946671
184	0xbd0fcf9a	-0.035110094
185	0xbdda4820	-0.10658288
186	0x3e1deeb2	0.15423086
187	0xbdb99623	-0.090618394
188	0x3ebfb78f	0.37444732
189	0x3d8da99d	0.06917117
190	0x3deb342c	0.1148456
191	0xbe8e989c	-0.27850807
192	0xbef913d6	-0.48647946
193	0x3e8da71e	0.27666563
194	0xbeb021f2	-0.34400898
195	0x3ed50067	0.4160187
196	0x3ef780ea	0.4834054
197	0x3e0dd33b	0.1385011
198	0xbec5b1ac	-0.38612115
199	0xbf031b99	-0.51213986
200	0x3eb2c4c2	0.3491574
201	0xbea47861	-0.32123092
202	0xbd4c9f3f	-0.049956556
203	0xbeb0e2df	-0.3454809
204	0x3f033b11	0.51262003
205	0xbea1bbfb	-0.3158873
206	0x3c3394d7	0.010960779
207	0xbec85534	-0.39127505
208	0x3ed45699	0.4147232
209	0x3e88764d	0.26652756
210	0xbed90925	-0.4238979
211	0x3edf2772	0.43584782
212	0x3d18b38e	0.03728061
213	0x3d642827	0.055702355
214	0xbf0c384e	-0.54773414
215	0xbe6e428d	-0.23267575
216	0x3f193e05	0.5986026
217	0x3ec356c1	0.38152125
218	0x3c34ffd5	0.011047323
219	0x3ee5ee60	0.44908428
220	0xbec19fae	-0.37817138
221	0xbe801f16	-0.25023717
222	0x3effb157	0.49939987
223	0x3dd8176a	0.10551341
224	0xbdd498bb	-0.103806935
225	0x3e9cdbdf	0.30636498
226	0xbef34887	-0.4751627
227	0xbee19ffd	-0.44067374
228	0xbdb8d1d1	-0.09024394
229	0xbdbfba19	-0.09361667
230	0x3cd76ccf	0.026297001
231	0x3eb189d3	0.34675464
232	0x3def81bd	0.116946675
233	0xbe0f835c	-0.14014953
234	0x3f1ecc9c	0.6203096
235	0xbd8c9ec9	-0.06866223
236	0x3dce62d8	0.10077447
237	0xbd27a235	-0.040926177
238	0xbed583a3	-0.41701993
239	0x3d31ff77	0.04345652
240	0xbec6ed77	-0.38853046
241	0xbe7a864e	-0.24465296
242	0x3ea21be0	0.31661892
243	0x3e0e79a6	0.13913593
244	0xbf03422b	-0.5127284
245	0xbcb1681a	-0.021656085
246	0x3e984e9a	0.29747468
247	0x3e1e7f65	0.15478285
248	0x3eed0518	0.4629295
249	0x3e12ef1d	0.14349027
250	0x3e91f528	0.28507352
251	0xbe5a4e23	-0.2131887
252	0x3e131867	0.14364778
253	0xbd59b55e	-0.05315148
254	0x3e00d80c	0.12582415
255	0xbe77ac98	-0.24186933

VAE.encoder_mu.layers.1.linear0.bias f4 [128]
0	0xbeaf3ed4	-0.34227622
1	0x3ef87a0e	0.4853062
2	0x3eafaf2d	0.34313336
3	0xbebb74d9	-0.36612585
4	0x3db05cd2	0.08611454
5	0xbe2e6de3	-0.17034106
6	0x3f068326	0.52543867
7	0x3eff3aec	0.4984964
8	0x3e728bf8	0.23686206
9	0xbedd1f27	-0.4318783
10	0xbec12c73	-0.37729225
11	0x3d4f6302	0.05063153
12	0x3eb361ab	0.35035452
13	0xbe9cdff4	-0.30639613
14	0x3f0ca08f	0.5493249
15	0xbee85575	-0.453777
16	0xbec3b757	-0.38225815
17	0x3e52c6be	0.20583627
18	0xbe990e7a	-0.29893857
19	0xbe9844b9	-0.2973993
20	0xbefa769c	-0.48918617
21	0xbeaa10cc	-0.3321594
22	0xbe831dc0	-0.25608635
23	0x3ddd2309	0.10797698
24	0x3e2e7787	0.17037784
25	0x3ec03450	0.3753991
26	0x3d172bfb	0.036907177
27	0x3e8be515	0.27323213
28	0xbd1f20b6	-0.038849555
29	0xbd7cd0af	-0.061722454
30	0xbd0c06cb	-0.034186166
31	0xbef1774a	-0.47161323
32	0xbe3f65bd	-0.18691154
33	0xbe15590f	-0.14584754
34	0x3dcf3496	0.10117452
35	0x3da15ee9	0.07879431
36	0x3e5e2534	0.2169388
37	0xbedb843c	-0.42874324
38	0x3eefaf5b	0.46813473
39	0xbe275d60	-0.16344213
40	0xbefc62bf	-0.49294087
41	0x3e6c80d8	0.23096025
42	0xbed687bd	-0.41900435
43	0xbe21453f	-0.15749072
44	0xbbae0b9a	-0.0053114416
45	0x3ea4524e	0.32094043
46	0xbccb1c65	-0.024793813
47	0xbef65ba9	-0.48116806
48	0x3ed1d964	0.40986168
49	0xbe03d945	-0.1287585
50	0xbc203316	-0.009777805
51	0x3ddd73bb	0.108130895
52	0x3cdbe001	0.026840212
53	0xbe84b453	-0.25918826
54	0xbef8a34e	-0.48562092
55	0x3e87ea52	0.2654596
56	0x3eaf6e2b	0.3426374
57	0x3e55c252	0.20874909
58	0xbe1993a2	-0.14997724
59	0xbebbf491	-0.36710027
60	0x3e43b10b	0.19110505
61	0x3d2e79a4	0.042596474
62	0x3e7a35ba	0.24434558
63	0x3e9e9342	0.30971724
64	0x3d9a8cbd	0.07546375
65	0xbd3c076a	-0.045905508
66	0x3dc083e9	0.0940016
67	0x3bc2d61d	0.0059459344
68	0x3ecd2cda	0.40073282
69	0xbeebb698	-0.46037745
70	0x3ea02d93	0.3128477
71	0x3e8aae04	0.27085888
72	0xbd6d7519	-0.057973
73	0x3e81a8fb	0.25324234
74	0x3f009aa0	0.5023594
75	0x3dfa2424	0.122139245
76	0x3e88479a	0.26617128
77	0xbe39025f	-0.18067311
78	0x3e73f76f	0.23824857
79	0xbebb11bf	-0.36536977
80	0xbd895508	-0.067056715
81	0x3ea2d093	0.31799755
82	0xbd7eb6a4	-0.0621859
83	0x3e7ad179	0.2449397
84	0x3d9c0932	0.07618941
85	0xbdfb3b1d	-0.12267134
86	0xbe959fa1	-0.2922335
87	0x3df88a62	0.121357694
88	0xbd221a9b	-0.039576154
89	0x3c991a85	0.018689403
90	0xbcdaab8f	-0.026693134
91	0x3eedf480	0.464756
92	0xbefb65ec	-0.49101198
93	0xbe89c0ce	-0.2690491
94	0xba9ea054	-0.0012102225
95	0xbec1072a	-0.37700778
96	0xbefdeaee	-0.495933
97	0x3ef6e5dd	0.48222247
98	0x3d47a55f	0.048741695
99	0x3edfaa6e	0.43684715
100	0xbcae098d	-0.021244789
101	0xbe888e2e	-0.26670974
102	0x3e532a5d	0.20621629
103	0xbd4c0f6e	-0.049819402
104	0x3e1f55a3	0.15560012
105	0x3e9210c6	0.28528422
106	0x3ed34e42	0.41270643
107	0xbec8bce0	-0.392066
108	0x3da37758	0.079817474
109	0x3dfed45b	0.12442847
110	0x3de9461f	0.11390328
111	0x3defd3a7	0.11710291
112	0xbe27b99d	-0.163794
113	0x3e380d12	0.17973736
114	0xbed65bf9	-0.41867045
115	0x3e99fcdc	0.3007573
116	0xbeac49b9	-0.33649996
117	0x3ecf2e72	0.40465122
118	0xbe96bff6	-0.2944333
119	0x3f0923e0	0.53570366
120	0x3e96b569	0.2943528
121	0xbec4bf8e	-0.38427395
122	0xbec42db4	-0.3831612
123	0xbe51c342	-0.20484641
124	0x3ef007d9	0.46880987
125	0xbf0699cd	-0.5257843
126	0xbeb66038	-0.35620284
127	0x3efc10fb	0.49231705

VAE.encoder_mu.layers.1.linear1.weight f4 [4, 128]
0	0xbc6abfe7	-0.01432798
1	0x3d81de34	0.0634121
2	0xbc44978b	-0.011999021
3	0xbda377a4	-0.07981804
4	0xbd0499cf	-0.032373246
5	0xbda3f3a4	-0.08005455
6	0x3c35b5a6	0.011090672
7	0x3dddfef8	0.10839647
8	0xbab56196	-0.0013838287
9	0x3ba48616	0.005020867
10	0x3e4cd713	0.2000392
11	0x3cef4ca7	0.029211355
12	0x3c136c03	0.00899792
13	0xbd4735f7	-0.04863545
14	0x3db8bd91	0.09020532
15	0x3e6676bb	0.2250623
16	0xbc96bcb2	-0.018400524
17	0x3c104718	0.008806013
18	0x3e04cbb4	0.12968332
19	0x3dd6fca8	0.10497409
20	0x3df63f46	0.12023787
21	0x3d65e13f	0.056123015
22	0xbaa5d686	-0.0012652434
23	0x3d973d36	0.07384722
24	0xbd32428a	-0.043520488
25	0x3cec19b7	0.028820856
26	0x3d5df416	0.054187857
27	0x3bd0fb28	0.0063775964
28	0x3d2f2c66	0.04276695
29	0xbd3aa31b	-0.045565706
30	0x3d9c7255	0.076389946
31	0x3cc7927a	0.024361838
32	0x3e093293	0.13398199
33	0xbd09ccba	-0.033642508
34	0xbd91c1d7	-0.0711705
35	0xbc929ac0	-0.017896056
36	0xbd69721b	-0.056993585
37	0x3d07a8ad	0.033119846
38	0x3dfe2320	0.12409043
39	0x3d0fe64f	0.03513175
40	0xbd957739	-0.072981305
41	0xbcd867b0	-0.02641663
42	0x3d3383c7	0.043826845
43	0x3a564db9	0.0008175034
44	0xbcf486b7	-0.029849393
45	0xbd85ba83	-0.06529715
46	0xbc8fe07f	-0.017563103
47	0x3e090685	0.13381393
48	0x3bded578	0.00680035
49	0x37b4410a	2.1487958e-05
50	0xbc54fd04	-0.012999777
51	0x3dd367be	0.103225216
52	0xbd49b523	-0.04924501
53	0xbd0d1387	-0.03444245
54	0x3e37be1b	0.17943613
55	0x3dd5065b	0.10401603
56	0x3d0d10f5	0.03444
57	0xbc0bb74a	-0.008527586
58	0x3d09d4b8	0.03365013
59	0x3d5f1117	0.054459658
60	0x3d064a93	0.032785963
61	0x3db9c6c9	0.090711184
62	0x3d9fd9ab	0.07805189
63	0xbd06434b	-0.03277902
64	0xbdb5eb63	-0.08882787
65	0x3c7b87c3	0.015352192
66	0xbbc87b2a	-0.006118198
67	0xbcc1434b	-0.023591658
68	0x3c80ba24	0.015713759
69	0xbd0dd532	-0.034627147
70	0x3d908bf0	0.07057941
71	0x3d9c9cf3	0.07647123
72	0x3d5a5189	0.053300414
73	0x3d580f81	0.05274916
74	0x3d0712ad	0.032976795
75	0xbd05bfae	-0.032653503
76	0xbd968acd	-0.07350693
77	0xbd080a8a	-0.033213176
78	0x3ab1a9bd	0.0013554614
79	0xbd917aa7	-0.07103472
80	0xbaeaa988	-0.0017903307
81	0xbd200428	-0.039066464
82	0x3dc04d07	0.09389692
83	0xbd9aa4ed	-0.07550988
84	0xbd4b9461	-0.049702052
85	0xbd9a33d6	-0.07529418
86	0x3dc2f768	0.09519845
87	0xbcf71082	-0.030159239
88	0x3e134a7f	0.14383887
89	0x3d6db9b8	0.058038443
90	0xbcdc8f7d	-0.02692389
91	0x3c97aded	0.018515551
92	0xbc0c828e	-0.008576049
93	0xbcc80715	-0.02441744
94	0xbd2a2ef9	-0.041548703
95	0xbdfeaff7	-0.124359064
96	0x3e1933de	0.14961192
97	0xbd3d24d4	-0.0461777
98	0xbe2f5000	-0.17120361
99	0xbc72255f	-0.014779418
100	0x3de8c0e6	0.113649175
101	0xbd3c666a	-0.045996107
102	0x3d76d0f1	0.060257856
103	0x3de6269d	0.11237834
104	0x3dbcae01	0.09212876
105	0x3d1102b9	0.035402987
106	0xbd23878b	-0.039924186
107	0xbd42d30d	-0.047564555
108	0x3da81ef8	0.08209032
109	0x3c5acfc6	0.013355201
110	0xbcbd2470	-0.023088664
111	0xbcc1cd1b	-0.023657372
112	0xba9bb9ae	-0.0011880898
113	0x3d420a3f	0.047373053
114	0xbd18f8a9	-0.037346516
115	0x3db9dbbd	0.09075115
116	0xbdc61b54	-0.09673181
117	0x3d5393fb	0.051654797
118	0x3d0857a4	0.033286706
119	0x3c3b41df	0.011429279
120	0xbcdec038	-0.027191266
121	0xbd004048	-0.031311303
122	0x3e1bbf2d	0.15209647
123	0x3d6ee5b7	0.058324542
124	0x3cca24b8	0.024675712
125	0xbd575d55	-0.052579243
126	0xbdcd89b7	-0.10036033
127	0x3ca59750	0.020213753
128	0xbc648a10	-0.013948932
129	0xbc9fd8b9	-0.019512521
130	0xbdabdede	-0.08392118
131	0x3d5b7d03	0.053586017
132	0x3a68ad94	0.0008875963
133	0xbd21382c	-0.03936021
134	0xbdb47073	-0.088105105
135	0xbd9a71a1	-0.07541204
136	0xbcd9c04b	-0.02658095
137	0x3d806dc3	0.062709354
138	0xbd7d39f5	-0.06182285
139	0x3def8366	0.11694984
140	0xbdb18166	-0.08667259
141	0xbd910de9	-0.07082731
142	0xbd80f8ce	-0.06297456
143	0xbec654ad	-0.38736477
144	0x3aeacb84	0.0017913436
145	0x3d8cbca0	0.06871915
146	0x3d9e1360	0.07718539
147	0xbd9d53e9	-0.0768202
148	0x3c892b44	0.016744263
149	0x3d3cc637	0.04608747
150	0x3bcbc984	0.006219091
151	0x3d708353	0.05871899
152	0xbd439e9d	-0.047758687
153	0xbdd60fa6	-0.104522035
154	0x3bcb765d	0.0062091784
155	0x3a315f73	0.0006766237
156	0x3d2bdb14	0.041956976
157	0x3d477d34	0.048703387
158	0xbdcbb15b	-0.09945937
159	0x3c779b70	0.015112743
160	0x3d66fdaf	0.056394275
161	0xbd75b91b	-0.059990983
162	0x3d2cabd6	0.042156063
163	0x3c0e14e3	0.008671972
164	0xbdb6b44b	-0.08921107
165	0x3d9c3d86	0.07628922
166	0x3cd3e57a	0.025866259
167	0x3d8316ee	0.06400858
168	0xbd80efc9	-0.062957354
169	0xbc3dc185	-0.011581783
170	0x3d194e9c	0.037428483
171	0xbd625bae	-0.055263214
172	0xbd81ab9c	-0.0633156
173	0xbdd2a1f4	-0.10284796
174	0x3e1612d5	0.14655621
175	0xbd08213f	-0.03323483
176	0x3dc32189	0.09527881
177	0xbdc238c4	-0.094834834
178	0xbd54aafa	-0.05192087
179	0xb90eb314	-0.00013608887
180	0x3cbca8f7	0.023029787
181	0x3b874e1d	0.004129185
182	0xbd86f0ef	-0.06588923
183	0x3dbcab0d	0.09212313
184	0x3dd0962e	0.101848945
185	0x3d4be2d6	0.049776874
186	0x3e21841c	0.15773052
187	0x383d8659	4.5186232e-05
188	0xbc890bb9	-0.016729223
189	0x3d7a7336	0.06114503
190	0xbdc01935	-0.09379808
191	0x3c22ff10	0.009948507
192	0x3d969076	0.073517725
193	0xbbd1f000	-0.006406784
194	0x3c8092f1	0.015695067
195	0xbd7bbdc2	-0.061460264
196	0xbd7f6893	-0.06235559
197	0xbd9eb01f	-0.07748436
198	0x3d3b0bac	0.045665428
199	0xbc753dcf	-0.01496835
200	0x3c9a65da	0.018847395
201	0xbdab4362	-0.083624616
202	0xbdf22df4	-0.11825171
203	0xbde8e973	-0.11372652
204	0x3d30c4f0	0.043156564
205	0xbd3b7f6c	-0.045775816
206	0x3d34d108	0.04414466
207	0x3ca7aaaa	0.020467121
208	0x3bc837bb	0.006110159
209	0x3d10285b	0.035194736
210	0xbd847be3	-0.06468942
211	0x3c4cbbf6	0.012495985
212	0x3da0f2f5	0.078588404
213	0x3cdc8689	0.02691962
214	0x3c2be6db	0.010492052
215	0xbcd7b61b	-0.026331952
216	0xbd582291	-0.05276734
217	0x3c8ec15d	0.017426187
218	0x3c051684	0.008123044
219	0xbbe9ced4	-0.0071352515
220	0x3d660846	0.056160234
221	0x3d501218	0.050798506
222	0x3cca2ba6	0.024679016
223	0xbcae7f9b	-0.021301081
224	0xbde2a8df	-0.11067366
225	0xbdcc573b	-0.099775754
226	0x3d689078	0.0567784
227	0xbdb159e2	-0.08659722
228	0xbd2eaf4c	-0.042647645
229	0x3d05d11b	0.03267012
230	0x3ce896ac	0.028392158
231	0xbdbd8823	-0.09254482
232	0x3dca12c6	0.09866862
233	0xbd26967c	-0.040670857
234	0xbd6878af	-0.056755718
235	0x3d302d1e	0.043011777
236	0xbce79cd4	-0.028273024
237	0xbd349184	-0.044084087
238	0xbbf965e9	-0.0076110256
239	0x3d326d0c	0.043561026
240	0x3c1542d5	0.009110172
241	0xbd07ef38	-0.03318712
242	0xb8ebc0d6	-0.00011241592
243	0x3dd99e05	0.10625843
244	0xbc752581	-0.014962555
245	0xbe0a4d58	-0.13506067
246	0xbdcfdc6c	-0.10149464
247	0xbda48997	-0.08034056
248	0x3cc61f97	0.024184985
249	0xbdc1795f	-0.09446978
250	0xbd4585ab	-0.04822318
251	0x3d1658bf	0.03670573
252	0xba9839c3	-0.0011613894
253	0x3cc788c4	0.024357207
254	0xbd69f5a8	-0.05711904
255	0xbcc9ad1a	-0.024618674

VAE.encoder_mu.layers.1.linear1.bias f4 [4]
0	0xbd3ffc49	-0.046871457
1	0xbd27ddad	-0.04098289
2	0x3d47dd05	0.048794765
3	0xbdb11d87	-0.0864821

VAE.encoder_mu.layers.1.norm1.weight f4 [4]
0	0x3f89be96	1.0761287
1	0x3f82fb8d	1.0233017
2	0x3f8c1d9c	1.0946536
3	0x3f8809cb	1.0627989

VAE.encoder_mu.layers.1.norm1.bias f4 [4]
0	0x3d302642	0.043005235
1	0xbd0891dc	-0.033342227
2	0x3b107217	0.002204066
3	0xbdcf98e3	-0.10136583

VAE.encoder_mu.layers.1.norm0.weight f4 [4]
0	0x3f7eba13	0.99502677
1	0x3f62a36a	0.885306
2	0x3f5f11ac	0.8713634
3	0x3f6c9d61	0.9242764

VAE.encoder_mu.layers.1.norm0.bias f4 [4]
0	0x3c2ce8fb	0.010553594
1	0xbc816397	-0.015794558
2	0xbcd118f8	-0.025524601
3	0xbcd59eb2	-0.026076648

VAE.encoder_mu.last_normalization.weight f4 [4]
0	0x3f800000	1.0
1	0x3f800000	1.0
2	0x3f800000	1.0
3	0x3f800000	1.0

VAE.encoder_mu.last_normalization.bias f4 [4]
0	0x00000000	0.0
1	0x00000000	0.0
2	0x00000000	0.0
3	0x00000000	0.0

VAE.encoder_mu.head.weight f4 [4, 4]
0	0xbed5fed6	-0.41795987
1	0x3eabfaf8	0.3358991
2	0xbea5a200	-0.3235016
3	0x3cd94500	0.02652216
4	0xbe259db4	-0.1617344
5	0xbec7d28c	-0.39027822
6	0x3e961166	0.2931015
7	0x3ee33936	0.44379586
8	0xbd324140	-0.04351926
9	0xbeed0e54	-0.46299994
10	0xbec0abf4	-0.3763119
11	0xbe0be0bc	-0.13659948
12	0xbe958d66	-0.2920944
13	0xbd612420	-0.054966092
14	0x3ebacb20	0.36483097
15	0x3ecb7f12	0.39745384

VAE.encoder_mu.head.bias f4 [4]
0	0x3ed710ea	0.42005092
1	0xbee67096	-0.4500777
2	0x3ea8ca08	0.32966638
3	0x3da8a590	0.082347035

VAE.encoder_logvar.layers.0.attention.W_q.weight f4 [4, 4]
0	0x3ed19f94	0.4094206
1	0x3e3ce8a5	0.18448122
2	0x3c07f17c	0.00829732
3	0xbe4613a4	-0.1934343
4	0xbdcb5f84	-0.099303275
5	0x3eca4acd	0.39510193
6	0x3ca60d97	0.020270152
7	0xbed461bd	-0.41480818
8	0xbe4b8132	-0.19873503
9	0x3e360906	0.1777688
10	0x3d50ba26	0.050958775
11	0xbe8665ca	-0.26249534
12	0xbe20053b	-0.15626995
13	0xbe96906d	-0.29407063
14	0x3e6331a4	0.22186905
15	0xbe27c8f5	-0.16385253

VAE.encoder_logvar.layers.0.attention.W_q.bias f4 [4]
0	0x3ae8c2ce	0.0017758252
1	0xbda1f65f	-0.0790832
2	0xbc81b562	-0.01583356
3	0xbd415449	-0.04719952

VAE.encoder_logvar.layers.0.attention.W_k.weight f4 [4, 4]
0	0x3e8aef4b	0.2713569
1	0xbe2f5c69	-0.17125095
2	0x3f01c7fb	0.5069577
3	0xbdcccdbc	-0.10000178
4	0xbe3c2756	-0.1837438
5	0x3ec0e1a3	0.37672147
6	0xbefb16d2	-0.49040848
7	0xbed1edce	-0.41001743
8	0x3ed8297e	0.42219156
9	0xbedaad86	-0.42710513
10	0x3da5ecd8	0.08101815
11	0x3e862f8e	0.26208156
12	0x3e251b5a	0.16123715
13	0xbe856d41	-0.26059917
14	0x3d9feb33	0.078085326
15	0xbd00ae3c	-0.031416163

VAE.encoder_logvar.layers.0.attention.W_k.bias f4 [4]
0	0xb823f1f1	-3.9087554e-05
1	0xb85e1c74	-5.2955424e-05
2	0x38a78835	7.988551e-05
3	0xb939b2c2	-0.00017709567

VAE.encoder_logvar.layers.0.attention.W_v.weight f4 [4, 4]
0	0x3e259e61	0.16173698
1	0xbe1a8d77	-0.15093027
2	0x3ebb9894	0.36639845
3	0xbe4df133	-0.20111541
4	0x3ed94c22	0.42440897
5	0xbe673484	-0.22578627
6	0xbd8479dc	-0.06468555
7	0xbedd5a01	-0.4323273
8	0x3e15c84d	0.1462719
9	0x3e821236	0.2540452
10	0x3ef35d8b	0.47532305
11	0xbe2e984f	-0.17050289
12	0x3e859bf1	0.26095536
13	0xbd93abdc	-0.07210514
14	0xbebbae72	-0.3665653
15	0xbee94579	-0.45560816

VAE.encoder_logvar.layers.0.attention.W_v.bias f4 [4]
0	0xbcb4dcda	-0.022077966
1	0x3c837e5f	0.01605147
2	0xbc2030b0	-0.009777233
3	0xbd2f4338	-0.042788714

VAE.encoder_logvar.layers.0.linear0.weight f4 [128, 4]
0	0x3eb1ac76	0.3470189
1	0xbe91e26e	-0.28493065
2	0x3e9f4c29	0.31112793
3	0x3e976aca	0.2957366
4	0x3e86c05a	0.26318628
5	0x3f00cfca	0.5031706
6	0xbf0828f9	-0.5318752
7	0x3d8aa2cd	0.06769333
8	0xbed747bf	-0.42046925
9	0x3f1d5b89	0.61467797
10	0xbf0db3ba	-0.55352366
11	0x3e27ac01	0.16374208
12	0xbe8e8cf6	-0.2784192
13	0xbeb440e4	-0.35205758
14	0x3c7be982	0.015375497
15	0x3ecade66	0.39622802
16	0xbee8d845	-0.454775
17	0xbe0dcf08	-0.13848507
18	0x3d31d7e1	0.04341877
19	0x3ef49d1e	0.4777612
20	0xbe3337af	-0.1750171
21	0xbd333a27	-0.04375663
22	0xbed1ed6f	-0.4100146
23	0x3f0cded1	0.5502749
24	0xbe43954e	-0.19099924
25	0xbe8575d9	-0.26066473
26	0x3deb4d48	0.114893496
27	0xbeec85c5	-0.46195808
28	0xbf15be0b	-0.5849311
29	0x3f0e088b	0.55481786
30	0xbdb4982d	-0.08818088
31	0xbdb6177d	-0.08891199
32	0x3f1008fb	0.56263703
33	0xbe975bb7	-0.2956216
34	0xbead1393	-0.33803996
35	0x3e61a0a1	0.22033931
36	0xbeda20ec	-0.42603242
37	0xbea54098	-0.32275844
38	0xbf070880	-0.52747345
39	0x3dc7cb6c	0.097555965
40	0x3ed0c239	0.4077318
41	0xbe90f5e4	-0.283126
42	0x3eb0e025	0.3454601
43	0xbec15ae3	-0.37764654
44	0x3f082c39	0.5319248
45	0x3e8f710d	0.28015938
46	0x3ef3710f	0.47547194
47	0xbebc713b	-0.36805138
48	0x3e041dc3	0.12901978
49	0xbe8a4f55	-0.2701365
50	0xbf0982da	-0.5371529
51	0x3c5184b9	0.012787991
52	0x3ea41f29	0.32055023
53	0xbe74f4d2	-0.23921517
54	0x3e7a8b1c	0.24467129
55	0xbea38ccc	-0.31943357
56	0xbe3d99a4	-0.1851564
57	0xbe6d2a5e	-0.23160693
58	0xbe144737	-0.14480291
59	0x3ed62b59	0.41829947
60	0x3e6d32ee	0.2316396
61	0x3ed1cb99	0.40975645
62	0xbe870afe	-0.26375574
63	0xbde5853c	-0.11207053
64	0xbe144f0e	-0.14483282
65	0xbdf70202	-0.1206093
66	0x3ef1e471	0.472446
67	0xbedbb21e	-0.4290933
68	0xbde0e5a6	-0.10981302
69	0x3e76d665	0.24105223
70	0xbb760047	-0.0037536786
71	0x3ed50b9c	0.4161042
72	0x3dbb62a3	0.09149673
73	0x3ee7216b	0.45142683
74	0x3dbce973	0.092242144
75	0x3e6b34e8	0.22969401
76	0xbe29d718	-0.16585958
77	0x3ee9682e	0.45587295
78	0xbea7949f	-0.32730576
79	0xbe914a39	-0.2837694
80	0x3ea078ae	0.3134207
81	0x3f08738e	0.5330132
82	0xbe8c4271	-0.2739444
83	0x3e40d44d	0.18830986
84	0x3d8b1657	0.0679137
85	0x3de46ecb	0.111539446
86	0x3e8ebc37	0.27877972
87	0x3da1fc1b	0.079094134
88	0x3f0ccc1f	0.54998964
89	0xbd5b9186	-0.05360558
90	0xbece6d25	-0.40317646
91	0x3deef4f2	0.11667813
92	0x3e5bcbd9	0.2146448
93	0x3da07f28	0.07836753
94	0xbe466be2	-0.19377092
95	0xbeb79c94	-0.35861647
96	0xbee4ae12	-0.44664055
97	0xbe8ac21e	-0.27101225
98	0xbcd26779	-0.025684105
99	0x3e5298a1	0.20566036
100	0x3ea1bf0c	0.3159107
101	0x3da10bf7	0.0786361
102	0xbf03c640	-0.5147438
103	0x3dad7952	0.08470406
104	0x3e3bde4c	0.18346518
105	0x3c3c6a49	0.01149995
106	0xbe79f946	-0.24411497
107	0x3d8ee3b4	0.06977025
108	0x3e2cf7fd	0.16891475
109	0x3ee71e68	0.45140386
110	0xbebf0690	-0.37309694
111	0x3e896cba	0.26840764
112	0x3efbd504	0.49185956
113	0xbe99b89d	-0.3002366
114	0x3ca7230b	0.020402452
115	0xbe539fd8	-0.20666444
116	0x3e2e66a2	0.17031339
117	0x3e89dc36	0.2692582
118	0xbeb264b5	-0.34842458
119	0x3e2e226d	0.1700532
120	0xbe8cb5ac	-0.27482355
121	0x3e353c3a	0.17698756
122	0xbf15b7d4	-0.58483624
123	0x3edac896	0.4273116
124	0xbe7e9c2a	-0.2486426
125	0x3eeddedd	0.46459094
126	0x3ef9180c	0.4865116
127	0x3da28dc3	0.07937195
128	0x3ec6e89b	0.3884934
129	0x3d3141dd	0.043275703
130	0x3d82633a	0.06366582
131	0x3e2f7896	0.17135844
132	0xbe588d89	-0.21147741
133	0x3e8d1310	0.27553606
134	0xbeeadadb	-0.45870098
135	0xbec5a41f	-0.38601777
136	0xbe7ffded	-0.24999209
137	0x3eaae520	0.33377934
138	0xbef630c3	-0.48084077
139	0x3e94c62a	0.29057437
140	0x3baf6c72	0.005353504
141	0x3eb1d93c	0.3473605
142	0xbf17bed9	-0.59275585
143	0x3eb09c89	0.34494427
144	0x3d31058a	0.043218173
145	0x3eae82f9	0.340843
146	0x3eb4cb1d	0.35311213
147	0x3ecdfd6a	0.40232402
148	0xbe81e5a3	-0.2537051
149	0x3e4dd7a1	0.20101787
150	0x3ed7d7ae	0.42156738
151	0x3d7f68d1	0.06235582
152	0xbd9b91e2	-0.07596184
153	0xbeb81121	-0.35950568
154	0x3eb1af5a	0.34704095
155	0x3df84417	0.12122362
156	0xbef85b9a	-0.48507386
157	0xbf02f9dd	-0.5116251
158	0xbcc4c3f4	-0.024019219
159	0x3dc5f44c	0.096657366
160	0x3ed93ba7	0.42428324
161	0xbb4b906f	-0.003106143
162	0x3e8f1608	0.27946496
163	0xbd817056	-0.063202545
164	0xbdcfc64e	-0.101452455
165	0x3ea76ffd	0.32702628
166	0xbef03668	-0.4691651
167	0xbd5e8298	-0.054323763
168	0x3f094ac9	0.5362974
169	0x3e2133c4	0.15742403
170	0xbe03a6e5	-0.12856634
171	0x3e15083d	0.14553924
172	0x3e2aaf57	0.1666845
173	0x3eebfb60	0.4609022
174	0x3ec0e364	0.37673485
175	0xbd099eef	-0.033598837
176	0x3e72179b	0.23641817
177	0x3e5210a1	0.20514156
178	0xbecfa670	-0.4055667
179	0xbe9a971c	-0.30193412
180	0x3e8fc4ff	0.28079984
181	0xbe2f93c4	-0.17146212
182	0x3ecc5973	0.39911994
183	0x3f0d523f	0.5520362
184	0x3de5377c	0.111922234
185	0xbe7e48e6	-0.24832496
186	0x3e967020	0.2938242
187	0xbe923e52	-0.28563172
188	0x3e9d9751	0.30779508
189	0xbebb33d9	-0.36562994
190	0x3d6d2e2d	0.057905365
191	0x3e4a149c	0.19734424
192	0x3eb8603f	0.3601093
193	0xbe6b432d	-0.22974844
194	0xbe4829d6	-0.19547209
195	0xbdcb2a62	-0.09920193
196	0x3e01eb19	0.12687339
197	0xbc494b2b	-0.012285988
198	0xbe8dc4ec	-0.27689302
199	0x3eb462c8	0.35231614
200	0x3ddbc3c0	0.10730696
201	0xbd8546b2	-0.06507625
202	0x3e7890e3	0.2427402
203	0x3ebaac72	0.3645969
204	0x3ef69b56	0.48165387
205	0x3f05c245	0.52249557
206	0xbeeff9b9	-0.4687021
207	0x3f0cba5b	0.54971856
208	0x3d82e082	0.06390478
209	0x3e8defb8	0.27721953
210	0x3ecab177	0.3958852
211	0xbe83e75b	-0.25762448
212	0xbe530688	-0.2060796
213	0xbdd61472	-0.104531184
214	0xbe9271a3	-0.28602323
215	0x3ef7bdf0	0.48387098
216	0xbe47d89b	-0.19516222
217	0xbeb34492	-0.35013252
218	0x3dffc3d6	0.124885246
219	0xbdcfbf40	-0.101439
220	0x3ee78798	0.45220637
221	0x3dfaa8ba	0.12239213
222	0xbe10978f	-0.14120315
223	0x3f065560	0.5247402
224	0x3d0e7d32	0.034787364
225	0xbe4e9af2	-0.20176294
226	0x3d72e827	0.05930343
227	0x3ee999ee	0.45625252
228	0x3e1ff6aa	0.15621439
229	0xbddf10b4	-0.10891858
230	0x3e86d8cc	0.26337278
231	0x3ef39ddf	0.47581384
232	0x3e54a917	0.20767628
233	0xbde2c1d4	-0.11072126
234	0x3e37c231	0.17945172
235	0xbe715a13	-0.23569517
236	0x3ebe74fe	0.37198633
237	0xbd72884b	-0.05921201
238	0xbeb20281	-0.34767535
239	0xbce017dc	-0.027355127
240	0xbde2a8b5	-0.110673346
241	0xbf077986	-0.52919805
242	0x3d5eda8d	0.054407645
243	0x3ed80ef3	0.42198905
244	0xbe9bf6cf	-0.30461738
245	0x3e87a604	0.26493847
246	0xbe86c5c3	-0.26322755
247	0x3ed3e99d	0.4138917
248	0x3d5a0025	0.053222794
249	0xbcf6a9b2	-0.030110214
250	0xbede92d0	-0.43471384
251	0xbde24384	-0.11048034
252	0xbe6055b2	-0.2190769
253	0x3ecbfef8	0.39842963
254	0xbe3979eb	-0.18112914
255	0xbdff391d	-0.12462065
