tabsyn/vae/ckpt/diabetes/model.pt (torch, 62249 bytes, 96 tensors)

VAE.Tokenizer.weight f4 [9, 4]
0	0x3c8228b0	0.015888542
1	0x3f1965dc	0.5992105
2	0x3e4a6e1d	0.19768567
3	0xbeb6e1fe	-0.35719293
4	0xbdede8e9	-0.1161669
5	0x3e170376	0.14747414
6	0x3e1c388b	0.15255944
7	0xbea1d963	-0.31611165
8	0x3e51866c	0.20461434
9	0x3f086933	0.5328552
10	0x3e302312	0.17200878
11	0x3da54303	0.08069422
12	0x3d3ff6fd	0.046866406
13	0xbe3d3b67	-0.18479691
14	0xbee5fed9	-0.44920996
15	0xbdb5c164	-0.08874777
16	0x3e5e5be1	0.21714737
17	0x3eb21831	0.34784082
18	0x3f03a0ee	0.51417434
19	0xbeac9040	-0.33703804
20	0xbe079550	-0.13240552
21	0xbe415e04	-0.1888352
22	0x3cc2cf90	0.023780614
23	0xbe91d21a	-0.28480607
24	0xbe2d474b	-0.16921727
25	0xbe36ddd5	-0.1785806
26	0xbe3ca181	-0.18420984
27	0x3efcefd4	0.49401724
28	0x3dad0267	0.08447724
29	0xbd2fc439	-0.042911742
30	0xbe1e9525	-0.15486582
31	0x3e449295	0.19196542
32	0xbdada2eb	-0.0847834
33	0xbe90f577	-0.28312275
34	0x3dd393fd	0.10330961
35	0x3e0b2af4	0.13590604

VAE.Tokenizer.bias f4 [9, 4]
0	0xbd2a59fc	-0.041589722
1	0x3f09eb13	0.5387432
2	0xbe94e883	-0.29083642
3	0x3e958ee6	0.29210585
4	0x3f12a0d2	0.5727664
5	0x3bc19216	0.0059073074
6	0x3e6cb467	0.23115693
7	0x3ea48e5e	0.32139868
8	0x3eac3530	0.3363433
9	0x3ddc9a96	0.107716724
10	0xbd83c077	-0.06433194
11	0xbeeac9ba	-0.4585703
12	0x3ca44c47	0.020055903
13	0xbecaf265	-0.39638057
14	0x3d9ac37f	0.07556819
15	0xbe7696fd	-0.24081035
16	0x3ed6702a	0.4188245
17	0xbe4978a3	-0.19674926
18	0xbe3c12dc	-0.1836657
19	0x3ed87fd2	0.4228502
20	0xbeaa4b4f	-0.3326058
21	0x3f51d10b	0.819596
22	0xbf34b26e	-0.7058476
23	0xbebf80ac	-0.37402856
24	0x3edf407f	0.43603894
25	0xbb05848f	-0.00203732
26	0xbed8a636	-0.4231431
27	0x3eaf5fa1	0.34252647
28	0x3e9f0504	0.31058514
29	0xbef2da61	-0.47432235
30	0xbed574ad	-0.4169058
31	0xbe461ca6	-0.19346866
32	0xbe9c3f2a	-0.3051694
33	0x3d80498d	0.06264029
34	0x3cc564bb	0.024095884
35	0x3e72c196	0.2370666

VAE.Tokenizer.category_embeddings.weight f4 [2, 4]
0	0x3dcc96d6	0.09989707
1	0x3e79091b	0.2431988
2	0x3cf030ec	0.029320203
3	0x3e334423	0.17506461
4	0xbf0ce2ed	-0.5503376
5	0x3dd1708f	0.10226547
6	0x3d844162	0.06457783
7	0xbe273d01	-0.16331865

VAE.encoder_mu.layers.0.attention.W_q.weight f4 [4, 4]
0	0x3ed49f33	0.4152771
1	0x3e6a4473	0.22877674
2	0xbed9e70c	-0.42559087
3	0xbd7b5265	-0.061357874
4	0xbed4358c	-0.41447103
5	0xbed9fb7b	-0.42574677
6	0x3ec90248	0.39259553
7	0x3e6da114	0.23205978
8	0xbee3df05	-0.44506088
9	0xbee7d79f	-0.45281693
10	0x3ebd5368	0.36977696
11	0xbe5852d1	-0.21125342
12	0x3edf2c21	0.43588355
13	0x3e991591	0.29899266
14	0x3ebcac0f	0.3685002
15	0xbeeb8581	-0.46000293

VAE.encoder_mu.layers.0.attention.W_q.bias f4 [4]
0	0x3dfe73ab	0.12424406
1	0xbddc9d51	-0.10772193
2	0x3d84837f	0.064703934
3	0xbe078403	-0.13233952

VAE.encoder_mu.layers.0.attention.W_k.weight f4 [4, 4]
0	0xbe2cb5a4	-0.16866165
1	0x3e89963a	0.26872426
2	0x3ab3b0e8	0.0013709338
3	0xbe27d667	-0.16390382
4	0x3e85542d	0.26040784
5	0xbf0baa08	-0.5455632
6	0xbe8c0d3f	-0.27353856
7	0x3e791535	0.24324496
8	0xbe1273e4	-0.14302021
9	0xbeea6793	-0.45782146
10	0x3e246ecc	0.1605789
11	0xbe6957de	-0.22787425
12	0x3d291efd	0.04128932
13	0x3e960019	0.2929695
14	0x3eee5c8c	0.46554983
15	0x3eaad291	0.33363774

VAE.encoder_mu.layers.0.attention.W_k.bias f4 [4]
0	0xb9a75c0a	-0.00031921297
1	0xb8744a43	-5.8243295e-05
2	0xb968eda8	-0.00022213778
3	0xba90069f	-0.0010988301

VAE.encoder_mu.layers.0.attention.W_v.weight f4 [4, 4]
0	0x3eb51274	0.3536564
1	0x3ec6b572	0.38810307
2	0xbe675578	-0.22591197
3	0x3e2c4ed5	0.16826947
4	0xbce9d120	-0.028542101
5	0x3d2518a5	0.040306706
6	0x3e3919c2	0.18076232
7	0x3d65ab84	0.056071773
8	0xbce61928	-0.028088167
9	0xbde359e4	-0.1110113
10	0x3ea10258	0.314471
11	0x3d06f088	0.032944232
12	0x3e86b494	0.26309645
13	0xbce83004	-0.028343208
14	0x3e6a168f	0.22860168
15	0x3e2e6e75	0.17034324

VAE.encoder_mu.layers.0.attention.W_v.bias f4 [4]
0	0x3e1f2383	0.1554089
1	0x3db83e96	0.08996312
2	0xbdca5177	-0.098788194
3	0xbd84250d	-0.064523794

VAE.encoder_mu.layers.0.linear0.weight f4 [128, 4]
0	0x3e924543	0.28568467
1	0x3e9645e6	0.29350203
2	0x3e7a6ab8	0.24454772
3	0x3e1f7407	0.15571605
4	0x3ee5652f	0.4480376
5	0xbd1e2c13	-0.03861625
6	0x3e224937	0.15848242
7	0xbefcbbbe	-0.49361986
8	0xbee923cc	-0.45535123
9	0x3ce0456b	0.027376851
10	0xbec0d873	-0.37665138
11	0x3e4d8eff	0.2007408
12	0x3bd441ed	0.0064775855
13	0xbeb056f8	-0.34441352
14	0x3eac2e06	0.33628863
15	0xbe97c477	-0.29642078
16	0x3f029c80	0.5102005
17	0xbeef6e6c	-0.46763933
18	0xbf0d46b9	-0.5518604
19	0x3ecfe098	0.4060104
20	0xbec742d5	-0.38918176
21	0xbef1eb42	-0.472498
22	0xbdd81b73	-0.105521105
23	0x3ed2ea45	0.41194358
24	0x3ee94f4e	0.45568317
25	0x3f09711f	0.53688234
26	0xbe8e1c97	-0.27756187
27	0x3dc9bd77	0.09850591
28	0x3d28ec2e	0.041240864
29	0xbf032f38	-0.51243925
30	0x3e9358c2	0.28778654
31	0x3dd6ed7b	0.104945146
32	0xbdbf0daf	-0.09328782
33	0xbee4fc95	-0.44723955
34	0xbeafecc5	-0.34360328
35	0x3e2c17bf	0.16805933
36	0x3ed24c59	0.41073874
37	0x3e8cd8d0	0.27509165
38	0xbd350d46	-0.04420211
39	0x3e1671b6	0.14691815
40	0xbed723bd	-0.42019454
41	0x3d3baf76	0.04582163
42	0x3ed86ceb	0.42270598
43	0x3e8a3311	0.26992086
44	0xbef1c1b4	-0.47218096
45	0x3ea1e3af	0.3161902
46	0xbc79da51	-0.015249805
47	0x3e3c199f	0.18369149
48	0xbdd2f16c	-0.10299954
49	0xbed874da	-0.4227665
50	0xbeb90d77	-0.36143085
51	0x3cbb1edf	0.022841869
52	0x3f0203de	0.5078715
53	0x3e72b029	0.23700012
54	0x3e7b1e48	0.2452327
55	0x3e286392	0.16444233
56	0xbcc65f68	-0.024215415
57	0x3ec0f6ff	0.37688443
58	0xbd162bb8	-0.036662787
59	0x3e9a3eb6	0.3012597
60	0x3d7d6b65	0.061869998
61	0x3ec681b1	0.38770822
62	0xbe5121f9	-0.20423116
63	0x3e954e2d	0.29161206
64	0xbecf2835	-0.40460363
65	0xbda0ddc9	-0.07854802
66	0x3ed44b28	0.4146359
67	0x3e7777b3	0.24166755
68	0x3e9d2068	0.30688787
69	0x3eb93d65	0.36179653
70	0xbbfce189	-0.0077173156
71	0xbe710d60	-0.23540258
72	0xbd57601d	-0.052581895
73	0x3eb15689	0.34636334
74	0x3e43594b	0.19077031
75	0xbef9bfb3	-0.48779067
76	0x3ef1a945	0.47199455
77	0xbf07d389	-0.5305715
78	0xbe1ac8c0	-0.15115643
79	0xbd8a5a6d	-0.067555286
80	0xbeac1ce9	-0.33615807
81	0x3ea0dde8	0.314193
82	0xbf0ede2b	-0.5580775
83	0x3dfcbe4e	0.12340985
84	0xbf06109e	-0.52369106
85	0x3dc68d28	0.09694892
86	0xbf0142b7	-0.50492424
87	0xbe7d4b26	-0.24735698
88	0x3d96e11a	0.073671535
89	0xbf0f88d9	-0.5606819
90	0x3e483e69	0.19555058
91	0x3e8d5f29	0.27611664
92	0x3ed740a8	0.42041516
93	0xbd15712b	-0.03648488
94	0x3ec111f0	0.37708998
95	0xbe19ed7d	-0.15032001
96	0xbe8f08f8	-0.2793653
97	0xbec3c346	-0.3823492
98	0x3eca50d8	0.39514804
99	0xbd64c567	-0.05585232
100	0xbefaa6c0	-0.48955345
101	0xbddd1709	-0.10795409
102	0x3d460cf5	0.0483522
103	0xbeb5b4c8	-0.35489488
104	0x3e8a697a	0.27033597
105	0xbebc5c39	-0.3678911
106	0xbd0bc2d1	-0.03412134
107	0xbdec3677	-0.11533826
108	0xbe64a853	-0.22329836
109	0x3d3bb1fe	0.045824043
110	0xbeac1666	-0.3361084
111	0x3ed45a36	0.41475075
112	0xbeedd34f	-0.46450278
113	0x3ce84d1e	0.028357085
114	0x3e43d378	0.19123638
115	0x3e045182	0.12921718
116	0x3dc1d2f5	0.09464065
117	0xbe010c45	-0.12602337
118	0x3f0847ef	0.5323476
119	0xbcd27569	-0.025690751
120	0xbce465d6	-0.02788059
121	0x3e27173f	0.16317461
122	0x3e8660a2	0.262456
123	0x3deb54b4	0.11490765
124	0x3e2aba13	0.16672544
125	0xbc0fe4b9	-0.008782559
126	0x3ef70097	0.48242638
127	0xbe96a39b	-0.29421696
128	0x3d16377c	0.036674008
129	0x3ed67a91	0.41890386
130	0x3ef8af63	0.4857131
131	0xbe4be096	-0.19909891
132	0x3e99b4af	0.30020663
133	0x3e7b3f0d	0.2453577
134	0xbe89740f	-0.26846358
135	0x3e36bf0c	0.17846316
136	0x3e10ee7e	0.14153478
137	0x3e1c8310	0.15284371
138	0xbe80c9fa	-0.25154096
139	0xbd6a1a68	-0.05715409
140	0x3ef1e6df	0.47246453
141	0xbd05c633	-0.03265972
142	0x3e5cb863	0.21554713
143	0x3e8257b1	0.25457528
144	0xbe7f1bb8	-0.24912918
145	0xbe89bb8b	-0.26900896
146	0x3ec39ee5	0.38207164
147	0x3d25e1b2	0.040498443
148	0xbed0d01d	-0.40783778
149	0xbedea0b4	-0.43481982
150	0xbf016385	-0.5054248
151	0xbec55022	-0.385377
152	0xbe17e041	-0.1483164
153	0x3dab69c1	0.0836978
154	0xbe8add3f	-0.27121922
155	0x3e448c97	0.19194256
156	0x3c05c8dd	0.008165565
157	0x3ee66f8a	0.45006973
158	0xbee3384f	-0.44378898
159	0xbd410a95	-0.047129232
160	0x3ed6304c	0.41833723
161	0x3ea577f9	0.32318094
162	0xbe453a52	-0.19260529
163	0xbcf8da04	-0.030377395
164	0xbc6a42f2	-0.014298188
165	0x3e895935	0.26825872
166	0x3f0a8a5b	0.54117364
167	0x3dd84843	0.10560658
168	0xbe58359b	-0.21114199
169	0x3b408ed6	0.0029382012
170	0xbdc2a375	-0.09503833
171	0x3d35b732	0.04436416
172	0xbe810309	-0.25197628
173	0xbd7fcc61	-0.06245077
174	0xbca8cb8c	-0.020604871
175	0x3e666d3b	0.22502606
176	0xbef8551f	-0.48502442
177	0x3eb55aa2	0.3542071
178	0xbdd91caf	-0.10601174
179	0xbe87d297	-0.26527855
180	0xbeac650a	-0.33670837
181	0xbe86d420	-0.26333714
182	0xbe735ddc	-0.23766273
183	0xbe227970	-0.15866637
184	0x3e922adf	0.28548333
185	0xbe0118a4	-0.12607056
186	0x3ed690f0	0.41907454
187	0x3ed5304a	0.41638404
188	0xbdf874b4	-0.12131634
189	0x3e957a10	0.2919469
190	0xbe980916	-0.29694432
191	0x3eb86e06	0.3602144
192	0xbe8b3d92	-0.27195412
193	0x3efd5030	0.4947524
194	0x3eb12620	0.345994
195	0x3eda62b7	0.42653438
196	0xbec28069	-0.37988594
197	0xbeaedf3d	-0.34154692
198	0x3e8d190d	0.27558175
199	0xbcb46e43	-0.022025233
200	0x3e896825	0.26837268
201	0xbe79aab9	-0.24381532
202	0x3e2adac1	0.1668501
203	0x3e6d22c2	0.2315779
204	0xbe401bd8	-0.18760622
205	0xbe883f58	-0.26610827
206	0xbe0da229	-0.1383139
207	0x3ecc347f	0.398838
208	0x3e56acbf	0.20964335
209	0xbeaf7be6	-0.34274215
210	0xbe6e5039	-0.2327279
211	0xbe7c7ad2	-0.24656227
212	0xbf0fd34a	-0.56181777
213	0x3d91c30d	0.07117281
214	0xbe2b6c41	-0.16740514
215	0xbe91c926	-0.28473777
216	0xbf277b69	-0.65422684
217	0xbec0d3db	-0.37661633
218	0x3ee379ea	0.4442895
219	0xbe4ff1ae	-0.20307037
220	0x3f10f874	0.5662911
221	0xbefef19b	-0.49793705
222	0x3dfed1a6	0.12442331
223	0xbd1ee75c	-0.03879486
224	0x3ea53bef	0.32272288
225	0x3ec94194	0.39307845
226	0xbdcba813	-0.09944167
227	0xbeab7d23	-0.3349391
228	0x3d950b79	0.07277579
229	0x3efbb863	0.49164113
230	0xbdf37804	-0.118881255
231	0x3e0fafd1	0.14031912
232	0xbedd2edc	-0.43199813
233	0xbeda87fa	-0.42681867
234	0xbc8b626d	-0.017014707
235	0xbec0ca38	-0.3765428
236	0x3e9eac55	0.30990854
237	0xbdf4db32	-0.11955871
238	0xbd55b2be	-0.052172415
239	0xbe8a2a85	-0.26985565
240	0x3d148c44	0.03626658
241	0x3e5b05ac	0.21388882
242	0xbedec57a	-0.43510038
243	0x3eb59503	0.3546525
244	0x3e11db42	0.14243796
245	0x3e5e5675	0.21712668
246	0xbe78e22d	-0.24305029
247	0x3e3a7fa6	0.18212757
248	0xbd8cce51	-0.06875289
249	0x3ed0d428	0.40786862
250	0xbe31160b	-0.17293565
251	0x3cf0d860	0.02940005
252	0xbe8c4857	-0.2739894
253	0x3eecb083	0.46228418
254	0xbedfecc5	-0.43735328
255	0xbec7d972	-0.39033085

VAE.encoder_mu.layers.0.linear0.bias f4 [128]
0	0xbe9c2853	-0.30499515
1	0xbe9ae10e	-0.30249828
2	0x3ac98b92	0.0015376678
3	0xbe1a5784	-0.15072447
4	0xbe49110d	-0.1963541
5	0x3ed15e21	0.40892127
6	0xbed16961	-0.4090071
7	0x3e166e9b	0.1469063
8	0xbe5068fe	-0.20352551
9	0x3ec7832f	0.38967273
10	0xbe83009a	-0.25586396
11	0xbcd4b7be	-0.025966521
12	0xbec8440f	-0.39114425
13	0x3ed0c14b	0.4077247
14	0xbe05a195	-0.1304992
15	0x3eae6e53	0.34068546
16	0xbe004d56	-0.12529501
17	0xbe943f30	-0.28954458
18	0x3e86696f	0.26252314
19	0xbe61f994	-0.22067863
20	0xbe197d5e	-0.1498923
21	0xbe774334	-0.2414673
22	0xbe68bb75	-0.22727759
23	0x3e3c1b90	0.1836989
24	0xbf0558a1	-0.5208836
25	0x3e92bf55	0.286616
26	0x3e85499d	0.26032725
27	0xbedfef30	-0.43737173
28	0xbe6abd7f	-0.2292385
29	0x3ed0685c	0.4070462
30	0xbeb6da34	-0.3571335
31	0xbe486aa9	-0.19571938
32	0x3ea175a0	0.31535053
33	0xbef3f6e0	-0.47649288
34	0xbe9923a2	-0.29909998
35	0x3d90257c	0.070383996
36	0xbebae5ff	-0.36503598
37	0x3f027053	0.50952643
38	0x3d8fc95e	0.070208296
39	0x3e0e2698	0.1388191
40	0x3e9f4cc7	0.31113264
41	0x3e86ee69	0.26353768
42	0x3ecf7776	0.4052083
43	0x3f0a4683	0.5401384
44	0xbbd91dd5	-0.0066258707
45	0xbe9dd458	-0.30826068
46	0x3e8e17ea	0.2775262
47	0xbdd8b2c7	-0.10580974
48	0xbed41908	-0.41425347
49	0xbe9046f0	-0.2817912
50	0xbe89ee84	-0.26939785
51	0xbed201a7	-0.41016886
52	0x3f0cec82	0.5504838
53	0x3dc5eb1e	0.09663986
54	0x3ea09b08	0.3136828
55	0xbdb5c73e	-0.08875893
56	0xbecdcaa5	-0.40193668
57	0xbe77046f	-0.24122785
58	0x3e878080	0.26465225
59	0x3eec7a1f	0.4618692
60	0xbed0e6a3	-0.40800962
61	0x3e7e32bc	0.24824041
62	0x3d4372b7	0.047716822
63	0x3ea1c056	0.31592053
64	0x3e057d3d	0.13036056
65	0x3e8cf41c	0.2752999
66	0xbd41a121	-0.047272805
67	0x3dd0bdeb	0.10192474
68	0xbecd5a60	-0.40108013
69	0x3e750595	0.2392791
70	0x3e1e4155	0.1545461
71	0xbef0a049	-0.46997288
72	0xbb9081ea	-0.004410018
73	0xbe732484	-0.23744398
74	0xbdd52649	-0.10407693
75	0xbea8db75	-0.32979932
76	0xbe963aab	-0.29341635
77	0x3e395df4	0.18102247
78	0xbe76cda3	-0.24101882
79	0x3ec71d31	0.3888946
80	0x3ececaf5	0.4038922
81	0x3dc49110	0.09597981
82	0x3dc06c30	0.09395635
83	0xbe8587a0	-0.26080036
84	0xbedb5a72	-0.42842442
85	0xbe2008ab	-0.15628307
86	0xbeeac514	-0.45853484
87	0x3eb84b2b	0.3599485
88	0x3e8c353a	0.2738436
89	0xbda59929	-0.080858536
90	0x3e7c9ad1	0.24668433
91	0x3ca60b74	0.020269133
92	0x3ecb8e04	0.39756787
93	0xbe3987aa	-0.18118158
94	0xbe683839	-0.22677697
95	0xbcc6f1a2	-0.024285141
96	0xbecd1a5c	-0.40059173
97	0xbe75a886	-0.23990068
98	0xbdef5615	-0.11686341
99	0xbded9a00	-0.11601639
100	0x3e311d83	0.17296414
101	0x3e2bbcc1	0.16771223
102	0xbe3c47b3	-0.18386726
103	0x3e67e0fa	0.22644415
104	0x3e34c00e	0.17651388
105	0xbeded03c	-0.43518245
106	0xbe73b2ab	-0.23798625
107	0x3bc47129	0.005994935
108	0xbe8ed921	-0.2790003
109	0x3ed21c20	0.41037083
110	0xbd726b2e	-0.059184246
111	0xbe1bbd33	-0.15208893
112	0xbe839485	-0.2569925
113	0x3e55dc8c	0.20884913
114	0x3daa6855	0.08320681
115	0x3e98e999	0.2986572
116	0x3d1d175e	0.038352363
117	0x3ee7306d	0.45154133
118	0xbc7e25e3	-0.015511963
119	0xbb29e62e	-0.0025924551
120	0xbd9a8682	-0.075451866
121	0x3ea9d9a1	0.3317385
122	0x3de1c307	0.11023527
123	0x3ebe0063	0.3710967
124	0x3e6773de	0.22602794
125	0x3e972d47	0.2952673
126	0xbec0c184	-0.3764764
127	0xbe7594bb	-0.23982517

VAE.encoder_mu.layers.0.linear1.weight f4 [4, 128]
0	0x3d89c7f6	0.06727593
1	0x3ca3d8fa	0.020000923
2	0x3d9ba162	0.07599141
3	0x3abb65ae	0.0014297271
4	0xbdfec0d1	-0.124391206
5	0x3d5d55c9	0.05403689
6	0xbdcaeefc	-0.09908864
7	0xbe2be7a4	-0.16787583
8	0xbd2dff4a	-0.04247979
9	0x3d1d44fd	0.03839587
10	0x3d1081bc	0.035279974
11	0xbd1445c9	-0.036199365
12	0xbde96277	-0.11395734
13	0xbd80bdb2	-0.062861815
14	0x3cd5e041	0.02610791
15	0x3d7edb8d	0.0622211
16	0xbd190365	-0.037356753
17	0xbd19a586	-0.03751137
18	0xbd5c8f34	-0.053847507
19	0xbdda8a85	-0.10670952
20	0x3cd3f84b	0.025875231
21	0x3d1592af	0.03651684
22	0xbdde5967	-0.10856896
23	0xbd852c63	-0.06502607
24	0x3c3407a6	0.010988152
25	0xbdd0dcb8	-0.10198349
26	0x3caa5ef5	0.020797232
27	0x3e0b38b1	0.13595845
28	0xbd77e3d0	-0.060519993
29	0xbd69d7e3	-0.05709065
30	0xbd8ef757	-0.0698077
31	0xbdc56244	-0.09637883
32	0xbd7674d3	-0.060170006
33	0xbdec09e6	-0.115253255
34	0x3d4c79a9	0.04992071
35	0xbdb597a4	-0.08866814
36	0x3e657321	0.224072
37	0xbdd87cbe	-0.10570668
38	0x3db2c08a	0.0872813
39	0xbd3258ea	-0.043541826
40	0xbdd4034d	-0.10352192
41	0xbde101a2	-0.109866396
42	0xbd2d962b	-0.04237954
43	0x3d99ca01	0.07509232
44	0x3c8d712f	0.017265884
45	0xbd82480e	-0.063613996
46	0xbdca97b3	-0.098922156
47	0x3dd55273	0.104161166
48	0xbe47b394	-0.19502097
49	0x3e4d897f	0.20071982
50	0xbd526b1a	-0.05137167
51	0x3d713ddd	0.058896888
52	0x3ca0c039	0.019622909
53	0xbd0e8970	-0.03479904
54	0xbd429231	-0.0475027
55	0xbda64b38	-0.081198156
56	0xbd61b36b	-0.055102747
57	0x3c163ad1	0.009169296
58	0xbc3cc9b6	-0.011522701
59	0xbe119f88	-0.14221013
60	0x3e12c8ac	0.14334363
61	0xbcc045ad	-0.023470724
62	0xbd385143	-0.044999372
63	0xbda08a08	-0.07838827
64	0x3da8f3d9	0.08249635
65	0xbdfad2b0	-0.12247217
66	0x3ce4bb47	0.027921332
67	0x3df407cd	0.119155504
68	0xbe04351f	-0.12910889
69	0xbe1463df	-0.14491223
70	0xbda73ffb	-0.081665
71	0x3ce38c35	0.027776817
72	0xbc9d1512	-0.019175086
73	0x3d7b2222	0.06131185
74	0xbda96c64	-0.08272627
75	0xbd347d08	-0.04406455
76	0xbe0b620c	-0.1361162
77	0x3d1c7182	0.038194187
78	0x3d65b634	0.056081966
79	0xbcfbe469	-0.030748563
80	0xbe1310c6	-0.14361867
81	0x3cc33c24	0.023832388
82	0x3c7e633e	0.015526591
83	0x3d7e23be	0.062045805
84	0x3c5d9172	0.013523446
85	0x3d343487	0.043995406
86	0xbdaef60e	-0.08543025
87	0xbc633bbb	-0.013869221
88	0xbded9cb2	-0.11602153
89	0xbde76ad9	-0.112996764
90	0x3d8e2d1d	0.069421984
91	0x3cad59d9	0.021161007
92	0xbccb5bbc	-0.024824016
93	0xbe000a8c	-0.12504023
94	0x3b7bd1be	0.0038424577
95	0xbd9242ed	-0.07141671
96	0xbdb72887	-0.08943277
97	0xbdf766ab	-0.12080129
98	0xbdb5e94a	-0.08882387
99	0xbcd513a5	-0.026010344
100	0xbd8e070c	-0.06934938
101	0xbd8672b3	-0.06564846
102	0xbdcc57a0	-0.09977651
103	0xbe08a4b1	-0.13344075
104	0xbdc67274	-0.09689799
105	0x3db7477e	0.08949183
106	0xbe2532b6	-0.16132626
107	0x3aba3540	0.0014206544
108	0x3d689bae	0.056789093
109	0xbd00dcd5	-0.0314606
110	0xbe50da71	-0.20395829
111	0x3d1cfc59	0.038326595
112	0x3e19dab9	0.15024842
113	0xbdd5cba6	-0.104392335
114	0x3c8d33b1	0.017236562
115	0xbd76a838	-0.06021902
116	0xbe2ebd4b	-0.17064397
117	0xbdcb6cf7	-0.09932893
118	0x3dc65e8e	0.096860036
119	0x3cb694eb	0.022287806
120	0xbccd9e1c	-0.025099806
121	0xbcb82764	-0.02247972
122	0xbd72dbd6	-0.059291683
123	0xbdd6edc7	-0.10494571
124	0x3d2517d8	0.040305942
125	0xbb2b4efc	-0.0026139608
126	0x3cfe604c	0.031051777
127	0xbe214625	-0.15749414
128	0xbd94f2be	-0.07272862
129	0xbb2c68e5	-0.002630764
130	0x3dbbbdb7	0.091670446
131	0xbb75b126	-0.0037489622
132	0x3da80a23	0.082050584
133	0x3d9b57f6	0.075851366
134	0x3d555423	0.052082192
135	0xbd9490f6	-0.072542116
136	0xbceef6fd	-0.029170508
137	0x3d9d53d4	0.076820046
138	0xbe1276c5	-0.1430312
139	0x3b02d220	0.001996167
140	0xbc9d155f	-0.01917523
141	0x3d9dcb28	0.077047646
142	0x3dfa1c12	0.12212385
143	0x3d8ec80d	0.069717504
144	0xbc9df4c9	-0.019281762
145	0xbc55103a	-0.013004357
146	0xbcfdc16f	-0.030976025
147	0x3c93384b	0.017971179
148	0x3e030cd8	0.12797868
149	0x3ea5d0b3	0.32385787
150	0x3cac9231	0.021065803
151	0xbca3ce22	-0.019995753
152	0xbe19ac2b	-0.15007083
153	0xbdb9136b	-0.09036907
154	0x3ddd1b33	0.107962035
155	0x3d7bd4e6	0.061482333
156	0xbddcd6df	-0.10783171
157	0xbc2b582f	-0.010458036
158	0x3cfd77f0	0.03094098
159	0xbe1b0cf4	-0.1514166
160	0xbd9f5c88	-0.07781321
161	0xbe1cf4a4	-0.15327698
162	0xbc407add	-0.011748043
163	0x3c317a78	0.0108324215
164	0xbdfe8e01	-0.12429429
165	0x3dfd2e76	0.12362377
166	0x3d3d9618	0.04628572
167	0x3d63d3d8	0.05562195
168	0x3d962b34	0.07332459
169	0xbe02c7af	-0.12771486
170	0x3de8d50a	0.11368759
171	0x3da573d0	0.0807873
172	0xbdc081d3	-0.09399762
173	0x3cbe250e	0.023211028
174	0x3e03dffa	0.12878409
175	0x3d8fd4e6	0.07023029
176	0xbd6f3957	-0.058404293
177	0xbe0c2f83	-0.1369
178	0xbdab1d8b	-0.08355244
179	0x3d09b3fd	0.033618916
180	0x3e223782	0.15841487
181	0xbdaacd14	-0.08339897
182	0xbc8b8779	-0.017032372
183	0x3dcdae09	0.1004296
184	0x3dc0e086	0.094178244
185	0x3b802bba	0.0039114626
186	0xbdf103a6	-0.11768274
187	0xbb9acdb7	-0.00472423
188	0x3d6c8ed2	0.05775339
189	0x3e0ad5c3	0.13558106
190	0x3de410a3	0.11135986
191	0x3d53262b	0.05155007
192	0x3cb79356	0.022409122
193	0xbcaf3d26	-0.021391463
194	0xbd4f4391	-0.050601546
195	0x3dafd08b	0.08584698
196	0x3d1cd00d	0.03828435
197	0xbd858b20	-0.065206766
198	0xbd063fd0	-0.0327757
199	0xbd0ea730	-0.03482741
200	0xbd8e0ed0	-0.06936419
201	0xbe267c7d	-0.16258426
202	0x3d42ce17	0.047559824
203	0xbda4188e	-0.08012496
204	0xbd40628d	-0.046968985
205	0xbd2bc5ab	-0.041936558
206	0x3d98a8a0	0.07454038
207	0xbcd82ee5	-0.026389549
208	0xbd9af0b9	-0.075654455
209	0xbdc26d3a	-0.094934896
210	0x3d05290f	0.03250986
211	0x3d5d0280	0.053957462
212	0x3dfcff61	0.12353397
213	0xbdaa2a70	-0.083088756
214	0x3dd014f7	0.10160249
215	0xbdae5050	-0.08511412
216	0xbb951c70	-0.004550509
217	0xbd5e7b4c	-0.054316804
218	0x3df3cedb	0.11904689
219	0x3d41ef4f	0.047347363
220	0x3d68a986	0.056802295
221	0x3dd78a28	0.10524398
222	0x3de519aa	0.11186536
223	0xbd22f29f	-0.039782163
224	0xbc876fbd	-0.016532773
225	0x3cee1160	0.02906102
226	0xbda64427	-0.08118468
227	0x3e238218	0.15967596
228	0xbe156f3c	-0.14593214
229	0xbd685356	-0.0567201
230	0x3d445ce4	0.04794015
231	0xbe1d4f4a	-0.15362278
232	0xbdbea48b	-0.09308728
233	0x3c210136	0.009826949
234	0xbdb9204b	-0.090393625
235	0x3b7f3e0a	0.003894689
236	0xbde01dba	-0.1094317
237	0xbd902867	-0.07038956
238	0x3d88c80c	0.06678781
239	0x3e0f4e91	0.13994814
240	0x398aa5c8	0.00026444928
241	0x3cdb313e	0.026756879
242	0xbd9c1235	-0.0762066
243	0xbd011c9e	-0.031521432
244	0x3ce15be9	0.027509646
245	0xbd9e682a	-0.077347115
246	0x3c479c37	0.012183241
247	0x3d953dd2	0.07287182
248	0x3c0bb448	0.008526869
249	0x3c8126c2	0.015765551
250	0x3d57b8e2	0.052666552
251	0x3c34e049	0.011039802
252	0x3dcd4185	0.100222625
253	0x3cb35114	0.021889247
254	0xbdee35b1	-0.116313346
255	0xbdd04920	-0.101701975

VAE.encoder_mu.layers.0.linear1.bias f4 [4]
0	0xbded7e1e	-0.115963206
1	0x3d4f8da1	0.050672177
2	0xbc36f5fb	-0.011167045
3	0x3d3c10aa	0.04591433

VAE.encoder_mu.layers.0.norm1.weight f4 [4]
0	0x3f8fe31e	1.1241186
1	0x3f8e01ba	1.1094277
2	0x3f8cbf76	1.0995929
3	0x3f841834	1.0319886

VAE.encoder_mu.layers.0.norm1.bias f4 [4]
0	0xbd174ec5	-0.036940355
1	0xbc8c1c19	-0.017103242
2	0xbb4bb5fc	-0.0031083813
3	0x3d018fc6	0.031631254

VAE.encoder_mu.layers.1.attention.W_q.weight f4 [4, 4]
0	0x3ed7e2f9	0.42165354
1	0xbe2aae8a	-0.16668144
2	0x3f006262	0.5015012
3	0xbe21f3a8	-0.15815604
4	0xbe8f284a	-0.27960426
5	0xbe41cd7a	-0.1892604
6	0xbe7718a9	-0.24130501
7	0x3e674c8d	0.22587796
8	0x3e63a197	0.2222961
9	0x3e6e46d7	0.23269211
10	0xbe12f4a4	-0.14351135
11	0x3ee4e710	0.44707537
12	0x3eaa205e	0.3322782
13	0xbecf74da	-0.40518838
14	0x3ea580dc	0.32324874
15	0x3d980478	0.07422727

VAE.encoder_mu.layers.1.attention.W_q.bias f4 [4]
0	0xbc736a19	-0.014856839
1	0x3da7f8e8	0.08201772
2	0x3d614239	0.054994795
3	0xbdcf0868	-0.10109025

VAE.encoder_mu.layers.1.attention.W_k.weight f4 [4, 4]
0	0xbec3870e	-0.38188976
1	0x3e7b6c5e	0.24553058
2	0x3e83cc04	0.2574159
3	0x3f03652f	0.5132627
4	0xbde172ca	-0.110082224
5	0x3e64ce1e	0.22344252
6	0xbecb8f59	-0.39757803
7	0xbb16f30d	-0.0023033053
8	0x3e9d66e3	0.3074256
9	0x3e7bd317	0.24592243
10	0x3eb6c4be	0.35696977
11	0xbddd4afc	-0.10805318
12	0x3ed0de6c	0.40794694
13	0xbe799835	-0.24374469
14	0xbda5f36f	-0.08103072
15	0x3d7acbf9	0.06122968

VAE.encoder_mu.layers.1.attention.W_k.bias f4 [4]
0	0xba48b579	-0.0007656436
1	0xb9d61752	-0.00040834636
2	0x38ce4ce9	9.837171e-05
3	0xb9a95838	-0.0003229992

VAE.encoder_mu.layers.1.attention.W_v.weight f4 [4, 4]
0	0xbe1eba17	-0.15500675
1	0x3d8c560c	0.0685235
2	0xbec4ec4e	-0.38461536
3	0xbefebabe	-0.49751848
4	0xbec8f9dd	-0.3925313
5	0xbea0cc5c	-0.31405914
6	0xbc91a84e	-0.01778045
7	0xbed54239	-0.41652086
8	0xbeaae56f	-0.3337817
9	0x3eb9f6b8	0.36321044
10	0x3e98a096	0.29810017
11	0x3e2b81fc	0.16748804
12	0xbeb02d36	-0.34409493
13	0xbdb27736	-0.08714144
14	0x3e29c1f2	0.1657789
15	0xbea3c8ef	-0.31989238

VAE.encoder_mu.layers.1.attention.W_v.bias f4 [4]
0	0xbc5b1c51	-0.01337345
1	0x3cbc52a4	0.022988625
2	0x3cf22673	0.02955935
3	0xbd089b63	-0.033351313

VAE.encoder_mu.layers.1.linear0.weight f4 [128, 4]
0	0x3dd2f355	0.10300318
1	0x3e96c6e8	0.29448628
2	0xbf09d56b	-0.53841275
3	0xbedbffa6	-0.42968482
4	0xbea71963	-0.32636556
5	0x3ee77849	0.45208958
6	0xbe9da1b1	-0.30787423
7	0xbed5dc8d	-0.4176983
8	0xbe9731f2	-0.29530293
9	0xbeec8d86	-0.46201724
10	0x3e76b4a2	0.24092343
11	0xbe1577db	-0.14596502
12	0x3e0b7f90	0.1362288
13	0x3e937e37	0.28807232
14	0xbe4fa73c	-0.20278639
15	0xbeb3e271	-0.351337
16	0x3e9eeeb5	0.31041494
17	0x3de4e6a6	0.11176805
18	0x3e83ca3e	0.25740236
19	0xbee9d859	-0.45672873
20	0x3bae75ae	0.005324087
21	0xbf0fe54d	-0.5620926
22	0x3e470cd2	0.19438484
23	0x3d8ab338	0.067724645
24	0xbdf56a10	-0.119831204
25	0x3e5e04da	0.21681538
26	0x3dc40333	0.09570923
27	0xbd192895	-0.037392218
28	0xbe918d6a	-0.28428203
29	0x3dd1cd81	0.10244275
30	0xbaa1a9a4	-0.0012333882
31	0xbe942005	-0.2893068
32	0xbeed0ea0	-0.4630022
33	0xbeef6216	-0.4675452
34	0xbe43567b	-0.19075958
35	0x3e77ea94	0.24210578
36	0xbb557ccc	-0.0032575605
37	0xbc9133ab	-0.017724833
38	0x3ea637df	0.324645
39	0xbec2273c	-0.37920558
40	0xbe6eaadc	-0.23307365
41	0x3ebc6300	0.3679428
42	0xbed30d5b	-0.41221127
43	0xbeb8efe7	-0.3612053
44	0xbe44a066	-0.19201812
45	0x3ecc618d	0.39918175
46	0xbecb732b	-0.39736304
47	0xbd27d1f7	-0.040971722
48	0x3e9ca4d5	0.30594507
49	0x3e6dedcc	0.23235244
50	0xbe544adf	-0.20731686
51	0xbee84f06	-0.4537279
52	0x3dbe8c70	0.0930413
53	0x3e6f8434	0.23390275
54	0xbedd8394	-0.4326445
55	0x3d1bbeec	0.038023874
56	0x3ee99d11	0.45627645
57	0x3e8292d4	0.25502646
58	0xbe64aadb	-0.22330801
59	0x3e5beab1	0.21476246
60	0x3e8f4016	0.2797858
61	0x3e5423bb	0.20716755
62	0xbe9d8b67	-0.30770418
63	0x3e234eca	0.15948024
64	0xbe829a9c	-0.25508583
65	0xbe9eb44a	-0.30996925
66	0x3e6ae5ca	0.2293922
67	0xbf04721d	-0.51736623
68	0xbe6fc4c6	-0.23414907
69	0x3efd9139	0.4952486
70	0x3e232374	0.15931493
71	0xbe437e26	-0.1909109
72	0xbeef6d02	-0.46762854
73	0xbce2ea0e	-0.027699497
74	0x3f12de7f	0.5737075
75	0xbef03d5b	-0.4692181
76	0x3da7b4c2	0.08188774
77	0x3e5ab63c	0.2135858
78	0x3e58fbfe	0.21189877
79	0xbdf9f89d	-0.12205622
80	0xbdf0522c	-0.11734423
81	0x3d36f3fe	0.044666283
82	0xbf0d3e5c	-0.5517328
83	0xbd92bee9	-0.071653195
84	0xbea901d7	-0.33009216
85	0xbd6230c4	-0.055222288
86	0x3d09ea4a	0.0336707
87	0xbe838ad2	-0.2569185
88	0x3ec54f13	0.3853689
89	0x3e8da931	0.27668145
90	0x3ee2248f	0.44168517
91	0x3c249089	0.0100442255
92	0xbdaf4429	-0.085579224
93	0x3e0fb8d9	0.14035358
94	0x3f0d3b3e	0.5516852
95	0x3dd0a2cf	0.10187303
96	0xbe0bd438	-0.13655174
97	0x3d5d3c30	0.054012477
98	0xbdf44c00	-0.11928558
99	0xbdc39818	-0.09550494
100	0x3e4b97c0	0.19882107
101	0x3e1ae72d	0.15127249
102	0xbdf991a3	-0.12185981
103	0xbe864f13	-0.26232204
104	0x3e515a3d	0.2044458
105	0x3e3a1392	0.18171528
106	0x3e24bbc0	0.16087246
107	0x3eab5a6b	0.3346742
108	0xbe2540bc	-0.16137975
109	0x3e23c3da	0.1599268
110	0xbe5cd567	-0.21565782
111	0x3e074b13	0.13212232
112	0xbea6969d	-0.32536784
113	0x3dd4eb50	0.10396445
114	0xbe32fc64	-0.17479092
115	0xbe821f0e	-0.25414318
116	0xbe5f324e	-0.21796533
117	0xbe0dcd69	-0.13847889
118	0x3eb55d1c	0.354226
119	0xbed0b806	-0.407654
120	0xbcab8376	-0.020936709
121	0xbedf7c5c	-0.43649566
122	0xbe404cf6	-0.18779358
123	0xbf189230	-0.59598064
124	0x3c0df7b6	0.008665016
125	0x3ee18de3	0.44053563
126	0xbe941579	-0.28922632
127	0xbebd3b94	-0.36959517
128	0xbf013611	-0.50473124
129	0xbe94f132	-0.29090267
130	0x3d044a87	0.032297637
131	0x3e977414	0.29580748
132	0x3d493877	0.049126115
133	0xbea1e4c6	-0.31619853
134	0x3ee4a274	0.44655192
135	0xbec8baa6	-0.392049
136	0x3e2fad50	0.17155957
137	0xbef5408c	-0.47900808
138	0x3eaea55a	0.34110528
139	0xbf238a61	-0.63883024
140	0xbe8c0c4b	-0.2735313
141	0xbf178187	-0.5918202
142	0x3ed8161f	0.42204377
143	0x3f0e2c5b	0.5553643
144	0xbdcd4b22	-0.10024096
145	0xbdf827ba	-0.12116952
146	0xbe5c3cb8	-0.21507537
147	0x3ef5ebc9	0.48031452
148	0xbd171130	-0.036881626
149	0xbd085586	-0.033284687
150	0xbf08b290	-0.53397465
151	0x3e9258f6	0.28583497
152	0x3f03add9	0.51437145
153	0xbd4bd601	-0.049764637
154	0xbdbadbbe	-0.09123944
155	0x3ecff161	0.40613845
156	0xbedf1572	-0.4357105
157	0x3e991a90	0.29903078
158	0x3e6174c2	0.22017196
159	0xbeebd755	-0.46062723
160	0x3e1e7bdd	0.15476938
161	0x3dc71ce8	0.0972231
162	0xbe8f3574	-0.2797047
163	0xbe483065	-0.19549711
164	0xbe7d6773	-0.24746494
165	0x3eb5809d	0.35449687
166	0x3f08dd20	0.5346241
167	0x3ee784f7	0.45218632
168	0xbea12b7f	-0.31478497
169	0x3e96ba75	0.2943913
170	0x3d508319	0.050906274
171	0xbeca7270	-0.39540434
172	0xbecb50a6	-0.39709967
173	0x3e08a747	0.13345061
174	0xbe910df1	-0.2833095
175	0x3d80efbd	0.062957264
176	0x3d484c3b	0.048900824
177	0x3da9ef19	0.082975574
178	0x3e0bd5ac	0.13655728
179	0x3e61584a	0.22006336
180	0x3db19066	0.0867012
181	0x3ec2144f	0.3790612
182	0x3eb4b25c	0.35292327
183	0xbe85ec9a	-0.26157075
184	0x3e9260e7	0.28589556
185	0x3ee5e381	0.44900134
186	0x3e1ff9df	0.15622662
187	0xbe25de1e	-0.16198012
188	0x3e35ac59	0.17741527
189	0x3e0f3652	0.13985565
190	0xbec9cdd5	-0.3941485
191	0x3f035884	0.5130694
192	0xbdbd245c	-0.092354506
193	0xbe08586b	-0.13314979
194	0x3e3d0f4c	0.18462867
195	0x3ebead03	0.37241372
196	0x3e4d42c5	0.20045002
197	0xbe6da35d	-0.2320685
198	0xbdfdab31	-0.12386168
199	0x3e5970cc	0.21234435
200	0xbefa8342	-0.48928267
201	0x3ea15fb8	0.3151834
202	0xbe82f6e0	-0.25578976
203	0xbe6350c6	-0.22198781
204	0xbef97309	-0.48720577
205	0xbde9d2d4	-0.114171654
206	0xbb10eecf	-0.0022114997
207	0x3e8c7920	0.2743616
208	0xbdb07aa9	-0.086171456
209	0xbdbe2c55	-0.092857994
210	0xbec3bdf7	-0.3823087
211	0xbe25d109	-0.16193022
212	0x3e50d25f	0.2039275
213	0x3ec56427	0.38552973
214	0xbe547671	-0.20748307
215	0x3e111e8c	0.14171809
216	0x3eb79422	0.35855204
217	0xbe25fc7b	-0.16209595
218	0x3ec9d5bb	0.39420876
219	0xbee6e6e2	-0.45098025
220	0xbeb2f477	-0.34952137
221	0x3f023558	0.50862646
222	0x3e5871ac	0.21137112
223	0xbd46ee67	-0.048567202
224	0xbedfec20	-0.43734837
225	0xbeec16b6	-0.46111077
226	0xbe24348e	-0.16035673
227	0x3dac390b	0.084093176
228	0x3e1e84f8	0.15480411
229	0xbecf8511	-0.4053121
230	0x3f11db9e	0.56975734
231	0xbd2e5631	-0.042562667
232	0xbf07c373	-0.53032607
233	0xbe7156d9	-0.23568286
234	0xbca19889	-0.019726055
235	0xbed1b0a0	-0.40955067
236	0xbe89dd80	-0.26926804
237	0x3ef4a7f0	0.47784376
238	0xbee9d7f9	-0.45672587
239	0xbe137938	-0.1440171
240	0xbddcedc4	-0.10787538
241	0x3eb91e3e	0.36155885
242	0xbd2d1825	-0.042259354
243	0xbe9795a7	-0.29606363
244	0x3eaeb325	0.3412105
245	0xbeaa2a60	-0.33235455
246	0xbde83c81	-0.11339665
247	0x3ed3b9d9	0.41352728
248	0xbf06e581	-0.52693945
249	0x3dd85757	0.10563534
250	0x3ed6756a	0.41886455
251	0xbeed05d9	-0.46293524
252	0x3e90c87d	0.2827796
253	0x3e10c132	0.14136198
254	0x3d5b47ee	0.053535394
255	0xbb5f0cee	-0.0034034806

VAE.encoder_mu.layers.1.linear0.bias f4 [128]
0	0x3ed8b8de	0.42328542
1	0xbecc2ee4	-0.39879525
2	0x3d1e72c5	0.03868367
3	0xbeb7efce	-0.35925144
4	0x3e22187f	0.15829657
5	0x3e208a24	0.15677696
6	0x3e79b83d	0.24386688
7	0xbe793b06	-0.24338922
8	0x3ba99802	0.0051755914
9	0x3ec79d5b	0.3898724
10	0x3e925e6f	0.28587672
11	0xbe9cd43d	-0.30630675
12	0x3e36196b	0.17783134
13	0x3e201a2d	0.15634985
14	0x3ee936d0	0.4554963
15	0x3ef98546	0.48734492
16	0xbe9804ed	-0.29691258
17	0xbe0f33f8	-0.13984668
18	0x3def75a1	0.11692358
19	0x3ea9a630	0.33134604
20	0xbc04e1e2	-0.008110495
21	0xbe3caff2	-0.18426493
22	0x3e2ecad8	0.17069566
23	0x3e99ad34	0.30014956
24	0xbeb4af80	-0.35290146
25	0xbd1ba7ee	-0.038001947
26	0xbe0fa082	-0.14026073
27	0x3e31f926	0.17380199
28	0x3eae6e47	0.3406851
29	0xbd0c56ba	-0.034262396
30	0x3d536768	0.051612288
31	0x3e9c2a18	0.30500865
32	0xbe464a8d	-0.19364376
33	0xbeb87cb6	-0.36032647
34	0x3e00b91c	0.12570614
35	0x3dc28982	0.09498884
36	0x3c939415	0.018014947
37	0x3b8d55b7	0.0043131965
38	0xbeae610e	-0.34058422
39	0xbe2a8b9f	-0.16654824
40	0x3eb325bb	0.34989724
41	0xbea35614	-0.3190161
42	0x3decce87	0.115628295
43	0x3e25a242	0.16175178
44	0x3cc5bdf0	0.02413842
45	0x3ea613d6	0.3243701
46	0xbda84d9d	-0.082179286
47	0xbe9aa2af	-0.30202243
48	0xbe23a319	-0.15980186
49	0xbdaad23e	-0.08340882
50	0x3ed39109	0.4132159
51	0x3ec74d57	0.38926193
52	0x3d85c226	0.065311715
53	0x3e7a13b3	0.24421577
54	0x3ec285e0	0.37992764
55	0xbec8acdb	-0.39194378
56	0x3e42b56d	0.19014521
57	0x3e914565	0.28373256
58	0x3ee8f6ab	0.45500693
59	0x3eec4215	0.46144167
60	0xbeb4f701	-0.353447
61	0x3e807626	0.2509014
62	0x3e9425e1	0.2893515
63	0x3eaaf60a	0.33390838
64	0xbd266273	-0.040621232
65	0xbe98aaae	-0.29817718
66	0xbe4e5d0c	-0.20152682
67	0xbe896ba5	-0.2683994
68	0x3d5e7eb9	0.05432007
69	0xbec163f1	-0.37771562
70	0x3e7fc02c	0.24975652
71	0x3edf45be	0.43607897
72	0xbedc1e7e	-0.42992014
73	0xbedb45a9	-0.42826584
74	0x3db96c95	0.090539135
75	0xbe47027d	-0.19434543
76	0xbf041001	-0.5158692
77	0xbebe838c	-0.37209737
78	0x3e178a2b	0.147988
79	0xbed6f7c7	-0.41985914
80	0xbee6ae00	-0.45054626
81	0xbf0dcb72	-0.5538856
82	0x3e8e7b28	0.27828336
83	0xbe966237	-0.29371807
84	0xbec7e6f5	-0.39043394
85	0x3e6b3f12	0.22973278
86	0xbea2de78	-0.31810355
87	0x3e1ad1cb	0.15119092
88	0x3ef10047	0.47070524
89	0xbf06cd8b	-0.52657384
90	0x3ed571b8	0.41688323
91	0x3e7ce69f	0.2469735
92	0xbdb0fa90	-0.08641541
93	0x3eaf4228	0.3423016
94	0xbbd00583	-0.0063483133
95	0x3ed973aa	0.42471057
96	0x3e1d980d	0.15390034
97	0xbe2a96db	-0.1665911
98	0x3eb5bd39	0.35495928
99	0x3ee0bab3	0.4389244
100	0x3e84323c	0.25819576
101	0xbeee6948	-0.46564698
102	0xbce8a1f3	-0.028397536
103	0x3d4046b5	0.04694243
104	0x3dc99bdc	0.09844181
105	0x3e0c692d	0.13711996
106	0x3ea04340	0.31301308
107	0xbda23e1c	-0.07922003
108	0xbe827a8e	-0.25484127
109	0x3eabf1af	0.33582827
110	0x3ee50d6d	0.44736806
111	0x3e2087ed	0.15676852
112	0x3e572a59	0.21012248
113	0x3d43d147	0.047807004
114	0xbebde0d6	-0.370856
115	0x3e9ee423	0.3103343
116	0x3dd03494	0.101662785
117	0xbea721f2	-0.32643086
118	0x3ede9b92	0.43478066
119	0x3e736ba0	0.23771524
120	0x3ebb413d	0.3657321
121	0x3e5d67c8	0.2162162
122	0xbe6be684	-0.23037153
123	0x3e5c2edc	0.2150225
124	0x3f040dc8	0.5158353
125	0x3cc3678d	0.023853088
126	0x3e994dd1	0.29942182
127	0x3e90884e	0.28228992

VAE.encoder_mu.layers.1.linear1.weight f4 [4, 128]
0	0x3b70ae6d	0.003672506
1	0x3d672e05	0.056440372
2	0x3dcdefdd	0.10055516
3	0xbe911f0e	-0.28344005
4	0x3d4cd542	0.050008066
5	0xbde56b78	-0.11202139
6	0x3e16cc21	0.14726306
7	0x3e05e645	0.13076122
8	0xbd940150	-0.07226813
9	0x3dc35fe8	0.09539777
10	0xbcd1a309	-0.025590437
11	0xbca4ef9a	-0.020133782
12	0xbd37c85a	-0.044868805
13	0x3d9cdb11	0.07658971
14	0xbda1416c	-0.07873806
15	0xbd638352	-0.05554516
16	0x3e0648b9	0.13113679
17	0xbcee3617	-0.029078526
18	0x3da58e8a	0.08083828
19	0xbc583fb0	-0.013198778
20	0xbd5bdf29	-0.05367962
21	0x3db0f67a	0.08640762
22	0x3d8d87ec	0.06910691
23	0x3e097c7c	0.13426393
24	0xbd882683	-0.066479705
25	0xbd17d158	-0.03706488
26	0xbcaa8c01	-0.020818712
27	0x3dcfbd2a	0.10143502
28	0x3bdeed2b	0.006803175
29	0x3d9ba81e	0.07600425
30	0xbda3a8b0	-0.07991159
31	0x3cb25367	0.021768285
32	0x3cfb69ee	0.03069016
33	0x3cd5ae29	0.026084023
34	0x3d799096	0.060928904
35	0xbe2150eb	-0.15753524
36	0xbd8e169c	-0.06937906
37	0x3d460fa4	0.04835476
38	0xbd4ea988	-0.050454646
39	0x3de6e3b7	0.11273902
40	0xbdfbe59b	-0.12299653
41	0xbca8412b	-0.020538887
42	0x3c81d873	0.015850281
43	0x3c38467c	0.011247274
44	0xbd347969	-0.0440611
45	0x3d6566c6	0.056006216
46	0xbaf10e2a	-0.0018391062
47	0xbd79c8ad	-0.060982395
48	0xbc27c019	-0.010238671
49	0xbe135832	-0.14389113
50	0x3d408b24	0.047007695
51	0x3b4cfec6	0.0031279786
52	0xbd1f267d	-0.038855065
53	0x3da88969	0.08229334
54	0x3d1e1f8f	0.038604315
55	0x3db9f99b	0.090808116
56	0xbd462037	-0.048370566
57	0x3b718762	0.0036854376
58	0x3e0c456e	0.1369836
59	0x3d491822	0.04909528
60	0xbdf9b9f9	-0.121936746
61	0xbe1159a5	-0.14194353
62	0x3b6ba66e	0.0035957354
63	0xbdd4690e	-0.103716
64	0xbd311623	-0.043234
65	0xbc94c758	-0.01816146
66	0xbae6087c	-0.0017550136
67	0xbe274564	-0.16335064
68	0xbc28bb60	-0.01029858
69	0xbc4be7c7	-0.012445397
70	0x3c0c047c	0.008545991
71	0x3cdec2a8	0.027192429
72	0xbdb9e459	-0.09076757
73	0x3d22f7d3	0.039787125
74	0x3d3dbb3d	0.046321142
75	0x3db7c5a4	0.08973244
76	0xbaef3a96	-0.0018251713
77	0xbca8f3c6	-0.020624053
78	0xbe12b882	-0.14328197
79	0xbe13edfd	-0.14446254
80	0xbd066456	-0.03281053
81	0xbcfcda7b	-0.030865898
82	0xbd54df32	-0.051970668
83	0x3e27ffb8	0.16406143
84	0xbd844778	-0.06458944
85	0x3dd238b6	0.10264723
86	0xbdab2e59	-0.083584495
87	0xbd147a03	-0.036249172
88	0xbd636709	-0.055518184
89	0xbd48efed	-0.049056936
90	0x3d6f9ad0	0.05849725
91	0x3d9dfbdf	0.07714056
92	0xbe0471b2	-0.12933996
93	0x3dcec6cb	0.100965105
94	0xbe328b74	-0.1743601
95	0x3db44d92	0.08803858
96	0x3c36ca4b	0.011156629
97	0xbbfee7e3	-0.007779108
98	0x399817a2	0.00029009307
99	0x3d8d5017	0.069000416
100	0x3b89775a	0.004195136
101	0x3cd2db68	0.025739387
102	0xbdb87ff5	-0.09008781
103	0x3d581b83	0.052760612
104	0xbd27b525	-0.040944237
105	0xbd255591	-0.040364806
106	0x3d924863	0.07142713
107	0xbd8d83a8	-0.06909877
108	0xbda1fbcc	-0.079093546
109	0xbd806ace	-0.062703714
110	0x3d79d4d2	0.060993977
111	0x3d8148af	0.063126914
112	0x3db286eb	0.0871714
113	0x3cdf278d	0.027240539
114	0x3e4b2d1a	0.19841424
115	0xbcc96d3a	-0.024588216
116	0x3e105e24	0.14098412
117	0x3db3ad70	0.08773315
118	0xbda1f88a	-0.07908733
119	0x3cd25e31	0.02567968
120	0x3daae993	0.08345332
121	0xbd4f93cc	-0.05067806
122	0x3d255a16	0.040369116
123	0x3e10ece4	0.14152867
124	0xbe167b6c	-0.14695519
125	0x3c8a55af	0.01688656
126	0xbb75afa0	-0.0037488714
127	0xbc00287c	-0.007822152
128	0x3df3cff7	0.119049005
129	0xbcc45324	-0.023965426
130	0xbd3505c5	-0.044194955
131	0x3c391e54	0.011298735
132	0x3cc6627e	0.024216887
133	0xbde281fd	-0.110599495
134	0x3c21db7d	0.00987899
135	0xbd6a5ecb	-0.057219308
136	0xba1f53aa	-0.00060778356
137	0xbd491aa2	-0.049097665
138	0x3e06d34b	0.1316654
139	0xbd056287	-0.032564666
140	0x3e07a261	0.13245536
141	0x3ddeb5c1	0.108745106
142	0x3e03873a	0.12844554
143	0x3dfb522b	0.12271532
144	0xbcf3e4e3	-0.029772228
145	0x3d44d7ec	0.04805748
146	0xbdd19f50	-0.102354646
147	0xbd981469	-0.07425768
148	0x3de012ca	0.10941084
149	0x3ad6d461	0.0016390198
150	0xbd0e8672	-0.034796186
151	0xbe0f4d28	-0.13994277
152	0x3daf01be	0.08545254
153	0xbafa27ee	-0.0019085386
154	0xbd299862	-0.04140509
155	0x3e07ffdc	0.13281196
156	0x3d94259f	0.07233738
157	0xbe06e211	-0.13172175
158	0xbd84e4cd	-0.06488953
159	0x3dd3b669	0.10337526
160	0xbdd1bdc5	-0.10241274
161	0xbd201550	-0.039082825
162	0xbd92e993	-0.07173457
163	0xbd4e1cd6	-0.05032047
164	0x3ca60a1e	0.020268496
165	0x3d9ef03e	0.07760666
166	0x3cba8655	0.022769133
167	0xbdf25f76	-0.11834614
168	0x3e08c60e	0.13356802
169	0xbd512dc1	-0.051069025
170	0xbd54c907	-0.051949527
171	0xbb462d1b	-0.0030239287
172	0x3cbca3da	0.02302735
173	0xbdb9921e	-0.09061073
174	0xbced4520	-0.028963625
175	0x3df5d978	0.120043695
176	0x3c109cb3	0.0088264225
177	0xbc4dfe41	-0.012572826
178	0x3cd928bc	0.026508681
179	0xbd5e8a48	-0.054331094
180	0x3d40aace	0.047037892
181	0xbcc8e9e9	-0.0245256
182	0xbde366c4	-0.11103585
183	0x3d3a12fe	0.04542827
184	0xbd552e72	-0.052046247
185	0xbda64dfe	-0.081203446
186	0xbde0cf5a	-0.10977049
187	0xbaaff9f9	-0.0013425938
188	0x3c87053e	0.016481992
189	0x3dc641d1	0.09680522
190	0xbdd774da	-0.105203345
191	0x3d06d5c7	0.032918718
192	0x3b41d11c	0.0029574102
193	0x3d975b5b	0.073904715
194	0x3b24cec3	0.0025147654
195	0xbc8f47ec	-0.01749035
196	0x3d6182e2	0.05505646
197	0xbe0922f3	-0.13392238
198	0xbd5159c0	-0.051110983
199	0xbb122b6d	-0.0022303716
200	0x3d8faf5c	0.07015869
201	0xbde3379b	-0.1109459
202	0xbe2d70ab	-0.1693751
203	0xbd6b6812	-0.057472296
204	0xbbaa702c	-0.00520136
205	0xbdb7191c	-0.08940336
206	0x3c85dbdc	0.016340189
207	0x3dd0725a	0.10178061
208	0x3b3d3ab8	0.002887411
209	0xbdbd1b8b	-0.09233769
210	0xbdca82e4	-0.09888247
211	0xbd501136	-0.050797664
212	0x3dcbaae1	0.09944702
213	0xbde1cc26	-0.11025266
214	0x3d3c1f65	0.045928378
215	0xbd91f4f1	-0.07126797
216	0x3db6396f	0.08897673
217	0x3d61103d	0.054947127
218	0xbe00881c	-0.12551922
219	0xbd822d26	-0.06356268
220	0xbd210759	-0.039313648
221	0xbd088aef	-0.033335622
222	0xbbf5ac18	-0.007497322
223	0xbe06f7d9	-0.13180484
224	0xbc9d1fcc	-0.019180201
225	0xbd5933b9	-0.053027842
226	0x3df860e9	0.12127859
227	0x3d8e5723	0.06950214
228	0xbd1a5679	-0.037680123
229	0xbd0676c1	-0.032828096
230	0x3d87b60a	0.06626518
231	0xbd24ca55	-0.04023202
232	0xbe2a9f2a	-0.16662279
233	0xbd70fc30	-0.058834255
234	0x3c8e8879	0.01739906
235	0x3d304d09	0.043042216
236	0x3d9116c6	0.07084422
237	0x3d9cc2cb	0.07654341
238	0xbdd82942	-0.10554744
239	0x3d2d6c7a	0.04233978
240	0xbd9ee6d7	-0.07758873
241	0xbdb7d943	-0.08976986
242	0xbbb7b17a	-0.0056058737
243	0x3c00beb4	0.007857967
244	0xbe23d58a	-0.15999427
245	0xbcaf7d02	-0.021421913
246	0x3d467e5d	0.048460353
247	0xbdc1ddc6	-0.09466128
248	0x3dd1daa0	0.102467775
249	0xbd219195	-0.03944548
250	0xbcb912f8	-0.022592053
251	0xbd6016b9	-0.05470917
252	0x3d516220	0.05111897
253	0xbe0934da	-0.13399068
254	0x3dbcab1b	0.09212323
255	0xbd31e5c2	-0.043432005

VAE.encoder_mu.layers.1.linear1.bias f4 [4]
0	0xbe08f291	-0.13373782
1	0xbc9c5f98	-0.019088551
2	0xbcd2d198	-0.025734708
3	0x3d86694c	0.065630525

VAE.encoder_mu.layers.1.norm1.weight f4 [4]
0	0x3f8abd1d	1.0838963
1	0x3f900c9a	1.1253846
2	0x3f8ab0fe	1.0835264
3	0x3f901170	1.1255322

VAE.encoder_mu.layers.1.norm1.bias f4 [4]
0	0x3d140172	0.03613419
1	0xbd15af7d	-0.03654431
2	0xb833af9f	-4.2840486e-05
3	0xbe141edb	-0.14464895

VAE.encoder_mu.layers.1.norm0.weight f4 [4]
0	0x3f756e8c	0.95871806
1	0x3f81ffad	1.0156151
2	0x3f6501c8	0.8945584
3	0x3f849ae5	1.035977

VAE.encoder_mu.layers.1.norm0.bias f4 [4]
0	0xbd3c910a	-0.046036758
1	0x3c6e607a	0.014549369
2	0x3c4ee34c	0.012627434
3	0x3c13c420	0.009018928

VAE.encoder_mu.last_normalization.weight f4 [4]
0	0x3f800000	1.0
1	0x3f800000	1.0
2	0x3f800000	1.0
3	0x3f800000	1.0

VAE.encoder_mu.last_normalization.bias f4 [4]
0	0x00000000	0.0
1	0x00000000	0.0
2	0x00000000	0.0
3	0x00000000	0.0

VAE.encoder_mu.head.weight f4 [4, 4]
0	0xbea6807a	-0.32519895
1	0x3e904678	0.28178763
2	0x3c183fc0	0.009292543
3	0x3d3d0bf0	0.046153963
4	0xbd705a60	-0.05867994
5	0x3eb10704	0.34575665
6	0x3e9d0dd6	0.30674618
7	0xbe8e18cc	-0.27753294
8	0x3cdded20	0.02709061
9	0x3ec9aa4a	0.39387733
10	0x3ea26950	0.31720972
11	0x3e9e5c08	0.3092959
12	0x3bc9a280	0.0061534047
13	0xbe9aa412	-0.302033
14	0x3db88890	0.09010422
15	0x3dcc7708	0.09983641

VAE.encoder_mu.head.bias f4 [4]
0	0x3e1d66a0	0.1537118
1	0x3ed57cb2	0.41696697
2	0xbe656d10	-0.22404885
3	0xbe4ae65c	-0.19814438

VAE.encoder_logvar.layers.0.attention.W_q.weight f4 [4, 4]
0	0xbed9cfcc	-0.4254135
1	0x3ef3bd74	0.4760548
2	0xbecba07c	-0.39770877
3	0xbd38b00d	-0.04508977
4	0xbeba8225	-0.36427417
5	0x3ed4a4aa	0.4153188
6	0xbe2fec0d	-0.1717989
7	0x3f108a97	0.5646147
8	0xbd20ef60	-0.039290786
9	0xbe306d16	-0.17229113
10	0x3ed9d351	0.42544034
11	0x3e5cbd3e	0.21556565
12	0x3dfc7eac	0.12328848
13	0xbe507fe4	-0.20361286
14	0xbe5c93ff	-0.21540831
15	0x3eb38be2	0.3506766

VAE.encoder_logvar.layers.0.attention.W_q.bias f4 [4]
0	0xbd6910b0	-0.05690068
1	0x3d5bb2cb	0.053637307
2	0xbc3365d1	-0.010949568
3	0x3d2ebc70	0.042660177

VAE.encoder_logvar.layers.0.attention.W_k.weight f4 [4, 4]
0	0x3ec5a43e	0.3860187
1	0x3ee61c32	0.44943386
2	0x3e7b7844	0.24557596
3	0x3e96f634	0.29484713
4	0xbecdef54	-0.40221655
5	0x3ab378d3	0.0013692625
6	0xbe8a3f47	-0.27001402
7	0x3e9b128e	0.30287594
8	0xbee10291	-0.4394727
9	0x3e99b1e3	0.3001853
10	0x3e8fc7cf	0.2808213
11	0x3e270097	0.16308819
12	0x3e3bf734	0.1835602
13	0xbec44f44	-0.38341725
14	0xbe82113e	-0.2540378
15	0xbd220a31	-0.0395605

VAE.encoder_logvar.layers.0.attention.W_k.bias f4 [4]
0	0x3847290b	4.748352e-05
1	0xb7c6754f	-2.3658065e-05
2	0xb97e8de2	-0.00024276183
3	0xb904c377	-0.00012661317

VAE.encoder_logvar.layers.0.attention.W_v.weight f4 [4, 4]
0	0x3c9ed6df	0.019389568
1	0xbea0be4b	-0.31395182
2	0x3ed73734	0.42034304
3	0x3ee65bcc	0.4499191
4	0x3ee82cae	0.45346588
5	0x3ee273bf	0.44228932
6	0x3e879d17	0.26487038
7	0x3ef53c11	0.4789739
8	0x3ed8fcc3	0.42380342
9	0x3ee5afe5	0.4486076
10	0xbeaf4917	-0.3423545
11	0x3e34028a	0.17579094
12	0x3c83bb69	0.016080575
13	0x3e631a27	0.22177945
14	0x3ec605a8	0.3867619
15	0x3e8bdb05	0.27315536

VAE.encoder_logvar.layers.0.attention.W_v.bias f4 [4]
0	0xbc8423fe	-0.016130444
1	0x3b87c99b	0.0041439063
2	0xbd0b0dd3	-0.03394873
3	0xbd125340	-0.035723925

VAE.encoder_logvar.layers.0.linear0.weight f4 [128, 4]
0	0x3ec7591c	0.38935173
1	0xbeea59fe	-0.45771784
2	0xbe85d847	-0.2614157
3	0x3e77d3bf	0.24201868
4	0xbedafea3	-0.42772397
5	0xbd4edc04	-0.050502792
6	0x3e68116d	0.22662897
7	0x3ecb72f6	0.39736146
8	0xbd761cb8	-0.060085982
9	0x3efdfb00	0.4960556
10	0xbe8336b0	-0.2562766
11	0x3e2a28f4	0.16617185
12	0xbd9dcf88	-0.07705599
13	0x3ee7f32d	0.45302716
14	0x3ec67dd3	0.3876787
15	0xbe4e2fbf	-0.20135401
16	0x3d654b3e	0.05597996
17	0x3edc7883	0.43060693
18	0xbf0fd779	-0.5618816
19	0x3ccfc6f2	0.02536342
20	0x3d85c578	0.06531805
21	0x3d922ae8	0.0713709
22	0x3ef209df	0.47273156
23	0xbe95a070	-0.29223967
24	0x3e9585cb	0.29203638
25	0xbe83d7de	-0.2575063
26	0x3eda2d80	0.4261284
27	0xbdef345b	-0.11679908
28	0x3e989651	0.29802182
29	0x3deb444a	0.114876345
30	0x3d1a96bb	0.037741404
31	0xbeaa9c60	-0.3332243
32	0x3d98b3c4	0.074561626
33	0x3ebd3ba6	0.3695957
34	0xbe4ea3e1	-0.20179702
35	0xbe79faa3	-0.24412017
36	0x3eed2fb8	0.4632547
37	0xbeca3a64	-0.39497674
38	0xbee65db1	-0.44993356
39	0xbe4c7bf0	-0.19969153
40	0x3eae049a	0.33987886
41	0xbe25c47c	-0.16188234
42	0x3dbd6aa7	0.09248858
43	0x3d018eb6	0.03163024
44	0x3e10e46c	0.14149636
45	0x3eaf062d	0.341844
46	0x3e9bfe7d	0.30467597
47	0xbe79104c	-0.24322623
48	0xbed0cd83	-0.40781793
49	0xbd09504a	-0.033523835
50	0x3eed797e	0.46381754
51	0xbdaedb9e	-0.085379824
52	0x3ea6f68c	0.32609975
53	0x3c9ee3cc	0.019395731
54	0xbd400dc7	-0.04688814
55	0x3eb50536	0.35355538
56	0xbe9fa7e2	-0.31182772
57	0xbea64c08	-0.32479882
58	0xbe4a1aa7	-0.1973673
59	0x3d9a8fed	0.07546983
60	0x3d0ab00b	0.033859294
61	0x3c856808	0.016284958
62	0xbeea266e	-0.45732445
63	0x3de8e834	0.11372414
64	0xbea6856a	-0.32523662
65	0xbe90cc68	-0.2828095
66	0x3f15caea	0.5851275
67	0xbe0b5285	-0.13605697
68	0x3ea2976a	0.31756145
69	0x3e3481b9	0.1762761
70	0xbd1aa307	-0.03775313
71	0x3f085eb0	0.5326948
72	0xbdfa4db1	-0.1222185
73	0x3df5790e	0.1198598
74	0xbda4b8a1	-0.08043028
75	0x3ebbcee2	0.36681277
76	0xbe90bd8c	-0.28269613
77	0x3e938d6d	0.28818837
78	0x3e801f3d	0.25023833
79	0xbcb88597	-0.022524638
80	0xbea6c995	-0.3257567
81	0x3efb0d70	0.4903369
82	0x3ee71017	0.45129463
83	0xbe1d2b72	-0.15348604
84	0x3e3c07ad	0.18362303
85	0x3eb7ddd7	0.35911438
86	0x3e9916a7	0.29900095
87	0xbdbf8712	-0.093519345
88	0xbeac1ecb	-0.33617243
89	0xbecc5c6f	-0.3991427
90	0xbd3a577e	-0.045493595
91	0x3eaaac55	0.33334604
92	0xbcca5ac2	-0.02470148
93	0x3ea12431	0.31472924
94	0xbe96119c	-0.2931031
95	0x3e79ee22	0.24407247
96	0xbed3dabb	-0.41377816
97	0xbed4e8da	-0.41583902
98	0x3dd761e1	0.10516716
99	0xbe8c06db	-0.2734898
100	0xbea0723f	-0.31337163
101	0x3dcdb42d	0.100441314
102	0xbe6a6920	-0.22891665
103	0x3d8e735e	0.06955598
104	0xbc9b190b	-0.01893284
105	0xbe88e0ab	-0.26733908
106	0xbe904763	-0.28179464
107	0xbdbb079d	-0.091323115
108	0x3e9b384c	0.3031639
109	0x3f08d784	0.5345385
110	0x3ec86859	0.3914211
111	0xbeb6a890	-0.35675478
112	0xbdfd510f	-0.12368976
113	0x3e124f4c	0.14288062
114	0xbe18ca98	-0.14921033
115	0xbeda334a	-0.42617255
116	0x3f07f9e0	0.53115654
117	0xbec325fb	-0.38114914
118	0xbe803f28	-0.25048184
119	0x3f02ac56	0.51044214
120	0xbedc204d	-0.42993394
121	0xbedf61c6	-0.43629283
122	0x3e7810dc	0.24225181
123	0xbeda253f	-0.42606542
124	0x3e47a522	0.19496587
125	0xbe4ccc6f	-0.1999986
126	0x3f055048	0.52075624
127	0xbe42941b	-0.1900181
128	0x3e87c341	0.26516154
129	0x38e45ac1	0.000108887914
130	0xbf01bc6a	-0.5067812
131	0x3e988543	0.2978917
132	0xbeeb7165	-0.4598495
133	0xbed3f968	-0.4140122
134	0x3c0d50a8	0.008625187
135	0xbee34583	-0.4438897
136	0x3e1802f0	0.1484487
137	0x3e61ccf9	0.22050847
138	0xbcc73c14	-0.02432064
139	0x3e0d86ad	0.13820906
140	0x3e8987fe	0.26861566
141	0xbee793e6	-0.45230025
142	0xbd4c0135	-0.04980584
143	0xbebec9b6	-0.37263268
144	0xbeef99b2	-0.46796948
145	0x3ddc2bc5	0.10750536
146	0x3e994652	0.29936463
147	0xbe5e47d1	-0.21707083
148	0xbe15641f	-0.14588974
149	0xbed12863	-0.40851125
150	0xbd99c7da	-0.07508822
151	0xbda3fa88	-0.080067694
152	0xbeb54edd	-0.3541173
153	0x3e344ec3	0.1760817
154	0xbeea6e4c	-0.45787275
155	0xbec130ff	-0.37732694
156	0xbe8c8d69	-0.27451637
157	0x3e92bea4	0.28661072
158	0xbec0ec46	-0.37680262
159	0xbe86fdf2	-0.2636562
160	0xbec73621	-0.38908485
161	0x3e3afa85	0.18259628
162	0x3ed1ca9f	0.409749
163	0xbeebb6e1	-0.46037963
164	0xbee7f752	-0.45305878
165	0xbdef5aab	-0.116872154
166	0x3d6d85cb	0.057988923
167	0xbe657c27	-0.22410642
168	0xbd98d812	-0.07463087
169	0xbe3b484b	-0.18289296
170	0x3d22f615	0.039785463
171	0xbea52617	-0.32255623
172	0x3e9d5e40	0.3073597
173	0x3eb46e95	0.35240617
174	0xbd8bc10c	-0.0682393
175	0xbe4c2f02	-0.19939807
176	0xbe745fc3	-0.23864655
177	0xbe1e39a2	-0.15451673
178	0x3edd2f17	0.4319999
179	0x3e8a6de0	0.27036953
180	0xbd8aff9f	-0.06787037
181	0x3e547ff9	0.20751943
182	0x3ec45763	0.3834792
183	0x3d55fe15	0.052244265
184	0x3e31826d	0.1733491
185	0x3ec8c747	0.39214537
186	0xbc667b81	-0.014067532
187	0xbe2b5958	-0.167333
188	0xbe141d59	-0.1446432
189	0xbeb4a6ed	-0.35283604
190	0x3d8b83ec	0.068122715
191	0xbca5a7dd	-0.020221645
192	0x3eb777e8	0.3583367
193	0xbd04edf1	-0.03245348
194	0x3df537ba	0.119735196
195	0xbedbbd8c	-0.4291805
196	0x3dcff5c8	0.10154301
197	0xbb74ac46	-0.0037334128
198	0x3e97645b	0.29568753
199	0x3e9a2353	0.30105075
200	0x3df9b3e5	0.12192515
201	0xbe9017fd	-0.28143302
202	0xbea17a77	-0.31538746
203	0x3eddcf62	0.43322283
204	0x3deffcf0	0.11718166
205	0x3ebbee8f	0.36705443
206	0x3eeac942	0.45856673
207	0x3c5e3282	0.013561847
208	0xbea8a643	-0.32939348
209	0x3ea475f5	0.32121244
210	0x3ed660e4	0.41870797
211	0xbc8d0425	-0.01721389
212	0xbe3068e4	-0.17227513
213	0xbd92de9a	-0.07171364
214	0x3ec6b8b0	0.3881278
215	0xbe9101cf	-0.28321692
216	0x3d760056	0.060058914
217	0xbec9a4e3	-0.3938361
218	0xbe59ed16	-0.21281847
219	0xbda2432d	-0.07922969
220	0x3ce60cf0	0.028082341
221	0x3e94203b	0.2893084
222	0xbe4d32c0	-0.20038891
223	0xbec6e18c	-0.38843954
224	0x3dc4c3c0	0.09607649
225	0x3e0f2a7e	0.13981053
226	0xbf0aa165	-0.5415252
227	0xbcfaf765	-0.030635545
228	0x3e809fe7	0.25121996
229	0x3d716f20	0.058943868
230	0xbe083d40	-0.13304615
231	0x3f012c4d	0.5045822
232	0xbeab69f1	-0.33479264
233	0xb946d8b8	-0.00018963485
234	0x3ed7b00f	0.4212651
235	0x3ef626e6	0.48076552
236	0xbda85dd7	-0.082210235
237	0xbe90a550	-0.28251123
238	0xbeb067ad	-0.34454098
239	0xbe006b37	-0.12540899
240	0x3ef92a38	0.48665023
241	0x3ecdace3	0.40170965
242	0x3ec2dad9	0.38057593
243	0xbe9a0177	-0.30079243
244	0xbedf1955	-0.43574014
245	0xbec81c8e	-0.39084285
246	0x3f0bc446	0.54596364
247	0x3d8ece97	0.06972998
248	0x3d925d43	0.071466945
249	0x3dbacf55	0.09121577
250	0x3e58827f	0.2114353
251	0xbe8a0367	-0.2695572
252	0x3ee99e17	0.45628425
253	0xbe878a2a	-0.26472598
254	0x3e90b448	0.28262544
255	0xbe4827c0	-0.19546413
