tabsyn/vae/ckpt/adult/decoder.pt (torch, 28547 bytes, 49 tensors)

VAE_Decoder.layers.0.attention.W_q.weight f4 [4, 4]
00000000: 1b87 dbbe 0c28 31be da68 a8be f3d1 853e
00000010: 157f ad3d d210 2c3e 38d1 13be 2a85 9e3e
00000020: a8b2 503d 70fe 22be f6fc 35be db12 c4be
00000030: 5d9b 353e d249 dd3e d679 533e 0d15 cd3e
-0.42876515 -0.17300433 -0.32892495 0.2613674 0.084715046 0.16803291 -0.1443528 0.3096097
0.05095163 -0.15917373 -0.17772278 -0.38295636 0.17735048 0.43220383 0.20651945 0.40055123

VAE_Decoder.layers.0.attention.W_q.bias f4 [4]
00000000: 52cb 0c3d 2b50 99bd 8c0f 82bc ff51 443d
0.03437359 -0.07485994 -0.015876554 0.04792976

VAE_Decoder.layers.0.attention.W_k.weight f4 [4, 4]
00000000: 4c03 63be 9c3a db3c e8a1 a9be ca34 19be
00000010: c43e 8a3e b1b0 0c3e ca47 cc3e 3e78 dabd
00000020: cce9 13bd e0d9 94be 7e64 e4be da12 eebe
00000030: d9ee f1be 1034 c4bd 9d2e 84bd 0da1 9fbe
-0.22169226 0.026761346 -0.33131337 -0.14961544 0.2700101 0.13739277 0.3989852 -0.106674656
-0.036111638 -0.29072475 -0.4460792 -0.46498758 -0.4725254 -0.09580243 -0.06454203 -0.3117756

VAE_Decoder.layers.0.attention.W_k.bias f4 [4]
00000000: 7125 28ba eef9 bdba 8133 a2ba eb3b 993a
-0.00064142706 -0.001449404 -0.0012374969 0.001169083

VAE_Decoder.layers.0.attention.W_v.weight f4 [4, 4]
00000000: 13d6 c3bd 27b6 3ebe 9a8c 963d b4bb 95bd
00000010: f28d acbd b9d0 32be 3a19 9a3d 26ee 82bd
00000020: 07f2 c3bd 657a 54be a2f4 a33d 3d5f 98bd
00000030: 6ede b1bd 090b 44be 8c8e 9c3d 4a18 86bd
-0.09562316 -0.18624173 0.07351036 -0.07311192 -0.084255114 -0.17462434 0.07524343 -0.063930795
-0.095676474 -0.20749815 0.080056444 -0.0744004 -0.08685003 -0.19144835 0.07644376 -0.065476015

VAE_Decoder.layers.0.attention.W_v.bias f4 [4]
00000000: c78b edbd 5d98 c5bd ced2 f73c aafd 3b3d
-0.11598926 -0.096482016 0.030251887 0.04589621

VAE_Decoder.layers.0.linear0.weight f4 [128, 4]
00000000: 3cee 5f3e f02e 2abe 9f06 3bbe 4b3a 48be
00000010: 1cc7 05bf 5f32 94be 66c6 e13d ab41 99be
00000020: 8e54 733c 67d2 94be 27fe 31bf 2198 f73e
00000030: 7afd 0c3e 6bb7 63be 98cf 633e 8d08 6ebe
00000040: b5ae e4be 6f18 313c 9566 1ebe b0c4 ca3e
00000050: bc34 833e 560c b63e ed49 a23e 69ca 623e
00000060: 7ac5 f53d f310 1d3f 591f 89bf 6c00 14bf
00000070: 0270 573e f072 163c bac0 993e d727 2ebf
00000080: 4719 653e dd68 60be 504a cdbe 288b 693e
00000090: 027b f1bc 5ed3 da3e cee2 ebbe 6d03 2bbe
000000a0: da51 5abe 789f dabe 9114 a5be 8878 893e
000000b0: 3215 8ebe f2f8 8d3e 20fb 92bd 5132 013f
000000c0: f7ba cf3d 317c b13e 761e b2bd 9c6b cb3c
000000d0: 2f92 e73d 336e 6c3e 5e04 d93e 10a2 34bf
000000e0: d28a 86ba b1f4 82be 3194 edbe 9796 d93e
000000f0: dd2a 01bf 4abc d63e 108d 263f 0d02 f2be
00000100: 8347 08be 11af 1bbe f009 863e ef30 16bf
00000110: 8e32 1cbf 4169 133d a05f 10bd 1aea 373f
00000120: ec45 6ebc 8b19 263f 1a5a ebbe 6910 edbe
00000130: 7c15 c7be 5761 cbbd 8d1c 97be 961d 803d
00000140: a958 43be 91ad 093f 0072 833e 2a30 c7be
00000150: 9af1 693d e63a d2be fa08 973c a5de 71be
00000160: 6d5a 93bd a865 963e aa73 66bf 030a 09be
00000170: 56ef 423e 5c33 98bd 9270 5b3e ad4f a23d
00000180: 0a96 0bbf bd34 f2be a646 633f 79e6 a73e
00000190: 7ef3 13bf 5465 043e 9edf 8d3e d22a 0c3f
000001a0: f62e b43e a466 903e 2cbb 62be 2e5c 5f3d
000001b0: 27eb 0d3f 183a 613e aed1 74be 5cc0 24be
000001c0: d55c ed3e b36d 6bbe b6fb 193d c76a 80be
000001d0: 11dc c23e 0db1 dabe 9305 10bf 0865 8bbe
000001e0: 86d8 e63e 1f3a 85be 2298 c6be a760 e3be
000001f0: 308d 03bf 18a6 e1be 254c 72be d624 813d
00000200: 1bcd 04bf 02e6 d93d b77e 8e3e ae10 3dbe
00000210: f487 06bf ab75 e1be 741a 29be 8c54 453f
00000220: 3aba cb3e 3029 0cbe c9a5 06bf 1212 04bf
00000230: bb97 e03e 4ac5 11be 4f53 94be 7dd2 7bbe
00000240: bf64 0d3e 6502 09bd 3ec9 7a3e 272b 9cbd
00000250: b44c d7be b9ac 11bf 2512 25be 9018 e1be
00000260: 2034 e4be f596 913d 3a90 9dbe 145d 173e
00000270: 5a07 9b3e 1f20 8f3d d041 c73e 8c4c 9abe
00000280: 99ac 18be af78 003f 3f8b 463d 65a7 a53e
00000290: 4804 52be 10ef 42bc cc8f a8bd 1db3 a93e
000002a0: c84c df3e 51b7 413f 802a 20bf 4031 0a3f
000002b0: 377c a03e f132 f63d 0ded a13e eeb6 07bf
000002c0: 82f8 b8be 86b6 babe 32b1 91be 0f95 f23e
000002d0: f2d0 7abe 4cd5 653f 4ed2 2fbf cb31 aa3d
000002e0: 34ba a1bb a4ce 8fbd 0494 e4be 6fda bfbe
000002f0: e219 9abd 7396 133f 5abd ae3e 1e10 d7be
00000300: a8f3 31bf f77b 84be fbd1 ba3c a4bc e73e
00000310: 4d7b f7bc ddcd db3e 895d 1a3e 2d33 1e3f
00000320: cf54 4bbe ac77 243f d763 90be f428 d73e
00000330: fda6 fd3e 750a 983e 1ff0 97be 8b11 d7bd
00000340: ed72 b93d 05db ed3e 74aa 16bf 1fbe 293d
00000350: 4dd3 b43e e8ea d9be cfb6 d83e 217c 923e
00000360: c8f2 1ebf b91a 1e3e fcbd e93e 7246 6f3e
00000370: 4af8 043e 3c95 c1be 1e2e 043e 45da 033f
00000380: 597c 333e fed2 07bf d9c3 79be 8709 af3d
00000390: 4ac8 95be 7517 69ba 77de a83d 53d4 54bf
000003a0: 597f 3dbe 52a3 3c3e 4407 d33e a74d 3b3e
000003b0: c1a0 b23e 6f3f bb3d 2fa9 4ebf 98a5 503f
000003c0: 1baf 00bf 6bdf b33d d482 98bd 12e3 b83e
000003d0: 4c67 a9be 3820 9bbd 8970 2abf 4e7f ba3d
000003e0: 11e2 79bd d763 943e b873 263f d75d 0bbf
000003f0: 1940 9ebe 098e 2f3f f579 323d 11f0 833e
0.21868223 -0.16619468 -0.18264244 -0.19553487 -0.5225694 -0.2894468 0.110241696 -0.29932913
0.014851702 -0.29066774 -0.6952843 0.48358253 0.13768569 -0.22237937 0.2224716 -0.2324545
-0.4466454 0.010809048 -0.1546882 0.39603186 0.2562617 0.35556287 0.31697026 0.22147526
0.12000556 0.6135399 -1.0712692 -0.57813144 0.21038821 0.009182677 0.3002985 -0.6802954
0.22372924 -0.21915002 -0.40095758 0.2280699 -0.0294776 0.42739385 -0.46071476 -0.16700526
-0.21320286 -0.4269979 -0.32242253 0.2684977 -0.27750546 0.27728993 -0.071768045 0.504674
0.101430826 0.34665063 -0.08697216 0.024831586 0.11307179 0.23088913 0.42386144 -0.7055979
-0.001026476 -0.2557731 -0.46402124 0.42497703 -0.5045603 0.41940528 0.65058994 -0.4726719
-0.1330853 -0.15203501 0.26179457 -0.58668417 -0.6101464 0.03598905 -0.035247445 0.71841586
-0.014543038 0.64882725 -0.4596718 -0.46301582 -0.3888358 -0.099306755 -0.2951397 0.06255643
-0.1907679 0.53780466 0.25672913 -0.38903934 0.057115175 -0.4106056 0.018436898 -0.23620088
-0.07194982 0.29374433 -0.9002024 -0.13382725 0.19036612 -0.07431671 0.21429661 0.07925353
-0.54525816 -0.4730586 0.88779676 0.32793024 -0.57793415 0.12929279 0.2770967 0.5475284
0.35192078 0.2820331 -0.22141713 0.05453127 0.5543694 0.21994817 -0.23908111 -0.16089004
0.46359888 -0.22991066 0.037593566 -0.25081465 0.38058522 -0.42713204 -0.56258506 -0.27225518
0.4508707 -0.26020905 -0.38787943 -0.44409677 -0.5138731 -0.44072032 -0.2366186 0.06305854
-0.51875466 0.10639574 0.2783105 -0.18463394 -0.525512 -0.44035086 -0.16513997 0.77082133
0.39790517 -0.13687587 -0.5259672 -0.51590073 0.4386576 -0.14235416 -0.2896981 -0.24592014
0.13807963 -0.03344955 0.2449083 -0.07625418 -0.42050707 -0.5690418 -0.16120203 -0.43964052
-0.44571018 0.07108871 -0.307741 0.147816 0.30279046 0.069885485 0.38917398 -0.30136526
-0.14909591 0.5018415 0.04847264 0.32354274 -0.20509446 -0.011897817 -0.08230552 0.33144465
0.43613267 0.75670344 -0.6256485 0.539814 0.31344768 0.12021435 0.31626168 -0.53013504
-0.36127096 -0.3646738 -0.28455502 0.47379348 -0.24493769 0.8977859 -0.68680274 0.083102785
-0.004935527 -0.070218354 -0.44644177 -0.3747134 -0.07524468 0.5765144 0.3412884 -0.42004484
-0.69512415 -0.25875828 0.022805205 0.4526111 -0.030210162 0.429305 0.15074743 0.6179684
-0.1985657 0.64245105 -0.28201172 0.42023432 0.49541464 0.29695478 -0.29675385 -0.10501393
0.090551235 0.4645616 -0.5885384 0.04144108 0.3531746 -0.42562032 0.42326972 0.28610328
-0.62089205 0.15439881 0.4565276 0.23366717 0.1298534 -0.3780917 0.12908217 0.5150493
0.17527904 -0.53056324 -0.24391116 0.08546739 -0.2925437 -0.000889174 0.08245557 -0.8313648
-0.1850561 0.18421677 0.4121648 0.18291341 0.3488827 0.091429584 -0.80726904 0.81502676
-0.5026719 0.08782848 -0.074468285 0.3611074 -0.33086622 -0.075745046 -0.66577965 0.09106313
-0.06100661 0.28982422 0.6502032 -0.54440063 -0.30908278 0.68576103 0.04357334 0.25769094

VAE_Decoder.layers.0.linear0.bias f4 [128]
00000000: 2826 0d3e 28f6 d33e 6232 84be a44f 313e
00000010: dc84 073f affd a93e 02ee dfbd 8c24 e43e
00000020: 0b83 b1bd 8ee5 f43e bbbe ed3e 466f 3a3e
00000030: 3815 863e b1bc da3e 330c 233e ce53 4d3e
00000040: 1dcf 3b3d 2301 803e 1b41 743e cd11 e43e
00000050: e391 ba3e 58ec 02be f96e ff3e addb 97bd
00000060: f678 6f3f bcfa cfbd 18de e53e 79d9 e23e
00000070: 42fb 2f3d bc22 c3be 8971 59be 8c94 54bc
00000080: 955b ae3e b37c e33e 7d80 ed3e 937d c03d
00000090: 18f7 ca39 5a11 c13e 99c5 033f 7ed3 883e
000000a0: 2c43 33be 79cc 853e 0bc3 e53e cdc6 a83e
000000b0: 8d5d 033f 6834 ba3e 2c41 1c3e 4b6c 4b3e
000000c0: 00e4 0ebe 2c4d 7f3e 2f2a c33d 7388 d4bc
000000d0: 3f54 e83e 3371 dfbe 1186 03be 01c6 333e
000000e0: 8a06 cd3e 3eb9 bc3e 9cff 1a3f 3859 6ebe
000000f0: 8b23 733e 06e7 71be 05a9 f43c 8004 c0be
00000100: df19 6f3e 7da6 d93e 610d 073f b6b4 543e
00000110: f4bf 0bbf 4dd2 c73e 13c9 f6bd 8022 07bd
00000120: d3b0 343e f2bb a33d c01e a3be af17 ed3e
00000130: e588 2b3e 5c87 493e 676b b03e 55a6 e8bb
00000140: aaad 5bbc 5db0 5dbd 0463 063e 48d6 733e
00000150: 8dbd 9e3e 4fdc 0ebe 9be5 2d3f 8c3f 8fbe
00000160: cc6f 8f3e 0e4b eb3d 9c91 dfbe 05fb f33e
00000170: b305 ed3e c94d 7e3e f84b f2bd 071d 923e
00000180: 77df ac3d d800 f53e 3662 42be eb8b e03d
00000190: 077b 273e d298 7e3e ea48 63bc 49d9 d83e
000001a0: aeb8 f93d 97bc 493e b428 8dbe 258c 173d
000001b0: 4e82 d83e b927 0d3e 05e5 8fbe 267f b33e
000001c0: 12b5 f5be 3435 ee3d 72a4 3a3e d87a 053e
000001d0: 6786 8fbe 4d80 8d3e 4821 2c3e fdd4 043e
000001e0: 6251 3d3d 62cf dbbe 4c37 0ebf 0d60 6e3e
000001f0: 4d4b 7abe 561c c13e d86a ec3e 2ee4 01bf
0.13784087 0.4139874 -0.2581969 0.17315537 0.529371 0.33201358 -0.10934068 0.44559133
-0.086675726 0.47831386 0.46434578 0.1820651 0.26188064 0.42722085 0.15922622 0.200515
0.045851815 0.25000867 0.23852961 0.4454483 0.36439428 -0.1278547 0.49889353 -0.07414947
0.93543947 -0.10155246 0.44896007 0.44306543 0.042964227 -0.38112438 -0.21234716 -0.012974869
0.34054247 0.44431075 0.4638709 0.093989514 0.00038712542 0.3770855 0.51473385 0.26723856
-0.17506093 0.26132563 0.44875368 0.32964173 0.5131462 0.36368108 0.15259236 0.19865529
-0.13954163 0.24931782 0.0952953 -0.02594397 0.45376775 -0.43641052 -0.12844111 0.17556001
0.4004405 0.3686008 0.6054628 -0.23276222 0.23744027 -0.23623285 0.029865751 -0.37503433
0.23349713 0.42509833 0.5275479 0.20772061 -0.5458977 0.39027634 -0.120500706 -0.032991886
0.17645578 0.07994832 -0.31859398 0.46307132 0.1675144 0.19680542 0.3445694 -0.0070999064
-0.013408104 -0.05412327 0.13123709 0.2381221 0.3100399 -0.13951229 0.67928475 -0.2797817
0.28014982 0.11488925 -0.4366578 0.4765245 0.4629341 0.2483436 -0.11830896 0.2853777
0.0844106 0.47852206 -0.18982777 0.10964187 0.16355525 0.24862984 -0.013872365 0.42353275
0.12193428 0.19700848 -0.27570117 0.036998887 0.42286915 0.13784684 -0.28104416 0.35057944
-0.47989708 0.116312414 0.18226793 0.13035142 -0.28032228 0.27636948 0.16809571 0.12971874
0.04622019 -0.42931658 -0.55553126 0.23278828 -0.24442787 0.3771693 0.46175265 -0.507388

VAE_Decoder.layers.0.linear1.weight f4 [4, 128]
00000000: c3c0 863d 4c46 b3bd 72a0 12bd ed59 b9bc
00000010: 4d77 09be 7066 d33c cea3 d13e 710f fe3c
00000020: bcab 41bd 5fe7 113e 3e21 debd 3927 14bd
00000030: d200 963d 7b0d 8a3d a3ef cdbd 45be 1dbe
00000040: c8d3 e1bd 9deb fcbd 6a6b f13d fd53 86bd
00000050: a42c 64be f5ce 913d edf8 233e 95b6 353c
00000060: e45b 85be 512f 13be c967 6a3e 4d92 1e3e
00000070: fed4 723d 422a 033e addb 073e d651 95bd
00000080: 7324 61be 2bad 58be 1e2a 523e 3e5b 313d
00000090: 69ee 6ebc df86 9b3c 4f57 23bd 632b b23c
000000a0: 0152 04be 1d03 22be 0244 58bc 213c e33d
000000b0: b74e cbbd cd8c d9bc dac8 123e 8850 3fbe
000000c0: 8017 10bd 6b73 2cbe d14c c2bd 67c0 d23e
000000d0: 8db6 823d 1b07 553d 5857 f4bd 4b34 22bd
000000e0: 9d96 96bb 4749 3d3c 7e60 64be ce26 1abc
000000f0: f577 a0bd 76fe 85bd 64bb 2abe 273d 1bbf
00000100: 4c54 c13c 0407 b7bd 5449 dcbd 3fcf c4bd
00000110: 464e 80bb d532 30be 3b75 2fbe f253 5dbe
00000120: 2a7c 3fbe 4448 54bc 6ffc bebc b7d2 333c
00000130: d402 babd ffc3 39be 1aca 21be cec9 95be
00000140: 4dcc a7bd 7edb 13be 0bcf 5dbe a7b6 28be
00000150: ff39 31be 20fc bcbe 27a6 8dbe 256f 01be
00000160: 452a 513d bece 7dbe 20b1 783e 3944 573a
00000170: ac37 e9bc 6954 8bbe 65a9 68be b86d 163e
00000180: faf4 59be 6801 5ebe c1ab e6bd fc82 713d
00000190: bf88 5d3e 4c6e 853d 6c79 7fbe 5f50 d5bd
000001a0: c6b8 3d3d b233 f1bd 5f1f 6dbf 1ca1 96bd
000001b0: e2ee bdbd 069a 333d d00f 9abc da91 90be
000001c0: d126 643e 7999 abbc 3287 09be 01cb 583d
000001d0: dc32 a1bd 2f0f 033d a6af 65be d6f6 e83e
000001e0: 5ead 35be 466c c23e 23a1 9dbd 52ab 9a3a
000001f0: 3e2b 2abe e574 d33c ae0a 8a3d f0a6 d83d
00000200: 200a 193d c14d 1ebe 1bf9 c43c 732f e0bd
00000210: 03fe 78bd 39a3 5cb7 c0bc 303f 78d1 06bb
00000220: dd2a debd 9a1b 743e a798 ebbd e410 52bd
00000230: d643 753d 877f 623c 9fd2 aabc 9496 dbbd
00000240: 7396 49bd 8dc8 dfbd 55ef 843e cc9e 433d
00000250: 60e5 203d e382 2fbd 162e 953e 3db1 20bc
00000260: 216a 4fbe 569f 02be 9793 233e d085 1cbd
00000270: 66e3 e13c b2ff b7bd ba42 42be 0b53 69bd
00000280: bac4 843b 1f66 57be 10f4 c8bb d118 08bd
00000290: 1c5d 523c 274b 35be 4667 543d d353 0ebe
000002a0: 82ce 333e d369 94bd 1b74 503e e4ec 18bd
000002b0: 5d3f 4abe 8430 d43e 1616 dd3d d00d 5f3b
000002c0: 77b8 b2be fbdb 8ebd 6e41 f93d 4e64 b03d
000002d0: 9b9d 4c3e 8729 4ebe 5824 6bbe b0b3 39be
000002e0: 9d41 7cbe cf81 7e3b 0a09 79bd 42dd 1a3e
000002f0: c9f9 81bd 51ef 7f3e e78c e7bd c01e 0e3e
00000300: 4822 5dbe a3d0 b8bd 9477 5ebe de69 563f
00000310: 193d c3be ea06 1cbe e0fd f1bd 5993 7e3c
00000320: 59fb 333e 1160 16bf 5813 42bd 1b33 d23d
00000330: c447 bbbd bdc1 e63d a315 70bd b791 1ebe
00000340: a04d c13d 125a 07be ddec bcbd e538 903e
00000350: abc1 793e 1721 9dbd c773 7ebe dc21 2e3e
00000360: 1ffe 0cbe 0684 80be 137f 053f 0295 12be
00000370: 3b57 c83c f6e5 15be 4b1b 43bd 67f3 45bb
00000380: 75d3 cbbd 216c eabd 6c53 d3be 0aa6 e6bd
00000390: 75ce 21be 0cc7 f3bd 3143 bdbc bbb5 523e
000003a0: 02a3 febd c110 07be d8c7 113f 20e7 0c3e
000003b0: 5a9a a5bd 0a63 e9bd 2299 25bf f264 a5bd
000003c0: 4d9e 97be 3bbf 98bd 5c33 45bd 5d53 04bd
000003d0: bf89 03be 1a81 ce3e 6cb1 d33d 2eeb 31bb
000003e0: 5c58 0ebe 228e d13e 8854 d0bc 4ab8 0fbe
000003f0: 89ad a83d b456 5abb f41f e9bc 7cfe 7fbe
0.06579735 -0.087536424 -0.035797544 -0.022625888 -0.13424416 0.025805682 0.40945286 0.031013222
-0.04728292 0.14248417 -0.10846184 -0.03617022 0.07324375 0.067408524 -0.10055473 -0.15404613
-0.11026722 -0.12349627 0.11788066 -0.06558988 -0.22282654 0.07119552 0.16012926 0.011090894
-0.2604667 -0.14373519 0.22891153 0.15485497 0.059285156 0.12809089 0.13267393 -0.072909996
-0.2198656 -0.21159808 0.20523879 0.043299906 -0.014583209 0.01898521 -0.039878186 0.021749204
-0.12921907 -0.158215 -0.013199808 0.11095453 -0.09927123 -0.026556397 0.14334431 -0.18683064
-0.03517866 -0.16840903 -0.09487308 0.41162416 0.06382475 0.05200873 -0.11930722 -0.03960065
-0.004595591 0.011553115 -0.22302434 -0.009408666 -0.0783538 -0.06542675 -0.16673046 -0.60640186
0.023599766 -0.08936885 -0.10756174 -0.096098416 -0.003915581 -0.17206891 -0.17134564 -0.21614054
-0.18699709 -0.012956683 -0.02331373 0.010975531 -0.09082571 -0.18141173 -0.15799752 -0.29255527
-0.08193264 -0.14439198 -0.21661012 -0.16475926 -0.1730728 -0.36911106 -0.27665827 -0.12640055
0.051065702 -0.24785897 0.24286318 0.0008211765 -0.02846893 -0.27212837 -0.22720869 0.14690292
-0.21284857 -0.21680224 -0.11263228 0.058962807 0.21634196 0.06515178 -0.24948663 -0.1041572
0.04631879 -0.11777438 -0.92625993 -0.07354948 -0.09274079 0.04384806 -0.018806368 -0.28236276
0.22280432 -0.020947205 -0.13430479 0.052927975 -0.07871029 0.031996902 -0.22430286 0.4550082
-0.17741916 0.3797323 -0.0769675 0.0011800325 -0.16618058 0.025812576 0.06740318 0.10578716
0.03736317 -0.15459348 0.024044564 -0.1094655 -0.06078912 -1.3151025e-05 0.6903801 -0.002057163
-0.10848019 0.23838654 -0.115037255 -0.05128564 0.059879147 0.01382435 -0.020852385 -0.1072208
-0.049215745 -0.10926924 0.25963846 0.047758862 0.03928125 -0.042849433 0.29136723 -0.009807882
-0.20255329 -0.12756094 0.1597427 -0.03821355 0.027574252 -0.08984317 -0.18970767 -0.05696396
0.004051772 -0.2103505 -0.00613261 -0.03322679 0.012839582 -0.1770445 0.0518563 -0.13899164
0.17559245 -0.07246747 0.2035679 -0.03733529 -0.19750734 0.41443264 0.10795228 0.0034035333
-0.3490636 -0.06975552 0.12170683 0.086128816 0.19981997 -0.20133029 -0.22963083 -0.18134952
-0.24634404 0.0038834696 -0.060799636 0.15123466 -0.06346471 0.24993636 -0.11306172 0.13878918
-0.21595109 -0.09024169 -0.21725303 0.8375529 -0.3813255 -0.15237013 -0.11816001 0.01553806
0.1757635 -0.58740336 -0.04738173 0.10263654 -0.091445476 0.112674214 -0.058614384 -0.15485273
0.09438634 -0.13217953 -0.092248656 0.28168407 0.24390285 -0.07672327 -0.24848853 0.17005104
-0.13768815 -0.25100726 0.52147025 -0.14314654 0.024455657 -0.14638504 -0.04763345 -0.0030204894
-0.099524416 -0.11446405 -0.41274583 -0.11262138 -0.15801413 -0.119031996 -0.023103328 0.20577137
-0.12433435 -0.13189985 0.5694556 0.13760042 -0.08086081 -0.11395843 -0.6468679 -0.080758944
-0.2961296 -0.07458349 -0.048144683 -0.032306064 -0.12845515 0.40332872 0.10336575 -0.0027148235
-0.13900894 0.4092875 -0.025430933 -0.14035144 0.08236224 -0.003331584 -0.02845762 -0.24999422

VAE_Decoder.layers.0.linear1.bias f4 [4]
00000000: 63e5 ebbb ffdd 1f3d 43d7 6b3d c79c 6abd
-0.007198976 0.03903007 0.057578336 -0.05727842

VAE_Decoder.layers.0.norm1.weight f4 [4]
00000000: 1a37 9b3f b083 e03f cac7 dc3f 44ce cd3f
1.2126191 1.7540188 1.7248471 1.6078572

VAE_Decoder.layers.0.norm1.bias f4 [4]
00000000: abd4 75be 388e 273e 9dc7 213e 5fed fc3c
-0.24006908 0.16362846 0.15798803 0.030874906

VAE_Decoder.layers.1.attention.W_q.weight f4 [4, 4]
00000000: 57a7 9bbe 2643 2abe a1f6 acbe 5ce8 f13e
00000010: 1211 11be 78cf b0be dee6 9ebe 1d5c 1dbf
00000020: 352f d03e de21 083e 2f5d b9bd 51f1 9f3e
00000030: 4238 6dbe bcba 593e b56e 7fbe 9fa4 ba3e
-0.30401108 -0.16627178 -0.33781913 0.4724759 -0.14166668 -0.34533286 -0.31035513 -0.6146868
0.40661016 0.1329417 -0.090509765 0.31238797 -0.23165992 0.2126264 -0.24944575 0.3645372

VAE_Decoder.layers.1.attention.W_q.bias f4 [4]
00000000: 5a03 e83d a201 19be 4f4e 70be 28c0 023e
0.11328764 -0.14942029 -0.23467372 0.12768614

VAE_Decoder.layers.1.attention.W_k.weight f4 [4, 4]
00000000: abf4 02bf 4d09 d7bc ed46 e33e 580c a6be
00000010: 7f6a bc3e f79b 5bbd 3f4c 31bf b33d 3b3b
00000020: 7987 353f f5b0 133e b445 f1be 635b 0a3e
00000030: a266 883d cef5 5b3e 9942 3c3f 1d36 673e
-0.51154584 -0.026249552 0.4439005 -0.32431293 0.368 -0.053615537 -0.6925697 0.002857071
0.7090984 0.14422973 -0.47123492 0.13511424 0.06660201 0.21480486 0.7353912 0.22579236

VAE_Decoder.layers.1.attention.W_k.bias f4 [4]
00000000: 67f6 99b9 6f3f b238 3815 9e38 6faf 4c37
-0.00029366018 8.499517e-05 7.5379794e-05 1.2200194e-05

VAE_Decoder.layers.1.attention.W_v.weight f4 [4, 4]
00000000: 5fd0 563e 11f1 41bd d7d5 9dbe 995b 19bc
00000010: 303d 873e b925 8e3e 4710 2e3e dbcf b13e
00000020: a7f2 733e 578d 5abd 1a29 cbbe b85e 79bd
00000030: cb62 813e 7e36 313e c21e 3dbd c4c8 3c3e
0.20977925 -0.04734904 -0.3082721 -0.0093602175 0.2641387 0.27763155 0.16998397 0.34728894
0.23823033 -0.05335745 -0.39679796 -0.060881346 0.25270686 0.17305943 -0.04617191 0.18435961

VAE_Decoder.layers.1.attention.W_v.bias f4 [4]
00000000: 945a 7d3c 13ae d9bc b88b 13bd 91ce 883b
0.01546349 -0.026572263 -0.036021918 0.0041750153

VAE_Decoder.layers.1.linear0.weight f4 [128, 4]
00000000: 9603 eabe d8a4 ffbe c7a2 91be f778 a03d
00000010: 9af6 0a3f 2a8f ef3e ad2d 04bf 884a 84be
00000020: ebd5 8fbf 0d2f 043f 3a3d 5ebe 7f2b 5f3e
00000030: 3ff6 ab3e d698 553e 3ce8 93be eb44 8c3e
00000040: ab22 77be c633 8ebe 9094 47be e39e 863e
00000050: e9a3 c8be 7396 b0bd ad9b 3b3f 717e 19be
00000060: 1ba4 f9bd a06e e13c 4e37 563e f3ab 9abe
00000070: d45a 00bf 5ce4 cb3e a642 7b3e ebff 253f
00000080: 3571 2c3e d32a 513f 29f5 5dbf 011f 91bd
00000090: 7505 1d3e 151a 31be 6eb1 fd3d 1405 87bd
000000a0: ca47 05bf 3981 1dbf ecf2 2bbe 18de 56be
000000b0: 2b76 8d3e a19b 49be 290e 0bbd 4e2f 183d
000000c0: 7dfd 85be 262e 41bf 5790 1a3f 3e7f 02be
000000d0: d43d ebbe 6961 e6bd b828 443e 2647 da3e
000000e0: 08b2 8fbd e351 ea3c 8c88 a3be 4f93 c83e
000000f0: eb15 cdbe 73f6 12be cacc c8bd c9a4 253d
00000100: 4466 083e 6cc2 ccbe cead ffbe 0b67 783d
00000110: 6b4d f8be 7172 60bd 4e7b a8be ab52 b4be
00000120: b281 9b3e 6a29 15bf 4f2a 493e 02f5 783e
00000130: e000 bc3d 9144 633e d932 f53e b20a 0dbf
00000140: 722f efbe 9e64 4fbf aaa1 733f 5fa0 323f
00000150: 9e33 b43e c45c a43f 9e41 7cbf 1589 393d
00000160: da5d 5e3e f9dc ddbe 3763 a8be 1ca0 e13e
00000170: 323f 163f 80fa bebe d399 ce3e e0e5 d8be
00000180: 5d83 01bf 81b7 26bf 573e 333f 6cd8 c53e
00000190: 16b7 9fbe 84c9 bdbe 9651 363f 7e30 57be
000001a0: a864 9a3e aeed 10bf 7482 363c f114 4fbc
000001b0: fa32 aabe b587 bc3e 9f41 d3be b124 e23e
000001c0: 1fe2 b53e 762e cb3e e431 18bf 729a 7c3e
000001d0: 6af4 99be 92c6 35be 1443 013f 5350 b0bd
000001e0: b53c 27bf f8f1 153f cd52 7dbe 5386 093e
000001f0: e678 a1bd 0518 653e ba83 7abe 2f51 86be
00000200: 7511 213d 59b1 8dbe 0acd 34be 796b a2be
00000210: 3e49 1e3e 11ea 7b3d d890 54bf 8b0d 923e
00000220: 93c3 283f 0a14 b0be 4ecf b73d 6b3b fcbc
00000230: 2b49 1dbf 945d bb3c d1fc ac3e 2ee2 193f
00000240: 3772 713e c5c9 9fbe 872a 513e 6814 a83e
00000250: a747 1a3f ed93 96bd 02da 59be db3d 06bf
00000260: 008c cf3e 8e1d c53e 49fb eabd 6d94 073f
00000270: 42fd 663e 5855 8f3f fb05 59bf f608 e43d
00000280: 06ec c8be a095 e8bd 3830 b83e 185e fa3e
00000290: 85a5 f4ba b56a 443e 879e 1ebf 9f59 f2be
000002a0: 4586 ccbe 9a18 e9be 78fb ecbe cd1e ee3e
000002b0: 6ebb 54bd c1bc 1a3e e278 9c3e dfa2 ebbe
000002c0: 9cf3 7f3b c04a e6be 66a2 e0be c038 0c3f
000002d0: 18bb f83e e98a b5bd 848a c33e 7193 183e
000002e0: fb9f 103c eab3 e33e fd7e ca3d 8c2f e9be
000002f0: 01f1 c23e 9d10 513e 0165 19be 1d9e 073f
00000300: 2b8b e63e 7496 12bf 11c0 86bf 5b7c c93f
00000310: 1b86 e0be 77d2 173f 2de5 57be 85aa 173e
00000320: f4d4 733e 16ce ccbe 6fb3 a93e 48f8 d9be
00000330: e9d3 543e df41 f6be 6aff a03e 6d4b 98be
00000340: d394 133e 7677 1a3e 9d57 c63e 0123 21bd
00000350: 5831 cbbe 4552 813e 1d00 c8ba 5eb5 debd
00000360: 3858 cb3e 0ebc bd3e 79f3 c33e 7d13 5cbd
00000370: 5d72 2ebf a3cc 43be 0b93 923e 8348 023f
00000380: 654e 8abd 6955 2dbf 6837 1e3f 5c11 933e
00000390: 2502 0dbf 1274 27be 101f f13e cb30 223e
000003a0: 0197 e0be 029e 3b3e 5437 003f 6da5 d23e
000003b0: 3c04 f23d 2ad9 95be 27c7 80be 7386 8abe
000003c0: acf3 99be 3c49 0e3e 68e8 403f 14f4 b3bd
000003d0: 1336 9e3e 5d9f 873d d33c 1ebc 5641 cbbe
000003e0: 64be a63e d561 9ebe 7691 d53e faac f9bd
000003f0: dbdf 05be d750 9b3e 520b 90be 6fd0 2c3d
-0.4570586 -0.49930453 -0.28444502 0.07835572 0.54282534 0.46788913 -0.51632196 -0.25838113
-1.1237158 0.51634294 -0.21703044 0.21793936 0.33586308 0.20859084 -0.28888118 0.2739633
-0.24134319 -0.27773875 -0.19490266 0.26293096 -0.39187554 -0.08622446 0.7328442 -0.1498964
-0.12189504 0.02751857 0.20919535 -0.30209312 -0.5013859 0.39822662 0.24537143 0.64843625
0.1684006 0.8170597 -0.8670221 -0.07085992 0.15334113 -0.17295106 0.12387358 -0.065927655
-0.52062666 -0.61525303 -0.16791886 -0.2098316 0.27629218 -0.19688274 -0.03394905 0.03715449
-0.2616996 -0.7546104 0.60376495 -0.12743852 -0.4594561 -0.11249048 0.19156158 0.42632407
-0.07016379 0.0286035 -0.31940114 0.39174888 -0.40055785 -0.14351825 -0.098046854 0.040440354
0.13320261 -0.39992082 -0.4993729 0.060645144 -0.48496565 -0.05479664 -0.32906574 -0.3521932
0.30372387 -0.5826632 0.19645046 0.24312213 0.091798544 0.22194125 0.47890356 -0.55094445
-0.46715885 -0.81012905 0.95168555 0.69775957 0.3519563 1.284081 -0.98537624 0.045296747
0.21715489 -0.4333265 -0.32888195 0.44067466 0.5869018 -0.3730049 0.40351734 -0.4236288
-0.5059107 -0.65123755 0.70017 0.3864168 -0.3119437 -0.37067807 0.7121824 -0.21014592
0.3015492 -0.5661267 0.011139501 -0.01263927 -0.33242017 0.36822286 -0.41261002 0.44168618
0.3552408 0.39683884 -0.5945113 0.24668291 -0.30069286 -0.1775153 0.5049298 -0.08609071
-0.65327007 0.5857234 -0.24738617 0.13430147 -0.07884388 0.22372444 -0.24464312 -0.26233813
0.03932329 -0.27674368 -0.17656341 -0.3172262 0.15457627 0.06150252 -0.83033514 0.28525957
0.6592342 -0.3439029 0.08975087 -0.030790051 -0.6143977 0.02287177 0.33786634 0.6011075
0.23578726 -0.31208625 0.20426379 0.3282807 0.6026558 -0.07352433 -0.2127457 -0.52438134
0.405365 0.3849911 -0.1147371 0.52960855 0.22557548 1.119792 -0.8477475 0.11134522
-0.39242572 -0.11356664 0.35974288 0.48899913 -0.0018665051 0.1918133 -0.61960644 -0.47334
-0.3994619 -0.45526582 -0.46285605 0.46507874 -0.05193656 0.15111066 0.30560976 -0.46022698
0.0039055115 -0.44978905 -0.438739 0.54774094 0.4858024 -0.08864386 0.38191617 0.14899994
0.008827205 0.444732 0.09887502 -0.45544088 0.38074496 0.20416494 -0.14979936 0.52975637
0.45028052 -0.57260823 -1.0527364 1.5741075 -0.43852314 0.5930552 -0.21083517 0.14811142
0.23811704 -0.4000098 0.3314471 -0.42572236 0.20783962 -0.4809713 0.31444865 -0.29745045
0.1441224 0.15084633 0.3873872 -0.039340023 -0.39686084 0.2525808 -0.0015258823 -0.10874437
0.39715743 0.37057537 0.38271692 -0.053729523 -0.68143255 -0.19121031 0.2862781 0.50891894
-0.06753234 -0.6770845 0.61803293 0.28724182 -0.550814 -0.16352871 0.4709401 0.15838926
-0.43865207 0.18321994 0.50084424 0.41141835 0.11817214 -0.29267246 -0.2515194 -0.27055702
-0.3006872 0.13895124 0.75354624 -0.087867886 0.3090063 0.06622193 -0.009658056 -0.39698285
0.32567132 -0.30934015 0.4171254 -0.12191196 -0.13073675 0.30335113 -0.28133637 0.042190965

VAE_Decoder.layers.1.linear0.bias f4 [128]
00000000: dbf2 7d39 ed6a ba3d b3fd 39bc e3d5 9a3e
00000010: e072 0d3f 3832 a93e ec60 043f 4e15 f0bc
00000020: ff1d 893e 8aff 783e 0ebd 623e c1de 203e
00000030: 6279 52bd 31cb 733e d793 63be e968 1abf
00000040: 8405 013f c4cc d1be d2fa a7bd 201a 01be
00000050: 0a57 ad3e 9542 e93d 46ee fdbe 6f00 c83e
00000060: 12b9 1c3f 3afd aa3e 5a42 98bd 0c24 f83e
00000070: affd e63e c475 573e 43ab a2be c1e7 043f
00000080: 71ee 7cbe 3d58 d83e a059 ecbd 7064 65be
00000090: 5324 76bd ebf8 903e af9b 003f 98ca 4cbe
000000a0: 0a24 55be 0014 983e b5dd 4abe 40d9 6fbc
000000b0: a331 d8be 6f70 893e a14a 86bd a502 73bd
000000c0: 896b b6bb 3b90 40be cff4 e6be ca17 0b3f
000000d0: 5956 643e 4a09 053e 5cbb 0fbd 4579 18be
000000e0: 505c 55be eeb9 f23e 0b7f 2d3d 1206 a43e
000000f0: c034 ca3e 1853 953e 69dc 013f e6f8 a33e
00000100: 9cb4 893d 9cb3 b13d 6e9b f83e 49d0 a5be
00000110: 8178 183c 3b71 8a3e ad60 053e c20a e8bd
00000120: e73f 9e3d db16 ee3e 79a8 8c3e af81 c5be
00000130: ddd1 a13e c6df 5bbe f25a 2ebe c9a8 16be
00000140: a6f6 9b3d 7b66 c83e cbc8 7bbe 37fa 0a3f
00000150: 4739 943e 761c 02bf 8c2a c0be f0eb fbbc
00000160: 2b0e b8be cdbf 3dbe 8fed 98be b4a9 20be
00000170: e434 933e 1592 ebbe edb9 f33d 6857 a3be
00000180: ae6c e23d 99e4 8bbc df48 943e 108f eb3e
00000190: 1c12 9f3e 96e9 183e 5045 cebe 28a6 9e3e
000001a0: ff5a 093f ee16 bb3e e443 8e3e 9709 a9be
000001b0: a00d 7abd b8e7 3c3e 00f5 c23d ec50 fe3e
000001c0: e2b9 bb3e 3dee cf3e 6bd8 f7bd 3232 9e3e
000001d0: 4401 193f b27f fa3e 6ab0 44be eca6 09bf
000001e0: fb4d e7be f521 813e 868d d43c 0504 82be
000001f0: 1f4c a43d e949 803e 79ff d23e c88c e6bd
0.00024218431 0.09102426 -0.0113519905 0.30241308 0.5525341 0.33046126 0.5171039 -0.029307034
0.26780698 0.2431623 0.22142431 0.15709974 -0.05138529 0.2380798 -0.22224365 -0.6031633
0.5039904 -0.40976536 -0.08202137 -0.12607622 0.33855468 0.11389653 -0.4959585 0.3906283
0.61219895 0.33396322 -0.074345306 0.48465002 0.4511542 0.21041018 -0.31771287 0.5191613
-0.24700333 0.4225482 -0.11540532 -0.22401595 -0.060093235 0.2831491 0.50237554 -0.19999158
-0.20814529 0.2970276 -0.19811137 -0.014639199 -0.4222537 0.26843593 -0.06557203 -0.059328694
-0.0055670184 -0.1880502 -0.4510865 0.54333174 0.22298564 0.12991825 -0.03509079 -0.1489001
-0.20835996 0.47407478 0.042357486 0.3203588 0.3949337 0.29164958 0.50726944 0.32025832
0.06723902 0.08676836 0.48556083 -0.3238547 0.009306074 0.27039513 0.1302516 -0.11330177
0.07727032 0.46501812 0.27472284 -0.38575503 0.31605425 -0.21472082 -0.1702688 -0.14712824
0.07615404 0.39140686 -0.24588315 0.5428805 0.2894995 -0.5082468 -0.3753246 -0.030752152
-0.3594831 -0.18530197 -0.29868743 -0.15689737 0.2875129 -0.4600989 0.11900697 -0.31902623
0.11055885 -0.017076777 0.28961846 0.46007586 0.31068504 0.14932856 -0.40287256 0.30986142
0.53654474 0.3654093 0.2778617 -0.3301513 -0.06104815 0.18447769 0.09519386 0.49671113
0.36665255 0.4061145 -0.12101825 0.3089767 0.59767556 0.4892555 -0.19207922 -0.5377033
-0.45176682 0.2522122 0.02594639 -0.25393692 0.080223314 0.2505639 0.41210535 -0.11257321

VAE_Decoder.layers.1.linear1.weight f4 [4, 128]
00000000: aca3 0b3c 3c8d f33e 2d79 91bd f093 a03d
00000010: 8007 24bc fd95 12be e4ef 5a3d 8115 d1bc
00000020: cae4 b23d 3d15 b2bb 72ea febd 6770 f53d
00000030: 640a 69be 97ab 63bc 26cd 22be 9b00 193c
00000040: b023 d13b b62e 0dbe bdf0 c43d 4011 0c3c
00000050: d4b3 a9be 4112 eb3d e1ba c6bd c84f 0b3e
00000060: 246a 41be 6668 f6bd 6ac2 f6bc f518 f2bd
00000070: 00dd 0e3d 6deb 8abc 0659 c8bd 51f5 193e
00000080: b31e f73d adab 963d 14b5 f13d 5d5f dbbc
00000090: 4101 cdbc 6e3b 453e 8e07 d33b 47af d43d
000000a0: 0ae4 25bc c64e c73e 0d83 9dbd 8e1e c4bd
000000b0: f4de 46be 9bab 843b 9369 f73d ba28 ca3c
000000c0: 8fe6 42bf 9af1 b0bd b396 183d 6853 133d
000000d0: eeda 16bd 8eca cfbd 4e10 19bb 60e1 003d
000000e0: 33c9 65bc c1ae c4bd 26a2 10be b5c9 2e3d
000000f0: 1a5a 24be 2975 293d 3fb7 b5bc c300 063d
00000100: 40bf 13bd a854 1b3b 7299 463d 2c31 bbbd
00000110: 809b f9bb 90f3 8cbd d894 a03d 3f06 4fbe
00000120: 4829 fd3d a2fa c33c d906 c83c a5ae acbd
00000130: 7aaa a43d d7a0 a5bd d7d4 2b3e 4033 14be
00000140: d432 a83d 8b7d 573e 6918 0cbd 293a efbd
00000150: 19e2 453e 0a32 ea3d 0292 51bd 2473 0bbc
00000160: 9695 063d 6ad0 0cbe 0f00 65be 21e1 73be
00000170: 4686 f7bd 17e9 5f3c a4cb e63d 4020 9c3d
00000180: 649d 7a3e 5e04 173e 6acc 9bbc 5cdc 52bd
00000190: c564 dcbd 7db1 2a3e 96c5 293c b706 023c
000001a0: 4b51 bb3c 4a40 99be f9f9 73bd 85b2 dc3d
000001b0: ad78 a7bd b75d 773d 4097 bbbe 175f d63f
000001c0: d384 e3bc c23b 403d 9993 6abd edad a7bd
000001d0: ea33 d33d 71c0 593d 1cfa 88bd ef04 c33b
000001e0: 2bb3 54be 4ae5 903e cada 22bd 0b87 643e
000001f0: a012 2cbe 2226 2bbd a3fc af3d db05 443e
00000200: 7f49 83bd df02 443e 159a 843d 354e 213e
00000210: c00f c6bd da69 25be 4bfd 95bd 35a1 7c3c
00000220: e578 a63e ba55 35be 6124 12be 6fca 3cbd
00000230: 8d6b d5bd c29b fcbd a324 d83d 2c3e c13d
00000240: 27b9 8a3d ffa7 893e 7224 83be 24a7 d7bb
00000250: 4251 93be 1485 8d3f ab4a 853c 418f 82be
00000260: 0664 c8be 7bf9 cfbd 575a afbe 7e51 b43d
00000270: e77a 2b3e 3c97 1ebe ae11 603e 802e 153d
00000280: e9aa 49bf ace2 1a3e a4fd e8be 0604 dfbd
00000290: 7fb7 babe 2a7f 45be 192b 1f3e a2a8 013f
000002a0: b81d f3bd d944 583e 8cbd 9fbb 70fb 7fbd
000002b0: 8cf7 3bbc 8b91 87be 780b f73d 0b24 103e
000002c0: 98a2 09bf 1e6b 483e a828 07bd d091 b6be
000002d0: 15b5 78bd bc67 d63d c66e 843d dbc4 84be
000002e0: c9b6 0dbe 93eb 27be d4a6 04be 3887 5abd
000002f0: ffec 0fbe 650c f7bc ed8b 62be 0240 753d
00000300: e837 4abc 6c7b 4cbe 2b34 a4be 2c42 b1bc
00000310: c047 5cbe 796d 1cbd 8ad8 623e c3f8 b0bd
00000320: 1f9a 52be 485e 8dbd f655 19be ba8f 9bbd
00000330: 84d3 10be 2588 a53e a32e 8ebe 62a2 c5bc
00000340: 96ad 3abe 44a9 823e 78dc 84bd ae4d 9dbd
00000350: bb54 1c3e a2ff 3abd c869 4b3e 142f c53e
00000360: 7b79 d0be 80dc bd3c 6b73 593e 3031 49be
00000370: f238 e13d fb80 a3bd f09d 80be baf9 b2be
00000380: 61d5 253f 0796 993e 1f0f 07bd 80e2 d7bd
00000390: 55dc 70bd e23c bf3c 1268 acbd 8763 033e
000003a0: dcb4 5bbe 11bb 393d 1773 7ebe d1a1 53be
000003b0: 3d2e 96be 2b90 68be 6da5 efbe 2824 b13e
000003c0: 3ecd 14be 0a52 c33d 739c a23d 6dac 063d
000003d0: 7ed5 7dbe 0bf2 efbd c2c6 86bd 7943 e23d
000003e0: ef1d b23d 16cb 8b3e ce0e 313e c98f f63d
000003f0: 500f 8b3e cad9 0a3e 6dd0 ad3e 353c 4dbe
0.008522909 0.4756869 -0.071031906 0.07840717 -0.010011554 -0.14315028 0.053451434 -0.02552295
0.08735044 -0.0054346607 -0.12447061 0.1198433 -0.2275787 -0.013895891 -0.1589857 0.009338523
0.006382428 -0.1378735 0.0961623 0.008549035 -0.3314501 0.11478091 -0.09703613 0.13604653
-0.18888146 -0.12031631 -0.030122 -0.118211664 0.03487873 -0.016957963 -0.09782605 0.15034987
0.12066402 0.07356963 0.11802116 -0.026778871 -0.025025012 0.19260952 0.0064401096 0.10384994
-0.0101251695 0.38927287 -0.076910116 -0.0957614 -0.19420987 0.0040487773 0.120806836 0.024677623
-0.76133054 -0.08639832 0.037253093 0.035968214 -0.03682988 -0.10146056 -0.0023355666 0.031464934
-0.01402502 -0.09603644 -0.14124355 0.04267283 -0.16049996 0.0413715 -0.022182105 0.03271557
-0.036071062 0.0023701582 0.04848618 -0.09140238 -0.007617414 -0.06882393 0.0784089 -0.20217226
0.123613894 0.023923222 0.024417328 -0.08431748 0.08040328 -0.080873184 0.1678041 -0.14472675
0.0821282 0.21043985 -0.034202967 -0.11681015 0.1932453 0.114353254 -0.051164635 -0.008511338
0.0328575 -0.13751379 -0.22363304 -0.23816349 -0.120861575 0.013666413 0.1126931 0.07623339
0.24474102 0.1474776 -0.01901837 -0.051479682 -0.10761408 0.16669269 0.01036205 0.007936171
0.022865912 -0.2993186 -0.059564564 0.107762374 -0.08177314 0.060392108 -0.36638832 1.6747769
-0.027773296 0.04693199 -0.057269666 -0.081874706 0.10312636 0.053162042 -0.066883296 0.005951516
-0.20771472 0.28299934 -0.039759435 0.2231714 -0.1680398 -0.041784413 0.085931085 0.19142859
-0.06410503 0.1914172 0.06474701 0.1575249 -0.09670973 -0.1615366 -0.073237024 0.015419294
0.3251411 -0.17708483 -0.1427169 -0.046091493 -0.10420904 -0.12334396 0.10553863 0.094356865
0.06773596 0.26885983 -0.25613743 -0.006581204 -0.28772932 1.1056237 0.016270956 -0.2549992
-0.39138812 -0.101550065 -0.3424861 0.08804606 0.16746102 -0.15487379 0.21881744 0.0364213
-0.78776413 0.15125531 -0.45506012 -0.10889439 -0.3646812 -0.1928679 0.15543784 0.5064794
-0.11870903 0.21120013 -0.0048748907 -0.06249565 -0.011472594 -0.26478228 0.12062734 0.1407625
-0.53763723 0.19572112 -0.032997757 -0.3565812 -0.06071957 0.104690045 0.06466441 -0.2593144
-0.13839258 -0.16398458 -0.12954265 -0.05335161 -0.1405525 -0.030157277 -0.2212369 0.059875496
-0.012342431 -0.19968957 -0.3207105 -0.021637999 -0.21511745 -0.03819034 0.22152916 -0.086411975
-0.20566605 -0.06902748 -0.14974198 -0.07595773 -0.14143187 0.32330433 -0.27769956 -0.024125282
-0.1823028 0.25519764 -0.064873636 -0.07680832 0.15266697 -0.045653947 0.19864571 0.3851248
-0.40717682 0.023176432 0.21235435 -0.1964767 0.109971896 -0.079835854 -0.25120497 -0.3495615
0.64778715 0.29997274 -0.032973405 -0.10541248 -0.058803875 0.02334446 -0.08418287 0.12830935
-0.21455711 0.045344416 -0.24848591 -0.20667197 -0.29332152 -0.22711246 -0.46805897 0.34597898
-0.14531419 0.09537132 0.079399966 0.03287928 -0.24788472 -0.11716088 -0.06580879 0.11048026
0.08697116 0.2730338 0.17290804 0.120391436 0.2716012 0.13559642 0.3394808 -0.20042498

VAE_Decoder.layers.1.linear1.bias f4 [4]
00000000: a638 a93d 598f 313b d03a 38bd f9af 9c3d
0.08262758 0.0027093499 -0.044977963 0.076507516

VAE_Decoder.layers.1.norm1.weight f4 [4]
00000000: 63d6 a33f 26fe 0040 a2bf da3f 0606 e83f
1.2799801 2.015512 1.7089732 1.8126838

VAE_Decoder.layers.1.norm1.bias f4 [4]
00000000: a695 a03c 5cfe 1c3e 72a4 3d3d 2836 66bd
0.019602608 0.15331405 0.046299405 -0.05620399

VAE_Decoder.layers.1.norm0.weight f4 [4]
00000000: cb39 743f 050f 523f 672f 343f 05aa 2d3f
0.95400685 0.8205417 0.7038483 0.67837554

VAE_Decoder.layers.1.norm0.bias f4 [4]
00000000: 143e 1fbd 2b56 f8bc 847a 553c dca1 1b3c
-0.03887756 -0.030314526 0.013029698 0.0094990395

VAE_Decoder.last_normalization.weight f4 [4]
00000000: 0000 803f 0000 803f 0000 803f 0000 803f
1.0 1.0 1.0 1.0

VAE_Decoder.last_normalization.bias f4 [4]
00000000: 0000 0000 0000 0000 0000 0000 0000 0000
0.0 0.0 0.0 0.0

VAE_Decoder.head.weight f4 [4, 4]
00000000: d0ee 1e3d 48c2 f23e 4c66 293e 1c38 bc3e
00000010: b86b c3be 3026 01be 1c11 fbbe e47a 9a3e
00000020: 1a71 db3e 6009 3cbd 62b8 e13e 5ca5 333e
00000030: a6d4 c23e 1606 bbbe ce60 c6be a00c 8d3e
0.038801968 0.4741385 0.1654293 0.36761558 -0.3816812 -0.12612224 -0.4903649 0.30171883
0.42859727 -0.04590738 0.44085985 0.17543548 0.38052863 -0.3652808 -0.3874573 0.27548695

VAE_Decoder.head.bias f4 [4]
00000000: 086e 20be c454 303e 8016 eebe dac7 b43e
-0.15666974 0.17219836 -0.4650154 0.35308725

Detokenizer.weight f4 [6, 4]
00000000: d987 48be 6bd0 cb3d c9ae fc3d 0586 c1bd
00000010: d0d8 ff3d e134 a6bd 28df f6bc 0c7c 16be
00000020: 6289 a2bd 2304 983e ff92 313e eb4e 0bbd
00000030: 06de e63d 8024 44be 7d2f b5be 7c42 13bc
00000040: 8fd2 2dbe 92c1 bc3d 2747 b63e d23d b9be
00000050: fc7a af3e 3b3e 17be f036 12be b4a2 963e
-0.19583072 0.09951862 0.12338025 -0.0944939 0.124925256 -0.081155546 -0.030135706 -0.14695758
-0.0793636 0.29690656 0.17341231 -0.03401081 0.11272816 -0.19154549 -0.35387793 -0.008988019
-0.16974853 0.09216608 0.3560116 -0.36179978 0.34273517 -0.14769833 -0.1427877 0.29421008

Detokenizer.cat_recons.0.weight f4 [2, 4]
00000000: 013b 4e3e 9d1c b53d fabd 31bf 0784 0f3f
00000010: f18c 13be 922c 8d3d ca26 0c3f 7100 92be
0.20139696 0.08843348 -0.69430506 0.5606083 -0.14409234 0.06893267 0.5474669 -0.28515962

Detokenizer.cat_recons.0.bias f4 [2]
00000000: 1406 ecbe a57e be3e
-0.46098387 0.37205997

Detokenizer.cat_recons.1.weight f4 [9, 4]
00000000: 6d9a b43d 98fc 573f e447 d13d 0c68 9a3e
00000010: 9757 8cbe d99b 78be c2b3 21bf 255a f8bb
00000020: c720 a93f 87df e93e fdaa 36bf a704 c43e
00000030: 39e3 933e b705 c93e e413 81bf 0e90 a3be
00000040: f127 d9bc c313 f6be 39d0 073f 199e eb3a
00000050: f81e a4be 0281 423e f978 593e cf81 26bf
00000060: e7c9 833e 0a13 2a3f 760d 2f3e 78b6 18bf
00000070: 8cc1 3fbe 5399 623e 011f a13d f331 763f
00000080: 748d 183f 8ab7 bebe b117 a6be 2da6 d0be
0.08818517 0.843698 0.1021879 0.30157506 -0.27410576 -0.24278201 -0.63164914 -0.0075791054
1.3213128 0.4567835 -0.7135466 0.382848 0.28884295 0.39262173 -1.0084195 -0.31945843
-0.026508303 -0.48061952 0.530521 0.0017976194 -0.32054877 0.18994525 0.21237554 -0.6504182
0.25739977 0.664353 0.17094979 -0.59653425 -0.18726176 0.22128801 0.07867242 0.96169966
0.5959084 -0.37249404 -0.3243995 -0.40751782

Detokenizer.cat_recons.1.bias f4 [9]
00000000: 46fc 9cbe 9092 9ebe b9b5 003e 9003 de3d
00000010: bed3 293f f95e 943e f3d8 2f3e 2461 23bf
00000020: 8b51 87be
-0.3066122 -0.30971193 0.12569322 0.10840523 0.6633872 0.28978708 0.17172603 -0.638201
-0.264294

Detokenizer.cat_recons.2.weight f4 [16, 4]
00000000: 8e3a 8d3e 8501 97bf e113 923e 2963 11bf
00000010: 9d4e 093f 7ee3 fd3e c5dc dd3e 41cd 3abf
00000020: 2c66 a73f 2ef7 8dbf 710e 2fbf 8ab0 2a3e
00000030: dfa2 333f 812d cbbe 4460 543e c4d6 70bf
00000040: 068f 8abf 4657 dabc 1098 8a3f 9309 b5be
00000050: 9502 8bbe f043 47bf ea70 993f 990f 1d3f
00000060: f5a3 d03f 9a44 42be 373e d93e 4d07 55bd
00000070: 2fac 893f 8a53 b33e 746e 19bf d755 a03d
00000080: 92a3 3fbf 3d6b 2ebf 9989 53be e4e2 243e
00000090: bf6a e3be bd08 abbe b059 d23e 2705 8cbf
000000a0: b1fe 1bbf 0953 153f 09ea 9c3e 7fbd 82bf
000000b0: fe9d 1cbd db9d 7b3f dc9b 413f 7619 0a3e
000000c0: a07f 69bf a9c0 bc3d b265 3d3f 1b88 2b3f
000000d0: 72b7 8cbf ca0a 213f 966d 073f 1f7e b3be
000000e0: 7fbe 42be 3dd9 87be becc 8dbf 347f 16bf
000000f0: 007a f6be 01e5 f73e 57f1 1fbf ab3d 043e
0.27583736 -1.1797339 0.2853079 -0.5679193 0.5363558 0.49587625 0.43332496 -0.7296944
1.3078055 -1.1091058 -0.6838141 0.16668907 0.70170397 -0.39683154 0.20739847 -0.94077706
-1.0824897 -0.026652943 1.0827656 -0.35358867 -0.27150407 -0.7783804 1.1987584 0.61351925
1.6300036 -0.18971482 0.4243028 -0.052008916 1.0755671 0.35024673 -0.59934163 0.07828873
-0.74858963 -0.6813238 -0.20657958 0.16102177 -0.44417378 -0.33405104 0.4108405 -1.0939072
-0.60935503 0.58329827 0.30647305 -1.021408 -0.03823661 0.98287743 0.7562845 0.13486275
-0.91210365 0.092164345 0.739833 0.67004555 -1.0993483 0.6290709 0.5290159 -0.3505716
-0.19017981 -0.26532927 -1.1078107 -0.58787847 -0.48139954 0.48416904 -0.6247763 0.1291415

Detokenizer.cat_recons.2.bias f4 [16]
00000000: 0e5a b33e cc52 7d3d 5a87 dabe 48c0 6ebd
00000010: 0a0a 22bf c90b 55bf 8fec c33e 808a ecbd
00000020: c693 84be 24fe 603e b1a7 2fbf cba1 08bd
00000030: c945 1ebd 49d2 a6be d132 e3be 5c2a ca3e
0.35029644 0.06184654 -0.4268139 -0.058288842 -0.6329657 -0.8322111 0.38266417 -0.11549854
-0.25893992 0.21971947 -0.6861525 -0.033357423 -0.03864077 -0.3258231 -0.44374707 0.39485443

Detokenizer.cat_recons.3.weight f4 [7, 4]
00000000: c009 c5be 3bf9 12be 42ec 123e aaf8 0bbf
00000010: 98d0 993e 3b95 44bf fedf 09bf 40a4 883e
00000020: 74c6 0ebf 1180 0d3f 9840 f5be 9db0 6c3e
00000030: 124f 073f c8dc b7bd 2f9b e33e e863 63be
00000040: af6a 34bf 44e4 36bf 92ca 86be 130a 613d
00000050: 607a e1be 519b 2a3f cc83 223f 8ae2 8ebe
00000060: 7a27 e03e 4d8a 013f 66f6 6c3e 9773 a13e
-0.38484 -0.14352886 0.14347938 -0.54676306 0.30041957 -0.7679021 -0.5385741 0.26687813
-0.55771565 0.5527354 -0.47900844 0.23114248 0.52855027 -0.089776576 0.44454333 -0.2220608
-0.70475286 -0.71442056 -0.26326424 0.05494125 -0.44038677 0.66643244 0.63482356 -0.2790721
0.43780118 0.50601655 0.23140869 0.315335

Detokenizer.cat_recons.3.bias f4 [7]
00000000: f01b ce3e 9aa1 eabe 8738 40be 0d9b 86bd
00000010: 9e98 e7be 690f ae3e 2899 f9be
0.4025569 -0.45826417 -0.18771563 -0.06572542 -0.45233625 0.33996132 -0.4874966

Detokenizer.cat_recons.4.weight f4 [15, 4]
00000000: 5808 de3d 6eb3 30be 39e9 4dbf d36a a3bf
00000010: ac3e 26be 432a febe dba8 d83e ceaa 10bf
00000020: 337e d8bd 124b b93e 8055 a4bf 3d50 a5bd
00000030: e4ac 91bf c76f 063f b6b8 2ebd 2578 11bf
00000040: bde2 41bf 963c c6be 8b10 6ebf d80c 433e
00000050: a259 293f b050 8dbf 7489 1bbf 19c4 6fbd
00000060: 3e13 edbd 4d79 893f 9725 113e da12 f0be
00000070: 4ee6 193f 909f 643f 448d 0ebf 738d cd3e
00000080: ac1d 703e 752a 59bf 6f0c 5c3f 4765 493f
00000090: f320 88be 104d 693f 8f67 3c3f 31de 253f
000000a0: 9d2d f1be 92fc da3b b977 4a3f 856d 953f
000000b0: fa67 b53f aa7c 5abd 4b2e 95bf 2b2b 0abe
000000c0: edd3 5d3f e558 f63e 0932 473e c8ef 74bf
000000d0: faed c33f 6b06 353f 1f8f 4e3f f03f 9b3c
000000e0: 540c f93c fcd5 8f3e 092f 36bf d0bc a03f
0.10841435 -0.17255947 -0.80433995 -1.2766975 -0.16234845 -0.49641618 0.42316326 -0.5651063
-0.105709456 0.36190087 -1.2838593 -0.08071945 -1.1380887 0.5251431 -0.042656623 -0.5682395
-0.757366 -0.38718098 -0.9299399 0.19047868 0.66152394 -1.1040249 -0.6075661 -0.058536623
-0.11575936 1.0740143 0.14174496 -0.46889383 0.6011704 0.89305973 -0.55684304 0.4014698
0.23448819 -0.8483041 0.8595647 0.7867016 -0.26587638 0.91133213 0.7359552 0.6479216
-0.47105113 0.0066829408 0.7908893 1.1674048 1.4172356 -0.053341545 -1.1654752 -0.1349303
0.866515 0.48114696 0.1945268 -0.9567838 1.5307 0.7071292 0.80687135 0.018951386
0.030401386 0.28092945 -0.7116552 1.2557621

Detokenizer.cat_recons.4.bias f4 [15]
00000000: 4182 8abe ab61 e63e a1eb 8abe f78b ebbd
00000010: d683 3c3d d3f5 12bd 69ff 283d 707d b53e
00000020: 2472 33bc 5f40 babe 8d65 363e 1d10 04be
00000030: b484 7c3e 4fa3 04bf 6268 b43e
-0.270525 0.4499639 -0.27132896 -0.115013056 0.046024166 -0.035878967 0.041259203 0.35447264
-0.010952506 -0.36377236 0.17812176 -0.12896772 0.24659997 -0.5181169 0.35235888

Detokenizer.cat_recons.5.weight f4 [6, 4]
00000000: 9bc8 ad3e c053 21bd 8169 d8be c631 5a3f
00000010: 21de 1ebf cdf2 11bf 240d 903d 73bc ba3e
00000020: 1cf2 b0be 53ba 24bf f95d 6f3e 0a48 fbbe
00000030: a6f0 823f 24ae fb3d 84ca 993e c1dc b03c
00000040: e6d9 5c3e 122d d9bc e4a1 1a3f 0989 26bf
00000050: 3263 b7bd ebdb a83e 8fba 633f b6ff 2c3e
0.33942112 -0.03938651 -0.42267993 0.852322 -0.6205769 -0.5701111 0.070337564 0.364719
-0.34559715 -0.6434681 0.23375691 -0.490784 1.022969 0.12289074 0.3003732 0.021589639
0.21567497 -0.026510749 0.60403275 -0.6505285 -0.08954467 0.32980284 0.8895654 0.16894421

Detokenizer.cat_recons.5.bias f4 [6]
00000000: 0b2f f8bd b31c 62be fdc9 00bf 4065 19be
00000010: 9304 28be c55b 51bd
-0.12118348 -0.2208126 -0.5030821 -0.1498003 -0.16407995 -0.05111291

Detokenizer.cat_recons.6.weight f4 [5, 4]
00000000: 634e 613e 5a37 303f ad8e 3e3d 2337 333f
00000010: b980 e8be d48f 7abd 3ebf 10be c47e f73e
00000020: 586f e83d d61c 553f d429 443f eb9f d5bc
00000030: eb57 1b3f e984 dfbd d7f0 e53b f696 9a3e
00000040: c3e6 08bf ee95 50be 9cb8 1b3f dde9 03bf
0.22002558 0.6883446 0.046522785 0.70006007 -0.45410708 -0.06117232 -0.14135453 0.48338902
0.11349362 0.83247125 0.76626325 -0.026077231 0.6068103 -0.109140225 0.0070172357 0.301933
-0.53477114 -0.20369694 0.60828567 -0.5152872

Detokenizer.cat_recons.6.bias f4 [5]
00000000: 8787 2abe ce07 8a3e b1e3 ad3e 3b9e 87bd
00000010: 88b1 443e
-0.16653262 0.2695908 0.33962777 -0.06621977 0.19208348

Detokenizer.cat_recons.7.weight f4 [2, 4]
00000000: 5437 603e 0123 b5bd 7157 c6be 812d 0ebe
00000010: 7597 b5be 6276 21bf 0562 d13e 3a28 1f3f
0.21896106 -0.08844567 -0.38738587 -0.13884546 -0.35467115 -0.6307126 0.40895095 0.62170756

Detokenizer.cat_recons.7.bias f4 [2]
00000000: b741 133f 6307 84be
0.5752215 -0.25786886

Detokenizer.cat_recons.8.weight f4 [42, 4]
00000000: cb86 9dbf 15ea cc3e 6f83 d73f 1b0a 9a3f
00000010: 102c 54bd 019c bc3f f35f a83f 3de6 0d40
00000020: 4c97 6b3f c0d0 b93f 1c26 52bf 8544 053f
00000030: baa8 d0be 4d98 89bf 0a44 adbf b0d3 7cbe
00000040: 3ed6 8e3f 8ed9 d7bf 1027 8fbf 45a5 493f
00000050: 3380 e93f ad0c b93f 2e08 873f b541 b03f
00000060: 28ed 8dbf 169d ac3f fdc2 c03f e0a4 563e
00000070: 1925 133f 3499 a7bf fd34 263f cd7c fc3d
00000080: baa1 06bf 4af2 0dbf 333f ae3f 7840 f93e
00000090: 6c9d a0be af07 4b3f 40aa aebe b794 1b40
000000a0: 08bf f33e cee4 9dbf c830 ae3f bfdb 963f
000000b0: a591 51bc 2d2b c9bf 0f7f 8cbe e5f1 213f
000000c0: 09a1 3abf f61f 643e cd28 353f a3af 1b40
000000d0: e39d b1bf 1e25 843f 1cfa c63e 165a 933f
000000e0: 2677 753f e585 d43f ff9a 213f 9f54 f33f
000000f0: 8feb 6c3f 670f 2e3f 4a02 b3bf aee7 e8be
00000100: 0a15 c53f 26f2 acbf b645 21bd 0360 733e
00000110: 7027 cd3f f8cd e1bf 0ec0 e93e 51c4 d53f
00000120: a2cf e33f d8d4 e2be e68e 86be 8f66 10be
00000130: 49d5 863f 1631 ad3f 8095 0e3e e81a 01be
00000140: 5c78 7ebf bf2d 51bf 1cd9 57bf 0b51 633f
00000150: 7d9b 2740 1c2a 52bf 7eaa 893e 05da ae3f
00000160: e5d6 8f3e c5e5 8f3f 9d91 3bbe 17e0 31bf
00000170: 9e89 a03d 896e b73f 6862 63bf d426 aa3f
00000180: 8be5 15bf 08ed 273f 3cc4 c6bf 99d1 9e3f
00000190: 8ec6 783f 2eef 24bf 0e9a 253d 361a 04bf
000001a0: 0c21 ccbf c14d 503e 7ba4 37be 6d40 f1bc
000001b0: 981e 98bf 1b3a bfbc cf7d ccbf 3aff 193e
000001c0: 097e 903f 24fb e13e 76a8 0abe 2b65 13bf
000001d0: 9045 1ebf e3ec de3f 8b91 133e 6b60 2e3f
000001e0: 5bef 46bf f035 543f 5da0 6fbe 74eb 3bbf
000001f0: 0e20 f53f eb0c 1a3f aceb 533f 0379 a23e
00000200: 5322 1940 edca bb3e 8cae 1fbf 8a61 b43f
00000210: 3189 a5be 4fd4 75bf 1da5 223f 2130 f93f
00000220: 38e2 7ebf 7c8c 283d d54a 61bf ff15 d53f
00000230: 9a72 1b3f e026 ef3f 3751 343f 2e84 093f
00000240: 5002 d3be 8514 cb3f 7949 f7be f15e a1be
00000250: f70f a0be 13ca 9b3f 7e31 cbbf 1b88 78be
00000260: 8ae6 4c3e 1bb2 93be 06c2 fbbf 7cb9 f4be
00000270: 2dc4 a6be d871 03bf 29b0 373e dc6a 18bf
00000280: c03f e73f 7782 4fbf fee1 b3bf b899 c93e
00000290: 25d3 903e 48c8 463e 8b69 67bf 9895 6dbf
-1.230676 0.4002234 1.6836985 1.2034334 -0.051799834 1.4735109 1.3154281 2.2171776
0.92027736 1.451683 -0.820894 0.5205768 -0.40753728 -1.0749604 -1.3536389 -0.24690127
1.1159132 -1.6863267 -1.1183796 0.78767806 1.8242248 1.4456993 1.0549371 1.3770052
-1.1087999 1.3485439 1.5059506 0.20961332 0.5747848 -1.3093629 0.64924604 0.12328491
-0.52590525 -0.5544783 1.3613037 0.48681998 -0.31370103 0.793086 -0.34114265 2.4309518
0.47606683 -1.2335451 1.3608637 1.1785811 -0.012791072 -1.5716301 -0.27440688 0.63259727
-0.7290197 0.22277817 0.7076538 2.432595 -1.3876308 1.0323827 0.38862693 1.1511867
0.9588493 1.6603361 0.6312713 1.9010199 0.92546934 0.6799225 -1.3985074 -0.45489258
1.5397046 -1.3511398 -0.039373122 0.23767094 1.602766 -1.7640982 0.4565434 1.6700536
1.779774 -0.44303012 -0.26280898 -0.14101623 1.053384 1.3530605 0.13924217 -0.1260792
-0.99402404 -0.8171043 -0.8431566 0.88795537 2.6188653 -0.82095504 0.26887888 1.3660284
0.2809364 1.1241995 -0.18317266 -0.6948256 0.078387484 1.4330608 -0.8882203 1.3293099
-0.5855338 0.65596056 -1.5528636 1.2407714 0.9717797 -0.6442746 0.04043012 -0.51602495
-1.5947585 0.20342161 -0.17933838 -0.029449666 -1.1884336 -0.023343137 -1.5975894 0.15038767
1.1288463 0.44136918 -0.13540825 -0.57576245 -0.61824894 1.7416042 0.14410989 0.6811587
-0.7770898 0.828948 -0.23401017 -0.7340615 1.9150407 0.6017596 0.8278148 0.3173295
2.39272 0.36678258 -0.6237571 1.4092267 -0.3233123 -0.9602708 0.6353319 1.9467813
-0.9956393 0.0411496 -0.8800481 1.6647338 0.60721743 1.8683739 0.70436424 0.53717315
-0.41212702 1.5865637 -0.48298243 -0.31517747 -0.3126218 1.2171043 -1.5874479 -0.2427067
0.20009819 -0.2884682 -1.9668586 -0.47797763 -0.32571545 -0.51345587 0.17938294 -0.59538054
1.806633 -0.8105845 -1.4053342 0.3937509 0.2828609 0.19412339 -0.9039542 -0.92806387

Detokenizer.cat_recons.8.bias f4 [42]
00000000: d387 e2be c664 ddbe b202 8a3e 3812 5bbe
00000010: 6145 b0bd b4ce 31bf 3f5b 19bf 4958 17bf
00000020: 2ec1 45be 3b31 d8be 86e4 9d3d 4bad eebe
00000030: b215 bcbe 9008 bd3e 439f 67ba 195e c43e
00000040: bc6d 6f3e e975 803e 07c8 39be 496b 09bf
00000050: 5724 09be 7d77 893d 03cb 77bc dd14 12bf
00000060: 7e79 073e 9ef6 e63d 56bf c2be 1400 863e
00000070: e382 753e 44c7 8d3d 2d5c 0dbf 7c10 aa3e
00000080: 7e50 8ebe fa6e 18be c459 a5be b62d fbbe
00000090: eb30 323e 4497 853e f7ef 803e 97f1 da3e
000000a0: 4dae f53e 5106 c4bd
-0.4424425 -0.43240947 0.2695518 -0.21393669 -0.08606983 -0.6945603 -0.59904855 -0.5911909
-0.19311973 -0.4222506 0.07709603 -0.46616587 -0.36735302 0.36920595 -0.00088356825 0.3835304
0.23381704 0.25089958 -0.1814271 -0.5367933 -0.13392769 0.06712244 -0.015124085 -0.57063085
0.1322994 0.11277507 -0.38036603 0.26171935 0.2397571 0.069227725 -0.55218774 0.33215702
-0.27795786 -0.14886084 -0.32295048 -0.49058312 0.17401473 0.2609197 0.2518308 0.42762443
0.47984543 -0.09571517
