tabsyn/vae/ckpt/adult/decoder.pt (torch, 28114 bytes, 49 tensors)

VAE_Decoder.layers.0.attention.W_q.weight f4 [4, 4]
0	0xbec420d5	-0.383063
1	0x3efaab1d	0.48958674
2	0xbea76934	-0.3269745
3	0xbe9ad00e	-0.30236858
4	0xbdcb0cf5	-0.09914581
5	0x3e84b65a	0.25920373
6	0xbda48ae8	-0.08034307
7	0x3ea97c59	0.33102682
8	0xbe332111	-0.17493083
9	0xbe950b44	-0.29110157
10	0xbf0afe84	-0.5429461
11	0x3e614d53	0.22002153
12	0x3e0f8aee	0.14017841
13	0xbb2e8b46	-0.0026633306
14	0x3e739235	0.23786242
15	0x3e64c2d8	0.22339952

VAE_Decoder.layers.0.attention.W_q.bias f4 [4]
0	0xbce7c9aa	-0.028294403
1	0xbdd7f2b1	-0.105443366
2	0x3ebc1019	0.36731032
3	0xbe391382	-0.18073848

VAE_Decoder.layers.0.attention.W_k.weight f4 [4, 4]
0	0xbeaedb9c	-0.34151924
1	0x3e9f0926	0.31061667
2	0xbe49694a	-0.19669071
3	0xbe3e9176	-0.18610176
4	0x3e805d18	0.25071025
5	0xbe968bc1	-0.294035
6	0xbe875aae	-0.2643637
7	0xbe8ea1b0	-0.27857733
8	0x3d72f503	0.059315693
9	0x3d9a97e9	0.07548506
10	0x3e87cbb3	0.26522598
11	0x3eca9da3	0.39573392
12	0x3e355f96	0.17712244
13	0xbd8416f2	-0.06449689
14	0xbe859c47	-0.26095793
15	0xbe54246b	-0.20717017

VAE_Decoder.layers.0.attention.W_k.bias f4 [4]
0	0xb9cec55d	-0.0003943843
1	0xb73759de	-1.0928574e-05
2	0xba3e75ce	-0.0007265479
3	0x3a04d4a9	0.0005067089

VAE_Decoder.layers.0.attention.W_v.weight f4 [4, 4]
0	0xbdaacf27	-0.083402924
1	0x3e1a2227	0.1505209
2	0xbdde785c	-0.108628005
3	0x3cb8abe9	0.02254291
4	0xbe4d9c96	-0.20079264
5	0x3ea1a9d6	0.31574887
6	0xbdf63e58	-0.1202361
7	0x3d5528fd	0.052041043
8	0xbd0e5c9a	-0.03475628
9	0x3e3d078d	0.18459912
10	0xbded4728	-0.115858376
11	0x3c0b9472	0.008519279
12	0xbd98d59f	-0.0746262
13	0x3dca34fc	0.09873387
14	0xbd7b8a69	-0.061411295
15	0x3ca944ab	0.020662626

VAE_Decoder.layers.0.attention.W_v.bias f4 [4]
0	0x3d360cf7	0.044445958
1	0xbcbc862b	-0.023013195
2	0x3cb0bd89	0.021574752
3	0xbd14da90	-0.03634125

VAE_Decoder.layers.0.linear0.weight f4 [128, 4]
0	0xbed59f82	-0.41723257
1	0xbe98394c	-0.29731214
2	0x3f42a280	0.76029205
3	0xbf28992f	-0.6585874
4	0xbc5cd7d8	-0.013479196
5	0xbf7f10ac	-0.99634814
6	0xbeb27983	-0.3485833
7	0x3e468697	0.1938728
8	0xbeaad764	-0.33367455
9	0x3cba9959	0.0227782
10	0x3ec71314	0.38881743
11	0x3c352bb6	0.011057785
12	0x3d6ad87a	0.057335354
13	0xbe6b6304	-0.2298699
14	0xbe48ac0f	-0.19596885
15	0xbe65c549	-0.2243854
16	0xbe1fcd46	-0.1560565
17	0x3c3450c1	0.011005581
18	0x3f295e03	0.66159075
19	0xbed901a2	-0.42384058
20	0xbf2551cf	-0.64577955
21	0xbe7c00c3	-0.24609666
22	0xbea75d30	-0.32688284
23	0xbd64712b	-0.055771988
24	0xbf04fb93	-0.5194637
25	0x3c192535	0.00934725
26	0xbee006a5	-0.4375507
27	0xbea69b7e	-0.32540506
28	0xbedd4576	-0.43217057
29	0xbe526ebc	-0.20550054
30	0xbe540b2c	-0.20707387
31	0xbe5e726f	-0.2172334
32	0x3ddc565b	0.107586585
33	0x3ca571a3	0.020195788
34	0x3b5a53dd	0.0033314147
35	0x3dc47a1a	0.095936015
36	0xbd93cfdd	-0.07217381
37	0xbdb5f8d9	-0.088853545
38	0x3ebb301c	0.36560142
39	0x3edfa8b1	0.4368339
40	0x3de57da5	0.112056054
41	0x3cddbf03	0.02706862
42	0xbd04c519	-0.03241453
43	0xbe38d9eb	-0.18051879
44	0x3b78d300	0.0037967563
45	0xbd987388	-0.07443911
46	0xbb278c00	-0.0025565624
47	0x3e16da48	0.14731705
48	0x3d99e741	0.07514811
49	0xbda287f7	-0.079360895
50	0x3c3ba545	0.011452978
51	0x3e47d578	0.19515026
52	0x3ec0ae6d	0.37633076
53	0xbebfd2a3	-0.3746539
54	0xbeea4892	-0.45758492
55	0x3e8e9f36	0.27855843
56	0x3e1318c2	0.14364913
57	0xbe74ec7c	-0.23918337
58	0xbf7dda1e	-0.99160945
59	0x3f04a863	0.5181944
60	0xbc821df9	-0.015883433
61	0x3e5c944c	0.21540946
62	0x3f38b105	0.7214511
63	0xbedcbdd3	-0.43113574
64	0x3da5db4f	0.080984704
65	0xbe945210	-0.2896886
66	0x3f7dc2ef	0.9912557
67	0xbf09c5e2	-0.5381757
68	0xbea564ea	-0.32303554
69	0x3e202c9c	0.15642017
70	0x3d9a71ac	0.075412124
71	0x3ea77a74	0.32710612
72	0x3f81399f	1.009571
73	0x3f89b5b0	1.0758572
74	0x3c33d1ea	0.01097534
75	0xbf22e644	-0.6363261
76	0xbf023076	-0.50855196
77	0xbc011bfd	-0.007880208
78	0x3f34e8f1	0.7066794
79	0xbf0773ca	-0.52911055
80	0xbedebbd2	-0.4350267
81	0xbda0def6	-0.078550264
82	0xbed81917	-0.42206642
83	0x3e4b83b5	0.19874461
84	0x3f205682	0.62632
85	0xbeee2006	-0.46508807
86	0x3e7d975e	0.24764773
87	0x3ddebc7e	0.10875796
88	0xbe94b497	-0.2904403
89	0x3e905821	0.28192237
90	0x3f021fb3	0.5082962
91	0x3e37859b	0.1792206
92	0xbe04d319	-0.12971152
93	0xbe14ed36	-0.14543614
94	0x3ed8cd37	0.42344067
95	0x3ededcdd	0.4352788
96	0x3ea45db1	0.3210273
97	0x3eaac2cb	0.3335174
98	0xbf02dd37	-0.511188
99	0x3f106e2a	0.56418097
100	0xbeddc8c2	-0.4331723
101	0x3e6f4776	0.23367104
102	0x3dd8a26d	0.10577855
103	0xbdc75ae6	-0.097341344
104	0xbd62168c	-0.055197284
105	0x3f0966b4	0.5367234
106	0x3f135a9e	0.57560146
107	0x3f0a423b	0.5400731
108	0x3da8f8a8	0.082505524
109	0x3db923be	0.090400204
110	0xbeccbf4c	-0.39989698
111	0x3eefe97b	0.4685782
112	0x3d8f6888	0.0700236
113	0x3bd64f8e	0.0065402454
114	0x3f685837	0.90759605
115	0xbeac212d	-0.3361906
116	0x3d1ee233	0.03878994
117	0x3e16b8a7	0.14718877
118	0xbec36d11	-0.3816915
119	0x3ef81460	0.48453045
120	0x3ec8caec	0.39217317
121	0xbc862cf9	-0.016378867
122	0x3e272671	0.16323258
123	0xbec2395e	-0.37934393
124	0x3eeab175	0.45838514
125	0xbf01b3e8	-0.5066514
126	0xbd1c73b6	-0.038196288
127	0x3f1b6ec1	0.6071587
128	0x3e927d57	0.28611252
129	0x3d5abe20	0.053403974
130	0xbd356a92	-0.044291086
131	0xbb944faa	-0.0045260983
132	0xbeaa11a3	-0.3321658
133	0x3d716444	0.05893351
134	0x3f121bdf	0.5707378
135	0x3f2d8980	0.67787933
136	0xbd09125f	-0.033464786
137	0x3cac8e3a	0.021063913
138	0x3d2b2900	0.041787148
139	0x3eda80ce	0.42676395
140	0x3ec043e2	0.3755179
141	0xbe4a3978	-0.19748485
142	0x3b6d2c07	0.0036189572
143	0xbece8934	-0.40339053
144	0xbed2eb22	-0.41195017
145	0xbeff83ab	-0.49905142
146	0xbc855fc9	-0.016281025
147	0x3e844bbb	0.25839028
148	0xbf36f7b8	-0.7147174
149	0xbf0eda1b	-0.5580155
150	0x3f09f087	0.5388264
151	0xbf700561	-0.9375821
152	0xbe84a575	-0.25907484
153	0x3ea32183	0.31861505
154	0x3e155415	0.14582856
155	0xbf032138	-0.5122256
156	0x3f03c04e	0.5146531
157	0xbee00ef6	-0.43761414
158	0x3e91afb8	0.28454375
159	0x3df9de17	0.122005634
160	0x3e87e1f0	0.26539564
161	0xbf0464ea	-0.5171648
162	0xbdf542ca	-0.1197563
163	0x3f3f991c	0.74843
164	0xbe4ad907	-0.19809352
165	0x3e975a11	0.29560903
166	0xbe610aaa	-0.21976724
167	0xbef2f780	-0.47454453
168	0xbe724585	-0.23659332
169	0x3ee72d8c	0.45151937
170	0x3e29a501	0.1656685
171	0xbc4e9ae6	-0.012610173
172	0xbef3ee97	-0.47642967
173	0xbdb5bcad	-0.08873878
174	0x3eb70d90	0.35752535
175	0x3eae0467	0.33987734
176	0xbdc53517	-0.09629267
177	0x3ed47642	0.41496474
178	0xbea5f695	-0.3241469
179	0xbee4e0ab	-0.44702658
180	0xbed93243	-0.4242116
181	0xbf0464af	-0.5171613
182	0xbf022e58	-0.50851965
183	0xbe2793a8	-0.1636492
184	0x3d3e0c21	0.046398286
185	0xbe7bc5e6	-0.24587211
186	0x3e7b6510	0.24550271
187	0xbe0627ff	-0.13101195
188	0x3dbfbe97	0.09362524
189	0xbf107f7b	-0.5644452
190	0x3f48d75b	0.78453606
191	0xbf1f83ed	-0.6231068
192	0x3e6ec81e	0.23318526
193	0x3e3b63fb	0.18299858
194	0xbe765619	-0.24056281
195	0x3ef3eb9a	0.47640687
196	0x3e5f5d35	0.218129
197	0x3e63bc6e	0.22239849
198	0x3e87759b	0.26456913
199	0x3d62a581	0.055333618
200	0x3ee3d4de	0.44498342
201	0x3e9744e3	0.29544744
202	0xbeebae88	-0.46031594
203	0xbe83b8cd	-0.2572693
204	0xbf01a877	-0.5064768
205	0x3e34e45d	0.17665239
206	0xbf0cfd72	-0.55074227
207	0x3e1a08d9	0.15042438
208	0xbef0d400	-0.47036743
209	0xbdfc9856	-0.12333743
210	0x3c2189c5	0.009859507
211	0xbe3dcd7b	-0.18535416
212	0xbe64b5c7	-0.22334968
213	0xbe5ce7ae	-0.21572754
214	0x3ef41aaa	0.47676593
215	0xbf021355	-0.5081075
216	0x3ec7ea3b	0.3904589
217	0xbd4c7f91	-0.049926344
218	0x3d399691	0.045309607
219	0xbeeddf85	-0.46459594
220	0xbeb55cb2	-0.35422283
221	0x3f04c234	0.5185883
222	0x3d24c175	0.040223558
223	0xbcb84e1e	-0.022498187
224	0x3e7cf152	0.24701431
225	0xbcfa5498	-0.030557916
226	0x3e036af7	0.12833773
227	0x3ed1de26	0.40989798
228	0xbd6787e1	-0.05652607
229	0xbd9e2333	-0.077215575
230	0xbe14ee67	-0.14544068
231	0xbf17d42a	-0.5930811
232	0x3e1183ed	0.14210482
233	0xbd09b404	-0.033618942
234	0x3d20cc51	0.03925735
235	0x3f70786a	0.9393374
236	0xbe3103e5	-0.17286642
237	0xbed7d8f4	-0.4215771
238	0xbe46fc20	-0.19432116
239	0xbd9ac315	-0.0755674
240	0xbe8d0bdb	-0.27548108
241	0xbdaeb16c	-0.08529934
242	0x3d759069	0.059952173
243	0xbeb144c0	-0.34622765
244	0x3e50dc85	0.20396622
245	0x3ef532ab	0.4789022
246	0xbe3f0a01	-0.1865616
247	0xbe2e793a	-0.17038432
248	0x3d06b20f	0.032884654
249	0xbdd2a2ca	-0.10284956
250	0x3ea39f2b	0.31957373
251	0xbeb23e30	-0.3481307
252	0xbf040b28	-0.51579523
253	0x3e53c9a8	0.20682395
254	0xbd909e51	-0.070614465
255	0x3f0ee2d3	0.55814856

VAE_Decoder.layers.0.linear0.bias f4 [128]
0	0xbe9d99b1	-0.3078132
1	0xbe908855	-0.28229013
2	0x3e737987	0.23776828
3	0x3efeaab9	0.49739626
4	0x3ea13a0f	0.31489608
5	0x3eeb91bd	0.46009627
6	0xbda8bbf4	-0.08238974
7	0x3e39cd17	0.18144642
8	0x3ef49c70	0.47775602
9	0x3e922a1e	0.28547758
10	0x3ecbabfe	0.39779657
11	0xbefd5778	-0.49480796
12	0x3eafe14d	0.34351578
13	0x3e393a53	0.18088655
14	0x3d40e1ff	0.047090527
15	0x3d96a742	0.07356121
16	0xbe071e9d	-0.13195272
17	0x3f1473bf	0.57989115
18	0xbd50201e	-0.05081188
19	0xbe867a2a	-0.2626508
20	0xbc6fa57c	-0.014626857
21	0xbedefb40	-0.43551064
22	0x3e5f107c	0.21783632
23	0x3ede09e5	0.43366924
24	0xbd21ba17	-0.03948411
25	0xbec30173	-0.38087043
26	0x3e458ac8	0.19291222
27	0x3e17a426	0.14808711
28	0x3dce4737	0.10072177
29	0x3e432d32	0.1906021
30	0x3e14298d	0.14468975
31	0x3eebfc3f	0.46090886
32	0x3ede2744	0.43389332
33	0xbe03633a	-0.1283082
34	0x3ceef41d	0.029169137
35	0xbe5196a8	-0.20467627
36	0xbedccb70	-0.4312396
37	0xbe612aa9	-0.2198893
38	0x3e8a1792	0.26971108
39	0x3ebaae24	0.36460984
40	0xbe032f54	-0.12811023
41	0x3eb53aa8	0.35396314
42	0xbef7b0ba	-0.4837702
43	0x3e87d318	0.2652824
44	0xbeb20a03	-0.34773263
45	0x3ee50516	0.44730443
46	0xbeb9dc72	-0.36301
47	0xbea904cb	-0.3301147
48	0x3eecea06	0.46272296
49	0x3dd5f6ab	0.10447439
50	0xbec7e39a	-0.39040834
51	0x3edbf0a3	0.4295703
52	0x3eb272f2	0.3485332
53	0xbdfcc833	-0.123428725
54	0x3e382db1	0.1798618
55	0xbd277ec9	-0.040892396
56	0x3ec23ab2	0.37935406
57	0x3ea8d39e	0.3297395
58	0xbdf527a0	-0.119704485
59	0x3ecd9e72	0.40159947
60	0x3e800d2b	0.25010046
61	0x3ebf0048	0.37304902
62	0x3edb665e	0.42851537
63	0xba8b8d42	-0.0010646957
64	0x3e88c010	0.26709032
65	0x3e02da8f	0.12778686
66	0x3ee5401c	0.44775474
67	0xbeb63591	-0.35587743
68	0xbd6f8201	-0.05847359
69	0x3e92fcbd	0.2870845
70	0xbe631a8b	-0.22178094
71	0x3e9081ed	0.28224126
72	0x3e1c72cf	0.15278171
73	0x3c9b4255	0.018952528
74	0xbea7035f	-0.3261976
75	0x3dc5c7fe	0.09657286
76	0x3e767da8	0.24071372
77	0x3e98447a	0.29739743
78	0x3eefec36	0.46859902
79	0x3ef4c3f4	0.4780575
80	0xbdc5b213	-0.096531056
81	0x3e79d20b	0.24396531
82	0xbe814a38	-0.25251937
83	0x3eb38f88	0.35070443
84	0x3df7715b	0.12082168
85	0xbe1c75bf	-0.15279292
86	0xbe23ad7b	-0.15984146
87	0xbf0e27ef	-0.55529684
88	0x3eeb898e	0.46003383
89	0xbe853f06	-0.26024646
90	0x3eb06064	0.3444854
91	0xbea2451b	-0.31693348
92	0x3ea3a298	0.31959987
93	0x3e4857fa	0.1956481
94	0x3ed0732f	0.40712878
95	0xbeabce23	-0.33555707
96	0xbd4b90dd	-0.0496987
97	0xbe292335	-0.16517337
98	0xbea616b7	-0.32439205
99	0x3e9514cc	0.2911743
100	0xbebb183d	-0.3654193
101	0xbde86855	-0.11348025
102	0x3f0f9a14	0.5609448
103	0x3edaf629	0.4276593
104	0x3de58928	0.11207801
105	0x3df8c679	0.12147231
106	0xbece94f6	-0.40348023
107	0xbdfb6951	-0.12275947
108	0x3e84511e	0.25843138
109	0xbab3104a	-0.0013661471
110	0x3e109479	0.14119138
111	0xbde7ac53	-0.11312165
112	0xbc8495e5	-0.016184757
113	0x3d3e4b55	0.04645856
114	0x3ece6b73	0.40316352
115	0xbef38071	-0.4755893
116	0x3d76de41	0.06027055
117	0x3e9913fb	0.29898056
118	0x3e1f00a7	0.15527593
119	0x3ddd208b	0.10797223
120	0x3d5486e9	0.051886473
121	0xbecd93d3	-0.40151843
122	0x3ebe8e10	0.3721776
123	0xbe43f843	-0.19137673
124	0xbd5670ad	-0.05235355
125	0xbea2965a	-0.31755334
126	0x3e779a83	0.24180035
127	0xbddb80fe	-0.10717963

VAE_Decoder.layers.0.linear1.weight f4 [4, 128]
0	0x3ea09692	0.31364876
1	0x3e17beaf	0.14818834
2	0x3d8cd3b5	0.068763174
3	0x3d89593e	0.06706475
4	0x3dc3dd7b	0.095637284
5	0xbd53907d	-0.051651467
6	0xbdb8e7ca	-0.09028585
7	0xbde0edee	-0.109828815
8	0xbcf75477	-0.030191643
9	0xbd6ea423	-0.058262
10	0xbd75d2bc	-0.060015425
11	0x3cc4cfd5	0.024024883
12	0x3d6dfe89	0.05810407
13	0x3e1b9222	0.15192464
14	0x3eb2977f	0.34881207
15	0x3ccd646f	0.025072305
16	0x3ebfecfd	0.37485495
17	0xbcddf810	-0.027095824
18	0xbf611ce8	-0.8793473
19	0x3f0b0680	0.54306793
20	0xbade658b	-0.0016967518
21	0xbe408d49	-0.18803896
22	0x3d199ff8	0.037506074
23	0x3d1806eb	0.037115972
24	0x3dbbc23f	0.09167909
25	0x3e123ce1	0.14281036
26	0xbddb0ca7	-0.106957726
27	0xbc839049	-0.016060011
28	0x3e048ab0	0.1294353
29	0x3dc698bd	0.09697101
30	0x3c49a097	0.012306354
31	0x3d950578	0.07276434
32	0x3c0c3848	0.00855834
33	0xbebc4e23	-0.36778364
34	0x3d8941f0	0.0670203
35	0x3d446939	0.04795191
36	0xbe45850b	-0.19289033
37	0x3ec8fff8	0.3925779
38	0xbc95a1bf	-0.018265603
39	0x3de27252	0.11056961
40	0x3eaa5146	0.33265132
41	0xbd5674f3	-0.052357625
42	0xbb05a4c4	-0.0020392397
43	0xbddb95c8	-0.10721928
44	0xbea7861f	-0.32719514
45	0xba5689aa	-0.00081839657
46	0x3d9d0d99	0.07668609
47	0x3e6844de	0.22682521
48	0x3dab9866	0.08378677
49	0x3c914bf8	0.01773642
50	0xbc3f3ec3	-0.011672678
51	0xbceabb88	-0.028653875
52	0xbd8119a7	-0.06303721
53	0x3e6e0aae	0.23246261
54	0xbd9c060e	-0.07618342
55	0xbd42bf00	-0.047545433
56	0x3db00052	0.08593811
57	0xbc8f0657	-0.017459078
58	0x3ee425fb	0.44560227
59	0x3d8daa0b	0.06917199
60	0xbbb44970	-0.0055019185
61	0xbd2ff8fa	-0.042962052
62	0xbbd66653	-0.0065429597
63	0xbdc61166	-0.09671287
64	0x3cd71eb9	0.026259767
65	0xbdab4dd1	-0.08364452
66	0xbd363a95	-0.044489462
67	0x3d8e7e7c	0.06957719
68	0x3cec34f0	0.028833836
69	0xbd7b3175	-0.061326463
70	0x3dbc44fe	0.09192847
71	0xbd08f2fd	-0.033434857
72	0xbd697d38	-0.057004184
73	0x3dc32859	0.0952918
74	0x3d399f82	0.045318134
75	0xbdd4ce7d	-0.10390947
76	0xbd85b5be	-0.06528805
77	0x3d393548	0.04521683
78	0xbddedb4b	-0.108816706
79	0x3be6e96c	0.007046869
80	0x3d9fb59b	0.0779831
81	0xbdd1d0ae	-0.102448806
82	0xbd24b50c	-0.040211722
83	0xbd961466	-0.073281094
84	0x3c550b31	0.0130031565
85	0x3e838b81	0.2569237
86	0x3d4db6f0	0.05022329
87	0x3c620cde	0.013797013
88	0x3dc278a0	0.09495664
89	0x3d0ca2fb	0.034335118
90	0xbd9e1ca7	-0.07720309
91	0xbd31fb66	-0.043452643
92	0xbd6416fc	-0.055685982
93	0x3ce0d3de	0.027444776
94	0x3a8d1c55	0.001076589
95	0xbeecbb40	-0.4623661
96	0xbd68877d	-0.056769837
97	0x3c50c27d	0.012741682
98	0x3d80c3a7	0.06287318
99	0x3e073e6d	0.13207407
100	0x3e5da235	0.21643908
101	0x3d878b07	0.06618314
102	0x3d4e88e4	0.050423518
103	0xbda67209	-0.08127219
104	0xbdfb6226	-0.1227458
105	0x3ce5e7c0	0.028064609
106	0xbd142124	-0.036164418
107	0xbd91b94f	-0.07115423
108	0x3dc34a4e	0.09535657
109	0x3d3c8df3	0.04603381
110	0x3caf48f8	0.021397099
111	0x3f04fbb3	0.5194656
112	0xbe2575cf	-0.16158222
113	0xbd4f4886	-0.050606273
114	0x3cd79275	0.026314953
115	0xbcc77e8a	-0.02435233
116	0x3e5158b2	0.20443991
117	0x3e16a920	0.14712954
118	0x3cca9186	0.024727594
119	0x3cd0f57d	0.025507683
120	0xbd614c56	-0.05500444
121	0xbbda78ea	-0.006667246
122	0xbdd852b0	-0.105626464
123	0x3dc2557e	0.094889626
124	0x3e84d377	0.25942585
125	0xbdc4ba21	-0.09605814
126	0x39bebd06	0.00036380457
127	0x3ce5db8b	0.028058788
128	0x3db06bdf	0.08614325
129	0x3f25942c	0.6467922
130	0x3b57d089	0.0032930693
131	0xbd558818	-0.052131742
132	0xbb500860	-0.0031743273
133	0x3c447453	0.0119906245
134	0x3bd34776	0.006447728
135	0x3dad14b7	0.08451217
136	0xbd6c9c36	-0.05776616
137	0xbd4afef8	-0.049559563
138	0xbdcc7504	-0.099832565
139	0xbd4590d4	-0.048233822
140	0x3ddee187	0.1088286
141	0x3dec5300	0.115392685
142	0x3f940b73	1.1565994
143	0x3d9ff2e2	0.07809998
144	0x3ec94d41	0.39316753
145	0xbc9b394e	-0.018948223
146	0xbf5f953a	-0.87337077
147	0x3dadd8c9	0.08488614
148	0x3dc41852	0.09574951
149	0xbf32c458	-0.69830847
150	0xbe01fe27	-0.12694608
151	0xbd69b1ed	-0.05705445
152	0x3e2145fe	0.15749356
153	0xbdc14c45	-0.094383754
154	0xbe07523c	-0.13214964
155	0x3e8ceb1f	0.27523133
156	0x3e013439	0.12617578
157	0x3e0653c2	0.13117889
158	0xbc62e605	-0.013848786
159	0xbd726acb	-0.059183877
160	0x3b55cc54	0.003262301
161	0xbe2d1d83	-0.16905789
162	0xbdaf0bcf	-0.08547174
163	0xbd2ea78b	-0.04264025
164	0xbe465ee9	-0.19372143
165	0x3e1de43e	0.15419099
166	0x3c9efea3	0.01940853
167	0x3d800fca	0.062530115
168	0x3db551cc	0.08853492
169	0xbdad65f2	-0.0846671
170	0xbd7c6db3	-0.061628055
171	0xbc91a9af	-0.017781107
172	0xbdb4408f	-0.08801376
173	0x3d957860	0.0729835
174	0xbd01377d	-0.03154706
175	0x3e87084f	0.26373526
176	0x3d1e37ea	0.038627543
177	0x3c9336cb	0.017970463
178	0xbe0873da	-0.13325444
179	0x3d8e10ce	0.06936799
180	0xbd8ae7d8	-0.06782502
181	0x3e3a87e3	0.18215899
182	0xbdda95a6	-0.106730744
183	0xbda5092f	-0.08058392
184	0x3cdd8dd5	0.02704517
185	0xbd0b16d7	-0.03395733
186	0x3f1b2b48	0.60612917
187	0x3cec1aa6	0.0288213
188	0xbd20dc9f	-0.0392729
189	0xbe18b819	-0.14913978
190	0xbd8294e3	-0.06376054
191	0xbe1dc81a	-0.15408364
192	0x3e82bd45	0.25535026
193	0xbe0a5335	-0.13508303
194	0x3cd0d87c	0.025493853
195	0x3e0df4a1	0.1386285
196	0xbd42db4d	-0.047572423
197	0xbe052748	-0.13003266
198	0xbd909e95	-0.07061497
199	0xbb948316	-0.004532228
200	0xbd9efbf2	-0.077628985
201	0x3eac08f4	0.3360058
202	0x3eb2e68f	0.34941527
203	0xbcdb5ec9	-0.026778596
204	0xbde93a01	-0.113880165
205	0x3cfc50ee	0.030800309
206	0xbe14db90	-0.14536881
207	0xbda5da13	-0.08098235
208	0x3d06a89b	0.03287564
209	0xbd31bd49	-0.043393407
210	0x3cec9fce	0.028884795
211	0xbd710e50	-0.05885154
212	0xbd972311	-0.07379735
213	0xbde7c879	-0.11317534
214	0xbd576c34	-0.052593425
215	0xbe4315ca	-0.1905128
216	0x3d6f1a67	0.05837479
217	0xbed23a82	-0.41060263
218	0x3d5ac9b0	0.053415
219	0xbd468a9b	-0.04847203
220	0x3d803ead	0.062619545
221	0x3db90375	0.090338625
222	0xbdcfc3c3	-0.101447605
223	0xbe52b33e	-0.20576188
224	0xbdae3ccc	-0.0850769
225	0x3e6e0dae	0.23247406
226	0xbdecbb9a	-0.1155922
227	0x3c30b11d	0.010784415
228	0xbdf509a5	-0.1196473
229	0xbc90ee04	-0.01769162
230	0xbda8bd54	-0.082392365
231	0xbe1d3c3b	-0.15355007
232	0xbe0652b1	-0.13117482
233	0xbc433e08	-0.011916645
234	0x3ed1f7cf	0.41009375
235	0xbda4ec17	-0.08052843
236	0xbcd35902	-0.025799278
237	0x3e244521	0.16041996
238	0x3e20052d	0.15626974
239	0x3ecef676	0.4042241
240	0xbd9705f6	-0.07374184
241	0xbd6d275c	-0.057898864
242	0x3d695abc	0.056971297
243	0xbe1ed151	-0.15509535
244	0x3f538efa	0.8264004
245	0x3cf80304	0.030274875
246	0x3dbcd059	0.09219427
247	0x3e036900	0.12833023
248	0xbde8224f	-0.11334669
249	0x3dd9b0ba	0.10629411
250	0xbdbba6df	-0.091626875
251	0x3d960236	0.073246405
252	0x3dfe4d40	0.12417078
253	0xbdee14d7	-0.11625069
254	0xbd81fda0	-0.06347203
255	0xbe177c73	-0.14793567

VAE_Decoder.layers.0.linear1.bias f4 [4]
0	0xbd8c07b0	-0.06837404
1	0xbdf375b4	-0.118876845
2	0x3d3d9c28	0.0462915
3	0x3d6d220f	0.05789381

VAE_Decoder.layers.0.norm1.weight f4 [4]
0	0x3fae91e5	1.3638273
1	0x3fa69f07	1.3017281
2	0x3fbdd062	1.4829218
3	0x3fb59951	1.4187413

VAE_Decoder.layers.0.norm1.bias f4 [4]
0	0x3de320e7	0.1109026
1	0x3dd8bf7a	0.10583396
2	0xbccddfa5	-0.025131056
3	0x3d573e63	0.05254973

VAE_Decoder.layers.1.attention.W_q.weight f4 [4, 4]
0	0x3e343291	0.17597415
1	0xbe2566dd	-0.1615252
2	0xbf0633f3	-0.5242302
3	0x3f252663	0.645117
4	0x3d3a9688	0.045553714
5	0x3e508d88	0.2036649
6	0x3f10fc97	0.5663542
7	0xbe151c32	-0.14561537
8	0xbe84c79b	-0.25933537
9	0xbe517819	-0.2045597
10	0x3f110d75	0.5666116
11	0xbefbf4e5	-0.49210277
12	0xbd748fda	-0.0597075
13	0x3db8ccc2	0.090234295
14	0x3dd51aad	0.104054786
15	0x3f10d775	0.5657876

VAE_Decoder.layers.1.attention.W_q.bias f4 [4]
0	0x3e8b3442	0.27188307
1	0xbe1d834f	-0.15382122
2	0xbebf964b	-0.37419352
3	0x3d1c03ab	0.038089436

VAE_Decoder.layers.1.attention.W_k.weight f4 [4, 4]
0	0x3ebd5ee1	0.3698645
1	0x3f3327d2	0.69982636
2	0xbed551f3	-0.41664085
3	0x3efa7f75	0.48925367
4	0x3e55b300	0.20869064
5	0xbf11026c	-0.5664432
6	0x3f204e93	0.62619895
7	0xbf80f984	-1.0076146
8	0x3d824999	0.06361694
9	0xbf35eace	-0.7106141
10	0x3f1dbdad	0.6161755
11	0x3c292601	0.010324002
12	0x3e9972ad	0.29970303
13	0xbeb6a452	-0.3567224
14	0xbeff3db4	-0.49851763
15	0x3ecfcdc4	0.40586674

VAE_Decoder.layers.1.attention.W_k.bias f4 [4]
0	0x38bd6633	9.0312584e-05
1	0x391927a5	0.00014605986
2	0x390426b3	0.00012602918
3	0xb958851f	-0.00020648957

VAE_Decoder.layers.1.attention.W_v.weight f4 [4, 4]
0	0x3e5c9f08	0.2154504
1	0x3e32fc8e	0.17479154
2	0x3eec59f5	0.46162382
3	0xbde148bd	-0.11000202
4	0x3e07ed93	0.13274221
5	0xbd759e3c	-0.059965357
6	0xbb8bb404	-0.004263403
7	0xbcdf1e36	-0.027236085
8	0x3e13cc55	0.14433415
9	0xbdd6925a	-0.10477133
10	0x3eb0bc13	0.3451849
11	0xbe7a1099	-0.24420394
12	0x3d868a51	0.065693505
13	0x3d72965d	0.05922543
14	0xbead9793	-0.33904704
15	0x3e5add97	0.21373592

VAE_Decoder.layers.1.attention.W_v.bias f4 [4]
0	0xbc2031d2	-0.009777503
1	0xbca10efc	-0.019660465
2	0x3cefb155	0.029259363
3	0x3b6f1055	0.003647824

VAE_Decoder.layers.1.linear0.weight f4 [128, 4]
0	0x3ee3e851	0.4451318
1	0x3d9ce2f2	0.07660474
2	0xbebdc1a6	-0.37061805
3	0x3e96402e	0.2934584
4	0x3e847a84	0.25874722
5	0xbead4544	-0.33841908
6	0x3f4d3c00	0.8016968
7	0xbf431794	-0.7620785
8	0x3eb42f9e	0.3519258
9	0x3e0709d2	0.1318734
10	0xbe1f6d75	-0.15569098
11	0xbef5276d	-0.47881642
12	0x3f5610e3	0.8361952
13	0x3f0efc55	0.5585378
14	0xbe9ed6db	-0.31023297
15	0xbef5cfbf	-0.4801006
16	0x3f383013	0.71948355
17	0x3f05031a	0.5195786
18	0x3d4a04db	0.049321037
19	0xbedbbfb7	-0.42919704
20	0x3eb2a01e	0.34887785
21	0x3e4b745b	0.19868605
22	0xbe6eb40a	-0.23310867
23	0x3e4b0141	0.19824697
24	0xbe6dba86	-0.23215684
25	0xbe62b079	-0.22137631
26	0xbeaf13e3	-0.3419486
27	0x3f129b6e	0.57268417
28	0xbedb3d8b	-0.4282039
29	0x3ef089ac	0.46980035
30	0x3e504e6f	0.2034242
31	0x3c5bf748	0.013425656
32	0xbe0a1926	-0.13486156
33	0x3eea6ca6	0.45786017
34	0x3d4940f8	0.049134225
35	0xbe008eac	-0.12554425
36	0xbd2fed56	-0.04295095
37	0x3d876c95	0.06612507
38	0xbe19e1aa	-0.1502749
39	0x3f04b72f	0.51842016
40	0x3ee06a28	0.4383099
41	0x3e8e755c	0.27823913
42	0xbe85427d	-0.2602729
43	0xbe131cad	-0.14366408
44	0x3e053413	0.13008146
45	0xbe2bd0f5	-0.1677893
46	0x3e1c6c8a	0.1527578
47	0xbed4700b	-0.41491732
48	0x3e12c8c0	0.14334393
49	0x3ee3dd6d	0.44504872
50	0xbe14541b	-0.14485209
51	0xbecc860d	-0.39946023
52	0xbdfdba7b	-0.12389084
53	0xbd1b1bf8	-0.03786847
54	0x3dc26784	0.094924
55	0x3d83ff70	0.06445205
56	0x3de040d9	0.10949869
57	0x3eda3cdd	0.4262456
58	0xbefda230	-0.49537802
59	0xbe4c08b3	-0.19925193
60	0xbe434e46	-0.19072828
61	0xbdd42803	-0.10359194
62	0xbe59f815	-0.21286042
63	0x3f3d477b	0.73937196
64	0x3e6861a7	0.22693501
65	0xbd75013d	-0.059815634
66	0xbed6116d	-0.4181017
67	0x3ea85c43	0.3288289
68	0x3f0cd0d5	0.5500615
69	0xbf1133e8	-0.5671983
70	0x3e8b522c	0.2721113
71	0x3eca773e	0.395441
72	0xbf50e7dd	-0.81603795
73	0xbf7124c3	-0.9419672
74	0x3f21a3f9	0.6314083
75	0x3fa8d1a8	1.3188982
76	0xbd73e6c0	-0.059546232
77	0x3ee31946	0.4435522
78	0xbee0c79b	-0.43902287
79	0x3dbe5e67	0.092953496
80	0xbda74065	-0.08166579
81	0xbe8553e2	-0.2604056
82	0xbd5ddb0d	-0.05416398
83	0x3da70cb1	0.081567176
84	0x3f020bf7	0.50799507
85	0xbe3e9a7d	-0.1861362
86	0xbe05bd8b	-0.13060586
87	0x3e86f6e7	0.26360247
88	0xbe39c497	-0.181414
89	0x3eebf923	0.46088514
90	0xbca24db8	-0.01981245
91	0x3e11993a	0.14218608
92	0x3df1e9cc	0.11812171
93	0xbec1c54c	-0.37845838
94	0xbee6c317	-0.45070717
95	0x3e75b679	0.23995389
96	0xbe570467	-0.20997773
97	0x3eb00427	0.34378168
98	0xbc4623be	-0.012093483
99	0x3ed021b7	0.40650722
100	0xbe40badc	-0.18821281
101	0x3eee8a34	0.46589816
102	0xbdb9549a	-0.090493396
103	0xbcd4be3e	-0.02596962
104	0xbeb60fa9	-0.35558823
105	0x3e38b450	0.18037534
106	0x3f08a342	0.5337411
107	0xbde62b03	-0.112386726
108	0x3f21640a	0.6304327
109	0x3ec41b39	0.3830202
110	0xbea868c5	-0.32892433
111	0x3cf49a9b	0.029858878
112	0x3ee76c16	0.4519965
113	0xbedc6f43	-0.43053636
114	0x3d0bf0ba	0.03416512
115	0xbf227a5a	-0.63467944
116	0x3e6aff60	0.2294898
117	0xbe4277b7	-0.1899098
118	0x3e883542	0.26603132
119	0x3f21de49	0.63229805
120	0x3f117ea8	0.5683389
121	0x3e043d7d	0.12914081
122	0x3e9eeb74	0.3103901
123	0x3e05d538	0.13069618
124	0x3f431377	0.76201576
125	0xbf125060	-0.5715389
126	0xbe791980	-0.24326134
127	0x3e7c4810	0.24636865
128	0x3f39c90c	0.725724
129	0x3e7d3fc9	0.24731363
130	0xbf0f563a	-0.55990946
131	0xbf0b44bc	-0.54401755
132	0x3f742c06	0.95379674
133	0xbed5987e	-0.41717905
134	0xbf338655	-0.7012685
135	0xbd9b4076	-0.07580654
136	0xbeadd907	-0.3395464
137	0x3c156d3f	0.009120285
138	0xbeed8734	-0.46392214
139	0x3e504320	0.20338106
140	0xbe09c0a3	-0.13452391
141	0xbf423c8b	-0.7587363
142	0xbd11a8f8	-0.03556153
143	0xbe7e0a6a	-0.2480866
144	0x3ed5d93e	0.41767305
145	0xbea994a2	-0.3312121
146	0x3eedaa4a	0.46418983
147	0xbf00ce5a	-0.5031487
148	0x3f999ee3	1.2001613
149	0xbecd3b0f	-0.4008412
150	0xbf77f895	-0.9686368
151	0xbdbd90bb	-0.09256121
152	0xba47ab4b	-0.0007616772
153	0xbf2e285b	-0.6803033
154	0xbe7fd570	-0.24983764
155	0x3e8687e9	0.26275566
156	0x3f0701d0	0.5273714
157	0xbf1d57d3	-0.61462134
158	0x3f6665d6	0.8999914
159	0xbf361377	-0.7112345
160	0xbe5f4dbf	-0.21807002
161	0x3eb15835	0.3463761
162	0xbf0c2601	-0.5474549
163	0x3f16beee	0.58885086
164	0xbe5959c1	-0.21225645
165	0x3ed2712d	0.4110197
166	0xbeeb2ea8	-0.45934033
167	0xbdde15f6	-0.108440325
168	0x3eee06f2	0.46489674
169	0xbdc35924	-0.095384866
170	0xbf0f56a9	-0.5599161
171	0xbf18a159	-0.59621197
172	0xbe29fc71	-0.16600205
173	0xbf06b05c	-0.52612853
174	0x3ed5a568	0.41727757
175	0x3dec5684	0.11539939
176	0x3f7a2d84	0.977257
177	0x3ec59cd4	0.38596213
178	0xbee0d082	-0.4390908
179	0xbd632b6b	-0.05546133
180	0xbcbc4427	-0.022981716
181	0x3ead3ba2	0.3383456
182	0xbe20af5e	-0.15691897
183	0x3f06b49e	0.5261935
184	0xbf16c7ee	-0.5889882
185	0xbe134f7b	-0.14385788
186	0x3e97aed6	0.29625577
187	0x3e54e227	0.20789395
188	0x3f3cba9f	0.7372226
189	0xbebdb109	-0.3704913
190	0xbe3947ba	-0.18093768
191	0x3edcf223	0.43153486
192	0xbf1ee06b	-0.62061185
193	0xbe471241	-0.19440557
194	0xbec1fce4	-0.37888253
195	0x3ec9f7f0	0.39446974
196	0x3f25d16b	0.6477267
197	0x3eef742e	0.46768326
198	0xbe1ab087	-0.15106402
199	0xbef54ff8	-0.47912574
200	0xbeba5a31	-0.36396936
201	0x3deb4930	0.11488569
202	0x3e372712	0.17885998
203	0x3df0a2bb	0.117497884
204	0x3d13c232	0.03607387
205	0x3f0dd6b3	0.5540573
206	0xbec6eead	-0.3885397
207	0x3eccd5a2	0.4000674
208	0xbee6fe05	-0.45115677
209	0x3e526dff	0.20549773
210	0xbe526a28	-0.20548308
211	0xbe961db1	-0.29319528
212	0x3f386bf8	0.7203975
213	0x3e796bba	0.243575
214	0x3ee4ab86	0.44662112
215	0xbe4aea32	-0.19815901
216	0xbf0871d1	-0.5329867
217	0xbe83465f	-0.25639626
218	0x3ee5cd65	0.44883266
219	0x3eba68e6	0.36408156
220	0x3f155735	0.5833619
221	0x3e671bc2	0.22569183
222	0xbe289aa0	-0.16465235
223	0x3e9268a4	0.2859546
224	0xbe1dcf1a	-0.15411034
225	0xbe454fdd	-0.19268747
226	0xbee7d42e	-0.45279068
227	0x3e1cecd2	0.15324715
228	0x3f1b5144	0.60670877
229	0xbfa3b0cf	-1.2788333
230	0x3f45ecc7	0.7731442
231	0xbf18a344	-0.59624124
232	0x3f0009cd	0.50014955
233	0xbea7ddfc	-0.32786548
234	0x3e3c2cf6	0.18376526
235	0x3efd8459	0.49515036
236	0xbe900107	-0.28125784
237	0x3ecf5748	0.40496278
238	0x3eae3979	0.34028223
239	0xbae95618	-0.0017802147
240	0xbee6f4c5	-0.4510862
241	0x3da9478d	0.082656
242	0xbdee125c	-0.116245955
243	0x3ea78687	0.32719824
244	0xbd9ce74c	-0.07661304
245	0x3e8d6ed1	0.2762361
246	0xbeda0c67	-0.42587587
247	0x3d1df6b2	0.038565345
248	0x3dbf36a6	0.09336595
249	0xbeb481df	-0.35255334
250	0x3eb41946	0.35175532
251	0xbf255701	-0.6458588
252	0xbf798f5a	-0.9748436
253	0x3e99ef8e	0.30065578
254	0xbf6e4dc1	-0.93087393
255	0x3f05ee0c	0.52316356

VAE_Decoder.layers.1.linear0.bias f4 [128]
0	0xbd911e49	-0.070858546
1	0x3e03db33	0.12876587
2	0xbddbc890	-0.10731614
3	0x3cdd5461	0.027017774
4	0x3d931116	0.07180993
5	0x3e2f6014	0.17126495
6	0x3ebb20e1	0.36548522
7	0x3ed130b9	0.40857485
8	0xbf033405	-0.5125125
9	0xbea1e8cb	-0.3162292
10	0x3ebeea72	0.37288243
11	0x3e849814	0.25897276
12	0x3e14516c	0.14484185
13	0x3e351400	0.1768341
14	0xbe2cadb3	-0.16863136
15	0x3eaf3e48	0.34227204
16	0x3e8d21e8	0.2756493
17	0x3e4efb91	0.20213152
18	0x3e38e31c	0.18055385
19	0xbe952d0c	-0.2913593
20	0x3ed9896f	0.42487666
21	0x3d7681b5	0.060182292
22	0xbe30c465	-0.17262419
23	0x3e57e73f	0.21084307
24	0xbd9f9cc4	-0.077935725
25	0x3df55ddd	0.119807936
26	0xbefae924	-0.49005997
27	0x3eeaa22e	0.45826858
28	0x3ec4d44a	0.38443214
29	0xbce8a664	-0.028399654
30	0xbdc4d30a	-0.09610565
31	0xbeb65548	-0.3561194
32	0xbe8a675e	-0.27031988
33	0xbe22b6dd	-0.1589007
34	0xbded3daa	-0.11584027
35	0x3e857eee	0.26073402
36	0x3e3d78a8	0.18503058
37	0x3da80e29	0.08205826
38	0xbe8788c7	-0.2647154
39	0x3da24c2e	0.07924686
40	0xbd948bef	-0.07253253
41	0x3eb02480	0.34402847
42	0xbca1fe84	-0.019774683
43	0x3e8420fb	0.25806412
44	0xbe9ec423	-0.31009015
45	0xbe4dfe9b	-0.20116656
46	0xbdd103e3	-0.102058195
47	0xbe660950	-0.2246449
48	0x3e3aed6f	0.18254636
49	0xbe952d10	-0.29135942
50	0x3cdbfc66	0.026853751
51	0xbef73416	-0.48281926
52	0xbe84601d	-0.2585458
53	0x3e2b82a5	0.16749056
54	0x3e3fb179	0.18720044
55	0x3e27aa71	0.16373612
56	0x3d9da165	0.07696799
57	0x3d04fcd2	0.03246767
58	0xbc7069b0	-0.014673635
59	0xbeb7b870	-0.35882902
60	0xbeafcfae	-0.34338135
61	0xbe607662	-0.2192016
62	0x3f1136ce	0.5672425
63	0x3e4b1988	0.19833958
64	0x3ddad2c7	0.10684734
65	0x3df3221c	0.1187174
66	0xbdfc8464	-0.12329939
67	0x3d01502d	0.031570602
68	0xbe8978f2	-0.26850086
69	0xbdf6ee5c	-0.12057182
70	0x3f1e4f64	0.6183989
71	0x3e5c1282	0.21491435
72	0x3ea9a677	0.33134815
73	0xbe078981	-0.13236047
74	0x3d82ec6a	0.06392749
75	0x3ea48d59	0.3213909
76	0xbeeaf552	-0.4589029
77	0xbed1da17	-0.40986702
78	0x3eb2c16a	0.34913188
79	0xbe9ff2ce	-0.31239933
80	0xbdd2234d	-0.10260639
81	0x3cbb1ab2	0.022839878
82	0xbe776ec5	-0.24163349
83	0x3f2b353f	0.6687812
84	0x3e303a9a	0.17209855
85	0xbecdb104	-0.40174115
86	0x3dda449d	0.10657618
87	0x3f05140b	0.5198371
88	0xbf8713c5	-1.0552908
89	0xbf016e97	-0.5055937
90	0x3e667bec	0.2250821
91	0xbda80ee4	-0.08205965
92	0xbe237108	-0.15961087
93	0x3e5084a9	0.20363106
94	0xbdeb49d9	-0.11488695
95	0x3f048eda	0.51780474
96	0x3e565c8b	0.2093374
97	0x3e3cf358	0.18452203
98	0xbdd5d8a5	-0.10441712
99	0x3eb4d06d	0.35315266
100	0x3eac38f6	0.33637208
101	0xbe1c7203	-0.15277867
102	0x3e9f8f4d	0.31164017
103	0x3e83dc69	0.25754097
104	0xbe4900fc	-0.19629282
105	0xbe864a20	-0.26228428
106	0x3e1f101d	0.1553349
107	0x3e8a334b	0.26992258
108	0x3ea965bd	0.33085433
109	0x3ebf7180	0.3739128
110	0x3e289191	0.16461779
111	0x3edcf77f	0.43157575
112	0xbd2021c9	-0.03909472
113	0xbd4662ac	-0.048433945
114	0x3df80b60	0.121115446
115	0xbeb9b04d	-0.3626732
116	0x3e765c26	0.2405859
117	0xbeaedc1e	-0.3415231
118	0x3e850e49	0.2598746
119	0xbeb56c3c	-0.3543414
120	0x3ebf614c	0.3737892
121	0x3ef14033	0.47119293
122	0x3cab12b8	0.02088295
123	0x3ea6d80c	0.32586706
124	0xbedb27d0	-0.42803812
125	0xbd7a027e	-0.061037533
126	0xbedd7caf	-0.4325919
127	0xbe762e5d	-0.24041124

VAE_Decoder.layers.1.linear1.weight f4 [4, 128]
0	0x3da163a7	0.07880335
1	0x3eb16e22	0.34654337
2	0x3e0c4e55	0.13701756
3	0x3e39c923	0.18143134
4	0x3dfa2dac	0.122157425
5	0x3c8a0adf	0.016850887
6	0xbdad3158	-0.08456677
7	0xbde87439	-0.11350293
8	0xbc198b54	-0.009371597
9	0xbd5a0c3d	-0.053234328
10	0xbd4e540e	-0.05037313
11	0x3d97ba92	0.07408632
12	0xbd340915	-0.043953974
13	0xbcc19204	-0.023629196
14	0x3dbd3fbd	0.09240673
15	0xbe090305	-0.13380058
16	0x3d8b234c	0.06793842
17	0x3d8990d1	0.06717075
18	0xbf36bca5	-0.713816
19	0x3dac34d0	0.08408511
20	0xbd365cd6	-0.04452213
21	0x3c641ada	0.013922418
22	0xbd4dba25	-0.05022635
23	0x3d151852	0.036400147
24	0xbd9f15b6	-0.07767813
25	0x3ccdd2d9	0.025124954
26	0x3d6e2dc7	0.058149125
27	0x3ce288bb	0.027653089
28	0x3dde3ff9	0.108520456
29	0xbe6615cf	-0.22469257
30	0x3d95217b	0.072817765
31	0x3d322495	0.04349192
32	0x3d9a3e61	0.07531429
33	0x3e430c7b	0.1904773
34	0x3ae726a9	0.0017635423
35	0x3d93978e	0.07206641
36	0x3ea06289	0.31325176
37	0x3e29ddc4	0.16588503
38	0xbf0766c1	-0.52891165
39	0x3e85000e	0.25976604
40	0xbdd61380	-0.10452938
41	0x3d4ee4e7	0.050511267
42	0xbc54513e	-0.012958823
43	0xbcdf2958	-0.027241394
44	0x3dfe3c9f	0.12413906
45	0xbdb42fc7	-0.08798175
46	0xbee114c1	-0.43961146
47	0x3e9b1818	0.3029182
48	0xbe172d17	-0.14763294
49	0x3da3dbeb	0.080009304
50	0xbc987194	-0.018608846
51	0xbdb29982	-0.087206855
52	0x3c2f4329	0.010697165
53	0x3e364fc7	0.1780387
54	0xbe358c0c	-0.17729205
55	0xbd17bd7b	-0.037045937
56	0xbd08bfbc	-0.033385977
57	0x3e88df85	0.26733032
58	0xbd4afd90	-0.049558222
59	0xbccec77f	-0.025241612
60	0xbced7719	-0.028987454
61	0x3cccd990	0.025006086
62	0x3db708c2	0.08937217
63	0xbebeae86	-0.37242526
64	0xbe0e1001	-0.13873293
65	0x3dfa81eb	0.12231811
66	0xbd3fba50	-0.04680854
67	0x3df28884	0.118424445
68	0x3e198e2d	0.14995642
69	0x3c0588ae	0.008150263
70	0x3e29ecfb	0.16594307
71	0x3cd65e6e	0.026168074
72	0x3a21d1ad	0.0006172907
73	0x3aae42ae	0.0013295019
74	0xbdd9c386	-0.10632996
75	0xbdc62e04	-0.096767455
76	0x3e13747f	0.14399908
77	0x3e8e6f42	0.27819258
78	0x3cda3686	0.026637327
79	0xbdaf6c85	-0.0856562
80	0x3e089958	0.13339746
81	0x3dfe305c	0.124115676
82	0xbb251038	-0.002518667
83	0x3e530354	0.20606738
84	0xbce6e23e	-0.028184053
85	0x3d6dbfbb	0.058044177
86	0xbcc65747	-0.024211539
87	0xbe21f15f	-0.15814732
88	0xbf040b9c	-0.51580215
89	0x3e88ab3b	0.26693138
90	0x3d90e8ec	0.07075676
91	0xbf58d221	-0.8469563
92	0x3c113bb0	0.008864328
93	0xbe17e2ed	-0.14832659
94	0xbdb3ec31	-0.08785284
95	0x3d8d3685	0.068951644
96	0x3e19550f	0.14973854
97	0xbe3aab53	-0.18229418
98	0x3ef1bfa3	0.4721652
99	0x3e27f237	0.16400991
100	0x3dbd008c	0.0922862
101	0xbcbf1780	-0.023326635
102	0x3d4ed6bf	0.050497767
103	0x3da477f0	0.08030689
104	0xbea567f3	-0.3230587
105	0xbc32a774	-0.010904182
106	0xbd934071	-0.071900256
107	0xbe0cbb1a	-0.13743249
108	0xbf97da6e	-1.1863534
109	0x3d5188c0	0.051155806
110	0x39937053	0.00028121713
111	0x3ce15b39	0.027509319
112	0xbd079e66	-0.033110045
113	0xbd1ab019	-0.037765596
114	0x3ddc2c02	0.10750581
115	0xbd55ae0d	-0.05216794
116	0xbd989533	-0.074503325
117	0xbd012b74	-0.03153558
118	0x3eb416f0	0.3517375
119	0x3d5b73de	0.053577296
120	0x3dcea2f5	0.10089675
121	0x3dd6af01	0.10482598
122	0xbee53959	-0.44770315
123	0xbd4459f9	-0.047937367
124	0xbdb2dd41	-0.08733607
125	0xbe5bbb02	-0.21458057
126	0x3db242e1	0.087041624
127	0x3d1dee8e	0.03855758
128	0x3ce3d4ac	0.02781137
129	0xbbf7535b	-0.0075477785
130	0xbd094883	-0.03351642
131	0xbe20f539	-0.15718545
132	0xbd4db889	-0.050224815
133	0xbd23385f	-0.03984868
134	0x3a92e33b	0.0011206636
135	0xbaf3bd11	-0.0018595775
136	0xbd8bf3e6	-0.06833629
137	0x3dff6ad8	0.12471551
138	0x3ac9b1f1	0.0015388114
139	0xbd833d49	-0.064081736
140	0xbdc22096	-0.094788715
141	0xbc680b87	-0.014162905
142	0x3dd20ba8	0.102561295
143	0x3ca3c5dc	0.019991808
144	0x3da12b3a	0.07869573
145	0xbdb10b62	-0.08644749
146	0xbeb140dc	-0.34619796
147	0x3d29a0ab	0.04141299
148	0xbda983b4	-0.082770735
149	0xbdbc9cb2	-0.09209575
150	0x3c1befa0	0.00951758
151	0x3dd9e936	0.106401846
152	0x3df631ce	0.12021218
153	0x3e2e7299	0.17035903
154	0xbd84a7cf	-0.064773194
155	0xbd5e04cf	-0.054203805
156	0xbd839318	-0.0642454
157	0xbe4a4078	-0.19751155
158	0xbe038554	-0.1284383
159	0xbecb08e2	-0.39655215
160	0xbe80b86c	-0.25140703
161	0xbe633beb	-0.22190826
162	0x3e83d74d	0.257502
163	0xbd032ba1	-0.03202403
164	0xbe0628a4	-0.1310144
165	0xbe95f508	-0.29288507
166	0xbf5db9cd	-0.86611634
167	0xbbb9e466	-0.005672979
168	0x3e9e477d	0.30913916
169	0x3d9dfda4	0.07714394
170	0xbe65d166	-0.2244316
171	0x3d93b363	0.0721195
172	0xbe075ef5	-0.13219817
173	0x3e6408b8	0.22268951
174	0xbd99c002	-0.07507326
175	0xbf39db1a	-0.7259995
176	0x3da07f24	0.0783675
177	0xbe10f277	-0.14154993
178	0x3d17b405	0.037036914
179	0x3e04fd8f	0.1298735
180	0xbcc1e7cb	-0.023670098
181	0xbdbe104f	-0.09280454
182	0x3d04035f	0.032229777
183	0xbc83f7c1	-0.01610935
184	0x3e081e6d	0.13292857
185	0xbe1470f6	-0.14496216
186	0xbc3a496b	-0.011370043
187	0x3bec0f12	0.007203945
188	0x3e0f9152	0.14020279
189	0x3e09da15	0.13462098
190	0xbe0e09b1	-0.13870884
191	0x3f1abbe9	0.6044298
192	0x3e037318	0.12836874
193	0xbd958c56	-0.073021576
194	0xbe57463c	-0.21022886
195	0xbd0f307a	-0.03495834
196	0x3d8ebb2f	0.06969296
197	0x3d467191	0.04844815
198	0xbdbb0067	-0.09130936
199	0xbdf001a6	-0.117190644
200	0x3e3d7ddd	0.18505044
201	0xbd8f6680	-0.07001972
202	0x3dc21170	0.09475982
203	0x3e6975ff	0.22798918
204	0x3e1cc091	0.15307833
205	0xbf1bfe04	-0.6093447
206	0x3e47f4d1	0.19526984
207	0x3e9e973b	0.30974755
208	0xbcdd7096	-0.027031224
209	0xbd5d6954	-0.054055527
210	0xbc8aecd9	-0.01695864
211	0xbdbc69c4	-0.09199861
212	0xbd99d974	-0.07512179
213	0xbd5df0a3	-0.054184567
214	0xbe7a8b83	-0.24467282
215	0x3db15978	0.08659643
216	0x4032324f	2.7843206
217	0x3e06c33a	0.1316041
218	0xbcb855bf	-0.022501824
219	0xbed3c2c1	-0.41359523
220	0x3dccf0ec	0.1000689
221	0x3d446879	0.047951195
222	0xbdf64edb	-0.12026759
223	0xbdf2917e	-0.11844157
224	0xbde09429	-0.10965759
225	0x3d9993b9	0.07498879
226	0x3e5943e3	0.21217303
227	0xbdb76025	-0.08953885
228	0xbdc4ab50	-0.09602988
229	0xbde05df7	-0.10955422
230	0xbd16db36	-0.03683015
231	0x3e0755d7	0.13216339
232	0xbd2f412b	-0.04278676
233	0xbe31f8e3	-0.17380099
234	0x3e4dc2fe	0.20093915
235	0x3d410067	0.047119524
236	0xbf893f84	-1.0722508
237	0x3bf9d8dc	0.0076247286
238	0xbdf80d5e	-0.121119246
239	0x3cd600c6	0.026123416
240	0xbd895c8f	-0.06707107
241	0xbb71ab14	-0.0036875652
242	0xbe560dff	-0.20903777
243	0xbd131940	-0.035912752
244	0x3d43ecf5	0.0478334
245	0x3d2b7869	0.04186288
246	0xbdf2384d	-0.11827145
247	0x3e070400	0.1318512
248	0xbdf30a63	-0.118672155
249	0xbda5c205	-0.08093647
250	0x3f42d2f3	0.7610313
251	0xbdbc6f9b	-0.092009746
252	0x3e5384fd	0.206562
253	0xbbaf8a36	-0.005357052
254	0x3e16b6ab	0.1471812
255	0x3e241d3c	0.16026777

VAE_Decoder.layers.1.linear1.bias f4 [4]
0	0x3d22cea8	0.039747864
1	0xbd917683	-0.071026824
2	0xbd781839	-0.060569976
3	0xbd0439d1	-0.0322817

VAE_Decoder.layers.1.norm1.weight f4 [4]
0	0x3fc87a4c	1.5662322
1	0x3fe825d9	1.813655
2	0x3fb6d6bf	1.4284285
3	0x3fb32c34	1.3997865

VAE_Decoder.layers.1.norm1.bias f4 [4]
0	0x3da94537	0.08265155
1	0xbd375c20	-0.04476559
2	0x3debfe05	0.1152306
3	0xbce3aa2c	-0.027791105

VAE_Decoder.layers.1.norm0.weight f4 [4]
0	0x3f63bfb5	0.88964397
1	0x3f480c72	0.7814399
2	0x3f84a8e6	1.0364044
3	0x3f808cc3	1.0042957

VAE_Decoder.layers.1.norm0.bias f4 [4]
0	0xbc1f80d7	-0.009735308
1	0xbdcbeb35	-0.099569716
2	0xbc1b3692	-0.00947346
3	0x3d034b63	0.032054316

VAE_Decoder.last_normalization.weight f4 [4]
0	0x3f800000	1.0
1	0x3f800000	1.0
2	0x3f800000	1.0
3	0x3f800000	1.0

VAE_Decoder.last_normalization.bias f4 [4]
0	0x00000000	0.0
1	0x00000000	0.0
2	0x00000000	0.0
3	0x00000000	0.0

VAE_Decoder.head.weight f4 [4, 4]
0	0xbec22e26	-0.37925833
1	0xbe89bee0	-0.2690344
2	0xbc7568c0	-0.014978588
3	0x3ebc5f7c	0.367916
4	0x3da18520	0.0788672
5	0x3ee2bc8a	0.4428447
6	0x3dc4ecb8	0.09615463
7	0xbe8b6a3e	-0.27229494
8	0x3efe7064	0.49695122
9	0xbe5f6440	-0.21815586
10	0x3de70f30	0.11282194
11	0x3e2f673c	0.17129225
12	0xbd592b20	-0.053019643
13	0x3ebe6148	0.37183595
14	0x3ed8aa32	0.4231735
15	0xbd2f3aa0	-0.04278052

VAE_Decoder.head.bias f4 [4]
0	0xbed43a08	-0.41450524
1	0xbdde5398	-0.10855788
2	0xbeb51aba	-0.35371953
3	0xbeb9036c	-0.36135423

Detokenizer.weight f4 [6, 4]
0	0xbbdd5bf2	-0.0067553455
1	0xbcb1c055	-0.021698156
2	0xbdc318ba	-0.095262006
3	0xbe079039	-0.1323861
4	0x3dc5bcab	0.09655126
5	0x3deded08	0.11617476
6	0x3c530004	0.012878422
7	0x3e6e0a5e	0.23246142
8	0x3ee251b1	0.4420295
9	0xbea52a66	-0.3225891
10	0xbed926d9	-0.4241245
11	0x3e52226a	0.2052094
12	0xbed3835b	-0.41311154
13	0xbc556160	-0.013023704
14	0xbe8618f9	-0.26190928
15	0xbec060e4	-0.37573922
16	0xbcb9d686	-0.0226853
17	0xbec1f047	-0.3787863
18	0xbe828a0b	-0.25495943
19	0xbe9fdd64	-0.31223595
20	0xbd4019e9	-0.04689971
21	0xbcbdeca0	-0.02318412
22	0x3dd3f825	0.10350064
23	0x3e9b5fa9	0.3034642

Detokenizer.cat_recons.0.weight f4 [2, 4]
0	0x3f184479	0.5947948
1	0xbf2c7733	-0.67369384
2	0xbe5e394d	-0.21701546
3	0xbe11d617	-0.14241825
4	0xbc61b08e	-0.013775004
5	0xbebdd3e2	-0.37075716
6	0x3eacb9f3	0.33735618
7	0x3f1c9f86	0.61180913

Detokenizer.cat_recons.0.bias f4 [2]
0	0x3e8b1879	0.2716711
1	0xbeb301b4	-0.34962237

Detokenizer.cat_recons.1.weight f4 [9, 4]
0	0xbe2252f4	-0.15851957
1	0xbf8c478a	-1.0959332
2	0xbf1aad1a	-0.6042038
3	0xbeaffde1	-0.34373382
4	0xbf016b20	-0.50554085
5	0xbe1acbfe	-0.1511688
6	0xbf128d3d	-0.5724676
7	0xbda3f1ef	-0.080051295
8	0x3dc289e9	0.094989605
9	0x3e011e99	0.12609328
10	0x3f4fc0e9	0.8115373
11	0x3c4e2a28	0.012583293
12	0xbe3693e3	-0.17829852
13	0x3ec35f2b	0.38158545
14	0x3e8d02b1	0.27541116
15	0xbe683129	-0.22675003
16	0x3ed9c44a	0.4253257
17	0x3f1d8dce	0.615445
18	0x3e11457e	0.14186665
19	0x3e832a86	0.2561838
20	0xbef30634	-0.4746567
21	0xbdb6dda2	-0.08928992
22	0x3f0b3f5d	0.5439356
23	0x3e460158	0.1933645
24	0x3f40c1d2	0.75295746
25	0xbe4e01ab	-0.20117824
26	0xbf71b380	-0.9441452
27	0x3e7854ae	0.24251053
28	0x3ec79053	0.38977298
29	0xbe73b4a2	-0.23799375
30	0xbd0c12e9	-0.03419772
31	0xbf75dbc0	-0.96038437
32	0xbf0e0f3c	-0.55491996
33	0xbf336f59	-0.7009178
34	0x3ea91724	0.33025467
35	0xbe8753ed	-0.26431218

Detokenizer.cat_recons.1.bias f4 [9]
0	0x3f2a394a	0.66493666
1	0x3ed264e9	0.41092613
2	0xbe881f74	-0.26586497
3	0xbed2fd8a	-0.4120906
4	0x3df58a5e	0.11989282
5	0xbe00592b	-0.12534015
6	0xbe600591	-0.21877123
7	0x3e909e2f	0.28245685
8	0xbe13ada7	-0.14421712

Detokenizer.cat_recons.2.weight f4 [16, 4]
0	0xbde5f668	-0.11228639
1	0x3eb8c6ca	0.36089164
2	0xbf90b56b	-1.1305364
3	0x3e39b4a5	0.18135317
4	0xbef669a9	-0.48127487
5	0xbf4975b6	-0.7869524
6	0xbe9b3abe	-0.30318254
7	0xbfc2411c	-1.517612
8	0xbf7bc969	-0.983542
9	0x3f298702	0.6622163
10	0x3ed091cf	0.40736243
11	0xbea08a0c	-0.3135532
12	0xbfb38802	-1.4025881
13	0xbe88a9dd	-0.26692095
14	0xbeee85a8	-0.46586347
15	0xbe93c9e9	-0.28864983
16	0x3e953b42	0.29146773
17	0xbf3fa9b7	-0.7486834
18	0xbf15df30	-0.5854368
19	0x3eb2a7f5	0.34893766
20	0x3eda563c	0.42643917
21	0xbe2aa932	-0.16666105
22	0x3f0cfdad	0.5507458
23	0x3e1d3e5f	0.15355824
24	0xbf69feaa	-0.9140421
25	0x3f58f6ff	0.84751886
26	0xbeb1fdc3	-0.34763917
27	0xbebcc841	-0.36871532
28	0x3edc04fd	0.42972556
29	0x3db9582c	0.090500206
30	0x3e4abb46	0.19798002
31	0xbfa650bc	-1.2993388
32	0x3f9680d6	1.1758068
33	0x3f7e5381	0.99346167
34	0xbec068f2	-0.37580067
35	0x3f078fc9	0.52953774
36	0x3ebb873d	0.36626616
37	0x3f8ecffe	1.1157224
38	0x3f041a6a	0.51602805
39	0x3ed04984	0.40681088
40	0xbefcd025	-0.49377552
41	0xbf4b6073	-0.79444045
42	0x3d92d3a7	0.07169276
43	0xbd1b96b8	-0.037985533
44	0xbf05628e	-0.5210351
45	0xbd606b9b	-0.05479012
46	0x3ee8a310	0.45436907
47	0x3f064888	0.52454424
48	0x3f8ee54f	1.116373
49	0x3f3ca99a	0.7369629
50	0x3ed07389	0.40713146
51	0xbe20beaa	-0.15697733
52	0xbdbff99e	-0.093737826
53	0x3d433ea9	0.04766718
54	0xbeae78ea	-0.34076625
55	0x3f78a371	0.9712439
56	0x3f68c4a5	0.90925056
57	0xbf3fcaaa	-0.74918616
58	0xbda868e0	-0.08223128
59	0xbd2eecfd	-0.04270648
60	0x3d4674f0	0.048451364
61	0xbebcd854	-0.36883795
62	0xbf93e741	-1.1554948
63	0xbf85f473	-1.0465225

Detokenizer.cat_recons.2.bias f4 [16]
0	0x3e702ea3	0.2345529
1	0xbec0e53e	-0.37674898
2	0xbf46a834	-0.7760041
3	0x3e02c4a6	0.12770328
4	0x3f131590	0.57454777
5	0xbf3e1121	-0.74244887
6	0x3ee8d336	0.4547364
7	0xbf4e419f	-0.8056888
8	0xbf65d3f3	-0.89776534
9	0xbe5b1deb	-0.21398132
10	0x3e7557d0	0.23959279
11	0x3de2481d	0.11048911
12	0x3dd0bf5a	0.101927474
13	0xbe9cd172	-0.30628544
14	0x3e23c50f	0.1599314
15	0x3e8f5d05	0.28000656

Detokenizer.cat_recons.3.weight f4 [7, 4]
0	0x3e8c91cd	0.27454987
1	0xbf198aa9	-0.59977204
2	0xbec5f10b	-0.38660464
3	0xbf587ea2	-0.84568226
4	0xbf696908	-0.9117589
5	0x3e3b776a	0.18307272
6	0x3e903309	0.28163937
7	0xbd953b3c	-0.07286689
8	0x3ef90c8c	0.48642385
9	0x3f25b12e	0.6472348
10	0xbeb133ce	-0.34609836
11	0x3dfedf4e	0.12444936
12	0x3e11aebc	0.14226812
13	0xbe89447d	-0.26810065
14	0x3e993295	0.29921404
15	0x3eb91169	0.36146095
16	0xbe280c9c	-0.1641106
17	0x3f3668cc	0.7125366
18	0x3f28743a	0.6580235
19	0x3ea19d4d	0.31565323
20	0xbf8474a6	-1.0348098
21	0xbe9f795c	-0.31147277
22	0xbec82443	-0.39090165
23	0xbf16f0ac	-0.58960986
24	0x3ccd189e	0.025036152
25	0x3ebeec18	0.372895
26	0x3f22a64a	0.63534987
27	0xbef28fd6	-0.47375363

Detokenizer.cat_recons.3.bias f4 [7]
0	0xbf08fb3e	-0.53508365
1	0x3e9ae0ee	0.30249733
2	0x3f21efa2	0.63256276
3	0xbf10d5df	-0.5657634
4	0xbe7e2063	-0.24817042
5	0x3e431b65	0.19053419
6	0xbe877bef	-0.2646174

Detokenizer.cat_recons.4.weight f4 [15, 4]
0	0x3f947dc3	1.160088
1	0x3f2e2fbe	0.680416
2	0x3f285323	0.65751857
3	0x3ee1c4fd	0.44095603
4	0xbe935470	-0.28775358
5	0x3f8918a3	1.0710644
6	0xbd226ef8	-0.03965661
7	0x3d5c78b8	0.053826064
8	0xbeee6ee7	-0.46568987
9	0xbf00d4b6	-0.5032457
10	0xbf136c29	-0.57586914
11	0x3f4c98d6	0.7992071
12	0x3f47037d	0.777397
13	0x3ed4e0ef	0.4157786
14	0xbf89a65d	-1.0753895
15	0xbefe8a89	-0.4971507
16	0x3e5b0a4d	0.21390648
17	0xbe96c916	-0.2945029
18	0xbdbe39cd	-0.092883684
19	0xbf8c1a3a	-1.0945504
20	0xbfdc84c3	-1.7228016
21	0xbf45cf90	-0.7726984
22	0xbec9ab15	-0.39388338
23	0x3e725a88	0.23667347
24	0xbe95d3f5	-0.29263273
25	0x3ebedab4	0.37276232
26	0x3f9b871f	1.2150611
27	0x3d7227a6	0.059119843
28	0xbf03a539	-0.51423985
29	0x3f09061a	0.53524935
30	0x3f3866d9	0.72031933
31	0x3f2bba9a	0.67081606
32	0xbf253e99	-0.6454864
33	0xbf306672	-0.6890632
34	0xbf2f0263	-0.68363017
35	0xbf6eda53	-0.93301886
36	0xbf7bc4f3	-0.98347396
37	0x3f0edec2	0.5580865
38	0xbf356c5b	-0.7086846
39	0x3e577690	0.21041322
40	0xbf1d5411	-0.614564
41	0xbf399e7b	-0.72507447
42	0x3f0105f1	0.5039969
43	0x3f719ec7	0.943829
44	0x3d8b59a4	0.06804207
45	0xbf5b8ac5	-0.8575862
46	0x3ec10774	0.37701
47	0xbad86d5c	-0.0016512084
48	0x3f7cdfcd	0.9877899
49	0x3f170542	0.589924
50	0xbe54bd27	-0.20775281
51	0x3f805bd5	1.0028025
52	0xbfa88003	-1.3164066
53	0xbea62c20	-0.3245554
54	0x3de9165a	0.11381216
55	0x3f4d3395	0.8015683
56	0x3f789267	0.9709839
57	0x3f94346f	1.1578501
58	0x3e7aef54	0.24505359
59	0xbf807d83	-1.0038303

Detokenizer.cat_recons.4.bias f4 [15]
0	0xbf025f3f	-0.50926584
1	0xbdb51856	-0.08842532
2	0xbe9a4de8	-0.30137563
3	0x3f2f7739	0.68541294
4	0xbdde92b6	-0.10867827
5	0x3ccad5eb	0.024760207
6	0xbf41a500	-0.75642395
7	0xbf19f8ca	-0.60145247
8	0x3d51db3c	0.05123447
9	0x3f05162a	0.51986945
10	0xbeb5929a	-0.3546341
11	0x3eab1b20	0.33419132
12	0x3e7a522a	0.24445406
13	0xbe49e1ff	-0.19715117
14	0xbf282078	-0.65674543

Detokenizer.cat_recons.5.weight f4 [6, 4]
0	0xbd72bc13	-0.059261393
1	0x3f2e10ff	0.67994684
2	0x3ee637dd	0.44964495
3	0x3f2c8cea	0.6740252
4	0xbdcdaed2	-0.1004311
5	0xbf8210e6	-1.0161407
6	0x3dab70b5	0.083711065
7	0x3e92a1d6	0.28639096
8	0xbef5fece	-0.48045963
9	0x3ece0c5a	0.40243798
10	0xbea64c00	-0.32479858
11	0xbeae6dd8	-0.3406818
12	0x3f6a7577	0.9158549
13	0x3f21e57e	0.632408
14	0x3f5832e5	0.8445266
15	0x3f426424	0.7593405
16	0x3f9b211f	1.2119483
17	0x3f0b3a0e	0.5438546
18	0xbf117610	-0.56820774
19	0x3ebba26b	0.36647353
20	0x3e09c262	0.13453057
21	0x3dfbaa51	0.12288345
22	0x3ef159a6	0.4713871
23	0xbee46664	-0.44609368

Detokenizer.cat_recons.5.bias f4 [6]
0	0x3ef85be2	0.485076
1	0x3f278877	0.65442604
2	0xbeb4c114	-0.35303557
3	0xbf0436f0	-0.5164633
4	0xbe879a46	-0.2648489
5	0x3d3c2c56	0.04594072

Detokenizer.cat_recons.6.weight f4 [5, 4]
0	0xbba326ff	-0.004979014
1	0x3ee45554	0.4459635
2	0xbe7571e4	-0.23969227
3	0xbe46a38f	-0.1939833
4	0x3e23dbaa	0.16001764
5	0x3e66398f	0.22482894
6	0x3f00cd0e	0.5031289
7	0x3ec693e6	0.38784713
8	0x3cd2fc6a	0.025755126
9	0xbf4d850b	-0.8028113
10	0x3e0d827f	0.13819312
11	0xbebdc86c	-0.37066972
12	0x3eda96ab	0.42693076
13	0x3f3e2c84	0.74286675
14	0x3ee6a233	0.45045623
15	0xbd411157	-0.047135677
16	0x3f2db39f	0.67852205
17	0xbe8ff044	-0.28112996
18	0x3f2c34b1	0.672679
19	0xbd19de81	-0.037565712

Detokenizer.cat_recons.6.bias f4 [5]
0	0x3d048ac8	0.032358915
1	0x3ea45297	0.3209426
2	0xbd9e7ef1	-0.07739056
3	0xbeae8927	-0.34089014
4	0xbe668a63	-0.22513728

Detokenizer.cat_recons.7.weight f4 [2, 4]
0	0xbea3db88	-0.32003427
1	0xbe9603ff	-0.29299924
2	0xbea48552	-0.32132965
3	0xbf0d2a4e	-0.55142677
4	0xbebdd753	-0.37078342
5	0xbb9650b2	-0.0045872563
6	0x3f4e0dc6	0.80489767
7	0x3f09bf66	0.53807676

Detokenizer.cat_recons.7.bias f4 [2]
0	0x3c7405eb	0.014893989
1	0x3d53e7d7	0.05173477
