tabsyn/vae/ckpt/adult/encoder.pt (torch, 23423 bytes, 33 tensors)

Tokenizer.weight f4 [7, 4]
00000000: 4526 b3be d694 31be d864 89be 9738 153b
00000010: 51df 083e 9ddf 253e e554 43be 1d66 36be
00000020: 21ad 9dbd 4b7b aebd ec35 4abd dbf6 903d
00000030: 1865 8ebe e95c 203a 1c6d 7dbe 327a 65be
00000040: 6cc8 7fbd edaa ca3d 0978 333d d71c bcbe
00000050: d75e 83bd 4047 f9bd 88ab 38be 57ac 54be
00000060: a2ad 363e 8476 3e3e c456 563e ba30 dc3e
-0.34990135 -0.17341933 -0.2683475 0.0022769326 0.13366438 0.16198583 -0.19075353 -0.1781239
-0.07699037 -0.0851961 -0.04936783 0.07078334 -0.27811503 0.00061173603 -0.24748653 -0.22409895
-0.062446997 0.09895883 0.043815646 -0.36740753 -0.06414574 -0.12171793 -0.18034184 -0.20768867
0.17839673 0.18599898 0.20931536 0.43005925

Tokenizer.bias f4 [15, 4]
00000000: 4b14 043f 2441 a6be 703c dd3e 9093 28bf
00000010: 4b5e e1be bdd0 de3c 1132 74bb c9de 95be
00000020: 3378 b53e 8c9a d0be 4d39 803e e104 ea3e
00000030: 07f6 71be c8fd c43e 3353 b7bd 9f2b e7be
00000040: 5546 f23e 0294 babe aa4d c03e 6cb8 8abe
00000050: cd5a 98be 6539 d53e 2d37 ff3e 5f66 9c3e
00000060: 5ed6 a6be e211 84be 5894 f33e 28bc 08bf
00000070: 5505 69be e6b1 b0ba eaa1 5abe 2157 dd3d
00000080: 1df9 cd3d 7dd5 53be 9add cf3d 6441 b43d
00000090: cf44 8e3e a1b1 98bd edc6 b8be cdc9 8a3e
000000a0: 6a70 70be 1071 8ebe b481 263e 6ad8 50bd
000000b0: fc7c a23e e848 0a3e 9eaa c33e 060f 27be
000000c0: 25e5 9fbe 1911 20be deef 883e 52d5 aebe
000000d0: 6f0f 3e3e a739 bf3e f6bb f03e 37a3 4fbe
000000e0: 8648 4fba c366 bf3d 05a1 013d 4467 5dbb
0.51593465 -0.32471573 0.43210173 -0.6585016 -0.44017252 0.027199144 -0.0037261287 -0.29271534
0.35443267 -0.4074291 0.25043717 0.45706847 -0.23629008 0.3847487 -0.08951416 -0.45150468
0.47319284 -0.36441046 0.37559253 -0.27093828 -0.29756775 0.4164535 0.49846783 0.30546853
-0.32585424 -0.25794894 0.47574115 -0.53412104 -0.2275594 -0.0013480752 -0.21350828 0.10807634
0.1005728 -0.20686908 0.10149689 0.08801535 0.27786872 -0.07455755 -0.36089268 0.27107087
-0.23480383 -0.27820635 0.16260415 -0.05098764 0.3173598 0.13504374 0.38216108 -0.16314325
-0.3122951 -0.15631522 0.26745504 -0.34147125 0.18560575 0.37348673 0.47018403 -0.20277105
-0.000790723 0.09345772 0.0316477 -0.0033783475

Tokenizer.category_embeddings.weight f4 [104, 4]
00000000: 61c5 66bd 0e3b 04bd 908d 16be d46a f3bd
00000010: b1a8 c1bd 9fbb aebe f5c4 a2be 3c3c 053f
00000020: 4202 833e e04c 263e 9c98 ab3e 0044 e6be
00000030: 26ca 23bd 7aef 0f3e aaff ddbe 4ba6 5dbf
00000040: 4a47 193d e444 e9be ef22 fb3e 1d77 d8be
00000050: a2d4 a63d 202f 943f 34c7 f83d c133 36be
00000060: 523e a3be d227 3fbe e19b 0a3d e5c9 103f
00000070: 61e4 54bd 351f 563e b95e dab9 78b4 c13b
00000080: adc8 e93e 43c1 903d 826e 5dbe a9cb 55bb
00000090: dfe8 3c3f 7b6b 80be 63b2 a73e f830 13be
000000a0: af19 32be 4367 d53e c43b da3d 96d0 d5be
000000b0: 0f22 1cbf bd25 7f3d 0917 6ebe 1ade b0be
000000c0: 4215 f2be bc4d 8b3e 9621 133d fc0e 88bf
000000d0: fc98 56bf f98a 09bf beb4 133d 150d 0cbd
000000e0: 0d7f 19bf f4ee 3c3e 3011 b9be 8611 14bf
000000f0: 6c3a 77be 1ff2 a6be f0ec f2be daa0 2cbd
00000100: 2b94 4fbe 5ad7 20bf 9f3c 893e 743c 07bd
00000110: 0c97 77bf edb4 093f 76f2 2d3f ea3a 913d
00000120: 5137 ff3d bccc 013e ca7a 233e bb4b 4cbf
00000130: 581f 99be f53c 103e 4dd2 213c f6cd 023e
00000140: fdf0 b1be c498 c63e 6896 8cbe 3580 723f
00000150: 175e 28be 11d0 073f e146 8dbc f533 8bbe
00000160: 1b2d bebe 5297 a3be e1dd 9d3e 91f7 6d3e
00000170: 19d4 323e c13d bfbd 8a73 9f3e 21d1 8c3e
00000180: d0bf 34be af61 bebe 14db 99be a816 be3e
00000190: 29dd 113e cb2d 0fbe b66a 3ebe f936 543e
000001a0: d823 8b3e 9ae5 f93c 5469 e3be f213 e2be
000001b0: 6a04 9e3e 1958 9abd f5dc a93e 96cb 25bf
000001c0: 4d0d 87be dca1 483f cf41 dd3e a38b 94be
000001d0: 1550 af3e 99a9 fdbe a6d3 19be c6e6 8c3d
000001e0: bd4c febc 5b7e bfbe 0ca9 c13e 4c54 ad3e
000001f0: ec61 bdbe 4cca 253e f97d e037 e9e9 d03e
00000200: a19b a2bd 5997 2d3f e799 b93e 0a22 0cbf
00000210: 60c0 34be 862c 33be 4b3d 3f3f 7ce1 14bf
00000220: 197e 9c3e 552a c0be 4bdc c73d 2ab8 693e
00000230: fea7 35bf dcd7 843e abeb abbe e89c bf3e
00000240: fa64 98bc 9d91 1a3e 68e9 10bd 4b40 53bd
00000250: 69bd 233f bad4 2c3e 293a b1be e23b 1b3e
00000260: 382d 8ebd 03ea 413e dd35 793d 11b9 62bf
00000270: 2260 5cbe 1814 a83e fb53 b4be e5b8 cdbe
00000280: 2d3f bd3e 0934 aebe d4f7 0d3f 0184 0e3e
00000290: 16cd 49bd b3cf bbbd 3296 9d3e 186f 4b3f
000002a0: a7b9 cebd c014 9c3e db7f 6ebe 4f4f 2fbf
000002b0: e598 40bf ee3c c73e db56 2f3e 9ded 47be
000002c0: eed4 1dbe 05db 47be 106a 5c3e e501 093d
000002d0: 7c31 80bf 947b a43d ba26 ad3e 087f f3be
000002e0: ec79 8c3e c958 673e 765f 92be a886 1b3f
000002f0: b551 c0be b705 a2be 0121 883e 59ac 463e
00000300: 27d6 f73e 0763 96be 877d 80be 5a68 96be
00000310: 0a32 b5be a741 86be e42a 0d3e fb0f 0e3f
00000320: 092e 9fbd 16bd 213e ae75 67be e143 733d
00000330: baf8 113e 395a 3c3f f3f6 b1be 7d8d f13c
00000340: d0a9 673d 3da7 0bbe 1305 3b3e 0ec8 383e
00000350: 466d 263f ca8e 1dbf 83d0 54bf 54cd d03e
00000360: 5405 f8bb 4503 993d 7d4d 9b3e c2c3 3cbf
00000370: b164 98bd 771a d03e 1467 2cbd 29ab 503e
00000380: 06bd 113c c480 9dbe b150 073e 48ca 113f
00000390: bfc1 3cbe 9096 a9bd d29a c8be 1145 c6be
000003a0: 0aa0 c5be 6543 cfbc ca95 c93c dcbd 783f
000003b0: 7da2 7f3c 701a c0bd 71f5 3d3e fb4c 97bd
000003c0: 1e0d 09bc ca61 1ebe 76ea b53c 39d8 8cbe
000003d0: f673 d5bd f24f 8bbe 9965 b33e 1ddd d23e
000003e0: 22e6 eabe e1c3 fcbd 4b48 f5be 07df 733e
000003f0: 9b2a 9ebe d687 873f 2c0f 8fbe acd6 0dbf
-0.05634058 -0.03228288 -0.1470244 -0.1188561 -0.094560035 -0.3412752 -0.3179089 0.52045035
0.2558766 0.16240263 0.3351487 -0.44973755 -0.039987706 0.14056197 -0.4335912 -0.8658187
0.037421502 -0.45560372 0.4905009 -0.42278376 0.08146025 1.1576881 0.1214737 -0.1779318
-0.31883484 -0.18667534 0.033840064 0.56558067 -0.05197561 0.20910342 -0.00041650774 0.005911406
0.45660916 0.07068112 -0.21624187 -0.0032622612 0.73792833 -0.25082 0.32753286 -0.14374149
-0.1739261 0.41680345 0.10655931 -0.417607 -0.6098947 0.06229185 -0.23250975 -0.3454445
-0.47281843 0.27207744 0.035920702 -1.0629573 -0.83827186 -0.5372768 0.03606104 -0.034192163
-0.5995949 0.18450528 -0.36145926 -0.5783924 -0.2414338 -0.326066 -0.47446394 -0.042145588
-0.20271365 -0.628286 0.26804063 -0.033016637 -0.96714854 0.53791696 0.6794809 0.07091315
0.12461723 0.12675756 0.15964809 -0.79803056 -0.29906726 0.14085753 0.0098768 0.1277388
-0.34754172 0.38788426 -0.274585 0.9472688 -0.16442142 0.5305186 -0.017245712 -0.27188078
-0.37143788 -0.31951386 0.30833343 0.2323897 0.17463721 -0.093379505 0.31142837 0.27503303
-0.17651296 -0.37183902 -0.30049956 0.3712666 0.14244522 -0.13982312 -0.18595394 0.20724095
0.27175784 0.03050499 -0.44416296 -0.44155842 0.30862743 -0.075363345 0.3317639 -0.6476377
-0.26377335 0.7837198 0.4321427 -0.29012784 0.34240785 -0.49543455 -0.15022144 0.06879954
-0.031042451 -0.3740109 0.37824285 0.33853376 -0.3698877 0.16190451 2.6761541e-05 0.4080346
-0.0793984 0.67809063 0.3625023 -0.5473944 -0.1765151 -0.17497453 0.747029 -0.5815656
0.30564955 -0.37532297 0.097588144 0.2282416 -0.7095946 0.25945938 -0.33578238 0.37424397
-0.018602837 0.1509461 -0.035378844 -0.051574986 0.6396089 0.16878024 -0.34614685 0.15159562
-0.069422185 0.18936925 0.060842384 -0.8856364 -0.21521047 0.3282783 -0.35220322 -0.40180126
0.36962262 -0.34024075 0.5545628 0.13917543 -0.04926785 -0.09170475 0.30778652 0.7946639
-0.10094004 0.3048458 -0.2329096 -0.6848039 -0.752333 0.38913673 0.17122976 -0.19524236
-0.15413257 -0.19517143 0.21524835 0.033449072 -1.0015101 0.08031383 0.3381861 -0.47557855
0.2743677 0.22592463 -0.28588456 0.60752344 -0.37562338 -0.31644985 0.2658768 0.19401683
0.48405573 -0.29372427 -0.2509577 -0.2937649 -0.3538974 -0.26221964 0.13785893 0.55493134
-0.077724524 0.15794787 -0.22603485 0.059390906 0.14255038 0.7357517 -0.3475872 0.029486412
0.05655843 -0.13638015 0.18263654 0.18045065 0.6501049 -0.61546004 -0.83130664 0.40781653
-0.0075689945 0.07471327 0.30332556 -0.737362 -0.0744108 0.4064519 -0.04209049 0.20377792
0.008895164 -0.30762303 0.13214375 0.5694928 -0.18433283 -0.08280671 -0.3918062 -0.38724568
-0.38598663 -0.02530069 0.024607558 0.971647 0.015602705 -0.093800426 0.1855066 -0.0738773
-0.008364944 -0.15466991 0.022206526 -0.27508715 -0.104225084 -0.2720943 0.3503845 0.4118432
-0.45878702 -0.123420484 -0.47906718 0.23815547 -0.3089188 1.0588329 -0.27941263 -0.5540569

VAE_Encoder.layers.0.attention.W_q.weight f4 [4, 4]
00000000: 98f6 13bf c93d 3f3e 9468 00bf bc8a 07bf
00000010: 6a6a 003f 37a8 e33e 679e ab3e 81ec 84be
00000020: 2ad5 03bf 9f20 893e 1dc7 7d3e e8f1 10bf
00000030: 980f 8cbe c2ea 9fbe baf7 c7bd f68a 86be
-0.5779815 0.18675913 -0.50159574 -0.52946067 0.50162375 0.44464275 0.3351929 -0.25961688
-0.5149714 0.267827 0.24782987 -0.5661912 -0.27355647 -0.31233793 -0.09764047 -0.26277894

VAE_Encoder.layers.0.attention.W_q.bias f4 [4]
00000000: c03a 803e 1c5a 073e edfe ac3a f661 a33d
0.25044823 0.13217968 0.0013198532 0.07977669

VAE_Encoder.layers.0.attention.W_k.weight f4 [4, 4]
00000000: c091 1b3d 171c fbbe 9129 e43e 0764 ac3d
00000010: b55d c93e cf32 e93e 412d bc3e ecb6 ffbe
00000020: 2515 f03e 5394 c53e 5391 093f bd39 0a3e
00000030: df9b d2bd 0265 733e 465e 843d 9ffc 94be
0.037980795 -0.49044868 0.44562963 0.08417516 0.39329305 0.45546576 0.36753276 -0.49944246
0.46891132 0.38589725 0.5373737 0.13498588 -0.10283636 0.23769 0.06463294 -0.29098985

VAE_Encoder.layers.0.attention.W_k.bias f4 [4]
00000000: 82ec c8b7 285e 0a3a d523 88b8 af5a 0d36
-2.395199e-05 0.00052783126 -6.4916596e-05 2.1063422e-06

VAE_Encoder.layers.0.attention.W_v.weight f4 [4, 4]
00000000: eb95 13bd 3bd9 843d 8dd3 44bd c308 f8bc
00000010: 5a71 ce3c 78ef 0dbc 433a 443c db8b 4abd
00000020: 248b 81bc 9629 e53c 4caa b6bb 3c03 1cbd
00000030: 5ec1 0bbd 2193 9f3d d8b8 84bd 7933 74bc
-0.036031645 0.06486746 -0.048053313 -0.030277615 0.025200535 -0.008663051 0.011976781 -0.049449783
-0.015813418 0.027973931 -0.0055745 -0.038089022 -0.034119956 0.077917345 -0.06480569 -0.01490485

VAE_Encoder.layers.0.attention.W_v.bias f4 [4]
00000000: ce8d 69bc c24d 2e3c f179 653d 42f7 b9bc
-0.014255 0.010638656 0.056024496 -0.02270091

VAE_Encoder.layers.0.linear0.weight f4 [128, 4]
00000000: 4b29 3bbe 44e2 0cbe 9442 77be 3787 dc3e
00000010: 2f99 bbbe 1a1f c3be df44 903c e62b a93e
00000020: 7887 013f 38fb 923e 6de2 d83e 673f 753e
00000030: fc94 96bb e5be ec3d a27c b63e e436 63be
00000040: e5eb 04bf 417e 31be c6fc 283d be23 edbe
00000050: fd64 81be ab36 d23e ced3 b13e 0460 e6be
00000060: 496b fd3e d2bd 053e 7c36 c1be 6666 ae3e
00000070: 15ab 39be 0a63 27be 1175 56be 0a7f ea3e
00000080: c8f2 ddbe 2f8a 2cbe 6889 3e3e 8345 623e
00000090: de31 a2be f0b0 2dbd ba05 ee3e 66a3 a1be
000000a0: 583a a8be b4cb 1f3f 0ed7 22bf 6e38 8dbd
000000b0: 8d4e 663e a6f3 0bbe 15e8 a9be 3f1f 083e
000000c0: eaa7 d1bd 6297 8cbc 1865 9ebe 7049 06bf
000000d0: 8067 0cbe 1bdd d9be 9475 c33a 0db4 af3e
000000e0: 1b3c 01be e8f2 e23e e6bc 02bf 8926 893e
000000f0: ab24 de3d b58e 5c3e abc5 ca3e 875d 9fbe
00000100: 2a09 b1be 00af 48be 20cd b0be b281 9ebe
00000110: ffe0 6d3d 9f4d c53e 2f92 9e3e 5f4b 83bd
00000120: eab8 b7be 9a36 023f 855a 753e 1b04 0ebe
00000130: e6ee 993e cffc 8c3e 2556 00be 3a84 96be
00000140: 7544 eebe e8e6 cdbe ae50 95be f65f cd3e
00000150: cd57 b63e 18ba ccbe e672 debe 6219 8abd
00000160: ace3 43bc 6858 cb3e c805 093e 3171 e8be
00000170: 5f30 04bf a7dd b83e 6476 443e e1bd af3e
00000180: 36c3 3abe ee8f a9be 81ff 823d 4392 0abe
00000190: fca8 bdbe 9a40 fe3e 2fc6 1c3e cb2c 98be
000001a0: 4280 e2be e9d8 243e 8ff1 fc3e 10bc 873e
000001b0: 9309 f5be f6c2 bd3e 22e3 1abe 33ac 303e
000001c0: 62a3 9bbe 4c9b d8be 042d af3c ab24 01be
000001d0: 703a 993e 7e0d 463d ef21 843e e98b 4d3e
000001e0: 42ab f9bb 6ca6 353d ae86 01bf f871 0c3e
000001f0: 03f6 b0be f2e6 a7be 6584 be3c bd5d 803d
00000200: f4aa ba3d 042f 2a3e 7ae2 f63e 98aa d83d
00000210: 3c19 433e 287d 5bbd acc1 333e 4aa7 303e
00000220: 0474 dc3e e02c 103f ec7e 8dbe bd68 a1be
00000230: 9d2a 9c3e 5d41 ce3d fd2a 093f bd64 8ebe
00000240: 2d6e 053e 04e0 67be 5791 c4be 16c0 ddbe
00000250: 0f4c 92be 6c31 ca3e 4215 42be 68b5 413e
00000260: d765 28be 46e2 1ebe dd06 b03d 553f bf3e
00000270: aa25 86be 4e84 01be 6ebd 0e3d 337a b83e
00000280: 971e 95be bc52 573e 3455 d93c e2dc 843e
00000290: 1a97 c6be 5589 a43e 492f 893d cdcd 90bd
000002a0: c173 34bd a425 823e e972 e13e 94ce e43e
000002b0: 0ee8 993c 2b4f 0cbe b41c 94be e088 82bd
000002c0: ed65 7e3e 882e 99bd 67b1 833e 0aac 28be
000002d0: 644b 88be 11f4 1ebe a773 79be e723 923e
000002e0: d3ba 86bd 7e9b 773e d4e3 b93d 29c1 8c3e
000002f0: 645e 94bd 78ff fdbd 0fca a33e a7a1 aa3e
00000300: 956c 243d e5a3 803e e2df 67bf 5926 a9be
00000310: 44cb dc3e 7066 183e cf9b 603e 8dca 2c3e
00000320: 5d32 163f 82e1 36bc 49a2 c93e d081 a1bd
00000330: 3776 72be f654 99be ca5c 78be 0881 2d3e
00000340: 634d 48be ec8e db3c 9c88 7bbe 2623 89bd
00000350: f619 51be 3399 903d c566 d83e c859 aa3d
00000360: 7ab3 8b3e 7b70 b33e 9839 c73d 81ad 0ebe
00000370: 6fc1 a8be a9b7 ccbd 7f5e f9bd 526e a6be
00000380: dfb3 c83d fec5 85be e890 b83e d733 ecbc
00000390: 4123 0e3e 04c4 063f b875 813e fff1 7e3e
000003a0: da0d bbbd 22a8 f7be 3eca 5cbd 9f60 8ebe
000003b0: 58c1 cd3c 5df9 b53d 0810 e5be a7c4 53be
000003c0: c672 a9be bd5e c3be ff95 1b3e 88be 8cbe
000003d0: 2287 b53d efd4 893d 6396 3bbe bc1e babd
000003e0: c133 eabd 3c3d 803e 9e9c 52be ef5c e7bb
000003f0: 76d6 153f abea 943d 8118 03bf 9027 e63e
-0.18277471 -0.13758188 -0.24146491 0.4307191 -0.36640307 -0.38109666 0.017610965 0.33041304
0.50597334 0.2870729 0.4236025 0.23949967 -0.004595397 0.11559848 0.35641962 -0.22188908
-0.51922446 -0.17333318 0.04125669 -0.46316332 -0.2527236 0.41057333 0.34731907 -0.4499513
0.49495915 0.13060692 -0.3773688 0.340625 -0.18131669 -0.16346374 -0.20943095 0.45800048
-0.4334929 -0.16849588 0.18607104 0.22096829 -0.3167867 -0.04240507 0.46488744 -0.31569976
-0.32857013 0.624202 -0.636094 -0.06895529 0.22490902 -0.13667163 -0.33184877 0.1329317
-0.10237105 -0.017162029 -0.30936503 -0.52455807 -0.13711357 -0.42551503 0.001491236 0.34317055
-0.12620585 0.44325948 -0.51069486 0.26787212 0.108468376 0.21538813 0.39603934 -0.31126043
-0.34577304 -0.19598007 -0.34531498 -0.30958325 0.0580759 0.38535783 0.30970904 -0.0641086
-0.35883266 0.50864565 0.23960312 -0.13868754 0.30065078 0.27536628 -0.12532862 -0.29397756
-0.46536604 -0.4021523 -0.29163116 0.40112275 0.35613862 -0.39985728 -0.43447036 -0.06743123
-0.011956137 0.39715886 0.13381112 -0.45398858 -0.5163631 0.36106607 0.19185787 0.34324554
-0.1823853 -0.33117622 0.0639639 -0.13532357 -0.37042987 0.49658662 0.15309976 -0.29721674
-0.44238478 0.1609837 0.49403045 0.26510668 -0.47858867 0.37062806 -0.15125707 0.17253189
-0.3039809 -0.42305982 0.02138377 -0.12611644 0.29927397 0.04835271 0.2580714 0.20072903
-0.0076192925 0.044348165 -0.5059613 0.1371535 -0.34562692 -0.32793385 0.02325649 0.06267879
0.09114638 0.16619498 0.48219663 0.10579413 0.19052595 -0.053586155 0.17554349 0.17251316
0.43057263 0.56318474 -0.27635896 -0.3152522 0.3050126 0.10071061 0.5358122 -0.27811232
0.1303031 -0.22644049 -0.38392136 -0.43310612 -0.28573653 0.3949083 -0.18953422 0.18916857
-0.16445099 -0.15516004 0.08595059 0.37353006 -0.2620061 -0.12648126 0.034848623 0.3603073
-0.291249 0.21027654 0.026529886 0.2594977 -0.38787156 0.32136026 0.06698472 -0.070705034
-0.044055704 0.25419343 0.44032982 0.44688857 0.01878741 -0.13702075 -0.2892815 -0.06373763
0.24843569 -0.07479578 0.25721285 -0.16471878 -0.26620018 -0.15522791 -0.24360524 0.28543016
-0.06578603 0.2418041 0.09076658 0.2749112 -0.07244566 -0.124022424 0.31990096 0.33326456
0.040142614 0.25125042 -0.90575993 -0.3303707 0.4312383 0.14882827 0.21934436 0.16874142
0.586706 -0.011162164 0.39381626 -0.07886088 -0.23677908 -0.29947633 -0.24254146 0.16943753
-0.1956077 0.026801549 -0.24563831 -0.06696157 -0.2042006 0.070604704 0.42265907 0.08317906
0.27285367 0.35046753 0.09727782 -0.13933374 -0.32960078 -0.09995968 -0.12176227 -0.32506043
0.09799933 -0.2612762 0.36048055 -0.028833313 0.13880636 0.52642846 0.25285125 0.24897002
-0.09133501 -0.48370463 -0.05390381 -0.2780809 0.025116608 0.08885453 -0.44738793 -0.20680486
-0.33095378 -0.38158217 0.15193938 -0.27489114 0.08863665 0.06730067 -0.18319087 -0.09087893
-0.114356525 0.25046718 -0.20567557 -0.007060639 0.58530366 0.07271322 -0.51209265 0.4495206

VAE_Encoder.layers.0.linear0.bias f4 [128]
00000000: 0158 9abe 6e7e e8be f484 983e da8b aebd
00000010: 2b0f 4f3e 2ab3 ae3d b2a9 e9be 5331 80bd
00000020: 11eb 10be c8ca 12bd 6763 8ebe cc2c df3e
00000030: 6ebe 45bd cf99 aa3e 7cd7 d83e 5cc8 403c
00000040: 8cc9 bcbe f7e6 c1bd 3bc4 b3be 4e89 6a3e
00000050: 7cfe fd3d 507b babe beb4 413e f426 b7be
00000060: 0230 dabe 3b90 6ebe e2c9 c8be 374d e93e
00000070: 0548 f3bd 16c8 fb3e 25d6 903e 3a2e 9abd
00000080: 60a4 09be 0b41 303e 0dad 41be db47 9abe
00000090: 1ab9 3f3e 68ef 26bc 69c2 fc3e 9462 a6be
000000a0: 1ef7 bd3e 2907 14be d534 8c3e 11fa 9d3e
000000b0: 5563 4a3e 8a1e 343e 44da afbd aa1e 843d
000000c0: 402a e3be 49ad dd3d eb4d afbe 4621 203e
000000d0: 7c26 c6bd 34af efbd 0369 52bd d9bc d3bd
000000e0: 870f bf3e 4231 3b3e 3093 2c3e 758b 403e
000000f0: a745 96bb 009e aa3e eacd 04be bf52 50be
00000100: 1201 d7be cceb a0be 49a9 03bf 4af2 91be
00000110: f2cd a9be e385 45bd a4ac b43e b930 12bf
00000120: dd6f 033f 5365 c2be 2124 e9bc 5b2c c73e
00000130: 152b cd3e f30e 8c3d 0349 c4be d54f ce3e
00000140: 4196 3f3d ed94 7d3e 1e77 a1bd bca7 8e3e
00000150: bb3b 88be 7f59 e5be 617c f63e c5d5 0cbe
00000160: 6a11 eebe ae3b 9c3e 4d51 e23e 73a8 bc3e
00000170: 3c96 f13d 2050 f33e 0e67 7f3e b4df 17bf
00000180: 82d1 debe b9d8 0e3e 9668 86be a572 323e
00000190: 0721 173c 036d 94be 872e 613d 042a f53e
000001a0: 7215 82be 1f88 69be 673b dcbe 4b16 973e
000001b0: c2d7 c6bc 5504 403e 7303 4cbe 98a8 65be
000001c0: 2040 47bd 0882 ed3e 1d4a 94bc d382 0c3e
000001d0: 5f9d 04bf db50 02be f05b 2b3d 5fb8 bb3e
000001e0: 8abf f73d 7edd cabe 2560 4c3e 585b 853d
000001f0: 4afe f73b 304e 383e b33b ee3e 8829 8f3d
-0.30145267 -0.45408958 0.29788935 -0.08522768 0.2022063 0.085302666 -0.4563728 -0.06259408
-0.1415217 -0.03583792 -0.27810213 0.43588865 -0.04827731 0.33320472 0.42351902 0.011766519
-0.36872518 -0.09467881 -0.3511065 0.2290394 0.12402055 -0.36422205 0.18916604 -0.35771906
-0.42614752 -0.23297207 -0.39216524 0.45566723 -0.11878971 0.4917609 0.2828838 -0.07528348
-0.1344161 0.17212312 -0.1891367 -0.30132946 0.18722954 -0.010188915 0.49367073 -0.32497084
0.37102598 -0.14455856 0.27384058 0.30854848 0.19764455 0.17589775 -0.08586553 0.06451161
-0.44368172 0.10824067 -0.34239134 0.15637693 -0.09675309 -0.11703339 -0.05136968 -0.10338754
0.37316534 0.18280509 0.16853023 0.18803199 -0.00458594 0.3332367 -0.12969175 -0.20344065
-0.41993004 -0.314299 -0.51430184 -0.28505164 -0.33164936 -0.048223387 0.35287964 -0.57105595
0.51342565 -0.3796793 -0.02845961 0.38901028 0.4007193 0.06838789 -0.38336954 0.40295282
0.046774153 0.24763842 -0.07884048 0.27862346 -0.2660807 -0.44794843 0.4814177 -0.13753422
-0.4649766 0.30514282 0.44202653 0.36847267 0.11796233 0.47522068 0.24941656 -0.5932572
-0.43519217 0.1394986 -0.26251668 0.17426546 0.009224183 -0.2898942 0.054976013 0.47883618
-0.25406986 -0.22805832 -0.4301407 0.29509196 -0.024272803 0.18751653 -0.19923191 -0.22427595
-0.04864514 0.46388268 -0.018101746 0.1372178 -0.5180263 -0.12726156 0.041835725 0.366641
0.1209708 -0.3962211 0.19958551 0.06511563 0.0075681554 0.17998576 0.46529922 0.06990343

VAE_Encoder.layers.0.linear1.weight f4 [4, 128]
00000000: 343d 8dbb f391 08bd 99f4 9d3d 478c 563d
00000010: bbf4 a73d 95ff 02bd 047b c53d 32c0 9b3d
00000020: 2fd5 fdbd cc0e 1abb db9b cabe bb92 013d
00000030: 74d0 1ebe 02fd 9abd adde 48bd 5ae6 bc3d
00000040: d52c b1bd 6324 933d 95c5 84bc 0bc3 a4bd
00000050: 2fb0 e6bb e209 1f3c b24c c4ba 8e98 1e3d
00000060: c750 2cbd c58a 9dbd c9c5 603d 35d2 7b3d
00000070: b20b 983c f2d6 f8bc d351 843d 0c48 8ebd
00000080: 9038 203d dce0 bdbc db5c 0ebe a7f6 0f3e
00000090: d846 0cbd a895 4e3c 809b 9bbd dbf7 183d
000000a0: 2d14 863d ff95 a7bd 15da b7bb 634f 233c
000000b0: 4b71 b33d 4b96 90bc 4177 86bd 2731 253d
000000c0: bb42 0cbe 15bc fabc c566 20bd 7727 863d
000000d0: f972 e5bd a420 b3bc 0eed de3c 4635 143d
000000e0: 13cd 56bd 4963 c5bd aa8d bbbc a4fa b7bd
000000f0: 0483 d7bb 0228 15bd bfb3 7dbe 5f21 653e
00000100: b56a 023c 4d13 523c c618 943d 82da cbbd
00000110: 8e78 c8be bb4c a6bd 572d 283d b735 6a3b
00000120: fad5 97bd 9a44 3c3b f901 9dbd 667f a3bd
00000130: ea97 163d cd62 9fbd 4cd3 773d 6b94 883d
00000140: bef5 8dbc a475 873d 65cc 98bd ec0d 64bd
00000150: 0170 a3bd 2e2c bb3c 6f20 7fbc 9977 a1bd
00000160: 0daf 86bd 3cfa a83d d765 abbd 8702 b5bc
00000170: 17de 0dbe 1aa0 93bd ee3b 61bd 9f54 f33b
00000180: 74fa 04be a8e5 0dbd 7a1d 90be 0a03 c23c
00000190: f2e5 ef3c cad2 cdbd 221b c03d 10f8 c5bd
000001a0: f473 6c3d 2949 883d 2ac3 073d 26b0 93bd
000001b0: 6c7b 92bc 0076 8e3c 6210 bd3d 8df1 743b
000001c0: a52e 743d d5a4 2d3c 36fe 373d 8a4b 2dbe
000001d0: f50e 3bbe cdcf 7438 b2ac 463d d1c8 7f3d
000001e0: 9134 f0bc 9c6b 883d 2a79 673d 5cf7 21be
000001f0: 5820 13be 8601 41bd 9504 a1bd ac0d f83c
00000200: 06e1 6e3d 6749 2b3e 5e50 533d fa0f c8bd
00000210: bb31 d83b b405 5c3c ac09 71bc 74b2 45bc
00000220: 63ad 3e3d d211 5cbd ca8b 9abe 1bd8 c33c
00000230: f0c7 28be acee 993d a5c4 273d 0f03 273d
00000240: cc5c 5d3d 513f 553d dfc7 183e dfcd 263d
00000250: e08a 103d 6e19 df3c c382 d63c e372 5e3e
00000260: 8f06 18bd 56fc 2b3d 0708 5c3d 191d 993d
00000270: cc41 fbbc c3fa ba3d 6464 793d eaef 0bbd
00000280: e453 8f3d fddf 103d 685b b5bd c994 2c3d
00000290: 4785 09bc 381d 143d 85fe 8d3d 97c1 163e
000002a0: a8cd 22bd e1b6 2f3e 183b ec3d 0887 c33a
000002b0: 1e04 133d ca05 b0bc ad2c 883e a235 f6bc
000002c0: f027 7f3e 3210 403d f9b1 9cb9 aba5 c83d
000002d0: db7c d23c 3ce5 643d d94b 7abd cefe a23c
000002e0: 62ce 9cbc a099 98bc 4af3 19bc f888 02be
000002f0: 544f 983d 7ce5 b6bd 1145 bcbd b140 acbe
00000300: 278b f83e 0b9c db3d 4c8d 98bd 660f 2f3e
00000310: 412f 73be 086a 823d bbc6 87bd 3164 c53e
00000320: 81a1 dabc a5af 12be 9038 afbc e2aa 563c
00000330: 3ef1 6cba e8c3 593d d8a2 b9bc 09a4 c43d
00000340: 0e30 a83c 4a59 6ebc 61f8 aebc 1dee eb3d
00000350: d974 08bc 7712 fd3d 175c 16bd 6a32 053e
00000360: 2188 8f3c 13fb 98bc a1d1 9d3d 4f4c 5a3c
00000370: 6096 953d 0403 26bd 89f3 8b3d 17ab 073d
00000380: b7df a0bc 99ec 54bd fe77 47be cd4c 23bd
00000390: 9dfa f03d dd75 4a3d 06e0 2fbc 6ec0 f3bc
000003a0: 75a2 03bb dd60 dc3d 3df3 0c3e c658 83bd
000003b0: 0aba e73d 99d7 823d 8698 913d bc0e a23c
000003c0: 984f 9f3c ea70 773d 2816 44bd cc24 da3d
000003d0: d288 ed3e b30b 9c3d 3b27 3abd 617b 403d
000003e0: 866a 643b 09f6 3b3c 6320 e83c 9a8c 18bd
000003f0: 1d91 143e 8905 bcbd e971 8ebd 1d0d 9d3c
-0.0043102745 -0.033342313 0.07712669 0.052379873 0.082009755 -0.031982023 0.09642604 0.07605018
-0.12394177 -0.0023507355 -0.39572033 0.031634074 -0.15509206 -0.07567789 -0.049040485 0.092236236
-0.08651129 0.071846746 -0.016207496 -0.08045014 -0.0070400457 0.009706946 -0.001497647 0.038719706
-0.042069223 -0.07692484 0.054876123 0.061479766 0.018560264 -0.030375931 0.06460919 -0.069473356
0.039116442 -0.02317851 -0.13902609 0.14058934 -0.03424725 0.012608923 -0.07598019 0.03734575
0.06546817 -0.08182906 -0.005610714 0.009967658 0.08761843 -0.01764979 -0.06565715 0.04033008
-0.1369733 -0.030607263 -0.03916051 0.06550496 -0.1120357 -0.02186615 0.027212646 0.036183618
-0.052441668 -0.09638078 -0.0228947 -0.08983353 -0.0065768976 -0.036415108 -0.24775599 0.22376011
0.007960011 0.0128219845 0.07231288 -0.099537864 -0.39154476 -0.08120104 0.041058864 0.0035737583
-0.0741386 0.0028727413 -0.07666392 -0.07983284 0.03676597 -0.07782517 0.060504243 0.066689335
-0.017329093 0.06614235 -0.0746086 -0.05567734 -0.079803474 0.022848215 -0.015571698 -0.078841396
-0.06576357 0.082508534 -0.08369034 -0.022095932 -0.13854252 -0.07208271 -0.054988794 0.007425859
-0.12986165 -0.034642845 -0.2814749 0.02368309 0.029284451 -0.100499704 0.09380175 -0.09666455
0.05772777 0.06654579 0.033145107 -0.07211332 -0.017881118 0.017390251 0.092316404 0.003737542
0.059614796 0.010598381 0.04492017 -0.16923347 -0.18267424 5.8367663e-05 0.04850454 0.062447373
-0.02932194 0.0666115 0.056512035 -0.15817016 -0.14367807 -0.047120593 -0.07862202 0.030279957
0.058320068 0.1672722 0.051590316 -0.09768672 0.006597725 0.013429094 -0.014711779 -0.012066472
0.046552073 -0.053727932 -0.30184776 0.023906758 -0.1648252 0.07516226 0.04095902 0.0407744
0.054043576 0.052062336 0.14919995 0.040723678 0.03528869 0.027233806 0.026185399 0.21723513
-0.03711563 0.041988693 0.053718593 0.07476253 -0.030671023 0.0912986 0.060886756 -0.034164347
0.06998423 0.035369862 -0.08855325 0.04213408 -0.008393592 0.036160678 0.069333114 0.14722286
-0.03974691 0.17159607 0.11534709 0.0014917562 0.0358926 -0.021487135 0.26596585 -0.030054871
0.24917579 0.046890445 -0.0002988724 0.09797224 0.025694301 0.055882677 -0.06110749 0.019896891
-0.01914138 -0.018627942 -0.009396384 -0.12747562 0.07437006 -0.089304894 -0.09192861 -0.33643106
0.48543665 0.10723122 -0.07448825 0.17095718 -0.23748495 0.0636788 -0.06629702 0.38553002
-0.02668834 -0.14324816 -0.021389276 0.013102265 -0.00090386334 0.053165346 -0.022660658 0.096016
0.020530727 -0.014547655 -0.02135867 0.11520026 -0.00832864 0.123570375 -0.036708917 0.13007513
0.017520966 -0.018674409 0.07705999 0.013323857 0.073040724 -0.04053022 0.0683356 0.03312215
-0.019637926 -0.05198345 -0.19479367 -0.039868165 0.11766551 0.04942881 -0.010734564 -0.029754844
-0.0020085846 0.10760663 0.13764663 -0.064134166 0.11314781 0.06388778 0.0710917 0.019782417
0.019447133 0.060410418 -0.047872692 0.1065155 0.46393448 0.07619419 -0.04544757 0.046992663
0.0034853532 0.011472234 0.028335756 -0.037243463 0.14508481 -0.09180743 -0.069553204 0.019171292

VAE_Encoder.layers.0.linear1.bias f4 [4]
00000000: b27c 08bd 6b02 9b3d 3d26 57bd e5ac 39bc
-0.033322044 0.075688206 -0.0525267 -0.011332725

VAE_Encoder.layers.0.norm1.weight f4 [4]
00000000: 5a87 963f cb7f 8a3f 61ec 923f 5da6 873f
1.1760056 1.0820249 1.1478387 1.0597645

VAE_Encoder.layers.0.norm1.bias f4 [4]
00000000: adad 01bd 9d2e 303c c962 323c 9262 a5bc
-0.03165977 0.010753301 0.01088781 -0.020188604

VAE_Encoder.layers.1.attention.W_q.weight f4 [4, 4]
00000000: ba4a dabe 5ffd 353e a50a 15bd 99fe c7bd
00000010: 8648 38bc 5e95 b9be 8b22 033f de3c 473e
00000020: f283 393d 8a6f c93e 41ff 5e3c 2ad3 39be
00000030: d637 a2bd f76f 97be 05e0 a7be f82b b83e
-0.42635137 0.17772435 -0.036387105 -0.097653575 -0.01124776 -0.3624677 0.51224583 0.19456813
0.04529185 0.3934291 0.013610662 -0.18146959 -0.07920806 -0.2957761 -0.327881 0.35971045

VAE_Encoder.layers.1.attention.W_q.bias f4 [4]
00000000: 70a7 a4bc aad2 bf3d d6ff a5bd b180 a9bd
-0.020099372 0.09366353 -0.081054375 -0.08276499

VAE_Encoder.layers.1.attention.W_k.weight f4 [4, 4]
00000000: 4de4 98be 51c5 c33e c6ac e7be abef cabd
00000010: 4a32 39be 1c81 e23e fe75 c33e de65 4a3e
00000020: e41e 453e 63dc 013e 73da fc3d 6530 283f
00000030: fac9 483e c8ea 7bbe 5e34 cfbe 655b 0e3e
-0.2986168 0.38236478 -0.45249003 -0.09908994 -0.1808559 0.44239128 0.38175958 0.19765422
0.19250065 0.12681727 0.123463534 0.65698844 0.19608298 -0.2460128 -0.4046964 0.13902052

VAE_Encoder.layers.1.attention.W_k.bias f4 [4]
00000000: b755 b139 e5ae 8fb8 21a5 d438 9da0 0139
0.00033823933 -6.851348e-05 0.000101397054 0.00012362232

VAE_Encoder.layers.1.attention.W_v.weight f4 [4, 4]
00000000: 1c35 d83d c857 2dbe bc93 8d3e 73ac 4c3e
00000010: 14e4 97be af0a 44be 4fc2 82bd 8adc 29be
00000020: 5e5a dabe 63a7 e0be befe 57be 26ef 85be
00000030: 0252 b2bd 8e6b 37be 31a4 bd3d 4fe7 58bc
0.10557005 -0.16928017 0.27651775 0.19987659 -0.29666197 -0.191447 -0.06384718 -0.16588035
-0.4264707 -0.43877706 -0.2109327 -0.26159018 -0.08707048 -0.17912123 0.09259833 -0.013238742

VAE_Encoder.layers.1.attention.W_v.bias f4 [4]
00000000: 5206 4d3c a5b8 19bb 8f63 3c3b cc1f 403c
0.012513714 -0.0023456004 0.0028745865 0.011726331

VAE_Encoder.layers.1.linear0.weight f4 [128, 4]
00000000: d617 ba3e 8b0c ab3e 8cb8 b13e 68b3 f8be
00000010: 9e0a ef3e 126f b2be 47ab 9a3c 57b4 dcbe
00000020: 0d87 a43e 995f e43e 868e 12bf 84fc ac3e
00000030: d99d f63c eb09 973e ea76 89be bc06 f9bc
00000040: b301 173d 8378 16be 9ac7 1cbd f206 12bf
00000050: c418 d83e 44eb 083f 5e3a acbe ea5a 50be
00000060: 90b6 a53e 3520 4d3d c6d9 c83e 7c57 80be
00000070: e949 c73d d2a2 623e 9346 e9be f175 95be
00000080: 1ec8 9abd 4b85 dbbe 8fdc 8c3e d8bd d6be
00000090: 2839 b2bc 8d64 413e 4c00 4fbe 4000 d73c
000000a0: 181c 033f 1321 1ebf b76f c2be ad2e 4dbd
000000b0: dad0 fbbe 8d3d 5e3e 393c 93be 819e e3bc
000000c0: 75fb 8d3e 948c 4dbd 8988 a8bd 6a66 893e
000000d0: 4fb6 83be eff4 893e 3d96 e7be e9f6 063e
000000e0: 4afe 3b3f b447 9d3e 029c e8be defd 883e
000000f0: 7497 80be 4e0b 853e 5c27 02bf 57fa be3e
00000100: dc3f 033e 6202 323e 1fb9 e03e a450 e3be
00000110: 26e3 fb3d c908 92bd 9485 cb3d 71f3 34be
00000120: 3ed7 2ebe ca9c 9fbe 6ac0 a5be 62ae e2be
00000130: 3705 57be 86ad d13e c109 d13d 7456 bb3e
00000140: d70c 42be aeb7 acbb cc0c 1abd 7f2a 733e
00000150: a819 ee3e 1ab1 e33e b5f5 833e c192 9ebe
00000160: c7ca 53be 76ed 513e 4b71 713e 1449 dfbc
00000170: d9b9 df3c ced4 f43e 75ac 993e b9c7 9fbe
00000180: 8cd4 c53e 0345 133f fa7b 14bf e095 8f3e
00000190: 494e 343e 9605 59be f404 9c3e fc2c 193f
000001a0: bd02 0fbe 1e45 b83e 27f9 813e 8509 473b
000001b0: 35ac 5dbe 3599 993e a409 ae3e 0505 3abd
000001c0: 64c7 98be 0801 91be c56c 9f3e 7bbe 8bbe
000001d0: 4316 863e 319d e73e 52a3 023e 49d1 1dbe
000001e0: 21c6 9dbe f77f dfbe e1fa 973d a463 053e
000001f0: c80d 153f 21fb fe3e 964e 123e 348b 8cbd
00000200: 21ea 203e 0f3b de3d bf11 acbc 387c d7bd
00000210: e6e9 563c 018d e63e bd7d 2dbe d53d c13d
00000220: 89f1 d43e 2803 813e f581 04bf 5f33 f9be
00000230: d721 e7be aa4a 8cbe c2e9 123d 912d eb3e
00000240: 5cee 0f3f 53f9 3c3e eeff 9abe 6a05 e1bc
00000250: 5b76 cf3e b125 86bd b09e a6be afdf 5a3e
00000260: f0d4 cb3e d7fa 713e e085 17be eb2d 34be
00000270: 62f4 9cbe f6f5 083f cae0 b1be 5768 16bb
00000280: 6fe9 343e 75db d53e a256 0dbd 0042 2abe
00000290: add8 953e 7a93 c23e 89b0 683c ebbc 903e
000002a0: ea1c aabe cc38 19bf 6284 cf3e 8aaf 123f
000002b0: 1369 2e3e 3860 09be 71c5 bcbd be8b 2a3d
000002c0: 7e4e 38be 69b9 99bd eb96 fcbd 8586 2abd
000002d0: 90ab 6e3d cac3 e0be 27d9 043e 53bd c4be
000002e0: 00af 52be 2614 87be d0fd 03be b4cb 7bbe
000002f0: 7635 a13e ce74 073e 1f85 a2be 423e 803e
00000300: eaad a7bd 3c95 033f 9501 9fbe 8c1a 9dbe
00000310: 54cc 93be 9ce3 143e 1c1a b93e 27e7 00be
00000320: cde2 703d f847 813d 9749 ec3e 9d5b b43e
00000330: 6a1d 72be cd8a abbd e6ea acbe 70e9 5dbe
00000340: 1222 ba3e fd6b 9c3e 3ce3 203d 62d5 743e
00000350: 4a50 f2bc 0dca b73e 3fc4 e03e 3a9f 033d
00000360: 81e4 86bd 4c5f f83e 0eac b3bc 73d2 86be
00000370: 1f5b 7e3d 9586 0c3f d5b4 67be 15bf 993c
00000380: 762f f7bc afb9 20bf 1442 2c3e 208d 2abe
00000390: cfe6 d03d bd68 6d3e 6f7d c5be 9d43 473e
000003a0: f3a7 113e 5fc3 a9be 33a3 3c3e f332 d3be
000003b0: f293 943e ad60 043f 4c4d a4be b264 103d
000003c0: b929 45be ae26 03bf 4eb2 813e a4b6 d2be
000003d0: 1ed8 2a3e 42e8 443e 4d12 103f 623c f53e
000003e0: e44b 4bbe 0f33 ba3e 28d0 1d3e c654 bcbd
000003f0: 7b97 733e 9a2e 7b3d 6590 a73b 6669 663e
0.3634631 0.33408007 0.3471111 -0.48574376 0.46687788 -0.34850365 0.0188805 -0.43106338
0.32134286 0.44604185 -0.57248724 0.33786404 0.030104565 0.29499754 -0.26848537 -0.030398719
0.036866855 -0.14694409 -0.038276292 -0.5704185 0.42206395 0.53483987 -0.3363828 -0.20347181
0.32365847 0.050079543 0.39228648 -0.25066745 0.09730894 0.22132424 -0.45561656 -0.29191545
-0.075577006 -0.42875132 0.27512023 -0.41941714 -0.02175577 0.18886013 -0.20214957 0.026245236
0.5121474 -0.6176922 -0.37975857 -0.05009334 -0.4918278 0.21703167 -0.28756884 -0.027785541
0.2773091 -0.050182894 -0.08229167 0.26835948 -0.25725028 0.26944682 -0.4523181 0.13180126
0.7343489 0.30718768 -0.45431525 0.26756185 -0.2511555 0.25985187 -0.5084131 0.3730037
0.12817329 0.17383721 0.43891236 -0.4439746 0.122991845 -0.07130582 0.099375874 -0.1767099
-0.17074296 -0.31174308 -0.32373363 -0.4427367 -0.20998083 0.409527 0.102069385 0.36589396
-0.1895021 -0.0052709198 -0.03760986 0.2374668 0.4650395 0.44471055 0.25773397 -0.3097134
-0.20682822 0.2050074 0.23578374 -0.027256526 0.027310299 0.47818607 0.30014387 -0.31207064
0.38638723 0.5752718 -0.58001673 0.28044033 0.17607988 -0.21193537 0.3047253 0.59834266
-0.13965888 0.35990232 0.253854 0.0030370664 -0.21647723 0.299997 0.3399173 -0.045414943
-0.29839623 -0.283211 0.31137672 -0.27293763 0.2618886 0.45237115 0.12757614 -0.15411867
-0.30815223 -0.43652317 0.07420898 0.13026291 0.58224154 0.4980097 0.1428779 -0.068624884
0.15714313 0.10851108 -0.021004556 -0.1052174 0.013117289 0.45029452 -0.16942497 0.09435622
0.41590527 0.2519772 -0.517608 -0.48672006 -0.45143005 -0.27400714 0.03586746 0.45933202
0.5622308 0.18454485 -0.30273384 -0.027468402 0.40519986 -0.06550158 -0.32542944 0.21374391
0.39810896 0.23630844 -0.14797163 -0.17595641 -0.306552 0.53500307 -0.34741813 -0.0022950375
0.17667173 0.41768995 -0.034506448 -0.1662674 0.29266873 0.3800314 0.0142022455 0.28269133
-0.33225185 -0.5985229 0.40530688 0.572991 0.1703227 -0.13415611 -0.092173465 0.041637175
-0.17998692 -0.07506067 -0.12333473 -0.041632194 0.058269083 -0.43899375 0.12973462 -0.38425693
-0.2057457 -0.2638256 -0.1288979 -0.24589425 0.314861 0.13228151 -0.31742188 0.250475
-0.08187468 0.5139959 -0.31055894 -0.30684316 -0.28866827 0.14539951 0.36152732 -0.12588178
0.058810044 0.06312555 0.46149895 0.35226145 -0.23644033 -0.083760835 -0.33772963 -0.2167108
0.3635412 0.3055114 0.039279208 0.23909524 -0.0295793 0.3589634 0.43899724 0.032134272
-0.065865524 0.48510206 -0.021932628 -0.26332435 0.06209862 0.54892856 -0.22627576 0.018767873
-0.030173998 -0.6278333 0.16822082 -0.16655397 0.10200273 0.23184486 -0.3857226 0.19459386
0.14224224 -0.3315687 0.1842163 -0.4124981 0.29019123 0.51710016 -0.32090223 0.03525228
-0.19254197 -0.51230896 0.25331348 -0.4115497 0.16684005 0.19229224 0.56277925 0.4789763
-0.19853169 0.3636708 0.15411437 -0.09195857 0.23788254 0.06132374 0.0051136487 0.22501144

VAE_Encoder.layers.1.linear0.bias f4 [128]
00000000: dbcc ddbe c1a1 06bf 69d1 3d3d f6fc 94be
00000010: 50ff 98be 909b abbe fdc0 a2be 5f35 9c3e
00000020: 66e8 1e3c 9989 66be b409 2f3d 30e9 4abe
00000030: 3ff1 57be 4d7e b83e 1010 1ebe 96e5 65be
00000040: 5ed3 15be d2e2 1fbe a518 dcbe aa8b 433e
00000050: 8a42 95be 6cfa b13e 993a 6f3e 22f5 74bc
00000060: 5978 0b3d a5d5 893e e83c 2cbe 68aa 8cbd
00000070: ebe4 e7bd 9d49 fdbe ce71 b3bd b659 afbd
00000080: c25f 773c 388e 9f3d f877 a8be 7d8b 503e
00000090: a1a0 5dbd a894 4e3e c467 5d3e 5a88 d33e
000000a0: 77c8 aabe ef89 e3be 30ea 4fbe ad02 b43e
000000b0: f0f7 373e 1f49 bd3e 78bc 87be 3c15 483e
000000c0: e78d 9c3b 24a1 f0bd 78f3 e6bd 5d84 dfbe
000000d0: 7f1f d23e 3412 db3e c746 b13e 0303 8ebe
000000e0: 8455 d4be 43f1 1bbf 8206 833c a990 33be
000000f0: 6d01 bc3c 80b0 a03d 7d37 8bbe dee0 cbbe
00000100: 2acf debd e23d 913e 8a4a 0abd d6c1 80be
00000110: e8c2 33be 1d01 48be ae18 143e 1514 febd
00000120: f7a9 72bd f490 debe 000b 1cbe 2e17 133d
00000130: fcf9 57be 1fed 883e b2a8 a8be acfa 4d3e
00000140: 8a38 c0be c406 56be 1cd5 b2bd 896f 80bd
00000150: fd6f 023f fc1f 023f dc49 943e 3786 ff3e
00000160: 79fc a8be 9591 44bd 10d0 b03e 49b5 dbbe
00000170: a933 6c3e 63c2 c33e 838c ae3e 4872 fdbe
00000180: bfe3 b2be 488c b63e fad6 b63e 71e1 9fbe
00000190: 8e70 be3e b297 39be 1aa2 f7bd feb8 a83d
000001a0: e30a bbbc 9b55 db3d 300c f83d e070 96be
000001b0: dca3 6b3e 97c2 463d f26d a9bd af7e 363e
000001c0: 2292 a13e 2015 c4be fade c63e 37c5 96be
000001d0: 07c5 d4be b6da 37bd 0dc4 9dbe 58af 97be
000001e0: 37ad c93e 5ebb 45be d445 953d bd54 913d
000001f0: ced0 5f3e 8c3d 383e 2806 023f 14c9 ccbe
-0.43320355 -0.52590567 0.046342287 -0.29099244 -0.29882288 -0.33517122 -0.31787863 0.3050947
0.009698963 -0.22513427 0.042733863 -0.19815516 -0.21088122 0.3603386 -0.15435815 -0.22450861
-0.14631411 -0.15613869 -0.42987552 0.19096246 -0.29152328 0.3476137 0.23362197 -0.014951022
0.03405032 0.2692081 -0.16820109 -0.0686844 -0.113229595 -0.49470225 -0.08761941 -0.08562033
0.015098514 0.07790798 -0.3290403 0.2036571 -0.054108266 0.20173895 0.21621615 0.41314965
-0.33356068 -0.44441172 -0.20304179 0.3515829 0.17965674 0.3696985 -0.26510978 0.1953935
0.0047776583 -0.11749485 -0.11276907 -0.43655673 0.41039655 0.42787325 0.3462431 -0.27736673
-0.41471493 -0.6091501 0.015994314 -0.17535652 0.022949899 0.07846165 -0.27190772 -0.39819998
-0.10879357 0.28367525 -0.033762492 -0.25147885 -0.1755482 -0.19531675 0.1446254 -0.12406174
-0.059244122 -0.43469965 -0.15238571 0.035910778 -0.21091455 0.2674341 -0.32941204 0.20115155
-0.37543136 -0.20901018 -0.08732054 -0.06271274 0.5095213 0.50830054 0.289626 0.49907085
-0.3300512 -0.0479904 0.3453374 -0.42911747 0.23066582 0.38234243 0.34091577 -0.49501252
-0.3493938 0.356539 0.3571089 -0.31226686 0.37195247 -0.18124273 -0.12091465 0.082384095
-0.02283234 0.10709687 0.121116996 -0.29382992 0.23011726 0.04852542 -0.082729235 0.17821763
0.31556803 -0.38297367 0.38841993 -0.29447338 -0.4155657 -0.044886313 -0.30813637 -0.29625964
0.39389965 -0.19309756 0.07288709 0.07096241 0.21856996 0.17992228 0.50790644 -0.3999716

VAE_Encoder.layers.1.linear1.weight f4 [4, 128]
00000000: 0ae6 ebbc b6e2 c7bd 88fa a13d f176 ac3d
00000010: 015c 7f3c 0db9 083e b3dc a5bd eb47 413e
00000020: 6ae8 87bd 1a9b 833d 2f3e 95bd 4119 ce3d
00000030: b4e4 873b fdfe af3c 97b2 51bd 0bdd 64bd
00000040: 2fec 18bd 0dd5 443b f557 0abd b000 26bd
00000050: efc0 9d3d 15e7 66bc f413 423d 0e3f 213d
00000060: a28d bc3d c829 85be 8bb8 56bd b08b 13bd
00000070: 6764 cebd 7200 4c3d 5065 31be da0b 773d
00000080: 67e0 ad3b 992a 0f3e cf0b d6bb f582 953d
00000090: 08f3 d23d 006a 0d3d 1572 293e b26b 0c3e
000000a0: 65ba b13e 2374 343e aaa0 60be 90dd 013d
000000b0: 7c0d 78bc dd2c 81bd c754 863d 0d3a ab3d
000000c0: 2a83 f93d 189d e9bd 7ae9 35bd f760 4b3d
000000d0: f243 063d a5f1 9cbd 1f5c 293e 2a4a 2b3d
000000e0: 249f 49bd 7a40 72bd 0852 5abd 0867 763d
000000f0: 5245 b4bd 5f8b 85be 2a7c 633d e8f4 083d
00000100: fc98 8fbe a402 a03d 3539 fdbc f7a9 96bd
00000110: b98c 84bb 72d0 86bc e90f 973d 9a01 953d
00000120: fab1 20bd 6144 c63b 005c a13d 20da 58bd
00000130: ca99 883e 74e1 a03d df27 853d b232 36bc
00000140: 0458 ae3d d2e9 af3d 9ee1 e8be be8f ffbc
00000150: 0a9d fdbd 99b5 fd3d e9de 033c 744c 2abe
00000160: 9f5d 9ebb 39af 03bd 424a 5e3c 4929 4bbd
00000170: 8e1a 47bd 5ec0 a4bd 44fc f13c e49c 3f3d
00000180: 9bdf db3c 5898 e53d 36b0 e9bd be3d d2bd
00000190: cca3 2ebe 7643 0bbe 71ee 003e 8f28 0d3e
000001a0: 5728 3e3d 98e2 223d f69e 87bd 6380 35be
000001b0: 1ee5 a6bd 358c 0f3e ec10 9e3c 6e5e 0c3e
000001c0: 04d4 cc3d 7024 4c3d 0f92 533a dbd9 83bd
000001d0: 625b 3c3e 859c 68bd 23ff bc3d 3254 893c
000001e0: 6125 f13c 20ad 22be 65ea 81be fc24 6c3c
000001f0: 01ef ef3d 21dc ad3d 762c e83d 44b3 2ebe
00000200: 5a18 8c3d b3a0 5ebc 44c4 1b3d da17 383d
00000210: 0afe bb3d c722 453d c99e c0bb 3cea 1abd
00000220: be0a 343d 412d c83d 02ef dc3c 6520 84bd
00000230: d1a9 50bd 7f37 c2bc 4b88 cfbd 8049 e9bb
00000240: bb1c 953c 8ae8 2bbd d836 d03d 3bc2 11be
00000250: c6a8 c83c 0145 1f3d cf03 843c 9208 933c
00000260: d0ff 1ebd 4e71 cfbc 5ffe 1bbe 7569 b6bd
00000270: ddb7 adbd 8f96 213e 5af9 0bbe 5fe9 e53d
00000280: 3340 a63d ba2a c1bd b197 643d 20d8 94bd
00000290: 47c8 fdbe c197 33bb 483d de3d 4c81 cbbc
000002a0: 5984 803e cd3e a3bc 26fa 9ebe fa41 2e3d
000002b0: ad41 ac3c 5e65 98ba 1768 433c 124f 9ebd
000002c0: 9e5d a4bc 35b7 ddbe 0804 debd 95ad 5a3c
000002d0: 3fad 8bbb ff3a 64bd 6900 0b3d c0a7 88bb
000002e0: d15a 49bd 6c48 ae3c 696d 76bc fd9b 0e3e
000002f0: 2c11 9ebd 6883 28be a7eb 28be 1a88 323c
00000300: c538 fe3d 48dc cdbd 3928 4b3d 809e b7be
00000310: 00e7 7abe 5831 61be a112 143c b3de cd3d
00000320: 4d66 c0bc 4fb5 06bd 772a 3f3d 59a4 c03d
00000330: c056 89be d3de aebd 1fec a8bd 1129 2d3d
00000340: b367 583c b248 de3c 14de 90be e6fa 8ebd
00000350: 2c0b abbd bb78 8abd c6e8 f5bd 768d ddba
00000360: 5b15 b33c cb37 b2bd 02fe ffb9 b9b1 b2bc
00000370: 7a4f d1bd 13c3 cfbc d943 2abd 875a 2dbd
00000380: b026 a33b 8e84 b2bc 41f9 ee3c c7fd 783d
00000390: f0f6 e9bd 0aa7 30be db5b f43d fb03 223d
000003a0: 5fef 78bd 629b 8dbd 25f0 dcbd 223a f4bd
000003b0: d8b7 09be 430b 2f3e 71a9 da3c 98e2 e0bc
000003c0: 4291 94bd 2d94 233d b785 49bd b26c a63d
000003d0: 3ae8 e33d c7f2 acbd 45e2 0c3d 9489 f4bc
000003e0: a0cc bebd 2ba3 1cbc 2dc9 4e3d 5f0e 5c3d
000003f0: 29fc 9e3d bfb6 c23d 746a 57bd 9a17 bf3c
-0.028796215 -0.097600386 0.07909113 0.08421124 0.0155859 0.13351841 -0.08098736 0.18875091
-0.06636126 0.06426068 -0.07287251 0.100634106 0.0041471366 0.021483893 -0.051195707 -0.055874866
-0.037334617 0.0030034215 -0.03377529 -0.040528 0.07702815 -0.01409318 0.04738231 0.039366774
0.09206702 -0.2600844 -0.052422088 -0.03602189 -0.10077744 0.049805112 -0.17323804 0.060314037
0.005306292 0.13981093 -0.0065321694 0.07300369 0.10300261 0.034524918 0.16547425 0.13712958
0.3471252 0.17622428 -0.21936288 0.03170544 -0.015139934 -0.06307385 0.06559139 0.08360682
0.12183221 -0.114069164 -0.044412114 0.04965302 0.03277964 -0.076632775 0.16539048 0.041818775
-0.049224034 -0.05914352 -0.053300887 0.060156852 -0.08802284 -0.26082894 0.055538334 0.033436686
-0.28046405 0.07813004 -0.030911068 -0.07356637 -0.0040450958 -0.016456816 0.073760815 0.07275696
-0.03923223 0.006050632 0.07878876 -0.052942395 0.26679832 0.07855502 0.065017454 -0.011120485
0.085128814 0.085895196 -0.45484632 -0.031196471 -0.123834684 0.12388153 0.008048751 -0.16630727
-0.004832938 -0.032149527 0.013567509 -0.04959992 -0.04860931 -0.08044504 0.029539235 0.046780482
0.026840022 0.11210698 -0.11410563 -0.10265683 -0.17054671 -0.13599953 0.12590958 0.13785003
0.04642519 0.039766878 -0.06622116 -0.17724757 -0.081491694 0.14018328 0.019295178 0.13707897
0.10001376 0.049839437 0.00080707757 -0.06438037 0.18394235 -0.056789894 0.09228351 0.01676378
0.029436769 -0.15886354 -0.2537414 0.014413115 0.11715508 0.08489252 0.11336605 -0.17060572
0.06840582 -0.013588118 0.03802897 0.04494462 0.091793135 0.04812887 -0.0058783037 -0.03782104
0.043955557 0.097742565 0.026969437 -0.06451491 -0.0509432 -0.023708103 -0.10133418 -0.0071193576
0.018202176 -0.041969813 0.101667106 -0.1423425 0.02449454 0.038884167 0.016115097 0.017948423
-0.03881818 -0.025322583 -0.15233754 -0.08906833 -0.08482335 0.1578009 -0.13669339 0.11226153
0.08117714 -0.094319776 0.055808727 -0.07267785 -0.49566862 -0.0027403685 0.10851532 -0.024841927
0.25100973 -0.019927407 -0.31050223 0.04254339 0.02102741 -0.001162689 0.011926672 -0.07729925
-0.020064171 -0.43303838 -0.10840613 0.013347049 -0.004262596 -0.055720326 0.033935938 -0.004170388
-0.049158875 0.021274768 -0.015040734 0.13926692 -0.07718119 -0.16456378 -0.16496144 0.010896707
0.12413172 -0.10051781 0.049598906 -0.35863113 -0.24502182 -0.2199148 0.009037645 0.10052242
-0.02348628 -0.032887753 0.046671357 0.09406347 -0.26823997 -0.08538594 -0.082481615 0.042275492
0.013208318 0.027134273 -0.28294432 -0.06981449 -0.0835174 -0.06761309 -0.12007289 -0.001690312
0.021860769 -0.08702048 -0.0004882664 -0.02181326 -0.10220237 -0.025361573 -0.04156861 -0.04232266
0.004978977 -0.021791723 0.029171588 0.060788896 -0.11424053 -0.1725122 0.119315825 0.039554577
-0.060775157 -0.069144025 -0.107879914 -0.119251505 -0.13449037 0.1709414 0.026692124 -0.027451798
-0.07254268 0.039936233 -0.049199786 0.08126201 0.11128278 -0.084447436 0.034395475 -0.029850759
-0.09316373 -0.009560387 0.050484825 0.053724643 0.077629395 0.09507512 -0.052591756 0.023326684

VAE_Encoder.layers.1.linear1.bias f4 [4]
00000000: 0110 6c3d 6d5b 51bc 5134 a8bd 9cac 56bd
0.05763245 -0.012778145 -0.082131036 -0.052410707

VAE_Encoder.layers.1.norm1.weight f4 [4]
00000000: d8ef 843f f3b6 913f 1a6f 8e3f 6677 8e3f
1.0385695 1.1383957 1.1127656 1.1130188

VAE_Encoder.layers.1.norm1.bias f4 [4]
00000000: 4d71 983d 710e 143d 20af 69bd 3954 c0bd
0.074434854 0.036146585 -0.057051778 -0.09391064

VAE_Encoder.layers.1.norm0.weight f4 [4]
00000000: c572 443f 3f7b 713f 5762 623f cbc8 5a3f
0.76737624 0.94328684 0.88431305 0.85462636

VAE_Encoder.layers.1.norm0.bias f4 [4]
00000000: 3d7e 8b3c 1405 a5bc f476 033c 0ae2 ed3b
0.017027969 -0.020144023 0.008023966 0.007259612

VAE_Encoder.last_normalization.weight f4 [4]
00000000: 0000 803f 0000 803f 0000 803f 0000 803f
1.0 1.0 1.0 1.0

VAE_Encoder.last_normalization.bias f4 [4]
00000000: 0000 0000 0000 0000 0000 0000 0000 0000
0.0 0.0 0.0 0.0

VAE_Encoder.head.weight f4 [4, 4]
00000000: 50a0 4f3d b6ab efbe 28ba 31be 5437 46be
00000010: 8eb2 b63e c406 bbbe d69c a5be b0c6 493e
00000020: 4079 12bd 080e edbd b00e f23e d0bf 05bd
00000030: e010 803c 28d1 7a3e e8fa d13e 0ae0 86be
0.050689995 -0.46810693 -0.17356169 -0.19357044 0.356831 -0.365286 -0.3234622 0.197047
-0.035760164 -0.11574942 0.4727683 -0.03265363 0.015633047 0.2449385 0.4101174 -0.26342803

VAE_Encoder.head.bias f4 [4]
00000000: e0a4 0ebe d0c5 e6bd 40c4 c9bc 8474 fc3e
-0.13930082 -0.112681985 -0.024629712 0.49307644
