tabsyn/vae/ckpt/adult/model.pt (torch, 70457 bytes, 112 tensors)

VAE.Tokenizer.weight f4 [7, 4]
0	0xbeaf5c29	-0.3425
1	0xbe22d483	-0.1590138
2	0xbe9451be	-0.28968614
3	0x3c32032a	0.010865012
4	0x3dd29894	0.10283008
5	0x3e024199	0.12720336
6	0xbe302133	-0.17200164
7	0xbde83320	-0.11337876
8	0xbd8e33d1	-0.06943477
9	0xbda87e3d	-0.08227203
10	0xbd6031e7	-0.05473509
11	0x3d7ac15e	0.061219566
12	0xbe9ccff2	-0.306274
13	0xbb2b95cd	-0.0026181818
14	0xbe6e7a36	-0.23288807
15	0xbe47f6c4	-0.19527727
16	0xbdc6b50b	-0.097025
17	0x3deddde3	0.11614587
18	0x3c56cacd	0.013109875
19	0xbea7f75f	-0.32805917
20	0xbd68fa52	-0.05687935
21	0xbe008be9	-0.12553371
22	0xbe240739	-0.1601838
23	0xbe5ebb27	-0.2175108
24	0x3df65a2b	0.12028917
25	0x3e4f337c	0.20234483
26	0x3e664e06	0.22490701
27	0x3ed3c2c6	0.41359538

VAE.Tokenizer.bias f4 [15, 4]
0	0x3f0324db	0.5122811
1	0xbe9c0b57	-0.30477402
2	0x3ed5fc5b	0.41794094
3	0xbf2733be	-0.6531333
4	0xbee02f34	-0.43786013
5	0x3d1dd627	0.03853431
6	0x3c24fdd8	0.010070287
7	0xbe9a3f69	-0.30126503
8	0x3ea36162	0.31910235
9	0xbecb25c1	-0.3967724
10	0x3e80c63b	0.25151238
11	0x3ef81531	0.48453668
12	0xbe4666c8	-0.19375145
13	0x3ebbac4e	0.36654896
14	0xbdac4b67	-0.08412819
15	0xbef8b01d	-0.48571864
16	0x3eed4fee	0.46350044
17	0xbeb39ee7	-0.3508217
18	0x3ea5c65f	0.32377908
19	0xbe83b72e	-0.25725693
20	0xbea06325	-0.3132564
21	0x3edd719d	0.43250743
22	0x3ef90a7b	0.48640808
23	0x3ea78fb3	0.3272682
24	0xbe966208	-0.29371667
25	0xbe9082f3	-0.28224906
26	0x3ee43bb3	0.44576797
27	0xbf0ee880	-0.55823517
28	0xbe60cb4b	-0.2195255
29	0x3cc59082	0.024116758
30	0xbe7eea9d	-0.24894185
31	0x3e112224	0.1417318
32	0x3e01c952	0.12674454
33	0xbe6e953b	-0.23299114
34	0x3df0035b	0.1171939
35	0x3d96f721	0.07371355
36	0x3e90baee	0.28267616
37	0xbdaaad10	-0.0833379
38	0xbebc3faf	-0.36767337
39	0x3e901d62	0.28147417
40	0xbe5b6334	-0.21424562
41	0xbe8bb551	-0.2728677
42	0x3e1e00d9	0.15430011
43	0xbd92ecc9	-0.071740694
44	0x3e9359fd	0.28779593
45	0x3e0f8955	0.14017232
46	0x3ed05ef4	0.40697443
47	0xbe1214f4	-0.14265805
48	0xbe999307	-0.29994985
49	0xbe2acb8d	-0.16679211
50	0x3e8c3f90	0.27392244
51	0xbeb1fbc5	-0.34762397
52	0x3e5501ef	0.20801519
53	0x3ec0e5af	0.37675235
54	0x3ef5b80e	0.47991985
55	0xbe709a12	-0.23496273
56	0x3d6c4290	0.057680666
57	0x3d8c61c1	0.068545826
58	0x3c4c5674	0.012471784
59	0xbc02f69b	-0.007993366

VAE.Tokenizer.category_embeddings.weight f4 [104, 4]
0	0xbd24bfc0	-0.04022193
1	0xbd2aebe1	-0.041728858
2	0xbe138a61	-0.14408256
3	0xbe0cf465	-0.13765104
4	0xbdab4e30	-0.083645225
5	0xbebbc36f	-0.36672541
6	0xbeb1bb02	-0.34712988
7	0x3f0137ca	0.5047575
8	0x3e832395	0.25613084
9	0x3e43ea2d	0.191323
10	0x3e999677	0.29997608
11	0xbed9eb25	-0.42562214
12	0xbbeb5467	-0.0071816924
13	0x3de14313	0.109991215
14	0xbf0c938d	-0.54912645
15	0xbf58de7b	-0.8471448
16	0x3e1ee670	0.15517592
17	0xbf054965	-0.52065116
18	0x3ecffd0e	0.40622753
19	0xbedb554a	-0.42838508
20	0x3e76c3b6	0.24098095
21	0x3f53cb13	0.8273174
22	0x3d1b0620	0.037847638
23	0xbe424f4e	-0.18975565
24	0xbea07dcd	-0.31345978
25	0xbe1a933c	-0.15095228
26	0x3d2ed325	0.042681832
27	0x3f0a0b25	0.53923255
28	0xbddfec03	-0.109336875
29	0x3e2ecfa8	0.17071402
30	0x3ce41dd0	0.027846247
31	0x3d96c15f	0.07361101
32	0x3ec54135	0.38526312
33	0x3dad288d	0.08455
34	0xbe5b6814	-0.21426421
35	0x3df8ec9e	0.12154506
36	0x3f43e301	0.76518255
37	0xbe674eb5	-0.22588618
38	0x3e9b2200	0.30299377
39	0xbdea2ae4	-0.11433962
40	0xbd2eb6d5	-0.04265483
41	0x3ec9707b	0.39343628
42	0x3db811c6	0.08987765
43	0xbf02a98d	-0.51039964
44	0xbf1d0f4f	-0.61351484
45	0x3e02d641	0.12777044
46	0xbe718617	-0.23586307
47	0xbea7c50e	-0.32767528
48	0xbef594e8	-0.4796517
49	0x3e8109ff	0.2520294
50	0x3d4e5c43	0.050380956
51	0xbf84692f	-1.03446
52	0xbf5967e5	-0.84924155
53	0xbeffdcc0	-0.49973106
54	0x39bd1409	0.00036063817
55	0xbce41ce1	-0.027845802
56	0xbf17856c	-0.5918796
57	0x3e41c08f	0.18921112
58	0xbebd44a0	-0.3696642
59	0xbf141b28	-0.5785394
60	0xbe36a267	-0.17835389
61	0xbe9f796d	-0.31147328
62	0xbf01b0c1	-0.5066033
63	0xbcf49138	-0.029854402
64	0xbe34c85f	-0.1765456
65	0xbf1074e7	-0.5642838
66	0x3e688e1f	0.22710465
67	0x3c1be75d	0.0095156105
68	0xbf503dc0	-0.81344223
69	0x3ef0b79a	0.47015077
70	0x3f379c4d	0.7172287
71	0x3ccc61ce	0.02494898
72	0x3dcbabec	0.09944901
73	0x3e23479f	0.1594529
74	0x3de2cf20	0.11074662
75	0xbf4c594e	-0.7982377
76	0xbe982ee6	-0.2972328
77	0x3ddebb93	0.10875621
78	0x3d5bf737	0.05370256
79	0x3e120443	0.14259438
80	0xbe8f2144	-0.27955067
81	0x3ebcc5c5	0.36869636
82	0xbe862964	-0.26203454
83	0x3f6d5140	0.927021
84	0xbe327965	-0.17429121
85	0x3f2bb846	0.67078054
86	0xbe18a84c	-0.1490795
87	0xbe4b93e5	-0.19880636
88	0xbeb7387d	-0.35785285
89	0xbea3d97a	-0.3200186
90	0x3e891656	0.26774853
91	0x3e67927e	0.22614476
92	0x3e6f5b4a	0.23374668
93	0xbe163f76	-0.14672646
94	0x3ea5604e	0.32300037
95	0x3d8fe0f5	0.07025329
96	0xbe1ec79a	-0.1550583
97	0xbeb5d21f	-0.35511872
98	0xbea45dab	-0.32102713
99	0x3ebc74b1	0.36807778
100	0x3d8e9e54	0.069637924
101	0xbdf54569	-0.119761296
102	0xbe5963cd	-0.21229477
103	0x3e863601	0.26213077
104	0x3e741c31	0.23838879
105	0x3bf327ec	0.0074205305
106	0xbed7310c	-0.42029607
107	0xbeec206a	-0.4611848
108	0x3eb298c0	0.34882164
109	0xbdb8390d	-0.089952566
110	0x3e9aee2c	0.30259836
111	0xbf1ac0c8	-0.6045041
112	0xbe822d8f	-0.25425383
113	0x3f20f68c	0.628762
114	0x3ebe3d60	0.371562
115	0xbe5f2a24	-0.21793419
116	0x3e956229	0.29176453
117	0xbee6a60c	-0.4504856
118	0xbe1f9eeb	-0.15587966
119	0x3d9ec9a6	0.07753305
120	0x3b5d7237	0.0033790001
121	0xbeb50fb0	-0.3536353
122	0x3eaefc57	0.34176895
123	0x3eba3bda	0.36373788
124	0xbeb471bc	-0.35243022
125	0x3e08d906	0.13364038
126	0xbc84f872	-0.01623175
127	0x3edae4e2	0.4275275
128	0xbdcb41e3	-0.09924676
129	0x3f284b5d	0.65739995
130	0x3eca36a3	0.3949481
131	0xbf13b416	-0.57696664
132	0xbdfba311	-0.12286962
133	0xbe15d9f6	-0.14633927
134	0x3f2a7f6c	0.6660068
135	0xbf16db90	-0.58928776
136	0x3e9f1f3b	0.31078514
137	0xbebe0c62	-0.37118822
138	0x3dbb1efd	0.0913677
139	0x3e600263	0.2187591
140	0xbf2bdb29	-0.67131287
141	0x3e7bd7bd	0.24594016
142	0xbeaaf1c9	-0.33387592
143	0x3ed41666	0.4142334
144	0xbd99942b	-0.07498964
145	0x3e1cb782	0.15304378
146	0x3d460da1	0.04835284
147	0xbe2b487f	-0.16726874
148	0x3f109228	0.56473017
149	0x3e36dad5	0.17856915
150	0xbeb6872f	-0.35650012
151	0x3e2f14ab	0.17097728
152	0xbdb9a62e	-0.090648994
153	0x3e51f0a1	0.20501949
154	0x3d316543	0.04330946
155	0xbf5beed0	-0.85911274
156	0xbe4d3f8c	-0.20043772
157	0x3e9cdfaa	0.30639392
158	0xbeadcc3a	-0.33944875
159	0xbed48780	-0.41509628
160	0x3ecaef7a	0.3963583
161	0xbe8d01f7	-0.27540562
162	0x3f0220c1	0.5083123
163	0x3e0368ce	0.12832949
164	0xbd85cc15	-0.06533066
165	0xbd79b89b	-0.06096707
166	0x3e8ac007	0.2709963
167	0x3f481c78	0.7816844
168	0xbd72a720	-0.059241414
169	0x3e858d20	0.26084232
170	0xbe3d0a4b	-0.18460958
171	0xbf3a7635	-0.7283662
172	0xbf2918a8	-0.6605325
173	0x3e9645f9	0.2935026
174	0x3e827061	0.25476363
175	0xbe8cef93	-0.2752653
176	0xbe0322ba	-0.12806216
177	0xbe1b1a20	-0.15146685
178	0x3e776537	0.24159704
179	0xbb06ba88	-0.0020557959
180	0xbf86276e	-1.0480783
181	0x3d849cd5	0.06475226
182	0x3eb131c4	0.3460828
183	0xbeed51de	-0.46351522
184	0x3e9562bb	0.29176888
185	0x3e8b7bfe	0.27243036
186	0xbea0084f	-0.3125634
187	0x3f175ee8	0.5912919
188	0xbecc65bd	-0.3992137
189	0xbe900445	-0.28128257
190	0x3e705982	0.23471645
191	0x3e56d05e	0.20977923
192	0x3efd76a5	0.4950458
193	0xbe900312	-0.28127342
194	0xbe88efc7	-0.26745436
195	0xbe56e21d	-0.20984693
196	0xbeabb5c3	-0.3353711
197	0xbe962b02	-0.29329687
198	0x3e087d84	0.1332913
199	0x3f15b448	0.5847821
200	0xbde68c9e	-0.11257289
201	0x3e28ea1a	0.16495553
202	0xbe6b6e64	-0.2299133
203	0x3da4ac5c	0.080406874
204	0x3df2b658	0.118511856
205	0x3f405253	0.75125617
206	0xbea32a83	-0.3186837
207	0xbc684805	-0.014177327
208	0x3ce81c06	0.028333675
209	0xbe30e868	-0.17276156
210	0x3d4e33ef	0.050342496
211	0x3e857557	0.26066086
212	0x3f197d13	0.59956473
213	0xbf15cdcc	-0.58517146
214	0xbf5b0dcc	-0.8556793
215	0x3ede342e	0.43399185
216	0xbd1200d7	-0.035645332
217	0x3e063ac5	0.13108356
218	0x3e8563f7	0.2605283
219	0xbf2ed4c3	-0.682934
220	0xbd436af4	-0.04770942
221	0x3eb8cd62	0.36094195
222	0xbc2efc46	-0.010680264
223	0x3e57ef7c	0.2108745
224	0x3b71b626	0.003688225
225	0xbe95e780	-0.29278183
226	0x3deca067	0.11554032
227	0x3f1426aa	0.57871497
228	0xbe20809d	-0.15674062
229	0xbdf72e76	-0.120694086
230	0xbeb478dd	-0.3524846
231	0xbebd8f73	-0.37023506
232	0xbef66150	-0.4812112
233	0x3c857ff2	0.01629636
234	0x3d028a3c	0.03187011
235	0x3f607a84	0.87686944
236	0x3d1ddd76	0.03854128
237	0xbdb749b8	-0.089496076
238	0x3e2d2223	0.16907553
239	0xbdf3493c	-0.11879203
240	0x3bd1280b	0.0063829473
241	0xbe19f2fe	-0.150341
242	0xbb7a1484	-0.00381592
243	0xbe7ce6a2	-0.24697354
244	0xbdb395df	-0.0876882
245	0xbe8a7c8e	-0.27048153
246	0x3ec5bfec	0.38622987
247	0x3ec22b7e	0.37923807
248	0xbec9b7fb	-0.39398178
249	0xbe4ef9fe	-0.20212552
250	0xbee9aa30	-0.45637655
251	0x3ea68a6a	0.32527477
252	0xbe7d75d5	-0.2475198
253	0x3f66e34c	0.9019058
254	0xbe66ff04	-0.22558218
255	0xbf2b7bca	-0.6698576

VAE.encoder_mu.layers.0.attention.W_q.weight f4 [4, 4]
0	0xbf0728ef	-0.52796835
1	0x3e3af163	0.18256144
2	0xbefd5d30	-0.4948516
3	0xbf04dcc4	-0.5189936
4	0x3f156379	0.5835491
5	0x3ee8f894	0.4550215
6	0x3ecacfe3	0.3961173
7	0xbe7aca67	-0.24491273
8	0xbeeca5a1	-0.46220115
9	0x3e7e586c	0.24838418
10	0x3e905d62	0.28196245
11	0xbf0c33fc	-0.5476682
12	0xbe54e36d	-0.20789881
13	0xbe8fc184	-0.28077328
14	0xbd0de219	-0.03463945
15	0xbe7c0aea	-0.24613538

VAE.encoder_mu.layers.0.attention.W_q.bias f4 [4]
0	0x3e663611	0.22481562
1	0x3de5b064	0.112152845
2	0x3cb6746f	0.022272317
3	0x3c437fd0	0.011932328

VAE.encoder_mu.layers.0.attention.W_k.weight f4 [4, 4]
0	0x3d28cd6e	0.041211538
1	0xbf02d251	-0.5110217
2	0x3ebc4dd9	0.36778143
3	0x3dfc2a4d	0.12312756
4	0x3eccf831	0.40033105
5	0x3ee8b825	0.4545299
6	0x3ebd3b30	0.3695922
7	0xbf1160da	-0.5678841
8	0x3ef7296d	0.48273793
9	0x3eb0e298	0.34547877
10	0x3f01e5ed	0.50741464
11	0x3ddd09e4	0.10792902
12	0xbdd5243f	-0.10407304
13	0x3e83adf0	0.2571864
14	0x3cfc61c6	0.03080834
15	0xbe6db0ff	-0.2321205

VAE.encoder_mu.layers.0.attention.W_k.bias f4 [4]
0	0xb7c9c159	-2.4051102e-05
1	0x398100f5	0.0002460551
2	0xb8e0a9b4	-0.00010712762
3	0x38ff066b	0.00012160543

VAE.encoder_mu.layers.0.attention.W_v.weight f4 [4, 4]
0	0xbd1a084a	-0.03760556
1	0x3d926f89	0.0715018
2	0xbd97eead	-0.07418571
3	0xbd0b2885	-0.03397419
4	0xbb3b254a	-0.0028556162
5	0xbae56dcc	-0.0017504035
6	0x3c944e62	0.018103782
7	0xbd36037f	-0.044436928
8	0xbc95f7da	-0.018306661
9	0x3cbff374	0.023431517
10	0xbb65119a	-0.0034953118
11	0xbd245cfc	-0.04012774
12	0xbd209a4a	-0.03920964
13	0x3d633c94	0.055477694
14	0xbd669b4a	-0.05630044
15	0xbc948ac1	-0.01813257

VAE.encoder_mu.layers.0.attention.W_v.bias f4 [4]
0	0xbd1e6f4a	-0.038680352
1	0x3bd4cea8	0.006494362
2	0x3d8007b9	0.06251473
3	0x3b7e8901	0.0038838985

VAE.encoder_mu.layers.0.linear0.weight f4 [128, 4]
0	0xbe3a822f	-0.18213724
1	0xbe127089	-0.14300741
2	0xbe8633d3	-0.26211414
3	0x3ee11778	0.43963218
4	0xbeb41baa	-0.35177356
5	0xbec472ee	-0.38368934
6	0x3d597464	0.053089514
7	0x3ea554db	0.32291302
8	0x3f04014f	0.51564497
9	0x3ea7fb71	0.32809022
10	0x3ed1cf7b	0.40978608
11	0x3e4e9711	0.20174815
12	0xbd07cea8	-0.033156067
13	0x3e1db515	0.15401109
14	0x3eb2ba43	0.3490773
15	0xbe6bd38c	-0.23029917
16	0xbf014691	-0.504983
17	0xbe33e325	-0.17567118
18	0x3d2a78fb	0.041619282
19	0xbef3863a	-0.47563344
20	0xbe850721	-0.25982
21	0x3edb503f	0.4283466
22	0x3eadd470	0.3395114
23	0xbeeac773	-0.45855293
24	0x3eeeb19a	0.46619874
25	0x3e167376	0.14692482
26	0xbeb98c87	-0.36240026
27	0x3ea6c9c5	0.32575813
28	0xbe45e4eb	-0.19325607
29	0xbe325cfa	-0.1741828
30	0xbe3a6fcf	-0.18206714
31	0x3eee0dd8	0.46494937
32	0xbee2c2d2	-0.4428926
33	0xbe263aab	-0.16233318
34	0x3e57338e	0.2101576
35	0x3e4bdfbc	0.19909567
36	0xbea56c90	-0.3230939
37	0xbd40fede	-0.04711806
38	0x3ef1d7c4	0.4723493
39	0xbea23932	-0.31684262
40	0xbea3a846	-0.3196432
41	0x3f1f40c9	0.6220823
42	0xbf1e57f1	-0.6185294
43	0xbd9f710e	-0.07785235
44	0x3e595483	0.21223645
45	0xbe0f5246	-0.13996229
46	0xbeb80ec0	-0.35948753
47	0x3e1562c1	0.14588453
48	0xbdb3d7ba	-0.08781381
49	0xbc428a27	-0.011873758
50	0xbea8008c	-0.32812917
51	0xbf069cad	-0.5258282
52	0xbe1554c1	-0.14583112
53	0xbed7d1d1	-0.42152265
54	0x3cc1aa2d	0.023640716
55	0x3eac6ea5	0.33678165
56	0xbe0aa01e	-0.13537642
57	0x3ed35b8a	0.41280776
58	0xbf0129dc	-0.504545
59	0x3e90bc62	0.28268725
60	0x3de69248	0.1125837
61	0x3e5593fc	0.20857233
62	0x3ecc80a0	0.39941883
63	0xbe9f2bb0	-0.31088018
64	0xbeb1092a	-0.34577304
65	0xbe48af00	-0.19598007
66	0xbeb0cd20	-0.34531498
67	0xbe9e81b2	-0.30958325
68	0x3e06c2f0	0.131603
69	0x3ec4e4fa	0.38455945
70	0x3e97157e	0.29508585
71	0xbd964f90	-0.07339394
72	0xbeac4b80	-0.33651352
73	0x3f011260	0.50418663
74	0x3e5738b2	0.21017721
75	0xbe060746	-0.13088712
76	0x3e8e7bbc	0.27828777
77	0x3e91979d	0.28435984
78	0xbe0c733d	-0.13715835
79	0xbe94055e	-0.28910345
80	0xbef58455	-0.47952524
81	0xbed79199	-0.4210327
82	0xbe84d502	-0.25943762
83	0x3ecf6408	0.40506005
84	0x3eaeb6c8	0.34123826
85	0xbecfebaf	-0.406095
86	0xbecdf062	-0.4022246
87	0xbd8bfaf5	-0.06834976
88	0xbc65ba1b	-0.014021422
89	0x3ec6d7ff	0.38836667
90	0x3e0d03ba	0.13770953
91	0xbee73eab	-0.45165
92	0xbf03104a	-0.5119673
93	0x3ec270db	0.37976727
94	0x3e4934de	0.19649073
95	0x3ea6aed6	0.32555264
96	0xbe438517	-0.19093738
97	0xbeb45a2b	-0.35225043
98	0x3db371b2	0.0876192
99	0xbdf36c06	-0.11885838
100	0xbeca3b8f	-0.39498565
101	0x3eff5928	0.49872708
102	0x3e3c8c7d	0.18412967
103	0xbe9c43ba	-0.3052042
104	0xbedc4b45	-0.43026176
105	0x3e16f821	0.14743091
106	0x3efd028e	0.49416012
107	0x3e84d3a5	0.25942722
108	0xbef67d03	-0.4814225
109	0x3ec465e9	0.38359
110	0xbe05ca3d	-0.13065429
111	0x3e20086c	0.15628213
112	0xbea54e84	-0.32286465
113	0xbed9358f	-0.42423674
114	0xbb3f4c84	-0.0029189894
115	0xbdf1264f	-0.11774885
116	0x3e93a6d3	0.28838214
117	0x3d7b408d	0.061340857
118	0x3e7bac17	0.24577366
119	0x3e4d7cf3	0.20067196
120	0xbdc9310f	-0.0982381
121	0x3d3839ba	0.044976927
122	0xbef69692	-0.4816175
123	0x3e0c50e0	0.13702726
124	0xbeb698c8	-0.35663438
125	0xbea9a1ce	-0.3313126
126	0x3caea9d8	0.021321222
127	0x3d8a412d	0.067507125
128	0x3dcfb32c	0.10141596
129	0x3e0b77d5	0.13619931
130	0x3efc6acc	0.4930023
131	0x3e09501b	0.13409464
132	0x3e40e8f6	0.18838868
133	0xbd63b750	-0.055594742
134	0x3e22f978	0.15915477
135	0x3e34b78f	0.17648147
136	0x3ee788f8	0.45221686
137	0x3f111943	0.5667917
138	0xbe944dad	-0.28965512
139	0xbea3833d	-0.31936064
140	0x3ea8766f	0.32902858
141	0x3dfbbee6	0.1229227
142	0x3f05ca5e	0.5226191
143	0xbe98a4c7	-0.29813215
144	0x3e30e2b7	0.17273985
145	0xbe64bc27	-0.223374
146	0xbec90087	-0.39258215
147	0xbee41aff	-0.44551846
148	0xbe9d248d	-0.3069195
149	0x3ebfa8d6	0.374335
150	0xbe3992ff	-0.18122481
151	0x3e4e6b44	0.20158106
152	0xbe1e5a5c	-0.15464157
153	0xbe27d2b1	-0.16388966
154	0x3dee1a66	0.11626129
155	0x3ebadc16	0.36496037
156	0xbe87ec87	-0.26547644
157	0xbdfadcb2	-0.122491255
158	0x3d7fa512	0.062413283
159	0x3eb57a34	0.35444796
160	0xbe98c901	-0.29840854
161	0x3e48fcf4	0.19627744
162	0x3d150b09	0.036387477
163	0x3e8ad46d	0.27115193
164	0xbec5a657	-0.3860347
165	0x3ea4e634	0.3220688
166	0x3c8dfe1a	0.01733308
167	0xbd4661cf	-0.04843312
168	0xbd1a4c05	-0.037670154
169	0x3e81b288	0.2533152
170	0x3eef5696	0.46745747
171	0x3ee10f75	0.43957105
172	0x3d062d98	0.032758325
173	0xbe150915	-0.14554246
174	0xbea44feb	-0.32092223
175	0xbd373c42	-0.0447352
176	0x3e85bb6c	0.26119554
177	0xbd0d494b	-0.034493726
178	0x3e77781f	0.24166916
179	0xbe4e4c95	-0.20146401
180	0xbe89f56e	-0.2694506
181	0xbe30cd41	-0.17265798
182	0xbe5fc5c3	-0.21852784
183	0x3e981bdf	0.29708764
184	0xbd60ace6	-0.05485239
185	0x3e8cad6f	0.2747607
186	0x3dd1feec	0.102537006
187	0x3e7d957d	0.24764057
188	0xbd946124	-0.072450906
189	0xbe10e0ff	-0.14148329
190	0x3ea7b0bd	0.32752028
191	0x3eb2864e	0.3486809
192	0xba1d1832	-0.000599268
193	0x3e844466	0.25833434
194	0xbf631e6d	-0.887183
195	0xbe9d2306	-0.30690783
196	0x3ed4b80e	0.41546673
197	0x3e17f062	0.14837793
198	0x3e6230a6	0.2208887
199	0x3e3186d2	0.17336586
200	0x3f18abe2	0.5963727
201	0xbd61921e	-0.05507099
202	0x3ec0680f	0.3757939
203	0xbd1672a0	-0.03673041
204	0xbe746b9d	-0.23869176
205	0xbe986db9	-0.29771212
206	0xbe874283	-0.26417932
207	0x3e2e1586	0.17000398
208	0xbe48684d	-0.19571038
209	0x3cda264e	0.026629593
210	0xbe7580fa	-0.23974982
211	0xbd8b9703	-0.068159126
212	0xbe6d9e75	-0.23204978
213	0x3d126518	0.03574094
214	0x3ee5b11b	0.44861683
215	0x3e01806f	0.1264665
216	0x3e9cf675	0.30656782
217	0x3eb5b23b	0.35487542
218	0x3df471fe	0.11935805
219	0xbe32b8a1	-0.17453243
220	0xbea0061d	-0.31254664
221	0xbddd968c	-0.1081973
222	0xbe074e22	-0.13213399
223	0xbea395b7	-0.3195016
224	0x3da5c0a8	0.08093387
225	0xbe85fb6d	-0.26168385
226	0x3eae20a7	0.34009287
227	0xbc92855f	-0.017885862
228	0x3e00c1be	0.12573907
229	0x3f084a47	0.5323834
230	0x3e8cc540	0.2749424
231	0x3e74a59d	0.23891301
232	0xbdf9922f	-0.121860854
233	0xbef3ce79	-0.47618464
234	0xbd9d8a8d	-0.07692442
235	0xbe8c964c	-0.27458417
236	0x3ce3ad28	0.027792528
237	0x3db74aa6	0.08949785
238	0xbee65d88	-0.44993234
239	0xbe531dff	-0.20616911
240	0xbe9f12f3	-0.31069145
241	0xbecd5677	-0.4010503
242	0x3e262055	0.16223271
243	0xbe870ae1	-0.26375487
244	0x3e2234b8	0.15840423
245	0x3d6a4ebb	0.05720399
246	0xbe591d15	-0.212025
247	0xbda5b320	-0.08090806
248	0xbddf1c92	-0.10894121
249	0x3e7daf97	0.24774013
250	0xbe44edb3	-0.192313
251	0xbc30ac26	-0.010783231
252	0x3f1f54ed	0.6223896
253	0x3dc283cf	0.09497797
254	0xbf025f91	-0.5092707
255	0x3edd322b	0.43202338

VAE.encoder_mu.layers.0.linear0.bias f4 [128]
0	0xbe9635b9	-0.29337862
1	0xbeeaec18	-0.4588325
2	0x3e945902	0.28974158
3	0xbdb022b8	-0.08600372
4	0x3e4ce8a4	0.2001062
5	0x3da9a145	0.08282713
6	0xbef19d69	-0.47190407
7	0xbd549e31	-0.051908676
8	0xbe189d83	-0.14903836
9	0xbd101bbe	-0.035182707
10	0xbe90fd2c	-0.28318155
11	0x3ee7feaf	0.45311496
12	0xbd3aad93	-0.04557569
13	0x3ea79f69	0.32738808
14	0x3ede52d8	0.4342258
15	0x3c01e67d	0.007928488
16	0xbebcc98c	-0.36872518
17	0xbdcaef16	-0.09908883
18	0xbeb9cdae	-0.36289734
19	0x3e61a884	0.2203694
20	0x3e0b4a7e	0.13602635
21	0xbebaaeed	-0.36461583
22	0x3e3b8063	0.18310694
23	0xbeb80fdf	-0.3594961
24	0xbecfca2b	-0.4058393
25	0xbe5ea33c	-0.21741956
26	0xbec9c23a	-0.39405996
27	0x3ee79905	0.45233932
28	0xbddb500d	-0.10708628
29	0x3efd97d5	0.495299
30	0x3e8c9b0a	0.27462035
31	0xbd881350	-0.066443086
32	0xbdf16339	-0.11786503
33	0x3e335005	0.17510994
34	0xbe3bf82e	-0.18356392
35	0xbe997d2b	-0.29978308
36	0x3e5c8f39	0.2153901
37	0x3bc519e2	0.0060150484
38	0x3efab051	0.48962644
39	0xbea8e542	-0.3298741
40	0x3ec55582	0.385418
41	0xbe117384	-0.14204222
42	0x3e8ba42e	0.27273697
43	0x3e9ffd73	0.31248054
44	0x3e41a1b1	0.18909337
45	0x3e40dcfc	0.18834299
46	0xbdc9a5ae	-0.09846054
47	0x3d907fee	0.07055651
48	0xbee6bce7	-0.45065996
49	0x3dd718be	0.10502766
50	0xbeab6f8b	-0.33483538
51	0x3e23c197	0.15991817
52	0xbdc31da3	-0.09527137
53	0xbdab215e	-0.08355974
54	0xbc43809d	-0.011932519
55	0xbde27f95	-0.110594906
56	0x3ec0aec3	0.37633333
57	0x3e42b950	0.19016004
58	0x3e34fe87	0.1767522
59	0x3e4c5459	0.19954051
60	0x3b6de965	0.0036302444
61	0x3eb23695	0.34807268
62	0xbe09540e	-0.1341097
63	0xbe5f7fcc	-0.21826094
64	0xbed84be4	-0.422454
65	0xbea14520	-0.3149805
66	0xbf0096fd	-0.5023039
67	0xbe93afbc	-0.28845012
68	0xbeac634f	-0.33669516
69	0xbd60a147	-0.054841306
70	0x3ec1aaa5	0.37825504
71	0xbf152f88	-0.5827565
72	0x3f058575	0.52156764
73	0xbec61622	-0.3868876
74	0xbd9b9cea	-0.07598288
75	0x3ec814c0	0.3907833
76	0x3ecf4ad8	0.4048679
77	0x3d939603	0.07206347
78	0xbeca9ab2	-0.39571148
79	0x3ece6230	0.40309286
80	0x3d3fa79d	0.046790708
81	0x3e841caa	0.2580312
82	0xbd93e882	-0.07222082
83	0x3e8d8c2e	0.2764601
84	0xbe80b7be	-0.25140184
85	0xbee8a7f8	-0.4544065
86	0x3ef961da	0.48707467
87	0xbe1c279a	-0.15249482
88	0xbef2be16	-0.4741065
89	0x3eaae4ce	0.3337769
90	0x3ede880c	0.4346317
91	0x3eb80fd2	0.3594957
92	0x3dcd9b3f	0.100393765
93	0x3ef57937	0.47944042
94	0x3e8324b7	0.2561395
95	0xbf0f8b93	-0.5607235
96	0xbedd3aaf	-0.43208835
97	0x3e16b222	0.1471639
98	0xbe88bc5b	-0.26706204
99	0x3e2d1f5f	0.16906498
100	0x3b9f9f1f	0.0048712636
101	0xbe988f29	-0.29796723
102	0x3d7f052c	0.06226079
103	0x3ef746ef	0.48296306
104	0xbe79cc1e	-0.24394271
105	0xbe65f206	-0.22455606
106	0xbedd8540	-0.43265724
107	0x3e926210	0.2859044
108	0xbccda08c	-0.025100969
109	0x3e44b49c	0.19209522
110	0xbe4bdf28	-0.19909346
111	0xbe5ec37e	-0.21754262
112	0xbd1e377c	-0.038627133
113	0x3ef3be60	0.47606182
114	0xbcaeb402	-0.021326069
115	0x3df5ef7f	0.12008571
116	0xbf007bb2	-0.50188744
117	0xbe041de7	-0.12902032
118	0x3d46d0b1	0.048538867
119	0x3ec5f0cf	0.38660285
120	0x3e03948b	0.12849633
121	0xbed22bcb	-0.41049036
122	0x3e567d5d	0.2094626
123	0x3d7c16f8	0.061545342
124	0x3c8678af	0.016414968
125	0x3e68d442	0.2273722
126	0x3eecf3dc	0.462798
127	0x3d9dd239	0.077061124

VAE.encoder_mu.layers.0.linear1.weight f4 [4, 128]
0	0xb9a6ce00	-0.0003181547
1	0xbced15f9	-0.028941141
2	0x3d9bcd41	0.076075085
3	0x3d42a129	0.047516976
4	0x3d9fb43d	0.077980496
5	0xbd1bb70a	-0.038016357
6	0x3da8e703	0.08247187
7	0x3da60b83	0.081076644
8	0xbdfc15d2	-0.123088494
9	0xbb9dc373	-0.004814559
10	0xbec720e0	-0.3889227
11	0x3d0beb84	0.034160152
12	0xbe2265bb	-0.1585912
13	0xbd922e15	-0.07137696
14	0xbd39f890	-0.045403063
15	0x3db9e3a0	0.09076619
16	0xbdb12cd5	-0.08651129
17	0x3d8e3bb9	0.06944985
18	0xbcbde59f	-0.023180781
19	0xbda883c0	-0.08228254
20	0xbb4bd943	-0.003110484
21	0x3a75c2e2	0.0009375048
22	0xbb953ced	-0.004554382
23	0x3d050752	0.032477684
24	0xbcccc51a	-0.02499633
25	0xbdad2ac5	-0.08455423
26	0x3d2a8bd6	0.041637264
27	0x3d7299e6	0.0592288
28	0x3cab1d29	0.020887928
29	0xbce9e53d	-0.028551692
30	0x3d8e5d3f	0.06951379
31	0xbd89e591	-0.067332394
32	0x3d168c6b	0.036755007
33	0xbca0c6c6	-0.019626033
34	0xbe12d1bd	-0.14337821
35	0x3e114b40	0.14188862
36	0xbd261241	-0.040544752
37	0x3c8c6346	0.017137181
38	0xbd93eae1	-0.07222534
39	0x3d2d0dfa	0.042249657
40	0x3d87543f	0.066078655
41	0xbdaf987e	-0.085740075
42	0xbb7cf5d3	-0.003859867
43	0x3c4012a9	0.011723199
44	0x3db25beb	0.08708938
45	0xbc52b8e5	-0.012861465
46	0xbd795e96	-0.06088122
47	0x3d30113b	0.042985182
48	0xbe2b6a56	-0.16739783
49	0xbce990a8	-0.02851136
50	0xbd08e6bf	-0.03342318
51	0x3d90b31e	0.07065414
52	0xbde18374	-0.11011401
53	0xbce460d0	-0.027878195
54	0x3cd2f57b	0.02575182
55	0x3cf94b42	0.030431394
56	0xbd4ebedb	-0.050474983
57	0xbdcf28d5	-0.1011521
58	0xbc9c73b2	-0.019098137
59	0xbdbc3559	-0.09189863
60	0xbbd6ce38	-0.006555345
61	0xbd1c5d93	-0.038175177
62	0xbe795ca0	-0.2435174
63	0x3e61c87b	0.22049133
64	0xbbe0ae8a	-0.006856744
65	0x3c8c9504	0.0171609
66	0x3d8f4beb	0.06996902
67	0xbdc243c0	-0.094855785
68	0xbec668b5	-0.3875176
69	0xbda13377	-0.07871144
70	0x3d229d8f	0.03970104
71	0xbcd57c27	-0.026060177
72	0xbda09967	-0.07841759
73	0x3c8efd1e	0.01745468
74	0xbd8dcf31	-0.06924284
75	0xbd9f5be3	-0.07781198
76	0x3d272876	0.04081007
77	0xbda49338	-0.08035892
78	0x3d4feaa3	0.050760876
79	0x3d8fbe02	0.07018663
80	0xbc96b5d8	-0.018397257
81	0x3d825508	0.06363875
82	0xbd874c87	-0.06606393
83	0xbd551c2b	-0.052028816
84	0xbdab1214	-0.083530575
85	0xbbf17d31	-0.0073696603
86	0xbc569803	-0.013097766
87	0xbd98ddc9	-0.07464177
88	0xbcc0d0d5	-0.023537079
89	0x3da3fb61	0.08006931
90	0xbda5d174	-0.08096591
91	0xbccbbe71	-0.024871083
92	0xbe1149b6	-0.14188275
93	0xbd8f7e40	-0.07006502
94	0xbd4ba1fd	-0.04971503
95	0x3cb459b1	0.022015424
96	0xbe09176a	-0.13387838
97	0xbcf9ff8e	-0.030517366
98	0xbe8ccd76	-0.27500504
99	0x3cb54046	0.022125375
100	0x3d085ed7	0.03329357
101	0xbdbf9580	-0.09354687
102	0x3dc37d08	0.09545332
103	0xbdc8a4b5	-0.097970404
104	0x3d82171f	0.06352066
105	0x3d8e9611	0.06962217
106	0x3ccb9414	0.024850883
107	0xbd996d9c	-0.074916095
108	0xbc70170e	-0.014653934
109	0x3cbde93a	0.0231825
110	0x3dba7333	0.09104004
111	0x3bd38004	0.0064544696
112	0x3d7a0311	0.06103808
113	0x3c3ade7d	0.011405584
114	0x3d20b897	0.03923854
115	0xbe32674d	-0.17422219
116	0xbe575769	-0.21029438
117	0x3b1dad33	0.0024059534
118	0x3d2d36ba	0.04228852
119	0x3d87b988	0.06627184
120	0xbcf06ae2	-0.02934784
121	0x3d6cac05	0.057781238
122	0x3d5e0b55	0.054210026
123	0xbe25211b	-0.1612591
124	0xbe19cf96	-0.15020594
125	0xbd4dfd17	-0.050290193
126	0xbd9c20c3	-0.07623436
127	0x3d074c16	0.033031546
128	0x3d440ea4	0.047865525
129	0x3e272faa	0.16326776
130	0x3d563e2e	0.052305393
131	0xbdcf335f	-0.1011722
132	0x3bc6dbf6	0.006068702
133	0x3bde2680	0.006779492
134	0xbcf0bf4e	-0.029388096
135	0xbc9ff894	-0.019527711
136	0x3d33de25	0.043913025
137	0xbd4fc43a	-0.050724246
138	0xbe9544af	-0.29153964
139	0x3c6e36aa	0.0145394
140	0xbe3043fc	-0.17213434
141	0x3d9197e9	0.07109053
142	0x3cff723d	0.031182403
143	0x3d1c3db5	0.038144786
144	0x3d5d5ccc	0.054043576
145	0x3d4367e8	0.047706515
146	0x3e0d3b59	0.1379217
147	0x3d0a7df8	0.03381154
148	0x3ce83be5	0.028348872
149	0x3c7aca95	0.015307088
150	0x3ca9140f	0.020639447
151	0x3e55a522	0.20863774
152	0xbc98c376	-0.01864789
153	0x3cfb5748	0.030681267
154	0x3d3a2810	0.045448363
155	0x3d853028	0.06503326
156	0xbcee2e19	-0.029074715
157	0x3db2a551	0.08722938
158	0x3d4ee479	0.050510857
159	0xbd1a0434	-0.037601665
160	0x3d9c0372	0.07617845
161	0x3d030fd8	0.03199753
162	0xbdc702a6	-0.09717302
163	0x3d2b1812	0.041771002
164	0xbc9f5d30	-0.019453615
165	0x3cea595e	0.028607067
166	0x3d84bbea	0.06481154
167	0x3e10f75b	0.14156859
168	0xbd44750d	-0.04796319
169	0x3e27326d	0.1632783
170	0x3de5eb9b	0.11226579
171	0xbc0b7a6b	-0.008513073
172	0x3d1ae942	0.03782011
173	0xbceb4143	-0.028717643
174	0x3e86b581	0.26310351
175	0xbd071fd0	-0.032989323
176	0x3e5e599f	0.21713875
177	0x3d3bddff	0.04586601
178	0xba274c94	-0.00063819555
179	0x3dbbcfc2	0.09170486
180	0x3cc8c340	0.024507165
181	0x3d653cb6	0.0559661
182	0xbd88b495	-0.06675068
183	0x3c292e98	0.01032605
184	0xbc973b6e	-0.018460955
185	0xbcd42b98	-0.025899693
186	0xbc0abb57	-0.008467517
187	0xbe0be7e7	-0.13662682
188	0x3da6b858	0.081406295
189	0xbdce7783	-0.10081389
190	0xbdabc8c8	-0.08387905
191	0xbeb3fbdc	-0.3515309
192	0x3eef4f52	0.46740204
193	0x3dd163ae	0.102240905
194	0xbd8b2e67	-0.0679596
195	0x3e2a3439	0.16621484
196	0xbe6a9575	-0.22908576
197	0x3d64f0bc	0.055893645
198	0xbd8db3ff	-0.06919097
199	0x3eb4363c	0.35197628
200	0xbd097fb0	-0.033569038
201	0xbdf8a060	-0.12139964
202	0xbcb63ecc	-0.02224674
203	0x3c0bc942	0.00853187
204	0x3b1c2da5	0.0023830917
205	0x3d379ae4	0.04482545
206	0xbd1a078d	-0.037604857
207	0x3db48e02	0.08816148
208	0x3c8a8abe	0.01691186
209	0xbcd7715e	-0.026299175
210	0xbcc852e9	-0.024453597
211	0x3ddebb85	0.1087561
212	0xbb616c79	-0.003439693
213	0x3db8ce33	0.090237044
214	0xbd29d5ae	-0.041463546
215	0x3e0276a2	0.12740567
216	0x3d1a801b	0.037719827
217	0xbcc938a7	-0.024563147
218	0x3d98a839	0.07453961
219	0x3be430eb	0.0069638393
220	0x3d89e7d5	0.067336716
221	0xbd3bb3f8	-0.04582593
222	0x3d974607	0.073864035
223	0x3cc6df9a	0.024276543
224	0xbcb728e4	-0.022358365
225	0xbd80bd1a	-0.06286068
226	0xbe3d251e	-0.1847119
227	0xbd47009f	-0.048584577
228	0x3de16dd1	0.11007274
229	0x3d79cc42	0.06098581
230	0xbcb4b70c	-0.02205994
231	0xbd14491a	-0.036202528
232	0xbc6d7c36	-0.014494946
233	0x3dcc6be8	0.09981519
234	0x3dffb60c	0.124858946
235	0xbd912d1e	-0.070886835
236	0x3ddd82ae	0.10815941
237	0x3d92a1db	0.07159778
238	0x3d90465c	0.0704467
239	0x3cb13be5	0.021635005
240	0x3c20ac58	0.009806715
241	0x3d68130c	0.05665879
242	0xbd52bc06	-0.051448844
243	0x3dc9354e	0.0982462
244	0x3ee11b3f	0.439661
245	0x3d9b26fd	0.07575796
246	0xbd53bce3	-0.05169381
247	0x3d34892b	0.044076126
248	0xbb858ced	-0.0040756376
249	0xbb315db0	-0.0027063899
250	0x3c93b807	0.018032087
251	0xbd2f4fba	-0.042800643
252	0x3e0a4669	0.13503422
253	0xbdca6bde	-0.09883855
254	0xbd860423	-0.06543758
255	0x3c8b0d51	0.016974123

VAE.encoder_mu.layers.0.linear1.bias f4 [4]
0	0xbd03b63c	-0.032156214
1	0x3d903d46	0.07042937
2	0xbd4a7e27	-0.049436715
3	0xbc13533a	-0.008992011

VAE.encoder_mu.layers.0.norm1.weight f4 [4]
0	0x3f93b478	1.153945
1	0x3f8df0ef	1.1089152
2	0x3f8fd033	1.1235412
3	0x3f8731ed	1.0562111

VAE.encoder_mu.layers.0.norm1.bias f4 [4]
0	0xbd13e61e	-0.03610813
1	0xbc0701f6	-0.008240214
2	0x3cc95080	0.024574518
3	0xbc6a92b7	-0.014317206

VAE.encoder_mu.layers.1.attention.W_q.weight f4 [4, 4]
0	0xbecb05e0	-0.3965292
1	0x3e2bdf72	0.16784456
2	0xbd59bdad	-0.053159405
3	0xbdce01c1	-0.10058928
4	0x3c0d8201	0.008636952
5	0xbeb6349c	-0.35587013
6	0x3ef8ec05	0.4861757
7	0x3e43f675	0.19136985
8	0x3d754671	0.05988163
9	0x3ebd44ed	0.3696665
10	0xbc265ada	-0.010153497
11	0xbe20cf22	-0.15704015
12	0xbd946545	-0.07245878
13	0xbea27ef2	-0.31737477
14	0xbeaf0b4c	-0.34188306
15	0x3ebee503	0.37284097

VAE.encoder_mu.layers.1.attention.W_q.bias f4 [4]
0	0xbd63617d	-0.055512894
1	0x3d9835fb	0.07432171
2	0xbdc086e2	-0.09400727
3	0xbdb2be14	-0.08727661

VAE.encoder_mu.layers.1.attention.W_k.weight f4 [4, 4]
0	0xbe8789d5	-0.26472345
1	0x3ebc7366	0.36806792
2	0xbee03c6d	-0.437961
3	0xbdf655e2	-0.120280996
4	0xbe29ee99	-0.16594924
5	0x3ed90921	0.42389777
6	0x3ebaa78a	0.36455947
7	0x3e64fe2e	0.22362587
8	0x3e4becc0	0.19914532
9	0x3e0b1894	0.13583595
10	0x3e10fc68	0.14158785
11	0x3f1ffdd8	0.6249671
12	0x3e38f363	0.18061595
13	0xbe7ece14	-0.248833
14	0xbed77c58	-0.42087054
15	0x3e2cc520	0.16872072

VAE.encoder_mu.layers.1.attention.W_k.bias f4 [4]
0	0x3983b55b	0.00025121387
1	0xb9024e1b	-0.00012426863
2	0x39188c5d	0.00014548139
3	0x38a72736	7.970484e-05

VAE.encoder_mu.layers.1.attention.W_v.weight f4 [4, 4]
0	0x3dd24f78	0.10269064
1	0xbe2ba777	-0.16763102
2	0x3e9030fa	0.28162366
3	0x3e4fbc57	0.2028669
4	0xbe980ce5	-0.29697338
5	0xbe43ce0d	-0.19121571
6	0xbd83ed74	-0.06441775
7	0xbe242004	-0.16027838
8	0xbed9d1a5	-0.4254276
9	0xbee0f4fd	-0.4393691
10	0xbe598f69	-0.21246113
11	0xbe83e481	-0.25760272
12	0xbdb63529	-0.08896858
13	0xbe3e325b	-0.18573897
14	0x3dd128ba	0.10212846
15	0xb965720b	-0.00021881626

VAE.encoder_mu.layers.1.attention.W_v.bias f4 [4]
0	0x3c59dd73	0.0132974265
1	0xbbe43171	-0.0069639017
2	0x3bc03039	0.0058651236
3	0x3c4bf1d9	0.012447798

VAE.encoder_mu.layers.1.linear0.weight f4 [128, 4]
0	0x3eafe210	0.3435216
1	0x3eaf83ff	0.34280393
2	0x3eb03b0d	0.34420052
3	0xbef72128	-0.48267484
4	0x3ee8223d	0.45338622
5	0xbec4ec67	-0.3846161
6	0x3dafd048	0.08584648
7	0xbeed7734	-0.46380007
8	0x3ea908c8	0.33014512
9	0x3ee7ab86	0.4524805
10	0xbf09ebed	-0.5387562
11	0x3e9d28f5	0.3069531
12	0x3cbbcebe	0.02292573
13	0x3e9c8a16	0.305741
14	0xbe826901	-0.25470737
15	0xbd518d6b	-0.051160257
16	0x3bde012d	0.0067750425
17	0xbe3c159a	-0.18367615
18	0x3c075cf9	0.0082619125
19	0xbf1125ff	-0.566986
20	0x3edc87c1	0.43072322
21	0x3f08a5d5	0.5337804
22	0xbe9c4dbe	-0.30528063
23	0xbe5e4b41	-0.21708395
24	0x3eb74191	0.3579221
25	0x3d47dbd0	0.048793614
26	0x3ecbef84	0.39831173
27	0xbe8d202f	-0.27563617
28	0x3dc111c2	0.09427215
29	0x3e64da98	0.22349012
30	0xbee36635	-0.44413915
31	0xbe98c228	-0.2983563
32	0xbdd96bd3	-0.10616269
33	0xbeca6500	-0.39530182
34	0x3e8dbfb0	0.27685308
35	0xbedc88fe	-0.43073267
36	0xbc6dceae	-0.014514608
37	0x3e35e0ef	0.17761587
38	0xbe6b8e61	-0.23003532
39	0x3d4f93e5	0.050678153
40	0x3f0a4e27	0.540255
41	0xbf11fdc7	-0.5702786
42	0xbeb2776b	-0.34856734
43	0xbda7f12a	-0.08200295
44	0xbef9feb5	-0.4882714
45	0x3e4340e7	0.19067727
46	0xbeadb803	-0.33929452
47	0x3c9d9763	0.019237226
48	0x3e8ee795	0.27911058
49	0xbce424fd	-0.027849669
50	0xbddad0fb	-0.10684391
51	0x3e8d7c88	0.27634072
52	0xbe836731	-0.25664666
53	0x3e8e5edb	0.27806744
54	0xbedb8d92	-0.42881447
55	0x3dd64286	0.10461907
56	0x3f4348b0	0.7628279
57	0x3e965683	0.29362878
58	0xbedd33ce	-0.43203586
59	0x3e7461a5	0.23865373
60	0xbe85db98	-0.261441
61	0x3e9107cf	0.2832627
62	0xbeef310e	-0.46717113
63	0x3eaf6adc	0.34261215
64	0x3e008b64	0.12553173
65	0x3e31b6f4	0.17354947
66	0x3ede70f6	0.43445557
67	0xbedffb1f	-0.43746278
68	0x3e2780dc	0.1635775
69	0xbd99cfb2	-0.07510318
70	0x3da3de7d	0.08001421
71	0xbe34bdb6	-0.17650494
72	0xbe02bdf1	-0.1276777
73	0xbe78f056	-0.24310431
74	0xbea22a08	-0.31672692
75	0xbef2f205	-0.4745027
76	0xbe578f55	-0.2105077
77	0x3ecef4e5	0.40421215
78	0x3d5f1954	0.054467514
79	0x3eca3538	0.39493728
80	0xbe499198	-0.19684446
81	0xbd1c335a	-0.03813491
82	0xbda62bcc	-0.08113822
83	0x3e89cc49	0.2691367
84	0x3eebfdf8	0.460922
85	0x3ee44dee	0.44590706
86	0x3e91f8e1	0.28510192
87	0xbea62088	-0.32446694
88	0xbe575a58	-0.21030557
89	0x3e59f663	0.21285395
90	0x3e8a70b0	0.270391
91	0xbd78bfa1	-0.060729627
92	0x3d3f7ca8	0.04674974
93	0x3eed2f02	0.46324927
94	0x3e907f05	0.28221908
95	0xbe9d54c6	-0.3072874
96	0x3ec60a5d	0.38679782
97	0x3f166b5a	0.58757555
98	0xbf0cf730	-0.5506468
99	0x3e7e232f	0.24818109
100	0x3e3744b8	0.17897308
101	0xbe6a3750	-0.22872663
102	0x3e9ee974	0.31037486
103	0x3f19dfaa	0.6010691
104	0xbe0249a1	-0.127234
105	0x3eb1e2a1	0.34743217
106	0x3e6904ee	0.22755787
107	0x3cc608d1	0.024174126
108	0xbe73381e	-0.23751876
109	0x3ea53f34	0.32274783
110	0x3eb8c819	0.36090162
111	0xbd91ef1c	-0.071256846
112	0xbe94265a	-0.2893551
113	0xbe9462d0	-0.28981638
114	0x3e9a630a	0.30153686
115	0xbe88e6a1	-0.26738456
116	0x3e898a96	0.26863545
117	0x3ee64a5f	0.44978616
118	0x3dd91593	0.10599818
119	0xbe17b79e	-0.14816138
120	0xbe971b71	-0.29513124
121	0xbeed887d	-0.46393195
122	0x3db5ab37	0.08870547
123	0x3df871bb	0.12131067
124	0x3f187ebf	0.595684
125	0x3efb2094	0.49048293
126	0x3e14bcba	0.14525118
127	0xbd8c52c4	-0.06851724
128	0x3e2fd5c3	0.17171387
129	0x3dcde019	0.10052509
130	0xbd0c93fd	-0.03432082
131	0xbdc9fa23	-0.09862163
132	0x3c8c865d	0.017153913
133	0x3ee84ad5	0.45369592
134	0xbe23f0c8	-0.1600982
135	0x3d91089c	0.0708172
136	0x3ecb3043	0.39685258
137	0x3e8889a8	0.26667523
138	0xbf018406	-0.50592077
139	0xbefef338	-0.49794936
140	0xbee7a87e	-0.45245737
141	0xbe8ac57b	-0.2710379
142	0x3c169904	0.009191755
143	0x3ef46ac7	0.47737715
144	0x3f0db9a6	0.553614
145	0x3e5b0e39	0.21392144
146	0xbea529eb	-0.32258543
147	0xbd673652	-0.05644829
148	0x3ed5c944	0.41755116
149	0xbda30551	-0.079599984
150	0xbea08fe6	-0.31359786
151	0x3e4f0997	0.20218502
152	0x3ed5bf75	0.41747633
153	0x3e676c11	0.22599818
154	0xbe20adf6	-0.15691361
155	0xbe30bd56	-0.17259726
156	0xbe9d55db	-0.30729565
157	0x3f08b5e0	0.5340252
158	0xbeb736b4	-0.35783923
159	0x3cffb9df	0.03121656
160	0x3e337485	0.17524917
161	0x3ed616b4	0.41814196
162	0xbd43f1b2	-0.04783792
163	0xbe212c10	-0.15739465
164	0x3e7c7eef	0.24657796
165	0x3ec5f95b	0.38666806
166	0x3c9d2c87	0.019186271
167	0x3e9c669f	0.30547044
168	0xbeaaf03d	-0.33386412
169	0xbf228393	-0.63482016
170	0x3ec9cd64	0.39414513
171	0x3f15e3d1	0.58550745
172	0x3e153851	0.14572264
173	0xbdd374ad	-0.103249885
174	0xbd034658	-0.032049507
175	0xbcf63d41	-0.030058505
176	0xbe42c72d	-0.19021292
177	0xbd8940e4	-0.0670183
178	0xbe0480dc	-0.12939781
179	0xbcf1360a	-0.029444713
180	0x3d5e48d6	0.05426868
181	0xbedb290b	-0.4280475
182	0x3e0374ab	0.12837474
183	0xbec73e99	-0.38914946
184	0xbe52af00	-0.2057457
185	0xbe871426	-0.2638256
186	0xbe03fdd0	-0.1288979
187	0xbe7bcbb4	-0.24589425
188	0x3e9ef700	0.3104782
189	0x3e21d82e	0.15805122
190	0xbea534dc	-0.3226689
191	0x3e7a0572	0.2441614
192	0xbda89884	-0.08232215
193	0x3f03d6aa	0.51499426
194	0xbe9fd67d	-0.3121833
195	0xbe9d020e	-0.3066563
196	0xbe8da702	-0.2766648
197	0x3e0ea1d5	0.13928922
198	0x3eaae7aa	0.3337987
199	0xbdf3b13f	-0.118990414
200	0x3d929467	0.07157212
201	0x3d84675d	0.064650275
202	0x3ef52f48	0.47887635
203	0x3eaa7692	0.33293587
204	0xbe721d6a	-0.23644033
205	0xbdab8acd	-0.083760835
206	0xbeaceae6	-0.33772963
207	0xbe5de970	-0.2167108
208	0x3eb82bd9	0.35970953
209	0x3ea81cf6	0.32834595
210	0x3d92dd4a	0.07171114
211	0x3e4a15ca	0.19734874
212	0xbd189dd4	-0.03725989
213	0x3ec6caca	0.3882659
214	0x3ef460ed	0.47730199
215	0xbc24e401	-0.010064126
216	0xbd8bc61b	-0.06824895
217	0x3ef85167	0.48499605
218	0xbd2e4f1c	-0.042555913
219	0xbe5dad9a	-0.21648255
220	0x3d7658b8	0.060143203
221	0x3f0d9253	0.553014
222	0xbe6a8135	-0.22900851
223	0x3c4ec08e	0.012619151
224	0x3cdae53d	0.026720637
225	0xbf131808	-0.57458544
226	0x3e54f932	0.20798185
227	0xbe5d333d	-0.21601577
228	0x3dd3e351	0.103460915
229	0x3e81ed8a	0.2537654
230	0xbebf38b8	-0.3734796
231	0x3e31675d	0.17324586
232	0x3de31174	0.11087313
233	0xbe893270	-0.26796293
234	0x3e41f001	0.1893921
235	0xbee0e73c	-0.43926418
236	0x3e8f2ec0	0.27965355
237	0x3f067f56	0.5253805
238	0xbe9fb430	-0.3119216
239	0x3d022adb	0.03177915
240	0xbe354d9a	-0.17705384
241	0xbefc163b	-0.4923571
242	0x3e7779cf	0.2416756
243	0xbed749be	-0.42048448
244	0x3e28c026	0.16479549
245	0x3e466beb	0.19377105
246	0x3f0fb690	0.56137943
247	0x3ef84f0b	0.48497805
248	0xbe2f9a30	-0.17148662
249	0x3eab0498	0.33401942
250	0x3e080300	0.13282394
251	0xbdb4a358	-0.08820218
252	0x3e73977b	0.23788254
253	0x3d7b2e9a	0.06132374
254	0x3ba79065	0.0051136487
255	0x3e666966	0.22501144

VAE.encoder_mu.layers.1.linear0.bias f4 [128]
0	0xbedaa8ef	-0.4270701
1	0xbef71735	-0.48259893
2	0x3d1a779d	0.03771173
3	0xbe8fc84c	-0.28082502
4	0xbe96561d	-0.29362574
5	0xbea95b0d	-0.3307728
6	0xbe982418	-0.29715037
7	0x3ea02879	0.31280878
8	0x3ccb8f86	0.02484871
9	0xbe6c0a94	-0.2305091
10	0x3d9649ec	0.07338318
11	0xbe3f70c4	-0.1869536
12	0xbe4a395b	-0.19748442
13	0x3eb77820	0.35833836
14	0xbe334e83	-0.17510419
15	0xbe64e740	-0.2235384
16	0xbe160881	-0.14651681
17	0xbe26c321	-0.16285373
18	0xbecb19ea	-0.39668208
19	0x3e45213f	0.19250964
20	0xbe8ca50c	-0.2746967
21	0x3eb3dc86	0.35129184
22	0x3e72bd73	0.23705082
23	0xbd08fdd2	-0.033445187
24	0x3d09fe12	0.033689566
25	0x3e88c321	0.26711372
26	0xbe3cdbfc	-0.18443292
27	0xbd405b3f	-0.04696202
28	0xbdf6f911	-0.120592244
29	0xbeff9765	-0.49920192
30	0xbdca675d	-0.09882996
31	0xbdbba7c5	-0.09162859
32	0x3b9fb525	0.004873889
33	0x3d940cdd	0.07229016
34	0xbea0e78e	-0.31426662
35	0x3e515335	0.20441897
36	0xbd08dab9	-0.033411715
37	0x3e4cb6eb	0.19991653
38	0x3e524035	0.20532306
39	0x3ed85840	0.4225483
40	0xbeabc723	-0.33550367
41	0xbedc2b8b	-0.4300197
42	0xbe4ab3fc	-0.19795221
43	0x3ec89dd4	0.39182913
44	0x3e40731a	0.18793908
45	0x3ebf5281	0.37367633
46	0xbe87bc78	-0.26510978
47	0x3e4d0c42	0.20024207
48	0x3c186122	0.009300502
49	0xbe01d415	-0.12678559
50	0xbe03e29e	-0.12879416
51	0xbedf845d	-0.43655673
52	0x3ed47192	0.41492897
53	0x3edb9414	0.42886412
54	0x3eb40bd0	0.35165262
55	0xbe8c6f17	-0.27428505
56	0xbeba5b0c	-0.36397588
57	0xbf1d6e1b	-0.6149613
58	0x3d306253	0.04306252
59	0xbe2bb317	-0.16767536
60	0x3cb21df7	0.021742804
61	0x3da03ea9	0.078244515
62	0xbe990655	-0.29887643
63	0xbecbe0de	-0.39819998
64	0xbd9b9179	-0.07596106
65	0x3e90ac75	0.28256574
66	0xbcd9ef25	-0.02660329
67	0xbe56b239	-0.20966424
68	0xbe37b2ca	-0.17939296
69	0xbe347316	-0.17622027
70	0x3e1f226e	0.15540478
71	0xbdc29cb9	-0.09502549
72	0xbd1f8297	-0.0389429
73	0xbedd8574	-0.4326588
74	0xbe20f638	-0.15718925
75	0x3d273e40	0.04083085
76	0xbe60ee09	-0.21965803
77	0x3e8a0712	0.2695852
78	0xbeac5624	-0.3365947
79	0x3e4ac20a	0.19800583
80	0xbec9e7bf	-0.3943462
81	0xbe637b8c	-0.22215098
82	0xbda70859	-0.08155889
83	0xbd52c963	-0.05146159
84	0x3f039db4	0.5141251
85	0x3f03f128	0.5153985
86	0x3e931be1	0.28732207
87	0x3f00988b	0.5023276
88	0xbea8fc79	-0.3300512
89	0xbcca0d33	-0.024664497
90	0x3eb71913	0.35761318
91	0xbed0a82f	-0.40753314
92	0x3e6a32ef	0.22870992
93	0x3ecadebd	0.3962306
94	0x3eb32d0f	0.34995314
95	0xbefd7248	-0.49501252
96	0xbea5c577	-0.32377216
97	0x3eb91093	0.36145458
98	0x3eb80fed	0.3594965
99	0xbe94cee6	-0.290641
100	0x3ec3a12d	0.38208905
101	0xbe34e921	-0.17667057
102	0xbdef3fc8	-0.11682087
103	0x3db61255	0.08890215
104	0xbcbb04eb	-0.022829494
105	0x3dac0cb1	0.08400858
106	0x3e0a1d64	0.13487774
107	0xbe994430	-0.29934835
108	0x3e651ca6	0.2237421
109	0x3d46afb9	0.048507426
110	0xbdbfed32	-0.09371413
111	0x3e365085	0.17804153
112	0x3ea56f77	0.32311603
113	0xbec41520	-0.38297367
114	0x3ed48f1e	0.4151544
115	0xbe85d72e	-0.26140732
116	0xbed9f7c8	-0.42571855
117	0xbd182147	-0.03714111
118	0xbe9b7f62	-0.30370623
119	0xbe923bcb	-0.28561243
120	0x3ec965de	0.3933553
121	0xbe4aa147	-0.19788085
122	0x3dcb21af	0.09918534
123	0x3db8845d	0.09009621
124	0x3e56367e	0.20919225
125	0x3e3f5936	0.18686375
126	0x3f04f92f	0.51942724
127	0xbec38e91	-0.38194707

VAE.encoder_mu.layers.1.linear1.weight f4 [4, 128]
0	0xbce759e3	-0.028241104
1	0xbde1ce11	-0.11025632
2	0x3db811e7	0.089877896
3	0x3dcc6161	0.09979511
4	0x3cb90c79	0.022588955
5	0x3e1627c4	0.14663607
6	0xbd91c41a	-0.071174815
7	0x3e453610	0.19258904
8	0xbd713bb7	-0.05889484
9	0x3db257a1	0.0870812
10	0xbd9f1e1a	-0.07769413
11	0x3dc9077d	0.098158814
12	0x3d812eb5	0.06307737
13	0x3ca7cae1	0.020482482
14	0x3cc42c1b	0.023946812
15	0xbd6124af	-0.054966625
16	0xbd069237	-0.032854285
17	0xbba394e0	-0.0049921125
18	0xbd7b70f4	-0.061387017
19	0xbd3092be	-0.043108694
20	0x3d9a3c42	0.075310245
21	0xbc2427c1	-0.010019244
22	0x3d4037d7	0.046928253
23	0x3d2481a1	0.040162686
24	0x3dd87397	0.10568922
25	0xbe87d06b	-0.26526198
26	0xbd59af18	-0.053145498
27	0xbd14f8b3	-0.03636999
28	0xbdc39ef0	-0.09551799
29	0x3d4119ba	0.047143675
30	0xbe45d7a5	-0.19320543
31	0x3d7266b8	0.05917999
32	0x3bd3be14	0.006461868
33	0x3e0f3b56	0.13987479
34	0x3c1f5f9f	0.009727388
35	0x3d8dc354	0.069220215
36	0x3dbd1f2a	0.0923446
37	0x3d547eda	0.051878788
38	0x3e28eb0b	0.16495912
39	0x3e0bb3e6	0.13642845
40	0x3eb4e431	0.35330346
41	0x3dd30a98	0.10304755
42	0xbe6ed2fa	-0.23322669
43	0x3cfa7e44	0.030577786
44	0xbc8113bb	-0.015756479
45	0xbd6bfffd	-0.057617176
46	0x3d8654c7	0.06559139
47	0x3dc8ef08	0.098112166
48	0x3df8c792	0.1214744
49	0xbde9aba2	-0.114096895
50	0xbd3101c1	-0.043214563
51	0x3d4b60f7	0.04965302
52	0x3d0c1bf6	0.034206353
53	0xbd9dd4ce	-0.07706605
54	0x3e2a48ec	0.1662938
55	0x3d3cdfd6	0.046111904
56	0xbdb174a3	-0.08664825
57	0xbd411968	-0.04714337
58	0xbd3cef6d	-0.04612677
59	0x3d9edf2c	0.077574104
60	0xbd9c16f3	-0.07621565
61	0xbe87f872	-0.26556736
62	0x3d63513c	0.055497393
63	0x3d08f4e8	0.033436686
64	0xbe8944c1	-0.26810268
65	0x3da1beef	0.07897746
66	0xbd07b161	-0.033128146
67	0x3aa5a40b	0.001263739
68	0xbbf35a93	-0.007426569
69	0xbcbc95d2	-0.023020659
70	0x3d94e777	0.07270711
71	0x3d9faba8	0.07796413
72	0xbd2c8940	-0.04212308
73	0x3c0239b8	0.007948332
74	0x3da44715	0.0802137
75	0xbd420ea1	-0.047377232
76	0x3e8c93ec	0.27456605
77	0x3d9f4bab	0.077781044
78	0x3d84473d	0.064589
79	0x3bdef30e	0.0068038767
80	0x3dba2c92	0.09090532
81	0x3db64bbc	0.08901164
82	0xbeec4c94	-0.46152174
83	0xbd1678ed	-0.036736418
84	0xbe01bb74	-0.12669164
85	0x3dfde898	0.12397879
86	0x3be8a965	0.0071002715
87	0xbe2d915e	-0.16949984
88	0xbb9e5d9f	-0.004832938
89	0xbd5519b6	-0.052026473
90	0x3c8fc318	0.017549083
91	0xbd195906	-0.037438415
92	0xbd366f80	-0.04453993
93	0xbdb9ce5f	-0.09072565
94	0x3cd83603	0.026392942
95	0x3d3f9ce4	0.046780482
96	0x3d507c1e	0.050899617
97	0x3de49895	0.11161915
98	0xbdf0a753	-0.117506646
99	0xbdc854b9	-0.097817846
100	0xbe2ba3a0	-0.16761637
101	0xbe0ff21d	-0.14057203
102	0x3e17e14c	0.14832038
103	0x3e1a0384	0.15040404
104	0x3d553e04	0.052061096
105	0x3d2a34cf	0.04155427
106	0xbd849f3c	-0.06475684
107	0xbe2d3b10	-0.16917062
108	0xbdab09fb	-0.08351513
109	0x3e1fe51e	0.15614745
110	0x3cabb4d2	0.020960245
111	0x3e0b29d1	0.1359017
112	0x3dcf22a4	0.10114029
113	0x3d4c2470	0.049839437
114	0xbbbbcdf9	-0.005731341
115	0xbd8d97d0	-0.069137216
116	0x3e427b37	0.18992315
117	0xbd94a5ce	-0.07258187
118	0x3dbe6148	0.09295899
119	0x3c5718a1	0.013128431
120	0x3cf68af4	0.030095555
121	0xbe296a31	-0.16544415
122	0xbe899403	-0.26870736
123	0x3c9775ef	0.018488852
124	0x3dfd75ee	0.12376009
125	0x3dab74d9	0.08371896
126	0x3debf693	0.1152164
127	0xbe37bb41	-0.17942525
128	0x3d9d342c	0.076759666
129	0x3bdb83e6	0.006699073
130	0x3d4a4e76	0.049391232
131	0x3d3716da	0.044699527
132	0x3dba3121	0.09091402
133	0x3d1dd6ac	0.038534805
134	0xbbae437d	-0.005318104
135	0xbcfca5cd	-0.030840779
136	0x3d94c97c	0.072649926
137	0x3de18b5a	0.11012907
138	0x3c71f277	0.014767281
139	0xbd2d9a16	-0.042383276
140	0xbd39a821	-0.045326356
141	0xbbae169d	-0.0053127543
142	0xbdbd3785	-0.09239105
143	0x3c235ecd	0.009971333
144	0x3d28dd40	0.041226625
145	0xbd2b65ac	-0.04184501
146	0x3d8308ff	0.063982
147	0xbdf4eb59	-0.119589515
148	0x3d3e1c8c	0.046413943
149	0x3d5479e5	0.05187406
150	0x3d2dffe9	0.042480383
151	0x3d0cb5a7	0.034352925
152	0xbcf3939c	-0.029733472
153	0xbc1b177b	-0.009466047
154	0xbe061aaf	-0.13096116
155	0xbd80a71b	-0.06281873
156	0xbd30ffdb	-0.043212753
157	0x3e187c8d	0.14891262
158	0xbe1c1b42	-0.15244773
159	0x3de626e6	0.11237888
160	0x3da7e2ef	0.08197581
161	0xbda32069	-0.07965166
162	0x3d29d799	0.041465376
163	0xbd50306a	-0.05082742
164	0xbf09cd7a	-0.5382916
165	0x3c4f0ac1	0.012636841
166	0x3ddd73f6	0.108131334
167	0xbbdc5b0d	-0.0067247213
168	0x3e7f0637	0.24904715
169	0x3da8430e	0.08215915
170	0xbe9c509a	-0.30530244
171	0x3d7c8e69	0.06165925
172	0x3d39e705	0.045386333
173	0x3ca33033	0.019920444
174	0x3c436817	0.011926672
175	0xbd6bf426	-0.057605885
176	0xbc2134be	-0.009839235
177	0xbecfe5b5	-0.4060494
178	0xbda6757e	-0.081278786
179	0x3c5aad95	0.013347049
180	0x3c1e8f47	0.009677715
181	0xbcfa013a	-0.030518163
182	0x3d54dfbc	0.051971182
183	0x3b32feda	0.0027312548
184	0xbc83a464	-0.016069598
185	0x3d2ade89	0.041716132
186	0xbb406253	-0.002935548
187	0x3e0e018e	0.1386778
188	0xbd404e66	-0.046949767
189	0xbe06a7bc	-0.13149923
190	0xbe1702a8	-0.14747107
191	0x3c32881a	0.010896707
192	0x3e19b098	0.15008771
193	0xbdb37054	-0.08761659
194	0x3d8b168f	0.06791412
195	0xbebabfc9	-0.36474445
196	0xbe641808	-0.22274792
197	0xbe46f70f	-0.19430183
198	0x3cd92bfe	0.026510235
199	0x3defebca	0.11714895
200	0x37a74cec	1.994377e-05
201	0xbc6f6e12	-0.014613645
202	0x3d81f824	0.06346157
203	0x3dd279e9	0.10277159
204	0xbe7f428e	-0.24927732
205	0xbd88523e	-0.066563115
206	0xbd878cdf	-0.06618666
207	0x3d554afa	0.052073456
208	0x3d053a82	0.0325265
209	0x3d642acf	0.055704888
210	0xbe83d170	-0.25745726
211	0xbd31b327	-0.043383744
212	0xbd4b2125	-0.049592156
213	0xbd444332	-0.047915645
214	0xbdc5718f	-0.096408
215	0x3d00fc81	0.031490806
216	0x3cb3155b	0.021860769
217	0xbda09396	-0.0784065
218	0xb9dd5748	-0.00042217434
219	0xbb50d8d0	-0.0031867512
220	0xbda84fe8	-0.08218366
221	0xbcb47929	-0.02203043
222	0xbc89dfb2	-0.016830299
223	0xbd2d5a87	-0.04232266
224	0x3cfbfc24	0.030759878
225	0xbb996410	-0.004681118
226	0x3d719a36	0.058984958
227	0x3d2b8b0b	0.04188065
228	0xbdb3fd8a	-0.08788593
229	0xbe1a0a23	-0.1504293
230	0x3df14088	0.117798865
231	0x3d1ed20d	0.03877454
232	0xbd445c3a	-0.047939517
233	0xbd68a2ec	-0.056796
234	0xbdaa842b	-0.0832599
235	0xbd934c3c	-0.07192275
236	0xbddc146b	-0.10746082
237	0x3e290117	0.16504322
238	0x3d471412	0.048603125
239	0xbc16b20d	-0.009197724
240	0xbd73dd79	-0.059537385
241	0x3d23942d	0.039936233
242	0xbd6abc17	-0.057308283
243	0x3dc49635	0.09598962
244	0x3dd7e6e9	0.105420895
245	0xbd8d4ae0	-0.06899047
246	0x3d42c397	0.04754981
247	0xbcdd79e9	-0.02703567
248	0xbd97f9a3	-0.07420661
249	0x3c9d365e	0.019190963
250	0x3d7c4777	0.06159159
251	0x3d6432b2	0.05571241
252	0x3d9d49d8	0.076801
253	0x3db716b0	0.08939874
254	0xbd1cda8b	-0.038294356
255	0x3d951152	0.07278694

VAE.encoder_mu.layers.1.linear1.bias f4 [4]
0	0x3d6b378b	0.057426017
1	0x3c180ffe	0.009281157
2	0xbda4c873	-0.08046045
3	0xbd69d139	-0.057084296

VAE.encoder_mu.layers.1.norm1.weight f4 [4]
0	0x3f84eff2	1.0385725
1	0x3f91f4ea	1.1402867
2	0x3f8c34e9	1.0953647
3	0x3f909f82	1.1298678

VAE.encoder_mu.layers.1.norm1.bias f4 [4]
0	0x3d9b8cdb	0.075952254
1	0x3d088378	0.033328503
2	0xbd672d7c	-0.05643986
3	0xbdb12798	-0.0865013

VAE.encoder_mu.layers.1.norm0.weight f4 [4]
0	0x3f4420eb	0.7661273
1	0x3f71f2e5	0.9451125
2	0x3f639597	0.8890013
3	0x3f59dd1c	0.8510301

VAE.encoder_mu.layers.1.norm0.bias f4 [4]
0	0x3c76bcf3	0.015059697
1	0xbcba89a4	-0.02277071
2	0x3bfa3d55	0.007636706
3	0x3bbdad23	0.005788462

VAE.encoder_mu.last_normalization.weight f4 [4]
0	0x3f800000	1.0
1	0x3f800000	1.0
2	0x3f800000	1.0
3	0x3f800000	1.0

VAE.encoder_mu.last_normalization.bias f4 [4]
0	0x00000000	0.0
1	0x00000000	0.0
2	0x00000000	0.0
3	0x00000000	0.0

VAE.encoder_mu.head.weight f4 [4, 4]
0	0x3d4fa050	0.050689995
1	0xbeefabb6	-0.46810693
2	0xbe31ba28	-0.17356169
3	0xbe463754	-0.19357044
4	0x3eb6b28e	0.356831
5	0xbebb06c4	-0.365286
6	0xbea59cd6	-0.3234622
7	0x3e49c6b0	0.197047
8	0xbd127940	-0.035760164
9	0xbded0e08	-0.11574942
10	0x3ef20eb0	0.4727683
11	0xbd05bfd0	-0.03265363
12	0x3c8010e0	0.015633047
13	0x3e7ad128	0.2449385
14	0x3ed1fae8	0.4101174
15	0xbe86e00a	-0.26342803

VAE.encoder_mu.head.bias f4 [4]
0	0xbe0ea4e0	-0.13930082
1	0xbde6c5d0	-0.112681985
2	0xbcc9c440	-0.024629712
3	0x3efc7484	0.49307644

VAE.encoder_logvar.layers.0.attention.W_q.weight f4 [4, 4]
0	0xbf7fdbb8	-0.9994464
1	0xbf424b03	-0.7589571
2	0xbea8fd28	-0.33005643
3	0xbf38660f	-0.7203073
4	0xbd97e3e7	-0.07416516
5	0x3eef1420	0.46695042
6	0xbd107b99	-0.035274122
7	0xbd1d8666	-0.03845825
8	0xbeedce20	-0.46446323
9	0xbff22372	-1.8917067
10	0xbeed504a	-0.46350318
11	0xbf274858	-0.6534476
12	0xbeef1abb	-0.4670008
13	0x3beffa8a	0.0073235678
14	0xbe3ca805	-0.1842347
15	0xbe40a081	-0.18811227

VAE.encoder_logvar.layers.0.attention.W_q.bias f4 [4]
0	0xbd38f714	-0.045157507
1	0xbce058d9	-0.027386116
2	0x3acbf461	0.0015560501
3	0x3bf0314d	0.007330096

VAE.encoder_logvar.layers.0.attention.W_k.weight f4 [4, 4]
0	0xbf28c844	-0.6593058
1	0xbf25fbca	-0.64837325
2	0xbf8f65ee	-1.1202981
3	0xbe8e377c	-0.27776706
4	0xbc76e841	-0.015070022
5	0x3ef30f3e	0.47472566
6	0x3eba67e9	0.36407402
7	0xbe219499	-0.15779342
8	0xbfa3c910	-1.2795734
9	0xbf140bee	-0.57830703
10	0xbf8f0bba	-1.1175454
11	0xbf0f56ef	-0.55992025
12	0xbee779de	-0.45210165
13	0xbee6ac54	-0.4505335
14	0xbe1413f3	-0.14460735
15	0x3eb83b3c	0.35982692

VAE.encoder_logvar.layers.0.attention.W_k.bias f4 [4]
0	0xb8426b04	-4.635287e-05
1	0x3727b9b0	9.997209e-06
2	0xb84a31c0	-4.8206886e-05
3	0xb78b1caf	-1.6583448e-05

VAE.encoder_logvar.layers.0.attention.W_v.weight f4 [4, 4]
0	0xbe6c20bd	-0.23059364
1	0x3de03bd7	0.109489135
2	0x3e4cf76b	0.20016257
3	0xbe4a15c5	-0.19734867
4	0xbe872c25	-0.26400867
5	0x3d5c6b4d	0.053813267
6	0x3e00b716	0.12569842
7	0xbe50570e	-0.20345709
8	0xbe54c87e	-0.20779607
9	0x3e38b11b	0.1803631
10	0x3e4ad37d	0.19807239
11	0xbe3a9220	-0.18219805
12	0xbedc8620	-0.4307108
13	0xbddfbcc3	-0.10924675
14	0xbccd61ee	-0.02507111
15	0xbe85ce06	-0.26133746

VAE.encoder_logvar.layers.0.attention.W_v.bias f4 [4]
0	0xbd89cf28	-0.06728965
1	0xbcc4ead3	-0.024037754
2	0xbcc334e3	-0.02382893
3	0xbd0ba42d	-0.034092117
