tabsyn/vae/ckpt/adult/model.pt (torch, 69286 bytes, 112 tensors)

VAE.Tokenizer.weight f4 [7, 4]
0	0x3ef11402	0.47085577
1	0x3ecdfa04	0.4022981
2	0xbe8e48dc	-0.27789962
3	0x3e83f73e	0.25774568
4	0x3ebe2cd3	0.37143573
5	0x3e3a18f1	0.18173577
6	0x3e05fb9a	0.1308426
7	0xbe02c3d2	-0.12770012
8	0xbe453177	-0.1925715
9	0x3d16dae1	0.036829833
10	0xbdb41c6d	-0.08794484
11	0x3bc32778	0.005955633
12	0xbe2a9e21	-0.16661884
13	0x3e869fe9	0.26293877
14	0xbe2cd932	-0.16879728
15	0x3df77244	0.12082341
16	0xbe238c54	-0.159715
17	0xbe55d16e	-0.20880672
18	0xbdc51419	-0.09622974
19	0xbd9c5259	-0.07632894
20	0x3eefce0d	0.46836892
21	0x3df0d294	0.117589146
22	0x3e92016a	0.28516704
23	0xbdd0b4e3	-0.101907514
24	0xbe09a40f	-0.1344149
25	0x3ed7e836	0.4216935
26	0xbeebc4df	-0.46048638
27	0x3e57ca4b	0.21073262

VAE.Tokenizer.bias f4 [15, 4]
0	0x3f20a68e	0.6275414
1	0x3c75f8f1	0.015012966
2	0xbf1d6768	-0.6148591
3	0x3e64d6b7	0.22347532
4	0x3ee4bf33	0.44677123
5	0x3ea1dc2c	0.3161329
6	0x3ea7eb2b	0.32796606
7	0x3d12b409	0.035816226
8	0xbcd99bb6	-0.026563507
9	0xbe39d435	-0.18147357
10	0xbf083cbb	-0.5321767
11	0x3eb43687	0.3519785
12	0xbebd3f8f	-0.36962554
13	0xbde039a1	-0.10948492
14	0x3df78a67	0.12086945
15	0x3ef5eaf9	0.48030832
16	0xbb188004	-0.0023269663
17	0x3eea9c8f	0.4582257
18	0xbeb6c211	-0.35694936
19	0xbea42545	-0.32059684
20	0xbea2a42d	-0.3176588
21	0x3eda673d	0.4265689
22	0x3e662aab	0.22477214
23	0xbc209d2e	-0.0098031
24	0xbd11ad31	-0.03556556
25	0x3e93a4d4	0.2883669
26	0xbd22c16a	-0.039735235
27	0x3df685c0	0.120372295
28	0xbeb16ce2	-0.34653383
29	0xbea3e626	-0.32011527
30	0x3e9e0417	0.30862495
31	0xbe213ef0	-0.15746665
32	0x3e983b5f	0.29732797
33	0x3dd41f8f	0.10357582
34	0x3e070c8c	0.1318838
35	0xbe2c7522	-0.16841558
36	0xbdaa875c	-0.08326599
37	0xbda07711	-0.0783521
38	0xbf03fbb5	-0.5155595
39	0x3e099242	0.13434699
40	0xbda7e9c9	-0.08198888
41	0x3e4c3376	0.19941506
42	0x3edfa865	0.43683162
43	0xbeb3455a	-0.3501385
44	0x3dde2a44	0.10847905
45	0x3dbfbfdc	0.09362766
46	0x3e3b1fb5	0.18273814
47	0xbcb58b0b	-0.022161027
48	0xbec48b78	-0.38387656
49	0xbe674920	-0.22586489
50	0x3dcd82b6	0.10034697
51	0x3e88408e	0.2661175
52	0xbdf46ee4	-0.11935213
53	0x3ea06a56	0.31331128
54	0xbe0ef742	-0.13961509
55	0xbeefc3cb	-0.46829066
56	0x3cf74edc	0.03018897
57	0xbe55e5af	-0.20888399
58	0xbd013ccf	-0.031552132
59	0x3ec4bda8	0.38425946

VAE.Tokenizer.category_embeddings.weight f4 [104, 4]
0	0xbe833f3d	-0.25634184
1	0xbd837f97	-0.0642082
2	0x3e70b236	0.23505482
3	0xbd9f18ae	-0.07768379
4	0x3dfc826c	0.123295635
5	0x3ea235ec	0.31681764
6	0xbe0b0489	-0.13575949
7	0x3ecd8510	0.4014058
8	0x3e8dd4d0	0.27701426
9	0xbe5d68b1	-0.21621968
10	0xbf039478	-0.5139842
11	0xbf006233	-0.5014984
12	0x3d772b25	0.06034388
13	0xbe890eb5	-0.26769033
14	0x3e05325b	0.1300749
15	0x3ed5cf73	0.41759834
16	0x3e662fbb	0.22479145
17	0xbf275867	-0.65369266
18	0xbebdaeb1	-0.3704734
19	0x3e232e18	0.15935552
20	0x3cff0f61	0.031135263
21	0xbe12029e	-0.14258811
22	0xbe0ce341	-0.13758565
23	0x3f16651e	0.5874804
24	0x3e2cfdd5	0.16893704
25	0x3e816878	0.25275016
26	0xbeb1da90	-0.34737062
27	0x3eeb3716	0.45940465
28	0xbddf8fc2	-0.109160915
29	0x3b34afe4	0.002757066
30	0xbf362956	-0.71156824
31	0xbea592a6	-0.32338446
32	0xbe27b914	-0.16379195
33	0x3eaf8a8c	0.3428539
34	0xbf29f0dc	-0.6638315
35	0x3f1be5cc	0.6089752
36	0x3ee4bde0	0.44676113
37	0xbf45ef97	-0.7731871
38	0x3eaafb22	0.33394724
39	0xbf01618c	-0.5053947
40	0x3e81877e	0.25298685
41	0x3eb7a92c	0.35871255
42	0xbdfa6e20	-0.12228036
43	0xbe672b6d	-0.2257516
44	0xbd81e6ee	-0.063428745
45	0xbcda2d93	-0.02663306
46	0xbdea42cc	-0.11438522
47	0x3e99c896	0.30035847
48	0x3f190150	0.5976763
49	0x3f009330	0.5022459
50	0x3ef52658	0.47880816
51	0xbf55d7c9	-0.83532387
52	0xbe72900c	-0.23687762
53	0x3d1459eb	0.036218565
54	0xbecf6f0d	-0.40514413
55	0x3f17bd81	0.59273535
56	0xbce15bbe	-0.027509566
57	0x3edbed8d	0.42954674
58	0x3e008292	0.12549809
59	0x3f135bc4	0.575619
60	0xbe636f4d	-0.22210427
61	0x3e579f77	0.21056925
62	0xbdff2d0a	-0.124597624
63	0x3e1f860f	0.15578483
64	0xbeec418f	-0.46143767
65	0x3e621b52	0.22080734
66	0x3eb5760c	0.35441625
67	0x3ed81f24	0.42211258
68	0xbeb7f281	-0.35927203
69	0xbd9b4700	-0.075819016
70	0xbe3388d2	-0.17532662
71	0x3ebb94fc	0.36637104
72	0xbe11e92d	-0.14249106
73	0xbf04fcc4	-0.5194819
74	0x3efdc980	0.49567795
75	0x3e0dac0f	0.13835166
76	0x3e8b1f6c	0.2717241
77	0xbf3074c4	-0.6892817
78	0x3f135e70	0.57565975
79	0xbe352fe0	-0.17694044
80	0x3eb129f7	0.3460233
81	0xbd640236	-0.05566617
82	0x3f065554	0.5247395
83	0x3dbde705	0.09272579
84	0x3ea49de8	0.32151723
85	0x3e5001e9	0.20313229
86	0xbd8353e0	-0.06412482
87	0x390c6964	0.00013390701
88	0xbeb6823c	-0.35646236
89	0xbdd6d55f	-0.10489916
90	0x3da8a349	0.08234269
91	0xbe232dbd	-0.15935417
92	0xbeca810a	-0.39551574
93	0x3c0051b0	0.007831976
94	0x3f4ae517	0.79255813
95	0xbf3aa57b	-0.72908753
96	0xbeb297bb	-0.34881386
97	0x3e12961d	0.14315076
98	0xbf279cc5	-0.65473586
99	0x3f0fd449	0.56183296
100	0xbf175472	-0.5911323
101	0x3e66f7d8	0.22555482
102	0x3ef78578	0.48344016
103	0x3f134b46	0.57536733
104	0xbd7f0b1f	-0.062266465
105	0x3f0a8ce4	0.5412123
106	0x3f0bf5e2	0.5467206
107	0x3f1cb3df	0.6121196
108	0xbe28bf2d	-0.16479178
109	0xbe113a12	-0.14182308
110	0x3ec24541	0.37943462
111	0xbda02315	-0.07819191
112	0xbe1dda2f	-0.15415262
113	0xbd55d4b2	-0.052204795
114	0xbe185636	-0.14876637
115	0xbd1604c7	-0.03662565
116	0xbeb0a1dc	-0.3449849
117	0x3e92dfb5	0.286863
118	0xbf1fb52c	-0.6238582
119	0x3df57668	0.11985475
120	0x3f370cd3	0.71503943
121	0xbf33f375	-0.7029336
122	0x3f0732d3	0.52811927
123	0xbf08d34f	-0.5344743
124	0xbe18fd86	-0.14940462
125	0x3e55b165	0.20868452
126	0xbe8faed3	-0.28063068
127	0xbe985eb8	-0.29759765
128	0xbe6ee99b	-0.23331301
129	0xbe77999c	-0.24179691
130	0xbc5e28de	-0.013559548
131	0xbe5b1772	-0.21395662
132	0xbe4b6d7b	-0.19865982
133	0xbdcd359a	-0.10019989
134	0x3d854f53	0.065092705
135	0x3e33f96a	0.17575613
136	0x3d24968f	0.040182646
137	0x3dbbe249	0.0917402
138	0xbee38d98	-0.44443965
139	0x3f0b8049	0.5449262
140	0xbedd38fa	-0.43207532
141	0x3e50a4dd	0.2037539
142	0x3e34fe80	0.17675209
143	0xbd0a4a08	-0.033762008
144	0x3ee01874	0.43768656
145	0x3f27bce7	0.6552262
146	0xbe84f27d	-0.25966254
147	0x3e5e1e54	0.21691257
148	0x3f1031ca	0.5632597
149	0xbed5ce97	-0.41759178
150	0xbe096dc8	-0.13420784
151	0xbee3ce24	-0.4449321
152	0xbc1947d4	-0.009355504
153	0xbea72e9d	-0.3265275
154	0xbec64c6a	-0.38730174
155	0xbc3f3502	-0.011670353
156	0x3dee639f	0.11640095
157	0xbe9f072a	-0.31060153
158	0xbe1b18ca	-0.15146175
159	0x3d5d44ec	0.054020807
160	0xbec2da9a	-0.38057405
161	0x3efadc70	0.48996305
162	0xbe0ee646	-0.1395503
163	0xbe5fce1f	-0.21855973
164	0x3ec15558	0.37760425
165	0xbec59457	-0.38589737
166	0x3e13135d	0.14362855
167	0xbece4804	-0.4028932
168	0xbe54e7d1	-0.20791556
169	0x3dc0c4f9	0.094125696
170	0x3f09350e	0.5359658
171	0xbf10a8a4	-0.56507325
172	0xbc8d871c	-0.01727634
173	0xbdd9c0b4	-0.10632458
174	0xbd70927d	-0.058733452
175	0x3e224b01	0.15848924
176	0xbf027a18	-0.5096755
177	0x3f01bf7f	0.50682825
178	0x3ee988ab	0.45612082
179	0x3ed3da71	0.41377595
180	0x3ef145fd	0.4712371
181	0x3e86d27a	0.26332456
182	0x3e81f602	0.25383002
183	0xbf366c29	-0.7125879
184	0xbe099e69	-0.13439335
185	0x3ea98483	0.3310891
186	0x3e2c465c	0.16823715
187	0x3f04ad5c	0.51827025
188	0x3e2144f3	0.15748958
189	0xbd90474a	-0.07044847
190	0xbf04c242	-0.51858914
191	0x3e2f2770	0.17104888
192	0x3dd4b6a4	0.103863984
193	0xbefe1ff3	-0.4963375
194	0x3e580a37	0.21097647
195	0x3ccaab2a	0.02473982
196	0x3eba5f85	0.36401
197	0xbea8cfde	-0.3297109
198	0x3e6f3b5a	0.23362485
199	0xbe90e081	-0.28296283
200	0xbdb3710a	-0.08761795
201	0x3e0decd4	0.13859874
202	0x3aef29b5	0.0018246683
203	0x3e1fedfa	0.15618125
204	0x3bb5582b	0.005534192
205	0xbce2fdc0	-0.027708888
206	0xbf080808	-0.53137255
207	0xbe523de3	-0.2053142
208	0xbdf7b8de	-0.120958075
209	0x3ce73a0b	0.02822592
210	0xbf320969	-0.6954561
211	0x3e12a336	0.14320073
212	0xbd188b80	-0.037242413
213	0xbd56d4a0	-0.05244887
214	0x3d8a2d7f	0.06746959
215	0xbdfa41c9	-0.12219579
216	0xbee53ace	-0.44771427
217	0xbede6674	-0.4343754
218	0xbe3d8493	-0.18507604
219	0x3d930669	0.07178957
220	0x3e80970b	0.25115237
221	0xbed4b88c	-0.41547048
222	0xbc92c29c	-0.017915063
223	0xbd272037	-0.040802207
224	0xbdb12aa1	-0.08650709
225	0x3ebd6537	0.36991283
226	0xbda7b1f9	-0.081882425
227	0xbd1fe851	-0.039039914
228	0xbe649af7	-0.2232474
229	0x3e0fb12e	0.14032432
230	0x3e543ac0	0.20725536
231	0xbdc09895	-0.09404103
232	0xbe7342ec	-0.23755997
233	0x3ec081f2	0.3759914
234	0xbe953760	-0.2914381
235	0x3ec61a81	0.38692096
236	0x3ecfe34c	0.406031
237	0xbe4f71e6	-0.20258293
238	0xbe8eaa49	-0.27864292
239	0xbeb632fb	-0.3558577
240	0x3da68c2f	0.08132207
241	0xbe10220b	-0.14075486
242	0x3e93716f	0.2879748
243	0x3e838cda	0.256934
244	0xbe85bb5d	-0.2611951
245	0x3e3d50e7	0.18487893
246	0xbe2272a0	-0.15864038
247	0xbeff048e	-0.49808162
248	0xbd54f887	-0.051994827
249	0x3e2677ce	0.1625664
250	0xbe9709a4	-0.29499543
251	0xbef59419	-0.47964552
252	0x3d728f62	0.05921877
253	0x3ea25257	0.31703445
254	0xbe9c8c4d	-0.3057579
255	0x3dfd5ce9	0.12371237

VAE.encoder_mu.layers.0.attention.W_q.weight f4 [4, 4]
0	0x3edfa92a	0.4368375
1	0x3eb6412e	0.35596603
2	0xbea565ff	-0.3230438
3	0x3eda3082	0.42615134
4	0x3e05e3a6	0.13075122
5	0xbeaa8288	-0.33302712
6	0xbeea58fa	-0.4577101
7	0x3f08598a	0.53261626
8	0xbd0410b7	-0.032242503
9	0x3ed06d06	0.40708178
10	0xbed896af	-0.42302462
11	0xbf006ae7	-0.5016312
12	0xbd13fee4	-0.036131755
13	0x3db72075	0.089417376
14	0x3e7f8149	0.24951662
15	0x3eb2df88	0.34936166

VAE.encoder_mu.layers.0.attention.W_q.bias f4 [4]
0	0x3d3934a5	0.04521622
1	0x3e0f4e04	0.13994604
2	0x3dd71d0a	0.10503586
3	0xbcb4120a	-0.021981258

VAE.encoder_mu.layers.0.attention.W_k.weight f4 [4, 4]
0	0x3eec61b5	0.46168295
1	0x3e985b34	0.29757082
2	0xbe3b00f1	-0.18262078
3	0xbd6cd259	-0.05781779
4	0xbc8574fd	-0.016291136
5	0x3d034e71	0.03205723
6	0x3d428ee5	0.047499556
7	0x3eeb3c2a	0.4594434
8	0x3eb6c560	0.3569746
9	0xbdcfd662	-0.10148312
10	0xbecf1c22	-0.4045115
11	0xbc5bd40a	-0.013417253
12	0xbe915b1c	-0.28389823
13	0xbedd80d7	-0.4326236
14	0x3ecd6bdf	0.40121362
15	0x3e7e3b41	0.24827291

VAE.encoder_mu.layers.0.attention.W_k.bias f4 [4]
0	0xb90ad23d	-0.00013239025
1	0x39a4b50f	0.00031415417
2	0x397e60e3	0.00024259421
3	0xb93317e0	-0.00017079664

VAE.encoder_mu.layers.0.attention.W_v.weight f4 [4, 4]
0	0x3e4769f1	0.19474007
1	0xbe8a3ad2	-0.26998
2	0xbdd9943c	-0.106239766
3	0x3ed8c8a3	0.42340574
4	0xbd1a472e	-0.03766554
5	0xbdbeb31a	-0.09311505
6	0x3dd776a1	0.105206735
7	0x3ed398f1	0.41327623
8	0x3d0fb534	0.03508492
9	0xbdff00db	-0.12451335
10	0xbc82afac	-0.015952908
11	0x3e47905f	0.19488667
12	0xbe6e1b77	-0.23252665
13	0x3d4ebff1	0.05047602
14	0x3ea19b4b	0.31563792
15	0x3eb5210a	0.3537677

VAE.encoder_mu.layers.0.attention.W_v.bias f4 [4]
0	0xbb03d7b6	-0.0020117587
1	0x3d685365	0.056720156
2	0xbd894ec0	-0.067044735
3	0xbd38a4f9	-0.045079205

VAE.encoder_mu.layers.0.linear0.weight f4 [128, 4]
0	0xbd895be4	-0.0670698
1	0xbec73539	-0.38907793
2	0x3f0bbec0	0.54587936
3	0xbeba7251	-0.36415341
4	0x3e88897a	0.26667386
5	0x3e905b26	0.2819454
6	0x3cb5b0ba	0.022178996
7	0x3dbb177f	0.09135341
8	0x3e9b4809	0.30328396
9	0x3f06237c	0.52397895
10	0xbd73433e	-0.0593903
11	0xbef841ab	-0.484876
12	0xbe49dbf4	-0.19712812
13	0x3e3a9de0	0.18224287
14	0x3dec9a41	0.11552859
15	0xbe456552	-0.19276932
16	0x3ee03429	0.43789795
17	0xbf041abf	-0.5160331
18	0xbd23dc0f	-0.040004786
19	0xbe698dff	-0.22808073
20	0xbea2d672	-0.31804234
21	0xbc7189ea	-0.014742354
22	0xbdc136d3	-0.09434285
23	0xbea83c47	-0.32858488
24	0xbd61b0ea	-0.05510036
25	0x3ec5cc43	0.38632402
26	0xbe3809be	-0.17972466
27	0x3f03ace9	0.51435715
28	0x3e16f83e	0.14743134
29	0x3eb75259	0.35805014
30	0xbe172d62	-0.14763406
31	0xbe953b49	-0.29146793
32	0xbe73349a	-0.23750535
33	0xbea0386f	-0.31293055
34	0x3efb9fb8	0.49145293
35	0xbe335620	-0.17513323
36	0x3dd483a7	0.10376673
37	0x3efbad46	0.49155635
38	0xbe949bf9	-0.29025248
39	0x3e4b79d5	0.19870694
40	0xbec06bd1	-0.37582257
41	0x3e75d66c	0.24007577
42	0x3dd36ff5	0.103240885
43	0x3ca1b014	0.01973728
44	0xbe9ae7a4	-0.30254853
45	0x3ee43413	0.4457098
46	0x3e584717	0.21120869
47	0xbebfcfe4	-0.37463295
48	0xbed05f8d	-0.406979
49	0x3ee7848d	0.45218316
50	0x3e70c3ff	0.23512267
51	0x3f0a045f	0.5391292
52	0x3e15cade	0.14628169
53	0xbebef554	-0.37296546
54	0x3f127fa0	0.5722599
55	0x3e748cef	0.23881887
56	0xbeb9e81f	-0.36309907
57	0xbf0ba8cd	-0.54554445
58	0x3e0f3565	0.13985212
59	0xbe1cdec3	-0.15319352
60	0x3ea97531	0.33097222
61	0xbed07546	-0.40714473
62	0x3e96aa3d	0.29426757
63	0x3da39911	0.079881795
64	0xbe904bcf	-0.28182837
65	0xbe4efd1b	-0.2021374
66	0x3ef31d88	0.47483468
67	0x3edc2222	0.4299479
68	0x3e2cb3ef	0.16865514
69	0xbdb7aade	-0.08968137
70	0xbecf9bc4	-0.40548527
71	0x3f080fa1	0.5314885
72	0xbea99203	-0.3311921
73	0xbed3b8ab	-0.41351828
74	0xbdca88df	-0.09889387
75	0x3eb6ebca	0.35726768
76	0xbe0b3a5e	-0.13596484
77	0x3e3050e9	0.17218365
78	0xbd22633e	-0.039645426
79	0x3e034674	0.12819844
80	0x3cd38d8c	0.02582433
81	0x3ef55531	0.47916558
82	0x3f108667	0.5645508
83	0x3e8c6f17	0.27428505
84	0xbdf4ebe7	-0.11959057
85	0x3e44f018	0.19232213
86	0xbef710e4	-0.48255074
87	0x3ea892c9	0.32924488
88	0x3e943a13	0.28950557
89	0x3dac5a23	0.0841563
90	0x3e98c481	0.2983742
91	0xbe3964f4	-0.18104917
92	0xbc9e4431	-0.019319626
93	0xbf06c0e9	-0.5263811
94	0x3ee16e86	0.44029635
95	0xbeabb9ea	-0.3354028
96	0xbe3319c0	-0.17490292
97	0x3e00ef9d	0.12591405
98	0xbeae1b7a	-0.34005338
99	0xbe995ea0	-0.29955006
100	0xbe04c810	-0.12966943
101	0x3eaa7af8	0.33296943
102	0xbe2237db	-0.1584162
103	0x3ec53562	0.3851729
104	0xbefbbbd3	-0.49166736
105	0xbcb2d3da	-0.021829534
106	0xbed3384f	-0.41253898
107	0xbe8792bf	-0.26479146
108	0x3b020800	0.0019841194
109	0xbd82c190	-0.06384575
110	0xbe4ac0ac	-0.19800061
111	0xba9d7a00	-0.0012014508
112	0xbeab39d2	-0.3344255
113	0x3e0e5544	0.13899714
114	0x3e80c6be	0.25151628
115	0xbef29521	-0.473794
116	0x3e0150fe	0.12628552
117	0xbde1dbd2	-0.110282555
118	0x3eae2299	0.3401077
119	0x3ee32185	0.4436151
120	0xbee02cf3	-0.43784294
121	0xbe3caaeb	-0.18424575
122	0x3c57d843	0.013174119
123	0xbc7cd50a	-0.015431652
124	0xbeea18d3	-0.45722064
125	0x3f00aeb2	0.50266564
126	0x3ec4a0dc	0.38403976
127	0xbcbe7c0b	-0.023252508
128	0xbecb5ba0	-0.39718342
129	0xbeb84354	-0.35988867
130	0xbe718b43	-0.2358828
131	0x3e9ff33b	0.31240258
132	0xbe9bb6f7	-0.3041303
133	0x3dba49d8	0.09096116
134	0xbe8f5faf	-0.28002688
135	0xbeb4e3b8	-0.35329986
136	0xbeb52e6e	-0.35386986
137	0x3e5b8522	0.21437505
138	0xbc70c3e2	-0.01469514
139	0x3e882f85	0.26598755
140	0xbe7bbdcb	-0.24584119
141	0xbed5e0bb	-0.41773018
142	0x3ee0952e	0.43863815
143	0xbdb714e0	-0.089395285
144	0x3ea44def	0.3209071
145	0x3d226af2	0.039652772
146	0xbe942a19	-0.28938368
147	0x3c860917	0.016361756
148	0x3e92a25c	0.28639495
149	0xbf1977a7	-0.599482
150	0x3e403e43	0.18773751
151	0xbec4f4cc	-0.38468015
152	0xbe630bf5	-0.2217253
153	0x3d740731	0.05957717
154	0xbec2fe07	-0.38084432
155	0x3ec236f3	0.37932548
156	0x3e103720	0.14083529
157	0x3dee38c0	0.11631918
158	0x3ce8e0e0	0.028427541
159	0x3e3ca570	0.18422484
160	0xbe09a631	-0.13442303
161	0xbec94d52	-0.39316803
162	0x3e72cd56	0.23711142
163	0x3e5bea2e	0.21476051
164	0xbd3d3041	-0.046188597
165	0xbf087486	-0.533028
166	0x3e39ea85	0.18155868
167	0x3de5e15d	0.11224625
168	0x3eceb430	0.40371847
169	0x3e55e201	0.20886995
170	0x3dd6159d	0.10453341
171	0x3ed98d6f	0.42490718
172	0x3da84ce9	0.082177944
173	0xbe36b730	-0.17843318
174	0xbdba9e91	-0.091122754
175	0x3eb101f0	0.3457179
176	0xbea86565	-0.32889858
177	0x3d38283b	0.04496024
178	0x3e8d6806	0.27618426
179	0x3e8dd041	0.27697948
180	0x3caf7f7a	0.02142309
181	0x3ed6fac0	0.41988182
182	0xbdfa7296	-0.12228887
183	0x3f009b32	0.5023681
184	0x3e452302	0.19251636
185	0x3e14aa74	0.14518148
186	0x3e44fdea	0.19237486
187	0xbd8d73a7	-0.069068246
188	0xbd67a658	-0.056555122
189	0x3ea96d52	0.33091217
190	0xbeb3a675	-0.35087934
191	0xbee0dc5b	-0.43918118
192	0x3e244843	0.1604319
193	0x3f08ef28	0.53489923
194	0x3b575fac	0.0032863421
195	0x3ef0503a	0.46936208
196	0xbea9958e	-0.33121914
197	0x3d3152cd	0.043291856
198	0x3efa2ec8	0.48863816
199	0xbe61f5ba	-0.22066393
200	0xbec8458f	-0.3911557
201	0xbe7bc76f	-0.24587797
202	0xbd943596	-0.07236783
203	0x3e8268d1	0.25470594
204	0x3dead40c	0.11466226
205	0xbe80122a	-0.25013858
206	0xbd4f63dc	-0.050632343
207	0x3edcdab2	0.431356
208	0x3d06ca98	0.032908052
209	0xbcfba0e9	-0.030716376
210	0x3ef55631	0.4791732
211	0x3ee1bd9a	0.44089967
212	0x3e40ab11	0.18815257
213	0xbedc9a5c	-0.43086517
214	0x3ea040ea	0.31299525
215	0x3e952258	0.29127765
216	0xbe48169c	-0.19539875
217	0xbe693a33	-0.22776107
218	0xbeea9888	-0.45819497
219	0xbed4a02f	-0.4152846
220	0x3f0baa8b	0.545571
221	0x3db5dd65	0.08880118
222	0x3e2a107d	0.16607852
223	0x3b0b9575	0.00212988
224	0x3dc4856c	0.09595761
225	0xbe25f61e	-0.16207168
226	0x3ea59459	0.32339743
227	0xbdfc5c7a	-0.12322326
228	0xbec01984	-0.37519467
229	0xbf03903b	-0.51391953
230	0x3f091908	0.5355382
231	0xbd0fbad6	-0.03509029
232	0x3efcd8ac	0.49384058
233	0xbe07b9a3	-0.13254409
234	0xbe5d55d0	-0.21614766
235	0xbdd43f33	-0.10363617
236	0x3f0908b6	0.53528917
237	0x3eff22cc	0.49831235
238	0xbead4b63	-0.33846578
239	0x3b4accf3	0.0030944913
240	0xbe98bb3f	-0.29830357
241	0xbeace3b6	-0.3376748
242	0x3ebf6b2c	0.37386453
243	0xbec85597	-0.391278
244	0xbc397848	-0.011320181
245	0xbed8a73c	-0.4231509
246	0x3ec297c8	0.38006425
247	0x3d986463	0.07441022
248	0x3e01885c	0.12649673
249	0xbe141418	-0.1446079
250	0x3e836015	0.25659242
251	0x3ecc1a48	0.398638
252	0xbec9af4e	-0.3939156
253	0xbe46d02a	-0.19415346
254	0x3cde90e5	0.0271687
255	0xbed2857e	-0.4111747

VAE.encoder_mu.layers.0.linear0.bias f4 [128]
0	0xbe8e7b43	-0.27828416
1	0x3dcd06f7	0.10011094
2	0x3e52e3fb	0.2059478
3	0x3ec16c08	0.37777734
4	0x3e6055c8	0.21907723
5	0x3dc79e9b	0.097470485
6	0xbe0bd300	-0.13654709
7	0xbf03c37e	-0.5147017
8	0x3e46d726	0.1941801
9	0x3ea5dd54	0.32395422
10	0xbec064e3	-0.3757697
11	0x3ef337d1	0.47503522
12	0x3f005a33	0.50137633
13	0x3ed7cc67	0.42148134
14	0xbe95d9b8	-0.2926767
15	0x3dcf66a6	0.101270005
16	0xbe475864	-0.19467312
17	0xbe1efcfe	-0.15526196
18	0xbeca9745	-0.39568534
19	0x3efba25d	0.4914731
20	0xbeb9e81b	-0.36309895
21	0xbe66d808	-0.22543347
22	0x3f07bb4b	0.5302016
23	0x3f033435	0.51251537
24	0x3e846c47	0.2586386
25	0xbde11038	-0.109894216
26	0xbec67d2d	-0.38767377
27	0xbec43048	-0.38318086
28	0x3e3af87f	0.18258856
29	0x3dda5556	0.10660808
30	0xbd75e7d5	-0.060035545
31	0x3e33a799	0.17544402
32	0xbeb03460	-0.3441496
33	0x3e04a36e	0.12952968
34	0xbd15d7ef	-0.036582883
35	0x3ee719e4	0.4513694
36	0xbe9d6667	-0.3074219
37	0xbdfb6700	-0.12275505
38	0x3e0b7865	0.13620146
39	0xbecfa892	-0.40558296
40	0xbe0a4135	-0.13501437
41	0xbe3a5b78	-0.18198955
42	0x3ecd25bd	0.40067855
43	0xbe8235f6	-0.25431794
44	0x3e8b1eb8	0.27171874
45	0x3e554174	0.2082575
46	0x3d7db02b	0.061935585
47	0x3ef399a0	0.47578144
48	0xbeb91888	-0.36151528
49	0x3dbf64b9	0.09345383
50	0xbec4d18a	-0.38441116
51	0xbe4bfe23	-0.19921164
52	0x3e4c1f77	0.19933878
53	0x3e1ef8cb	0.15524594
54	0x3dd7ab3f	0.105307095
55	0xbc04c9cc	-0.008104753
56	0xbe08c211	-0.1335528
57	0xbecd0927	-0.40046045
58	0xbe3de122	-0.18542913
59	0xbdf252d4	-0.118322045
60	0xbce5cceb	-0.028051814
61	0xbe173c38	-0.14769065
62	0xbe350033	-0.17675857
63	0x3eadd67f	0.3395271
64	0x3ef17e8a	0.47166854
65	0x3d70ac21	0.058757905
66	0x3f024f7d	0.5090254
67	0xbf028e68	-0.50998545
68	0xbedb32df	-0.4281225
69	0x3edfc9c1	0.43708614
70	0xbe48359a	-0.19551697
71	0xbe08133e	-0.1328859
72	0xbf0800ba	-0.5312611
73	0x3f0cafae	0.54955566
74	0x3edb28ee	0.42804664
75	0xbda67cad	-0.08129249
76	0xbe5a8331	-0.21339108
77	0x3e78d6b8	0.24300659
78	0x3d03daa7	0.032190945
79	0xbea106f4	-0.31450617
80	0x3e899d1f	0.26877686
81	0x3e5d208c	0.21594447
82	0x3e933c40	0.28756905
83	0xbed18b95	-0.40926805
84	0xbdd0ec05	-0.10201267
85	0x3dbf5644	0.09342626
86	0xbe48f088	-0.19623005
87	0x3e919524	0.28434098
88	0x3dfe3f81	0.12414456
89	0x3ed2e4ab	0.41190085
90	0x3d86e0af	0.06585824
91	0x3e85b2d8	0.2611301
92	0xbe472cc6	-0.19450673
93	0x3f140876	0.5782541
94	0xbdc555b4	-0.09635487
95	0xbc6b03cf	-0.01434417
96	0x3eb54b2a	0.35408908
97	0x3ec67a53	0.387652
98	0x3c96ad96	0.01839332
99	0xbdf73194	-0.12070003
100	0x3e8dc21f	0.27687165
101	0xbebc65bf	-0.36796376
102	0x3df7d6e2	0.121015325
103	0xbdbf188d	-0.093308546
104	0x3e8313f7	0.2560117
105	0xbe7a8799	-0.24465789
106	0xbe93bdb2	-0.28855664
107	0xbedc2e75	-0.43004194
108	0x3ee01618	0.43766856
109	0xbe9fcd4c	-0.31211317
110	0x3e5b41aa	0.21411768
111	0xbe813b39	-0.25240496
112	0xbc1b8264	-0.009491537
113	0x3e5f5d85	0.21813019
114	0xbd70b24d	-0.05876379
115	0xbec74606	-0.3892061
116	0x3e9a6620	0.3015604
117	0xbe29e98a	-0.16592994
118	0x3d3aaa18	0.04557237
119	0x3e50fe10	0.20409417
120	0x3e960b77	0.29305622
121	0xbed8411c	-0.42237175
122	0xbdd63ca9	-0.10460789
123	0xbdad7528	-0.084696114
124	0xbe531d88	-0.20616734
125	0x3ebb8faa	0.36633044
126	0x3e050c7c	0.12993044
127	0xbe929694	-0.28630507

VAE.encoder_mu.layers.0.linear1.weight f4 [4, 128]
0	0x3c8872a7	0.016656233
1	0x3e06186e	0.13095257
2	0x3a09a552	0.000525077
3	0xbd58fdee	-0.05297654
4	0xbd989544	-0.07450345
5	0x3de9a660	0.11408687
6	0x3ba294ca	0.0049615847
7	0x3e00230d	0.12513371
8	0xbd10eab9	-0.0353801
9	0x3d0c1ff9	0.03421018
10	0x3b5b338d	0.0033447475
11	0x3d9552bb	0.0729117
12	0x3b6f1967	0.0036483647
13	0x3d65869b	0.056036573
14	0x3d3195be	0.043355696
15	0xbd3828e6	-0.04496088
16	0x3dd6d210	0.10489285
17	0xbc700f06	-0.014652019
18	0x3d216d47	0.039410856
19	0x3d22b185	0.039720077
20	0x3ee2005a	0.44140893
21	0x3c15f66f	0.009152993
22	0xbd08bb76	-0.0333819
23	0xbcc7e7b1	-0.024402471
24	0x3c100bce	0.008791877
25	0xbc01faf4	-0.007933367
26	0xbd087ab7	-0.033320155
27	0x3d672ff4	0.056442216
28	0x3dc25a17	0.094898395
29	0x3ce61bff	0.028089521
30	0x3d6c7498	0.05772838
31	0x3d82e165	0.06390647
32	0x3d39d14b	0.045365613
33	0x3d365437	0.044513907
34	0xbce257d9	-0.02762978
35	0xbcc220af	-0.023697225
36	0xbddab05d	-0.1067817
37	0x3d65694f	0.056008633
38	0x3d2a1e73	0.041532945
39	0xbd83c363	-0.064337514
40	0xbd584433	-0.052799415
41	0x3dad6666	0.084667966
42	0x3d216f89	0.03941301
43	0x3d770d1f	0.060315248
44	0xbbc9fb4c	-0.00616399
45	0xbd57df76	-0.052703343
46	0xbd423be3	-0.047420394
47	0x3de3ab75	0.11116687
48	0x3d9bfb79	0.07616324
49	0x3d05ca10	0.032663405
50	0xbd16f8ec	-0.036858484
51	0x3d526cc8	0.051373273
52	0x3dab2348	0.08356339
53	0xbd87c523	-0.06629398
54	0x3d81e9e0	0.06343436
55	0x3ce28bde	0.027654584
56	0xbce9013b	-0.02844297
57	0x3ab6450a	0.0013906073
58	0xbd7b2c82	-0.061321743
59	0x3d0004c1	0.031254534
60	0xbd181744	-0.037131563
61	0x3d1acbe1	0.03779209
62	0xbd839e01	-0.06426621
63	0x3da5c8fe	0.08094977
64	0x3d130df9	0.035901997
65	0x3d75508e	0.059891276
66	0x3dafe19a	0.08587952
67	0xbd503e40	-0.050840616
68	0xbd36a4ec	-0.044590876
69	0xbd6048cc	-0.054756925
70	0xbe008d73	-0.12553959
71	0x3d3a028e	0.045412593
72	0x3d1cd203	0.03828622
73	0xba064fbe	-0.0005123577
74	0x3cbbee48	0.02294077
75	0xbdc5e11c	-0.09662077
76	0xbd79d67e	-0.06099557
77	0xbd45c79b	-0.04828606
78	0x3da6b5d3	0.08140149
79	0x3d7dcb75	0.06196161
80	0x3d0d7e4f	0.034544285
81	0x3db6eae2	0.08931519
82	0xbd5ae495	-0.05344065
83	0x3d7d0fdb	0.0617827
84	0xbd9cb01f	-0.0765078
85	0x3dc81fd1	0.097716935
86	0xbd73f002	-0.05955506
87	0x3d639912	0.0555659
88	0xbd8caa92	-0.06868471
89	0x39181b65	0.00014506055
90	0x3dadba2f	0.08482777
91	0xbc96de68	-0.018416598
92	0x3c19923f	0.009373247
93	0xbcdec8f8	-0.027195439
94	0x3dfd2e38	0.12362331
95	0xbcac1810	-0.021007568
96	0xbc65d6f8	-0.014028303
97	0x3d92e913	0.07173362
98	0xbd1562de	-0.03647124
99	0x3b2b5e30	0.002614867
100	0x3de2968e	0.11063872
101	0xbccf90f9	-0.025337683
102	0x3ddc39f5	0.10753242
103	0x3e1e0b73	0.15434055
104	0xbdaaea3e	-0.083454594
105	0x3bd7b493	0.0065828054
106	0x3d0a3a9a	0.033747293
107	0x3dcabf5a	0.09899779
108	0x3ce99088	0.0285113
109	0xbc99dff9	-0.018783556
110	0xbd1e91f4	-0.03871341
111	0x3cfcfcce	0.030882265
112	0x3cb7f3ec	0.022455178
113	0xbccdcbbd	-0.025121564
114	0xbd096229	-0.03354088
115	0xbd816aa1	-0.06319166
116	0x3c1fc312	0.009751098
117	0x3d8a5023	0.06753566
118	0xbd8f45be	-0.06995724
119	0x3cb8289e	0.022480305
120	0xbcd4cc4a	-0.025976319
121	0x3d035518	0.032063574
122	0x3d13398b	0.03594355
123	0x3db98434	0.09058419
124	0x3d9ef0a7	0.077607445
125	0x3da14bce	0.07875787
126	0x3c539234	0.0129132755
127	0xbdcbf6e5	-0.09959201
128	0x3e1149ed	0.14188357
129	0xbe8ef717	-0.2792289
130	0xbd1ecfd6	-0.038772427
131	0x3c8146ac	0.01578077
132	0xbdc3c35e	-0.09558748
133	0x3d7bf064	0.06150855
134	0x3dd1a04c	0.10235652
135	0xbc8ad559	-0.016947435
136	0xbc05a960	-0.008158058
137	0x3d999589	0.07499225
138	0x3d4cdd79	0.0500159
139	0xbcfb4e6a	-0.03067704
140	0x3d07db87	0.033168342
141	0x3d25338f	0.040332373
142	0x3cbfa7c8	0.023395434
143	0xbcefb3ce	-0.029260542
144	0x3dd54d9f	0.10415196
145	0x3d4f771c	0.0506507
146	0x3d650479	0.05591247
147	0x3def0702	0.116712585
148	0xbe43d91f	-0.19125794
149	0xbb11036e	-0.0022127288
150	0x3d08c470	0.033390462
151	0x3d6d1d96	0.057889543
152	0xbc59d0b7	-0.01329439
153	0xbc3eea9c	-0.011652615
154	0xbd52e868	-0.05149117
155	0x3dae75b3	0.08518543
156	0x3dbf6a9b	0.09346505
157	0x3df15c7e	0.117852196
158	0xbd1bbac8	-0.038019925
159	0x3d4afc23	0.049556863
160	0x3d4c8675	0.049932916
161	0xbd6c497b	-0.057687264
162	0xbbc7c665	-0.0060966485
163	0xbd3f41f4	-0.046693757
164	0xbda06fcc	-0.078338236
165	0xbcef6ce5	-0.02922673
166	0x3dd08aca	0.10182722
167	0xbda0419b	-0.07825013
168	0x3c4e285a	0.012582863
169	0xbc942144	-0.018082269
170	0xbcdbaead	-0.02681669
171	0x3d4cf9c4	0.050042883
172	0x3dc51ba6	0.09624414
173	0xba9e6f1f	-0.001208756
174	0xbdc2e365	-0.09516028
175	0xbcca19d8	-0.024670526
176	0xbd76b42d	-0.060230423
177	0x3e19cf10	0.15020394
178	0x3e31ee48	0.17376053
179	0x3d86fbb7	0.065909795
180	0x3d02ee83	0.031965744
181	0x3d8f8624	0.07008007
182	0xbc332648	-0.01093442
183	0xbdfc4998	-0.123187244
184	0xbd71fb9e	-0.05907785
185	0x3de114e5	0.109903134
186	0xbdb6b404	-0.08921054
187	0xbe01718e	-0.12640974
188	0x3d9e2181	0.07721234
189	0xbd53a726	-0.051673077
190	0xbd5c8f15	-0.05384739
191	0x3d945590	0.07242882
192	0xbc6c2d7c	-0.014415141
193	0x3bc5fb34	0.0060419086
194	0x3c500bdf	0.012698143
195	0xbd6360d0	-0.05551225
196	0xbe2c74f5	-0.1684149
197	0xbd16c7fe	-0.03681182
198	0x3dd8a19e	0.10577701
199	0xbcf5625c	-0.029954128
200	0xbe1e7d38	-0.15477455
201	0xbd8800ba	-0.066407636
202	0xbca7526f	-0.02042505
203	0x3b3e3e2e	0.0029028761
204	0xbcf8c096	-0.03036527
205	0x3dd54bf4	0.104148775
206	0x3d0048e7	0.031319525
207	0xbd0e4413	-0.03473289
208	0x3cda08f6	0.026615601
209	0xbd876def	-0.06612765
210	0x3d78be8c	0.060728595
211	0x3e276815	0.16348298
212	0x3dd1baa0	0.10240674
213	0x3d95343b	0.07285353
214	0xbd0794a4	-0.03310074
215	0x3d8f3bd4	0.06993833
216	0x3d8c1fd7	0.068420105
217	0xbdc7dd42	-0.097589985
218	0x3dfe3f66	0.12414436
219	0xbb760e7d	-0.0037545257
220	0x3db5d81f	0.088791125
221	0xbd533880	-0.051567554
222	0xbc64fdf4	-0.013976563
223	0xbd069fde	-0.032867305
224	0x3c28696d	0.010279042
225	0x3cdcda3c	0.026959531
226	0xbe157538	-0.14595497
227	0xbe16940b	-0.14704911
228	0x3d2c859a	0.0421196
229	0xbe1da5a8	-0.15395224
230	0x3d849fd4	0.06475797
231	0xbe12fdb1	-0.14354588
232	0x3d927dda	0.071529105
233	0xbe0e1ccf	-0.13878177
234	0x3cbfcf8d	0.023414398
235	0xb9d0dc25	-0.00039836872
236	0xbd1d58da	-0.038414814
237	0x3dbcc145	0.09216551
238	0xbc1e68b2	-0.009668516
239	0x3e04ef69	0.12981953
240	0x3de8a536	0.113596365
241	0xbcdee3b5	-0.027208189
242	0x3e36b3ad	0.17841978
243	0x3d3215b4	0.04347773
244	0xbd39d9e1	-0.0453738
245	0x3db34b97	0.08754652
246	0xbcf475d8	-0.029841349
247	0xbcdb25ea	-0.026751477
248	0x3b01fa97	0.00198332
249	0x3d8497d0	0.064742684
250	0x3cb21571	0.02173874
251	0x3d1b717b	0.03795002
252	0x3d2202b7	0.03955337
253	0xbd58c0b9	-0.05291817
254	0x3d747822	0.05968488
255	0x3dab2de6	0.08358364

VAE.encoder_mu.layers.0.linear1.bias f4 [4]
0	0x3d68ab8c	0.056804225
1	0x3d1e6b78	0.03867671
2	0xbd21bad7	-0.039484825
3	0x3dcd5665	0.10026244

VAE.encoder_mu.layers.0.norm1.weight f4 [4]
0	0x3f8c94f1	1.0982953
1	0x3f8c1497	1.0943784
2	0x3f8c369d	1.0954167
3	0x3f87bce2	1.0604517

VAE.encoder_mu.layers.0.norm1.bias f4 [4]
0	0x3c8e7105	0.017387876
1	0x3cb21abd	0.021741265
2	0xbc60e1ee	-0.013725741
3	0x3c9edb3f	0.019391654

VAE.encoder_mu.layers.1.attention.W_q.weight f4 [4, 4]
0	0xbc961fe0	-0.018325746
1	0xbf2ec23a	-0.68265116
2	0xbe9f5262	-0.3111754
3	0x3f04bd5c	0.5185144
4	0x3ea07a6c	0.313434
5	0xbe99cdd6	-0.30039853
6	0x3e649418	0.22322118
7	0xbf026155	-0.50929767
8	0x3e86b9df	0.26313683
9	0xbf018f7c	-0.50609565
10	0xbf10ac9c	-0.5651338
11	0x3e9407f2	0.28912312
12	0x3db80f92	0.08987345
13	0xbea50f0a	-0.32238036
14	0x3e3140f0	0.17309928
15	0xbf2b5fad	-0.66942865

VAE.encoder_mu.layers.1.attention.W_q.bias f4 [4]
0	0x3b2c1afe	0.0026261206
1	0x3c68eb2f	0.014216228
2	0x3d86df58	0.06585568
3	0xbdb474a9	-0.08811314

VAE.encoder_mu.layers.1.attention.W_k.weight f4 [4, 4]
0	0xbb2ab72c	-0.002604912
1	0xbf044008	-0.51660204
2	0x3a9b6974	0.0011856989
3	0xbe953f08	-0.29149652
4	0xbe642753	-0.22280626
5	0x3eb1c803	0.3472291
6	0xbe23ca8d	-0.15995236
7	0x3edeefad	0.43542233
8	0x3f28e32d	0.6597164
9	0xbe86fb4d	-0.26363602
10	0xbeb55303	-0.35414895
11	0xbf0b33ec	-0.543761
12	0xbecc74d2	-0.39932877
13	0x3e90a243	0.28248796
14	0x3f0b0ef6	0.54319704
15	0x3ec1a2dd	0.37819567

VAE.encoder_mu.layers.1.attention.W_k.bias f4 [4]
0	0xb913d947	-0.00014099955
1	0x3976e554	0.0002354582
2	0xb8ee156a	-0.00011352713
3	0x399b5fa9	0.00029635176

VAE.encoder_mu.layers.1.attention.W_v.weight f4 [4, 4]
0	0xbe9821a1	-0.29713157
1	0x3ef02ac2	0.46907622
2	0x3e88fbab	0.26754507
3	0xbe778add	-0.24174066
4	0xbe8445f5	-0.25834623
5	0x3d55b735	0.052176673
6	0xbe53eb30	-0.20695186
7	0xbe669359	-0.22517146
8	0x3e4afe3b	0.19823544
9	0x3cc703ae	0.024293747
10	0x3ed87195	0.42274156
11	0x3e05fda9	0.13085045
12	0x3e99257a	0.29911405
13	0x3e8afd54	0.271464
14	0xbdd5fe48	-0.10448891
15	0xbeaf4d56	-0.3423869

VAE.encoder_mu.layers.1.attention.W_v.bias f4 [4]
0	0xbc7f87f5	-0.0155963795
1	0x3c9ab1d2	0.01888362
2	0x3cec0f60	0.028815925
3	0x3ca38b3c	0.019963853

VAE.encoder_mu.layers.1.linear0.weight f4 [128, 4]
0	0xbea3da77	-0.32002613
1	0x3ea3b1b2	0.31971508
2	0xbf074d8a	-0.5285269
3	0xbeb45c27	-0.35226557
4	0x3e611cea	0.21983686
5	0x3eae6d13	0.34067592
6	0xbeb61902	-0.35565954
7	0x3ed59071	0.41711763
8	0x3edee951	0.4353738
9	0xbdd7ce7d	-0.105374314
10	0x3d752d50	0.059857666
11	0xbeaff62c	-0.34367502
12	0x3ef474e3	0.47745427
13	0x3e40f6d2	0.18844154
14	0x3e354ad8	0.17704332
15	0xbeb2d246	-0.3492605
16	0xbdf6789e	-0.12034725
17	0x3f07f96d	0.5311497
18	0x3e2fa8d4	0.17154247
19	0xbf02df9b	-0.51122445
20	0x3ec9d355	0.39419046
21	0xbf20179c	-0.62536025
22	0x3ed87e81	0.42284015
23	0xbebf4811	-0.3735967
24	0xbd7786c8	-0.06043127
25	0x3e2a1312	0.16608837
26	0x3ee41696	0.44548482
27	0x3e84042e	0.2578444
28	0xbdc351a1	-0.09537054
29	0x3eb22ee2	0.34801394
30	0xbe00f46c	-0.1259324
31	0x3dd7894d	0.10524235
32	0x3ed55653	0.41667423
33	0xbeb85044	-0.35998738
34	0x3f1040fe	0.5634917
35	0xbf06a71b	-0.5259873
36	0x3ee59372	0.44839054
37	0x3d0322e0	0.03201568
38	0xbe95318a	-0.29139358
39	0xbee31ba3	-0.44357023
40	0x3d67dc38	0.0566065
41	0x3e2be033	0.16784744
42	0x3d590e7a	0.05299232
43	0x3e0189d8	0.1265024
44	0x3e9c1e9c	0.30492103
45	0x3e1263b8	0.14295852
46	0xbe11a28d	-0.14222164
47	0x3bce218d	0.0062906207
48	0x3ec12a8b	0.3772777
49	0x3e318429	0.17335571
50	0x3eb7c7e1	0.35894683
51	0xbdc9c18e	-0.09851371
52	0xbe8890bb	-0.2667292
53	0xbf40824e	-0.7519883
54	0xbd5415cf	-0.05177861
55	0xbe191d0e	-0.1495249
56	0xbe9c0f71	-0.3048053
57	0xbd94a7ce	-0.07258569
58	0x3d8e3b92	0.06944956
59	0x3e499151	0.1968434
60	0x3dbf0c06	0.09328465
61	0xbeaff8fb	-0.34369645
62	0x3e9be184	0.30445492
63	0x3e02100b	0.12701432
64	0x3e1c1409	0.15242018
65	0x3d0a8153	0.03381474
66	0xbe159afa	-0.146099
67	0x3ea59b6d	0.32345143
68	0x3ea6fcc0	0.32614708
69	0xbe1a9622	-0.15096334
70	0xbd88199e	-0.06645511
71	0xbee95f0c	-0.45580328
72	0xbea3e8ba	-0.32013494
73	0xbec23e32	-0.37938076
74	0xbe5d28d1	-0.21597601
75	0x3ec369c8	0.38166642
76	0xbed76ef9	-0.42076853
77	0x3e9bc7e0	0.3042593
78	0xbe890c40	-0.26767159
79	0xbe996470	-0.2995944
80	0x3ddfecf1	0.10933865
81	0xbe91de75	-0.28490034
82	0x3e99eb5d	0.3006238
83	0xbf1492e6	-0.5803665
84	0x3956fd03	0.00020502885
85	0x3e8cdf77	0.2751424
86	0xbee967f4	-0.45587122
87	0xbdf9b0e0	-0.12191939
88	0xbcda5b24	-0.026654787
89	0xbd61be6a	-0.055113234
90	0xbeb85645	-0.36003318
91	0x3e3f6779	0.18691815
92	0x3e85962a	0.2609113
93	0x3e3d4802	0.184845
94	0x3ecab91e	0.39594358
95	0x3f056e6c	0.52121615
96	0xbe33beed	-0.17553301
97	0xbecae016	-0.3962409
98	0x3e99585b	0.29950222
99	0x3f00f55e	0.503744
100	0x3db4b15e	0.088228926
101	0x3ecff838	0.40619063
102	0xbeb5bc0f	-0.3549504
103	0x3e88d295	0.2672316
104	0xbdcd430d	-0.100225545
105	0xbec60767	-0.38677523
106	0xbeda1dea	-0.42600948
107	0x3eec9555	0.4620768
108	0xbd8da0d3	-0.069154404
109	0x3bb45d42	0.0055042813
110	0x3ebabd88	0.36472726
111	0x3dea24cc	0.114328
112	0xbec403d5	-0.38284174
113	0x3f01c200	0.50686646
114	0xbeee2e0f	-0.46519515
115	0x3e8f306a	0.27966624
116	0x3e76f65a	0.24117413
117	0x3ec815eb	0.39079222
118	0x3e226af7	0.15861116
119	0x3e83b38f	0.2572293
120	0x3f16891b	0.58802956
121	0x3df85747	0.12126022
122	0x3ed77c4d	0.4208702
123	0xbd9cb76e	-0.07652174
124	0xbecd4c16	-0.4009711
125	0x3eb1983d	0.3468646
126	0x3ee61810	0.44940233
127	0xbd77ef0a	-0.0605307
128	0xbe983c54	-0.29733527
129	0x3e9c11f7	0.30482456
130	0x3e1cad24	0.15300423
131	0xbea469cd	-0.3211197
132	0x3ebfc037	0.37451336
133	0x3e7c6c31	0.24650647
134	0xbf088c13	-0.53338736
135	0xbd483e94	-0.048887804
136	0xbee5ba9a	-0.44868928
137	0xbe9bf8a0	-0.30463123
138	0x3ee82d29	0.45346954
139	0x3e82c380	0.2553978
140	0xbdef22ab	-0.11676534
141	0xbe003fb8	-0.12524307
142	0xbe7bfac6	-0.24607381
143	0x3e3b6841	0.18301488
144	0x3ec6d72a	0.38836032
145	0xbdcd0ff6	-0.1001281
146	0x3ef34727	0.47515222
147	0xbea816bb	-0.32829842
148	0x3cd0cbea	0.025487859
149	0x3e06d4ed	0.13167162
150	0x3e34c96d	0.17654963
151	0x3e843256	0.25819653
152	0xbe1a9553	-0.15096025
153	0xbea8922f	-0.3292403
154	0x3d97154e	0.073771104
155	0x3ee59d24	0.4484645
156	0x3eb3cb98	0.35116267
157	0xbec4a777	-0.38409016
158	0xbec9c39a	-0.39407045
159	0x3ef4fd58	0.47849536
160	0xbe2b147f	-0.16707037
161	0x3de96a93	0.113972805
162	0xbf019e62	-0.506323
163	0xbe161607	-0.1465684
164	0xbd2a6f11	-0.041609827
165	0xbd319cbc	-0.043362364
166	0x3e8389e9	0.25691155
167	0x3e937ea9	0.28807572
168	0x3ed6fcc2	0.41989714
169	0x3b8ea70d	0.00435341
170	0xbdf06e21	-0.117397554
171	0xbe2121aa	-0.15735498
172	0x3e408e5f	0.1880431
173	0x3ee3ca7d	0.44490424
174	0xbe1184cf	-0.14210819
175	0x3f00d3b5	0.5032304
176	0x3f24234c	0.6411636
177	0x3e4ce1ad	0.20007963
178	0xbc454b64	-0.0120419
179	0xbe560278	-0.20899379
180	0xbeb5e884	-0.35528958
181	0xbe579f57	-0.21056877
182	0x3eccd051	0.40002683
183	0x3ef48eb4	0.47765124
184	0xbd3cbb3b	-0.046076994
185	0xbd4501cd	-0.04809742
186	0xbe65eb5b	-0.22453062
187	0xbe436b2d	-0.19083853
188	0xbebe1304	-0.37123883
189	0x3f01cf39	0.5070682
190	0xbeea6633	-0.45781097
191	0xbd05b496	-0.032642923
192	0x3e404e36	0.18779835
193	0x3e998cce	0.29990238
194	0x3eb775e5	0.35832134
195	0x3f0c31e4	0.5476363
196	0xbe30586f	-0.17221235
197	0x3ee16352	0.44021088
198	0xbdf4a52b	-0.11945566
199	0x3e40389d	0.18771596
200	0x3ebdbe6c	0.37059343
201	0x3e10a9f6	0.14127335
202	0x3e3e2e29	0.18572296
203	0x3e0671e1	0.13129379
204	0x3efa684a	0.4890769
205	0xbcd2e854	-0.025745548
206	0xbecf1533	-0.4044586
207	0x3eb95997	0.36201164
208	0x3e98cc85	0.29843536
209	0x3ecdf382	0.40224844
210	0x3dd79b18	0.10527629
211	0xbeb67a80	-0.35640335
212	0x3e818c47	0.25302336
213	0xbe3c0dd7	-0.18364654
214	0xbefe1786	-0.49627322
215	0xbee9a88a	-0.45636398
216	0xbcd9a79d	-0.026569182
217	0x3eae44b7	0.340368
218	0x3b73c511	0.0037196318
219	0xbf240b30	-0.6407957
220	0xbe857ef3	-0.26073417
221	0xbe0c6fc5	-0.13714512
222	0x3d874ce8	0.066064656
223	0x3e6d84d7	0.23195206
224	0x3ed9d6a3	0.42546567
225	0xbea7394d	-0.32660905
226	0x3e0382eb	0.1284291
227	0xbe8d6d60	-0.2762251
228	0xbe9318fb	-0.28729996
229	0x3ea45455	0.3209559
230	0xbe80a402	-0.25125128
231	0xbe3e4c07	-0.1858369
232	0xbdc2e716	-0.095167324
233	0xbe326a48	-0.17423356
234	0xbebc601e	-0.36792082
235	0x3ea9d361	0.33169082
236	0xbeebcaea	-0.4605325
237	0x3e9c6446	0.30545253
238	0x3e64f3ec	0.22358674
239	0xbd96a36d	-0.0735539
240	0xbeda620c	-0.4265293
241	0x3ecfd364	0.40590966
242	0xbe72b188	-0.23700535
243	0x3efb4422	0.4907542
244	0xbe4e9721	-0.20174839
245	0xbdd742b9	-0.10510773
246	0xbec40bcf	-0.3829026
247	0xbdb01d3d	-0.08599327
248	0x3eaa2de6	0.33238143
249	0x3eba831f	0.36428162
250	0xbeee3fc8	-0.46533036
251	0xbed681d2	-0.4189592
252	0xbeb51ad5	-0.35372034
253	0x3d936cf5	0.07198516
254	0xbe656855	-0.22403081
255	0xbe217d99	-0.15770568

VAE.encoder_mu.layers.1.linear0.bias f4 [128]
0	0x3eba6527	0.36405298
1	0x3e2552dd	0.16144891
2	0xbc933bdc	-0.01797288
3	0xbc0a1a08	-0.008429058
4	0x3e9a9ccd	0.30197755
5	0xbec92c0a	-0.39291412
6	0xbe905506	-0.28189868
7	0xbeb3df1e	-0.35131162
8	0x3e459acc	0.19297332
9	0xbdb9f487	-0.09079843
10	0x3e5b7189	0.21430029
11	0xbe050415	-0.12989838
12	0x3e8c002d	0.27343884
13	0x3f00b42d	0.50274926
14	0x3e70d660	0.23519278
15	0x3e490359	0.19630183
16	0x3c89866f	0.016787736
17	0xbe528533	-0.20558624
18	0xbcf8e4ab	-0.030382475
19	0x3df46c45	0.11934713
20	0x3dffe721	0.12495256
21	0x3d0d2ac7	0.034464624
22	0x3ebc193e	0.36738008
23	0x3dd459b8	0.10368675
24	0xbda66015	-0.08123795
25	0xbe0ac2b5	-0.13550837
26	0x3dad6418	0.08466357
27	0x3ee0f8be	0.43939775
28	0xbe5a8d10	-0.21342874
29	0xbe4e92eb	-0.20173232
30	0x3f118d4f	0.56856245
31	0xbe8d7a48	-0.27632356
32	0xbe179fd9	-0.14807071
33	0xbe923e86	-0.28563327
34	0xbe627f50	-0.22118878
35	0xbe46f30c	-0.19428653
36	0x3c65b802	0.014020922
37	0xbca91bbd	-0.02064311
38	0xbdd4d79d	-0.103926875
39	0xbe31751b	-0.17329828
40	0x3ed893e0	0.4230032
41	0x3dba883f	0.09108018
42	0x3ee27224	0.44227707
43	0xbebb1735	-0.36541143
44	0xbecaffb7	-0.3964822
45	0x3e27d5a2	0.16390088
46	0x3e4ed72f	0.20199274
47	0xbe638ea9	-0.2222239
48	0xbc8d083b	-0.017215839
49	0xbec8de38	-0.3923204
50	0xbe7c09a6	-0.24613056
51	0x3e54314c	0.2072193
52	0xbe3833f6	-0.17988572
53	0xbe10b4f2	-0.14131525
54	0xbba7f1dc	-0.0051252674
55	0xbdd72e1e	-0.10506843
56	0x3e5f9a9a	0.2183632
57	0xbe8eec0b	-0.27914461
58	0xbe642a3a	-0.22281733
59	0xbe8e46f2	-0.27788502
60	0x3ec9d3e3	0.3941947
61	0x3ec1bf7c	0.37841403
62	0x3e902dc9	0.2815993
63	0xbd195f38	-0.037444323
64	0x3da77345	0.08176283
65	0x3e047c90	0.12938142
66	0xbeb0048c	-0.3437847
67	0x3e1f3327	0.15546857
68	0x3ec61913	0.38691005
69	0xbe3b47a1	-0.18289043
70	0xbed4b334	-0.4154297
71	0x3e9cfa94	0.30659926
72	0x3ebec1ba	0.37257177
73	0x3e4bd972	0.19907168
74	0xbe49e009	-0.19714369
75	0x3c2aa6a9	0.010415711
76	0xbe8b7c11	-0.27243093
77	0x3e12d104	0.14337546
78	0xbeed061e	-0.4629373
79	0xbed71a25	-0.42012134
80	0xbee28eb4	-0.442495
81	0xbebd1985	-0.36933532
82	0xbe2e49bc	-0.17020315
83	0xbefe33ce	-0.496489
84	0x3e559e4c	0.20861167
85	0xbe1637c3	-0.14669709
86	0xbe03d6a4	-0.12874848
87	0x3d2cb4e6	0.042164706
88	0xbddf60bd	-0.10907123
89	0xbdd95d28	-0.10613471
90	0xbd87e20b	-0.06634911
91	0x3c0b5f4a	0.008506605
92	0x3d820f56	0.06350581
93	0x3ebdc6cf	0.3706574
94	0x3e991f9d	0.29906932
95	0xbe5df9d3	-0.21677332
96	0x3eafc0d3	0.343268
97	0xbe8cf995	-0.27534166
98	0xbec42c34	-0.38314974
99	0xbec3859d	-0.38187876
100	0x3dc07129	0.093965836
101	0x3e5ae8f1	0.21377923
102	0xbead565a	-0.33854944
103	0xbdd2bd5f	-0.10290026
104	0x3ec99997	0.39374992
105	0x3e4f896e	0.20267269
106	0x3efecc7d	0.49765387
107	0xbc0921eb	-0.008369903
108	0xbda65bf7	-0.0812301
109	0x3dc06165	0.093935765
110	0xbda70c95	-0.08156697
111	0x3e4b6fe2	0.19866899
112	0x3ec0fc00	0.3769226
113	0x3f02692c	0.5094173
114	0x3e0e9b96	0.13926539
115	0x3eb5d5be	0.35514635
116	0xbe0aa662	-0.13540033
117	0x3e8f464a	0.27983314
118	0x3f14f5a6	0.5818733
119	0xbee2a836	-0.4426896
120	0xbd83c1f1	-0.06433476
121	0x3dd069b8	0.10176414
122	0x3ea505aa	0.32230884
123	0xbe57bc3c	-0.210679
124	0x3eb9aea6	0.3626606
125	0x3d78fea0	0.060789704
126	0xbe8929e6	-0.26789778
127	0x3e9065a5	0.2820255

VAE.encoder_mu.layers.1.linear1.weight f4 [4, 128]
0	0x3d7af256	0.061266266
1	0x3bce9cf7	0.0063053328
2	0x3cd342c3	0.02578867
3	0xbc9dcbf8	-0.019262299
4	0x3d385fba	0.045013167
5	0xbe1396ca	-0.1441299
6	0x3de1772f	0.110090606
7	0x3e03baf7	0.1286429
8	0xbde99f2d	-0.114073135
9	0xbcc31ff2	-0.023818944
10	0x3d2a3e68	0.04156342
11	0x3d5a42f1	0.053286497
12	0x3cf68c7b	0.030096283
13	0xbdb5d6ff	-0.08878898
14	0xbd7e7575	-0.062123735
15	0xbdabac42	-0.08382465
16	0x3d77c6b5	0.060492236
17	0xbcf1502b	-0.029457172
18	0xbd3aee6f	-0.045637544
19	0x3d288fbe	0.04115271
20	0xbde289d5	-0.110614456
21	0x3d526b68	0.05137196
22	0xbda77a97	-0.08177679
23	0xbdd0d7ce	-0.101974115
24	0x3cb23e16	0.02175812
25	0xbbd34527	-0.0064474526
26	0x3d1be71d	0.038062204
27	0x3c1614e2	0.009160252
28	0xbc3a5ac9	-0.011374184
29	0x3d548c8f	0.05189186
30	0xbdb1b78a	-0.086775854
31	0xbc9c98d9	-0.019115852
32	0xbe0fb410	-0.14033532
33	0x3d5187ca	0.05115489
34	0x3d341b5f	0.043971416
35	0xbd9a1d36	-0.07525103
36	0xbd1fb200	-0.038988113
37	0xbd128689	-0.035772834
38	0x3be8be74	0.007102782
39	0xbe053612	-0.13008907
40	0x3d19ee0b	0.03758053
41	0xbdc7bcff	-0.09752845
42	0x3beee03b	0.007289914
43	0xbd6ff58e	-0.05858379
44	0x3e5e7350	0.21723676
45	0xbd943ff7	-0.07238763
46	0xbd160c05	-0.036632556
47	0x3dbd42be	0.09241246
48	0x3d35775e	0.04430329
49	0x3dea2e39	0.114345975
50	0xbdda60c4	-0.10662988
51	0xbc370005	-0.011169438
52	0x3e0cb0a0	0.13739252
53	0x3c3e512c	0.011616033
54	0x3df24035	0.11828653
55	0xbd171a4a	-0.036890306
56	0x3d1ddbec	0.038539812
57	0x3d6d215f	0.057893153
58	0x3c82f9e4	0.015988298
59	0x3d4b2de5	0.049604315
60	0xbd15917b	-0.036515694
61	0x3d0a791d	0.03380691
62	0x3d427514	0.047474936
63	0xbc5f4294	-0.013626713
64	0xbd60733d	-0.0547974
65	0x3ca0d6f8	0.019633755
66	0xbd242360	-0.0400728
67	0xbb8a35f7	-0.004217859
68	0xbc31ed6d	-0.010859829
69	0x3d41a431	0.047275726
70	0xbe28a962	-0.16470864
71	0xbd84183d	-0.064499356
72	0xbdb0dc17	-0.08635729
73	0x3c25d6a8	0.010121979
74	0x3da62688	0.08112818
75	0x3d334a75	0.04377218
76	0x3d15c8c9	0.036568437
77	0xbd43675c	-0.047705993
78	0x3e13b38f	0.14423965
79	0x3d160c1c	0.036632642
80	0xbd8e56f6	-0.0695018
81	0xbcf428b6	-0.029804569
82	0xbcdf576b	-0.027263364
83	0xbd77726d	-0.06041186
84	0x3da13709	0.07871825
85	0x3d0b70c8	0.034043103
86	0xbc8cd164	-0.017189689
87	0xbdce1e05	-0.100643195
88	0xbd08464c	-0.033270165
89	0xbe8cf918	-0.27533793
90	0x3ca658cd	0.020306015
91	0xbe269e40	-0.16271305
92	0x3d45dc33	0.0483057
93	0xbe031fd5	-0.12805112
94	0xbb65c9d3	-0.0035062924
95	0x3d8f6b01	0.07002831
96	0xbe081e97	-0.13292919
97	0xb9663784	-0.0002195519
98	0x3ca14644	0.019686826
99	0x3b6e420b	0.0036355283
100	0x3cedfe6b	0.02905198
101	0xbdf48a7e	-0.11940478
102	0xbdbe49bc	-0.092914075
103	0x3da6436e	0.0811833
104	0xbd65e9ee	-0.056131296
105	0x3d0535a7	0.03252187
106	0x3c478ed4	0.012180049
107	0x3da6cc07	0.08144384
108	0x3dd7ab33	0.105307005
109	0xbda493c5	-0.08035997
110	0xbcbe823e	-0.023255464
111	0xbd1aca8b	-0.037790816
112	0xbd139044	-0.036026254
113	0xbd15b54f	-0.036549862
114	0x3ded3dae	0.1158403
115	0x3cd1a3a6	0.025590729
116	0xbdd97593	-0.10618129
117	0x3dd131c6	0.10214572
118	0xbc5429b1	-0.012949393
119	0x3bfdb831	0.0077429046
120	0x3d807bad	0.06273589
121	0x3dc9864f	0.098400705
122	0xbd854706	-0.06507687
123	0x3d8a9821	0.067672975
124	0xbd98cc3c	-0.074608296
125	0xbcea7a6f	-0.028622834
126	0xbe320da2	-0.17388013
127	0x3a0b7082	0.0005319194
128	0x3b066355	0.0020505984
129	0x3bb80bd4	0.0056166444
130	0xbe71d406	-0.23616037
131	0xbe8afc27	-0.27145502
132	0x3df774b0	0.12082803
133	0xbd252958	-0.04032263
134	0xbdbd1985	-0.09233383
135	0xbc2dced2	-0.010608392
136	0xbcfbf5cc	-0.030756854
137	0xbd78340a	-0.060596503
138	0xbcb03826	-0.021511149
139	0xbd644a6e	-0.055735044
140	0x3c02414f	0.007950141
141	0x3b3e89ff	0.0029073951
142	0x3be718a2	0.007052497
143	0x3df1d229	0.11807663
144	0x3c4732d9	0.012158119
145	0xbded8fc5	-0.115996875
146	0x3d996f06	0.07491879
147	0x3d611624	0.054952756
148	0xbcf638aa	-0.030056316
149	0x3a6ece90	0.00091097597
150	0x3b975c53	0.00461916
151	0x3d1a8b45	0.037730474
152	0xbda86681	-0.08222676
153	0xbd33f3e7	-0.043933775
154	0xbc6a7c9f	-0.014311939
155	0x3dceeb82	0.10103513
156	0xbcaafd33	-0.020872688
157	0x3c1fdc50	0.009757116
158	0xbdb17b5d	-0.08666108
159	0x3d96016f	0.07324492
160	0x3e235906	0.15951928
161	0xbdafa8df	-0.085771315
162	0x3d1afda4	0.037839547
163	0x3d9ee419	0.0775835
164	0xbd1f6d3e	-0.03892254
165	0x3d6fc342	0.05853582
166	0xbd78b1e5	-0.06071653
167	0xbd5d2cec	-0.05399792
168	0x3d9eacda	0.077478126
169	0xbd6ab9ee	-0.057306223
170	0xbd87ad34	-0.06624833
171	0xbd8b42c1	-0.06799842
172	0xbe99619f	-0.2995729
173	0x3dcef58e	0.101054296
174	0x3cfa3045	0.030540595
175	0x3c22e42c	0.009942096
176	0xbd677e11	-0.05651671
177	0x3c3485cf	0.011018231
178	0x3b118c7c	0.002220898
179	0xbdadf912	-0.08494772
180	0x3c91e464	0.0178091
181	0xbe18fa05	-0.14939125
182	0x3e454cd8	0.19267595
183	0x3d719fa6	0.058990143
184	0xbe151358	-0.1455816
185	0x3de38d4b	0.11110934
186	0x3c59f2de	0.013302533
187	0xbd6c99aa	-0.057763733
188	0x3b4fb52b	0.0031693678
189	0xbcfd7aad	-0.030942285
190	0xbdfa7713	-0.12229743
191	0x3b8c5582	0.0042826543
192	0x3af1847d	0.0018426325
193	0x3c6a7f9f	0.014312654
194	0xbd4b588a	-0.049644984
195	0x3c5eff93	0.013610738
196	0xbd908c96	-0.07058065
197	0xbb2d0dc4	-0.002640591
198	0x3db1c146	0.08679442
199	0xbe02a457	-0.12758003
200	0x3da85e94	0.08221164
201	0xbcbd536b	-0.023111066
202	0xbdb73612	-0.0894586
203	0x3da0c5b6	0.0785021
204	0xbc80b710	-0.015712291
205	0xbcb6e4c8	-0.022325888
206	0x3ca99996	0.020703118
207	0xbd792b50	-0.06083232
208	0x3dfb4323	0.12268665
209	0xbc948263	-0.01812858
210	0x3ccde172	0.025131915
211	0xbd84ab71	-0.06478012
212	0x3db30ac3	0.08742287
213	0x3a6a99f7	0.0008949334
214	0xbd861601	-0.06547166
215	0xbe48323c	-0.19550413
216	0xbd6c08a3	-0.057625424
217	0x3ef676ae	0.4813742
218	0x3d2ed879	0.042686913
219	0xbd79df87	-0.061004188
220	0x3d1e5054	0.038650826
221	0xbc94559a	-0.018107224
222	0xbd6d0d10	-0.057873785
223	0xbd25ef1f	-0.040511247
224	0xbdd5e932	-0.10444869
225	0x3c8eadfa	0.017416943
226	0x3d145206	0.036211036
227	0x3e8a650e	0.27030224
228	0xbd44469e	-0.04791891
229	0xbcc05337	-0.02347718
230	0x3e69e615	0.22841676
231	0x3d19ac17	0.037517633
232	0x3c68f0df	0.014217584
233	0x3c87d414	0.016580619
234	0x3d6b85eb	0.05750076
235	0x3d9ee4e7	0.077585034
236	0x3d1c2bf9	0.038127873
237	0x3dc0b4bf	0.094094746
238	0xbdcfd289	-0.10147578
239	0x3d5b594b	0.053551953
240	0x3dc93fb5	0.09826604
241	0x3d5e7810	0.05431372
242	0x3d26d1e8	0.040727526
243	0x3dbedf86	0.093199775
244	0xbd02a045	-0.031891126
245	0x3dafee6a	0.08590396
246	0xbe06305c	-0.13104385
247	0x3d8fd7f4	0.07023612
248	0xbd6f1ed2	-0.058379002
249	0xbd76c659	-0.060247753
250	0x3ce6b75e	0.028163608
251	0xbe1af9db	-0.15134375
252	0x3cd3af6e	0.025840487
253	0xbe045ea8	-0.12926733
254	0xbe01dcdd	-0.12681909
255	0xbd8d0287	-0.06885248

VAE.encoder_mu.layers.1.linear1.bias f4 [4]
0	0xbcbf0795	-0.023319045
1	0x3c897628	0.016779974
2	0xbd5fa9b4	-0.0546052
3	0xbd1faeb0	-0.038984954

VAE.encoder_mu.layers.1.norm1.weight f4 [4]
0	0x3f8acd54	1.0843911
1	0x3f895ca3	1.0731395
2	0x3f8a1764	1.0788388
3	0x3f89cbe5	1.0765349

VAE.encoder_mu.layers.1.norm1.bias f4 [4]
0	0xbcab3871	-0.020900937
1	0x3cfd2511	0.030901464
2	0x3b3b2e5f	0.0028561575
3	0x3c11c090	0.008896008

VAE.encoder_mu.layers.1.norm0.weight f4 [4]
0	0x3f82ce36	1.021918
1	0x3f76a28a	0.96341765
2	0x3f7c547d	0.9856642
3	0x3f90155d	1.125652

VAE.encoder_mu.layers.1.norm0.bias f4 [4]
0	0x3cd38cf7	0.025824053
1	0x3bde9e03	0.006793739
2	0xbcfc543a	-0.030801881
3	0x3a638302	0.00086788845

VAE.encoder_mu.last_normalization.weight f4 [4]
0	0x3f800000	1.0
1	0x3f800000	1.0
2	0x3f800000	1.0
3	0x3f800000	1.0

VAE.encoder_mu.last_normalization.bias f4 [4]
0	0x00000000	0.0
1	0x00000000	0.0
2	0x00000000	0.0
3	0x00000000	0.0

VAE.encoder_mu.head.weight f4 [4, 4]
0	0xbd558b70	-0.05213493
1	0xbe98d998	-0.2985351
2	0xbe81fdce	-0.2538895
3	0x3e38b830	0.18039012
4	0x3ea9bd3c	0.33152187
5	0xbdcbf2e0	-0.09958434
6	0x3ec8a6ae	0.39189667
7	0x3e041140	0.12897205
8	0xbeb11f0a	-0.34593993
9	0xbef921f2	-0.4865871
10	0xbec13348	-0.37734437
11	0xbeada30a	-0.3391345
12	0xbef772d8	-0.48329806
13	0x3ead5636	0.33854836
14	0xbecab138	-0.39588332
15	0x3eb521f8	0.3537748

VAE.encoder_mu.head.bias f4 [4]
0	0xbe7c2ffc	-0.2462768
1	0x3e0d6608	0.13808453
2	0x3d9cc880	0.0765543
3	0x3e9e8536	0.30961007

VAE.encoder_logvar.layers.0.attention.W_q.weight f4 [4, 4]
0	0x3e87406e	0.26416343
1	0x3ecc2e86	0.39879245
2	0x3e320c38	0.17387474
3	0xbdeb6ada	-0.1149499
4	0x3e25b82b	0.16183536
5	0xbc8161d8	-0.015793726
6	0x3e3693af	0.17829774
7	0x3b643956	0.0034824214
8	0xbe20cba5	-0.15702684
9	0x3e093b14	0.13401443
10	0xbede8ad6	-0.43465298
11	0xbec75e7d	-0.38939276
12	0x3ec11f4e	0.37719196
13	0x3e9acc56	0.3023402
14	0xbf09e75e	-0.53868663
15	0x3e08e29f	0.13367699

VAE.encoder_logvar.layers.0.attention.W_q.bias f4 [4]
0	0xbcb4714c	-0.02202668
1	0xbcacb537	-0.021082504
2	0xbc8104af	-0.015749304
3	0xbc8cbdb9	-0.01718031

VAE.encoder_logvar.layers.0.attention.W_k.weight f4 [4, 4]
0	0x3e87df53	0.2653757
1	0x3e537da7	0.20653401
2	0x3eea2f60	0.4573927
3	0xbec1156d	-0.3771166
4	0x3eaaf5ff	0.33390805
5	0xbe943335	-0.28945318
6	0x3de20f6f	0.110381
7	0x3ddd113a	0.10794301
8	0x3cacb6cf	0.021083264
9	0xbe4b0c26	-0.19828853
10	0x3eb23dbd	0.34812728
11	0x3e5cd604	0.21566015
12	0xbe58816d	-0.21143122
13	0x3e98e47e	0.29861826
14	0xbc5015ac	-0.0127004795
15	0xbe302499	-0.17201461

VAE.encoder_logvar.layers.0.attention.W_k.bias f4 [4]
0	0x38d846bb	0.00010312857
1	0x3891b9ed	6.94877e-05
2	0x3913a986	0.00014082165
3	0x37c3fefb	2.3364546e-05

VAE.encoder_logvar.layers.0.attention.W_v.weight f4 [4, 4]
0	0x3eedd2a6	0.46449775
1	0x3ea61e16	0.3244483
2	0x3eb0284b	0.3440574
3	0x3cd487e1	0.025943698
4	0x3f093e4a	0.5361067
5	0xbd9ca661	-0.07648922
6	0xbeaec1f7	-0.34132358
7	0x3e291d28	0.16515028
8	0xbec94ec1	-0.39317897
9	0xbe7380dc	-0.23779625
10	0x3e23dca9	0.16002144
11	0xbe9b6d75	-0.30356947
12	0x3ea621cb	0.32447657
13	0x3e7919f5	0.24326308
14	0xbe90ca10	-0.2827916
15	0xbe97c5bb	-0.29643044

VAE.encoder_logvar.layers.0.attention.W_v.bias f4 [4]
0	0xbcd8bc14	-0.02645687
1	0xbcdb26f7	-0.026751978
2	0xbd058a00	-0.03260231
3	0x3d72f5e9	0.05931655
