tabsyn/vae/ckpt/adult/model.pt (torch, 70886 bytes, 112 tensors)

VAE.Tokenizer.weight f4 [7, 4]
0.23474202 0.34841073 0.49692246 0.113531604 -0.28623477 -0.12233553 0.17495182 0.086946376
0.18432069 0.019508956 0.36328045 -0.38798937 0.19008113 0.4092478 0.17092365 0.07679807
0.03248528 -0.26158774 -0.3188051 -0.33889964 -0.13498685 0.3406506 0.35123247 0.2946008
0.23384488 0.24401739 0.060468104 -0.0823791
00000000: 3660 703e e462 b23e 9f6c fe3e 4283 e83d
00000010: 5d8d 92be 0d8b fabd 9226 333e f110 b23d
00000020: 90be 3c3e 3fd1 9f3c e5ff b93e 8ba6 c6be
00000030: a1a4 423e ed88 d13e 9c06 2f3e 4e48 9d3d
00000040: 490f 053d d4ee 85be 6c3a a3be 4184 adbe
00000050: fe39 0abe c169 ae3e bed4 b33e ebd5 963e
00000060: 0875 6f3e b2df 793e 67ad 773d 60b6 a8bd

VAE.Tokenizer.bias f4 [15, 4]
0.49266684 -0.58397555 0.34935173 -0.23897886 0.018196104 -0.8436992 -0.12971602 -0.36668742
-0.45659387 0.046904624 0.81800467 -0.66532683 0.39728028 0.08006665 -0.40738994 0.008299845
-0.0013136222 0.33833808 0.08764573 0.31868178 0.41214633 -0.24511182 -0.41554582 0.0036867722
-0.040058535 0.4755242 -0.25043777 -0.32183218 0.3161222 0.3642387 -0.2899531 -0.10442865
0.14015244 -0.14390802 -0.23966236 -0.28658926 -0.22152182 -0.2605033 -0.25032067 -0.37042353
0.17041408 0.20711648 0.0021186508 -0.18975608 -0.1736159 0.2118607 -0.42001712 0.010964719
0.035203252 0.3769291 0.18942055 -0.18883036 -0.22385502 0.2246778 -0.5400155 -0.048924945
0.023148917 0.14480685 -0.14220428 -0.48142707
00000000: d43e fc3e 6c7f 15bf 3bde b23e e0b6 74be
00000010: ff0f 953c acfc 57bf 47d4 04be 74be bbbe
00000020: acc6 e9be 101f 403d c168 513f dc52 2abf
00000030: 5268 cb3e fcf9 a33d 6a95 d0be 13fc 073c
00000040: d92d acba a63a ad3e 9b7f b33d 422a a33e
00000050: d804 d33e 98fe 7abe 6cc2 d4be c69d 713b
00000060: 6b14 24bd e877 f33e 6139 80be 30c7 a4be
00000070: c5da a13e 7f7d ba3e bc74 94be b0de d5bd
00000080: 1f84 0f3e a05c 13be 0d6a 75be d4bb 92be
00000090: 9ed6 62be b060 85be 082a 80be 27a8 bdbe
000000a0: 0781 2e3e 5816 543e 10d9 0a3b 6b4f 42be
000000b0: 5ec8 31be 03f2 583e 7c0c d7be 5da5 333c
000000c0: 4931 103d dafc c03e 76f7 413e bf5c 41be
000000d0: 403a 65be f011 663e 753e 0abf 8665 48bd
000000e0: cca2 bd3c 3f48 143e 009e 11be 9c7d f6be

VAE.Tokenizer.category_embeddings.weight f4 [104, 4]
0.105668455 -0.43137282 -0.259368 0.2614315 -0.3915207 -0.20383802 0.25329998 -0.08954498
-0.1377581 0.32283673 0.055935364 0.21957001 0.17241846 -0.3917037 0.30790842 0.17841339
0.27133346 0.15733577 -0.18881956 -0.30800155 0.12847464 -0.3674626 0.2859229 -0.11472316
-0.25756428 -0.48497483 0.59227 -0.020890871 -0.5590846 -0.35644266 0.6840402 -0.07326034
-0.43652943 0.3002236 0.35357133 -0.31013706 -0.2029309 -0.24641441 -0.3930037 0.5452432
-0.18366668 -0.29126593 0.8636763 -0.8303848 -0.37349045 -0.24492702 0.46592906 -0.6247846
-0.23049636 0.73914003 0.01701187 -0.72369766 0.96235704 -0.022556575 0.106328726 -0.69031835
-0.13071492 0.30977455 0.81319624 -0.7532488 -0.2868086 0.21500379 0.27498186 0.67048025
-0.2430096 0.028689584 0.25422662 0.23005342 0.26293564 0.57779205 0.2755867 -0.3644128
0.54316235 0.24360816 -0.89469165 -0.5589386 0.02719095 -0.3175433 -0.22340208 0.13405466
-0.4462239 0.023253288 0.437686 0.027068995 -0.8853606 0.5343365 0.1934287 -0.38893247
-0.079467356 0.6387834 -0.18896991 0.13790582 -0.26285824 0.52159756 -0.36936003 0.8993626
-0.8313728 0.1845697 0.19964525 0.10494213 0.055338804 -0.17575343 0.011352108 -0.22699219
0.32777253 -0.22562161 -0.90758985 0.21012758 -0.3283401 -0.018153168 0.29995748 -0.18967253
1.1765938 -0.033891264 0.022550263 -0.73164296 0.10876688 0.20772822 -0.6447233 0.2297809
-0.044683658 0.13201185 0.15872909 -0.31239247 -0.06869362 -0.052786723 0.08547751 0.09071354
0.00736491 0.65234864 0.18741862 0.1016713 0.6002506 0.6664053 -0.23053592 -0.14135377
-0.7401119 -0.44395244 0.191217 -0.57203364 -0.2804866 -0.407328 0.6699109 -0.044527855
0.65852064 0.08132333 0.24840485 0.29938385 -0.75329846 -0.04293046 0.27197176 0.16063176
0.13708402 -0.62544554 -0.47477087 0.12982002 0.13745306 -0.26247394 0.32029164 -0.41805607
-0.49832016 0.046805598 -0.33218956 -0.15265563 0.34564903 0.04531639 -0.5349504 -0.0916849
0.047897924 -0.19150649 0.42872953 0.19217294 -0.126192 0.26409847 -0.23133463 0.33044913
-0.11034229 0.1649302 -0.25083736 0.66525984 0.59586686 -0.12288962 -0.102916874 -0.46943405
-0.1070755 0.7749404 0.3693342 -0.39767653 0.45942968 0.513167 -0.19034365 -0.20545132
0.43280825 -0.054421663 -0.5549576 0.6609909 0.32351273 -0.38482505 -0.46278903 -0.30597886
-0.022082964 -0.27768654 -0.4872135 0.3486359 -0.0675638 -0.40891954 0.60891247 -0.068301044
0.45988292 0.42284575 -0.0385091 -0.6473321 -0.19556428 0.3240988 0.58184665 -0.47536385
0.036558475 0.25717452 0.15267453 -0.09914951 0.114218295 -0.26584956 -0.36695495 0.17419404
0.1700202 -0.24681972 -0.22090007 0.42077363 -0.027145367 0.3483978 -0.049228534 0.17770644
0.33381665 -0.39442262 -0.19776061 -0.6120184 0.16113538 -0.31005362 0.4689359 0.10450191
0.22272933 0.16580597 -0.019355835 -0.27835968 0.16948551 -0.039188582 -0.16902411 0.6014777
-0.23638393 -0.101495765 -0.04720386 0.71799016 0.02245113 0.19999379 -0.07171556 0.58615005
00000000: b468 d83d e6dc dcbe e2cb 84be 59da 853e
00000010: 6775 c8be eaba 50be 89b0 813e 5c63 b7bd
00000020: 7610 0dbe db4a a53e 7b1c 653d f6d6 603e
00000030: 778e 303e 638d c8be 2ca6 9d3e 00b2 363e
00000040: 38ec 8a3e a11c 213e ea59 41be 61b2 9dbe
00000050: db8e 033e 0f24 bcbe 7d64 923e faf3 eabd
00000060: 77df 83be 9f4e f8be 029f 173f 5523 abbc
00000070: 2b20 0fbf a77f b6be 421d 2f3f 8409 96bd
00000080: c980 dfbe e8b6 993e 4d07 b53e 49ca 9ebe
00000090: 1ecd 4fbe 0f54 7cbe c837 c9be 0f95 0b3f
000000a0: 1e13 3cbe cf20 95be e419 5d3f 1994 54bf
000000b0: 243a bfbe 26ce 7abe 418e ee3e e2f1 1fbf
000000c0: 3d07 6cbe 4838 3d3f 7a5c 8b3c 4044 39bf
000000d0: 085d 763f 91c8 b8bc e0c2 d93d b4b8 30bf
000000e0: 22da 05be c59a 9e3e a12d 503f ead4 40bf
000000f0: 94d8 92be f429 5c3e 6cca 8c3e 98a4 2b3f
00000100: 82d7 78be 6b06 eb3c fe29 823e 2093 6b3e
00000110: 809f 863e 2eea 133f b319 8d3e 5194 babe
00000120: b00c 0b3f 6b74 793e 830a 65bf 9a16 0fbf
00000130: 8ebf de3c 0995 a2be 84c3 64be a045 093e
00000140: 7677 e4be ae7d be3c 6118 e03e ccbf dd3c
00000150: fea6 62bf 47ca 083f 2c12 463e 2822 c7be
00000160: c8bf a2bd 4f87 233f 5481 41be 2f37 0d3e
00000170: 5b95 86be 6b87 053f c21c bdbe a13c 663f
00000180: d9d4 54bf d7ff 3c3e ce6f 4c3e e6eb d63d
00000190: f1aa 623d b5f8 33be 31fe 393c a470 68be
000001a0: cdd1 a73e 5a09 67be cf57 68bf af2b 573e
000001b0: 321c a8be f4b5 94bc 0794 993e 8439 42be
000001c0: a09a 963f 91d1 0abd 54bb b83c f44c 3bbf
000001d0: 2cc1 de3d b5b6 543e 960c 25bf af4b 6b3e
000001e0: 3606 37bd 1d2e 073e e189 223e e8f1 9fbe
000001f0: 3eaf 8cbd e436 58bd d50e af3d 05c8 b93d
00000200: 5855 f13b 5200 273f abea 3f3e 0b39 d03d
00000210: 06aa 193f 8a99 2a3f 9c11 6cbe 0bbf 10be
00000220: f977 3dbf bc4d e3be 64ce 433e cc70 12bf
00000230: f19b 8fbe 4c8d d0be 487f 2b3f d762 36bd
00000240: cf94 283f d98c a63d d75d 7e3e d748 993e
00000250: 2bd8 40bf dad7 2fbd e23f 8b3e a77c 243e
00000260: c15f 0c3e 331d 20bf 2b15 f3be 8aef 043e
00000270: 7fc0 0c3e fc62 86be 44fd a33e 720b d6be
00000280: d223 ffbe 3ab7 3f3d c014 aabe c251 1cbe
00000290: e9f8 b03e ae9d 393d 82f2 08bf 4bc5 bbbd
000002a0: 9d30 443d 471a 44be 7082 db3e fcc8 443e
000002b0: 7a38 01be ea37 873e fce2 6cbe a130 a93e
000002c0: 23fb e1bd 76e3 283e c16d 80be 784e 2a3f
000002d0: bb8a 183f 8ead fbbd 15c6 d2bd a959 f0be
000002e0: 664a dbbd 7e62 463f 5f19 bd3e 429c cbbe
000002f0: 5e3a eb3e ea5e 033f 72e9 42be d561 52be
00000300: 0b99 dd3e 40e9 5ebd b411 0ebf b336 293f
00000310: 76a3 a53e ca07 c5be aff2 ecbe 43a9 9cbe
00000320: 55e7 b4bc ee2c 8ebe 0c74 f9be 6880 b23e
00000330: e45e 8abd e75d d1be b0e1 1b3f 6be1 8bbd
00000340: c675 eb3e 3d7f d83e b8bb 1dbd 8eb7 25bf
00000350: 0142 48be 47f0 a53e e7f3 143f e462 f3be
00000360: 57be 153d 61ac 833e b656 1c3e e60e cbbd
00000370: 48eb e93d 6f1d 88be 85e1 bbbe ec5f 323e
00000380: c619 2e3e 4fbe 7cbe a133 62be a46f d73e
00000390: f65f debc 3261 b23e dca3 49bd adf8 353e
000003a0: 04ea aa3e c3f1 c9be c281 4abe 3dad 1cbf
000003b0: ac00 253e 59bf 9ebe 5e18 f03e 1905 d63d
000003c0: 2813 643e 0ac9 293e 2190 9ebc 2985 8ebe
000003d0: 9c8d 2d3e 3584 20bd a814 2dbe 71fa 193f
000003e0: a10e 72be 03dd cfbd d658 41bd 34ce 373f
000003f0: 6feb b73c 2ccb 4c3e 9cdf 92bd ee0d 163f

VAE.encoder_mu.layers.0.attention.W_q.weight f4 [4, 4]
-0.35552052 -0.026805595 0.24792092 -0.29726368 0.008239813 -0.14371552 -0.14190938 -0.28850117
-0.34836274 -0.4256198 0.40114036 -0.15827905 -0.29630938 -0.09414935 0.32157892 -0.26855907
00000000: c906 b6be 6897 dbbc fbde 7d3e f232 98be
00000010: 4800 073c 292a 13be b150 11be 6db6 93be
00000020: 9a5c b2be d7ea d9be 4562 cd3e e713 22be
00000030: ddb5 97be 60d1 c0bd fea5 a43e 9380 89be

VAE.encoder_mu.layers.0.attention.W_q.bias f4 [4]
0.012822126 -0.12468066 -0.13329418 -0.16665764
00000000: e513 523c 9358 ffbd 457e 08be 4da8 2abe

VAE.encoder_mu.layers.0.attention.W_k.weight f4 [4, 4]
0.33512557 0.26879555 -0.098351374 -0.34408867 0.17311153 0.17309515 0.37324396 0.09367664
-0.23274808 0.24455807 -0.49113044 0.056852292 -0.29259378 0.05625261 0.1957929 0.17561667
00000000: 9495 ab3e 929f 893e 726c c9bd 642c b0be
00000010: 2644 313e db3f 313e d519 bf3e 8ad9 bf3d
00000020: 8355 6ebe 6e6d 7a3e 7375 fbbe f3dd 683d
00000030: dace 95be 2369 663d ef7d 483e dbd4 333e

VAE.encoder_mu.layers.0.attention.W_k.bias f4 [4]
0.00020505699 -0.0036023178 -0.002059445 -0.00014181243
00000000: 9104 5739 dd14 6cbb c1f7 06bb 7cb3 14b9

VAE.encoder_mu.layers.0.attention.W_v.weight f4 [4, 4]
0.1874695 0.16611676 -0.034023173 0.044637904 0.18054521 0.16256948 -0.035095982 0.04092181
0.20432074 0.17484994 -0.035983466 0.046812396 0.1809402 0.17182532 -0.039013892 0.037779566
00000000: 01f8 3f3e 831a 2a3e e25b 0bbd 3cd6 363d
00000010: d8e0 383e 9d78 263e cec0 0fbd a19d 273d
00000020: 7539 513e dd0b 333e 6663 13bd 5bbe 3f3d
00000030: 6348 393e faf2 2f3e 08cd 1fbd bfbe 1a3d

VAE.encoder_mu.layers.0.attention.W_v.bias f4 [4]
0.050207347 -0.042030714 0.0030765173 -0.055041026
00000000: 38a6 4d3d 6628 2cbd 659f 493b b372 61bd

VAE.encoder_mu.layers.0.linear0.weight f4 [128, 4]
0.34076342 -0.49617818 0.033395696 -0.06617732 0.06377851 -0.3057438 0.15114844 0.0743556
-0.025772534 -0.40412742 -0.42242712 0.4749252 -0.2017251 0.16714941 -0.28614792 0.26123667
0.3002855 -0.0668343 -0.4561879 -0.11648184 0.41891828 0.11238887 0.23077503 0.33000344
0.19331922 -0.18969825 -0.4504108 -0.34729716 0.40891427 -0.09257811 -0.16447875 -0.46917695
-0.14756145 -0.088883944 -0.0010827674 0.29102415 0.5206164 -0.08931613 0.36901915 -0.048322238
-0.1944648 0.29426748 0.12456323 0.4587987 0.15891264 -0.020945754 -0.3991265 -0.1104544
0.13564412 -0.40360358 -0.23121129 -0.08455577 -0.35504714 0.34702924 -0.12407752 -0.12841292
0.15327698 0.22905001 -0.23946872 0.4577004 0.32396588 -0.35833526 -0.23207016 -0.095055
-0.2979188 -0.10750443 -0.10016924 -0.29068747 -0.5128665 0.48658934 0.10844628 -0.41580334
0.36135197 0.4982752 0.30066925 -0.35459563 -0.44585863 -0.32822797 -0.17842992 0.36572665
-0.05111828 0.3162711 0.27957368 0.4576235 -0.15411185 -0.58764607 0.3814992 0.29586676
0.45107436 -0.14974381 0.0018055026 -0.23831476 0.066146076 0.0068909917 0.08124041 0.3337765
0.33941823 -0.11797258 -0.12192703 -0.13011925 -0.301991 0.53812474 -0.2830879 -0.57772875
-0.44436717 0.1058743 -0.16557696 -0.10877803 0.14108954 -0.015379754 0.47604215 -0.3415957
0.33863482 0.22224773 -0.3136703 -0.26331612 0.42316297 -0.49192286 -0.25278962 0.2591218
-0.13353427 -0.005129386 0.12259031 0.39609948 0.42367813 0.24259874 -0.06048559 -0.4008342
-0.062994376 0.4059671 0.47711796 0.18477014 -0.4617024 0.36594692 0.41551146 0.6881063
0.040147863 -0.43745142 0.21043357 -0.12146421 -0.013245862 -0.13269654 -0.0002122599 0.29130602
-0.37942815 0.4374692 0.017677078 -0.37433824 0.053254224 0.32097387 -0.30012664 -0.2563285
-0.44132826 0.11929743 -0.11250885 -0.44386122 0.05758665 -0.5043097 0.4764926 -0.44442785
0.5035306 -0.31554323 0.2787461 0.21510415 0.33864102 0.3539563 0.20458804 -0.47339502
0.0015183312 -0.2948533 -0.5020145 -0.38647437 -0.09802047 0.6582963 0.110831976 -0.2989349
0.3614634 0.32716516 0.06389686 -0.18898298 0.36832964 -0.3794735 -0.075000644 -0.29845762
-0.018917384 0.28689328 -0.3157063 0.23811115 -0.05813784 0.44965017 -0.21845077 -0.10207115
0.0023671994 -0.33656308 -0.15993206 0.2393277 0.45088068 -0.45188817 -0.36837676 -0.02435132
0.46198523 0.31163585 -0.18827075 0.13256755 0.22881767 -0.5055893 0.43729082 0.02613849
0.44494152 0.16308418 0.5073631 -0.17562059 0.42722166 -0.5415399 0.42453304 -0.14986609
-0.04354294 -0.3589392 -0.11440047 0.054836042 -0.3419593 0.2931108 0.113870494 0.4496023
0.5013422 0.13376306 -0.026319945 -0.19111116 -0.08033301 0.39392433 0.011041483 0.44348446
0.45204848 -0.035729233 -0.46608743 -0.2928948 0.43633667 -0.41151068 -0.38459656 -0.25537074
0.2583401 0.036015064 0.3378651 -0.2534223 0.44247842 0.5171571 -0.21970057 -0.5119769
0.018904055 -0.2673889 0.32760295 -0.37558162 -0.1543998 0.011496224 0.23163116 -0.45584157
00000000: 8b78 ae3e 110b febe edc9 083d fa87 87bd
00000010: 4f9e 823d 748a 9cbe a8c6 1a3e c047 983d
00000020: ec20 d3bc cae9 cebe 5e48 d8be 6529 f33e
00000030: 0691 4ebe 3729 2b3e fb81 92be d0c0 853e
00000040: 05bf 993e 6ce0 88bd 7691 e9be 088e eebd
00000050: 757c d63e 232c e63d 4a50 6c3e 36f6 a83e
00000060: 79f5 453e 4240 42be 3f9c e6be efd0 b1be
00000070: 365d d13e 9899 bdbd 1e6d 28be f637 f0be
00000080: 591a 17be c908 b6bd a5eb 8dba 1e01 953e
00000090: 1e47 053f 60eb b6bd 14f0 bc3e 8aed 45bd
000000a0: c821 47be 3aaa 963e 021b ff3d aae7 ea3e
000000b0: ffb9 223e 6e96 abbc 4f5a ccbe eb35 e2bd
000000c0: 4be6 0a3e 21a5 cebe a7c2 6cbe 932b adbd
000000d0: bdc8 b5be d1ad b13e 5b1c febd ad7e 03be
000000e0: a4f4 1c3e 168c 6a3e 4a37 75be b557 ea3e
000000f0: dbde a53e b877 b7be cda3 6dbe 32ac c2bd
00000100: d088 98be 482b dcbd 8825 cdbd fdd4 94be
00000110: 384b 03bf 3d22 f93e 1519 de3d 2de4 d4be
00000120: 2003 b93e ed1d ff3e 52f1 993e 8f8d b5be
00000130: 9547 e4be 7f0d a8be 55b6 36be 8640 bb3e
00000140: 6761 51bd 49ee a13e 4824 8f3e a14d ea3e
00000150: 7fcf 1dbe f96f 16bf dd53 c33e d97b 973e
00000160: 38f3 e63e 7156 19be 9da6 ec3a c908 74be
00000170: 9877 873d d4cd e13b 5f61 a63d c1e4 aa3e
00000180: 3ac8 ad3e 9c9b f1bd e1b4 f9bd fb3d 05be
00000190: 909e 9abe 8bc2 093f e6f0 90be 08e6 13bf
000001a0: 1884 e3be a0d4 d83d 028d 29be 04c7 debd
000001b0: c779 103e 5dfb 7bbc ccbb f33e a2e5 aebe
000001c0: 8b61 ad3e e994 633e 6599 a0be 5fd1 86be
000001d0: d1a8 d83e 50dd fbbe a46d 81be 9dab 843e
000001e0: 35bd 08be 6914 a8bb a110 fb3d 8dcd ca3e
000001f0: 57ec d83e ce6b 783e bdbf 77bd 243a cdbe
00000200: 3203 81bd ebda cf3e ce48 f43e 6234 3d3e
00000210: 4264 ecbe 655d bb3e ebbd d43e bc27 303f
00000220: 1672 243d a2f9 dfbe e67b 573e 3ac2 f8bd
00000230: 2c05 59bc 9ae1 07be 1592 5eb9 1026 953e
00000240: 6844 c2be f7fb df3e 85cf 903c 43a9 bfbe
00000250: 1a21 5a3d b056 a43e 33aa 99be 7d3d 83be
00000260: c7f5 e1be 3652 f43d 0a6b e6bd c741 e3be
00000270: fbdf 6b3d 711a 01bf d7f6 f33e 0c8c e3be
00000280: 62e7 003f e28e a1be cfb7 8e3e 4344 5c3e
00000290: 5b62 ad3e c339 b53e 877f 513e d560 f2be
000002a0: be02 c73a 03f7 96be 0684 00bf f8df c5be
000002b0: f5be c8bd 1b86 283f e0fb e23d ff0d 99be
000002c0: bb11 b93e 3182 a73e 5bdc 823d c184 41be
000002d0: b495 bc3e 5a4a c2be f099 99bd 70cf 98be
000002e0: a1f8 9abc ade3 923e 42a4 a1be 69d3 733e
000002f0: f221 6ebd 8c38 e63e 8fb1 5fbe ae0a d1bd
00000300: 0423 1b3b ff51 acbe 3bc5 23be 5212 753e
00000310: d5d9 e63e e35d e7be e19b bcbe 6b7c c7bc
00000320: 5489 ec3e bc8e 9f3e 0cca 40be cabf 073e
00000330: 2e4f 6a3e 4d6e 01bf 95e4 df3e 6320 d63c
00000340: 60cf e33e 8aff 263e 8ce2 013f e2d5 33be
00000350: ccbc da3e 5ca2 0abf 655c d93e 7f76 19be
00000360: 155a 32bd e1c6 b7be cb4a eabd c29b 603d
00000370: 4a15 afbe 9e12 963e ef34 e93d 4632 e63e
00000380: f657 003f 2ff9 083e ed9c d7bc a5b2 43be
00000390: a285 a4bd 73b0 c93e 56e7 343c 6510 e33e
000003a0: e672 e73e d158 12bd 03a3 eebe 4ff6 95be
000003b0: 8567 df3e 87b1 d2be d7e9 c4be f4bf 82be
000003c0: 2745 843e 8884 133d a8fc ac3e 91c0 81be
000003d0: 888c e23e 6864 043f 30f9 60be eb10 03bf
000003e0: addc 9a3c 33e7 88be 93bb a73e 3c4c c0be
000003f0: fb1a 1ebe a95a 3c3c b830 6d3e 1164 e9be

VAE.encoder_mu.layers.0.linear0.bias f4 [128]
0.4089573 0.08733171 0.29421058 -0.34892035 0.19053213 0.4943551 0.33093974 0.4086203
0.018841984 0.13552392 0.16447401 0.44804665 -0.326066 0.40138733 0.18035647 -0.11411631
-0.3988131 0.3802477 -0.03467663 -0.42029312 -0.011579755 -0.33705792 0.36460918 0.51197004
0.011619753 -0.039315652 -0.28833023 0.02609434 0.16560031 0.3434061 -0.009524969 -0.08376955
0.33902648 -0.029985413 -0.3256952 -0.23704791 0.48016495 0.010784139 0.24885072 0.018996306
0.12526092 -0.17611544 0.10307503 -0.18765187 -0.0666649 -0.24116988 -0.36311117 0.4417957
-0.061962303 0.38307533 0.09352801 0.12034857 -0.31968084 0.464677 -0.031600542 -0.43759534
0.48875278 0.3871218 0.15210897 -0.046299644 0.18379053 -0.24208245 -0.09354338 0.41879278
-0.2520084 -0.19627523 0.04912122 0.21122956 0.28659365 0.06318832 0.46651077 0.32086182
0.2937174 0.45985723 -0.22039984 -0.040943105 0.4052932 -0.0043890537 -0.26723215 -0.3837617
0.013260394 0.370595 -0.06416258 -0.22593775 -0.025610814 -0.12971556 0.011295091 0.18449208
-0.29487753 0.3675935 -0.39614767 0.27307916 -0.15512918 -0.24516232 -0.39801112 0.3095841
-0.22353774 0.4195988 -0.012986767 -0.45211715 0.27059156 -0.36674616 -0.18459533 0.252846
-0.06034454 -0.17688341 -0.061176173 0.35416946 -0.4891205 -0.38005012 0.061812963 -0.45442486
-0.4639711 0.48137063 0.13436887 0.0094449725 0.14689808 0.3251237 -0.36202854 -0.5399783
0.13224728 -0.21138234 -0.23568524 0.34498537 0.34146258 0.33506238 0.31404087 -0.31487998
00000000: da62 d13e f8da b23d c5a2 963e b0a5 b2be
00000010: db1a 433e 1d1c fd3e ef70 a93e ae36 d13e
00000020: 815a 9a3c c8c6 0a3e e06b 283e 5f66 e53e
00000030: 1ff2 a6be a482 cd3e 5eaf 383e d0b5 e9bd
00000040: 3b31 ccbe d4af c23e 1509 0ebd a930 d7be
00000050: 03b9 3dbc db92 acbe 0eae ba3e 7810 033f
00000060: c760 3e3c 7309 21bd 05a0 93be ccc3 d53c
00000070: 2193 293e edd2 af3e 9e0e 1cbc 5f8f abbd
00000080: e194 ad3e f8a3 f5bc 85c1 a6be b0bc 72be
00000090: 2ed8 f53e f5af 303c b9d2 7e3e 249e 9b3c
000000a0: 6644 003e 9b57 34be 0019 d33d d027 40be
000000b0: 9b87 88bd 3df5 76be b5e9 b9be 0c33 e23e
000000c0: 2fcc 7dbd 7322 c43e 9d8b bf3d 5079 f63d
000000d0: 35ad a3be 25ea ed3e 926f 01bd 7f0c e0be
000000e0: ce3d fa3e d434 c63e 74c2 1b3e b2a4 3dbd
000000f0: 9633 3c3e 76e4 77be ac93 bfbd 026c d63e
00000100: 3f07 81be 60fc 48be 5533 493d 904c 583e
00000110: 67bc 923e e168 813d 80da ee3e 0048 a43e
00000120: 2162 963e 6872 eb3e 7fb0 61be f5b3 27bd
00000130: 9782 cf3e 0dd2 8fbb a7d2 88be 6a7c c4be
00000140: 2042 593c a1be bd3e ac67 83bd 3a5c 67be
00000150: c5cd d1bc 28d4 04be 0c0f 393c 7eeb 3c3e
00000160: 30fa 96be 3735 bc3e ded3 cabe 08d1 8b3e
00000170: 2fda 1ebe d50b 7bbe 1dc8 cbbe cf81 9e3e
00000180: 14e7 64be a7d5 d63e 73c6 54bc e67b e7be
00000190: fa8a 8a3e 27c6 bbbe 8f06 3dbe 0875 813e
000001a0: d62b 77bd ed20 35be de93 7abd b355 b53e
000001b0: 016e fabe ee95 c2be 972f 7d3d 60aa e8be
000001c0: 9f8d edbe 3676 f63e fe97 093e 16bf 1a3c
000001d0: 736c 163e 9d76 a63e ce5b b9be 053c 0abf
000001e0: d56b 073e 9d74 58be 7957 71be eca1 b03e
000001f0: 2fd4 ae3e 4c8d ab3e f7c9 a03e f337 a1be

VAE.encoder_mu.layers.0.linear1.weight f4 [4, 128]
-0.07408899 -0.07499501 -0.00922752 0.06872269 0.07447037 -0.022391766 0.007700172 -0.010233016
-0.091278434 -0.07478515 -0.0069554704 0.030952273 0.008268374 0.07301566 -0.047676656 -0.063979186
0.054130867 0.051168352 -0.05124993 -0.008100086 -0.056952685 0.029601023 0.005711463 -0.04962908
0.047398176 0.013318279 -0.04894918 0.060610384 0.064804256 0.06751621 -0.08646046 0.08424655
-0.09407799 -0.338314 -0.054463778 -0.104816385 -0.06183613 -0.009111286 -0.03721279 0.021304155
-0.086144775 0.07134825 0.121485844 0.018514398 -0.07447733 -0.024572158 0.014351213 -0.080901265
-0.13366108 0.10025434 0.09900685 0.03615752 -0.042995512 0.06864031 -0.006526433 0.08857368
0.05654567 -0.10133355 0.053763986 0.051491242 -0.031778548 0.029984213 0.0018560982 -0.070871755
-0.00041343278 0.00012020788 -0.02102878 0.07151703 -0.06390088 -0.046899684 -0.08927786 -0.07928017
-0.057753675 -0.030205593 0.08025007 -0.012927934 0.0030514684 0.031355143 0.04116054 -0.014831453
0.08790064 -0.025434963 -0.10778942 -0.068300165 -0.015293961 -0.08686508 -0.12272007 -0.09545179
0.08116938 -0.0033478884 -0.13317236 0.121201865 0.055448957 -0.041844685 0.018526852 0.063819304
0.13734482 0.06061023 0.03053385 -0.060454372 -0.010628584 0.13033831 0.09492376 -0.0064625484
0.11510842 -0.018588146 0.0442551 -0.08266198 0.04298364 -0.016925517 -0.036540348 -0.069425166
0.040799093 -0.014384882 -0.090108305 0.031233817 0.024627794 0.010245359 -0.027246863 0.22864863
0.03184583 -0.12841275 -0.10677809 -0.057710264 -0.010586092 -0.03322693 -0.03979963 0.105616055
-0.030033104 -0.084104575 -0.022576265 -0.008484084 0.05134032 -0.07364255 -0.00073171273 -0.07862769
-0.058639828 0.02266882 -0.015729059 0.021360062 0.07514317 0.10481968 0.09688351 -0.008781146
-0.107093744 0.075493425 -0.043917626 0.10414224 0.0393198 0.15156993 -0.10010837 0.031046707
-0.09170031 0.18509147 0.011681315 -0.10619287 0.08026326 -0.013868754 0.04495274 0.016150719
0.0004424742 0.29800132 -0.0117961755 0.19864564 0.008882828 0.07807719 0.057361692 -0.065268815
-0.10999048 -0.054882124 -0.06491341 0.12025177 -0.05357138 -0.0457456 0.08693761 0.078509234
0.013698331 -0.049735192 -0.08951272 0.044816293 -0.048420835 -0.10481938 -0.010829292 -0.0056356913
0.057159748 0.02215838 -0.0027849968 -0.05340366 0.045901045 0.08691567 -0.008058422 0.06268581
-0.012664766 0.0073823147 0.034392692 0.08288145 0.060814884 -0.07238704 0.041459873 -0.017928772
0.054905944 -0.060757264 -0.056080163 0.017349645 0.07834662 -0.007198015 -0.0054272446 0.02758087
0.015807854 0.08414282 -0.061711904 0.047774203 -0.040520225 -0.03351138 -0.06011238 0.08817652
0.17763928 0.06736929 -0.021123054 0.043274127 0.030492133 -0.020700263 0.103633486 -0.051182892
-0.003073932 -0.055567324 -0.024186635 0.032934677 -0.10620383 0.07546446 -0.14675161 0.04671423
-0.07284288 0.08341822 -0.08032593 0.11109821 0.03791479 0.01669965 0.057982843 0.064684294
-0.08760478 -0.067485206 0.044696596 0.16253667 0.0771282 -0.027160253 0.08832624 0.017746015
-0.042565133 -0.076080345 0.045585826 0.033952583 0.042745553 0.056822784 0.057633795 -0.06432486
00000000: f8bb 97bd fc96 99bd 062f 17bc 7bbe 8c3d
00000010: ec83 983d f06e b7bc b951 fc3b 61a8 27bc
00000020: 30f0 babd f528 99bd b7ea e3bb 9f8f fd3c
00000030: 1378 073c 3c89 953d 9948 43bd 8507 83bd
00000040: 54b8 5d3d e895 513d 72eb 51bd 39b6 04bc
00000050: 3847 69bd d87d f23c 3927 bb3b dd47 4bbd
00000060: 9724 423d e934 5a3c ef7e 48bd 9842 783d
00000070: 18b8 843d f045 8a3d 2f12 b1bd 7589 ac3d
00000080: f6ab c0bd 7e37 adbe 6915 5fbd f9a9 d6bd
00000090: e247 7dbd 8147 15bc 706c 18bd 0d86 ae3c
000000a0: ac6c b0bd 081f 923d 92cd f83d 82ab 973c
000000b0: 9287 98bd 8d4b c9bc 5a21 6b3c 90af a5bd
000000c0: 73de 08be 2652 cd3d 1ac4 ca3d e819 143d
000000d0: 101c 30bd 4a93 8c3d b0db d5bb 1e66 b53d
000000e0: 6f9c 673d f787 cfbd a037 5c3d 7be8 523d
000000f0: 392a 02bd 74a1 f53c 5248 f33a 3625 91bd
00000100: 02c2 d8b9 1d18 fc38 8c44 acbc 8577 923d
00000110: 77de 82bd e219 40bd 50d7 b6bd a45d a2bd
00000120: 1e8f 6cbd b871 f7bc 265a a43d afcf 53bc
00000130: 25fb 473b 406e 003d f497 283d 9fff 72bc
00000140: 4005 b43d fc5c d0bc b3c0 dcbd f5e0 8bbd
00000150: 8693 7abc 52e6 b1bd a954 fbbd 3a7c c3bd
00000160: 223c a63d 3f68 5bbb 565e 08be af38 f83d
00000170: 721e 633d 5565 2bbd a0c5 973c b2b3 823d
00000180: 1fa4 0c3e 6f42 783d 2022 fa3c 019f 77bd
00000190: 8323 2ebc 6877 053e 6367 c23d c9c3 d3bb
000001a0: f7bd eb3d 2b46 98bc d644 353d af4a a9bd
000001b0: 9d0f 303d 62a7 8abc 55ab 15bd c82e 8ebd
000001c0: f31c 273d 91ae 6bbc b48a b8bd 10de ff3c
000001d0: 3ac0 c93c 26dc 273c d034 dfbc de22 6a3e
000001e0: c670 023d a27e 03be 79ae dabd 9961 6cbd
000001f0: 4a71 2dbc f618 08bd f004 23bd 3b4d d83d
00000200: fc07 f6bc 053f acbd dcf1 b8bc d400 0bbc
00000210: 3a4a 523d e8d1 96bd 69d0 3fba 8e07 a1bd
00000220: 5130 70bd f6b3 b93c 3ada 80bc 4cfb ae3c
00000230: aae4 993d b3ab d63d dd6a c63d ccde 0fbc
00000240: f753 dbbd 4c9c 9a3d f8e2 33bd 8748 d53d
00000250: cc0d 213d 2635 1b3e 9e05 cdbd aa55 fe3c
00000260: 5fcd bbbd 9e88 3d3e fc62 3f3c a67b d9bd
00000270: 1061 a43d c539 63bc 5d20 383d 834e 843c
00000280: e2fb e739 a193 983e bf44 41bc c369 4b3e
00000290: 4889 113c efe6 9f3d 18f4 6a3d a8ab 85bd
000002a0: b042 e1bd 14cc 60bd 52f1 84bd 8f46 f63d
000002b0: aa6d 5bbd bd5f 3bbd 580c b23d 73c9 a03d
000002c0: f76e 603c 21b7 4bbd 7252 b7bd 4a91 373d
000002d0: ed54 46bd 8bab d6bd 586d 31bc 9bab b8bb
000002e0: 5720 6a3d 7e85 b53c 7e84 36bb ccbd 5abd
000002f0: bc02 3c3d d800 b23d 7907 04bc 6b61 803d
00000300: e17f 4fbc 58e7 f13b 5adf 0c3d c0bd a93d
00000310: 0719 793d a83f 94bd d4d1 293d 5cdf 92bc
00000320: 0ee5 603d 9cdc 78bd 50b4 65bd d820 8e3c
00000330: 3174 a03d 54dd ebbb 07d7 b1bb 47f1 e13c
00000340: 797f 813c 1253 ac3d 9fc5 7cbd e2ae 433d
00000350: 89f8 25bd 3b43 09bd 6638 76bd e495 b43d
00000360: 12e7 353e e9f8 893d 410a adbc 3640 313d
00000370: a3ca f93c 9993 a9bc cb3d d43d 27a5 51bd
00000380: 0574 49bb 909a 63bd 0d23 c6bc 83e6 063d
00000390: 6581 d9bd 1c8d 9a3d 0e46 16be 6c57 3f3d
000003a0: a62e 95bd 2cd7 aa3d ec81 a4bd 7587 e33d
000003b0: 8a4c 1b3d b4cd 883c 6b7f 6d3d 3379 843d
000003c0: 236a b3bd af35 8abd c713 373d 0370 263e
000003d0: 64f5 9d3d 2e7f debc 63e4 b43d 1760 913c
000003e0: c758 2ebd 03d0 9bbd 34b8 3a3d dd11 0b3d
000003f0: f615 2f3d 02bf 683d 6a11 6c3d c1bc 83bd

VAE.encoder_mu.layers.0.linear1.bias f4 [4]
0.074664555 0.059674673 0.0147973 0.099719845
00000000: bbe9 983d 6e6d 743d 6070 723c eb39 cc3d

VAE.encoder_mu.layers.0.norm1.weight f4 [4]
1.0482862 1.0801158 0.9612052 1.0240747
00000000: 3e2e 863f 3c41 8a3f 8b11 763f e114 833f

VAE.encoder_mu.layers.0.norm1.bias f4 [4]
0.1127636 0.02022678 -0.050560333 -0.08930921
00000000: 9af0 e63d a2b2 a53c 5a18 4fbd bfe7 b6bd

VAE.encoder_mu.layers.1.attention.W_q.weight f4 [4, 4]
0.08544321 -0.3760577 -0.11522421 -0.10494896 -0.1804159 -0.30410144 0.22481245 0.44222474
0.1827337 -0.36883372 -0.2592315 -0.16076161 -0.41962922 -0.39076093 -0.058125038 -0.16843899
00000000: dafc ae3d a38a c0be acfa ebbd 7bef d6bd
00000010: f2be 38be 2fb3 9bbe 3c35 663e 486b e23e
00000020: 8b1e 3b3e c6d7 bcbe feb9 84be b19e 24be
00000030: a4d9 d6be d111 c8be 8514 6ebd 457b 2cbe

VAE.encoder_mu.layers.1.attention.W_q.bias f4 [4]
0.16688757 0.020529509 -0.12976994 0.16988444
00000000: 93e4 2a3e 802d a83c 69e2 04be 30f6 2d3e

VAE.encoder_mu.layers.1.attention.W_k.weight f4 [4, 4]
0.04464497 -0.4815329 0.12421887 0.18069454 0.17997564 0.32906407 -0.14593573 -0.25915116
-0.067751564 0.39648312 0.42771113 0.16487859 -0.05963475 -0.36617976 0.05971652 0.03797333
00000000: a5dd 363d 7b8b f6be 7766 fe3d fd07 393e
00000010: 894b 383e 167b a83e 2d70 15be 76af 84be
00000020: 55c1 8abd d6ff ca3e f4fc da3e efd5 283e
00000030: 9143 74bd ea7b bbbe 4f99 743d ec89 1b3d

VAE.encoder_mu.layers.1.attention.W_k.bias f4 [4]
4.7273257e-05 0.00038371823 -0.00022214727 0.00017712165
00000000: 4647 4638 ca2d c939 34f0 68b9 bbb9 3939

VAE.encoder_mu.layers.1.attention.W_v.weight f4 [4, 4]
-0.15209337 -0.0022713123 -0.11832755 -0.010827137 -0.21746191 -0.12534747 -0.19381781 -0.096388094
-0.12886818 0.044885132 -0.09547778 0.021906393 0.14239949 0.37868556 0.19385214 0.26251033
00000000: 5dbe 1bbe 4cda 14bb b755 f2bd 4e64 31bc
00000010: 56ae 5ebe 165b 00be 2d78 46be 1f67 c5bd
00000020: 05f6 03be 79d9 373d db89 c3bd 0975 b33c
00000030: 2cd1 113e 13e3 c13e 2d81 463e c167 863e

VAE.encoder_mu.layers.1.attention.W_v.bias f4 [4]
0.02162488 -0.048709333 0.018271271 0.0013489918
00000000: a926 b13c 7083 47bd a2ad 953c a7d0 b03a

VAE.encoder_mu.layers.1.linear0.weight f4 [128, 4]
-0.21292154 -0.028069416 -0.44207728 0.39215815 0.045110337 -0.15100043 0.16126113 -0.22258946
-0.022665245 0.29391137 0.47004455 0.47706878 0.021370092 -0.36208314 -0.19176894 0.033147022
0.32015234 -0.3316023 -0.46842697 0.10175282 -0.5176255 -0.12810783 0.22948073 0.4191545
0.37056795 0.18660194 0.4640241 -0.0024020635 0.1624842 0.3725172 0.23637968 0.13972162
0.24590735 -0.4157106 -0.24067916 -0.14807366 0.025224881 0.34839115 0.043264337 0.15710276
0.1456827 0.39280182 -0.28211063 0.42677733 -0.49290562 0.5300132 0.34352043 0.14716095
0.4434433 0.045065533 0.556096 0.53217876 -0.108520046 0.40630043 0.11225848 0.48200879
-0.08191518 -0.03880337 0.016902884 -0.33380592 0.48058337 -0.24015911 -0.20962769 -0.49490047
0.18487181 -0.22149652 -0.12966962 0.38074982 0.20901507 0.26684964 -0.20387916 -0.15893535
0.5409777 0.37882298 0.24115 -0.28368115 -0.5345703 -0.10216825 0.20518163 -0.071544446
-0.15628745 0.19942307 0.3356469 0.23120254 -0.37821436 -0.044170827 -0.4993619 -0.028198497
0.3427883 0.4172311 -0.12129609 0.055582035 0.43821955 0.35375392 -0.21951757 -0.10907847
0.20101707 0.30493844 -0.3700046 -0.2204466 0.44030854 -0.10130958 0.31257716 0.11628526
-0.08115906 -0.27179906 0.34881875 0.5092945 -0.33417276 -0.2671045 0.113700464 -0.05011196
-0.010117824 0.28880835 0.29303682 -0.2579468 -0.4155504 -0.21133181 0.30634478 -0.45289323
-0.33143485 0.08391729 0.35822242 0.008040448 0.4565669 0.2779053 0.019479323 0.30978897
0.16958766 0.4042473 0.29878908 0.1574649 -0.27578413 -0.39805394 -0.4484002 -0.22483937
-0.3384402 -0.43141094 0.04170735 -0.21058345 0.4926891 -0.099683054 0.24597162 0.2763422
0.57387817 -0.038663197 0.24092005 -0.22907749 -0.39112315 -0.017235221 0.1072319 -0.3870864
0.06273063 -0.22573031 -0.19892357 -0.34514934 0.034001336 -0.20693867 -0.19734691 0.33329004
-0.45586076 0.07454524 -0.15632227 0.33858514 0.24745227 -0.4066482 0.25612986 -0.35409093
-0.06425461 0.21630692 0.3524712 -0.24661061 -0.15990657 0.015803099 0.07403606 0.070176065
-0.36273646 0.46592814 0.37357977 0.47777545 -0.48999205 -0.27252737 -0.3593142 -0.08703535
0.18155143 -0.12188756 0.21854363 -0.3029341 -0.18845858 0.122694224 0.35015485 -0.3604138
0.45893067 0.31414822 0.26729497 0.516973 -0.06751328 0.36588925 -0.03199281 0.09416657
-0.10003304 0.16002505 0.08163584 0.23894124 -0.08635322 0.46686143 -0.3195625 -0.07469438
0.3376231 -0.17744994 -0.15162972 -0.6292635 -0.107692055 0.41023862 0.19443943 -0.56138545
-0.022891214 -0.10895016 -0.0004210699 0.3164089 -0.17673294 0.3144093 -0.4955138 -0.22371386
-0.21958041 0.19502239 0.120948546 0.51505035 0.45816568 -0.022149313 0.1960009 -0.49081087
0.24792029 0.08810975 0.42145762 -0.4122411 -0.3634032 -0.18788503 -0.23908183 -0.026309848
0.3179206 -0.40588698 -0.41010123 0.27928364 -0.25315812 -0.2958469 0.36996534 0.36287987
-0.2917696 0.19751546 0.39261556 0.4850016 -0.070018925 -0.29270953 0.121678196 0.2990957
00000000: 1b08 5abe d5f1 e5bc f457 e2be f4c8 c83e
00000010: 9ec5 383d db9f 1abe a321 253e 7eee 63be
00000020: 77ac b9bc 8d7b 963e aea9 f03e 5c42 f43e
00000030: 5510 af3c f662 b9be 145f 44be 2cc5 073d
00000040: 02eb a33e c7c7 a9be a9d5 efbe c863 d03d
00000050: 1b83 04bf b32e 03be fffc 6a3e 6b9b d63e
00000060: 15bb bd3e 9414 3f3e 9194 ed3e f06b 1dbb
00000070: 4262 263e 93ba be3e 840d 723e 2f13 0f3e
00000080: 23cf 7b3e 05d8 d4be 9974 76be 9fa0 17be
00000090: 69a4 ce3c 5360 b23e f235 313d 8cdf 203e
000000a0: d92d 153e 521d c93e ce70 90be 8f82 da3e
000000b0: 205e fcbe f2ae 073f e9e1 af3e 5cb1 163e
000000c0: 000b e33e a396 383d 4f5c 0e3f de3c 083f
000000d0: c23f debd 9c06 d03e c6e7 e53d dbc9 f63e
000000e0: 25c3 a7bd 48f0 1ebd eb77 8a3c 9ce8 aabe
000000f0: 060f f63e 45ec 75be a4a8 56be 9863 fdbe
00000100: 094f 3d3e fccf 62be 1dc8 04be a4f1 c23e
00000110: 0c08 563e 84a0 883e b3c5 50be f3bf 22be
00000120: 847d 0a3f 16f5 c13e 07f0 763e a83e 91be
00000130: 99d9 08bf 963d d1bd 221b 523e e585 92bd
00000140: d109 20be 9035 4c3e e9d9 ab3e 5cc0 6c3e
00000150: 50a5 c1be 78ec 34bd 5dac ffbe 8900 e7bc
00000160: f381 af3e 519f d53e 166a f8bd fda9 633d
00000170: 505e e03e 3c1f b53e 37c9 60be 8864 dfbd
00000180: 6bd7 4d3e e420 9c3e 3e71 bdbe c1bc 61be
00000190: 1f70 e13e 667b cfbd 1d0a a03e f726 ee3d
000001a0: b936 a6bd 3f29 8bbe 5f98 b23e 2061 023f
000001b0: b118 abbe ecc1 88be cadb e83d 3342 4dbd
000001c0: 3bc5 25bc b0de 933e ec08 963e 9a11 84be
000001d0: 06c3 d4be 5e67 58be 39d9 9c3e 9fe1 e7be
000001e0: d4b1 a9be d4dc ab3d ee68 b73e 15bc 033c
000001f0: 23c3 e93e 9a49 8e3e 1a93 9f3c a99c 9e3e
00000200: 63a8 2d3e 81f9 ce3e e2fa 983e 7b3e 213e
00000210: 9433 8dbe bacd cbbe b694 e5be 4b3c 66be
00000220: 0948 adbe e5e1 dcbe 54d5 2a3d 30a3 57be
00000230: bf41 fc3e a126 ccbd fcdf 7b3e ba7c 8d3e
00000240: aee9 123f 4d5d 1ebd bfb3 763e 4a93 6abe
00000250: 4b41 c8be e130 8dbc 669c db3d 3030 c6be
00000260: eb78 803d d925 67be 9fb2 4bbe 6ab7 b0be
00000270: fc44 0b3d bbe7 53be 4f15 4abe fea4 aa3e
00000280: 9566 e9be 2dab 983d f212 20be 085b ad3e
00000290: 2164 7d3e 3134 d0be 7423 833e 684b b5be
000002a0: ec97 83bd 907f 5d3e 1b77 b43e 7e87 7cbe
000002b0: 8cbe 23be 8075 813c 38a0 973d 78b8 8f3d
000002c0: 98b8 b9be 228e ee3e d945 bf3e fc9e f43e
000002d0: 3de0 fabe b588 8bbe 08f8 b7be 973f b2bd
000002e0: 9ee8 393e 2fa0 f9bd e7c9 5f3e 2e1a 9bbe
000002f0: 49fb 40be 1c47 fb3d 7f47 b33e 2888 b8be
00000300: f6f8 ea3e 09d8 a03e e3da 883e 5858 043f
00000310: 6744 8abd d655 bb3e e50a 03bd 67da c03d
00000320: 1fde ccbd 9bdd 233e b130 a73d 03ad 743e
00000330: f5d9 b0bd 7608 ef3e b29d a3be 5ef9 98bd
00000340: efdc ac3e 70b5 35be d244 1bbe 6a17 21bf
00000350: a78d dcbd cc0a d23e 211b 473e f5b6 0fbf
00000360: 5b86 bbbc 4321 dfbd 0cc3 dcb9 5900 a23e
00000370: 7bf9 34be 41fa a03e fcb3 fdbe 3f15 65be
00000380: b0d9 60be f3b3 473e dfb3 f73d 57da 033f
00000390: b194 ea3e 7a72 b5bc 76b4 483e 904b fbbe
000003a0: d1de 7d3e e272 b43d 4bc9 d73e 4411 d3be
000003b0: fc0f babe ef64 40be ded1 74be c087 d7bc
000003c0: 7dc6 a23e 6bd0 cfbe caf8 d1be 44fe 8e3e
000003d0: f19d 81be 3f79 97be 196c bd3e 64cb b93e
000003e0: d362 95be 7e41 4a3e e804 c93e 2152 f83e
000003f0: 1566 8fbd 06de 95be 6b32 f93d 1223 993e

VAE.encoder_mu.layers.1.linear0.bias f4 [128]
-0.51850885 -0.3564908 -0.009382274 0.28385997 0.2878717 -0.07195478 -0.25835362 0.37320718
0.1947191 0.1037285 0.27488485 -0.32783023 -0.41525212 0.023475315 0.50944495 -0.025550056
-0.22292969 0.014988724 -0.450948 0.26259777 0.11394527 -0.047597036 0.006550418 0.31402296
-0.6289999 -0.44264334 0.39893585 0.40835813 -0.32892954 0.34432048 0.43814686 -0.33904994
-0.07721265 -0.45947275 0.20971876 0.3117616 -0.30691406 -0.5311994 -0.4204373 0.06779911
0.2248454 -0.092025906 0.2322249 -0.44733196 -0.013465739 -0.15068315 -0.0037916098 -0.24516454
-0.05480716 0.1783057 0.33848247 -0.27587536 -0.18710223 -0.37600365 0.265682 0.30522904
-0.27472088 -0.2809495 -0.17605992 -0.34930715 -0.13507809 -0.51620436 -0.26289332 -0.40142304
-0.5048617 0.016194034 0.36201307 0.24452318 0.10133473 0.088092625 -0.33558327 0.4203768
0.38434622 -0.023084339 0.33477694 0.32536468 -0.5755348 -0.01627279 0.38056198 -0.18804722
0.08240571 -0.07863128 -0.42836422 0.38847882 -0.0069992486 0.22474378 -0.06489911 -0.03458904
0.060412653 -0.15457286 0.28428388 0.40453503 -0.22666867 -0.24529591 -0.0088992175 0.1408454
-0.3377288 -0.16322578 -0.43243393 -0.4524195 0.18516445 0.44308695 0.024339857 -0.010062039
-0.013008436 -0.47613016 -0.044112448 0.42734614 0.35066092 -0.5540174 -0.22024299 -0.32668975
0.503564 -0.27190718 -0.19258904 0.22860521 0.24714895 -0.42591304 -0.2351625 0.4164939
-0.21877299 -0.23101214 0.39673263 0.20174256 -0.33069992 -0.1675134 -0.1011816 -0.025577312
00000000: ffbc 04bf f685 b6be 1cb8 19bc 1856 913e
00000010: eb63 933e 075d 93bd ed46 84be 0315 bf3e
00000020: 7264 473e 9c6f d43d b5bd 8c3e 5dd9 a7be
00000030: ed9b d4be 4e4f c03c fc6a 023f 5a4e d1bc
00000040: ae47 64be 4493 753c a8e2 e6be 3773 863e
00000050: 235c e93d 1cf5 42bd e4a4 d63b 9ec7 a03e
00000060: 2306 21bf 26a2 e2be 5241 cc3e 5114 d13e
00000070: 7469 a8be c64a b03e c954 e03e f497 adbe
00000080: aa21 9ebd 0340 ebbe 84c0 563e 379f 9f3e
00000090: d723 9dbe affc 07bf 8f43 d7be 43da 8a3d
000000a0: df3d 663e 1478 bcbd 5dcc 6d3e b208 e5be
000000b0: 679f 5cbc af4c 1abe a87c 78bb 6a0c 7bbe
000000c0: 797d 60bd c595 363e 934d ad3e 893f 8dbe
000000d0: ba97 3fbe 8d83 c0be 7907 883e fb46 9c3e
000000e0: 37a8 8cbe 9dd8 8fbe 0d49 34be 63d8 b2be
000000f0: e951 0abe f825 04bf f499 86be 5287 cdbe
00000100: 9e3e 01bf 5aa9 843c c759 b93e 4964 7a3e
00000110: 9588 cf3d e869 b43d 92d1 abbe a13b d73e
00000120: 07c9 c43e 5e1b bdbc e267 ab3e 3396 a63e
00000130: 4056 13bf 844e 85bc 05d9 c23e 738f 40be
00000140: 53c4 a83d 7009 a1bd 8e52 dbbe b2e6 c63e
00000150: f459 e5bb 3c23 663e d3e9 84bd 3dad 0dbd
00000160: 4273 773d 5948 1ebe a88d 913e 371f cf3e
00000170: d51b 68be da2e 7bbe 06ce 11bc c739 103e
00000180: caea acbe a924 27be fb67 ddbe 87a3 e7be
00000190: c09b 3d3e 4bdc e23e 6164 c73c 40db 24bc
000001a0: 5621 55bc 55c7 f3be 41af 34bd 1dcd da3e
000001b0: d489 b33e 16d4 0dbf 6187 61be e143 a7be
000001c0: 92e9 003f 6b37 8bbe 1036 45be 7c17 6a3e
000001d0: 9d14 7d3e 4611 dabe 70ce 70be b03e d53e
000001e0: 0706 60be 728e 6cbe 8a20 cb3e 9a95 4e3e
000001f0: 8051 a9be a288 2bbe 4c38 cfbd 8387 d1bc

VAE.encoder_mu.layers.1.linear1.weight f4 [4, 128]
0.3699599 0.016944246 0.014596352 0.09808873 -0.016552644 -0.022726364 -0.059468005 -0.029974239
0.009341134 -0.089612335 -0.04823648 0.014682659 0.042588066 0.03033402 0.07399972 0.09877723
-0.055194855 0.114976645 0.26442716 -0.047105674 -0.07535863 -0.040772106 0.05474456 0.12638363
0.15928556 0.11027072 -0.08235926 0.0406423 -0.010991983 0.048552785 0.06437911 -0.070453696
-0.11198963 0.083971724 -0.020700833 0.008579329 0.07964723 -0.019195609 0.07568561 -0.048624337
0.041867387 0.14007677 -0.080535 0.07732172 -0.08772292 0.03700043 0.10774393 -0.09315811
-0.073376656 -0.048539132 -0.10564742 -0.06683289 0.17622091 -0.14171675 -0.082340196 -0.038160328
0.026724206 0.22921842 0.061044093 -0.01630213 0.01929548 0.037991233 -0.031792454 -0.101017565
0.025729628 0.023134256 0.02405103 -0.04628596 -0.104817234 -0.117223635 -0.023930298 -0.0515649
0.012939236 -0.07369107 -0.0117085595 0.013031413 -0.3295286 -0.07328338 -0.07282156 0.45314482
0.054872144 -0.0044502006 -0.025280891 -0.035025124 -0.012842599 -0.041402053 0.13443874 -0.0012959582
0.058302067 -0.012408113 -0.081117816 0.020711392 0.06501678 -0.13127676 0.26434773 0.08266123
-0.05918355 0.017291782 0.040623404 -0.076760784 0.13051222 -0.0329691 -0.111884184 -0.137774
-0.099453546 0.08520729 0.022823555 -0.013475533 0.0029826576 0.079044186 0.008684069 0.12574789
0.13483073 0.27602836 0.04745124 -0.11041647 0.15862192 0.10425227 -0.18609966 -0.021960136
-0.12645304 -0.10697027 0.059379503 -0.12157502 0.08401839 -0.06286927 0.1306619 0.0040959744
-0.31406316 -0.116782755 -0.10336536 -0.008819713 -0.0064156256 -0.024925098 0.041187946 -0.091008715
0.03560969 -0.030651402 -0.00075803575 -0.07474187 -0.088669814 -0.0978796 0.0020772847 -0.0102895275
-0.0029449319 -0.013424911 0.10650523 0.0103732785 -0.029009545 -0.046210002 -0.061829664 -0.023284921
0.28213692 -0.06424167 0.054585807 0.01961396 0.004381255 0.04812131 -0.11169356 -0.03715791
0.008912375 -0.03553324 0.019266026 0.035559837 -0.051826447 -0.0037374846 -0.010195486 0.04652323
-0.09786976 0.016296048 0.067701615 -0.056053042 -0.10269821 -0.06402042 -0.04857719 -0.063342474
0.11616925 -0.016755098 0.027093947 -0.36427894 -0.0091582155 0.20962654 -0.071523435 -0.03513132
0.031486254 0.019421386 -0.024660543 -0.05033323 0.061275896 -0.03244396 0.04743019 -0.08453717
-0.07887786 -0.040940307 0.0700218 0.039343834 -0.024424717 0.04961753 -0.028465305 0.050945632
-0.09617896 -0.0076111634 0.048315816 -0.0012467367 0.12831801 0.010700989 0.04600023 -0.05844424
0.025146496 -0.07126357 0.13415995 0.009437455 0.043984022 0.029389197 -0.096361205 0.12636195
0.09475689 -0.0062005115 0.11200073 -0.0867538 0.017994765 -0.06473977 0.04588 -0.023627473
0.004961949 0.05376396 -0.010462198 0.13839032 -0.06197311 -0.07922035 -0.11537255 -0.027216585
0.098774485 -0.024845734 0.08165687 0.0035326248 0.043175083 0.02226431 0.02357315 -0.118216105
0.02137411 0.18793544 0.028337775 0.015675252 -0.010058557 0.007414649 0.15457119 0.011189208
-0.0130476225 -0.016391741 0.0062776366 0.05881224 -0.17669056 -0.06762844 -0.033038035 -0.20797014
00000000: 626b bd3e a9ce 8a3c 8a25 6f3c bee2 c83d
00000010: 6999 87bc a42c babc b994 73bd 898c f5bc
00000020: 8e0b 193c ac86 b7bd 9e93 45bd 898f 703c
00000030: d370 2e3d 0d7f f83c 2a8d 973d b74b ca3d
00000040: 0014 62bd e078 eb3d ff62 873e e1f1 40bd
00000050: a055 9abd a700 27bd d53b 603d b66a 013e
00000060: c11b 233e 9ed5 e13d f9ab a8bd 8a78 263d
00000070: b817 34bc 49df 463d 32d9 833d 074a 90bd
00000080: d25a e5bd 5ef9 ab3d cb94 a9bc 5090 0c3c
00000090: 161e a33d 1c40 9dbc 0f01 9b3d 502a 47bd
000000a0: 237d 2b3d 4970 0f3e 89ef a4bd da5a 9e3d
000000b0: 13a8 b3bd c38d 173d d9a8 dc3d aec9 bebd
000000c0: 8046 96bd f8d0 46bd ad5d d8bd afdf 88bd
000000d0: 4173 343e 321e 11be faa1 a8bd 014e 1cbd
000000e0: b9ec da3c 3cb8 6a3e 5f09 7a3d 0b8c 85bc
000000f0: 8e11 9e3c b29c 1b3d ce38 02bd 4ce2 cebd
00000100: f1c6 d23c 0d84 bd3c aa06 c53c 5996 3dbd
00000110: 6baa d6bd f212 f0bd 7909 c4bc b735 53bd
00000120: 17ff 533c 58eb 96bd 42d5 3fbc b581 553c
00000130: f9b7 a8be 9915 96bd 7823 95bd 9902 e83e
00000140: 9dc1 603d fdd2 91bb df19 cfbc 8176 0fbd
00000150: c469 52bc 3395 29bd 4faa 093e 24dd a9ba
00000160: 26ce 6e3d 664b 4bbc 1921 a6bd f0aa a93c
00000170: 8427 853d 6a6d 06be 9658 873e 4a4a a93d
00000180: 736a 72bd 7fa7 8d3c ba64 263d c234 9dbd
00000190: ffa4 053e 9b0a 07bd 8923 e5bd a114 0dbe
000001a0: 4dae cbbd 2981 ae3d 77f8 ba3c 7bc8 5cbc
000001b0: b178 433b ebe1 a13d a047 0e3c 0ec4 003e
000001c0: 1111 0a3e 9753 8d3e 3b5c 423d 0822 e2bd
000001d0: c96d 223e 3782 d53d e990 3ebe bee5 b3bc
000001e0: e87c 01be 3b13 dbbd ec37 733d 53fc f8bd
000001f0: d511 ac3d 9bc1 80bd 3ccc 053e 8637 863b
00000200: e3cc a0be cc2b efbd 38b1 d3bd 8f80 10bc
00000210: 2b3a d2bb b82f ccbc b1b4 283d c762 babd
00000220: 77db 113d a618 fbbc ebb6 46ba 4412 99bd
00000230: 8598 b5bd 1a75 c8bd 0e23 083b 6895 28bc
00000240: c2ff 40bb 28f4 5bbc 6a1f da3d aff4 293c
00000250: 6da5 edbc b346 3dbd 1a41 7dbd 05c0 bebc
00000260: 4074 903e 2391 83bd 5e95 5f3d 75ad a03c
00000270: a190 8f3b da1a 453d 98bf e4bd e532 18bd
00000280: 3605 123c 4d8b 11bd c9d3 9d3c 31a7 113d
00000290: f847 54bd 96f0 74bb f80a 27bc 248f 3e3d
000002a0: f16f c8bd 4a7f 853c 25a7 8a3d e097 65bd
000002b0: 7053 d2bd 231d 83bd e0f8 46bd b3b9 81bd
000002c0: 25ea ed3d fd41 89bc 20f4 dd3c c582 babe
000002d0: 570c 16bc 57a8 563e e17a 92bd dce5 0fbd
000002e0: bbf7 003d 9919 9f3c e804 cabc 382a 4ebd
000002f0: 6ffc 7a3d f5e3 04bd 2946 423d d321 adbd
00000300: b78a a1bd 06b1 27bd 9767 8f3d 0027 213d
00000310: 5816 c8bc c03b 4b3d 1230 e9bc 5eac 503d
00000320: 79f9 c4bd 1167 f9bb cee6 453d 8b69 a3ba
00000330: cc65 033e 3353 2f3c bd6a 3c3d 3a63 6fbd
00000340: 0600 ce3c a2f2 91bd 3a61 093e 8e9f 1a3c
00000350: 9728 343d 9dc1 f03c 0659 c5bd 0765 013e
00000360: e60f c23d a92d cbbb a460 e53d faab b1bd
00000370: c269 933c 4996 84bd abec 3b3d 678e c1bc
00000380: d897 a23b 9937 5c3d a469 2bbc 31b6 0d3e
00000390: 84d7 7dbd 473e a2bd 7248 ecbd 51f5 debc
000003a0: 474a ca3d 4889 cbbc b83b a73d 9c83 673b
000003b0: 5bd8 303d a463 b63c 7b1c c13c 491b f2bd
000003c0: c218 af3c 2672 403e 9f24 e83c 6369 803c
000003d0: a5cc 24bc 95f6 f23b e947 1e3e f152 373c
000003e0: b2c5 55bc f947 86bc a2b4 cd3b 1ae5 703d
000003f0: 5fee 34be c880 8abd e452 07bd 20f6 54be

VAE.encoder_mu.layers.1.linear1.bias f4 [4]
0.063372105 -0.09179026 0.0057631526 0.06453933
00000000: 3cc9 813d 88fc bbbd d4d8 bc3b 322d 843d

VAE.encoder_mu.layers.1.norm1.weight f4 [4]
0.964733 1.0573936 1.0182896 1.1482399
00000000: bef8 763f ac58 873f 5057 823f 86f9 923f

VAE.encoder_mu.layers.1.norm1.bias f4 [4]
-0.052479804 -0.0019612748 0.0076640514 0.035562817
00000000: 10f5 56bd bb88 00bb b922 fb3b 51aa 113d

VAE.encoder_mu.layers.1.norm0.weight f4 [4]
0.92058736 0.6799147 0.84959435 0.9446301
00000000: 9dab 6b3f e40e 2e3f 047f 593f 47d3 713f

VAE.encoder_mu.layers.1.norm0.bias f4 [4]
-0.021208543 -0.004958136 -0.017553348 -0.0076207444
00000000: 8abd adbc dc77 a2bb 0acc 8fbc 70b7 f9bb

VAE.encoder_mu.last_normalization.weight f4 [4]
1.0 1.0 1.0 1.0
00000000: 0000 803f 0000 803f 0000 803f 0000 803f

VAE.encoder_mu.last_normalization.bias f4 [4]
0.0 0.0 0.0 0.0
00000000: 0000 0000 0000 0000 0000 0000 0000 0000

VAE.encoder_mu.head.weight f4 [4, 4]
-0.41690987 -0.31023264 -0.19014776 0.089810014 0.3155834 -0.1730898 0.06163615 -0.3284629
-0.30170178 -0.07277107 0.38202047 0.32779515 0.14125949 0.46228963 -0.19135529 0.35516024
00000000: 3675 d5be d0d6 9ebe 18b6 42be 50ee b73d
00000010: 2694 a13e 743e 31be 3076 7c3d 4a2c a8be
00000020: a878 9abe 0009 95bd 3098 c33e c4d4 a73e
00000030: 54a6 103e 3ab1 ec3e a4f2 43be 90d7 b53e

VAE.encoder_mu.head.bias f4 [4]
-0.18739676 -0.42046946 -0.19355673 0.38702822
00000000: f0e4 3fbe c647 d7be bc33 46be 9028 c63e

VAE.encoder_logvar.layers.0.attention.W_q.weight f4 [4, 4]
-0.29997548 -0.3686206 0.40162927 -0.2194271 -0.28309256 0.3132697 -0.20393316 -0.3829278
0.6038232 0.45907477 0.3577911 0.4038567 -0.5088663 0.0070462744 0.13036321 0.23513186
00000000: 6396 99be d7bb bcbe 5aa2 cd3e 7fb1 60be
00000010: 82f1 90be e364 a03e dbd3 50be 1d0f c4be
00000020: 2894 1a3f d90b eb3e 6530 b73e 4ec6 ce3e
00000030: 1045 02bf 6fe4 e63b ef7d 053e 68c6 703e

VAE.encoder_logvar.layers.0.attention.W_q.bias f4 [4]
-0.008327166 -0.010521604 -0.09151465 0.0017732527
00000000: aa6e 08bc ce62 2cbc 086c bbbd 7d6c e83a

VAE.encoder_logvar.layers.0.attention.W_k.weight f4 [4, 4]
-0.44031408 -0.12508336 0.07524322 -0.48455736 -0.1597096 0.41791135 -0.2679884 -0.3652623
0.25608572 -0.3381035 0.01361677 0.3531704 -0.4227402 0.21477656 -0.18027538 0.298229
00000000: d970 e1be da15 00be 1e19 9a3d e717 f8be
00000010: ea8a 23be 7af8 d53e c735 89be a903 bbbe
00000020: ab1d 833e e71b adbe df18 5f3c c0d2 b43e
00000030: 6771 d8be 63ee 5b3e 1c9a 38be 79b1 983e

VAE.encoder_logvar.layers.0.attention.W_k.bias f4 [4]
0.00040256052 -2.9016455e-05 -0.00032864753 -4.588267e-05
00000000: c20e d339 5d68 f3b7 534e acb9 2472 40b8

VAE.encoder_logvar.layers.0.attention.W_v.weight f4 [4, 4]
0.069191694 0.005783874 0.33423284 -0.11077174 0.09535654 0.028341888 0.29775202 -0.1617818
0.17922787 0.0376269 0.2909424 -0.25835988 0.035669204 -0.010055394 0.33107427 -0.0714436
00000000: 60b4 8d3d a786 bd3b 9120 ab3e 4bdc e2bd
00000010: 4a4a c33d 3f2d e83c f472 983e 21aa 25be
00000020: 8387 373e aa1e 1a3d 67f6 943e bf47 84be
00000030: df19 123d 61bf 24bc 9182 a93e 0651 92bd

VAE.encoder_logvar.layers.0.attention.W_v.bias f4 [4]
-0.13584302 0.0059340447 0.010119259 0.002737504
00000000: 6f1a 0bbe 6072 c23b 40cb 253c b267 333b
