tabsyn/vae/ckpt/adult/model.pt (torch, 69286 bytes, 112 tensors)

VAE.Tokenizer.weight f4 [7, 4]
-0.1348593 -0.12628494 0.33168435 -0.12931539 0.30317685 0.243348 0.16737176 0.3149254
-0.055404082 -0.14748278 -0.17605937 0.0028834683 0.3683439 0.32840914 0.2831215 0.35881782
-0.06768017 -0.20938204 -0.15402555 0.46869445 -0.3155129 -0.0312702 -0.19262825 -0.10645597
0.21172886 0.51626325 0.13137338 -0.035510704
00000000: 8e18 0abe d750 01be 88d2 a93e 416b 04be
00000010: ff39 9b3e 3830 793e 8163 2b3e e73d a13e
00000020: 64ef 62bd ba05 17be e848 34be 92f8 3c3b
00000030: 9297 bc3e 3e25 a83e 4df5 903e f8b6 b73e
00000040: e79b 8abd 3f68 56be e0b8 1dbe b8f8 ef3e
00000050: e88a a1be 2e15 00bd 5740 45be 9605 dabd
00000060: 73cf 583e d429 043f be86 063e ac73 11bd

VAE.Tokenizer.bias f4 [15, 4]
-0.33966798 0.25539637 0.11595205 0.39320785 0.25199506 0.20142291 -0.06428197 -0.32456592
-0.5843402 -0.08910659 -0.23812114 0.005480942 -0.14232059 0.26315823 -0.027220255 0.2293387
-0.16822164 -0.32350966 0.41266036 -0.3753255 0.40278366 -0.25740704 -0.14677443 -0.39942512
-0.569315 0.3476189 -0.0972595 0.2563942 0.20042874 0.0675925 0.2474368 0.045645725
-0.21928279 -0.15599959 -0.39633897 0.40781966 0.118918695 -0.24231988 0.010454014 -0.33306906
-0.05979097 0.044259984 0.29185945 0.3666689 -0.20347431 0.11288001 -0.15270972 -0.042770926
-0.32030758 0.40503818 -0.5492684 -0.02128159 -0.24225706 -0.062525876 0.24004743 0.2285774
0.15419975 0.015741099 0.17449299 -0.5426572
00000000: f6e8 adbe 50c3 823e 4578 ed3d 8a52 c93e
00000010: 7f05 813e cf41 4e3e 44a6 83bd 812d a6be
00000020: 5297 15bf 847d b6bd 07d6 73be 7999 b33b
00000030: 7dbc 11be adbc 863e 03fd debc c4d7 6a3e
00000040: 4b42 2cbe 0fa3 a5be 3848 d33e aa2a c0be
00000050: a939 ce3e dbca 83be 094c 16be 7381 ccbe
00000060: a1be 11bf 1bfb b13e fd2f c7bd 1a46 833e
00000070: 313d 4d3e f06d 8a3d 1360 7d3e 03f7 3a3d
00000080: ab8b 60be 5bbe 1fbe f1ec cabe bdcd d03e
00000090: a58b f33d b422 78be 5047 2b3c 0788 aabe
000000a0: 60e7 74bd f549 353d 9a6e 953e 07bc bb3e
000000b0: 925b 50be a22d e73d f05f 1cbe 9130 2fbd
000000c0: 5bff a3be 2a61 cf3e db9c 0cbf bb56 aebc
000000d0: 3c12 78be 910d 80bd fece 753e 3210 6a3e
000000e0: 8ae6 1d3e 7af3 803c 4aae 323e 95eb 0abf

VAE.Tokenizer.category_embeddings.weight f4 [104, 4]
-0.6314282 0.100763105 0.2938212 0.5121186 0.1946527 0.6038727 -0.026911447 0.31115326
-0.18897112 -0.47053897 0.9081531 -0.6347043 -0.21519285 -0.19904435 -0.48447907 0.3048166
-0.15798913 0.2165648 0.05978116 0.44903433 -0.028398994 0.23125415 -0.3634793 0.4144928
-0.061107054 0.2443584 0.29474854 -0.10617036 0.79127586 0.08818291 0.14067554 -0.53187287
-0.19270736 -0.49304357 -0.20928273 0.28665742 -0.23051362 0.57190114 0.24455005 0.10239228
-0.63940126 -0.1659325 0.5923566 0.48298463 0.10997447 0.48244008 0.32423154 -0.21068083
-0.33562845 -0.25552526 -0.0025579035 -0.4729946 0.16483487 -0.9034399 0.64951843 -0.32743537
0.24771944 0.5616937 0.13687357 -0.02278503 -0.24143332 -0.50283134 -0.48357415 -0.28802422
-0.13705805 0.25746092 0.2954139 -0.4350872 0.45828366 0.67618215 0.3528429 0.30883613
0.07059407 0.16491835 0.3507194 -0.33383155 0.6805381 0.6517413 -0.33481222 -0.058003925
-0.5250617 -0.07897543 0.5206713 0.06969939 0.3622851 0.38126242 -0.499459 0.41432425
0.46035835 -0.15206765 -0.46168622 -0.14719883 0.21018623 -0.45432457 -0.8295468 0.12060016
-0.58449084 -0.09615834 -0.37177902 -0.5731568 0.028213853 0.52525485 -0.41358984 -0.35695976
0.43476084 -0.16063184 0.22603895 0.15168306 -0.49860016 -0.03179864 0.07120493 -0.30512956
-0.05315218 1.0396243 -0.038079385 -0.10862062 -0.3458864 0.2133915 -0.55905145 -0.23628329
-0.05709068 -0.011337341 -0.19847003 0.587516 0.42169723 0.07202241 0.083819635 -0.42301217
-0.07134067 0.5362908 -0.06662366 0.6015856 -0.8388721 0.20038636 -0.009532492 0.68486005
-0.88217163 -0.25603306 0.12276389 0.51315045 0.06619968 0.15639967 0.047907103 -0.51969874
0.14808911 0.50493187 -0.52997506 0.75922513 -0.5985948 0.67007095 -0.0473372 0.035061345
0.34179744 -0.3978571 -0.5749784 0.15971671 0.04769746 -0.33206972 -0.47328916 0.10833198
0.300173 -0.30908647 -1.1687584 0.3179516 0.6308627 0.76032436 0.14699817 0.4093873
0.15900794 -0.40470195 0.61116743 -0.31121704 -0.24781673 -0.10542435 -0.6807278 -0.30959556
-0.19283518 0.5635468 -0.48748934 -0.15568718 0.35616496 0.344069 -0.8858547 0.32450742
0.21501267 0.33424658 1.0999285 0.36980525 -0.20714065 0.49006537 -0.011503339 0.19822958
-0.033664264 0.07449542 -0.18098275 0.020165015 0.104583845 -0.035665214 -0.061326876 0.0009385833
-0.39994654 -0.022627441 0.30813122 0.4336943 -0.19327556 -0.3414303 0.0108350115 0.22594573
0.1878282 0.024620412 0.059055142 -0.1977492 0.03553059 0.49141252 -0.56077915 0.31914335
-0.060821995 0.12766089 0.16242096 -0.0013982017 0.50629944 0.3038272 0.4354244 0.7978602
-0.16791768 -0.27768105 0.23373868 0.04874412 -0.9603656 -0.34615102 0.431262 0.55364376
-0.038762107 -0.34162122 0.55805683 0.09562142 0.5432285 -0.42920363 -0.6449575 0.2743332
0.035650544 -0.032468285 -0.1591129 -0.61113346 0.011585538 0.3167881 0.069390506 0.37969214
0.0015752104 -0.72785616 1.2696289 -0.27912188 1.334257 0.16484773 0.0702648 -0.27550468
00000000: 47a5 21bf e35c ce3d bb6f 963e 341a 033f
00000010: 0a53 473e 6797 1a3f 6575 dcbc 7b4f 9f3e
00000020: a581 41be 7cea f0be b97c 683f fb7b 22bf
00000030: 845b 5cbe 48d2 4bbe a40d f8be ec10 9c3e
00000040: e7c7 21be 2ac3 5d3e 17dd 743d d4e7 e53e
00000050: 02a5 e8bc e3cd 6c3e f519 babe 6638 d43e
00000060: 644b 7abd 1739 7a3e 48e9 963e d96f d9bd
00000070: 0e91 4a3f 3e99 b43d 400d 103e d228 08bf
00000080: 1455 45be 3570 fcbe 364e 56be c3c4 923e
00000090: c30b 6cbe 1d68 123f 546b 7a3e 0bb3 d13d
000000a0: cdaf 23bf 36ea 29be afa4 173f c349 f73e
000000b0: 4c3a e13d 6302 f73e ad01 a63e b7bc 57be
000000c0: 7ed7 abbe 35d4 82be 80a2 27bb 592c f2be
000000d0: 79ca 283e d647 67bf d746 263f 9ca5 a7be
000000e0: 2aaa 7d3e 29cb 0f3f 9628 0c3e aca7 babc
000000f0: 4c3a 77be 8eb9 00bf 0897 f7be e977 93be
00000100: f258 0cbe ebd1 833e 7e40 973e c0c3 debe
00000110: 28a4 ea3e 461a 2d3f d3a7 b43e c51f 9e3e
00000120: a093 903d 5be0 283e 7e91 b33e f8eb aabe
00000130: bf37 2e3f 85d8 263f 826c abbe 8695 6dbd
00000140: 726a 06bf dfbd a1bd b74a 053f 8ebe 8e3d
00000150: 6f7d b93e d434 c33e 17b9 ffbe 4f22 d43e
00000160: 17b4 eb3e 9fb7 1bbe 2362 ecbe 4abb 16be
00000170: 0f3b 573e 3b9d e8be 2e5d 54bf 37fd f63d
00000180: 31a1 15bf aaee c4bd d259 bebe 67ba 12bf
00000190: bd20 e73c 1a77 063f 0cc2 d3be 6ec3 b6be
000001a0: f998 de3e ac7c 24be c176 673e ce52 1b3e
000001b0: 8548 ffbe 4a3f 02bd e4d3 913d f139 9cbe
000001c0: 1ab6 59bd 6912 853f 21f9 1bbd 7d74 debd
000001d0: 0618 b1be 4d83 5a3e ff1d 0fbf 3ff4 71be
000001e0: ebd7 69bd 41c0 39bc ba3b 4bbe 7367 163f
000001f0: b3e8 d73e 7c80 933d a1a9 ab3d 0d95 d8be
00000200: 0f1b 92bd 5b4a 093f fc71 88bd 8401 1a3f
00000210: 52c0 56bf 1532 4d3e 2b2e 1cbc fd52 2f3f
00000220: 00d6 61bf c416 83be a26b fb3d d45d 033f
00000230: b393 873d 3c27 203e 3d3a 443d fa0a 05bf
00000240: aca4 173e 3743 013f 72ac 07bf 945c 423f
00000250: 823d 19bf c589 2b3f a7e4 41bd 7c9c 0f3d
00000260: 1300 af3e edb3 cbbe c931 13bf c78c 233e
00000270: 695e 433d 0b05 aabe f552 f2be 28dd dd3d
00000280: 47b0 993e 9540 9ebe e099 95bf 8dca a23e
00000290: 3880 213f 9ea4 423f b086 163e 369b d13e
000002a0: fad2 223e 1835 cfbe 7875 1c3f d757 9fbe
000002b0: abc3 7dbe b9e8 d7bd 2d44 2ebf 4f83 9ebe
000002c0: 9676 45be 9a44 103f 3498 f9be 766c 1fbe
000002d0: 415b b63e d029 b03e 60c7 62bf d625 a63e
000002e0: 482c 5c3e 5e22 ab3e 75ca 8c3f 1d57 bd3e
000002f0: ae1c 54be d9e9 fa3e 8078 3cbc b2fc 4a3e
00000300: 8ae3 09bd 0e91 983d 8b53 39be 1a31 a53c
00000310: 0e30 d63d b015 12bd e431 7bbd 420b 763a
00000320: cbc5 ccbe 2f5d b9bc 60c3 9d3e 2e0d de3e
00000330: 07ea 45be f4cf aebe 5585 313c 515e 673e
00000340: 0956 403e bfb0 c93c cee3 713d c47e 4abe
00000350: 8688 113d 6c9a fb3e 398f 0fbf c266 a33e
00000360: 7c20 79bd 89b9 023e ae51 263e dd43 b7ba
00000370: d79c 013f 3d8f 9b3e f2ef de3e 9140 4c3f
00000380: 9df2 2bbe 362c 8ebe 3159 6f3e eaa7 473d
00000390: 85da 75bf b53a b1be 5fce dc3e 99bb 0d3f
000003a0: 04c5 1ebd fae8 aebe d0dc 0e3f 2ad5 c33d
000003b0: 0611 0b3f 94c0 dbbe ef1b 25bf 6775 8c3e
000003c0: 4e06 123d 77fd 04bd 7eee 22be 3e73 1cbf
000003d0: 45d1 3d3c 0d32 a23e 9c1c 8e3d 0267 c23e
000003e0: 4a77 ce3a c854 3abf 3383 a23f 10e9 8ebe
000003f0: efc8 aa3f d8cd 283e fee6 8f3d f30e 8dbe

VAE.encoder_mu.layers.0.attention.W_q.weight f4 [4, 4]
0.08745381 -0.35834575 0.46200138 0.0032914807 0.40102422 0.23267779 0.373325 0.4617857
-0.43344852 -0.1470296 0.13922675 -0.048411798 -0.3912424 0.22744608 0.41231716 -0.37731412
00000000: fc1a b33d 1879 b7be 728b ec3e e2b5 573b
00000010: 0c53 cd3e 1643 6e3e 7424 bf3e 2d6f ec3e
00000020: f7ec ddbe ed8e 16be 7591 0e3e 734b 46bd
00000030: ed50 c8be a0e7 683e 3c1b d33e 512f c1be

VAE.encoder_mu.layers.0.attention.W_q.bias f4 [4]
0.101426646 -0.2497007 -0.057917178 -0.06388977
00000000: c6b8 cf3d 8ab1 7fbe 903a 6dbd a4d8 82bd

VAE.encoder_mu.layers.0.attention.W_k.weight f4 [4, 4]
0.23618478 -0.34165058 -0.45690233 0.13377671 0.018866906 0.1469494 0.50604117 0.34669608
-0.46545935 -0.53225154 0.2455709 -0.29060307 -0.0365399 0.449785 0.25276244 -0.28395477
00000000: 6cda 713e d3ec aebe 1aef e9be c3fc 083e
00000010: c58e 9a3c e779 163e ea8b 013f 2682 b13e
00000020: b050 eebe a341 08bf f076 7b3e edc9 94be
00000030: ddaa 15bd 384a e63e 146a 813e 8562 91be

VAE.encoder_mu.layers.0.attention.W_k.bias f4 [4]
0.00014094319 -1.2085304e-05 -0.00016594277 -0.0004877707
00000000: 26ca 1339 fcc1 4ab7 ec00 2eb9 7abb ffb9

VAE.encoder_mu.layers.0.attention.W_v.weight f4 [4, 4]
0.14646527 -0.07350108 -0.040578198 0.09724225 0.13700788 -0.07046962 -0.04270817 0.09331295
0.16163091 -0.08442237 -0.037855435 0.102019355 0.14803356 -0.074576646 -0.037668157 0.094118595
00000000: fefa 153e bc87 96bd 5335 26bd f226 c73d
00000010: cb4b 0c3e 6052 90bd c3ee 2ebd dc1a bf3d
00000020: 9382 253e a3e5 acbd 4d0e 1bbd 86ef d03d
00000030: 1c96 173e a4bb 98bd ed49 1abd 40c1 c03d

VAE.encoder_mu.layers.0.attention.W_v.bias f4 [4]
-7.606327e-05 0.033980798 -0.04521858 -0.04368446
00000000: 2884 9fb8 732f 0b3d 1e37 39bd 7aee 32bd

VAE.encoder_mu.layers.0.linear0.weight f4 [128, 4]
0.2022571 -0.7481667 -0.27102867 -0.12643735 0.49795496 0.27605256 -0.35643542 -0.19810405
-0.22751562 0.070822805 -0.2507461 -0.44595164 0.005457855 -0.4162107 0.16836637 -0.04108763
0.119185135 -0.27393436 -0.39140633 -0.30598548 -0.48903126 -0.27876455 -0.38645306 0.46717852
0.22656627 0.53678536 -0.36720756 0.44422576 0.1720916 0.20195565 0.23667458 -0.34854573
0.27769968 0.38791436 0.09362784 0.02595158 -0.56957555 -0.09156153 0.15833412 0.44233844
-0.0069196317 -0.3733451 -0.5305447 0.038214166 0.35079932 0.27372378 -0.32267463 -0.42425457
-0.1609812 0.057800006 0.04393236 0.5165872 -0.23599778 -0.0029320903 0.10790989 0.24010794
0.32627934 0.30548897 -0.30253905 0.3249026 0.13752657 -0.15345952 0.3027797 0.48248222
0.029739412 0.43039078 -0.5004608 0.19295971 -0.11628149 0.37963006 -0.47827715 0.41965938
-0.44797778 0.3021131 -0.27039516 0.2968856 -0.3777616 -0.14238332 -0.4294647 0.0835982
0.05733107 0.438707 -0.34298432 -0.028915739 0.029863166 -0.6230727 -0.080466755 0.23099014
0.4284673 -0.010864587 -0.08100681 -0.011918391 -0.20980844 -0.4678618 0.28583524 -0.5157697
0.046206392 -0.52252835 0.18048027 0.067549534 -0.4618574 -0.097443044 0.15976173 0.13232562
0.21288335 0.07934206 -0.10058165 -0.1292614 0.41356263 -0.362576 0.054958757 0.12865068
-0.1266883 0.49303603 0.096901275 0.04316488 -0.38355052 0.15874186 -0.038826544 0.39906588
0.14083509 0.021283044 -0.42624444 -0.54489124 -0.29888988 0.58269435 0.18708108 0.52029276
0.22936821 0.3928873 0.3631887 -0.13540716 0.61674273 0.16470113 -0.06311357 0.09776417
-0.28004858 -0.30653453 -0.058844987 0.14183955 -0.43275338 -0.15577592 -0.11244786 0.36480987
0.5102747 0.13615586 -0.1996678 -0.14225526 -0.23771772 -0.51095223 -0.075831845 -0.4078015
0.41727313 0.2014468 -0.35185975 -0.082989566 -0.27773198 -0.065356046 -0.46444356 0.313354
0.58719254 0.44189844 -0.23215605 0.33778468 0.21775007 -0.2594222 -0.1480431 -0.2893151
0.2395268 -0.03160818 0.45732972 -0.19130732 0.3780378 0.20436682 -0.17029518 -0.24010822
0.31244665 -0.13409609 -0.47787374 -0.6105035 0.40824744 -0.21379629 0.046156753 0.47054616
-0.59744376 -0.062279094 -0.01863475 -0.3513891 -0.41811052 0.053716082 0.40873107 -0.109682724
-0.26807395 -0.51014346 -0.011279361 -0.014507049 -0.2368048 -0.8422774 0.24065515 0.10184606
0.022140745 0.5148444 -0.46360853 -0.24649899 -0.36468467 -0.020615077 -0.4020736 -0.5616409
-0.37434542 0.47303283 0.4846899 0.111363806 -0.31539804 -0.02972697 0.2021294 0.6104455
0.018322866 -0.27783006 -0.08734555 -0.24045204 -0.15070719 0.43685395 0.2626141 -0.0804753
0.03050718 -0.1361699 0.41500965 -0.30429167 0.40683502 -0.07950749 0.14902489 -0.02826185
0.19287357 -0.49973592 0.58758473 -0.29166132 -0.62120765 -0.2568902 0.16248578 -0.31693876
0.5268873 -0.3162267 0.28959325 0.2572753 0.24180159 0.4375319 -0.34608763 -0.07197333
0.01665404 0.2909388 0.5118005 -0.03417464 0.25936872 -0.24282286 -0.26367736 -0.2770692
00000000: 7c1c 4f3e da87 3fbf 45c4 8abe cb78 01be
00000010: f4f3 fe3e c356 8d3e b47e b6be cadb 4abe
00000020: dbf9 68be 8c0b 913d cb61 80be c653 e4be
00000030: ced7 b23b 9219 d5be 3c68 2c3e 814b 28bd
00000040: 5617 f43d 2041 8cbe 6966 c8be 21aa 9cbe
00000050: 4e62 fabe 3aba 8ebe 2ddd c5be 0632 ef3e
00000060: fd00 683e c46a 093f a102 bcbe 8f71 e33e
00000070: c838 303e 76cd 4e3e d25a 723e 9674 b2be
00000080: a72e 8e3e b69c c63e f4bf bf3d 6898 d43c
00000090: b4cf 11bf 9d84 bbbd 5722 223e 2f7a e23e
000000a0: 14be e2bb 1727 bfbe c7d1 07bf 7586 1c3d
000000b0: f89b b33e 8625 8c3e 9c35 a5be e537 d9be
000000c0: 41d8 24be b3bf 6c3d 6bf2 333d 0f3f 043f
000000d0: 67a9 71be 5028 40bb dcff dc3d dbde 753e
000000e0: 160e a73e 0d69 9c3e 66e6 9abe a259 a63e
000000f0: c4d3 0c3e 7e24 1dbe f105 9b3e e907 f73e
00000100: 11a0 f33c 2e5c dc3e 331e 00bf 3b97 453e
00000110: fd24 eebd df5e c23e bee0 f4be 98dd d63e
00000120: 585d e5be 91ae 9a3e 3c71 8abe 6401 983e
00000130: f869 c1be efcc 11be cce2 dbbe 8835 ab3d
00000140: fcd3 6a3d 349e e03e a49b afbe b3e0 ecbc
00000150: 99a3 f43c b181 1fbf c1cb a4bd ae88 6c3e
00000160: 1160 db3e 6101 32bc e6e6 a5bd 5b45 43bc
00000170: 06d8 56be 958b efbe ff58 923e 7c09 04bf
00000180: ea42 3d3d 6bc4 05bf d2cf 383e 6957 8a3d
00000190: 9378 ecbe 3890 c7bd 9498 233e 5e80 073e
000001a0: 18fe 593e 177e a23d c1fd cdbd 1a5d 04be
000001b0: 7bbe d33e 90a3 b9be 6f1c 613d 01bd 033e
000001c0: 94ba 01be 386f fc3e 2d74 c63d a8cd 303d
000001d0: bc60 c4be 3a8d 223e 9508 1fbd 5d52 cc3e
000001e0: 1337 103e c759 ae3c b63c dabe fe7d 0bbf
000001f0: 1808 99be 752b 153f 2f92 3f3e e831 053f
00000200: 80df 6a3e 8628 c93e dff3 b93e 2da8 0abe
00000210: dae2 1d3f 6aa7 283e b041 81bd 9538 c83d
00000220: 8762 8fbe 18f2 9cbe 7107 71bd 633e 113e
00000230: da91 ddbe b983 1fbe 104b e6bd 5cc8 ba3e
00000240: 5da1 023f 716c 0b3e b775 4cbe 5dab 11be
00000250: 466c 73be c4cd 02bf ba4d 9bbd 5ccb d0be
00000260: d3a4 d53e 1248 4e3e f626 b4be 6ff6 a9bd
00000270: e332 8ebe 64d9 85bd 8ccb edbe ef6f a03e
00000280: 4052 163f 8340 e23e 51ba 6dbe 1df2 ac3e
00000290: e0f9 5e3e fdd2 84be 9c98 17be 1c21 94be
000002a0: 8346 753e 9477 01bd 1f27 ea3e 11e6 43be
000002b0: 2c8e c13e 8945 513e dc61 2ebe eede 75be
000002c0: 02f9 9f3e 7c50 09be deab f4be f549 1cbf
000002d0: cf05 d13e 6aed 5abe dd0e 3d3d 6deb f03e
000002e0: 13f2 18bf 5d18 7fbd e7a7 98bc 46e9 b3be
000002f0: 9512 d6be 6505 5c3d 3345 d13e 56a1 e0bd
00000300: fd40 89be c398 02bf 12cd 38bc f9ae 6dbc
00000310: f57c 72be 7e9f 57bf 4e6e 763e ab94 d03d
00000320: 8260 b53c d8cc 033f 195e edbe 3b6a 7cbe
00000330: f3b7 babe f3e0 a8bc 97dc cdbe b3c7 0fbf
00000340: 34aa bfbe 5c31 f23e 4629 f83e b512 e43d
00000350: da7b a1be f985 f3bc 02fb 4e3e 2846 1c3f
00000360: d619 963c be3f 8ebe 39e2 b2bd 0f39 76be
00000370: fc52 1abe 52ab df3e 5b75 863e 3cd0 a4bd
00000380: 32ea f93c 1f70 0bbe 257c d43e 1ecc 9bbe
00000390: ae4c d03e d3d4 a2bd fb99 183e 6585 e7bc
000003a0: a680 453e 63dd ffbe f46b 163f a254 95be
000003b0: 7707 1fbf 1d87 83be ac62 263e cc45 a2be
000003c0: 16e2 063f 77e8 a1be 9145 943e 97b9 833e
000003d0: d69a 773e 2e04 e03e 6632 b1be c166 93bd
000003e0: 0e6e 883c eef5 943e 5c05 033f b5fa 0bbd
000003f0: facb 843e 8ea6 78be b800 87be 04dc 8dbe

VAE.encoder_mu.layers.0.linear0.bias f4 [128]
-0.46980965 0.38530314 -0.114930324 -0.22700283 -0.19403684 -0.009854048 -0.310354 0.31210452
0.3757546 -0.0037199517 -0.23327692 -0.36477113 -0.13461928 0.34761286 -0.061385483 0.22773568
0.3117642 -0.37732837 -0.06580626 0.27834585 0.15036024 0.12361692 -0.32838267 0.10013403
-0.018333038 0.3018191 -0.01496764 -0.4004476 0.23277031 0.27358577 -0.26998657 -0.123754896
-0.29916596 -0.31475183 0.020291192 0.5070313 -0.14707711 0.16817266 0.47180828 -0.23417631
-0.34672388 0.23846155 -0.03374236 -0.1422584 -0.1539836 -0.21879837 -0.28676587 -0.344725
0.3440766 -0.3622482 -0.22869435 0.38844976 0.22698396 0.15087216 0.35170844 0.06535041
-0.40231255 0.12328009 -0.40611374 -0.12350997 -0.48353836 -0.16751623 -0.09763367 0.36706698
-0.23164959 -0.012980251 0.4470131 0.1413291 -0.048476003 0.32899672 0.25965345 -0.13158624
-0.35270327 0.2829723 -0.045344092 0.2822598 -0.10836247 0.32184765 0.14939627 0.08190164
-0.24384385 0.2433229 0.054825213 0.51632 -0.06594878 0.40292463 -0.32469073 0.007855263
-0.3485821 -0.34236038 -0.1149179 -0.02861343 0.10421273 0.17047077 0.022829631 0.4660192
-0.31598574 0.42993364 0.29336596 -0.06572515 -0.43668318 0.16532685 -0.031005993 0.34774682
0.21711823 -0.2723592 0.46557593 -0.54601353 0.24026738 -0.29898897 -0.5152876 -0.23479399
-0.25916982 -0.03420591 -0.4857361 0.28527272 0.52634066 0.15097925 -0.06340851 0.23648445
0.48462012 -0.42814636 -0.263615 -0.028237192 0.4430125 0.21010222 0.33723915 -0.12823497
00000000: e48a f0be 7446 c53e 9760 ebbd 6e73 68be
00000010: 98b1 46be df72 21bc b8e6 9ebe 2acc 9f3e
00000020: e862 c03e 6fca 73bb 25e0 6ebe 48c3 babe
00000030: a3d9 09be 50fa b13e 586f 7bbd 8b33 693e
00000040: 8f9f 9f3e 2f31 c1be 6fc5 86bd 5983 8e3e
00000050: 09f8 193e de2a fd3d c621 a8be 1213 cd3d
00000060: 2b2f 96bc 0888 9a3e d53a 75bc 7807 cdbe
00000070: 575b 6e3e 6f13 8c3e ae3b 8abe 3573 fdbd
00000080: 482c 99be 2727 a1be b739 a63c cecc 013f
00000090: 629b 16be 7435 2c3e db90 f13e eacb 6fbe
000000a0: cb85 b1be 442f 743e 6e35 0abd 30ac 11be
000000b0: e0ad 1dbe ae0c 60be fad2 92be cc7f b0be
000000c0: cf2a b03e 9978 b9be da2e 6abe e3e2 c63e
000000d0: 7c6e 683e 3b7e 1a3e 2113 b43e 70d6 853d
000000e0: e9fb cdbe 467a fc3d 24ee cfbe ccf2 fcbd
000000f0: 5792 f7be 6089 2bbe 29f4 c7bd 34f0 bb3e
00000100: 8d35 6dbe 1eab 54bc e7de e43e 93b8 103e
00000110: c68e 46bd 4272 a83e 4cf1 843e 8bbe 06be
00000120: 8695 b4be bfe1 903e baba 39bd 5b84 903e
00000130: 25ed ddbd 37c9 a43e 56fb 183e 0cbc a73d
00000140: 34b2 79be a329 793e 6790 603d 8c2d 043f
00000150: 2710 87bd 234c ce3e dd3d a6be 5cb3 003c
00000160: 5a79 b2be dc49 afbe 135a ebbd b666 eabc
00000170: 7c6d d53d e48f 2e3e 3505 bb3c 129a ee3e
00000180: e2c8 a1be 4320 dc3e 1034 963e e89a 86bd
00000190: f094 dfbe 714b 293e 4800 febc df0b b23e
000001a0: 3e54 5e3e aa72 8bbe f85f ee3e 8bc7 0bbf
000001b0: a708 763e 1515 99be e3e9 03bf d66d 70be
000001c0: e8b1 84be 7f1b 0cbd 67b2 f8be 440f 923e
000001d0: 43be 063f 4e9a 1a3e 52dc 81bd fb28 723e
000001e0: 2120 f83e 0036 dbbe 8cf8 86be af51 e7bc
000001f0: 89d2 e23e 0925 573e 9caa ac3e 0750 03be

VAE.encoder_mu.layers.0.linear1.weight f4 [4, 128]
-0.009542132 0.19003028 0.0918509 -0.023810137 -0.0112364935 -0.18401304 0.097503394 -0.0002761768
0.15742607 -0.069504686 -0.12012959 -0.0060067433 -0.13848191 -0.11734404 -0.08137307 -0.057552222
0.0057793884 -0.023048982 -0.03903122 0.014082644 -0.0063822195 -0.18728207 -0.05376334 0.06885261
0.08732488 0.005982521 0.07984268 0.058615793 -0.033793308 -0.14016272 0.034490135 0.016943632
0.11958689 0.1146345 -0.026365383 -0.005387388 0.05677733 0.13391009 0.028515749 0.0040533906
0.07174048 0.028170316 -0.01641353 0.06243598 0.35665575 -0.12904763 0.059879493 -0.07010124
-0.009466318 -0.05306674 0.053899866 0.20740315 0.0033815133 -0.18569718 0.13393353 0.12243322
0.043609492 -0.007413242 0.023969298 0.099535294 -0.31072024 0.08911221 0.102724016 0.13727126
-0.05724729 0.12080163 0.028668847 0.18994299 -0.050339125 -0.105497226 0.16220525 0.08353351
0.06374713 -0.11388084 -0.0019395942 -0.16890223 -0.015659686 -0.18277694 -0.1614143 -0.21963356
-0.34267312 0.14485034 0.038648482 0.069511265 -0.0413449 -0.09910799 -0.42599025 0.046528473
0.05015591 0.049648564 0.005185928 0.14284693 -0.1022546 0.003667893 -0.07110128 0.013873745
0.18622999 0.048624877 -0.03093137 0.015648527 0.0918367 0.039267868 0.043367743 -0.14619043
-0.08235119 0.0075069536 -0.11811423 0.00031343958 0.06659876 0.057533517 -0.08914696 0.035294842
0.012223063 0.09469722 -0.08443064 -0.130521 -0.10774799 -0.01078469 -0.06911468 -0.042060964
-0.07830015 0.044667803 0.09879014 0.012767341 0.009348242 -0.04318041 0.04504832 -0.11273317
-0.15422797 0.05021481 -0.07391224 -0.036077034 -0.12214665 0.023126777 0.19612499 -0.015946392
0.029292857 -0.13099702 0.08370058 -0.112314746 -0.099633925 -0.05869029 0.08753871 0.0054391515
0.047898177 0.14332233 0.10309514 0.015407991 -0.061206326 0.080795765 -0.0007205294 -0.044511642
-0.027735973 -0.009129516 -0.009924489 -0.06926033 -0.056229416 -0.022800248 -0.27911907 0.052652862
-0.027515251 -0.32906884 -0.028818097 -0.018064221 -0.09500573 -0.02889519 0.03908341 0.18487322
0.0011808376 -0.05597482 0.06136421 -0.13176417 -0.2850828 0.027538309 -0.19233748 -0.03308464
-0.0030684613 -0.2312483 -0.075598314 -0.042836986 -0.062040772 -0.08038495 -0.1004099 0.025673809
0.04173082 -0.07571312 0.55366486 -0.04049148 0.120983765 0.045569193 -0.051207367 -0.09720961
-0.05028194 0.008621092 -0.0621302 -0.03298405 0.07048046 -0.108328715 0.052199736 0.026750142
-0.05132313 0.036611427 -0.043438293 0.14448693 0.014598679 -0.06794249 0.105826624 -0.005036288
-0.07506505 -0.11366083 -0.08674969 -0.08571993 -0.016966708 -0.0014799847 -0.10766208 0.007074604
-0.0029312894 0.08749115 -0.11077762 -0.050900154 0.1635377 0.14463384 0.34540316 -0.09457587
-0.22983345 -0.0506734 0.050640404 0.055858385 -0.015265899 0.0075567504 0.09882757 -0.061350312
0.01699725 0.24214254 -0.023584323 -0.030612124 -0.10245691 0.1667004 -0.01735778 0.0049574273
0.033814147 0.12231527 0.05206266 -0.0907534 0.096945785 -0.0065989406 0.13857676 0.12835366
-0.1331781 -0.07015751 0.06468882 0.083261445 0.018142212 -0.0049201716 -0.020943545 -0.058458246
00000000: 9a56 1cbc 4c97 423e 531c bc3d 7a0d c3bc
00000010: 4519 38bc ea6d 3cbe dcaf c73d d3cb 90b9
00000020: 4d34 213e 7958 8ebd 8106 f6bd 37d4 c4bb
00000030: 34ce 0dbe 1252 f0bd eda6 a6bd e1bb 6bbd
00000040: 0661 bd3b 38d1 bcbc 33df 1fbd e4ba 663c
00000050: f021 d1bb dfc6 3fbe f336 5cbd 9902 8d3d
00000060: 63d7 b23d 0609 c43b 8f84 a33d 1d17 703d
00000070: da6a 0abd d186 0fbe 8745 0d3d 5fcd 8a3c
00000080: f9e9 f43d 7ec5 ea3d 37fc d7bc b088 b0bb
00000090: 588f 683d ba1f 093e dc99 e93c 4ed2 843b
000000a0: acec 923d 6fc5 e63c ab75 86bc dfbc 7f3d
000000b0: 959b b63e 1025 04be 3344 753d 3d91 8fbd
000000c0: 9e18 1bbc 835c 59bd 1bc6 5c3d 7e61 543e
000000d0: 619c 5d3b 6727 3ebe df25 093e 45be fa3d
000000e0: de9f 323d c8ea f2bb 435b c43c 29d9 cb3d
000000f0: b916 9fbe 7680 b63d f860 d23d d690 0c3e
00000100: 227c 6abd d866 f73d eeda ea3c 6a80 423e
00000110: 6630 4ebd ee0e d8bd 2219 263e 9e13 ab3d
00000120: db8d 823d 5c3a e9bd fb39 feba b5f4 2cbe
00000130: be48 80bc e129 3bbe ca49 25be 9fe7 60be
00000140: da72 afbe a653 143e df4d 1e3d ec5b 8e3d
00000150: 4559 29bd 21f9 cabd 651b dabe a494 3e3d
00000160: 4970 4d3d 4b5c 4b3d b8ee a93b 7746 123e
00000170: dc6a d1bd 0861 703b 8c9d 91bd b44e 633c
00000180: 13b3 3e3e e12a 473d c963 fdbc 5731 803c
00000190: e114 bc3d 58d7 203d 60a2 313d f2b2 15be
000001a0: bea7 a8bd e4fc f53b e0e5 f1bd 2655 a439
000001b0: ee64 883d 44a8 6b3d ae92 b6bd 5391 103d
000001c0: 3e43 483c 9ef0 c13d f9e9 acbd 4ca7 05be
000001d0: faaa dcbd 45b2 30bc ff8b 8dbd 1e48 2cbd
000001e0: d45b a0bd 96f5 363d 7c52 ca3d 1c2e 513c
000001f0: 5e29 193c f1dd 30bd 9684 383d a6e0 e6bd
00000200: f0ed 1dbe 0bae 4d3d 4d5f 97bd 83c5 13bd
00000210: 0628 fabd 5e74 bd3c fdd4 483e 02a2 82bc
00000220: 93f7 ef3c 1524 06be 366b ab3d 4605 e6bd
00000230: df0c ccbd 3b65 70bd 7f47 b33d e93a b23b
00000240: e130 443d 17c3 123e 8b23 d33d cc71 7c3c
00000250: 7cb3 7abd 4078 a53d e9e1 3cba d751 36bd
00000260: 8d36 e3bc f793 15bc 539a 22bc 5cd8 8dbd
00000270: d150 66bd 96c7 babc b2e8 8ebe 87aa 573d
00000280: aa67 e1bc b67b a8be ee13 ecbc 6bfb 93bc
00000290: 5d92 c2bd 9bb5 ecbc ed15 203d 684f 3d3e
000002a0: 56c6 9a3a da45 65bd 0a59 7b3d 30ed 06be
000002b0: 5ff6 91be 0598 e13c 1ef4 44be c283 07bd
000002c0: 3d18 49bb 5bcc 6cbe 4ad3 9abd d675 2fbd
000002d0: 771e 7ebd dda0 a4bd b5a3 cdbd e151 d23c
000002e0: f0ed 2a3d 7b0f 9bbd fbbc 0d3f 65da 25bd
000002f0: 56c6 f73d c3a6 3a3d d1be 51bd d515 c7bd
00000300: 6ff4 4dbd 7b3f 0d3c 3d7c 7ebd 491a 07bd
00000310: 0f58 903d 72db ddbd 64cf 553d 1d23 db3c
00000320: 3438 52bd ddf5 153d 5aec 31bd 62f4 133e
00000330: 4c2f 6f3c 6f25 8bbd a1bb d83d 7207 a5bb
00000340: b4bb 99bd 02c7 e8bd d2a9 b1bd ee8d afbd
00000350: c4fd 8abc 0cfc c1ba f07d dcbd 14d2 e73b
00000360: e01a 40bb 8f2e b33d 60df e2bd ae7c 50bd
00000370: 6d76 273e e51a 143e afd8 b03e feb0 c1bd
00000380: 7659 6bbe e98e 4fbd 506c 4f3d c3cb 643d
00000390: d21d 7abc 9e9e f73b 1c66 ca3d 774a 7bbd
000003a0: d13d 8b3c 37f4 773e e933 c1bc 47c6 fabc
000003b0: eed4 d1bd 82b3 2a3e e731 8ebc ea71 a23b
000003c0: b480 0a3d 6e80 fa3d a83f 553d ebdc b9bd
000003d0: 838b c63d ed3b d8bb 11e7 0d3e 246f 033e
000003e0: d75f 08be beae 8fbd 927b 843d fa84 aa3d
000003f0: fa9e 943c 6439 a1bb cc91 abbc ea71 6fbd

VAE.encoder_mu.layers.0.linear1.bias f4 [4]
0.07010266 -0.08530714 -0.014724849 -0.07252013
00000000: fc91 8f3d 83b5 aebd 7e40 71bc 6f85 94bd

VAE.encoder_mu.layers.0.norm1.weight f4 [4]
1.246574 1.2092805 1.1896063 1.1853307
00000000: bd8f 9f3f b4c9 9a3f 0545 983f ebb8 973f

VAE.encoder_mu.layers.0.norm1.bias f4 [4]
0.025651025 -0.05096715 -0.045801595 0.0057398425
00000000: 1922 d23c eec2 50bd 749a 3bbd 4a15 bc3b

VAE.encoder_mu.layers.1.attention.W_q.weight f4 [4, 4]
0.32333812 -0.18528426 -0.50125414 -0.48078445 -0.10961192 -0.3128962 0.45663527 -0.27025694
0.14396574 0.28410894 -0.15753284 -0.019097105 0.20229068 -0.036600847 0.31150416 0.15682387
00000000: 938c a53e 28bb 3dbe 3152 00bf 6129 f6be
00000010: 377c e0bd ee33 a0be 19cc e93e 1e5f 8abe
00000020: c16b 133e ba76 913e 4a50 21be 8871 9cbc
00000030: 4a25 4f3e c5ea 15bd 797d 9f3e 7096 203e

VAE.encoder_mu.layers.1.attention.W_q.bias f4 [4]
-0.15835242 -0.05342626 -0.18718338 0.16036068
00000000: 2327 22be 7ed5 5abd 00ad 3fbe 9735 243e

VAE.encoder_mu.layers.1.attention.W_k.weight f4 [4, 4]
-0.47015706 -0.04891101 0.3226854 -0.10073991 0.041084263 0.27378651 -0.04545187 0.2516918
-0.25044867 0.021923339 0.10681774 0.48528033 0.524384 -0.31041375 -0.3559942 -0.27021414
00000000: 6db8 f0be e956 48bd 0537 a53e ba50 cebd
00000010: f947 283d bf2d 8c3e bd2b 3abd bfdd 803e
00000020: cf3a 80be 9398 b33c 42c3 da3d aa76 f83e
00000030: 083e 063f 8dee 9ebe df44 b6be 8259 8abe

VAE.encoder_mu.layers.1.attention.W_k.bias f4 [4]
0.0009641915 0.0001935298 0.00021797871 -8.052309e-05
00000000: ccc1 7c3a 43ee 4a39 3791 6439 81de a8b8

VAE.encoder_mu.layers.1.attention.W_v.weight f4 [4, 4]
0.2430197 0.37125778 0.16569145 0.34670708 0.04595152 0.15389639 -0.055691246 0.13064142
0.09295339 0.20844427 0.0027103338 0.18324046 0.003481386 0.065323114 -0.077461146 0.077674896
00000000: 28da 783e 8015 be3e 05ab 293e 9783 b13e
00000010: a937 3c3d 0497 1d3e 811c 64bd ddc6 053e
00000020: 595e be3d 6a72 553e db9f 313b 63a3 3b3e
00000030: f727 643b 20c8 853d f3a3 9ebd 0414 9f3d

VAE.encoder_mu.layers.1.attention.W_v.bias f4 [4]
0.022086367 -0.017019268 -0.0060230177 -0.08400447
00000000: 78ee b43c fe6b 8bbc bc5c c5bb 890a acbd

VAE.encoder_mu.layers.1.linear0.weight f4 [128, 4]
-0.3744548 -0.3242641 -0.051457055 -0.42969853 -0.12561683 -0.22397871 0.035990555 0.41172275
-0.35262048 0.3134139 -0.054438557 0.39395657 -0.211335 -0.2735417 -0.48134327 0.45763218
0.24769074 0.09134417 0.23211265 -0.23733293 0.37026623 -0.05721054 0.3898501 -0.23917629
0.311981 0.4987836 0.35924882 -0.22678073 -0.0023053554 0.63907754 -0.73772484 0.07705014
0.3037164 0.3381395 0.29787835 -0.09537134 -0.21366428 -0.030887863 0.4650641 -0.32417187
0.42300612 -0.34382588 -0.21447232 0.04908613 0.41541576 0.38879445 -0.09616057 0.4709324
-0.42359778 -0.3552901 -0.6027663 0.056735184 0.290145 0.10577003 0.06902466 0.5344585
0.43669763 -0.02951211 -0.054538615 0.19362392 0.14620402 -0.4526693 0.055565115 0.077324174
0.12859789 -0.35491398 0.035797797 0.35686693 0.27692676 0.12867147 -0.31935886 -0.19424373
0.24657427 0.18386754 -0.08944608 -0.10008956 0.1466665 -0.32604286 0.39028534 -0.46153757
-0.49843946 -0.0072423415 0.13502693 0.40783897 0.47146943 0.007661551 -0.1662057 -0.40506795
0.15016428 -0.37405497 0.31401452 0.25116965 -0.5647047 0.41497988 -0.070065305 0.17085777
0.3935956 -0.04051632 0.096040964 -0.3163221 0.025186546 -0.40813679 -0.42929095 0.02821538
0.19693978 -0.44437864 -0.13859078 0.44196564 0.16749358 0.5477281 0.00077508023 0.20435254
0.35972252 0.549279 0.2317331 0.13356107 0.13158737 -0.43313327 0.21493535 -0.056635175
-0.32846925 -0.319168 -0.036789216 -0.26610053 0.15891081 -0.17162941 0.42320338 -0.5142074
0.29080552 0.4237712 -0.2890723 -0.10271997 -0.07253455 -0.006094715 -0.04306712 -0.39233634
0.54006696 0.20365854 -0.06772498 0.2462336 0.058451116 0.033100184 -0.046014912 -0.360402
-0.20033458 0.43742985 -0.083754115 0.27716082 0.37347117 -0.15921734 0.20440243 -0.03826427
0.18884909 0.061423995 0.41748038 -0.42956418 0.17167145 0.07331637 -0.47265357 0.5087403
-0.2894223 -0.22464068 0.15979305 -0.04919459 -0.0075392383 0.48469105 0.20070854 -0.32193682
-0.06940438 0.14790611 -0.09375064 0.345083 0.033790153 -0.3766579 0.40676302 0.11549611
0.08720568 0.03725322 -0.28797707 -0.39901507 0.22843325 0.049280632 0.24061577 -0.4268537
-0.28435004 -0.0544722 -0.12706955 -0.22660506 0.08577608 -0.31680763 -0.070650935 0.57671505
0.16358982 0.119401395 0.009710321 -0.47210705 0.5002781 0.093512595 -0.34714046 -0.10415268
-0.08169921 -0.104927056 0.049215123 -0.40872726 -0.30433592 0.12825362 -0.11713298 -0.20669138
0.09814362 -0.41616166 -0.48376098 -0.20719509 0.21473676 0.4139052 0.26341933 -0.11452312
-0.42799008 -0.3217437 -0.063871935 0.25223085 0.48297572 0.024504786 -0.38580483 0.37163135
-0.25426227 0.18188135 0.049790815 -0.051790003 -0.38471904 0.4527153 -0.40983117 -0.26998872
0.26952252 -0.015859744 -0.22534135 0.3199767 0.42497867 0.2324461 -0.45843655 -0.028215528
-0.47100314 -0.046611976 0.4138868 -0.5018944 -0.40302202 -0.14074321 -0.3641818 0.5164386
0.2772088 0.020448573 0.29781336 0.09747223 0.044083603 0.37753028 0.12857144 -0.26789993
00000000: 8ab8 bfbe f205 a6be a2c4 52bd 7201 dcbe
00000010: b3a1 00be ad5a 65be d56a 133d 53cd d23e
00000020: ac8a b4be c977 a03e f7fa 5ebd adb4 c93e
00000030: 3468 58be a80d 8cbe a072 f6be c44e ea3e
00000040: a4a2 7d3e a712 bb3d f0ae 6d3e 6707 73be
00000050: 8993 bd3e 9955 6abd 6f9a c73e a1ea 74be
00000060: f9bb 9f3e 9060 ff3e 76ef b73e 3539 68be
00000070: 7215 17bb 969a 233f 89db 3cbf 77cc 9d3d
00000080: b780 9b3e 9f20 ad3e 8383 983e 0d52 c3bd
00000090: cfca 5abe 8b08 fdbc e21c ee3e dbf9 a5be
000000a0: 4294 d83e f209 b0be a29e 5bbe 8a0e 493d
000000b0: 60b1 d43e 1110 c73e d5ef c4bd 0d1e f13e
000000c0: cfe1 d8be 96e8 b5be e44e 1abf 2763 683d
000000d0: e38d 943e f59d d83d cd5c 8d3d 46d2 083f
000000e0: d596 df3e 61c3 f1bc e263 5fbd 5945 463e
000000f0: 82b6 153e 45c4 e7be 3f98 633d 235c 9e3d
00000100: 2aaf 033e 49b7 b5be b6a0 123d 43b7 b63e
00000110: 58c9 8d3e 74c2 033e 0183 a3be d4e7 46be
00000120: f77d 7c3e c647 3c3e 822f b7bd c1fb ccbd
00000130: be2f 163e 17ef a6be 7bd3 c73e a74e ecbe
00000140: 7533 ffbe 2a51 edbb 8044 0a3e 45d0 d03e
00000150: 7164 f13e bf0d fb3b d431 2abe 1165 cfbe
00000160: aac4 193e 2284 bfbe 83c6 a03e 4f99 803e
00000170: 7d90 10bf 3e78 d43e 667e 8fbd 57f5 2e3e
00000180: 5d85 c93e 71f4 25bd 20b1 c43d f8f4 a1be
00000190: 0454 ce3c 4ef7 d0be 06cc dbbe f123 e73c
000001a0: 95aa 493e 9985 e3be beea 0dbe 5249 e23e
000001b0: 7083 2b3e e937 0c3f c12e 4b3a cb41 513e
000001c0: 8d2d b83e 8c9d 0c3f 714b 6d3e 3cc4 083e
000001d0: d7be 063e a5c3 ddbe 0318 5c3e 49fa 67bd
000001e0: 1f2d a8be fd69 a3be 4ab0 16bd 543e 88be
000001f0: 84b9 223e 9fbf 2fbe 1dae d83e 19a3 03bf
00000200: 76e4 943e 8af8 d83e 4901 94be d95e d2bd
00000210: ff8c 94bd 2db6 c7bb 2667 30bd 4fe0 c8be
00000220: d441 0a3f dd8b 503e 65b3 8abd a924 7c3e
00000230: 706a 6f3d 0f94 073d 227a 3cbd 9c86 b8be
00000240: 8224 4dbe cef6 df3e 4787 abbd 06e8 8d3e
00000250: 9d37 bf3e df09 23be df4e 513e ffba 1cbd
00000260: a861 413e ba97 7b3d fdbf d53e d6ef dbbe
00000270: a4ca 2f3e e526 963d a6ff f1be ce3c 023f
00000280: 292f 94be 3508 66be caa0 233e 4480 49bd
00000290: b70b f7bb 6d29 f83e 8a86 4d3e e7d4 a4be
000002a0: e223 8ebd b374 173e 5600 c0bd b8ae b03e
000002b0: 8b67 0a3d 4ed9 c0be 3e43 d03e 3989 ec3d
000002c0: e498 b23d d596 183d bb71 93be b44b ccbe
000002d0: 68ea 693e 7dda 493d fb63 763e 918c dabe
000002e0: 5496 91be 3e1e 5fbd 851e 02be 280b 68be
000002f0: 5fab af3d 9c34 a2be 70b1 90bd 99a3 133f
00000300: 1784 273e b888 f43d 0a18 1f3c 04b8 f1be
00000310: 3a12 003f 8883 bf3d 65bc b1be 004e d5bd
00000320: ea51 a7bd ffe3 d6bd cc95 493d b344 d1be
00000330: ebd1 9bbe eb54 033e 6ae3 efbd e8a6 53be
00000340: 86ff c83d 2413 d5be 85af f7be f32a 54be
00000350: f4e3 5b3e 62eb d33e e6de 863e 198b eabd
00000360: 8421 dbbe 97bb a4be 4acf 82bd 6724 813e
00000370: 9848 f73e 43be c83c 3688 c5be 7746 be3e
00000380: aa2e 82be 1b3f 3a3e 74f1 4b3d c121 54bd
00000390: e5f9 c4be 4dca e73e 64d5 d1be f63b 8abe
000003a0: dbfe 893e 4bec 81bc e2bf 66be fcd3 a33e
000003b0: ce96 d93e 5a06 6e3e 32b8 eabe 4024 e7bc
000003c0: 5327 f1be 33ec 3ebd f8e8 d33e 277c 00bf
000003d0: e758 cebe fd1e 10be 0976 babe 5235 043f
000003e0: 50ee 8d3e c483 a73c fe7a 983e 859f c73d
000003f0: 0291 343d a64b c13e 3ba8 033e 2e2a 89be

VAE.encoder_mu.layers.1.linear0.bias f4 [128]
0.043280113 -0.39589673 0.097514175 -0.20011277 0.17783678 0.09132781 -0.42834583 -0.5175641
0.25032005 -0.33483696 0.2581624 0.37132853 0.41475958 0.17170985 -0.07083731 0.017997248
0.22575463 -0.30540004 0.28054038 -0.5245767 -0.0785531 -0.020370388 -0.1124118 -0.21459377
0.31767347 -0.44028687 0.4667612 -0.042103775 0.39281774 0.012376761 0.19510442 -0.335238
0.41925108 -0.45331344 -0.011779709 0.48408005 0.015690971 -0.39493024 -0.18594436 0.15932783
0.31752768 0.24384296 -0.39034662 -0.027487576 0.40475082 0.37991658 0.40860784 -0.078534916
-0.26229355 -0.11533299 -0.48998305 -0.4411019 0.3357031 0.16221271 0.13839938 -0.3098804
0.438241 -0.46089968 0.366861 0.54760635 0.3120664 0.21182513 0.15814784 0.23795404
-0.1301234 0.3045463 -0.31762123 -0.4880951 -0.535158 0.30572402 -0.2607192 -0.022525605
0.203241 -0.43433812 -0.4434715 -0.9131854 0.012764024 -0.12418743 -0.044227928 -0.2741913
0.03989893 -0.007381158 0.020598141 -0.42664558 -0.26299375 0.080458924 -0.349907 0.5153689
-0.08911514 -0.272908 -0.37304482 0.27742556 -0.3470993 0.5437898 0.0662633 -0.2665905
0.16446388 -0.10717108 -0.35898033 -0.31938303 0.019002696 0.16263814 0.16155902 0.27747944
0.13746314 -0.12214216 -0.10630132 -0.21333233 0.05396081 0.16369888 0.18438117 -0.099854305
0.17851302 -0.13590385 0.22420762 -0.32638597 -0.34931937 -0.055864885 0.39296782 0.17539449
0.10549867 0.45842737 -0.29093763 -0.10863028 0.41938248 -0.13022244 0.30241576 -0.177449
00000000: 7d46 313d fab2 cabe 83b5 c73d 5dea 4cbe
00000010: d81a 363e 130a bb3d 2550 dbbe 157f 04bf
00000020: f329 803e c06f abbe dd2d 843e c61e be3e
00000030: 5e5b d43e b5d4 2f3e 2713 91bd f76e 933c
00000040: 392c 673e 655d 9cbe fda2 8f3e a94a 06bf
00000050: 73e0 a0bd cddf a6bc 2838 e6bd 78be 5bbe
00000060: 19a6 a23e 486d e1be 53fb ee3e 0275 2cbd
00000070: 681f c93e e6c7 4a3c 74c9 473e 51a4 abbe
00000080: 14a8 d63e b318 e8be aeff 40bc 57d9 f73e
00000090: 5a8a 803c 4c34 cabe 3368 3ebe d626 233e
000000a0: fd92 a23e f8b1 793e 83db c7be a02d e1bc
000000b0: 803b cf3e 6d84 c23e 0c35 d13e ead6 a0bd
000000c0: 574b 86be b433 ecbd 0fdf fabe 1cd8 e1be
000000d0: 47e1 ab3e 171b 263e 91b8 0d3e a5a8 9ebe
000000e0: 2061 e03e 0bfb ebbe 34d5 bb3e ee2f 0c3f
000000f0: 2bc7 9f3e b0e8 583e 82f1 213e 39aa 733e
00000100: 123f 05be 7eed 9b3e 409f a2be 9ae7 f9be
00000110: 1d00 09bf dc87 9c3e fd7c 85be 9e87 b8bc
00000120: 691e 503e 9161 debe b20e e3be 85c6 69bf
00000130: 3220 513c fb55 febd 5828 35bd cd62 8cbe
00000140: 0f6d 233d a4dd f1bb 6fbd a83c 4a71 dabe
00000150: 1ea7 86be a6c7 a43d 0327 b3be 37ef 033f
00000160: 0082 b6bd 99ba 8bbe bbff bebe b90a 8e3e
00000170: 00b7 b1be cf35 0b3f 0eb5 873d 8d7e 88be
00000180: 3869 283e 837c dbbd 45cc b7be 2c86 a3be
00000190: 8bab 9b3c 9d8a 263e ba6f 253e c911 8e3e
000001a0: 23c3 0c3e ab25 fabd 82b4 d9bd ca73 5abe
000001b0: 0306 5d3d aea0 273e 6bce 3c3e 6a80 ccbd
000001c0: 1ecc 363e 612a 0bbe af96 653e 101c a7be
000001d0: fdd9 b2be 94d2 64bd 1433 c93e 9d9a 333e
000001e0: b00f d83d feb6 ea3e c7f5 94be 8d79 debd
000001f0: 4db9 d63e 0859 05be 3dd6 9a3e 31b5 35be

VAE.encoder_mu.layers.1.linear1.weight f4 [4, 128]
-0.013176088 0.0057142153 -0.080080986 -0.16091904 0.12243491 0.12186541 0.05967354 -0.5954434
-0.0125627 0.016531926 -0.11361451 -0.1478295 -0.07831448 -0.13448785 -0.08012772 0.023789976
0.01329584 0.21596725 -0.020813541 -0.035635963 0.018668652 0.03593937 -0.112474196 0.050044004
-0.0059660953 -0.003542593 -0.1230635 -9.1367445e-05 0.11630682 0.011268371 -0.014406911 0.1153054
0.046953727 0.10344165 -0.053484254 0.0014811541 -0.2238606 0.06661654 0.07929338 -0.05291929
0.060833093 0.06078933 -0.054884993 0.10760712 -0.046537086 -0.026816966 0.06675407 -0.138327
0.073322356 -0.055281162 0.001369407 0.11868263 -0.16066699 0.008067929 -0.09451503 0.0017133113
0.06957611 0.112491615 -0.0561094 -0.11219609 0.06433062 -0.07170236 0.1109692 -0.055824935
-0.08956461 0.13824105 0.1574072 0.099348314 -1.1194443 -0.10372631 0.12719007 0.0050691874
0.0023876287 -0.14655825 0.10742197 -0.70880395 0.1811187 -0.14412354 0.19493224 0.41871506
0.043296847 0.08379112 0.014473222 0.07316305 -3.0400019 0.06780364 -0.056667957 -0.026618026
0.20727298 -0.048519827 0.071924984 0.002773746 0.06614268 -0.09389305 0.09939233 -0.06716845
-0.031362325 0.08838839 -0.15096949 -0.049110226 0.095587865 -0.10169522 0.111679666 -0.05678759
0.07009218 0.080125794 -0.008021679 0.13099138 0.056513697 -0.07650565 -0.20229311 -0.0048862128
0.18028907 -0.040967487 0.09177382 0.12659998 0.082853265 -0.0040621418 0.15156995 -0.1323377
-0.12901239 0.06306013 -0.38214532 0.09933667 -0.027280033 0.13447613 0.08007995 0.016125867
-0.094238594 0.022125509 0.0693682 0.03597877 -0.104398474 -0.110083945 -0.16038455 0.6002663
-0.07293603 0.02331344 0.05975147 0.10997833 -0.03518974 0.049253717 0.14764598 -0.013612391
0.09313556 0.21099429 -0.099544905 0.054628056 -0.018025499 0.060231514 -0.035072878 0.031151498
-0.055417113 0.06800872 0.07483934 -0.048972275 -0.006327319 -0.06052949 -0.035993394 -0.014579943
0.018847581 -0.011758397 0.11887453 0.0477674 0.0530644 -0.06854909 0.019463493 -0.0027037014
0.024531975 -0.050892536 0.013105745 0.02285733 -0.056839995 -0.02197602 0.031632725 -0.006871721
-0.07798211 0.057707023 0.021934418 0.0037552544 0.040796578 -0.038186554 0.027991552 0.12170775
0.020801093 -0.07369725 -0.02786472 0.05551641 0.026855893 -0.05225771 -0.090584435 0.040942352
-0.16789936 0.029577538 -0.03954114 0.031481776 -0.5604823 -0.094088234 -0.0961329 -0.017389746
-0.042317588 -0.19911768 -0.010071768 1.1026838 -0.077730075 0.07641431 -0.05904422 -0.13200036
-0.054428045 -0.11171422 0.03670711 0.05691463 -1.1015488 0.062018525 0.016465917 0.013768784
0.025585175 0.054253925 -0.11203988 -0.08056977 0.026481051 0.108671114 -0.05786081 0.047963813
-0.053781763 0.024249246 0.036618285 -0.07450144 -0.05522621 0.025698418 -0.08987353 0.11230212
-0.074162714 -0.11023587 0.005442174 -0.0041739373 -0.06554153 -0.068000354 -0.021077093 -0.04994812
0.029996648 -0.16117558 -0.089497715 -0.06442178 -0.01642184 -0.008701349 -0.033298783 0.036377944
0.014681653 0.00064723415 -0.07933609 -0.05284215 0.015257209 0.03406796 -0.1009003 0.117593825
00000000: 85e0 57bc 503e bb3b 8001 a4bd f6c7 24be
00000010: 27bf fa3d 9294 f93d 3e6c 743d fb6e 18bf
00000020: c8d3 4dbc f66d 873c b9ae e8bd 9e60 17be
00000030: 5863 a0bd 2fb7 09be 011a a4bd 32e3 c23c
00000040: cbd6 593c 8526 5d3e 2981 aabc 04f7 11bd
00000050: 00ef 983c 2935 133d df58 e6bd f1fa 4c3d
00000060: 3c7f c3bb d92a 68bb b708 fcbd 869c bfb8
00000070: 4532 ee3d f99e 383c f70a 6cbc 3d25 ec3d
00000080: 8d52 403d 37d9 d33d 4e12 5bbd 4923 c23a
00000090: b73b 65be 416e 883d 9164 a23d e6c1 58bd
000000a0: 1f2c 793d 3cfe 783d 16cf 60bd 1f61 dc3d
000000b0: ac9d 3ebd 41af dbbc 5cb6 883d 98a5 0dbe
000000c0: 082a 963d 806e 62bd ad7d b33a e10f f33d
000000d0: e385 24be 592f 043c 1991 c1bd 3091 e03a
000000e0: eb7d 8e3d 0162 e63d f8d2 65bd 10c7 e5bd
000000f0: c6bf 833d b0d8 92bd d243 e33d b0a8 64bd
00000100: a66d b7bd 108f 0d3e 5a2f 213e 2177 cb3d
00000110: f349 8fbf 766e d4bd 1d3e 023e 6d1b a63b
00000120: c379 1c3b 5e13 16be 0d00 dc3d 2d74 35bf
00000130: 2e77 393e 1f95 13be 519c 473e d261 d63e
00000140: 0958 313d ae9a ab3d 1821 6d3c 82d6 953d
00000150: 648f 42c0 a3dc 8a3d a91c 68bd 0c0e dabc
00000160: 5e3f 543e babc 46bd 684d 933d bcc7 353b
00000170: d075 873d 004b c0bd 358e cb3d 9d8f 89bd
00000180: c875 00bd f904 b53d bf97 1abe ce27 49bd
00000190: 92c3 c33d 9545 d0bd 4fb8 e43d 1b9a 68bd
000001a0: 7d8c 8f3d fe18 a43d 5c6d 03bc 9b22 063e
000001b0: e87a 673d ffae 9cbd ed25 4fbe 861c a0bb
000001c0: b39d 383e 86cd 27bd eaf3 bb3d 6da3 013e
000001d0: f9ae a93d b71b 85bb 2735 1b3e 8983 07be
000001e0: d31b 04be ab25 813d 8da8 c3be 0671 cb3d
000001f0: 607a dfbc 1cb4 093e f500 a43d 651a 843c
00000200: 2a00 c1bd 8e40 b53c ea10 8e3d 7a5e 133d
00000210: dece d5bd b173 e1bd d93b 24be 0dab 193f
00000220: 7c5f 95bd d4fb be3c f5bd 743d 523c e13d
00000230: 1e23 10bd 44be 493d 8230 173e 8206 5fbc
00000240: dbbd be3d e30e 583e 33de cbbd abc1 5f3d
00000250: 36aa 93bc 52b5 763d 94a8 0fbd 6d31 ff3c
00000260: 0efd 62bd 2848 8b3d 5e45 993d 2797 48bd
00000270: 6655 cfbb c5ed 77bd cf6d 13bd b7e0 6ebc
00000280: 3e66 9a3c 4ba6 40bc 7d74 f33d c0a7 433d
00000290: 0e5a 593d 7763 8cbd e771 9f3c 9530 31bb
000002a0: 48f7 c83c b174 50bd 7bb9 563c 4c3f bb3c
000002b0: 0ed1 68bd 0e07 b4bc 5191 013d 2c2c e1bb
000002c0: 16b5 9fbd 335e 6c3d cfaf b33c b71a 763b
000002d0: 501a 273d 8169 1cbd 8a4e e53c ea41 f93d
000002e0: 0e67 aa3c 95ee 96bd 8e44 e4bc 2d65 633d
000002f0: e400 dc3c 2e0c 56bd 5584 b9bd 2bb3 273d
00000300: cfed 2bbe 984c f23c e4f5 21bd 09f3 003d
00000310: c57b 0fbf 55b1 c0bd 53e1 c4bd f174 8ebc
00000320: 3555 2dbd 81e5 4bbe 0f04 25bc be24 8d3f
00000330: f230 9fbd 1b7f 9c3d 5ad8 71bd 1a2b 07be
00000340: f1ef 5ebd 6dca e4bd 325a 163d 511f 693d
00000350: 8dff 8cbf 2307 7e3d 88e3 863c 7796 613c
00000360: 0098 d13c 5d39 5e3d 2a75 e5bd c301 a5bd
00000370: caee d83c f68e de3d 75ff 6cbd b475 443d
00000380: 444a 5cbd 5ba6 c63c 0efd 153d 3694 98bd
00000390: e134 62bd 7d85 d23c 9d0f b8bd a7fe e53d
000003a0: 9fe2 97bd 58c3 e1bd 4454 b23b 86c5 88bb
000003b0: a33a 86bd c543 8bbd dea9 acbc 6696 4cbd
000003c0: 88bb f53c 360b 25be 944a b7bd 91ef 83bd
000003d0: 1887 86bc 1a90 0ebc 4e64 08bd 0a01 153d
000003e0: 518b 703c 26ab 293a f67a a2bd 0371 58bd
000003f0: 5ff9 793c d88a 0b3d d1a4 cebd 08d5 f03d

VAE.encoder_mu.layers.1.linear1.bias f4 [4]
0.10174759 -0.048191357 -0.08494254 0.028092522
00000000: 0a61 d03d 4d64 45bd 5bf6 adbd 4a22 e63c

VAE.encoder_mu.layers.1.norm1.weight f4 [4]
1.0700876 1.0942756 1.2277739 1.0288785
00000000: a1f8 883f 3911 8c3f b227 9d3f 4ab2 833f

VAE.encoder_mu.layers.1.norm1.bias f4 [4]
-0.030468427 -0.070640035 0.03939048 0.042938866
00000000: ec98 f9bc b9ab 90bd e957 213d aae0 2f3d

VAE.encoder_mu.layers.1.norm0.weight f4 [4]
0.86927426 0.77298856 0.7335208 0.8165698
00000000: c288 5e3f 94e2 453f 05c8 3b3f b80a 513f

VAE.encoder_mu.layers.1.norm0.bias f4 [4]
-0.001620133 -0.010281889 0.038461164 0.046216544
00000000: a55a d4ba 5e75 28bc 7489 1d3d 8f4d 3d3d

VAE.encoder_mu.last_normalization.weight f4 [4]
1.0 1.0 1.0 1.0
00000000: 0000 803f 0000 803f 0000 803f 0000 803f

VAE.encoder_mu.last_normalization.bias f4 [4]
0.0 0.0 0.0 0.0
00000000: 0000 0000 0000 0000 0000 0000 0000 0000

VAE.encoder_mu.head.weight f4 [4, 4]
-0.29510856 0.46265888 -0.4385606 -0.3758132 -0.0533005 0.4779148 0.073263764 0.3187527
-0.12583518 0.24203652 0.24156201 -0.03669393 0.046980917 -0.012131333 -0.13187695 0.17824495
00000000: 7818 97be a0e1 ec3e 048b e0be 966a c0be
00000010: a051 5abd 40b1 f43e 500b 963d 8e33 a33e
00000020: f0da 00be 6cd8 773e 085c 773e 604c 16bd
00000030: 106f 403d 80c2 46bc c00a 07be d885 363e

VAE.encoder_mu.head.bias f4 [4]
0.1917578 -0.038775444 0.24181402 -0.46695828
00000000: 285c 443e 00d3 1ebd 189e 773e 2815 efbe

VAE.encoder_logvar.layers.0.attention.W_q.weight f4 [4, 4]
-0.06351716 0.12816569 0.37568456 -0.075750224 0.345379 0.5364531 0.00626361 0.59575236
-0.3636116 0.4167143 -0.28332508 0.4658353 -0.4491657 -0.9611565 -0.19059491 -0.8122524
00000000: 4915 82bd de3d 033e ba59 c03e ef22 9bbd
00000010: 84d5 b03e fe54 093f f83e cd3b 3a83 183f
00000020: 4d2b babe 945b d53e fc0f 91be f781 ee3e
00000030: 0cf9 e5be 5a0e 76bf 502b 43be c6ef 4fbf

VAE.encoder_logvar.layers.0.attention.W_q.bias f4 [4]
-0.05011184 -0.036670435 0.018932655 -0.022728551
00000000: 1342 4dbd bd33 16bd a818 9b3c 3a31 babc

VAE.encoder_logvar.layers.0.attention.W_k.weight f4 [4, 4]
0.1852864 -0.38949758 0.38405725 -0.31073254 0.26434767 0.39990765 0.5932727 0.08039828
0.13671784 0.36134622 0.075129904 0.059407257 -0.3224681 -0.6837752 -0.31556475 0.105180055
00000000: b8bb 3d3e 3a6c c7be 27a3 c43e 5618 9fbe
00000010: 9458 873e b2c0 cc3e b8e0 173f daa7 a43d
00000020: c3ff 0b3e 5f02 b93e b5dd 993d 0655 733d
00000030: 8a1a a5be e40b 2fbf b491 a1be a468 d73d

VAE.encoder_logvar.layers.0.attention.W_k.bias f4 [4]
0.00016456927 3.315408e-05 -0.00025951338 3.556861e-05
00000000: 3a90 2c39 ec0e 0b38 4c0f 88b9 812f 1538

VAE.encoder_logvar.layers.0.attention.W_v.weight f4 [4, 4]
0.19706221 -0.20865637 0.02883118 0.020836184 0.20726381 -0.22201827 0.036583934 0.01669024
0.20424594 -0.17701933 0.084505886 0.022603352 0.21421532 -0.18707192 0.0513964 0.00630535
00000000: adca 493e 04aa 55be 5e2f ec3c a5b0 aa3c
00000010: f73c 543e c258 63be 09d9 153d f8b9 883c
00000020: d925 513e 8e44 35be 6c11 ad3d aa2a b93c
00000030: 435b 5b3e c88f 3fbe 0885 523d 1c9d ce3b

VAE.encoder_logvar.layers.0.attention.W_v.bias f4 [4]
0.025959495 -0.09828705 -0.04260067 0.17991924
00000000: 02a9 d43c b94a c9bd 0a7e 2ebd c03c 383e
