tabsyn/vae/ckpt/adult_true/encoder.pt (torch, 23856 bytes, 33 tensors)

Tokenizer.weight f4 [7, 4]
00000000: c660 703e 1063 b23e d76d fe3e b680 e83d
00000010: 618d 92be 338a fabd ab26 333e c810 b23d
00000020: a0bd 3c3e afd0 9f3c bcff b93e 32a6 c6be
00000030: 69a4 423e ce88 d13e 3507 2f3e 7447 9d3d
00000040: 3610 053d ebee 85be 503a a3be e183 adbe
00000050: fc39 0abe ed69 ae3e 91d4 b33e 94d5 963e
00000060: 1075 6f3e a4df 793e 76ad 773d 9bb6 a8bd
0.23474416 0.34841204 0.49693176 0.11352675 -0.2862349 -0.12233391 0.1749522 0.08694607
0.18431711 0.019508688 0.36327922 -0.38798672 0.1900803 0.40924686 0.17092593 0.07679644
0.032486163 -0.26158842 -0.31880426 -0.33889678 -0.13498682 0.3406519 0.35123113 0.29459822
0.233845 0.24401718 0.06046816 -0.08237954

Tokenizer.bias f4 [15, 4]
00000000: 9b3e fc3e 527f 15bf 34de b23e ccb6 74be
00000010: 0213 953c f1fc 57bf 7ad3 04be 80be bbbe
00000020: 96c6 e9be fb1e 403d b568 513f cb52 2abf
00000030: 5c68 cb3e 69f9 a33d 3a95 d0be 14f7 073c
00000040: ac48 acba 1f3c ad3e c67f b33d 452a a33e
00000050: e704 d33e fffd 7abe f4c2 d4be 677e 713b
00000060: e416 24bd e277 f33e 5439 80be 30c7 a4be
00000070: f5da a13e 497d ba3e 8374 94be c3dd d5bd
00000080: 8c83 0f3e 745b 13be bf6a 75be 7bbb 92be
00000090: 3cd3 62be 4c5e 85be e529 80be 5cab bdbe
000000a0: 0c81 2e3e 5016 543e 37ca 0a3b 684f 42be
000000b0: a1cc 31be 26f1 583e 5b0d d7be 36cf 333c
000000c0: 4231 103d d4fc c03e eaf6 413e 235d 41be
000000d0: 363a 65be 9c12 663e 553e 0abf 3a67 48bd
000000e0: dba2 bd3c 1f49 143e 689e 11be 527e f6be
0.49266514 -0.583974 0.34935153 -0.23897856 0.01819754 -0.8437033 -0.12971297 -0.36668777
-0.45659322 0.046904545 0.81800395 -0.6653258 0.39728057 0.080065556 -0.4073885 0.008298654
-0.0013144217 0.3383493 0.08764605 0.31868187 0.41214678 -0.24510954 -0.41554987 0.0036849023
-0.040060893 0.475524 -0.25043738 -0.32183218 0.31612363 0.3642371 -0.2899514 -0.10442688
0.14015025 -0.14390355 -0.23966502 -0.2865866 -0.22150892 -0.26048505 -0.25031963 -0.370448
0.17041415 0.20711637 0.0021177658 -0.18975604 -0.17363216 0.21185741 -0.42002377 0.010974696
0.035203226 0.37692893 0.18941846 -0.18883185 -0.22385487 0.22468036 -0.5400136 -0.04892657
0.023148945 0.14481018 -0.14220583 -0.4814325

Tokenizer.category_embeddings.weight f4 [104, 4]
00000000: 5167 d83d e6dc dcbe e2cb 84be 59da 853e
00000010: c673 c8be 7ebd 50be 31b3 813e f760 b7bd
00000020: 8110 0dbe e44b a53e 6920 653d 05d8 603e
00000030: 618f 303e 208f c8be 9fa3 9d3e 17af 363e
00000040: 6fec 8a3e e91c 213e 515a 41be 7ab2 9dbe
00000050: bf8e 033e 1924 bcbe 6264 923e caf3 eabd
00000060: 48df 83be d54e f8be 1b9f 173f eb1c abbc
00000070: ad1f 0fbf d77d b6be 5a1c 2f3f a70b 96bd
00000080: d680 dfbe a1b6 993e 5007 b53e 49ca 9ebe
00000090: 4ccb 4fbe 5551 7cbe 4339 c9be 4e94 0b3f
000000a0: 5013 3cbe cb20 95be e319 5d3f 1994 54bf
000000b0: e73b bfbe 26cc 7abe eb89 ee3e 35ef 1fbf
000000c0: 5e06 6cbe 2b39 3d3f ae5e 8b3c 2f44 39bf
000000d0: 575b 763f 9fb8 b8bc 2cc9 d93d 7cb7 30bf
000000e0: 7ed9 05be e99b 9e3e bc2d 503f 68d5 40bf
000000f0: 54d8 92be 9a29 5c3e f0c9 8c3e 01a4 2b3f
00000100: bbd7 78be c00b eb3c f729 823e e092 6b3e
00000110: e99e 863e ffea 133f 241b 8d3e b291 babe
00000120: db0c 0b3f 7573 793e 420b 65bf 7215 0fbf
00000130: 0afc de3c b294 a2be 89c4 64be 0f48 093e
00000140: a477 e4be 8680 be3c ab18 e03e 49bf dd3c
00000150: 5ca7 62bf dcc9 083f 7e0f 463e c622 c7be
00000160: 63c0 a2bd 7087 233f 1c82 41be e037 0d3e
00000170: a095 86be 9787 053f 181c bdbe 553c 663f
00000180: 3ad5 54bf 9ffe 3c3e 2972 4c3e 63eb d63d
00000190: 408d 623d e5f1 33be 835f 3a3c e66b 68be
000001a0: e8d1 a73e b908 67be d857 68bf 842b 573e
000001b0: 6e1c a8be 94c5 94bc fe94 993e 0437 42be
000001c0: a09a 963f 7bd9 0abd e3be b83c f44c 3bbf
000001d0: 19c2 de3d a7b6 543e a10c 25bf 5e4b 6b3e
000001e0: c00f 37bd 932f 073e 3b8d 223e 93f0 9fbe
000001f0: dd8e 8cbd 0101 58bd 5cff ae3d 0ca9 b93d
00000200: 424d f13b 5200 273f 1ceb 3f3e 4039 d03d
00000210: 3daa 193f 9d9a 2a3f df17 6cbe ccbd 10be
00000220: de77 3dbf 884d e3be 97cc 433e eb6f 12bf
00000230: a49c 8fbe 6d8c d0be ec7e 2b3f 615a 36bd
00000240: cf94 283f 0c8d a63d 415e 7e3e 3b48 993e
00000250: 2bd8 40bf f6d6 2fbd e23f 8b3e 847c 243e
00000260: 125a 0c3e 6f1d 20bf a915 f3be efed 043e
00000270: 22b5 0c3e 8860 86be 3efd a33e 9e06 d6be
00000280: 9723 ffbe 7bae 3f3d 5d15 aabe 9e51 1cbe
00000290: 5ef9 b03e 099a 393d 75f2 08bf 89c1 bbbd
000002a0: aa2f 443d 4a1a 44be 7082 db3e f7c8 443e
000002b0: fd37 01be 3e37 873e 80e2 6cbe 7c31 a93e
000002c0: 3ff8 e1bd d2e4 283e 2f6f 80be 874e 2a3f
000002d0: e88a 183f 64aa fbbd 65b9 d2bd 2e59 f0be
000002e0: 944a dbbd ff62 463f f619 bd3e e79c cbbe
000002f0: 1d3b eb3e ce5e 033f ece8 42be 6d63 52be
00000300: 6798 dd3e e2e6 5ebd 2f12 0ebf 4036 293f
00000310: aea0 a53e b108 c5be daf2 ecbe eca7 9cbe
00000320: d0ed b4bc 102a 8ebe 6076 f9be 4e7e b23e
00000330: d15c 8abd fd5d d1be 5de1 1b3f cfe3 8bbd
00000340: 8175 eb3e e47f d83e 56bc 1dbd beb7 25bf
00000350: 983f 48be 5cef a53e 39f5 143f 6663 f3be
00000360: 54cd 153d 02a9 833e cf57 1c3e f40f cbbd
00000370: 32eb e93d 6a1d 88be 78e1 bbbe c45f 323e
00000380: bd1a 2e3e 13be 7cbe 6334 62be c56e d73e
00000390: 734f debc 1d60 b23e 949a 49bd 79f7 353e
000003a0: 66ea aa3e 89f2 c9be 907f 4abe 06ac 1cbf
000003b0: 2700 253e 9ebf 9ebe fa15 f03e 4906 d63d
000003c0: c912 643e a2c9 293e 388c 9ebc 7485 8ebe
000003d0: b28f 2d3e 1b81 20bd e717 2dbe 71fa 193f
000003e0: c80d 72be ffdd cfbd 8358 41bd 5ace 373f
000003f0: 0de2 b73c fccb 4c3e e9da 92bd 160e 163f
0.10566581 -0.43137282 -0.259368 0.2614315 -0.39150828 -0.20384786 0.25332025 -0.089540415
-0.13775827 0.32284462 0.05593911 0.21957405 0.17242195 -0.39171696 0.30788895 0.17840229
0.2713351 0.15733685 -0.18882109 -0.3080023 0.12847422 -0.3674629 0.2859221 -0.1147228
-0.25756288 -0.48497644 0.5922715 -0.020887813 -0.5590771 -0.35642883 0.68402636 -0.07326441
-0.43652982 0.30022147 0.35357141 -0.31013706 -0.20292395 -0.246404 -0.393015 0.5452317
-0.18366742 -0.29126582 0.86367625 -0.8303848 -0.3735039 -0.24491939 0.46589598 -0.62474376
-0.23049304 0.73915356 0.01701292 -0.72369665 0.96233124 -0.022548972 0.106340736 -0.69029975
-0.13071248 0.30978325 0.81319785 -0.7532563 -0.2868067 0.21500245 0.27497816 0.67047125
-0.24301045 0.028692126 0.25422642 0.23005247 0.26293114 0.5778045 0.2755977 -0.36439282
0.5431649 0.2436045 -0.89470303 -0.558921 0.027219791 -0.3175407 -0.22340597 0.13406394
-0.4462253 0.023254644 0.4376882 0.027068751 -0.8853662 0.5343301 0.19341847 -0.38893718
-0.07946851 0.63878536 -0.18897289 0.13790846 -0.2628603 0.5216002 -0.36935496 0.8993581
-0.8313786 0.18456505 0.19965424 0.10494115 0.055310488 -0.17572744 0.011375311 -0.2269741
0.32777333 -0.22561921 -0.9075904 0.21012694 -0.3283419 -0.018160619 0.29996485 -0.189663
1.1765938 -0.03389881 0.02255196 -0.73164296 0.10876865 0.20772801 -0.64472395 0.22977969
-0.044692755 0.13201742 0.15874188 -0.3123823 -0.068631865 -0.052735332 0.085448 0.09065446
0.007363946 0.65234864 0.18742031 0.101671696 0.6002539 0.6664217 -0.23055981 -0.14134902
-0.7401103 -0.4439509 0.19121014 -0.57202023 -0.28049195 -0.40732136 0.6699054 -0.044519786
0.65852064 0.08132371 0.24840643 0.2993792 -0.75329846 -0.042929612 0.27197176 0.16063124
0.13706234 -0.6254491 -0.47477463 0.1298139 0.13740972 -0.26245522 0.32029146 -0.41801924
-0.4983184 0.046797257 -0.33219424 -0.1526551 0.34565252 0.045312915 -0.5349496 -0.09167773
0.04789702 -0.19150653 0.42872953 0.19217287 -0.12619014 0.26409334 -0.23133278 0.33045566
-0.11033677 0.16493538 -0.25084826 0.66526073 0.59586954 -0.12288359 -0.102892675 -0.4694304
-0.10707584 0.77494806 0.3693387 -0.39768144 0.45943537 0.51316535 -0.19034165 -0.2054574
0.43280336 -0.054419406 -0.55496496 0.66098404 0.3234915 -0.38483194 -0.4627903 -0.30596864
-0.022086054 -0.27766466 -0.48723125 0.34861988 -0.067559846 -0.4089202 0.6089075 -0.068305604
0.45988086 0.42285073 -0.03850969 -0.64733493 -0.19555509 0.3240918 0.5818668 -0.47536772
0.03657277 0.2571488 0.15267871 -0.09915152 0.11421813 -0.2658494 -0.36695457 0.17419344
0.17002387 -0.24681883 -0.22090296 0.42076698 -0.027137494 0.34838954 -0.049219683 0.17770185
0.33381957 -0.39442852 -0.19775224 -0.61199987 0.1611334 -0.31005567 0.46891767 0.104504175
0.22272791 0.16580823 -0.01935397 -0.27836192 0.16949347 -0.039185625 -0.1690365 0.6014777
-0.2363807 -0.10149764 -0.047203552 0.7179924 0.022446657 0.19999689 -0.0717066 0.58615243

VAE_Encoder.layers.0.attention.W_q.weight f4 [4, 4]
00000000: ad04 b6be d483 dbbc 28e9 7d3e 4c31 98be
00000010: 4e10 073c b51f 13be a846 11be 91b1 93be
00000020: 7758 b2be 41ee d9be a55c cd3e 700e 22be
00000030: 4bb4 97be 0ebd c0bd d4a8 a43e a27b 89be
-0.35550442 -0.026796259 0.24795973 -0.2972511 0.008243633 -0.14367564 -0.1418711 -0.2884641
-0.34833118 -0.42564586 0.40109745 -0.1582582 -0.2962974 -0.09411059 0.32160056 -0.26852137

VAE_Encoder.layers.0.attention.W_q.bias f4 [4]
00000000: 79bf 523c 7d5c ffbd cf88 08be d3af 2abe
0.012863033 -0.124688126 -0.13333438 -0.16668634

VAE_Encoder.layers.0.attention.W_k.weight f4 [4, 4]
00000000: e996 ab3e 219b 893e e869 c9bd a830 b0be
00000010: 3f3e 313e 8737 313e 2d14 bf3e 42ce bf3d
00000020: f852 6ebe b765 7a3e 6b78 fbbe d1c5 683d
00000030: 8dcd 95be 2352 663d 387e 483e 04d1 333e
0.33513573 0.26876166 -0.09834653 -0.34412122 0.17308901 0.17306338 0.3732008 0.093655124
-0.23273838 0.24452864 -0.4911531 0.056829277 -0.29258385 0.056230675 0.19579399 0.17560202

VAE_Encoder.layers.0.attention.W_k.bias f4 [4]
00000000: 9104 5739 dd14 6cbb c1f7 06bb 7cb3 14b9
0.00020505699 -0.0036023178 -0.002059445 -0.00014181243

VAE_Encoder.layers.0.attention.W_v.weight f4 [4, 4]
00000000: 0bf7 3f3e 6019 2a3e 505e 0bbd f0d3 363d
00000010: 3ce1 383e dc77 263e 5ec4 0fbd a79a 273d
00000020: 0c38 513e ab0a 333e 5469 13bd e9bd 3f3d
00000030: e047 393e 24f1 2f3e 1fcf 1fbd 64bf 1a3d
0.18746583 0.16611242 -0.03402549 0.044635713 0.1805467 0.1625666 -0.03509938 0.040918972
0.20431536 0.17484538 -0.03598912 0.04681197 0.18093824 0.17181832 -0.039015885 0.03778018

VAE_Encoder.layers.0.attention.W_v.bias f4 [4]
00000000: d5a5 4d3d c427 2cbd c7a3 493b de73 61bd
0.050206978 -0.04203011 0.0030767785 -0.05504214

VAE_Encoder.layers.0.linear0.weight f4 [128, 4]
00000000: a578 ae3e 0a0b febe 8ac9 083d 7788 87bd
00000010: 0f9e 823d 6d8a 9cbe 9ac6 1a3e 0f48 983d
00000020: 2f20 d3bc b8e9 cebe 5b48 d8be 3229 f33e
00000030: 2691 4ebe 1629 2b3e cb81 92be fac0 853e
00000040: fabe 993e 76e0 88bd 7091 e9be b38d eebd
00000050: 967c d63e 822c e63d 4c50 6c3e f8f5 a83e
00000060: 78f5 453e 5f40 42be 4a9c e6be ccd0 b1be
00000070: 3f5d d13e ab99 bdbd 4f6d 28be d437 f0be
00000080: 311a 17be 9808 b6bd 0509 8eba 1c01 953e
00000090: 2947 053f 12eb b6bd fbef bc3e e2ed 45bd
000000a0: 9921 47be 23aa 963e 341b ff3d 88e7 ea3e
000000b0: 01ba 223e f997 abbc 535a ccbe b335 e2bd
000000c0: 38e6 0a3e 59a5 cebe f8c2 6cbe 8229 adbd
000000d0: 15c9 b5be 09ae b13e 7d1c febd 257e 03be
000000e0: 49f4 1c3e 5e8d 6a3e 8037 75be a757 ea3e
000000f0: eede a53e ba77 b7be 11a4 6dbe 20ac c2bd
00000100: d088 98be 482b dcbd 8825 cdbd fdd4 94be
00000110: 424b 03bf 2722 f93e 2619 de3d 14e4 d4be
00000120: 5b03 b93e ab1d ff3e 53f1 993e b08d b5be
00000130: 7c47 e4be cf0d a8be 87b6 36be bf40 bb3e
00000140: b661 51bd 5eee a13e 9724 8f3e 554d ea3e
00000150: ecce 1dbe 1470 16bf c853 c33e f57b 973e
00000160: 35f3 e63e 2356 19be a49f ec3a ed08 74be
00000170: d477 873d 39d0 e13b 1b61 a63d bce4 aa3e
00000180: 37c8 ad3e 2b9c f1bd 3db6 f9bd a63c 05be
00000190: a29e 9abe 8cc2 093f ddf0 90be 03e6 13bf
000001a0: fa83 e3be 69d4 d83d 0b8d 29be 55c8 debd
000001b0: 8579 103e 0af0 7bbc 9cbb f33e 85e5 aebe
000001c0: 4a61 ad3e 5095 633e 1499 a0be 88d1 86be
000001d0: bca8 d83e 54dd fbbe 706d 81be 86ab 843e
000001e0: 68bd 08be 5f05 a8bb b610 fb3d 7acd ca3e
000001f0: 49ec d83e 806b 783e 04bf 77bd fc39 cdbe
00000200: 7d02 81bd bada cf3e e348 f43e c033 3d3e
00000210: 3e64 ecbe 795d bb3e c2bd d43e da27 303f
00000220: 8d73 243d b5f9 dfbe 6b7b 573e 38c2 f8bd
00000230: 8b06 59bc 24e1 07be 30a8 61b9 2126 953e
00000240: 4a44 c2be 05fc df3e 82ce 903c 6aa9 bfbe
00000250: 9322 5a3d fa55 a43e 80aa 99be 223d 83be
00000260: d5f5 e1be b852 f43d 7d6b e6bd a541 e3be
00000270: a3e4 6b3d 8a1a 01bf acf6 f33e 188c e3be
00000280: 70e7 003f ae8e a1be 9eb7 8e3e f443 5c3e
00000290: 3b62 ad3e bd39 b53e bc7f 513e b760 f2be
000002a0: e6eb c63a aef6 96be 2784 00bf c6df c5be
000002b0: 18bf c8bd 0e86 283f 24fc e23d 050e 99be
000002c0: a011 b93e 6a82 a73e d1db 823d 8084 41be
000002d0: cf95 bc3e 764a c2be c899 99bd 8bcf 98be
000002e0: 23ff 9abc 16e4 923e f7a3 a1be 43d3 733e
000002f0: a821 6ebd 6c38 e63e 43b1 5fbe 9b0b d1bd
00000300: df23 1b3b cb51 acbe 8bc5 23be 2012 753e
00000310: d2d9 e63e c25d e7be c79b bcbe a27f c7bc
00000320: 4089 ec3e e48e 9f3e f3c9 40be c1bf 073e
00000330: a94e 6a3e 526e 01bf b6e4 df3e 4325 d63c
00000340: 7bcf e33e c6ff 263e 74e2 013f e1d5 33be
00000350: ccbc da3e 5aa2 0abf 515c d93e 5a76 19be
00000360: 635a 32bd fac6 b7be f249 eabd 549a 603d
00000370: 3b15 afbe 9612 963e 4b33 e93d 7332 e63e
00000380: e457 003f 3af9 083e 8d9a d7bc b8b2 43be
00000390: c784 a4bd 27b0 c93e 4ee4 343c 7410 e33e
000003a0: cb72 e73e 7158 12bd 1fa3 eebe 04f6 95be
000003b0: 8e67 df3e 97b1 d2be bbe9 c4be 09c0 82be
000003c0: 5c45 843e 597f 133d 97fc ac3e 35c0 81be
000003d0: be8c e23e ff63 043f 40f9 60be d810 03bf
000003e0: 62da 9a3c fbe6 88be 99bb a73e 504c c0be
000003f0: 0b1b 1ebe 475b 3c3c f830 6d3e 2e64 e9be
0.3407642 -0.49617797 0.033395328 -0.066178255 0.063778035 -0.3057436 0.15114823 0.07435619
-0.025772182 -0.40412688 -0.42242703 0.47492367 -0.20172557 0.16714892 -0.2861465 0.26123792
0.30028516 -0.066834375 -0.45618773 -0.11648121 0.41891927 0.11238958 0.23077506 0.3300016
0.1933192 -0.18969868 -0.45041114 -0.34729612 0.40891454 -0.092578255 -0.16447948 -0.46917593
-0.14756085 -0.08888358 -0.0010836428 0.2910241 0.52061707 -0.08931555 0.3690184 -0.048322566
-0.1944641 0.2942668 0.124563605 0.4587977 0.15891267 -0.02094649 -0.39912662 -0.110453986
0.13564384 -0.40360525 -0.2312125 -0.084551826 -0.35504976 0.3470309 -0.124077775 -0.12841089
0.15327562 0.2290549 -0.23946953 0.45769998 0.32396644 -0.35833532 -0.23207118 -0.095054865
-0.2979188 -0.10750443 -0.10016924 -0.29068747 -0.5128671 0.4865887 0.108446404 -0.4158026
0.36135373 0.49827322 0.30066928 -0.3545966 -0.44585788 -0.32823035 -0.17843066 0.36572835
-0.051118575 0.31627172 0.27957603 0.45762125 -0.15410966 -0.5876477 0.38149858 0.2958676
0.45107427 -0.14974265 0.0018052948 -0.2383153 0.06614652 0.006891277 0.0812399 0.33377635
0.33941814 -0.11797365 -0.12192962 -0.13011417 -0.30199152 0.5381248 -0.28308764 -0.57772845
-0.44436628 0.10587389 -0.1655771 -0.10878054 0.14108856 -0.015377054 0.47604072 -0.34159485
0.33863288 0.22224927 -0.3136679 -0.26331735 0.42316234 -0.49192297 -0.25278807 0.25912112
-0.13353503 -0.0051275934 0.12259047 0.3960989 0.4236777 0.24259758 -0.0604849 -0.400833
-0.06299303 0.40596563 0.47711858 0.18476772 -0.4617023 0.3659475 0.41551024 0.6881081
0.04014926 -0.437452 0.21043174 -0.12146419 -0.013246189 -0.13269478 -0.00021520327 0.29130653
-0.37942725 0.43746963 0.017676596 -0.3743394 0.05325563 0.32096845 -0.30012894 -0.25632578
-0.44132867 0.1192984 -0.112509705 -0.4438602 0.05759109 -0.5043112 0.47649133 -0.4444282
0.50353146 -0.31554168 0.27874464 0.21510297 0.33864006 0.35395613 0.20458883 -0.47339413
0.0015176504 -0.29485077 -0.5020165 -0.38647288 -0.09802073 0.6582955 0.11083248 -0.2989351
0.3614626 0.32716686 0.06389583 -0.18898201 0.36833045 -0.37947434 -0.075000346 -0.29845843
-0.018920487 0.2868964 -0.31570408 0.23811059 -0.058137566 0.4496492 -0.21844964 -0.10207292
0.0023672504 -0.33656153 -0.15993325 0.23932695 0.4508806 -0.4518872 -0.368376 -0.024352852
0.46198463 0.31163704 -0.18827038 0.13256742 0.22881569 -0.5055896 0.4372918 0.026140815
0.44494233 0.16308507 0.50736165 -0.17562057 0.42722166 -0.5415398 0.42453244 -0.14986554
-0.04354323 -0.35893995 -0.11439885 0.05483468 -0.34195885 0.29311055 0.113867365 0.44960365
0.5013411 0.13376322 -0.026318813 -0.19111145 -0.08033138 0.39392206 0.01104076 0.4434849
0.45204768 -0.035728876 -0.46608827 -0.29289258 0.43633693 -0.41151115 -0.38459572 -0.25537136
0.25834167 0.03601012 0.3378646 -0.25341955 0.44248003 0.5171508 -0.21970081 -0.51197577
0.018902961 -0.26738724 0.32760313 -0.37558222 -0.15440004 0.011496372 0.23163211 -0.45584244

VAE_Encoder.layers.0.linear0.bias f4 [128]
00000000: e962 d13e a9da b23d d4a2 963e a9a5 b2be
00000010: c91a 433e 091c fd3e 0071 a93e c036 d13e
00000020: 8a56 9a3c e5c6 0a3e fd6b 283e 1666 e53e
00000030: e3f1 a6be 8a82 cd3e f6ae 383e 43b5 e9bd
00000040: 3b31 ccbe fcaf c23e c205 0ebd 3630 d7be
00000050: 8dbc 3dbc 7e92 acbe 0fae ba3e 7610 033f
00000060: 4b62 3e3c ab09 21bd 1fa0 93be 5bc2 d53c
00000070: be93 293e dad2 af3e b115 1cbc bd8f abbd
00000080: ea94 ad3e 2ca3 f5bc 71c1 a6be f9bc 72be
00000090: 1bd8 f53e dca6 303c 7ad2 7e3e 0aa0 9b3c
000000a0: a044 003e b157 34be 9317 d33d 8b27 40be
000000b0: 2987 88bd 8ef4 76be fde9 b9be 2e33 e23e
000000c0: 9bcc 7dbd 6a22 c43e 2b8b bf3d d979 f63d
000000d0: 5dad a3be 3fea ed3e f86f 01bd 8c0c e0be
000000e0: d23d fa3e 1f35 c63e f7c1 1b3e 00a5 3dbd
000000f0: 3734 3c3e 8de4 77be e393 bfbd ea6b d63e
00000100: 0607 81be 96fc 48be 3934 493d a24c 583e
00000110: 4dbc 923e 5268 813d 89da ee3e 0548 a43e
00000120: 3f62 963e 8072 eb3e 08b0 61be 74b0 27bd
00000130: 9a82 cf3e e9d9 8fbb 74d2 88be b77c c4be
00000140: 6341 593c 7fbe bd3e 3c68 83bd d45b 67be
00000150: a9c7 d1bc fad3 04be 8105 393c 5eeb 3c3e
00000160: 0cfa 96be 3e35 bc3e dfd3 cabe 87d1 8b3e
00000170: f6d9 1ebe 510c 7bbe 0dc8 cbbe ce81 9e3e
00000180: 6be7 64be a6d5 d63e 7fbe 54bc da7b e7be
00000190: f48a 8a3e 33c6 bbbe a106 3dbe 1875 813e
000001a0: b72a 77bd 4c21 35be 7394 7abd c155 b53e
000001b0: 386e fabe e695 c2be 4d30 7d3d 5faa e8be
000001c0: 4c8d edbe 5676 f63e 2f98 093e d0bf 1a3c
000001d0: 556c 163e 8876 a63e e45b b9be 433c 0abf
000001e0: 566b 073e 2475 58be 9d57 71be dca1 b03e
000001f0: 2cd4 ae3e 1b8d ab3e f8c9 a03e 0e38 a1be
0.40895775 0.08733112 0.29421103 -0.34892014 0.19053186 0.49435452 0.33094025 0.40862083
0.018840093 0.13552435 0.16447444 0.44804448 -0.3260642 0.40138656 0.18035492 -0.11411526
-0.3988131 0.3802489 -0.03467346 -0.4202897 -0.011580599 -0.33705515 0.3646092 0.5119699
0.011620115 -0.03931586 -0.288331 0.026093652 0.16560265 0.34340554 -0.009526656 -0.08377025
0.33902675 -0.029985033 -0.3256946 -0.237049 0.48016438 0.01078197 0.24884978 0.018997211
0.12526178 -0.17611577 0.10307231 -0.18765084 -0.06666405 -0.24116728 -0.3631133 0.44179672
-0.061962705 0.38307506 0.09352716 0.12034959 -0.31968203 0.46467778 -0.031600922 -0.43759573
0.4887529 0.38712403 0.1521071 -0.046299934 0.18379293 -0.24208279 -0.09354379 0.41879207
-0.2520067 -0.19627604 0.04912207 0.21122983 0.28659287 0.06318726 0.46651104 0.32086197
0.2937183 0.45985794 -0.22039807 -0.040939763 0.4052933 -0.0043899906 -0.26723063 -0.383764
0.013260218 0.370594 -0.064163655 -0.22593623 -0.0256079 -0.12971488 0.011292816 0.1844916
-0.29487646 0.3675937 -0.3961477 0.27308294 -0.15512833 -0.24516417 -0.39801064 0.30958408
-0.22353904 0.41959876 -0.012984871 -0.4521168 0.27059138 -0.36674652 -0.1845956 0.25284648
-0.06034347 -0.17688483 -0.06117673 0.35416988 -0.48912215 -0.38004988 0.06181364 -0.45442483
-0.46396863 0.48137158 0.1343696 0.009445146 0.14689763 0.32512307 -0.3620292 -0.539982
0.13224539 -0.21138436 -0.23568578 0.3449849 0.3414625 0.33506092 0.3140409 -0.3148808

VAE_Encoder.layers.0.linear1.weight f4 [4, 128]
00000000: 32bc 97bd c996 99bd 6430 17bc 60c1 8c3d
00000010: 9183 983d b06f b7bc f34a fc3b 92ab 27bc
00000020: 3df0 babd 0429 99bd 9fe1 e3bb cd8d fd3c
00000030: 927a 073c b289 953d b24a 43bd c107 83bd
00000040: 54b8 5d3d 6996 513d 8dec 51bd 28b3 04bc
00000050: 1946 69bd 2c82 f23c 7822 bb3b 8a47 4bbd
00000060: 3424 423d 432c 5a3c 217f 48bd 8640 783d
00000070: a6b7 843d b445 8a3d 5712 b1bd c788 ac3d
00000080: 8bab c0bd 5d37 adbe 0315 5fbd 20ac d6bd
00000090: bf47 7dbd df48 15bc 186c 18bd 7285 ae3c
000000a0: c66c b0bd 881e 923d 38cd f83d e6a9 973c
000000b0: 4088 98bd bc4b c9bc 5f21 6b3c 98af a5bd
000000c0: 6cde 08be ec51 cd3d e2c3 ca3d 4f1a 143d
000000d0: 321e 30bd 4d93 8c3d 55d9 d5bb db66 b53d
000000e0: a59b 673d ee87 cfbd e036 5c3d 11e8 523d
000000f0: 222a 02bd e89f f53c a539 f33a bc25 91bd
00000100: 1fab d8b9 b003 fb38 b345 acbc 6477 923d
00000110: f5de 82bd f619 40bd 4ed7 b6bd dc5d a2bd
00000120: 0a90 6cbd 8771 f7bc 265b a43d a0d5 53bc
00000130: 5de8 473b 6a6e 003d 1b99 283d 3306 73bc
00000140: b405 b43d d55e d0bc a5c0 dcbd 36e1 8bbd
00000150: 2c95 7abc b8e6 b1bd 2854 fbbd da7c c3bd
00000160: 3e3d a63d d268 5bbb 9a5e 08be 9639 f83d
00000170: 4a1f 633d 7f64 2bbd 08c7 973c 31b3 823d
00000180: 1da4 0c3e bb42 783d ec22 fa3c 479e 77bd
00000190: ad23 2ebc 1a76 053e 3968 c23d 9eb9 d3bb
000001a0: 3ebe eb3d 5d43 98bc dc44 353d 684a a9bd
000001b0: 250f 303d 0aa3 8abc 31ac 15bd 192e 8ebd
000001c0: ee1c 273d a7b0 6bbc e28a b8bd 51db ff3c
000001d0: eebf c93c f6dd 273c 4531 dfbc fd22 6a3e
000001e0: 0970 023d c17e 03be b7ae dabd ec61 6cbd
000001f0: 9a6d 2dbc 1318 08bd 8a03 23bd f14c d83d
00000200: 5908 f6bc 0c3f acbd 01f2 b8bc 2bf2 0abc
00000210: 114a 523d e5d1 96bd eed9 3fba 9907 a1bd
00000220: 2a2f 70bd 4bb4 b93c 20d8 80bc 43fb ae3c
00000230: 50e4 993d f9ab d63d 6c6b c63d 2ae1 0fbc
00000240: f753 dbbd 329c 9a3d 74e3 33bd f847 d53d
00000250: 230f 213d 2535 1b3e a605 cdbd 9856 fe3c
00000260: 7acd bbbd 9e88 3d3e 9864 3f3c 247b d9bd
00000270: 0f61 a43d 0a3b 63bc 4c22 383d 6d4e 843c
00000280: 2714 e839 c993 983e c943 41bc ac69 4b3e
00000290: 6089 113c 84e6 9f3d f7f3 6a3d 7cab 85bd
000002a0: de42 e1bd 83cc 60bd 5bf1 84bd 5546 f63d
000002b0: e76d 5bbd f35f 3bbd 4212 b23d 7fc9 a03d
000002c0: 046e 603c 65b7 4bbd 6552 b7bd d491 373d
000002d0: 3854 46bd 74ab d6bd 996f 31bc 6d9e b8bb
000002e0: 2820 6a3d 4a86 b53c 2a85 36bb 43be 5abd
000002f0: 9602 3c3d 8e00 b23d 2107 04bc b161 803d
00000300: b380 4fbc dae2 f13b 3edf 0c3d 15be a93d
00000310: d718 793d 5e3f 94bd f3d1 293d c6de 92bc
00000320: 31e5 603d 39dc 78bd 28b3 65bd 0922 8e3c
00000330: 4174 a03d 91d9 ebbb 2acf b1bb 42ee e13c
00000340: 527f 813c 4453 ac3d efc5 7cbd faad 433d
00000350: 9ff8 25bd c042 09bd 2437 76bd 1396 b43d
00000360: 4be7 353e f2f8 893d b60d adbc 9140 313d
00000370: a9ca f93c db91 a9bc 613e d43d 5ea5 51bd
00000380: 7f9b 49bb 4c9a 63bd ce22 c6bc 42e6 063d
00000390: 4681 d9bd d18d 9a3d de45 16be e557 3f3d
000003a0: bf2e 95bd 4cd8 aa3d 8681 a4bd d187 e33d
000003b0: ea4b 1b3d 0bce 883c 4f7f 6d3d 7379 843d
000003c0: 796a b3bd ad35 8abd 6913 373d 2470 263e
000003d0: 6ef5 9d3d 807e debc 1ae6 b43d 2b5e 913c
000003e0: e358 2ebd 4ad0 9bbd 44b7 3a3d 1712 0b3d
000003f0: f715 2f3d 5dbf 683d 6911 6c3d dfbc 83bd
-0.07408942 -0.07499463 -0.009227846 0.06872821 0.07446969 -0.022392124 0.0076993643 -0.010233777
-0.09127853 -0.07478526 -0.0069543864 0.030951405 0.008268969 0.07301654 -0.047678657 -0.06397963
0.054130867 0.051168833 -0.051250983 -0.008099355 -0.056951616 0.029603086 0.005710896 -0.04962877
0.047397807 0.013316217 -0.048949365 0.06060841 0.06480341 0.06751576 -0.08646076 0.08424526
-0.09407719 -0.338313 -0.054463398 -0.10482049 -0.061836 -0.009111612 -0.03721246 0.021303866
-0.08614497 0.071347296 0.12148517 0.018513631 -0.074478626 -0.024572246 0.014351218 -0.080901325
-0.13366097 0.10025391 0.09900643 0.036157902 -0.042997546 0.06864033 -0.006526152 0.08857509
0.05654492 -0.101333484 0.05376327 0.051490847 -0.031778462 0.029983476 0.0018556608 -0.070872754
-0.00041326226 0.000119692995 -0.021029329 0.07151678 -0.06390182 -0.04689976 -0.08927785 -0.079280585
-0.057754554 -0.030205501 0.08025198 -0.01292935 0.003050349 0.0313553 0.041161638 -0.014833021
0.0879015 -0.025435844 -0.107789315 -0.06830065 -0.015294354 -0.08686584 -0.12271911 -0.09545298
0.0811715 -0.0033479226 -0.13317338 0.12120359 0.05544976 -0.041843887 0.018527523 0.06381834
0.13734479 0.060610514 0.03053423 -0.06045368 -0.010628623 0.13033333 0.09492535 -0.0064613363
0.11510895 -0.018586809 0.044255123 -0.08266145 0.042983193 -0.016923446 -0.036541168 -0.06942386
0.040799074 -0.014385379 -0.09010865 0.031232508 0.024627652 0.010245791 -0.027245173 0.2286491
0.031845126 -0.12841322 -0.106778555 -0.057710573 -0.010585213 -0.033226084 -0.039798297 0.105615504
-0.030033277 -0.08410463 -0.022576334 -0.008480589 0.051340166 -0.07364253 -0.0007318546 -0.07862777
-0.05863873 0.022668978 -0.015728056 0.021360045 0.0751425 0.1048202 0.09688458 -0.008781711
-0.107093744 0.07549323 -0.043918088 0.104141176 0.039321076 0.15156992 -0.10010843 0.03104715
-0.09170051 0.18509147 0.011681698 -0.1061919 0.08026325 -0.0138690565 0.044954583 0.016150678
0.00044265503 0.2980025 -0.011795946 0.1986453 0.00888285 0.07807639 0.05736157 -0.06526849
-0.10999082 -0.054882538 -0.064913474 0.120251335 -0.053571608 -0.0457458 0.08694889 0.07850932
0.013698105 -0.049735446 -0.089512624 0.044816807 -0.04842016 -0.10481921 -0.01082983 -0.00563412
0.057159573 0.02215876 -0.0027850368 -0.053404104 0.045900904 0.08691512 -0.00805834 0.06268633
-0.012664962 0.007381779 0.034392588 0.082882084 0.060814705 -0.07238649 0.04145999 -0.017928492
0.054906074 -0.060756896 -0.05607906 0.017350214 0.07834674 -0.007197567 -0.005426307 0.02757943
0.015807781 0.08414319 -0.0617122 0.04777334 -0.040520307 -0.033510923 -0.06011118 0.08817687
0.17764013 0.06736936 -0.021124702 0.043274466 0.030492144 -0.020699432 0.1036346 -0.051183097
-0.003076285 -0.05556707 -0.024186518 0.032934435 -0.1062036 0.075465806 -0.1467509 0.046714682
-0.07284307 0.083420366 -0.08032517 0.11109889 0.037914194 0.016699811 0.05798274 0.06468477
-0.087605424 -0.06748519 0.044696245 0.16253716 0.077128276 -0.02715993 0.08832951 0.017745098
-0.042565238 -0.07608087 0.045584932 0.0339528 0.042745557 0.056823123 0.05763379 -0.06432509

VAE_Encoder.layers.0.linear1.bias f4 [4]
00000000: a3e9 983d a76d 743d 756e 723c b939 cc3d
0.07466438 0.059674885 0.014796843 0.09971947

VAE_Encoder.layers.0.norm1.weight f4 [4]
00000000: 362e 863f 3b41 8a3f 7311 763f e914 833f
1.0482852 1.0801157 0.96120375 1.0240756

VAE_Encoder.layers.0.norm1.bias f4 [4]
00000000: 00f0 e63d f4b1 a53c 3616 4fbd 63e7 b6bd
0.11276245 0.020226456 -0.05055829 -0.08930852

VAE_Encoder.layers.1.attention.W_q.weight f4 [4, 4]
00000000: 22f9 ae3d 5c8d c0be 39ed ebbd 7beb d6bd
00000010: 68b8 38be 3cb1 9bbe 452f 663e 9e68 e23e
00000020: 9e17 3b3e 17d3 bcbe d5bc 84be 3fa0 24be
00000030: 88da d6be 0a14 c8be 9afb 6dbd e079 2cbe
0.08543612 -0.3760785 -0.11519856 -0.10494133 -0.18039095 -0.30408657 0.2247897 0.44220442
0.18270728 -0.368798 -0.25925317 -0.16076754 -0.419636 -0.3907779 -0.058101274 -0.16843367

VAE_Encoder.layers.1.attention.W_q.bias f4 [4]
00000000: d1e6 2a3e e81f a83c fbe3 04be 63f8 2d3e
0.16689612 0.020523027 -0.12977593 0.16989283

VAE_Encoder.layers.1.attention.W_k.weight f4 [4, 4]
00000000: 9303 373d c98d f6be 6b6a fe3d 2601 393e
00000010: 1f4c 383e 0978 a83e 3670 15be a2a8 84be
00000020: 06b5 8abd 1200 cb3e 64fc da3e ebcc 283e
00000030: 543c 74bd 667f bbbe fca9 743d 42b1 1b3d
0.044681143 -0.48155048 0.12422641 0.18066844 0.17997788 0.3290408 -0.14593586 -0.25909907
-0.06772809 0.3964849 0.42770684 0.1648442 -0.059627846 -0.36620635 0.059732422 0.038010843

VAE_Encoder.layers.1.attention.W_k.bias f4 [4]
00000000: 4647 4638 ca2d c939 34f0 68b9 bbb9 3939
4.7273257e-05 0.00038371823 -0.00022214727 0.00017712165

VAE_Encoder.layers.1.attention.W_v.weight f4 [4, 4]
00000000: 5ebe 1bbe ce15 15bb 5b51 f2bd 256b 31bc
00000010: 91b0 5ebe 7a5b 00be 5378 46be 6465 c5bd
00000020: cdf6 03be 6cd7 373d 6385 c3bd 3770 b33c
00000030: 59cf 113e c4e2 c13e e382 463e e967 863e
-0.15209338 -0.0022748592 -0.118319236 -0.010828768 -0.21747042 -0.12534896 -0.19381838 -0.09638479
-0.12887116 0.044883177 -0.09546926 0.021904094 0.14239253 0.3786832 0.19385867 0.26251152

VAE_Encoder.layers.1.attention.W_v.bias f4 [4]
00000000: 8426 b13c 6483 47bd e9ac 953c cac0 b03a
0.021624811 -0.04870929 0.018270927 0.001348519

VAE_Encoder.layers.1.linear0.weight f4 [128, 4]
00000000: 9508 5abe 93f1 e5bc fe57 e2be 2dc9 c83e
00000010: 07c7 383d 0fa0 1abe b221 253e abee 63be
00000020: 90a8 b9bc 4f7b 963e 93a9 f03e 8c42 f43e
00000030: 1d0e af3c d662 b9be 065f 44be a0c4 073d
00000040: 34eb a33e d0c7 a9be a2d5 efbe a763 d03d
00000050: 2383 04bf c42e 03be 80fc 6a3e dc9b d63e
00000060: 0fbb bd3e 0d14 3f3e db94 ed3e ca86 1dbb
00000070: 4362 263e 8fba be3e 730d 723e 5913 0f3e
00000080: d9ce 7b3e 13d8 d4be 8974 76be 4ea0 17be
00000090: 33a5 ce3c 4b60 b23e db34 313d c7df 203e
000000a0: 5e2e 153e 601d c93e 0371 90be 7082 da3e
000000b0: cf5d fcbe 10af 073f c0e1 af3e eeb0 163e
000000c0: f50a e33e 1096 383d 585c 0e3f e13c 083f
000000d0: b540 debd 8b06 d03e 0fe9 e53d d0c9 f63e
000000e0: e8c2 a7bd 1cf0 1ebd e875 8a3c 9be8 aabe
000000f0: 3d0f f63e 19ed 75be eea8 56be 4f63 fdbe
00000100: 394f 3d3e 66d0 62be 29c8 04be d3f1 c23e
00000110: 8707 563e b0a0 883e f0c5 50be 79bf 22be
00000120: 7c7d 0a3f 0ff5 c13e b3ef 763e 7e3e 91be
00000130: 89d9 08bf 963d d1bd f61a 523e 2d86 92bd
00000140: 0109 20be d934 4c3e edd9 ab3e bbc0 6c3e
00000150: 61a5 c1be eced 34bd 50ac ffbe 95fc e6bc
00000160: f781 af3e 529f d53e ca69 f8bd f7a8 633d
00000170: 465e e03e 631f b53e 41c9 60be 3d65 dfbd
00000180: 00d7 4d3e 0e21 9c3e 3d71 bdbe cfbc 61be
00000190: 3f70 e13e 0f7a cfbd 9009 a03e a225 ee3d
000001a0: dc36 a6bd 5b29 8bbe 7b98 b23e 1e61 023f
000001b0: ee18 abbe d2c1 88be f1db e83d c641 4dbd
000001c0: d0c1 25bc 8bde 933e c208 963e 3911 84be
000001d0: 31c3 d4be 5767 58be 44d9 9c3e 81e1 e7be
000001e0: b1b1 a9be 0fdc ab3d d068 b73e f9c1 033c
000001f0: 40c3 e93e 7f49 8e3e 7e8e 9f3c 089d 9e3e
00000200: 9fa8 2d3e 9ff9 ce3e a3fa 983e 953e 213e
00000210: 9433 8dbe bacd cbbe b694 e5be 4b3c 66be
00000220: 2d48 adbe ece1 dcbe 1ad6 2a3d 1ea3 57be
00000230: 7f41 fc3e 8726 ccbd a6e0 7b3e a17c 8d3e
00000240: 9ae9 123f ee5c 1ebd 72b4 763e ff93 6abe
00000250: e741 c8be 432f 8dbc 5f9e db3d 6f30 c6be
00000260: 4779 803d b525 67be 5fb2 4bbe b0b7 b0be
00000270: f144 0b3d 61e7 53be f115 4abe 02a5 aa3e
00000280: 7e66 e9be 19ab 983d 0f13 20be 165b ad3e
00000290: a663 7d3e dc33 d0be 7523 833e bb4b b5be
000002a0: 1498 83bd 997f 5d3e 2277 b43e a687 7cbe
000002b0: 8cbe 23be 8075 813c 38a0 973d 78b8 8f3d
000002c0: 62b8 b9be 368e ee3e 9345 bf3e 009f f43e
000002d0: 7ae0 fabe ab88 8bbe 68f7 b7be 6740 b2bd
000002e0: 74e9 393e 379f f9bd e4c8 5f3e 581a 9bbe
000002f0: 35fb 40be 9347 fb3d 3e47 b33e 0b88 b8be
00000300: f7f8 ea3e dbd7 a03e 02db 883e 5e58 043f
00000310: ef43 8abd d155 bb3e bb0d 03bd 67db c03d
00000320: 50dd ccbd 20dd 233e 1031 a73d 12ad 743e
00000330: f5d9 b0bd 6c08 ef3e 819d a3be b2fa 98bd
00000340: f8dc ac3e 93b5 35be 1444 1bbe 9f17 21bf
00000350: 448d dcbd ab0a d23e d31b 473e 1bb7 0fbf
00000360: 7082 bbbc 2c22 dfbd 50b9 ddb9 a500 a23e
00000370: 0af9 34be 2bfa a03e f7b3 fdbe 9d15 65be
00000380: e1d9 60be fdb3 473e 7eb4 f73d 4dda 033f
00000390: 9694 ea3e 7271 b5bc f6b3 483e 414b fbbe
000003a0: 22df 7d3e 9c72 b43d 4fc9 d73e 4811 d3be
000003b0: 2a10 babe b065 40be 2bd1 74be d485 d7bc
000003c0: 6ec6 a23e 97d0 cfbe 8ef8 d1be 39fe 8e3e
000003d0: e29d 81be 2179 97be 8c6c bd3e 01cb b93e
000003e0: bd62 95be 4441 4a3e 0505 c93e 2652 f83e
000003f0: 0867 8fbd f4dd 95be 0a32 f93d 3d23 993e
-0.21292336 -0.028069293 -0.44207758 0.39215985 0.045111682 -0.1510012 0.16126135 -0.22259013
-0.022663385 0.29390952 0.47004375 0.4770702 0.021369034 -0.36208218 -0.19176874 0.0331465
0.32015383 -0.33160257 -0.46842676 0.10175257 -0.517626 -0.12810808 0.22947884 0.41915786
0.37056777 0.18659993 0.4640263 -0.002403664 0.16248421 0.37251708 0.23637943 0.13972224
0.24590625 -0.41571102 -0.24067892 -0.14807245 0.025225258 0.3483909 0.043263298 0.15710364
0.14568469 0.39280224 -0.2821122 0.4267764 -0.4929032 0.530015 0.3435192 0.14715931
0.44344297 0.045064986 0.55609655 0.53217894 -0.10852186 0.40629992 0.11226093 0.48200846
-0.08191472 -0.038803205 0.016901925 -0.3338059 0.480585 -0.24016227 -0.20962879 -0.4948983
0.18487252 -0.2214981 -0.1296698 0.38075122 0.20901309 0.26685095 -0.20388007 -0.15893354
0.54097724 0.37882277 0.24114875 -0.2836799 -0.5345693 -0.10216825 0.20518097 -0.07154498
-0.15628435 0.19942035 0.33564702 0.23120396 -0.37821487 -0.044172212 -0.49936152 -0.028196612
0.34278843 0.41723114 -0.12129553 0.05558106 0.43821925 0.3537551 -0.21951772 -0.109079815
0.20101547 0.3049397 -0.37000456 -0.22044681 0.4403095 -0.10130703 0.31257296 0.11628272
-0.08115932 -0.2717999 0.34881958 0.5092944 -0.33417457 -0.26710373 0.113700755 -0.050111555
-0.010117009 0.28880724 0.29303557 -0.2579439 -0.4155517 -0.21133171 0.3063451 -0.45289233
-0.3314338 0.08391582 0.35822153 0.008041852 0.45656776 0.27790448 0.019477125 0.3097918
0.16958855 0.4042482 0.2987872 0.1574653 -0.27578413 -0.39805394 -0.4484002 -0.22483937
-0.33844128 -0.43141115 0.04170809 -0.21058318 0.4926872 -0.09968286 0.24597415 0.27634147
0.573877 -0.038662843 0.24092272 -0.22908019 -0.3911278 -0.01723445 0.10723566 -0.38708827
0.06273132 -0.22572978 -0.19892262 -0.34515142 0.034001295 -0.20693733 -0.19734932 0.33329016
-0.45586008 0.07454509 -0.1563227 0.33858556 0.24745044 -0.40664566 0.2561299 -0.3540934
-0.06425491 0.21630706 0.3524714 -0.24661121 -0.15990657 0.015803099 0.07403606 0.070176065
-0.36273485 0.46592873 0.37357768 0.47777557 -0.48999387 -0.27252707 -0.35930943 -0.0870369
0.18155462 -0.12188571 0.21853977 -0.30293536 -0.18845828 0.12269511 0.3501529 -0.36041293
0.4589307 0.31414685 0.2672959 0.5169734 -0.067512386 0.3658891 -0.031995516 0.09416848
-0.100031495 0.16002321 0.08163655 0.23894146 -0.08635322 0.46686113 -0.31956103 -0.07469691
0.33762336 -0.17745046 -0.15162688 -0.6292667 -0.10769132 0.41023764 0.19444208 -0.5613877
-0.022889346 -0.1089519 -0.00042290473 0.31641117 -0.17673126 0.31440863 -0.49551365 -0.22371526
-0.21958114 0.19502254 0.12094973 0.51504976 0.45816487 -0.022148822 0.195999 -0.49080852
0.2479215 0.088109225 0.42145774 -0.41224122 -0.36340457 -0.1878879 -0.23907916 -0.026308931
0.31792015 -0.4058883 -0.41009945 0.27928331 -0.25315768 -0.29584602 0.36996877 0.36287692
-0.29176894 0.1975146 0.39261642 0.48500174 -0.070020735 -0.292709 0.12167747 0.29909697

VAE_Encoder.layers.1.linear0.bias f4 [128]
00000000: d5bc 04bf d285 b6be afc7 19bc 0d56 913e
00000010: eb63 933e e85b 93bd 8e46 84be 0815 bf3e
00000020: 6064 473e b36f d43d 9fbd 8c3e 95d9 a7be
00000030: da9b d4be d74e c03c f46a 023f f84a d1bc
00000040: 3847 64be 0892 753c c8e2 e6be 0473 863e
00000050: 795c e93d e8f4 42bd d1a2 d63b 93c7 a03e
00000060: 2f06 21bf 75a2 e2be 6341 cc3e 5814 d13e
00000070: 7d69 a8be c84a b03e e054 e03e b497 adbe
00000080: 9422 9ebd 0340 ebbe fbc0 563e 3e9f 9f3e
00000090: 7d23 9dbe 7dfc 07bf 7743 d7be b4d9 8a3d
000000a0: d93d 663e 4b79 bcbd 71cc 6d3e b208 e5be
000000b0: a1a0 5cbc 154d 1abe 8d96 78bb 430c 7bbe
000000c0: f27c 60bd b795 363e b14d ad3e 923f 8dbe
000000d0: cb95 3fbe 9083 c0be 6b07 883e e746 9c3e
000000e0: 28a8 8cbe 02d9 8fbe 2649 34be 55d8 b2be
000000f0: fa51 0abe 0e26 04bf e599 86be 6287 cdbe
00000100: bc3e 01bf efa9 843c c959 b93e 7663 7a3e
00000110: f686 cf3d b069 b43d 1fd2 abbe a13b d73e
00000120: f3c8 c43e a917 bdbc d267 ab3e 1a96 a63e
00000130: 3d56 13bf ab4c 85bc 0fd9 c23e a38f 40be
00000140: fac3 a83d cb08 a1bd c752 dbbe 6ee6 c63e
00000150: 3a5c e5bb 5523 663e b8e9 84bd 75ad 0dbd
00000160: 1d73 773d bf48 1ebe a48d 913e 881f cf3e
00000170: f81b 68be e52d 7bbe 24bf 11bc d239 103e
00000180: dfea acbe 9624 27be 2268 ddbe 94a3 e7be
00000190: dc9b 3d3e 69dc e23e 305d c73c e7dc 24bc
000001a0: 4b1f 55bc 3ac7 f3be 43ac 34bd fccc da3e
000001b0: e589 b33e edd3 0dbf 1b87 61be c843 a7be
000001c0: 77e9 003f 5f37 8bbe ef35 45be a417 6a3e
000001d0: 7714 7d3e 4611 dabe 64ce 70be a43e d53e
000001e0: e306 60be 788e 6cbe 9a20 cb3e c795 4e3e
000001f0: ce51 a9be ae88 2bbe a836 cfbd 8d8a d1bc
-0.51850635 -0.35648972 -0.009385987 0.28385964 0.2878717 -0.07195264 -0.2583508 0.37320733
0.19471884 0.103728674 0.2748842 -0.3278319 -0.41525155 0.023475094 0.5094445 -0.025548443
-0.22292793 0.01498843 -0.45094895 0.26259625 0.11394591 -0.047596842 0.006550171 0.31402263
-0.6290006 -0.4426457 0.39893636 0.40835834 -0.3289298 0.34432054 0.43814754 -0.33904803
-0.07721439 -0.45947275 0.20972054 0.3117618 -0.30691138 -0.5311964 -0.4204366 0.06779805
0.2248453 -0.09202822 0.2322252 -0.44733196 -0.013466031 -0.15068467 -0.0037931532 -0.24516396
-0.054806657 0.17830549 0.33848336 -0.27587563 -0.18709485 -0.37600374 0.2656816 0.30522844
-0.27472043 -0.2809525 -0.17606029 -0.34930673 -0.13507834 -0.51620567 -0.26289287 -0.4014235
-0.5048635 0.016194312 0.36201313 0.24452004 0.10133164 0.08809221 -0.33558747 0.4203768
0.38434562 -0.023082571 0.33477646 0.32536393 -0.57553464 -0.01627191 0.38056228 -0.18804793
0.082405046 -0.07863005 -0.42836592 0.3884768 -0.0069995197 0.22474416 -0.06489891 -0.03458925
0.060412515 -0.15457438 0.28428376 0.40453744 -0.22666919 -0.24529226 -0.008895669 0.14084557
-0.33772942 -0.1632255 -0.4324351 -0.45241988 0.18516487 0.44308785 0.024336427 -0.010062433
-0.013007949 -0.47612935 -0.044109594 0.42734516 0.35066143 -0.554015 -0.22024195 -0.326689
0.5035624 -0.27190682 -0.19258855 0.2286058 0.24714838 -0.42591304 -0.23516232 0.41649354
-0.21877627 -0.23101223 0.3967331 0.20174323 -0.33070225 -0.16751358 -0.10117847 -0.025578761

VAE_Encoder.layers.1.linear1.weight f4 [4, 128]
00000000: 116b bd3e d4db 8a3c d42a 6f3c 58e2 c83d
00000010: 5e9b 87bc 562b babc 6390 73bd 6e88 f5bc
00000020: f908 193c 9c85 b7bd f093 45bd b8a0 703c
00000030: 6771 2e3d 9180 f83c a78d 973d f14b ca3d
00000040: 1915 62bd f578 eb3d 7262 873e 90f0 40bd
00000050: 9b54 9abd 2cff 26bd db3c 603d bc6a 013e
00000060: 301c 233e bfd4 e13d 24ac a8bd df78 263d
00000070: ca1e 34bc 4ee0 463d 08da 833d a54a 90bd
00000080: 165a e5bd 5ef9 ab3d 7c94 a9bc dd8d 0c3c
00000090: c71e a33d f53e 9dbc ec01 9b3d 562b 47bd
000000a0: e77d 2b3d c06f 0f3e feee a4bd da5a 9e3d
000000b0: 30a7 b3bd aa8e 173d 9da9 dc3d f9c8 bebd
000000c0: 1847 96bd 04cf 46bd 785d d8bd c0dd 88bd
000000d0: 2f73 343e a91e 11be 40a2 a8bd f54a 1cbd
000000e0: 91ef da3c 17b8 6a3e 810d 7a3d ff8f 85bc
000000f0: 790f 9e3c 029d 1b3d 0c38 02bd 84e2 cebd
00000100: 09c4 d23c 4389 bd3c df05 c53c f793 3dbd
00000110: 86a9 d6bd 1c12 f0bd b509 c4bc 7f33 53bd
00000120: b2fd 533c 00eb 96bd c0d4 3fbc 0585 553c
00000130: 50b8 a8be ce15 96bd 2123 95bd 7702 e83e
00000140: 85c3 603d 6bd6 91bb 1c1c cfbc 2074 0fbd
00000150: ef6b 52bc 6395 29bd edaa 093e dffd a9ba
00000160: d2cc 6e3d 7952 4bbc 6a21 a6bd 9ba9 a93c
00000170: 5d27 853d 886d 06be c558 873e 644a a93d
00000180: bf6a 72bd 3bb1 8d3c 9d64 263d 3135 9dbd
00000190: daa4 053e 3c09 07bd 4324 e5bd af14 0dbe
000001a0: 94ae cbbd e080 ae3d 78f5 ba3c 03c3 5cbc
000001b0: 0477 433b ece7 a13d 2c47 0e3c e3c4 003e
000001c0: e710 0a3e a053 8d3e ab5c 423d 0122 e2bd
000001d0: d86d 223e 2781 d53d 3d91 3ebe 77e6 b3bc
000001e0: 657c 01be ba13 dbbd 4d37 733d 73fc f8bd
000001f0: 5411 ac3d 28c0 80bd a2cc 053e 0251 863b
00000200: 16cd a0be f62b efbd 30b1 d3bd 7881 10bc
00000210: 053c d2bb 0930 ccbc 0fb4 283d af62 babd
00000220: 49db 113d 2217 fbbc acce 46ba ea11 99bd
00000230: 9b98 b5bd f174 c8bd 8026 083b 6096 28bc
00000240: f307 41bb 14ef 5bbc a51e da3d b6f4 293c
00000250: 1fa5 edbc 7947 3dbd bc40 7dbd 08c1 bebc
00000260: 5175 903e 088e 83bd 8095 5f3d 01ae a03c
00000270: ed8c 8f3b d01a 453d 94bf e4bd 4234 18bd
00000280: ed05 123c 4d8b 11bd b8d4 9d3c 14a7 113d
00000290: 8047 54bd c8f4 74bb b30f 27bc a58e 3e3d
000002a0: 3b70 c8bd ae7f 853c 11a7 8a3d e097 65bd
000002b0: f752 d2bd 3a1d 83bd 21f9 46bd a7b9 81bd
000002c0: dde9 ed3d 993f 89bc 2cf4 dd3c 8882 babe
000002d0: c713 16bc 2fa8 563e 0c7b 92bd eee5 0fbd
000002e0: ddf7 003d ea15 9f3c 6005 cabc 6e2c 4ebd
000002f0: 16fc 7a3d 8fe4 04bd a445 423d e721 adbd
00000300: f58a a1bd 6cb1 27bd 9667 8f3d 4f27 213d
00000310: c915 c8bc 073c 4b3d d930 e9bc 7fac 503d
00000320: 97f9 c4bd 7767 f9bb 4fe7 453d a06e a3ba
00000330: c366 033e 2853 2f3c d86a 3c3d 2164 6fbd
00000340: abff cd3c a1f2 91bd 1c61 093e 48a1 1a3c
00000350: 0a28 343d 9ac1 f03c 2e59 c5bd ed64 013e
00000360: ae0f c23d 5e32 cbbb 6a60 e53d 19ac b1bd
00000370: 4569 933c 6f96 84bd b1eb 3b3d de8c c1bc
00000380: 1c9f a23b 7f39 5c3d 1262 2bbc 22b6 0d3e
00000390: 2ed8 7dbd 653e a2bd dc47 ecbd 9cf6 debc
000003a0: 1a4a ca3d 218a cbbc 913b a73d bb82 673b
000003b0: 14d8 303d b664 b63c ea1b c13c ff1a f2bd
000003c0: 2e18 af3c f471 403e c523 e83c a368 803c
000003d0: 95ce 24bc 123e f33b e347 1e3e 3652 373c
000003e0: 99c2 55bc 4d49 86bc 17b2 cd3b bae4 703d
000003f0: e1ed 34be 9680 8abd 3953 07bd ebf5 54be
0.36995748 0.016950525 0.014597613 0.09808797 -0.016553577 -0.022725742 -0.05946387 -0.029972281
0.009340518 -0.08961031 -0.048236787 0.014686756 0.042588618 0.030334743 0.07400065 0.09877766
-0.0551959 0.1149768 0.26442295 -0.04710442 -0.075356685 -0.040770695 0.054745536 0.12638372
0.15928721 0.11026906 -0.08235958 0.040642615 -0.010993669 0.048553757 0.064380705 -0.07045487
-0.11198823 0.083971724 -0.020700686 0.008578745 0.07964855 -0.01919506 0.07568726 -0.048625313
0.041868117 0.14007473 -0.08053397 0.07732172 -0.08772123 0.03700129 0.10774539 -0.09315676
-0.07337779 -0.04853727 -0.10564703 -0.066829205 0.17622064 -0.14171852 -0.08234072 -0.038157422
0.026725562 0.22921787 0.061048035 -0.016304014 0.019294487 0.03799153 -0.03179173 -0.10101798
0.025728242 0.02313674 0.024050651 -0.04628369 -0.10481553 -0.11722204 -0.02393041 -0.051562782
0.012938904 -0.073690414 -0.011708438 0.013032203 -0.3295312 -0.07328378 -0.07282091 0.4531438
0.054873962 -0.0044506094 -0.025281958 -0.035022855 -0.012843116 -0.041402232 0.1344411 -0.0012969336
0.0583008 -0.0124098 -0.08111842 0.020710757 0.065016486 -0.1312772 0.26434913 0.08266142
-0.059183832 0.017296424 0.040623296 -0.07676161 0.13051167 -0.03296779 -0.11188557 -0.13777421
-0.099454075 0.08520675 0.022822127 -0.013474229 0.0029825578 0.07905564 0.008683961 0.12575106
0.1348301 0.27602863 0.047451656 -0.11041642 0.15862215 0.104250245 -0.18610092 -0.02196048
-0.12645109 -0.10697122 0.05937891 -0.12157526 0.084017426 -0.06286651 0.13066342 0.0040990124
-0.31406468 -0.11678307 -0.1033653 -0.00881993 -0.0064158463 -0.024925249 0.041187342 -0.09100854
0.035609517 -0.030650679 -0.0007583897 -0.0747412 -0.08866998 -0.0978793 0.00207749 -0.010289758
-0.00294542 -0.0134237 0.10650376 0.010373285 -0.0290094 -0.04621074 -0.061829314 -0.023285404
0.28214505 -0.06423575 0.054585934 0.019614222 0.0043808133 0.048121274 -0.11169353 -0.037159212
0.008912546 -0.03553324 0.019266471 0.03555973 -0.051826 -0.0037377346 -0.010196614 0.046522755
-0.09787031 0.016296234 0.06770147 -0.056053042 -0.102697305 -0.06402059 -0.04857743 -0.063342385
0.116168715 -0.016753959 0.02709397 -0.36427712 -0.009159989 0.20962594 -0.071523756 -0.035131387
0.03148638 0.01941963 -0.024660766 -0.05033534 0.061275564 -0.032444533 0.047429696 -0.08453732
-0.07887832 -0.040940687 0.07002179 0.03934413 -0.02442445 0.049617793 -0.028465675 0.050945755
-0.09617918 -0.007611211 0.048316296 -0.0012468882 0.12832169 0.010700978 0.04600033 -0.0584451
0.025146326 -0.07126356 0.1341595 0.0094378665 0.043983497 0.029389191 -0.0963615 0.12636156
0.09475647 -0.0062010726 0.1120003 -0.08675403 0.017994532 -0.064740054 0.04587907 -0.023626741
0.004962815 0.05376577 -0.0104603935 0.1383901 -0.061973743 -0.07922057 -0.115371436 -0.027217202
0.09877415 -0.024846138 0.08165658 0.0035325724 0.04317482 0.02226482 0.02357288 -0.11821555
0.021373834 0.1879347 0.028337369 0.015674895 -0.010059019 0.007423171 0.1545711 0.011189034
-0.013046884 -0.016392374 0.0062773335 0.05881188 -0.17668869 -0.06762807 -0.03303835 -0.20796935

VAE_Encoder.layers.1.linear1.bias f4 [4]
00000000: 33c9 813d 98fc bbbd 6dd3 bc3b 322d 843d
0.06337204 -0.09179038 0.0057625086 0.06453933

VAE_Encoder.layers.1.norm1.weight f4 [4]
00000000: a8f8 763f ab58 873f 4b57 823f 8af9 923f
0.9647317 1.0573934 1.018289 1.1482403

VAE_Encoder.layers.1.norm1.bias f4 [4]
00000000: d4f4 56bd 2b9c 00bb cd23 fb3b 58aa 113d
-0.05247958 -0.0019624333 0.00766418 0.035562843

VAE_Encoder.layers.1.norm0.weight f4 [4]
00000000: f8ab 6b3f e40e 2e3f ca7e 593f 2cd3 713f
0.9205928 0.6799147 0.8495909 0.9446285

VAE_Encoder.layers.1.norm0.bias f4 [4]
00000000: bdbd adbc 147c a2bb 86cc 8fbc 96bb f9bb
-0.021208638 -0.004958639 -0.017553579 -0.007621239

VAE_Encoder.last_normalization.weight f4 [4]
00000000: 0000 803f 0000 803f 0000 803f 0000 803f
1.0 1.0 1.0 1.0

VAE_Encoder.last_normalization.bias f4 [4]
00000000: 0000 0000 0000 0000 0000 0000 0000 0000
0.0 0.0 0.0 0.0

VAE_Encoder.head.weight f4 [4, 4]
00000000: 3675 d5be d0d6 9ebe 18b6 42be 50ee b73d
00000010: 2694 a13e 743e 31be 3076 7c3d 4a2c a8be
00000020: a878 9abe 0009 95bd 3098 c33e c4d4 a73e
00000030: 54a6 103e 3ab1 ec3e a4f2 43be 90d7 b53e
-0.41690987 -0.31023264 -0.19014776 0.089810014 0.3155834 -0.1730898 0.06163615 -0.3284629
-0.30170178 -0.07277107 0.38202047 0.32779515 0.14125949 0.46228963 -0.19135529 0.35516024

VAE_Encoder.head.bias f4 [4]
00000000: f0e4 3fbe c647 d7be bc33 46be 9028 c63e
-0.18739676 -0.42046946 -0.19355673 0.38702822
