tabsyn/vae/ckpt/abalone/decoder.pt (torch, 21058 bytes, 33 tensors)

VAE_Decoder.layers.0.attention.W_q.weight f4 [4, 4]
0.2435713 0.28275037 -0.28607023 -0.44147143 0.2783803 -0.4825494 0.12771136 0.1612544
0.21923842 0.08292699 -0.3237817 0.28455806 -0.20117112 0.29372284 -0.52489966 0.21921754
00000000: c16a 793e a8c4 903e cc77 92be 8b08 e2be
00000010: dd87 8e3e b710 f7be c4c6 023e e01f 253e
00000020: 0980 603e a0d5 a93d b7c6 a5be 98b1 913e
00000030: cdff 4dbe d762 963e d35f 06bf 907a 603e

VAE_Decoder.layers.0.attention.W_q.bias f4 [4]
0.02375022 0.030196667 0.013766903 -0.0029645793
00000000: d28f c23c 005f f73c 948e 613c 6349 42bb

VAE_Decoder.layers.0.attention.W_k.weight f4 [4, 4]
0.014526164 -0.45742172 0.07764781 -0.19158646 -0.06429425 -0.44293562 -0.2100115 0.03161429
-0.26448748 -0.33058628 -0.14412595 -0.28694734 -0.48058635 0.10562692 -0.39178142 0.003348104
00000000: 26ff 6d3c 2e33 eabe d105 9f3d 3e2f 44be
00000010: b4ac 83bd 75c8 e2be 410d 57be fc7d 013d
00000020: e76a 87be 9b42 a9be c195 13be c3ea 92be
00000030: 6a0f f6be ed52 d83d 9397 c8be dd6b 5b3b

VAE_Decoder.layers.0.attention.W_k.bias f4 [4]
-7.443649e-05 -1.7093067e-05 -9.139454e-05 0.0002643903
00000000: c91a 9cb8 1563 8fb7 12ab bfb8 de9d 8a39

VAE_Decoder.layers.0.attention.W_v.weight f4 [4, 4]
-0.3983809 -0.2883023 -0.12944247 0.06468466 0.22829519 0.40245184 -7.351374e-05 0.23304828
-0.032651912 -0.039329372 0.28867167 0.09647815 0.1534748 0.19234699 0.08278183 0.46465918
00000000: 95f8 cbbe 5c9c 93be 918c 04be 6479 843d
00000010: 37c6 693e 2b0e ce3e 632b 9ab8 35a4 6e3e
00000020: 03be 05bd d617 21bd c6cc 933e 5696 c53d
00000030: 7f28 1d3e 9cf6 443e 8589 a93d cfe7 ed3e

VAE_Decoder.layers.0.attention.W_v.bias f4 [4]
0.008378404 -0.023122016 -0.009107395 0.05026823
00000000: 9345 093c 626a bdbc 2f37 15bc 0fe6 4d3d

VAE_Decoder.layers.0.linear0.weight f4 [128, 4]
0.049894307 0.5407689 0.2921611 0.40645245 -0.43507716 0.21614024 0.18188952 0.14728539
0.04625379 -0.22505116 0.24832422 -0.3830016 0.116917826 0.09649221 -0.07142553 0.44752866
0.3415399 -0.4382923 -0.45767352 -0.42376333 0.082882546 0.09078272 -0.10451034 0.111813165
-0.5503474 -0.37965107 0.07810205 0.14506881 0.3203783 -0.41018978 0.25946438 0.3297279
-0.37879527 -0.30759326 0.014541719 0.002278632 -0.30911013 -0.027114145 0.34544 -0.31661186
0.06119173 -0.104075596 0.3115917 -0.52617097 0.14010766 -0.3232756 -0.0008738189 0.1500868
0.48839238 0.22674492 -0.27198568 0.017689949 0.39093697 -0.0840091 -0.34091082 -0.36415336
0.332155 -0.349561 0.3112593 0.032863077 -0.04505472 0.18878436 0.0840196 0.3183316
0.07799625 -0.37971747 -0.17650999 -0.29768917 0.086072676 -0.42920336 0.39111072 0.24075784
0.08058028 0.18778312 0.25443003 -0.44367597 -0.054657687 0.16656539 -0.14440289 -0.32147574
0.19643338 0.27188066 -0.05450349 0.39610192 -0.38714185 0.49745739 -0.040180717 -0.05151908
-0.00076990854 0.2730584 0.21783502 0.45039442 0.10341867 0.38073426 0.12165685 0.2587368
0.486775 0.44490144 -0.21558212 0.3916725 -0.0016519446 -0.30096626 -0.18655042 -0.406733
0.55763894 -0.33234712 -0.11421918 -0.048637804 0.26184577 0.32881367 0.2900014 0.14453234
0.12572476 -0.13616775 0.22069834 -0.07896141 -0.22466269 -0.11701031 0.4649299 0.5007367
0.08252112 -0.17243743 0.4879762 -0.49338412 0.45151746 -0.45154744 0.07824233 0.19573383
0.2561927 0.19567952 0.39085832 -0.4116957 -0.41783482 0.052865267 0.5266782 -0.37860087
-0.026998958 0.39271426 0.09098894 -0.43548927 0.3880219 0.6734352 0.47879714 -0.1641525
-0.23936182 -0.20671985 0.0796974 0.36844867 -0.41951752 -0.2551856 -0.21902253 -0.026858674
-0.43273252 0.2642392 0.23002994 -0.56555706 0.07794256 0.2492871 0.44453883 0.6423843
0.4635296 -0.28511834 -0.33283436 -0.0333601 0.16220531 -0.2208808 -0.5614479 -0.20357905
0.14397988 -0.025695315 0.25183627 0.530657 -0.21493481 0.1829692 -0.09008568 0.29438704
-0.37340212 -0.41731206 0.024357475 0.47439882 0.04956437 0.120287135 -0.44076815 -0.17261258
-0.47424534 -0.4753922 -0.4537189 0.01817231 0.42461345 0.31652123 -0.4649097 0.3946708
0.41272894 0.2299559 -0.088597484 -0.08198167 0.15270086 0.22316818 0.18323462 0.0852693
0.098376565 0.12720291 -0.45213646 0.48553044 0.16195461 0.10341406 0.04349817 -0.31767333
-0.15285555 -0.3786788 0.1877382 0.4975614 0.095894724 0.23806737 -0.42542312 0.34047407
-0.09053092 -0.027517064 -0.30096063 0.45731518 -0.32349357 0.38661766 0.34927708 -0.46656328
-0.228002 -0.17148274 0.20633279 0.42381045 0.1619875 -0.42555282 -0.035846308 -0.1786748
-0.22974561 0.33407965 0.118545964 -0.3756103 -0.13566904 0.4666175 0.46681255 -0.16567878
0.380127 0.24750596 -0.3525868 0.20707355 0.12238226 0.047651056 -0.16346277 0.39371094
-0.24833028 -0.3341605 -0.41845348 0.43285376 -0.22279747 0.4746193 0.61048764 -0.3481523
00000000: f95d 4c3d d56f 0a3f 2496 953e 891a d03e
00000010: 6fc2 debe de53 5d3e 3f41 3a3e fbd1 163e
00000020: 9d74 3d3d d073 66be b448 7e3e c918 c4be
00000030: 9d72 ef3d b59d c53d 8c47 92bd 7a22 e53e
00000040: 51de ae3e d967 e0be 2f54 eabe 82f7 d8be
00000050: 53be a93d 4aec b93d 8409 d6bd 4dfe e43d
00000060: 91e3 0cbf a061 c2be f8f3 9f3d eb8c 143e
00000070: a008 a43e 6504 d2be 84d8 843e 18d2 a83e
00000080: 74f1 c1be dd7c 9dbe 6440 6e3c 1a55 153b
00000090: af43 9ebe 7c1e debc 83dd b03e f31a a2be
000000a0: 2ea4 7a3d 9625 d5bd f388 9f3e 24b3 06bf
000000b0: 6278 0f3e 6184 a5be fe10 65ba 5bb0 193e
000000c0: 910e fa3e d22f 683e b541 8bbe 83ea 903c
000000d0: e428 c83e f70c acbd dd8b aebe 4f72 babe
000000e0: 3810 aa3e a9f9 b2be 615d 9f3e 6f9b 063d
000000f0: 4c8b 38bd b050 413e 7812 ac3d 5cfc a23e
00000100: 7fbc 9f3d 546a c2be 09bf 34be b76a 98be
00000110: df46 b03d 8bc0 dbbe aa3f c83e 3989 763e
00000120: 4607 a53d 384a 403e a744 823e 7f29 e3be
00000130: bde0 5fbd 1e90 2a3e 5ade 13be 7898 a4be
00000140: d525 493e f133 8b3e 0d3f 5fbd dfcd ca3e
00000150: 7537 c6be bcb2 fe3e 8994 24bd ac05 53bd
00000160: b0d3 49ba 50ce 8b3e 2510 5f3e 199a e63e
00000170: 2bcd d33d 9aef c23e 3a27 f93d 2679 843e
00000180: 933a f93e 1fca e33e 8fc1 5cbe 4c89 c83e
00000190: 1086 d8ba 4018 9abe 1307 3fbe 4f3f d0be
000001a0: 6dc1 0e3f 6729 aabe bfeb e9bd 6f38 47bd
000001b0: a610 863e 445a a83e 107b 943e 4900 143e
000001c0: febd 003e 8f6f 0bbe bffe 613e 85b6 a1bd
000001d0: fa0d 66be 1aa3 efbd 4b0b ee3e 4830 003f
000001e0: d500 a93d 7093 30be 04d8 f93e d89c fcbe
000001f0: 4c2d e73e 3a31 e7be 843d a03d 736e 483e
00000200: b12b 833e 3660 483e 951e c83e c7c9 d2be
00000210: 72ee d5be 4089 583d 62d4 063f f9d7 c1be
00000220: eb2c ddbc d811 c93e 6958 ba3d 73f8 debe
00000230: ceaa c63e 4066 2c3f e624 f53e 9817 28be
00000240: 441b 75be 5eae 53be 6438 a33d 4ea5 bc3e
00000250: 00cb d6be b0a7 82be 7147 60be b906 dcbc
00000260: 1e8f ddbe 5c4a 873e f88c 6b3e 59c8 10bf
00000270: 59a0 9f3d 1e45 7f3e 989a e33e 4c73 243f
00000280: c053 ed3e 08fb 91be 4469 aabe 9aa4 08bd
00000290: 2619 263e 942e 62be 0dbb 0fbf 0777 50be
000002a0: 766f 133e fb7e d2bc aff0 803e 23d9 073f
000002b0: df17 5cbe 475c 3b3e d77e b8bd e6b9 963e
000002c0: 902e bfbe eda9 d5be 5489 c73c 67e4 f23e
000002d0: 0204 4b3d 1a59 f63d 5dac e1be 5ac1 30be
000002e0: 49d0 f2be 9b66 f3be d84d e8be 19de 943c
000002f0: ef66 d93e 120f a23e a508 eebe 4b12 ca3e
00000300: 3551 d33e 8f79 6b3e 9972 b5bd 01e6 a7bd
00000310: 9d5d 1c3e 3386 643e dba1 3b3e aca1 ae3d
00000320: a779 c93d 7b41 023e 6e7e e7be 7297 f83e
00000330: 6ed7 253e c0ca d33d 232b 323d 14a6 a2be
00000340: 2a86 1cbe 30e2 c1be 713e 403e 5ec0 fe3e
00000350: 7464 c43d efc7 733e 0fd1 d9be 9e52 ae3e
00000360: 4668 b9bd 776b e1bc 8317 9abe 3725 ea3e
00000370: f3a0 a5be c0f2 c53e 72d4 b23e 62e1 eebe
00000380: 5b79 69be 2c99 2fbe e748 533e affd d83e
00000390: 0de0 253e 0fe2 d9be 94d3 12bd 87f6 36be
000003a0: 6f42 6bbe 7d0c ab3e 3ac8 f23d fe4f c0be
000003b0: d3ec 0abe 7de8 ee3e 0e02 ef3e b3a7 29be
000003c0: 02a0 c23e 3472 7d3e 4286 b4be 170b 543e
000003d0: 8da3 fa3d c12d 433d c962 27be 7b94 c93e
000003e0: 4b4a 7ebe 1617 abbe 893f d6be 029f dd3e
000003f0: 0525 64be 4d01 f33e eb48 1c3f 0541 b2be

VAE_Decoder.layers.0.linear0.bias f4 [128]
-0.21411833 0.2951906 -0.52233756 0.3162358 0.30779853 0.4343033 -0.46722156 0.34862408
-0.23877129 0.32735884 0.2747674 -0.04901161 0.30895412 -0.40757728 0.18702403 -0.47565165
-0.15521562 -0.3520645 0.2813659 0.20483084 -0.29454094 0.13320674 0.18028566 -0.44179082
0.48822907 0.14758262 -0.38783604 0.24269767 0.16281934 -0.14652954 0.27326688 0.060714506
0.26589736 -0.33271056 0.29176453 -0.14433362 -0.15187019 -0.19041227 -0.30325052 -0.1768163
-0.35956234 0.37758887 0.25043353 0.069069535 -0.15918079 -0.38245937 -0.014065752 -0.08815577
0.049511123 0.5207629 -0.33745837 0.17316929 0.46341726 -0.09471033 -0.11436235 0.26309264
-0.425856 -0.11367422 0.36825654 -0.28050104 0.31335357 0.317498 -0.11634437 -0.13746653
-0.45612782 -0.37120432 -0.14091875 -0.37723607 0.14635298 0.08474809 0.1586496 -0.250235
-0.2709795 0.5303132 -0.14595374 -0.04741856 0.16537589 -0.3151597 0.06475572 0.122328624
-0.2875357 -0.119994305 -0.14159104 -0.28189805 0.14999732 0.20321755 -0.14050111 -0.06296057
-0.1730404 0.32863462 -0.039467867 -0.26064056 -0.2484637 -0.3321907 0.42317575 -0.48107994
-0.111219145 0.14773524 -0.24937533 0.42925364 0.51701826 -0.37503004 -0.2720581 -0.30953646
-0.12209489 0.35601717 0.20093037 -0.3621157 0.32298428 -0.119803235 0.3877347 0.42314908
0.15870072 -0.37628746 -0.07428524 0.35121143 0.30738848 0.48751587 -0.099914685 -0.20574778
0.472786 0.14016217 -0.34648314 -0.16086996 -0.0028610511 0.38285506 0.45898956 -0.12553191
00000000: d641 5bbe 3923 973e eab7 05bf a9e9 a13e
00000010: c597 9d3e 015d de3e aa37 efbe db7e b23e
00000020: 7680 74be 949b a73e 50ae 8c3e 66c0 48bd
00000030: 3c2f 9e3e f8ad d0be 3a83 3f3e 9d88 f3be
00000040: d8f0 1ebe cc41 b4be 310f 903e 2dbf 513e
00000050: 12ce 96be 5967 083e ce9c 383e 6832 e2be
00000060: 29f9 f93e e61f 173e 7292 c6be bd85 783e
00000070: 1dba 263e d70b 16be a3e9 8b3e c6af 783d
00000080: b323 883e 0a59 aabe 2962 953e 31cc 13be
00000090: dc83 1bbe 6ffb 42be a743 9bbe 550f 35be
000000a0: 8e18 b8be 5453 c13e d338 803e 5474 8d3d
000000b0: 4a00 23be b7d1 c3be 0a74 66bc 038b b4bd
000000c0: 2dcc 4a3d b850 053f 58c7 acbe 4a53 313e
000000d0: 0745 ed3e 7df7 c1bd cf36 eabd 14b4 863e
000000e0: cc09 dabe 08ce e8bd 1f8c bc3e d59d 8fbe
000000f0: e16f a03e 198f a23e f545 eebd 07c4 0cbe
00000100: 9689 e9be 7e0e bebe 014d 10be 1625 c1be
00000110: 8edd 153e 6890 ad3d 0a75 223e cd1e 80be
00000120: d3bd 8abe 9bc2 073f e674 15be f739 42bd
00000130: 4c58 293e 9d5c a1be a69e 843d 6e87 fa3d
00000140: e137 93be 93bf f5bd 3efd 10be f154 90be
00000150: e698 193e 4318 503e 86df 0fbe 79f1 80bd
00000160: 8131 31be cc42 a83e 0fa9 21bd ae72 85be
00000170: 456d 7ebe e614 aabe 7eaa d83e 1c50 f6be
00000180: ddc6 e3bd e847 173e 3f5c 7fbe 22c7 db3e
00000190: 4f5b 043f f003 c0be 334b 8bbe 907b 9ebe
000001a0: e30c fabd e247 b63e b1c0 4d3e 3b67 b9be
000001b0: 325e a53e 665b f5bd 2a85 c63e ffa6 d83e
000001c0: 7182 223e c0a8 c0be dc22 98bd fcd1 b33e
000001d0: 0662 9d3e ae9b f93e 12a0 ccbd 8caf 52be
000001e0: 0211 f23e ac86 0f3e 3d66 b1be 18bb 24be
000001f0: 7980 3bbb 9405 c43e ae00 eb3e 708b 00be

VAE_Decoder.layers.0.linear1.weight f4 [4, 128]
0.20345932 -0.04222913 0.019675197 0.08422 -0.112111844 0.026956795 0.15766972 0.007817213
0.13335101 -0.06575726 -0.12285867 -0.038719967 -0.111234225 0.0027676926 0.086549394 0.034459665
-0.0663299 0.0824575 0.016006593 -0.09168379 -0.036823638 0.0010260807 0.064843506 0.012938217
-0.044861875 -0.050813727 -0.029293982 0.04250344 0.0105052795 -0.0065744724 0.0054152044 0.07255065
-0.076140925 -0.06982338 -0.005474366 0.010866201 0.07839647 -0.103821956 -0.07873826 -0.031227527
-0.064582 -0.04233409 0.056657955 0.016705632 0.05305128 -0.10222506 0.07499108 0.013778783
-0.015586603 0.041647315 -0.003917377 -0.14135355 0.06461711 0.025479814 -0.08163224 -0.044682242
0.06152563 0.045569964 0.007153286 0.025854923 -0.084632054 -0.02373152 -0.06972661 -0.3203681
-0.0021468918 0.021610627 0.04711808 0.035498254 0.021705082 0.042989425 -0.02637357 -0.1055612
0.06060064 0.030427467 -0.058358207 -0.052868143 -0.08878918 0.07752503 -0.03218288 -0.009596431
0.13940641 0.034818947 -0.17472959 -0.07757574 -0.007545997 0.023855077 0.0619255 -0.087353274
0.07381319 0.05756918 -0.06977655 -0.019360822 -0.25397807 0.17212933 -0.07106026 -0.024535049
0.075094916 0.028132664 0.08349095 -0.014722848 0.012825054 -0.079908125 -0.036598887 0.10810338
-0.03725522 -0.07227025 -0.0013780755 0.08338339 0.036430568 -0.038881075 0.031149983 0.08410443
-0.10297143 0.057415254 -0.07622602 0.046394903 -0.035580166 -0.107355036 -0.10401748 -0.05917049
-0.0877864 0.10785238 -0.07374174 0.12011576 -0.025118662 0.040622484 -0.092769355 -0.028190905
0.054121654 -0.077196084 -0.03274943 0.030983433 0.058327425 0.014665474 -0.05306286 0.06453703
-0.021837119 0.028933786 0.02493766 -0.071402624 0.050236076 0.08154596 0.019970993 -0.050581567
-0.06706429 -0.03190647 0.09467953 -0.045092326 -0.059636306 0.083714016 -0.07754002 -0.041648377
-0.05957291 0.068574175 -0.0060104076 -0.058784127 -0.019885477 0.011894906 0.02522038 -0.034017194
0.09012246 0.10830344 0.10687546 0.03895925 0.016246125 0.068489276 0.26897034 0.05867463
0.036114726 -0.01096554 0.03900759 -0.09183844 -0.052107282 0.021096049 -0.0059376042 0.005868639
-0.016567938 0.07833267 -0.069338284 -0.06989427 -0.074101664 0.066304214 0.004753357 0.066202335
0.08116629 -0.0035416018 -0.053284857 0.16536324 0.061723877 0.041436084 0.002686382 0.26015794
-0.013549543 0.0321771 0.02865108 0.10624424 -0.044059295 0.0024798429 0.038597852 -0.09052555
0.0767456 0.085563116 0.09651005 0.09068705 0.052731324 -0.07660376 0.06773077 -0.0028364325
0.030972049 -0.06760951 -0.0065963212 0.06566568 -0.028050423 -0.042767696 -0.069248 -0.036228713
0.08075202 -0.08260007 0.061213866 -0.060703557 0.2470077 0.1561513 -0.08918999 -0.041500647
0.032569405 0.028916413 0.062835306 0.029305672 0.06596774 -0.009024374 -0.07503583 -0.11931521
0.046681814 0.0009244119 0.058748767 -0.09312221 0.046134226 0.107246436 0.05743293 0.004881521
0.09802138 -0.0886934 -0.05505462 -0.067354485 -0.06746387 0.044662274 0.009718711 0.002668919
-0.04643373 0.046994384 -0.072514504 0.034003768 -0.05014667 0.020781009 -0.03416747 0.044928923
00000000: a457 503e 74f8 2cbd e12d a13c 897b ac3d
00000010: e59a e5bd 7fd4 dc3c 2c74 213e c513 003c
00000020: 2b8d 083e beab 86bd 549d fbbd d498 1ebd
00000030: c5ce e3bd 2d62 353b cf40 b13d 9425 0d3d
00000040: f8d7 87bd 7adf a83d 4220 833c b6c4 bbbd
00000050: 62d4 16bd 8e7d 863a accc 843d d1fa 533c
00000060: 16c1 37bd 0e22 50bd eff9 efbc 1618 2e3d
00000070: 561e 2c3c ac6e d7bb 0772 b13b 6f95 943d
00000080: c6ef 9bbd 8fff 8ebd 4f62 b3bb 2608 323c
00000090: 548e a03d 9ba0 d4bd 8641 a1bd dfd0 ffbc
000000a0: 9143 84bd 8366 2dbd 2c12 683d 40da 883c
000000b0: 4d4c 593d 5f5b d1bd ec94 993d 68c0 613c
000000c0: f45e 7fbc 6096 2a3d 575d 80bb fcbe 10be
000000d0: fa55 843d 0bbb d03c ce2e a7bd ba04 37bd
000000e0: 4d02 7c3d 92a7 3a3d 1d66 ea3b b4cd d33c
000000f0: 9253 adbd 9b68 c2bc d3cc 8ebd 4a07 a4be
00000100: deb2 0cbb c508 b13c e3fe 403d 9e66 113d
00000110: dbce b13c ae15 303d 630d d8bc 7830 d8bd
00000120: 6038 783d 0643 f93c 0409 6fbd 448c 58bd
00000130: 1ad7 b5bd 71c5 9e3d 32d2 03bd 593a 1dbc
00000140: 8ec0 0e3e 509e 0e3d 50ec 32be 08e0 9ebd
00000150: 6944 f7bb b96b c33c 98a5 7d3d 46e6 b2bd
00000160: 5f2b 973d a9cd 6b3d 02e7 8ebd 969a 9ebc
00000170: 6a09 82be ac42 303e 0b88 91bd bafd c8bc
00000180: 5dcb 993d 7976 e63c 4efd aa3d 1a38 71bc
00000190: 2d20 523c dfa6 a3bd b7e8 15bd 4e65 dd3d
000001a0: ee98 18bd 6d02 94bd 8aa0 b4ba e9c4 aa3d
000001b0: 3838 153d c341 1fbd 402e ff3c f23e ac3d
000001c0: afe2 d2bd 422c 6b3d 631c 9cbd 9508 3e3d
000001d0: 82bc 11bd f5dc dbbd 1e07 d5bd c15c 72bd
000001e0: 5bc9 b3bd b5e1 dc3d e905 97bd 40ff f53d
000001f0: a7c5 cdbc c363 263d dcfd bdbd 9df0 e6bc
00000200: abae 5d3d fb18 9ebd 4424 06bd f8d0 fd3c
00000210: bde8 6e3d 7547 703c 7158 59bd fe2b 843d
00000220: c2e3 b2bc 8c06 ed3c 104a cc3c 8a3b 92bd
00000230: 58c4 4d3d 9101 a73d 359a a33c 9e2e 4fbd
00000240: 0159 89bd 5cb0 02bd 57e7 c13d bbb2 38bd
00000250: 3345 74bd 4172 ab3d 4dcd 9ebd 7d97 2abd
00000260: b902 74bd 9e70 8c3d f4f2 c4bb a0c7 70bd
00000270: dee6 a2bc dae2 423c f89a ce3c 9d55 0bbd
00000280: 2092 b83d 32ce dd3d 85e1 da3d bc93 1f3d
00000290: 9816 853c 1b44 8c3d 7bb6 893e cf54 703d
000002a0: 09ed 133d cfa8 33bc 6cc6 1f3d cb15 bcbd
000002b0: 726e 55bd 9fd1 ac3c 3c90 c2bb b64d c03b
000002c0: 7cb9 87bc e16c a03d 3b01 8ebd ba24 8fbd
000002d0: 9dc2 97bd 81ca 873d 0cc2 9b3b 1795 873d
000002e0: 833a a63d 381a 68bb 3941 5abd fb54 293e
000002f0: 2dd2 7c3d e2b8 293d 030e 303b 6c33 853e
00000300: e7fe 5dbc 23cc 033d abb5 ea3c 9596 d93d
00000310: 8577 34bd dc84 223b c818 1e3d 7665 b9bd
00000320: cc2c 9d3d b73b af3d 10a7 c53d 22ba b93d
00000330: cdfc 573d 6fe2 9cbd 6eb6 8a3d 71e3 39bb
00000340: 18b9 fd3c db76 8abd f425 d8bb ba7b 863d
00000350: 00ca e5bc 2e2d 2fbd e5d1 8dbd 8f64 14bd
00000360: 5161 a53d 3a2a a9bd 64bb 7a3d 4ba4 78bd
00000370: 96ef 7c3e 20e6 1f3e 3ea9 b6bd 95fc 29bd
00000380: 7f67 053d 1de2 ec3c ccaf 803d 7312 f03c
00000390: 181a 873d f8da 13bc 63ac 99bd 885b f4bd
000003a0: 6e35 3f3d 3c54 723a 8ca2 703d dbb6 bebd
000003b0: 3ef7 3c3d 05a4 db3d cb3e 6b3d 2bf5 9f3b
000003c0: 6fbf c83d e3a4 b5bd f480 61bd 26f1 89bd
000003d0: 7f2a 8abd caef 363d 3a3b 1f3c 08e9 2e3b
000003e0: 4b31 3ebd 2f7d 403d 7c82 94bd 8947 0b3d
000003f0: 9866 4dbd ef3c aa3c 30f3 0bbd 6407 383d

VAE_Decoder.layers.0.linear1.bias f4 [4]
-0.004519835 0.08987826 0.08941362 -0.065262064
00000000: 201b 94bb 1812 b83d 7d1e b73d 1ea8 85bd

VAE_Decoder.layers.0.norm1.weight f4 [4]
1.0846366 1.1729531 1.1848522 1.1820856
00000000: 5fd5 8a3f 5423 963f 3da9 973f 954e 973f

VAE_Decoder.layers.0.norm1.bias f4 [4]
-0.005411315 -0.00415631 0.11462669 0.0055722934
00000000: 6651 b1bb a831 88bb 66c1 ea3d c997 b63b

VAE_Decoder.layers.1.attention.W_q.weight f4 [4, 4]
0.39147517 0.38635093 -0.39056277 -0.17100884 0.7179875 0.0061494755 -0.21499938 -0.75822365
0.24440928 0.30123886 -0.08559188 -0.23279932 0.2162171 -0.4576288 -0.28338823 0.048035655
00000000: 6f6f c83e cacf c53e d8f7 c7be f11c 2fbe
00000010: 07ce 373f 8a81 c93b cc28 5cbe f21a 42bf
00000020: 6d46 7a3e fb3b 9a3e cc4a afbd f262 6ebe
00000030: 0468 5d3e 524e eabe 4318 91be 09c1 443d

VAE_Decoder.layers.1.attention.W_q.bias f4 [4]
0.037154224 0.12767264 0.032067105 0.0054585417
00000000: 072f 183d 9ebc 023e cc58 033d 91dd b23b

VAE_Decoder.layers.1.attention.W_k.weight f4 [4, 4]
-0.33464158 -0.45227468 0.2788652 -0.33900243 0.14816536 -0.25089964 -0.12979172 -0.8411626
0.022635292 -0.39668855 -0.3071332 -0.55186343 0.49921042 -0.52852064 -0.035565764 0.43053797
00000000: 2456 abbe 8c90 e7be 6bc7 8e3e ba91 adbe
00000010: a9b8 173e eb75 80be 1fe8 04be 6f56 57bf
00000020: a66d b93c c31a cbbe 9040 9dbe ec46 0dbf
00000030: 8298 ff3e 214d 07bf 68ad 11bd 796f dc3e

VAE_Decoder.layers.1.attention.W_k.bias f4 [4]
3.3678374e-05 8.8469395e-05 5.6676505e-05 7.289125e-05
00000000: e141 0d38 a588 b938 efb7 6d38 31dd 9838

VAE_Decoder.layers.1.attention.W_v.weight f4 [4, 4]
0.04633586 0.037503134 -0.18352973 0.32354093 -0.3960033 0.2677395 -0.123840235 -0.12593763
0.181424 -0.03016605 0.01048697 0.16267508 -0.5908786 0.03614812 -0.43574595 -0.100589715
00000000: acca 3d3d e39c 193d 38ef 3bbe 28a7 a53e
00000010: f2c0 cabe 2715 893e f39f fdbd cbf5 00be
00000020: 37c7 393e cb1e f7bc 8ad1 2b3c 4c94 263e
00000030: d243 17bf 0d10 143d 181a dfbe fb01 cebd

VAE_Decoder.layers.1.attention.W_v.bias f4 [4]
-0.11585098 0.009096183 0.011751672 0.023069842
00000000: 4743 edbd 2808 153c 168a 403c f7fc bc3c

VAE_Decoder.layers.1.linear0.weight f4 [128, 4]
0.37719467 0.52511823 -0.38305447 0.068036266 0.7118277 0.70093805 0.19758902 -0.804227
-0.18663265 0.4585542 0.06378393 -0.2840131 -0.50263566 0.5799183 -0.55968386 -0.1616389
-0.09450284 0.017715583 -0.1257249 -0.43558976 0.42768833 -0.08866404 -0.37524214 0.55193573
0.06835902 0.009818807 0.1856277 -0.25366035 -0.5408926 0.24552798 0.06836878 0.5994307
-0.16548815 0.35548937 -0.53095585 -0.12719274 -0.5591547 0.41120312 0.35114998 0.22838072
-0.3089866 -0.2791658 -0.22435063 -0.29574686 0.47712836 -0.0014357172 -0.17358749 0.18849085
-0.28896424 0.15395924 -0.50854355 0.26314384 -0.6270839 0.43279406 0.24630886 -0.3862754
-0.6104224 0.40813786 -0.44888836 0.27215025 0.08303405 -0.27840477 -0.03545735 -0.41962874
-0.6153326 0.565654 -0.37603974 -0.40185815 0.20745471 0.42624384 -0.26408067 0.13682935
-0.35553095 0.5231567 0.03530726 -0.42052248 -0.19831203 -0.2585626 -0.32379812 -0.008650431
-0.13453643 -0.28570956 0.4413374 0.2503152 0.50277996 -0.43320236 0.45232612 -0.07469853
-0.6592464 0.3799117 0.098152936 0.44050565 -0.47756514 0.5272074 0.42688736 0.43009868
0.31200162 -0.49959928 0.1620259 -0.2485724 -0.21835466 -0.20145346 -0.30577055 0.38174787
0.1963284 -0.2422559 -0.30293453 -0.22883745 -0.23442487 -0.3193368 0.060907226 -0.38893008
-0.16774952 -0.36530083 0.41611102 -0.4722687 -0.34514433 -0.3780015 0.23878285 -0.4065229
0.23425469 0.32872215 0.2731152 0.07969699 0.24559553 -0.17496817 -0.23665056 0.43894356
0.18732977 -0.09675652 -0.42405713 0.50297296 0.047920324 -0.14658713 0.3321978 -0.37453598
0.5170872 -0.14905056 0.29566473 -0.47264874 -0.3427036 0.63245684 0.12824994 0.35515764
-0.2967447 -0.21645838 0.09178822 0.2529569 -0.1328262 0.32192364 -0.077359475 -0.09016555
-0.34844202 -0.5478254 -0.09971366 -0.47456366 -0.46292576 0.27035356 -0.3162527 -0.09087285
0.049152423 -0.29103446 -0.3602846 0.11856649 0.17502922 0.11438686 0.10909283 0.14207345
0.21117598 -0.42530364 -0.1859526 -0.21639392 -0.029804373 0.07083294 0.026857471 0.45197505
0.14843345 -0.0818304 -0.18504609 0.18627292 -0.389462 0.07036947 0.017587071 0.3931848
0.45423684 -0.16998263 0.45559525 0.48344642 0.42149907 -0.21826282 0.56207156 0.2798782
-0.4406418 0.2570463 0.26927477 0.69200724 -0.6856278 0.092722535 -0.44675717 0.16236341
0.34921348 0.44475973 -0.10788052 0.076013274 -0.07682435 -0.43746066 -0.008770959 0.06507629
0.0144233685 -0.50877553 0.33399373 0.57767254 -0.1553281 0.37967458 -0.49588177 -0.20497824
0.006263319 -0.46181393 -0.25108388 0.30603868 0.3785756 0.08161217 0.10208763 -0.46311778
0.23484316 -0.058425643 -0.3302875 0.074510835 -0.18429369 0.12666629 -0.28024098 0.43384543
-0.25283623 -0.3040165 -0.53115493 0.4359353 0.08939142 -0.028904343 0.20868658 -0.37573677
-0.4834484 -0.12715039 -0.22610503 -0.5186415 -0.5790912 0.43476474 -0.48568168 0.16127692
0.016954308 0.55645806 -0.08716507 0.24921462 -0.30517635 0.22878194 0.39844152 0.9077112
00000000: a91f c13e 266e 063f b71f c4be 9956 8b3d
00000010: 573a 363f ad70 333f c754 4a3e d2e1 4dbf
00000020: a11c 3fbe 9ec7 ea3e 26a1 823d 2a6a 91be
00000030: bbac 00bf 8775 143f 7147 0fbf ab84 25be
00000040: b48a c1bd 4520 913c 07be 00be 9f05 dfbe
00000050: f7f9 da3e 7e95 b5bd bd1f c0be a94b 0d3f
00000060: d0ff 8b3d 10df 203c 3015 3e3e c5df 81be
00000070: f077 0abf b06b 7b3e ee04 8c3d 4a74 193f
00000080: ba75 29be b402 b63e b9ec 07bf d03e 02be
00000090: c324 0fbf 3789 d23e eec9 b33e a3dc 693e
000000a0: 7e33 9ebe d2ee 8ebe 2cbc 65be 226c 97be
000000b0: 2b4a f43e ad2e bcba ebc0 31be bf03 413e
000000c0: 1ff3 93be 7ea7 1d3e e92f 02bf caba 863e
000000d0: 9288 20bf 2f97 dd3e 6438 7c3e e4c5 c5be
000000e0: a444 1cbf 72f7 d03e b2d4 e5be 4757 8b3e
000000f0: c20d aa3d 128b 8ebe ba3b 11bd 94d9 d6be
00000100: 7086 1dbf b3ce 103f 4888 c0be 5ac0 cdbe
00000110: 026f 543e a23c da3e 9535 87be fe1c 0c3e
00000120: 2708 b6be 99ed 053f 589e 103d b94e d7be
00000130: 4f12 4bbe 5162 84be dec8 a5be 8aba 0dbc
00000140: ebc3 09be 8648 92be faf6 e13e 5029 803e
00000150: 30b6 003f b3cc ddbe 4a97 e73e 8bfb 98bd
00000160: 5fc4 28bf c983 c23e 6804 c93d f589 e13e
00000170: 6b83 f4be 10f7 063f fb90 da3e e535 dc3e
00000180: adbe 9f3e 7acb ffbe 1eea 253e c389 7ebe
00000190: 5d98 5fbe d149 4ebe f58d 9cbe 7574 c33e
000001a0: 500a 493e ee11 78be 3c1a 9bbe 5d54 6abe
000001b0: 130d 70be 1d80 a3be db79 793d d821 c7be
000001c0: 88c6 2bbe b608 bbbe 810c d53e 34cd f1be
000001d0: c2b6 b0be 6a89 c1be 7e83 743e c523 d0be
000001e0: 76e0 6f3e 454e a83e c1d5 8b3e 2d38 a33d
000001f0: 657d 7b3e db2a 33be 8654 72be 36bd e03e
00000200: 60d3 3f3e 4828 c6bd 041e d9be d6c2 003f
00000210: 1a48 443d f01a 16be d415 aa3e 2ec3 bfbe
00000220: d45f 043f b6a0 18be 5e61 973e 04ff f1be
00000230: d976 afbe b1e8 213f f453 033e 39d7 b53e
00000240: ecee 97be 44a7 5dbe 76fb bb3d 9183 813e
00000250: 9703 08be 2dd3 a43e a56e 9ebd b7a8 b8bd
00000260: fe66 b2be 493e 0cbf ad36 ccbd 02fa f2be
00000270: 9b04 edbe c86b 8a3e e0eb a1be 8b1b babd
00000280: 0d54 493d 7802 95be 3977 b8be fdd2 f23d
00000290: dc3a 333e a843 ea3d 106c df3d b47b 113e
000002a0: 843e 583e 66c1 d9be 5c6a 3ebe 5e96 5dbe
000002b0: 4d28 f4bc dc10 913d 3304 dc3c 4669 e73e
000002c0: f0fe 173e b296 a7bd b97c 3dbe 54be 3e3e
000002d0: 9067 c7be de1d 903d c312 903c 854f c93e
000002e0: bb91 e83e ed0f 2ebe c843 e93e 4a86 f73e
000002f0: bace d73e 4a80 5fbe ece3 0f3f 324c 8f3e
00000300: cd9b e1be 939b 833e 62de 893e 6327 313f
00000310: 4e85 2fbf 50e5 bd3d 5bbd e4be 9842 263e
00000320: 1ccc b23e 8cb7 e33e 76f0 dcbd d9ac 9b3d
00000330: 1656 9dbd d8fa dfbe 12b4 0fbc b846 853d
00000340: fe4f 6c3c 1d3f 02bf 3a01 ab3e 59e2 133f
00000350: 540e 1fbe b564 c23e 37e4 fdbe d1e5 51be
00000360: 873c cd3b e072 ecbe 118e 80be 1ab1 9c3e
00000370: a9d4 c13e 4824 a73d 5213 d13d c61d edbe
00000380: ba7a 703e ba4f 6fbd 711b a9be 2399 983d
00000390: 7cb7 3cbe cfb4 013e bf7b 8fbe fd20 de3e
000003a0: c073 81be 0da8 9bbe c5f9 07bf e932 df3e
000003b0: d912 b73d cdc8 ecbc efb1 553e 9260 c0be
000003c0: 8c86 f7be b633 02be 1488 67be b0c5 04bf
000003d0: 523f 14bf 7c99 de3e 45ab f8be c725 253e
000003e0: c3e3 8a3c 0974 0e3f 9a83 b2bd 1e32 7f3e
000003f0: 1340 9cbe d045 6a3e 8700 cc3e c35f 683f

VAE_Decoder.layers.1.linear0.bias f4 [128]
-0.38089454 -0.22179501 0.4952818 0.23582855 0.39155373 0.27972317 0.15943564 -0.19820857
-0.1475183 -0.29487836 -0.27679056 0.061648704 0.057880055 -0.30362785 0.0852588 0.4814929
-0.3100657 -0.23639503 0.44742167 -0.18045528 0.2581295 0.15926865 -0.32667208 -0.050605226
0.14212036 0.09245398 -0.16264969 0.31940928 0.54037845 -0.4551017 0.2750188 -0.0141868945
0.34374785 -0.12388861 0.3741564 0.4348771 0.4871144 0.044245187 0.2769817 0.2410795
0.38498658 -0.4660099 -0.03492559 0.46448132 0.091762476 -0.20005886 0.14235985 0.56626993
-0.15018764 -0.16084652 -0.013420529 0.35564724 0.12951176 -0.38738322 -0.5135066 0.012395569
-0.027520234 0.20132072 0.26450217 0.37837517 0.060882833 0.49245235 0.06113908 -0.045581553
-0.10498171 -0.4262877 -0.2049567 0.32800448 -0.2573879 0.08552342 0.14729893 0.11161178
-0.23554124 -0.009261008 -0.42280328 -0.3628792 0.34237197 -0.33203292 0.44058377 0.0053087543
-0.47116822 -0.3003046 -0.37171152 -0.33963034 0.16555211 -0.17809448 -0.2929862 0.17358136
0.2622042 0.2827589 0.4837751 0.32705757 0.14381838 0.15579608 -0.072566465 0.25799736
-0.11349975 0.014637856 -0.2703202 0.05866174 -0.39956477 -0.08788676 -0.20216247 -0.351083
0.19296807 0.16567536 0.12428669 0.14727889 -0.45752347 0.2234218 0.03475975 -0.05065398
0.17462106 -0.49638855 -0.5365234 -0.40235585 -0.17357112 -0.047105607 -0.51196027 0.4385574
0.3636037 -0.4446154 0.14571518 0.39309883 -0.28089258 0.27394295 -0.3234603 0.1828026
00000000: 9c04 c3be 3b1e 63be 9395 fd3e 0a7d 713e
00000010: bb79 c83e e037 8f3e 1943 233e 30f7 4abe
00000020: 0a0f 17be 4cfa 96be 7eb7 8dbe 5a83 7c3d
00000030: a313 6d3d 1c75 9bbe 2a9c ae3d 3d86 f63e
00000040: eec0 9ebe 8a11 72be 7414 e53e 45c9 38be
00000050: 8d29 843e 5217 233e 9041 a7be 6d47 4fbd
00000060: 0088 113e 8358 bd3d a48d 26be 9d89 a33e
00000070: 3e56 0a3f 1703 e9be 44cf 8c3e 2670 68bc
00000080: b8ff af3e 50b9 fdbd 6d91 bf3e 36a8 de3e
00000090: 0f67 f93e 713a 353d 8cd0 8d3e 8bdd 763e
000000a0: f61c c53e da98 eebe 230e 0fbd 7fd0 ed3e
000000b0: f7ed bb3d 3bdc 4cbe c8c6 113e 11f7 103f
000000c0: caca 19be f3b4 24be c7e1 5bbc 6517 b63e
000000d0: bb9e 043e 1857 c6be 2b75 03bf c916 4b3c
000000e0: 1d72 e1bc 0527 4e3e d46c 873e 64ba c13e
000000f0: 4760 793d b722 fc3e f96c 7a3d b9b3 3abd
00000100: a700 d7bd 6242 dabe 2be0 51be 34f0 a73e
00000110: 59c8 83be e726 af3d 88d5 163e b894 e43d
00000120: b931 71be 7cbb 17bc ac79 d8be 4dcb b9be
00000130: 614b af3e 3800 aabe 3294 e13e 0ff5 ad3b
00000140: f63c f1be 86c1 99be f950 bebe 07e4 adbe
00000150: 7e86 293e 665e 36be 4a02 96be 50bf 313e
00000160: a13f 863e c6c5 903e 5fb1 f73e 1774 a73e
00000170: 2045 133e 0289 1f3e ba9d 94bd 3b18 843e
00000180: 8f72 e8bd 9ed3 6f3c 6967 8abe 4b47 703d
00000190: c193 ccbe f9fd b3bd ae03 4fbe 27c1 b3be
000001a0: 6c99 453e cda6 293e 058a fe3d 47d0 163e
000001b0: 8440 eabe afc8 643e 3d60 0e3d 8c7a 4fbd
000001c0: ddcf 323e a426 febe 9959 09bf 9601 cebe
000001d0: a1bc 31be cff1 40bd d40f 03bf 988a e03e
000001e0: 442a ba3e a1a4 e3be 5c36 153e 4044 c93e
000001f0: 27d1 8fbe 4042 8c3e 979c a5be 9b30 3b3e

VAE_Decoder.layers.1.linear1.weight f4 [4, 128]
-0.046195067 -0.41432384 -0.052971862 -0.092878595 0.025708985 0.04671638 -0.020434927 -0.14401188
-0.09998491 -0.06858799 -0.021591472 -0.06037309 -0.038069945 0.0133129265 -0.11171075 0.043734312
0.011169177 0.034316193 -0.0051803165 0.04243157 0.21367869 0.05906955 -0.053407088 -0.14673463
0.08149505 -0.03938745 -0.029634187 -0.03881665 -0.01578238 0.08020421 -0.13187858 0.05602247
0.0070708836 0.09702566 0.050684765 -0.10606702 0.06724907 -0.098793335 0.16451108 -0.063945144
-0.02405488 0.049118884 -0.028339505 -0.08419291 0.05141142 -0.14728273 0.1557759 0.042781413
-0.089664534 -0.29979774 -0.029280452 0.06136446 0.07966946 0.04970412 -0.05996884 -0.094893225
0.068410516 -0.13459162 -0.10434653 0.012999807 -0.05053072 -0.13840538 -0.13994169 -0.16552521
-0.11219329 0.025724687 0.06288118 0.089511156 -0.017438056 0.023702271 -0.08472064 0.07980715
-0.06255284 0.13401689 0.05862669 0.13963442 -0.04545757 0.007105747 -0.15361501 0.1823354
-0.1078634 -0.06387381 0.038684554 0.022595698 0.010001327 0.41865423 0.060079828 0.0007102874
0.16310988 -0.0459254 0.116606586 0.06462642 0.18118602 -0.037516475 -0.15295126 0.041077863
0.1928075 -0.09225422 0.0017188634 -0.0066239866 -0.12776804 0.08795179 -0.13037428 0.055404887
-0.038773075 -0.09494609 -0.01927493 -0.060450245 -0.01039776 0.017722873 -0.025242629 0.03334694
-0.121563554 -0.06787333 -0.085802615 0.072647355 0.07984859 0.080193155 -0.9717766 0.101777524
0.099128544 0.099213 0.03707448 0.044769354 -0.13356496 0.12534042 0.17626554 0.16965535
-0.08157604 -0.36703596 0.012694452 0.016007004 0.033939987 -0.040931333 -0.05994603 -0.0937446
0.0013367875 -0.0083840005 0.014937212 0.025048278 0.017932767 0.0063261366 -0.0030952864 -0.075208634
-0.07987625 0.0354772 -0.046070147 0.06949426 0.048244502 0.10909855 0.030002661 -0.0030798083
0.0956902 0.05053028 0.076139495 -0.013407386 0.0273419 -0.063641995 0.038544446 -0.06041158
-0.075521655 -0.06315567 0.03265625 -0.07322853 -0.08632202 0.04393688 0.08894557 0.018511396
0.07065857 -0.06906484 0.078924395 0.046495054 -0.021607514 0.050246414 0.0099726645 0.06813154
0.09316194 -0.023367614 -0.04625947 -0.044408236 0.027689656 -0.027929738 0.055776328 0.011914856
0.0735658 -0.10028477 -0.06331791 0.05218784 -0.10498664 0.04926744 -0.0927754 -0.0466133
-0.10973975 -0.00022793548 0.015158292 0.034706425 0.039808165 0.008296613 -0.058756 0.05434178
-0.01659785 -0.09471994 -0.043774363 0.10404595 0.029735876 -0.024360755 -0.051482994 0.0482748
-0.045778565 0.008346639 0.07126361 0.02813922 0.053021085 -0.17282052 -0.03508256 0.012832466
0.05226666 0.06712707 -0.05695426 -0.021079706 -0.007991787 -0.056201812 0.011185014 0.04256429
-0.0039080307 0.050473176 0.054158483 -0.026556674 -0.04843494 0.057994228 -0.05203149 0.0018599512
0.005551803 -0.040885996 0.052343745 0.060783297 0.024501665 -0.051040486 0.005409317 0.06433575
-0.025419934 -0.004478366 0.0034038099 -0.09204266 0.03588322 0.071765505 -0.80815136 -0.02907128
0.06626297 0.010644993 0.09344203 -0.06309262 -0.049976606 0.07109861 0.1002778 0.039539345
00000000: 0a37 3dbd 4122 d4be 06f9 58bd 2237 bebd
00000010: a69b d23c ad59 3f3d 2667 a7bc da77 13be
00000020: e3c4 ccbd dc77 8cbd 99e0 b0bc c649 77bd
00000030: 3bef 1bbd 761e 5a3c 9bc8 e4bd c022 333d
00000040: ecfe 363c 238f 0c3d a5bf a9bb bacc 2d3d
00000050: 96ce 5a3e eaf2 713d 64c1 5abd 9a41 16be
00000060: e0e6 a63d bc54 21bd 65c3 f2bc 35fe 1ebd
00000070: 0d4a 81bc 1b42 a43d 2e0b 07be d177 653d
00000080: dfb2 e73b 64b5 c63d d49a 4f3d aa39 d9bd
00000090: e1b9 893d 2954 cabd 9875 283e acf5 82bd
000000a0: bd0e c5bc e230 493d 4028 e8bc 556d acbd
000000b0: c894 523d 49d1 16be b883 1f3e 903b 2f3d
000000c0: 0aa2 b7bd 177f 99be 8fdd efbc 4d59 7b3d
000000d0: be29 a33d 8c96 4b3d e3a1 75bd 6157 c2bd
000000e0: d01a 8c3d 63d2 09be a2b3 d5bd 24fd 543c
000000f0: 4df9 4ebd 24ba 0dbe e04c 0fbe 717f 29be
00000100: 98c5 e5bd 94bc d23c d9c7 803d a051 b73d
00000110: 41da 8ebc 442b c23c 0482 adbd ee71 a33d
00000120: b41b 80bd b93b 093e 8a22 703d 53fc 0e3e
00000130: b831 3abd 53d7 e83b 414d 1dbe 22b6 3a3e
00000140: 7ce7 dcbd 46d0 82bd b273 1e3d 9d1a b93c
00000150: 9bdc 233c d959 d63e 4416 763d 9532 3a3a
00000160: 4706 273e 461c 3cbd 6fcf ee3d db5a 843d
00000170: d488 393e e0aa 19bd 419f 1cbe 4341 283d
00000180: 546f 453e c8ef bcbd 7c4b e13a 070e d9bb
00000190: a0d5 02be 1120 b43d d680 05be 3cf0 623d
000001a0: 84d0 1ebd 1873 c2bd 75e6 9dbc ad9a 77bd
000001b0: 5e5b 2abc 8f2f 913c a1c9 cebc cd96 083d
000001c0: 50f6 f8bd 2c01 8bbd 48b9 afbd 23c8 943d
000001d0: a887 a33d 4f3c a43d 5ac6 78bf bc70 d03d
000001e0: e803 cb3d 2f30 cb3d 69db 173d 1260 373d
000001f0: 41c5 08be 3d59 003e f47e 343e 22ba 2d3e
00000200: 5711 a7bd 23ec bbbe 64fc 4f3c 1f21 833c
00000210: a804 0b3d 9da7 27bd f889 75bd 2bfd bfbd
00000220: 2537 af3a 0c5d 09bc 35bb 743c 0c32 cd3c
00000230: bde7 923c 7b4b cf3b 4ada 4abb fc06 9abd
00000240: 2996 a3bd 8a50 113d 0db4 3cbd 0253 8e3d
00000250: 079c 453d 106f df3d 24c8 f53c 9cd6 49bb
00000260: 39f9 c33d d7f8 4e3d 06ef 9b3d a7aa 5bbc
00000270: 1ffc df3c bc56 82bd c8e0 1d3d 2272 77bd
00000280: 19ab 9abd c357 81bd 8fc2 053d d7f8 95bd
00000290: 99c9 b0bd 28f7 333d 1829 b63d 36a5 973c
000002a0: 71b5 903d de71 8dbd 1da3 a13d 9971 3e3d
000002b0: 3e02 b1bc 2fcf 4d3d 6364 233c 8d88 8b3d
000002c0: b0cb be3d 706d bfbc 927a 3dbd 69e5 35bd
000002d0: 6bd5 e23c e8cc e4bc b875 643d 8736 433c
000002e0: aba9 963d 1a62 cdbd d2ac 81bd ebc2 553d
000002f0: 3c03 d7bd a8cc 493d 0701 bebd 96ed 3ebd
00000300: 3cbf e0bd f701 6fb9 7c5a 783c 5328 0e3d
00000310: e30d 233d 84ee 073c 22aa 70bd 7c95 5e3d
00000320: 37f8 87bc 87fc c1bd bf4c 33bd 0b16 d53d
00000330: a798 f33c 3590 c7bc d5df 52bd ccbb 453d
00000340: 4e82 3bbd 57c0 083c a8f2 913d 3984 e63c
00000350: a32c 593d ddf7 30be bbb2 0fbd 433f 523c
00000360: 9115 563d eb79 893d df48 69bd 59af acbc
00000370: fcef 02bc df33 66bd 5941 373c e557 2e3d
00000380: f00e 80bb f6bc 4e3d 49d5 5d3d 628d d9bc
00000390: b763 46bd 5b8b 6d3d f91e 55bd 9bc9 f33a
000003a0: e6eb b53b 1378 27bd 6566 563d e8f7 783d
000003b0: b7b7 c83c d40f 51bd a440 b13b 76c2 833d
000003c0: 773d d0bc 42bf 92bb 7412 5f3b dd80 bcbd
000003d0: 49fa 123d cbf9 923d 02e3 4ebf e526 eebc
000003e0: e1b4 873d 5668 2e3c 895e bf3d b436 81bd
000003f0: 45b4 4cbd 269c 913d 725e cd3d 02f4 213d

VAE_Decoder.layers.1.linear1.bias f4 [4]
-0.0073103784 -0.026025157 -0.022809027 0.0860006
00000000: e68b efbb b632 d5bc ffd9 babc 1521 b03d

VAE_Decoder.layers.1.norm1.weight f4 [4]
1.2196654 1.2953146 1.1103786 1.218347
00000000: ff1d 9c3f decc a53f e320 8e3f cbf2 9b3f

VAE_Decoder.layers.1.norm1.bias f4 [4]
-0.12766165 0.0043966793 0.11234437 0.08909186
00000000: bcb9 02be 0512 903b ce14 e63d cb75 b63d

VAE_Decoder.layers.1.norm0.weight f4 [4]
1.005419 0.91328514 0.92202556 1.2844211
00000000: 92b1 803f 0ecd 693f de09 6c3f e967 a43f

VAE_Decoder.layers.1.norm0.bias f4 [4]
-0.0057188706 -0.00030139883 -0.0056700306 -0.061063014
00000000: 5d65 bbbb 1105 9eb9 aacb b9bb 361d 7abd

VAE_Decoder.last_normalization.weight f4 [4]
1.0 1.0 1.0 1.0
00000000: 0000 803f 0000 803f 0000 803f 0000 803f

VAE_Decoder.last_normalization.bias f4 [4]
0.0 0.0 0.0 0.0
00000000: 0000 0000 0000 0000 0000 0000 0000 0000

VAE_Decoder.head.weight f4 [4, 4]
-0.08917856 -0.07336801 -0.007436931 -0.29117012 0.28535658 -0.009629309 0.0018713474 0.13716704
-0.05199182 0.08331406 -0.23968822 -0.36782098 0.4704392 -0.10318798 -0.120398164 -0.39405674
00000000: 40a3 b6bd f841 96bd 80b1 f3bb 4014 95be
00000010: 421a 923e 40c4 1dbc 0048 f53a 8475 0c3e
00000020: 60f5 54bd 90a0 aa3d d470 75be 0853 bcbe
00000030: 68dd f03e 3854 d3bd 5093 f6bd cec1 c9be

VAE_Decoder.head.bias f4 [4]
0.15758383 -0.038018167 -0.21116787 -0.45890617
00000000: a85d 213e f0b8 1bbd 643c 58be c0f5 eabe

Detokenizer.weight f4 [8, 4]
-0.11321187 0.50415283 -0.3513971 0.18008983 -0.13660547 0.3183103 -0.6417011 -0.18966725
0.09009567 0.012185212 -0.21256784 -0.51228446 -0.15824331 -0.03150265 -0.41215962 0.30859593
-0.2902157 -0.46552718 0.50130033 -0.2966917 0.24572957 0.24302778 0.14053188 -0.34629253
-0.32615107 -0.4339539 0.5501964 -0.36349162 -0.32202032 -0.24837735 -0.4602634 -0.13593678
00000000: a0db e7bd 2910 013f 52ea b3be 7869 383e
00000010: 4ee2 0bbe 91f9 a23e 8646 24bf 2238 42be
00000020: 1484 b83d 7ca4 473c 62ab 59be 1325 03bf
00000030: 890a 22be ec08 01bd 9606 d3be 4900 9e3e
00000040: 2797 94be 9459 eebe 3855 003f f9e7 97be
00000050: 88a0 7b3e 46dc 783e 97e7 0f3e 414d b1be
00000060: 46fd a6be 352f debe acd9 0c3f 931b babe
00000070: d9df a4be a256 7ebe a5a7 ebbe 0333 0bbe

Detokenizer.cat_recons.0.weight f4 [3, 4]
0.51872987 -0.45121092 0.56963253 -0.4534913 -0.7162385 0.047704015 -0.77163506 -0.58114046
-0.43970788 0.32625952 0.15620975 0.08327573
00000000: 7bcb 043f 1e05 e7be 70d3 113f 0330 e8be
00000010: 685b 37bf 4965 433d e089 45bf 9fc5 14bf
00000020: 6421 e1be 7d0b a73e 73f5 1f3e 778c aa3d

Detokenizer.cat_recons.0.bias f4 [3]
-0.2409808 0.16591467 -0.02172967
00000000: acc3 76be 89e5 293e 6c02 b2bc
