tabsyn/vae/ckpt/abalone/decoder.pt (torch, 21491 bytes, 33 tensors)

VAE_Decoder.layers.0.attention.W_q.weight f4 [4, 4]
-0.16435193 0.23456275 0.04498012 -0.3704381 0.1072782 -0.22842082 0.4874814 0.11777875
0.4414635 0.24571241 -0.0711406 0.17915942 0.0072790314 0.2773187 -0.3167414 -0.061582554
00000000: df4b 28be 3831 703e 133d 383d 10aa bdbe
00000010: acb4 db3d 26e7 69be 2997 f93e fc35 f13d
00000020: 8107 e23e 099c 7b3e 2ab2 91bd 9175 373e
00000030: f184 ee3b b7fc 8d3e ee2b a2be fd3d 7cbd

VAE_Decoder.layers.0.attention.W_q.bias f4 [4]
-0.15264826 -0.047209725 0.013319554 -0.14043505
00000000: d34f 1cbe fc5e 41bd 423a 5a3c 35ce 0fbe

VAE_Decoder.layers.0.attention.W_k.weight f4 [4, 4]
0.009860179 -0.2508039 -0.58220047 -0.37260205 -0.3906579 0.33770964 -0.15067866 0.45905122
0.12534001 0.2884992 -0.17461936 -0.47929674 -0.2875774 -0.29894894 -0.32612437 -0.44145042
00000000: 978c 213c 5e69 80be 170b 15bf b2c5 bebe
00000010: 5004 c8be 47e8 ac3e 824b 1abe c308 eb3e
00000020: 2259 003e 2bb6 933e 6bcf 32be 6266 f5be
00000030: 583d 93be d60f 99be c6f9 a6be ca05 e2be

VAE_Decoder.layers.0.attention.W_k.bias f4 [4]
0.00021318214 -0.00040326855 4.3087657e-05 0.00042692907
00000000: a589 5f39 ca6d d3b9 05b9 3438 73d5 df39

VAE_Decoder.layers.0.attention.W_v.weight f4 [4, 4]
-0.08661859 0.08002816 0.050335914 -0.42243585 0.00069864484 -0.39861646 -0.4388202 0.29721636
-0.34427437 0.12080397 0.2683764 0.48274586 0.022488244 -0.33579215 -0.014384413 0.32239407
00000000: 1665 b1bd cee5 a33d 082d 4e3d 8349 d8be
00000010: 4325 373a 7517 ccbe 0bad e0be be2c 983e
00000020: bb44 b0be 1268 f73d a268 893e 772a f73e
00000030: 4439 b83c f3ec abbe 9aac 6bbc d610 a53e

VAE_Decoder.layers.0.attention.W_v.bias f4 [4]
0.06670618 0.014268174 0.052480128 -0.044641163
00000000: 409d 883d 0fc5 693c 67f5 563d a7d9 36bd

VAE_Decoder.layers.0.linear0.weight f4 [128, 4]
0.17450029 0.28170848 -0.5047558 -0.47126687 0.36354378 0.4896671 -0.0934077 -0.28810143
-0.11827487 -0.24113195 -0.38736218 -0.2061878 0.0058948346 0.17625782 -0.38000917 -0.4020296
-0.54122347 0.5376402 -0.44727552 0.09064947 0.544797 -0.24644679 -0.10362317 -0.008155996
-0.091533855 -0.18567622 0.48109686 -0.20424306 -0.39306185 0.010353955 -0.12019922 0.5266607
0.4426654 -0.49217755 -0.29122096 -0.49710804 0.35003966 0.1952994 0.0051853675 -0.4216232
0.508307 0.07270901 0.24341659 0.39421242 -0.047021057 0.4031242 -0.41790524 -0.42273092
0.14792195 0.12711205 -0.1680058 0.12582865 -0.4362377 -0.23444363 0.26514354 -0.37539393
-0.30371237 -0.27169818 0.47188234 0.39220467 0.45740786 0.07176798 -0.36895815 -0.2767037
-0.011804484 -0.26765606 0.5298183 0.3180119 0.21109611 -0.1330392 0.38793206 -0.09220853
-0.24153644 -0.25671145 -0.14200588 0.41288188 -0.52630496 0.39549989 -0.33903414 -0.14957994
-0.35363296 -0.09261836 -0.37624854 -0.5062226 -0.017733235 -0.099411465 -0.21675877 -0.02048196
0.31126612 0.24080954 0.51904136 -0.28545892 -0.23945783 0.13848644 0.42464325 -0.12641601
0.13233165 0.19197734 0.26519477 -0.21943486 0.12950133 0.2236998 -0.21994016 -0.101278745
0.121836394 0.18760073 -0.27404615 0.3604089 -0.67270225 -0.4895633 0.32178915 0.22034506
-0.35120147 0.1010876 -0.1355803 -0.049259327 -0.24287672 -0.068952255 0.25723207 -0.4501677
0.110809356 0.24366932 0.21484405 0.33469838 -0.028618744 -0.5322587 0.45736265 0.024039062
-0.122308984 0.22384727 0.23061153 0.28928176 0.16185364 -0.089428715 0.16673644 -0.17785293
0.08952941 -0.3917905 -0.104655825 0.02862483 0.3234226 -0.33695835 0.3985953 0.3614602
-0.015205747 0.1759982 0.35928375 0.019705834 0.035458423 0.045514457 -0.22740929 -0.27154964
0.35223496 0.5098793 -0.3172063 0.17344874 -0.23349792 0.043660283 0.07391177 0.5061193
0.03715184 0.04949832 -0.20642255 -0.27411482 -0.37467664 -0.32861084 0.11258165 0.3535811
0.52125794 -0.42385328 0.1047755 -0.042796716 -0.40112922 -0.13230638 -0.038077135 0.042805284
-0.39427015 0.22057877 -0.55656564 0.09863309 -0.18914035 -0.4337148 -0.26674822 0.429891
-0.14184564 -0.30228403 -0.47115567 -0.09115825 0.2572891 -0.30561012 0.12753384 0.31486347
0.5218306 0.06422836 0.4337161 0.43749335 -0.3624937 0.44464746 0.4808669 0.47413927
0.036581967 0.33762464 0.4324614 0.15473594 -0.18985608 -0.4829189 -0.431865 0.5582051
0.52912796 -0.19502562 -0.009102158 -0.28896886 0.52360266 0.15370432 -0.34021422 -0.2093109
-0.52862734 -0.096078016 0.3996136 -0.29435948 -0.36474642 0.054110914 0.038360532 -0.49381575
-0.18276824 -0.19396731 0.28914577 0.38838944 -0.14755526 -0.08354105 -0.45129126 0.54854655
0.15552352 -0.025426468 -0.3389829 -0.055296354 -0.40166116 0.51033336 -0.42092782 -0.5309872
-0.44545454 0.040311087 0.31415588 0.2670275 0.36733365 0.030803861 -0.52234435 -0.08585311
0.39716405 -0.3613929 0.09211261 -0.42160517 -0.48517314 0.00990324 0.52618194 0.3326924
00000000: 34b0 323e 183c 903e ad37 01bf e449 f1be
00000010: 6922 ba3e a5b5 fa3e 894c bfbd 0882 93be
00000020: 183a f2bd 4beb 76be 5654 c6be e522 53be
00000030: 7529 c13b ee7c 343e 9090 c2be d3d6 cdbe
00000040: 9f8d 0abf caa2 093f 4c01 e5be 6ea6 b93d
00000050: d177 0b3f 8c5c 7cbe 6238 d4bd baa0 05bc
00000060: 1a76 bbbd e821 3ebe 5452 f63e 1825 51be
00000070: 673f c9be a3a3 293c 022b f6bd 3cd3 063f
00000080: 0aa5 e23e b2fe fbbe ea1a 95be f284 febe
00000090: 6638 b33e 91fc 473e 04ea a93b ffde d7be
000000a0: 6820 023f 76e8 943d 3342 793e 36d6 c93e
000000b0: 2799 40bd 4c66 ce3e adf7 d5be 3070 d8be
000000c0: da78 173e a929 023e b609 2cbe 3ad9 003e
000000d0: 8c5a dfbe fe11 70be e5c0 873e a233 c0be
000000e0: 3080 9bbe 061c 8bbe 909a f13e 0dcf c83e
000000f0: 5d31 ea3e 17fb 923d 15e8 bcbe 1bac 8dbe
00000100: 9867 41bc 370a 89be 2ca2 073f 75d2 a23e
00000110: 9429 583e 6e3b 08be 089f c63e d3d7 bcbd
00000120: 5455 77be af6f 83be fd69 11be 4165 d33e
00000130: ecbb 06bf f67e ca3e e295 adbe 7c2b 19be
00000140: 610f b5be b2ae bdbd a6a3 c0be ce97 01bf
00000150: 4a45 91bc 3d98 cbbd 03f6 5dbe c9c9 a7bc
00000160: 465e 9f3e c796 763e e5df 043f ac27 92be
00000170: 6f34 75be 64cf 0d3e d76a d93e 3373 01be
00000180: f381 073e b595 443e 9cc7 873e 88b3 60be
00000190: ff9b 043e 8f11 653e fe37 61be 3b6b cfbd
000001a0: 5c85 f93d 681a 403e c74f 8cbe 8487 b83e
000001b0: 3736 2cbf 0aa8 fabe 8cc1 a43e 23a2 613e
000001c0: aed0 b3be 0407 cf3d 90d5 0abe 26c4 49bd
000001d0: adb4 78be d736 8dbd ecb3 833e 617c e6be
000001e0: 04f0 e23d 7384 793e 1400 5c3e 965d ab3e
000001f0: db71 eabc 1b42 08bf 702b ea3e 91ed c43c
00000200: 227d fabd 3838 653e 6e25 6c3e bd1c 943e
00000210: f6bc 253e 6726 b7bd f5bc 2a3e 141f 36be
00000220: 325b b73d c498 c8be cb55 d6bd 9f7e ea3c
00000230: a697 a53e ce85 acbe af14 cc3e 5011 b93e
00000240: 8721 79bc df38 343e 0af4 b73e 216e a13c
00000250: da3c 113d 5e6d 3a3d fbdd 68be 8e08 8bbe
00000260: 2458 b43e 7387 023f dd68 a2be 8c9c 313e
00000270: 141a 6fbe 20d5 323d 0e5f 973d 0991 013f
00000280: 872c 183d c0be 4a3d 6f60 53be c758 8cbe
00000290: 9ed5 bfbe ae3f a8be 3591 e63d 9508 b53e
000002a0: 2971 053f 4c03 d9be 8a94 d63d 9c4b 2fbd
000002b0: cf60 cdbe 537b 07be c5f6 1bbd 9854 2f3d
000002c0: c7dd c9be 67df 613e 167b 0ebf 2500 ca3d
000002d0: 02ae 41be de0f debe 3993 88be ac1a dc3e
000002e0: fc3f 11be f9c4 9abe 513b f1be 2db1 babd
000002f0: 66bb 833e ee78 9cbe 3b98 023e c935 a13e
00000300: b196 053f 298a 833d 0910 de3e 21ff df3e
00000310: c698 b9be d5a8 e33e 3034 f63e 62c2 f23e
00000320: f9d6 153d 23dd ac3e 956b dd3e 1973 1e3e
00000330: a269 42be 2541 f7be 691d ddbe 88e6 0e3f
00000340: ee74 073f ccb4 47be 3821 15bc baf3 93be
00000350: d30a 063f aa64 1d3e 8f30 aebe 9955 56be
00000360: 1f54 07bf 8dc4 c4bd 279a cc3e 49b6 96be
00000370: 0bc0 babe 68a3 5d3d ef1f 1d3d 6bd5 fcbe
00000380: 9927 3bbe 5e9f 46be ea0a 943e fbda c63e
00000390: ba18 17be 9217 abbd a60f e7be 8c6d 0c3f
000003a0: 8f41 1f3e 2b4b d0bc 2b8f adbe 6e7e 62bd
000003b0: 88a6 cdbe 35a5 023f da83 d7be c7ee 07bf
000003c0: 9e12 e4be 3d1d 253d 0ad9 a03e d4b7 883e
000003d0: 2813 bc3e 6158 fc3c 5cb8 05bf c1d3 afbd
000003e0: 1659 cb3e 7d08 b9be 89a5 bc3d a2dc d7be
000003f0: 9d68 f8be 3341 223c dcb3 063f a956 aa3e

VAE_Decoder.layers.0.linear0.bias f4 [128]
-0.4283067 -0.20003347 0.2938299 0.5520327 -0.04790198 -0.05973221 0.45341495 -0.14239226
-0.054468337 0.04572881 -0.1259897 0.33878586 0.420233 -0.27766082 0.0686087 0.06831798
-0.17876755 0.42149156 -0.20563655 -0.29397532 0.46673808 0.5193551 -0.024420448 0.39034596
-0.4816061 0.42095327 -0.22655232 -0.20552425 0.04826694 0.10670233 0.23806404 0.5400064
0.05178829 -0.17584608 0.4517515 -0.41467908 0.12321009 -0.19686331 0.16387397 0.03557441
0.08660785 0.00041754756 0.3359283 0.15250649 -0.08976024 0.018098077 0.4918245 0.007900149
-0.115812644 -0.03180557 0.44415268 0.214829 0.21327798 -0.423291 -0.25285804 -0.5409714
0.07944493 0.056832183 -0.1843189 0.5960389 -0.28563905 0.39945808 0.41007066 -0.19672614
-0.22308834 -0.3284373 -0.023924518 -0.4548128 0.3468369 -0.15737385 0.50455785 -0.06354746
0.23483092 -0.2486316 -0.3682755 0.4057526 -0.13750382 0.038031284 -0.004601986 -0.090468936
-0.10746078 -0.12650909 0.13483904 -0.007070401 -0.034370173 -0.40915057 0.22250447 0.11284585
-0.17805286 0.4168979 -0.0925564 -0.13140585 0.08995279 -0.37013727 0.22345148 0.15896879
-0.09206316 -0.08321038 0.41507086 -0.38400394 0.45022038 -0.07564361 -0.34908798 0.061467156
-0.41419235 0.32981926 0.41363972 0.05694413 0.16634826 0.41999912 -0.060332373 -0.24313101
0.19393602 -0.10620954 0.46800777 0.242652 0.20700851 0.17780507 0.16636777 0.28444672
0.3364425 -0.027253473 -0.22776324 0.29702258 0.14506967 -0.13011819 -0.03628791 0.1268286
00000000: 044b dbbe 93d5 4cbe df70 963e 0452 0d3f
00000010: de34 44bd c3a9 74bd 0126 e83e 47cf 11be
00000020: 311a 5fbd 224e 3b3d 7203 01be 5775 ad3e
00000030: c828 d73e 8f29 8ebe b882 8c3d 4cea 8b3d
00000040: d70e 37be becd d73e 6392 52be ef83 96be
00000050: 4bf8 ee3e 75f4 043f 640d c8bc 6ddb c73e
00000060: 1395 f6be 3087 d73e 55fd 67be f374 52be
00000070: 8eb3 453d c086 da3d 0fc7 733e dc3d 0a3f
00000080: f51f 543d ff10 34be f94b e73e d150 d4be
00000090: 9255 fc3d 8996 49be 94ce 273e 79b6 113d
000000a0: 755f b13d 49ea da39 cbfe ab3e a92a 1c3e
000000b0: 37d4 b7bd 6b42 943c 6cd0 fb3e a06f 013c
000000c0: 2e2f edbd 8f46 02bd fb67 e33e 22fc 5b3e
000000d0: 8b65 5a3e 99b9 d8be 9c76 81be 1a7d 0abf
000000e0: 06b4 a23d ddc8 683d 18be 3cbe 0196 183f
000000f0: 483f 92be c585 cc3e c8f4 d13e 9472 49be
00000100: 4571 64be ef28 a8be 5afd c3bc 39dd e8be
00000110: 9b94 b13e 9c26 21be b42a 013f 2c25 82bd
00000120: 8477 703e 4899 7ebe 9b8e bcbe cebe cf3e
00000130: cdcd 0cbe b1c6 1b3d 42cc 96bb c747 b9bd
00000140: 6614 dcbd 998b 01be 3f13 0a3e d3ae e7bb
00000150: bdc7 0cbd 2f7c d1be 36d8 633e ba1b e73d
00000160: 7d53 36be a473 d53e 368e bdbd 418f 06be
00000170: 2b39 b83d a282 bdbe 77d0 643e b7c8 223e
00000180: 9c8b bcbd 346a aabd 2b84 d43e 2a9c c4be
00000190: 4983 e63e 09eb 9abd a9bb b2be fcc4 7b3d
000001a0: 0511 d4be 12de a83e 96c8 d33e 403e 693d
000001b0: 3357 2a3e 200a d73e 141f 77bd 56f7 78be
000001c0: 2a97 463e 6384 d9bd b79e ef3e c479 783e
000001d0: 0afa 533e 8812 363e 505c 2a3e 00a3 913e
000001e0: 3142 ac3e ad42 dfbc c43a 69be 5813 983e
000001f0: 258d 143e b43d 05be a2a2 14bd 5bdf 013e

VAE_Decoder.layers.0.linear1.weight f4 [4, 128]
0.1834652 0.13782685 0.07883513 0.00063177664 -0.097484544 0.21796083 -0.09035873 -0.098741025
0.09919076 -0.014140928 0.26651588 -0.016789608 0.015113288 -0.01672072 0.008424186 0.0811892
-0.017503288 0.08988223 0.058979426 -0.38563466 0.07947457 0.04229094 -0.00649178 -0.014821653
-0.03904095 -0.0028601687 -0.058380425 -0.06072619 0.008974462 -0.09432762 -0.12598224 -0.06714774
-0.003920746 -0.002962377 0.046932194 -0.004210821 -0.027252419 0.03422833 0.07526919 -0.1795101
-0.02960028 -0.038703658 0.07778112 -0.050128575 -0.10875337 -0.07880128 0.02231925 -0.09695008
0.026775314 -0.17348647 -0.058831666 0.022372577 0.08393171 0.04331883 -0.04014791 -0.01698035
0.02590494 -0.09463091 0.16047964 -0.0014484137 -0.10562929 0.12803143 0.062468242 -0.17122091
0.028621092 -0.08453617 -0.10744619 0.015395189 0.006344149 -0.20129672 0.017036749 -0.022664221
0.0944847 -0.017624253 0.043601397 0.14191811 -0.11090468 -0.22109482 0.0040328284 -0.09378491
0.09925567 0.07561146 -0.16436434 -0.047024623 -0.0046551307 0.07523954 -0.03787935 -0.09844262
0.1921306 -0.03819385 -0.09609776 0.08520639 0.04869509 -0.07710983 -0.020742256 0.1334923
-0.00021880679 0.07519751 -0.0010948642 -0.24055277 0.06983096 0.10721253 -0.23545805 0.079125576
-0.14973037 -0.050374884 0.08082675 0.07642182 0.1003745 -0.016208328 0.056295745 0.1035628
-0.07266124 -0.09428932 -0.04152367 -0.24626352 0.018904092 -0.08181458 0.039411437 -0.073849596
-0.06269534 0.063000545 0.049580056 -0.041928716 -0.020337947 -0.15779465 0.04438542 0.13953523
-0.0032722626 -0.0044292747 0.017671037 0.054824162 0.078302585 -0.024614118 0.04485198 -0.049418494
0.021846099 0.06687789 -0.057635337 0.13730842 -0.028418187 0.058167364 -0.101316445 0.110813506
-0.05029885 -0.007981418 -0.053291008 0.44727227 0.036824573 0.09042455 0.013042925 -0.0061668837
-0.0043260674 0.03194876 -0.025034709 -0.058724813 0.005408635 -0.05892911 0.03851944 -0.035455987
0.002541049 -0.038691666 0.06276293 0.023649013 0.003195494 -0.0067166635 0.08854495 -0.0957013
0.020040607 -0.11295855 0.023133473 -0.05654913 0.011004792 -0.08005204 0.040793777 -0.06066241
0.023220882 0.0007178939 0.024477476 -0.08924217 0.11477879 0.037178073 0.01306318 -0.19038123
-0.013272661 -0.026987895 -0.026347687 0.09646728 -0.04153681 0.0845537 -0.00493711 -0.04422569
0.048992574 0.009748246 0.14353219 -0.00999345 0.04688892 0.02473919 0.055777878 0.045612298
-0.030724097 -0.014346948 -0.29925966 0.053068172 0.068189755 -0.008853461 0.04770474 -0.1508229
-0.04824117 0.0041321185 0.07792731 -0.06605729 0.08030674 -0.07905173 -0.023194075 -0.07008069
0.11360552 -0.013743009 0.038022347 0.030641446 -0.0064485464 -0.048192594 -0.047874328 0.052110255
0.013998907 0.052465193 0.06306752 0.0108441245 0.09751943 0.09533855 0.1299593 0.08884701
0.06644265 0.08117866 0.10866774 0.057174068 0.098655365 -0.09343497 -0.033955213 0.11552269
-0.01919738 -0.18346575 -0.016986726 0.015924752 0.019428946 0.004729796 -0.087791875 -0.14699554
0.09090329 0.10581275 -0.060858097 -0.039833616 0.019471696 0.08553521 -0.05402467 0.03013609
00000000: 4dde 3b3e 7b22 0d3e 5074 a13d d09d 253a
00000010: faa5 c7bd 2031 5f3e ff0d b9bd bc38 cabd
00000020: 8624 cb3d 5aaf 67bc c574 883e 5c8a 89bc
00000030: b99d 773c e4f9 88bc 9905 0a3c 8646 a63d
00000040: 0e63 8fbc 2d14 b83d 6994 713d e871 c5be
00000050: 90c3 a23d 4439 2d3d ffb8 d4bb 85d6 72bc
00000060: 67e9 1fbd ab71 3bbb 5020 6fbd 07bc 78bd
00000070: 9f09 133c d72e c1bd 7d01 01be c184 89bd
00000080: 9a79 80bb 7024 42bb f93b 403d edfa 89bb
00000090: 7740 dfbc 0133 0c3d bc26 9a3d 7fd1 37be
000000a0: 497c f2bc ba87 1ebd b54b 9f3d 9f53 4dbd
000000b0: 16ba debd 9162 a1bd dcd6 b63c c38d c6bd
000000c0: e757 db3c 70a6 31be 79f9 70bd b246 b73c
000000d0: 63e4 ab3d 166f 313d 2372 24bd 601a 8bbc
000000e0: 9936 d43c dacd c1bd c654 243e b3d8 bdba
000000f0: 2b54 d8bd ac1a 033e b3de 7f3d 8954 2fbe
00000100: c876 ea3c 4d21 adbd c00c dcbd 1a3c 7c3c
00000110: 94e2 cf3b ba20 4ebe a790 8b3c 51aa b9bc
00000120: 3281 c13d bd60 90bc 6197 323d fb52 113e
00000130: fe21 e3bd ae66 62be d125 843b 4e12 c0bd
00000140: 8f46 cb3d 2eda 9a3d 204f 28be e49c 40bd
00000150: 118a 98bb 3017 9a3d 6127 1bbd 499c c9bd
00000160: e2bd 443e 2871 1cbd e7ce c4bd b080 ae3d
00000170: 8174 473d c2eb 9dbd aaeb a9bc 35b2 083e
00000180: 806f 65b9 2701 9a3d 8c81 8fba 7753 76be
00000190: 8903 8f3d 3e92 db3d ea1b 71be 970c a23d
000001a0: eb52 19be e555 4ebd 7f88 a53d 0b83 9c3d
000001b0: 2591 cd3d 54c7 84bc 5e96 663d bc18 d43d
000001c0: 6bcf 94bd c21a c1bd b914 2abd 812c 7cbe
000001d0: c1dc 9a3c 678e a7bd e36d 213d 753e 97bd
000001e0: 6a66 80bd 6e06 813d 7514 4b3d 72bd 2bbd
000001f0: c49b a6bc ec94 21be 7ccd 353d 53e2 0e3e
00000200: 7573 56bb 7323 91bb dac2 903c 4d8f 603d
00000210: 1b5d a03d 8ca3 c9bc b6b6 373d 0c6b 4abd
00000220: 97f6 b23c 46f7 883d 0813 6cbd 949a 0c3e
00000230: 42cd e8bc e740 6e3d ff7e cfbd 31f2 e23d
00000240: 2b06 4ebd 7ec4 02bc ac47 5abd df00 e53e
00000250: 5dd5 163d 8230 b93d feb1 553c 9213 cabb
00000260: afc1 8dbb b4dc 023d 9715 cdbc 6e89 70bd
00000270: eb3a b13b a75f 71bd 8fc6 1d3d 4c3a 11bd
00000280: ba87 263b 277b 1ebd da89 803d 93bb c13c
00000290: 7e6b 513b 7517 dcbb 0e57 b53d 0bff c3bd
000002a0: 332c a43c d056 e7bd 6982 bd3c 0fa0 67bd
000002b0: 714d 343c 53f2 a3bd 6017 273d 2679 78bd
000002c0: b839 be3c 0b31 3c3a fd84 c83c 99c4 b6bd
000002d0: 2411 eb3d 0948 183d f306 563c 4cf3 42be
000002e0: 9375 59bc b815 ddbc 1bd7 d7bc a390 c53d
000002f0: 8122 2abd 7e2a ad3d 7bc7 a1bb ff25 35bd
00000300: 70ac 483d 1bb7 1f3c 1afa 123e 91bb 23bc
00000310: 990e 403d d7a9 ca3c 5877 643d f6d3 3a3d
00000320: 1ab1 fbbc 760f 6bbc 9038 99be 035e 593d
00000330: 12a7 8b3d 1b0e 11bc 0c66 433d 5171 1abe
00000340: 8898 45bd b966 873b 5a98 9f3d 0b49 87bd
00000350: dc77 a43d e0e5 a1bd 8001 bebc 7786 8fbd
00000360: 03aa e83d 5c2a 61bc 52bd 1b3d c503 fb3c
00000370: 544e d3bb 9965 45bd df17 44bd 9071 553d
00000380: ac5b 653c bee5 563d 8b29 813d 8eab 313c
00000390: 44b8 c73d dc40 c33d 0d14 053e 6cf5 b53d
000003a0: 1613 883d ff40 a63d 318d de3d 5b2f 6a3d
000003b0: d30b ca3d d55a bfbd 9f14 0bbd 2997 ec3d
000003c0: d343 9dbc 72de 3bbe bf27 8bbc a074 823c
000003d0: 7429 9f3c 68fc 9a3b 3acc b3bd 0086 16be
000003e0: 812b ba3d 5bb4 d83d 5746 79bd 9328 23bd
000003f0: 1b83 9f3c 162d af3d f948 5dbd f6df f63c

VAE_Decoder.layers.0.linear1.bias f4 [4]
0.07065979 0.09892163 0.022169795 0.0803264
00000000: 14b6 903d 6c97 ca3d 6e9d b53c 2b82 a43d

VAE_Decoder.layers.0.norm1.weight f4 [4]
1.2917647 1.1644402 1.1652446 1.1840128
00000000: 8c58 a53f 600c 953f bc26 953f bb8d 973f

VAE_Decoder.layers.0.norm1.bias f4 [4]
-0.05558495 0.010127914 -0.04674048 -0.021187965
00000000: 0bad 63bd 8def 253c f272 3fbd 6292 adbc

VAE_Decoder.layers.1.attention.W_q.weight f4 [4, 4]
0.30513778 -0.07470814 -0.25762096 -0.06429075 0.2952814 -0.25821728 0.15442991 0.2551061
0.29822543 0.3537755 0.26714525 -0.3524822 0.030919753 -0.30420792 -0.257598 0.21832384
00000000: 053b 9c3e 9500 99bd e5e6 83be deaa 83bd
00000010: 202f 973e 0e35 84be e022 1e3e 449d 823e
00000020: 01b1 983e 1022 b53e 43c7 883e 8c78 b4be
00000030: 6c4b fd3c 24c1 9bbe e3e3 83be 4990 5f3e

VAE_Decoder.layers.1.attention.W_q.bias f4 [4]
0.0094448775 0.06731808 0.0854157 -0.071724415
00000000: b0be 1a3c 10de 893d 6dee ae3d 40e4 92bd

VAE_Decoder.layers.1.attention.W_k.weight f4 [4, 4]
0.20110881 0.16595156 -0.16488443 -0.38944536 0.23611292 -0.2532375 0.015706638 -0.17160922
0.44664446 0.22881332 0.34862602 0.03488251 -0.06749432 0.10193608 -0.37781048 0.55204535
00000000: 78ef 4d3e 35ef 293e 77d7 28be 6265 c7be
00000010: 96c7 713e 58a8 81be 35ab 803c 54ba 2fbe
00000020: 95ae e43e 0a4e 6a3e 1c7f b23e f6e0 0e3d
00000030: 763a 8abd ddc3 d03d 6070 c1be d852 0d3f

VAE_Decoder.layers.1.attention.W_k.bias f4 [4]
-7.256571e-05 -8.286772e-05 -7.732047e-05 3.2303138e-05
00000000: 6b2e 98b8 45c9 adb8 1c27 a2b8 3b7d 0738

VAE_Decoder.layers.1.attention.W_v.weight f4 [4, 4]
-0.43736365 -0.33207813 -0.1546287 0.37280896 -0.31863454 0.20799088 0.34658638 -0.07782669
-0.29876155 0.19381692 0.36089042 -0.41838637 0.17981914 -0.41067427 -0.008034653 -0.31070253
00000000: 21ee dfbe 2506 aabe fc56 1ebe d1e0 be3e
00000010: 1124 a3be 90fb 543e c573 b13e 9a63 9fbd
00000020: 46f7 98be f177 463e a1c6 b83e bd36 d6be
00000030: 8222 383e e643 d2be c7a3 03bc 6714 9fbe

VAE_Decoder.layers.1.attention.W_v.bias f4 [4]
0.009136264 0.043192886 0.005126212 0.051043443
00000000: 45b0 153c 06eb 303d c8f9 a73b ee12 513d

VAE_Decoder.layers.1.linear0.weight f4 [128, 4]
0.07245202 -0.3280314 -0.23484881 0.39965996 0.41545123 0.5390926 -0.30874467 0.15548566
-0.39160693 0.19928744 -0.41258886 0.52055895 0.42717123 0.056353915 0.2924797 0.4588436
-0.38845587 -0.42418912 0.18991329 0.24185279 0.08297625 0.5057364 -0.48724204 0.056694705
0.15116549 0.481675 0.18630137 -0.3009618 -0.34333092 0.34009656 -0.0046266057 0.40427044
-0.5631006 0.15222675 0.3238322 0.3562582 -0.21196093 -0.17186852 -0.29696852 0.08592755
-0.48992822 -0.18521954 -0.34323195 0.35267356 -0.06821392 -0.028787712 0.3730841 -0.1341553
-0.22113419 0.32548767 -0.0444073 -0.24932799 -0.20104185 0.31503195 -0.47144508 -0.419792
-0.04984296 0.09316186 0.22908184 -0.5378727 -0.013462317 0.18531913 -0.20852648 -0.2229054
-0.35344416 0.50944734 -0.26795363 0.22209716 0.23233055 -0.34911054 -0.19012575 0.23410381
-0.18975301 0.2664597 -0.49491277 0.260793 0.44929004 -0.24181072 -0.16659224 -0.084282786
-0.1583769 -0.004512601 0.40456524 0.28150922 -0.4497177 -0.27007616 -0.14717725 -0.26903525
0.34508902 0.37824684 0.3919198 0.29851866 0.3928145 0.2652402 -0.20461205 0.05064194
-0.5663853 0.28815895 0.48618212 -0.4089093 0.36111778 0.0529961 -0.2456565 0.432222
0.21825904 0.12685734 -0.27847624 0.1998493 0.34562987 0.08051971 0.3590433 -0.37256464
-0.039651662 -0.06006331 0.08041077 -0.16013561 -0.5889885 0.376603 0.21536617 -0.33749315
0.22059311 -0.14509566 0.2878757 0.4982863 -0.2507312 0.15934844 0.48462084 0.15684493
-0.2627349 -0.33599803 0.062979355 0.3687368 -0.16665435 -0.38789788 -0.443885 0.46618795
0.10391809 -0.061712958 0.45177352 0.070908405 0.4551894 0.309027 0.43977085 0.19504787
-0.5696889 0.15622635 0.107898064 0.2624691 0.030329071 -0.4869523 -0.2734387 0.1366873
0.15038602 -0.3666126 0.18910232 -0.14525922 0.355911 0.27517334 0.51452297 -0.37690863
0.44897416 -0.25435257 0.30437502 0.2781999 0.34011012 -0.4814803 -0.01122773 -0.1687847
-0.2568758 0.07621606 -0.35643786 0.20017734 0.3735225 0.08574552 0.41878456 -0.19649817
0.089693055 0.05546631 -0.2940376 -0.44357756 -0.31134337 -0.5123359 -0.46823364 0.098412454
0.22548658 -0.34534428 0.39977202 -0.2986328 -0.04571275 -0.24150676 0.29960617 -0.39789838
0.3163594 0.5600787 -0.2912864 -0.4553246 0.3649784 -0.25917855 0.3267579 0.08207577
-0.08444055 0.01393387 0.16199483 0.5069799 0.36188322 0.09006303 -0.39475298 -0.22034377
0.11857397 -0.18135212 0.4227657 0.4126172 -0.30270147 0.23598082 0.03709062 0.08969225
0.0043649166 0.57413816 -0.4991626 0.2624531 -0.0066836416 0.23181193 -0.18529186 -0.24216111
0.18634056 -0.100961864 -0.44256586 0.09021293 0.39290693 -0.3183075 -0.14410843 -0.28276113
-0.40295225 -0.21250634 0.19797978 -0.3652536 -0.0630694 0.54979193 -0.05178594 0.008057149
0.13119267 -0.58461547 0.2124414 0.031018218 -0.54556835 -0.44600034 0.2746548 0.20075154
0.1958485 0.43210727 0.2338033 -0.23494816 0.012209373 -0.4358711 -0.04251618 0.37547058
00000000: ba61 943d bbf3 a7be 357c 70be 3ba0 cc3e
00000010: 06b6 d43e f901 0a3f c813 9ebe a237 1f3e
00000020: b480 c8be 0212 4c3e d93e d3be 5a43 053f
00000030: 30b6 da3e 5dd3 663d e6bf 953e 8ced ea3e
00000040: b0e3 c6be 512f d9be a178 423e 42a8 773e
00000050: 74ef a93d f177 013f ca77 f9be b538 683d
00000060: 20cb 1a3e 1b9e f63e c9c5 3e3e aa17 9abe
00000070: 12c9 afbe 2321 ae3e c89a 97bb 89fc ce3e
00000080: 5c27 10bf 54e1 1b3e 56cd a53e 7a67 b63e
00000090: 490c 59be 4dfe 2fbe 420c 98be c9fa af3d
000000a0: dfd7 fabe 31aa 3dbe 19bc afbe a191 b43e
000000b0: bdb3 8bbd 35d4 ebbc e104 bf3e 0260 09be
000000c0: 0071 62be 52a6 a63e 6ee4 35bd d64f 7fbe
000000d0: eadd 4dbe de4b a13e 4061 f1be faee d6be
000000e0: 2228 4cbd a5cb be3d 6e94 6a3e 06b2 09bf
000000f0: 0d91 5cbc 4cc4 3d3e f787 55be 5041 64be
00000100: a2f6 b4be 246b 023f 3831 89be 706d 633e
00000110: 0fe8 6d3e 9ebe b2be 53b0 42be e9b8 6f3e
00000120: 9d4e 42be 686d 883e 3565 fdbe a986 853e
00000130: 5809 e63e 3b9d 77be 2897 2abe 749c acbd
00000140: 8e2d 22be 71de 93bb 2d23 cf3e fa21 903e
00000150: 6641 e6be 6c47 8abe a2b5 16be fdbe 89be
00000160: 82af b03e 92a9 c13e b6a9 c83e 70d7 983e
00000170: fb1e c93e 90cd 873e d285 51be ec6d 4f3d
00000180: a1fe 10bf 9289 933e ddec f83e 8f5c d1be
00000190: 6ee4 b83e 7012 593d 618d 7bbe 344c dd3e
000001a0: 4c7f 5f3e e4e6 013e 7094 8ebe 4ba5 4c3e
000001b0: 66f6 b03e 85e7 a43d 86d4 b73e cbc0 bebe
000001c0: c869 22bd f204 76bd 67ae a43d 97fa 23be
000001d0: f3c7 16bf 1cd2 c03e f388 5c3e e7cb acbe
000001e0: 29e3 613e f593 14be 7264 933e 621f ff3e
000001f0: d75f 80be 3d2c 233e 3920 f83e f59b 203e
00000200: 3085 86be ef07 acbe 52fb 803d 12cb bc3e
00000210: 70a7 2abe 8d9a c6be e544 e3be 30b0 ee3e
00000220: 02d3 d43d bac6 7cbd dc4e e73e 6d38 913d
00000230: 960e e93e c938 9e3e a529 e13e a1ba 473e
00000240: 22d7 11bf cdf9 1f3e a9f9 dc3d 5a62 863e
00000250: ac74 f83c d051 f9be 2800 8cbe c1f7 0b3e
00000260: cbfe 193e a6b4 bbbe 0aa4 413e d5be 14be
00000270: f739 b63e 85e3 8c3e c7b7 033f 2bfa c0be
00000280: f1df e53e 803a 82be 0bd7 9b3e 3870 8e3e
00000290: ea22 ae3e 9684 f6be 83f4 37bc e5d5 2cbe
000002a0: 3a85 83be 2a17 9c3d 067f b6be 4afb 4c3e
000002b0: 573e bf3e 599b af3d ee6a d63e d136 49be
000002c0: feb0 b73d a430 633d 198c 96be 991c e3be
000002d0: 6668 9fbe 7228 03bf 52bc efbe 788c c93d
000002e0: f4e5 663e f7d0 b0be ebae cc3e 66e6 98be
000002f0: 4b3d 3bbd 8c4d 77be fb65 993e 56b9 cbbe
00000300: dcf9 a13e 5161 0f3f 7e23 95be 4e20 e9be
00000310: 73de ba3e 0db3 84be d04c a73e 5717 a83d
00000320: 2bef acbd e34a 643c f9e1 253e 6fc9 013f
00000330: c248 b93e f772 b83d 101d cabe cca1 61be
00000340: e9d6 f23d 5fb4 39be bf74 d83e 9042 d33e
00000350: b0fb 9abe f5a4 713e 55ec 173d 92b0 b73d
00000360: 9307 8f3b b8fa 123f 3e92 ffbe 4160 863e
00000370: 7302 dbbb 1b60 6d3e 26bd 3dbe 15f9 77be
00000380: 0fd0 3e3e 18c5 cebd fe97 e2be 8fc1 b83d
00000390: 192b c93e 33f9 a2be 2991 13be 11c6 90be
000003a0: c24f cebe 439b 59be 36bb 4a3e 8502 bbbe
000003b0: 882a 81bd 2abf 0c3f 7e1d 54bd 2202 043c
000003c0: 5f57 063e 5ca9 15bf 3d8a 593e eb19 fe3c
000003d0: 5eaa 0bbf 285a e4be 8e9f 8c3e d091 4d3e
000003e0: 828c 483e 2a3d dd3e 226a 6f3e 4096 70be
000003f0: d209 483c 7f2a dfbe 7225 2ebd ae3d c03e

VAE_Decoder.layers.1.linear0.bias f4 [128]
0.54276526 0.44110268 -0.4943844 0.030249467 -0.11209897 -0.47535405 0.18018343 0.26883557
-0.18880251 0.3167945 -0.3985348 0.30561513 -0.022699399 0.31845614 0.170886 0.38559183
0.26993555 -0.38564405 -0.26647794 0.3586367 0.26851505 0.26653102 -0.4440689 0.22851542
-0.32746756 -0.21472003 0.2979018 0.15434346 -0.33409226 0.49994934 0.56107205 0.021902904
-0.21266757 0.12750539 -0.20129299 0.20274903 0.11059519 0.08544829 0.18780945 0.4849156
-0.44976005 0.32041427 -0.10643391 -0.40588617 -0.39071772 0.027499544 0.5014359 0.39561304
-0.22977097 0.09491828 0.2696992 -0.032814987 0.43518287 0.28372404 0.08807522 0.20779243
-0.39593515 -0.055652052 -0.31271958 -0.018811828 -0.032429732 -0.33931407 0.30004102 0.22387591
-0.3118925 -0.4333039 0.45908204 -0.0022185603 -0.3029716 0.31436187 -0.17579721 -0.027600925
0.41876003 0.16242926 0.36779252 -0.19784005 -0.13250025 -0.4965025 -0.30316862 0.38505962
0.33887118 -0.39467502 0.22862875 -0.13962805 0.24833989 -0.27960402 0.2426407 0.23537908
-0.16847482 -0.41979146 -0.30776986 0.19249631 0.24375656 0.25273797 -0.1549612 -0.2007903
-0.38198373 -0.14084062 -0.089044124 0.1682702 0.29491925 -0.027266791 -0.06329319 0.34506997
0.022173813 0.10850926 0.34623483 0.056118544 -0.0739517 -0.1946351 0.31777927 0.28445432
0.4635185 -0.5960561 -0.5402335 -0.13446787 -0.14989075 0.28349197 0.26890087 -0.43493664
0.5304801 -0.28530055 0.15767744 0.07243882 -0.23936653 0.29803082 0.22153322 -0.33999604
00000000: aaf2 0a3f 36d8 e13e f41f fdbe bbcd f73c
00000010: 2594 e5bd 9b61 f3be 0182 383e d1a4 893e
00000020: 7255 41be e432 a23e c10c ccbe 9679 9c3e
00000030: 17f4 b9bc af0c a33e bdfc 2e3e 4b6c c53e
00000040: fe34 8a3e 2373 c5be cc6f 88be 3b9f b73e
00000050: ce7a 893e c176 883e 005d e3be f2ff 693e
00000060: d4a9 a7be 91df 5bbe 9686 983e 360c 1e3e
00000070: 240e abbe 5cf9 ff3e 6ba2 0f3f b86d b33c
00000080: 87c5 59be c690 023e c01f 4ebe 719d 4f3e
00000090: bb7f e23d 83ff ae3d 1f51 403e dc46 f83e
000000a0: f346 e6be 570d a43e 06fa d9bd 50d0 cfbe
000000b0: 270c c8be b946 e13c 1a5e 003f cb8d ca3e
000000c0: 1549 6bbe 8464 c23d 0316 8a3e 0269 06bd
000000d0: 4ad0 de3e 4744 913e c860 b43d 8ac7 543e
000000e0: 03b8 cabe 68f3 63bd c81c a0be 431b 9abc
000000f0: 0ad5 04bd 93ba adbe fa9e 993e ba3f 653e
00000100: 60b0 9fbe 02da ddbe cd0c eb3e 4465 11bb
00000110: 181f 9bbe 0af4 a03e 2f04 34be 561b e2bc
00000120: b767 d63e db53 263e 4d4f bc3e 9596 4abe
00000130: 25ae 07be 9335 febe eb38 9bbe 8926 c53e
00000140: 8680 ad3e d812 cabe a81d 6a3e a8fa 0ebe
00000150: d04c 7e3e 4228 8fbe ce76 783e 3707 713e
00000160: aa84 2cbe e8ee d6be 0394 9dbe c11d 453e
00000170: 529b 793e df66 813e 26ae 1ebe f99b 4dbe
00000180: 5f93 c3be 8638 10be c45c b6bd 064f 2c3e
00000190: a8ff 963e 9b5e dfbc dc9f 81bd 03ad b03e
000001a0: dba5 b53c 1a3a de3d b145 b13e 8fdc 653d
000001b0: fd73 97bd 6c4e 47be f7b3 a23e ffa3 913e
000001c0: 4c52 ed3e 2297 18bf be4c 0abf f2b1 09be
000001d0: f67c 19be dc25 913e 60ad 893e 04b0 debe
000001e0: 8bcd 073f ea12 92be 3276 213e ce5a 943d
000001f0: 801c 75be 7f97 983e 9bd9 623e f613 aebe

VAE_Decoder.layers.1.linear1.weight f4 [4, 128]
0.036155764 0.12772022 -0.05851281 -0.0650211 0.049314454 0.54651487 0.09220958 -0.18301705
-0.19615339 -0.054474227 0.09636141 -0.062849194 -0.091616854 0.084366806 0.07376805 0.015464946
-0.08777963 -0.0368141 -0.04347898 0.18909116 -0.06797886 -0.0340991 -0.07216495 0.11403611
-0.0879946 -0.030156007 0.11984447 0.16887487 -0.011209197 -0.11933632 -0.010419605 -0.17166686
0.046144757 -0.036033966 -0.043935385 0.13031729 -0.07631049 -0.13052861 -0.02194015 0.056031004
0.10558862 0.013971604 -0.025617715 0.075057425 0.05654191 -0.058405444 0.11011965 0.02603018
0.1666617 -0.039061133 -0.09000221 0.039486058 -0.034327608 -0.15496817 -0.05059758 0.07888333
-0.0018945183 0.02451469 -0.1339161 -0.07440278 -0.12594843 -0.030747255 -0.0053495923 -0.08044157
-0.0542449 0.051625013 -0.019034784 -0.12493276 0.005415412 -0.014700118 -0.09138359 -0.049887646
0.09617433 0.026748348 0.007879661 -0.039723855 0.043869745 -0.044816487 0.07689523 0.22074099
0.0032543112 -0.012158885 -0.06770702 0.026891483 -0.031804956 -0.013218434 0.045214042 -0.05464689
-0.171093 0.0006700927 -0.083109185 0.057653517 -0.11554411 -0.023507591 0.17675883 -0.18471119
-0.01624033 0.07074764 -0.018303415 -0.022732113 -0.15286262 -0.12798683 -0.023243258 -0.11694626
0.12373912 -0.00025854332 -0.21128681 0.16047762 0.1476315 -0.035786394 0.12945981 0.20752364
-0.039957542 -0.09453152 -0.057665125 -0.049753055 -0.20068766 -0.19412686 -0.07277782 0.16481024
0.0035799404 -0.012611715 -0.16499135 0.054431092 -0.025469393 0.0714784 -0.04577315 -0.15619925
0.042522497 0.08801835 -0.039294146 0.05653565 -0.063131236 0.6575666 0.15898226 -0.06645452
-0.037454396 -0.010379819 -0.10651384 -0.030437395 0.07104146 0.086048566 0.10981351 0.092553295
0.046800517 -0.008011781 0.10294315 0.12453994 -0.049455628 -0.007803685 -0.050927226 -0.019699218
0.10942866 -0.0139940735 -0.015571737 -0.041388184 -0.038267866 0.13003577 0.03185181 -0.013852779
-0.07471602 -0.054030493 0.028087802 0.014801866 0.05980031 0.003228783 0.04870621 0.13019967
0.24830484 0.13357857 0.089403026 0.019888356 0.09878527 -0.011924067 -0.03415312 0.045607626
-0.031295415 -0.0035689876 -0.08419987 0.041931946 0.061233338 0.004356401 0.08534087 -0.0036079693
0.03432392 -0.034384113 -0.029642956 0.15473598 0.08977728 -0.044015765 0.13127694 -0.05780988
0.10026541 0.025137505 0.0042139697 0.03477035 -0.039431497 0.024327017 -0.044374555 0.077018924
0.038300123 0.042591415 -0.03815111 0.07394368 -0.051520385 0.06486675 -0.047806326 0.06373816
-0.030430347 0.01577271 0.0016192246 -0.044120543 -0.037506312 0.14207783 -0.023038084 0.032622766
0.025691768 -0.058685165 -0.07903031 0.06284658 0.035374302 -0.100679606 -0.025976973 0.07070355
0.09848946 0.09391194 -0.07098469 0.01845593 0.12260285 0.11213108 0.04890387 0.064681515
0.1264019 0.12371412 0.006704598 0.0043002227 0.08118136 -0.07014563 0.13308902 0.0059736148
0.069495976 0.004956751 0.01907271 0.1407737 0.05304711 -0.0012778634 0.01684148 -0.006250482
0.07445521 0.14844935 0.06265259 0.016869275 0.037447754 0.080809064 0.024921225 0.15204702
00000000: 1118 143d 17c9 023e 21ab 6fbd c829 85bd
00000010: f4fd 493d 66e8 0b3f 60d8 bc3d d268 3bbe
00000020: 6fdc 48be 5e20 5fbd 2259 c53d 14b7 80bd
00000030: 9ea1 bbbd 81c8 ac3d b413 973d af60 7d3c
00000040: cfc5 b3bd 62ca 16bd 0417 32bd 1da1 413e
00000050: 8038 8bbd 7fab 0bbd 38cb 93bd c48b e93d
00000060: 8336 b4bd bb09 f7bc 0471 f53d 89ed 2c3e
00000070: c8a6 37bc 9a66 f4bd feb6 2abc 70c9 2fbe
00000080: 4902 3d3d 5a98 13bd 97f5 33bd e571 053e
00000090: ad48 9cbd 4ba9 05be d4bb b3bc c480 653d
000000a0: d93e d83d 28e9 643c 3edc d1bc b5b7 993d
000000b0: 7d98 673d 8c3a 6fbd 6986 e13d 3e3d d53c
000000c0: 5da9 2a3e 91fe 1fbd 1453 b8bd 22bc 213d
000000d0: 1b9b 0cbd faaf 1ebe 683f 4fbd 958d a13d
000000e0: 7c51 f8ba 08d3 c83c 4d21 09be 7c60 98bd
000000f0: a0f8 00be abe1 fbbc a24b afbb 8dbe a4bd
00000100: e62f 5ebd c074 533d d6ee 9bbc bfdc ffbd
00000110: c573 b13b c4d8 70bc 5227 bbbd fd56 4cbd
00000120: 0cf7 c43d 5a1f db3c b219 013c 7bb5 22bd
00000130: c3b0 333d 7e91 37bd 3f7b 9d3d ed09 623e
00000140: 4846 553b 0f36 47bc faa9 8abd 874b dc3c
00000150: ea45 02bd 2192 58bc 5c32 393d 6bd5 5fbd
00000160: 0133 2fbe 29a9 2f3a 2635 aabd 1826 6c3d
00000170: 64a2 ecbd fe92 c0bc 4400 353e ee24 3dbe
00000180: 710a 85bc 24e4 903d 0bf1 95bc b238 babc
00000190: 0588 1cbe fb0e 03be a568 bebc 8581 efbd
000001a0: f06a fd3d 198d 87b9 925b 58be 3f54 243e
000001b0: b62c 173e c194 12bd 1d91 043e 1481 543e
000001c0: 85aa 23bd be99 c1bd 4432 6cbd dcc9 4bbd
000001d0: 1181 4dbe 31c9 46be 8a0c 95bd 04c4 283e
000001e0: 6f9d 6a3b 5ea1 4ebc 7ef3 28be 23f3 5e3d
000001f0: 30a5 d0bc 4463 923d a07c 3bbd b2f2 1fbe
00000200: 122c 2e3d f742 b43d e6f2 20bd ed91 673d
00000210: f34a 81bd 4956 283f 3fcc 223e 4f19 88bd
00000220: c869 19bd 1e10 2abc ee23 dabd d857 f9bc
00000230: 2f7e 913d 3b3a b03d e8e5 e03d 958c bd3d
00000240: e6b1 3f3d d843 03bc dcd3 d23d cc0e ff3d
00000250: fc91 4abd 0eb6 ffbb 1199 50bd 4160 a1bc
00000260: 221c e03d 6647 65bc 9920 7fbc a886 29bd
00000270: c4be 1cbd 1928 053e 0b77 023d c4f6 62bc
00000280: b604 99bd 144f 5dbd 6418 e63c 8783 723c
00000290: 2bf1 743d fd99 533b 2a80 473d 1053 053e
000002a0: a043 7e3e d2c8 083e ef18 b73d e8ec a23c
000002b0: ee4f ca3d 295d 43bc 24e4 0bbd 10cf 3a3d
000002c0: 9f2f 00bd ade5 69bb fb70 acbd d5c0 2b3d
000002d0: cfcf 7a3d 24c0 8e3b 32c7 ae3d ae73 6cbb
000002e0: 3d97 0c3d 5bd6 0cbd c9d5 f2bc 1c73 1e3e
000002f0: 27dd b73d e049 34bd 766d 063e 0dca 6cbd
00000300: f457 cd3d 2bed cd3c 5715 8a3b 5b6b 0e3d
00000310: ec82 21bd 7449 c73c 18c2 35bd 19bc 9d3d
00000320: 97e0 1c3d 5674 2e3d 5744 1cbd c96f 973d
00000330: 0a07 53bd dcd8 843d 91d0 43bd 2789 823d
00000340: 1049 f9bc c535 813c 293c d43a beb7 34bd
00000350: 38a0 19bd da7c 113e 5dba bcbc 739f 053d
00000360: 8b77 d23c db5f 70bd a5da a1bd b5b5 803d
00000370: a5e4 103d 1c31 cebd a9cd d4bc 06cd 903d
00000380: d8b4 c93d e754 c03d 6c60 91bd e430 973c
00000390: 3417 fb3d fba4 e53d 6d4f 483d be77 843d
000003a0: 806f 013e d45d fd3d 3fb2 db3b e2e8 8c3b
000003b0: 6a42 a63d 83a8 8fbd 7d48 083e 50be c33b
000003c0: e853 8e3d 3e6c a23b 5f3e 9c3c fb26 103e
000003d0: ed47 593d fb7d a7ba 25f7 893c d8d0 ccbb
000003e0: f97b 983d 1b03 183e 0050 803d 6f31 8a3c
000003f0: d162 193d 397f a53d 9927 cc3c 37b2 1b3e

VAE_Decoder.layers.1.linear1.bias f4 [4]
0.0969817 0.16319452 -0.0013638652 0.04615036
00000000: 579e c63d 771c 273e b9c3 b2ba 2908 3d3d

VAE_Decoder.layers.1.norm1.weight f4 [4]
1.1956502 1.1635847 1.1277068 1.1522559
00000000: 110b 993f 58f0 943f b258 903f 1f7d 933f

VAE_Decoder.layers.1.norm1.bias f4 [4]
0.061322812 0.11790563 0.07713408 -0.068173766
00000000: a12d 7b3d 8278 f13d 79f8 9d3d b09e 8bbd

VAE_Decoder.layers.1.norm0.weight f4 [4]
0.92503595 0.93369925 1.0230385 0.9922395
00000000: 28cf 6c3f ea06 6f3f edf2 823f 6803 7e3f

VAE_Decoder.layers.1.norm0.bias f4 [4]
-0.007983422 0.003817488 0.043402392 -0.033153787
00000000: e6cc 02bc d22e 7a3b b5c6 313d 44cc 07bd

VAE_Decoder.last_normalization.weight f4 [4]
1.0 1.0 1.0 1.0
00000000: 0000 803f 0000 803f 0000 803f 0000 803f

VAE_Decoder.last_normalization.bias f4 [4]
0.0 0.0 0.0 0.0
00000000: 0000 0000 0000 0000 0000 0000 0000 0000

VAE_Decoder.head.weight f4 [4, 4]
0.24704266 0.14453548 -0.48339903 0.064563334 0.2737636 -0.41136545 -0.2231639 0.1341334
-0.35370493 0.081683576 -0.07643545 -0.44513774 0.47020358 -0.1875565 -0.10319722 -0.14517963
00000000: c0f8 7c3e 1c01 143e 1480 f7be c839 843d
00000010: be2a 8c3e 7e9e d2be 1485 64be 445a 093e
00000020: d018 b5be b849 a73d 308a 9cbd 18e9 e3be
00000030: 86be f03e d00e 40be 1059 d3bd f8a9 14be

VAE_Decoder.head.bias f4 [4]
0.4469329 0.1652801 -0.3696617 -0.42554796
00000000: 64d4 e43e 303f 293e 4c44 bdbe 6ce1 d9be

Detokenizer.weight f4 [8, 4]
-0.07438659 -0.3958247 0.28938824 0.24743615 0.057145227 -0.45812416 0.1412531 0.106119975
-0.05516849 -0.3060571 0.45110625 0.0820614 -0.34112337 0.012969125 0.26194105 -0.28083673
-0.3556985 0.0878401 0.31621677 -0.0026837543 -0.1632279 -0.19539149 0.42538342 0.09572524
0.024746416 -0.24447359 0.07521583 0.45133784 -0.09843305 0.511662 -0.27237353 0.081342205
00000000: ff57 98bd 89a9 cabe b22a 943e e75f 7d3e
00000010: 1d11 6a3d 408f eabe a7a4 103e 6e55 d93d
00000020: 5bf8 61bd 84b3 9cbe 66f7 e63e cf0f a83d
00000030: b9a7 aebe 747c 543c 231d 863e d5c9 8fbe
00000040: 1d1e b6be 83e5 b33d 2ae7 a13e ede1 2fbb
00000050: 3725 27be b514 48be dbcb d93e 980b c43d
00000060: ffb8 ca3c 4957 7abe c20a 9a3d c115 e73e
00000070: 4497 c9bd 48fc 023f 8b74 8bbe be96 a63d

Detokenizer.cat_recons.0.weight f4 [3, 4]
-0.13122067 0.5936627 0.41685078 0.108982936 -0.16607198 -0.7379311 -0.5338416 -0.37497184
0.76286525 0.56383693 0.470417 0.195985
00000000: b65e 06be 47fa 173f 776d d53e 7232 df3d
00000010: c60e 2abe 0de9 3cbf d8a9 08bf 4ffc bfbe
00000020: 234b 433f 9e57 103f 7fda f03e 4bb0 483e

Detokenizer.cat_recons.0.bias f4 [3]
0.35007882 0.39038754 -0.1266274
00000000: 883d b33e e0e0 c73e 9daa 01be
