tabsyn/vae/ckpt/abalone/encoder.pt (torch, 22128 bytes, 33 tensors)

Tokenizer.weight f4 [9, 4]
000000 c3 bd d0 3e 20 80 ad 3c 00 76 b6 3e cb 88 42 be
       0.40769777 0.021179259 0.35636902 -0.18997495
000010 5e 21 42 3d 66 9e 3b 3c 0f e3 d0 3d 23 76 fb 3e
       0.047395103 0.011451339 0.10199558 0.4911357
000020 a5 b8 6d be b1 6c 06 bf 00 58 8e be 9b da b0 3e
       -0.23214968 -0.525096 -0.27801514 0.34541783
000030 37 42 e8 3e 60 08 f0 be b2 e8 73 3d e6 10 8d be
       0.45363018 -0.4688139 0.059548087 -0.27551955
000040 d4 86 25 bf 8f aa 88 be 38 2b ba 3e c0 de ca be
       -0.64658856 -0.26692626 0.36361098 -0.3962307
000050 1e d0 2f 3e e5 f2 b8 be 70 e6 10 3f 30 46 0b 3e
       0.17169234 -0.36122814 0.5660162 0.13600993
000060 f4 61 02 be 68 1f d8 be bb 0c 9a 3b 0d 3a b5 3e
       -0.12732679 -0.4221146 0.0047012246 0.35395852
000070 53 83 a9 3d 72 7e 00 bf b4 d4 bf 3e b5 ab 80 3e
       0.08277001 -0.5019294 0.37466967 0.25131002
000080 55 7e fc be 38 81 b6 be cb e6 0a 3d 64 53 fe be
       -0.49315134 -0.3564546 0.033911508 -0.49672997

Tokenizer.bias f4 [9, 4]
000000 55 08 9c 3e e0 1b 00 bd 17 2a 29 be bc 01 2b be
       0.30475107 -0.031276584 -0.16519962 -0.1669988
000010 64 5b 36 3e 07 8a e5 be 5c f8 7d be 7c 91 bf be
       0.178083 -0.4483187 -0.24801773 -0.37415683
000020 87 dd 46 3e 5c ca 7d bb eb d5 a7 be d2 91 d1 be
       0.19420443 -0.0038725352 -0.32780394 -0.40931565
000030 a0 20 14 3e ed 8f 09 be 83 33 f6 3e 02 2d c2 3b
       0.1446557 -0.1343381 0.48086175 0.0059257755
000040 4a b9 c4 3e ca 84 f0 be e4 e0 7b 3d 8e 97 53 be
       0.38422614 -0.4697631 0.06149377 -0.20663282
000050 3a e2 9d 3d fc 44 3b 3d 36 9d d6 bd 73 9d 46 3e
       0.07709165 0.045720086 -0.10479204 0.19396
000060 d3 17 f6 be 31 57 fb bb 3f 8f 6a 3d 28 5a 0c be
       -0.4806505 -0.007670306 0.057265516 -0.13706267
000070 bc cd a1 3e 1b dd c8 be 7c 3e 02 be 27 e7 a3 be
       0.31602275 -0.3923119 -0.12719148 -0.32012293
000080 e4 28 82 3e 11 58 70 3e 08 3e 5f be 61 ff 5b 3e
       0.25421822 0.23471095 -0.21801007 0.21484138

Tokenizer.category_embeddings.weight f4 [3, 4]
000000 40 d8 07 bf 58 18 0a 3e 03 69 77 be c2 17 5c be
       -0.53064346 0.13485849 -0.24161153 -0.21493438
000010 99 9d 01 bf f5 2e 03 be 10 02 4c be fd c7 50 3e
       -0.506311 -0.12810881 -0.19922662 0.2038879
000020 20 17 d6 3d fa 6e dc 3d 49 7a b3 3d d2 6c 00 bf
       0.104536295 0.107633546 0.087635584 -0.50166047

VAE_Encoder.layers.0.attention.W_q.weight f4 [4, 4]
000000 d6 9a 03 3f 75 81 1a bf 30 72 26 3f e6 5d 01 3e
       0.51408136 -0.60353786 0.65017986 0.12633476
000010 0a 14 42 bf ed b2 4f bd 2f b8 4a 3f 8c 05 bc be
       -0.7581183 -0.050707746 0.7918729 -0.36722982
000020 51 5c 5b be c8 09 5a 3f 71 8d 8c bd d8 d2 05 bf
       -0.21421935 0.85171175 -0.06862915 -0.5227485
000030 30 0d b9 be 98 79 20 be 68 34 04 bf b3 25 7f 3c
       -0.36142874 -0.15671384 -0.51642466 0.015572953

VAE_Encoder.layers.0.attention.W_q.bias f4 [4]
000000 12 db 22 3d b7 3f 14 be 81 0a 6e bd 1a 01 ff ba
       0.039759703 -0.1447743 -0.058115486 -0.0019455284

VAE_Encoder.layers.0.attention.W_k.weight f4 [4, 4]
000000 6c 9e 30 3f b6 89 65 3e 3c a5 0e 3f 6d 52 f1 3d
       0.6899173 0.22415814 0.5572088 0.117832996
000010 89 f0 2e bf 83 70 6d be db 77 b7 3e 2c 16 01 bf
       -0.6833578 -0.23187451 0.3583363 -0.50424457
000020 06 6d e9 be d3 d8 fa 3e 86 6b 3e be 0f a4 b6 3d
       -0.4559099 0.4899355 -0.18595704 0.089180104
000030 c4 5c 01 be 3f 66 aa 3e b0 e1 f0 be 47 44 b3 bd
       -0.12633044 0.33281133 -0.47047186 -0.08753257

VAE_Encoder.layers.0.attention.W_k.bias f4 [4]
000000 a6 71 91 38 06 37 cf 38 51 04 07 36 5e a9 71 38
       6.9353075e-05 9.880778e-05 2.011908e-06 5.7616613e-05

VAE_Encoder.layers.0.attention.W_v.weight f4 [4, 4]
000000 ee 7b 8b 3e 52 73 be 3d b5 92 55 be 67 93 b8 3b
       0.27242988 0.09299339 -0.20856746 0.005632806
000010 16 66 10 be 11 f7 bc 3c 35 51 c1 3d 61 1e d5 3c
       -0.14101443 0.02306703 0.09439317 0.026015462
000020 80 0b c2 3e 4b db f9 be 44 8a 10 3f 7f 3a 90 3d
       0.378994 -0.4880012 0.56460977 0.07042407
000030 c4 a5 c4 3e 46 bf 53 3d 04 3f 1b 3e d8 1e 42 be
       0.3840772 0.051696084 0.15160757 -0.18957078

VAE_Encoder.layers.0.attention.W_v.bias f4 [4]
000000 32 68 ac 3d df 68 90 bd 0c 70 21 3d 31 7d 57 bd
       0.08418311 -0.070512526 0.039413497 -0.052609626

VAE_Encoder.layers.0.linear0.weight f4 [128, 4]
000000 f2 db c2 bc 4c ba 90 3e 15 1a 6f be 2e 74 bb 3e
       -0.023786519 0.28267133 -0.23349793 0.36612076
000010 d1 f5 d8 bd 5f 4d 96 3e 7e 86 24 3e e6 42 f9 bc
       -0.10593761 0.29355904 0.1606693 -0.030427407
000020 a2 d7 7d be 35 ba 91 3e d1 6d 80 3e d0 b0 02 3f
       -0.24789289 0.28462377 0.25083783 0.51051044
000030 65 39 9b 3e 4a 1a 43 3e 9a d9 e4 3e b8 8f 4f be
       0.30317226 0.19052997 0.44697267 -0.20269668
000040 53 b7 ef 3e 8f 1e b7 be 4c 31 d5 3e d4 df 93 bd
       0.46819553 -0.35765502 0.41639173 -0.07220426
000050 49 f8 bb be 87 25 81 bc 61 75 45 be cb be 21 3e
       -0.36712864 -0.015764965 -0.19283058 0.15795438
000060 a3 ac c1 be cd 78 94 3e 8c da 29 bd 7a b3 e0 3e
       -0.37827024 0.28998414 -0.04146819 0.4388693
000070 64 eb b3 3c c3 6d 06 3f cf 63 98 3e cf 7e f9 3c
       0.021962829 0.52511233 0.29763648 0.030455975
000080 42 4b 23 3d f0 c3 96 be 9d 7f d0 3c 71 9e b9 be
       0.039866693 -0.29446363 0.025451476 -0.36253694
000090 de ad ff be 64 49 86 be 8f 4a ee be 5e 5a c4 3e
       -0.49937338 -0.26227868 -0.4654126 0.38350195
0000a0 ab ba 8a be fc 3a a0 3e a2 00 0c be e2 98 ec 3d
       -0.2709554 0.31295002 -0.13672116 0.115525976
0000b0 f6 6d 8b be f8 0d d6 be 5e 30 ef be 5b 93 0a be
       -0.2723233 -0.41807532 -0.4671659 -0.13532774
0000c0 05 66 49 bb 21 ce 58 be f1 51 95 3e e9 32 28 3e
       -0.0030730974 -0.21172382 0.2916408 0.1642567
0000d0 0a e0 6a be 60 bc d3 bd 8f e9 97 be 68 42 c9 3e
       -0.22937027 -0.10338664 -0.2967038 0.39308476
0000e0 8a 6e 3b 3e 06 24 c3 3c 06 b3 90 be a6 ae fe be
       0.18303886 0.023820888 -0.28261584 -0.4974262
0000f0 91 79 b2 bd 79 77 e1 3d 8a fa 4c 3e 0c 9e ce 3e
       -0.08714593 0.11009116 0.20017448 0.40354955
000100 7e b7 a7 be b5 c7 f4 be bf 48 c8 3e 5b 55 03 3e
       -0.3275718 -0.47808614 0.39118 0.1282553
000110 75 cf dc 3e c8 76 98 be 7a 7b 09 be d2 64 b1 be
       0.43127027 -0.29778123 -0.13426009 -0.34647232
000120 4a 40 c8 3e e4 80 1b bd b1 36 a2 be 68 d9 a6 3e
       0.3911155 -0.037964717 -0.3168235 0.32587743
000130 99 ff b4 3d d2 72 c3 bd c9 0c 96 bd aa 60 66 be
       0.08837814 -0.095433846 -0.07326657 -0.22497812
000140 02 e8 00 be 07 6c 5d be 39 94 4f 3e 5c 21 cd 3e
       -0.12588504 -0.2162324 0.20271386 0.40064514
000150 8a 48 82 3e 70 2a 31 3e 2a b7 ac 3e f7 7f cb be
       0.25445968 0.17301345 0.33733493 -0.39746067
000160 4b 04 e0 3d 19 21 8f be 72 63 61 3e 32 3b c0 3e
       0.10938319 -0.2795494 0.22010592 0.37545162
000170 c9 d8 7d be 02 73 bc be 4d ca 96 bd a8 f5 11 be
       -0.24789728 -0.36806494 -0.073628046 -0.14253867
000180 1b 6e 8f be 2c 04 9c 3d bd 9a b5 bc 3a cf 99 3e
       -0.2801369 0.07617983 -0.022168512 0.30040914
000190 68 03 44 3e af 4f 9a bd 12 65 8e be b1 70 01 3f
       0.19141924 -0.0753473 -0.27811486 0.5056258
0001a0 30 58 d9 bd 7f 47 5e 3e 9f 8d 75 3d 5f 76 ad bd
       -0.106125236 0.21706961 0.059949514 -0.08469843
0001b0 4a 91 c0 3e ea db d6 3e 81 bc c3 3d a2 85 63 3e
       0.37610847 0.41964656 0.09557439 0.22218946
0001c0 61 48 a1 3e 73 1a c3 be 2a 58 d7 3e b6 18 94 3e
       0.31500533 -0.38106117 0.4205945 0.28925103
0001d0 2d ee cc 3e 7a b3 1c be 40 65 03 bf 77 92 bf 3e
       0.40025464 -0.1530284 -0.5132637 0.3741643
0001e0 90 cc 19 3c bf 3b 3d 3e 92 db 86 3e d9 33 cd 3e
       0.00938715 0.18479823 0.26339394 0.4007862
0001f0 65 1c e4 be 1d 12 d3 3e ac 5d ae bd 6a 24 a8 be
       -0.44552913 0.41224757 -0.0851396 -0.32840282
000200 2b a0 f4 be 1e 61 05 bd 46 07 8d 3e 6f e9 94 be
       -0.47778448 -0.03256332 0.27544612 -0.29084346
000210 3f ca 5b be ff 3c ac 3e 77 86 dc 3e 40 f8 f8 bd
       -0.2146387 0.33640286 0.4307134 -0.12156725
000220 e1 b6 1f 3e 6c 17 db 3e 7e 31 63 bd 5b c9 fe 3e
       0.15597107 0.42791307 -0.05546712 0.49762997
000230 e7 47 71 be e0 80 58 be 19 f9 33 3e e8 81 45 be
       -0.23562585 -0.21142912 0.17575492 -0.19287837
000240 08 0a 50 be f4 d5 84 bb b6 bf db 3e 4a 71 29 be
       -0.20316327 -0.0040538255 0.429197 -0.16547123
000250 64 c3 74 3e bf 2e 01 be 47 e9 14 be e2 ca a3 3d
       0.2390266 -0.12615488 -0.14542113 0.07997681
000260 08 4b e8 3e a0 f9 a0 be c7 f5 98 be c9 1a bc 3e
       0.45369744 -0.3144045 -0.29875013 0.36739185
000270 5d ab 47 be e1 87 ae 3e 39 34 8c 3e 25 d7 0e bf
       -0.19498964 0.34088042 0.27383593 -0.55797035
000280 78 0b 02 be 44 0b 02 3f db f7 90 3e 76 ba 59 bd
       -0.12699687 0.5079844 0.283141 -0.05315634
000290 2e 23 b5 3e a1 4a c5 3e 0b 91 74 3c ba db b6 3e
       0.35378402 0.385335 0.014927159 0.35714513
0002a0 76 a7 04 bf 59 6c d6 bc d1 48 e9 3d c3 c8 4c 3e
       -0.51818025 -0.026174711 0.11390842 0.1999846
0002b0 b6 64 1f 3e c0 90 34 be ba 79 db be 6c 25 63 3e
       0.15565762 -0.17633343 -0.42866307 0.22182244
0002c0 23 28 cd be 09 6e d9 3e f0 01 50 be be c5 b2 3d
       -0.40069684 0.42466763 -0.20313239 0.087291226
0002d0 9e 9e c3 be eb 73 ff be 09 8c 3e be 3e 39 e0 be
       -0.38206953 -0.49893126 -0.18608107 -0.43793672
0002e0 04 c4 a5 3e a1 37 e2 be 56 7c 2f 3d 77 56 95 be
       0.3237611 -0.44183066 0.042843185 -0.2916753
0002f0 2f 68 fe 3e fb 8d d9 be 11 27 e7 bd 32 45 58 be
       0.4968886 -0.42491135 -0.11286748 -0.21120146
000300 46 35 00 bf e0 26 76 3e 66 f8 8e be 2a 76 27 3e
       -0.5008129 0.24038267 -0.27923888 0.1635367
000310 e5 7d 4f be 3e 73 0f 3e 77 46 d9 3e 11 51 82 3e
       -0.20262869 0.14008805 0.42436573 0.25452474
000320 66 16 e3 3e 76 ae dd 3e f4 64 be 3e 58 b2 a7 be
       0.44353026 0.43297166 0.37186396 -0.32753253
000330 46 5b 55 3d 70 0f 8f bd 1f df d8 be 70 ef b1 bc
       0.052089 -0.06985366 -0.42357728 -0.021720618
000340 31 69 46 3e 9a 43 b3 be 62 8b ea 3e bb a2 c9 3d
       0.19376065 -0.35012513 0.45809466 0.098454915
000350 45 9b dc be a2 61 12 bf 4a 8e ab bd 7c 3e 96 be
       -0.4308721 -0.57180226 -0.08376749 -0.29344547
000360 8d 45 e1 be 22 af 65 3e e5 d4 94 3e d6 b6 4f be
       -0.43998376 0.22430089 0.29068676 -0.2028459
000370 54 69 e6 bd ab ff 80 3e 86 bb 24 3e a1 76 fd be
       -0.112505585 0.2519506 0.1608716 -0.4950457
000380 6a 77 89 3e c9 5c 2c 3b 41 f3 8c be cb 43 b6 be
       0.26848918 0.0026300421 -0.27529338 -0.35598597
000390 fa 21 14 bf f5 da 70 3e 4e 67 ef 3e ac 1f 2b be
       -0.57864344 0.23521025 0.46758503 -0.167113
0003a0 b6 55 7a 3e 49 72 a6 3e c9 22 dd 3e 16 d4 e7 be
       0.24446759 0.32509068 0.431906 -0.45278996
0003b0 1c b8 43 3e 88 3b 0a bf 42 4e b5 bd 6b 4e d0 bc
       0.19113201 -0.5399709 -0.08852817 -0.025428018
0003c0 ee f3 f0 3e 6e 76 57 3e ef ac 2d be 89 85 64 be
       0.47061104 0.21041271 -0.169605 -0.22316565
0003d0 81 da 2c 3c d0 e7 c7 be 9a 9b 40 3e 76 84 9e 3e
       0.010550142 -0.39044046 0.18809357 0.30960435
0003e0 62 7f ce 3e 7c 83 27 3e 75 b4 e2 3e 22 5e 9a 3e
       0.4033156 0.16358751 0.44278303 0.30149943
0003f0 d3 af 07 3f 74 ab d8 be 21 53 e6 3e fc c2 b9 3e
       0.5300266 -0.42318308 0.44985297 0.36281574

VAE_Encoder.layers.0.linear0.bias f4 [128]
000000 c2 08 bb be 20 2a a6 be a1 71 c8 3e 0c 2d 8b be
       -0.3653012 -0.32454014 0.39149192 -0.27182806
000010 78 45 c8 be 6b e3 81 3e f2 55 47 be ee 62 8a bd
       -0.391155 0.2536882 -0.1946638 -0.067571506
000020 71 15 73 3e 6c 4d db be b3 02 da be e5 67 f9 3e
       0.23738648 -0.42832506 -0.42580184 0.48712078
000030 d4 f7 92 be fb 91 9a 3d 24 68 76 3e 58 ff c2 3c
       -0.28704703 0.07547375 0.24063164 0.023803398
000040 db e4 e8 bd b1 d9 1e 3e 66 a4 dc 3e eb 58 fc be
       -0.11371776 0.1551273 0.43094176 -0.4928659
000050 71 24 fb 3e dd 99 70 be 7d 49 1c 3e cf e5 5f be
       0.4905124 -0.23496194 0.15262409 -0.21865009
000060 88 db 4e be 83 80 1e 3c f5 57 ef bc 64 8c e4 bd
       -0.20200932 0.009674194 -0.029216746 -0.1115959
000070 1b de 79 bd 6e aa ab 3e 6d 62 a7 3d ab 30 85 3d
       -0.061002832 0.33528465 0.0817307 0.06503423
000080 8b 35 35 3e cd 9e ed 3e 41 20 43 3e 93 b0 04 be
       0.17696206 0.46410218 0.19055273 -0.12957983
000090 e7 ab 50 3e e8 00 cf 3d c3 79 b8 be fc 0a e5 3e
       0.20378076 0.10107595 -0.36030397 0.44734943
0000a0 e4 63 4a bd 08 30 8d 3e c5 a2 27 be 60 ea 23 be
       -0.04941167 0.27575707 -0.16370685 -0.16007376
0000b0 b5 4e 1b 3d 9e ed c8 bc 42 28 f7 be d5 40 34 be
       0.037916858 -0.024527367 -0.48272902 -0.17602856
0000c0 7c 39 f9 3e 76 4e eb 3c 61 9a d8 be f1 72 79 3c
       0.4867667 0.028723937 -0.42305282 0.015225158
0000d0 e8 2c f1 3e cd 01 60 bd 5e 99 a0 3e 37 3b 62 3e
       0.47104573 -0.054689217 0.3136701 0.22092901
0000e0 50 75 a1 be ec 2a a8 be 43 9b fd 3e 6e 98 1b be
       -0.31534815 -0.32845247 0.49532518 -0.15194866
0000f0 5c 1e 28 be 91 13 e9 be 5e 45 61 bd 77 d6 ff bd
       -0.16417831 -0.4552274 -0.054997794 -0.12492078
000100 3d be 52 be de 76 ff 3e 65 66 98 3c 38 ad a1 3d
       -0.20580383 0.49895376 0.018603513 0.07894367
000110 88 d3 94 3d 04 fb ac bc dd bd 8b 3e b3 55 47 bd
       0.07266909 -0.021115787 0.27293292 -0.048665714
000120 7b ec 37 3e b8 13 08 3e 54 eb 67 3e ad 8f 22 be
       0.17961304 0.13288772 0.22648364 -0.1587512
000130 56 9d 09 be dd 5b 97 bd 8f 3a 90 bc 0b eb db be
       -0.13438925 -0.073905684 -0.017606048 -0.4295276
000140 31 44 fa 3e 72 b5 84 3c 54 50 7d be 48 47 bf be
       0.4888015 0.016199801 -0.24737674 -0.3735907
000150 14 79 bf bd 26 f2 c7 be f5 48 08 bf e0 86 7c 3d
       -0.09349266 -0.39051932 -0.53236324 0.061652064
000160 16 36 90 3e 97 3e e0 bd b8 3f 48 3e 44 6e 01 3f
       0.28166264 -0.10949438 0.19555557 0.50558877
000170 9c 47 35 be 52 07 c5 3e be 73 f2 bd 9d d2 ab be
       -0.17703098 0.38482147 -0.11838482 -0.33559123
000180 a4 71 ca bd 83 a1 da bd 7a 2b d2 3e 43 05 d8 be
       -0.098849565 -0.10675337 0.41048795 -0.42191514
000190 00 58 b4 3e b6 1b a9 3d 0c 6d ba 3d 85 81 ba be
       0.3522339 0.082572386 0.0910283 -0.3642694
0001a0 ba b3 b9 3e 2d 98 01 be 58 2c 2c 3e 4d 3f d0 3e
       0.36269933 -0.12655707 0.16813791 0.40673295
0001b0 27 7f 33 3e d6 be 9d be 8c 29 c5 be 4d 52 54 be
       0.17528974 -0.3080966 -0.3850826 -0.2073452
0001c0 04 46 3c 3e 5e 0c e3 3e 0a f5 20 3e 77 36 fb be
       0.18386084 0.44345373 0.15718475 -0.4906499
0001d0 b5 d4 bc bd 12 8a 8f be dd b1 0c 3f 42 29 27 3d
       -0.09220258 -0.28035027 0.549589 0.04081083
0001e0 64 2a cd bc fa d5 00 be 2a da ef be d3 d7 13 be
       -0.025044627 -0.12581626 -0.46846133 -0.14437799
0001f0 cb 58 95 be 29 de b5 3e b3 dc c9 be 93 17 35 bd
       -0.29169306 0.35521057 -0.39426193 -0.044211935

VAE_Encoder.layers.0.linear1.weight f4 [4, 128]
000000 e7 4b 56 3c a3 39 cc 3c 62 27 c7 ba 44 1f 1b bd
       0.01307962 0.024929827 -0.0015194232 -0.037871614
000010 6e 03 b6 3d 93 61 5b bd b5 92 ee bd 34 ee 03 bd
       0.08887373 -0.05355985 -0.11649076 -0.03220959
000020 ec 12 cb 3d df a5 30 bd 71 ab b6 bd c6 d4 e0 3c
       0.099157184 -0.043126937 -0.089194186 0.027445208
000030 36 2f fe 3d d6 a5 a3 bd 67 73 c5 3b 80 7e 4e 3d
       0.124113485 -0.07990615 0.00602572 0.05041361
000040 2d 03 68 bd 32 d3 9a ba d1 8b d7 ba 49 ec 9d ba
       -0.056643654 -0.0011812209 -0.0016444867 -0.0012048568
000050 30 7b 83 bd 26 3a a4 3c e2 e9 46 bd 7e 6e 15 3c
       -0.064199805 0.020047259 -0.04856289 0.009120582
000060 fd 22 a9 3d 0a cc 43 bc e0 e6 9a bd 74 30 14 3c
       0.082586266 -0.011950502 -0.07563567 0.009044755
000070 2e a2 39 bd 22 20 1b bd dd a0 05 bd a2 55 bb bd
       -0.045320682 -0.03787244 -0.032624114 -0.091471925
000080 2c a0 9e bd 56 4b 9b bd 5f 9f e5 bd 61 91 e2 3c
       -0.07745394 -0.075827286 -0.11212038 0.027657213
000090 ef 04 8b 3d 47 6a 70 bd 9d 49 14 bd 4f 8c 95 3d
       0.067880504 -0.058695104 -0.036203016 0.07302152
0000a0 82 aa c0 bd ce 5f 8c bd 0f 7f a3 3d e7 3f e0 3c
       -0.09407522 -0.06854211 0.07983219 0.027374221
0000b0 3c fa f1 bd 20 e5 96 bd 91 93 33 3d 7a aa 70 bb
       -0.118153065 -0.07367921 0.043841902 -0.0036722706
0000c0 bf 33 ed bd a5 94 3d 3d 7b db 83 3d 42 45 23 3b
       -0.115821354 0.046284337 0.06438347 0.0024913107
0000d0 38 41 77 bc b0 c5 97 3d 64 52 f4 3c 04 0d 74 3d
       -0.015091233 0.07410753 0.029824443 0.059582725
0000e0 82 8a 70 3c 84 d3 59 3d 5f d1 d8 3d 09 bc a7 bd
       0.01468146 0.053180233 0.10586809 -0.08190162
0000f0 7c 02 b3 3d 9a c7 33 bb 81 72 82 3d 2c bd 52 3d
       0.08740708 -0.0027432204 0.06369496 0.05144994
000100 73 dd 10 be 00 43 e4 3d f5 c6 ab bb 70 8f 71 3d
       -0.14146976 0.11145592 -0.0052422234 0.058974683
000110 cf a4 eb 3b a1 c0 33 3d 9e 82 92 3d f6 85 47 3d
       0.0071912776 0.043884877 0.071538195 0.04871174
000120 7d 0a 74 3d e8 74 61 bb 5d e7 7d 3d 08 4c b2 3d
       0.059580315 -0.0034401957 0.061988223 0.08705908
000130 ef ad 4d 3d 39 75 c7 3c bf 62 14 3e 47 a6 13 3c
       0.050214704 0.024347888 0.14490794 0.009011812
000140 b4 c5 fb bc 8d c0 e7 3c 22 0f f9 bd c0 6b e7 bd
       -0.03073392 0.028290058 -0.121610895 -0.112998486
000150 c4 e5 d8 bb 8d 20 15 bc cb 1a 45 bd 34 fb 42 ba
       -0.006619187 -0.009101999 -0.048121255 -0.0007437945
000160 ae ab 32 3d af 9e 64 3e 97 81 d9 bd 60 bf c4 3d
       0.043620758 0.22326158 -0.106204204 0.096068144
000170 eb ea a2 bb 76 13 37 bc 75 47 35 3d 49 58 9f 3d
       -0.004971852 -0.011174073 0.0442576 0.07780511
000180 8c c5 99 3d 76 26 b3 bd a3 c5 24 bd 31 4f dc 3c
       0.07508382 -0.0874757 -0.040227544 0.02689323
000190 eb 57 56 3d 6b df ae bd 68 f8 c3 bd 71 d7 91 bc
       0.05232994 -0.08538707 -0.09568864 -0.017802926
0001a0 37 71 45 3d c5 2d 89 bd 65 55 99 bd 57 75 4e bd
       0.048203673 -0.06698183 -0.07486991 -0.050404873
0001b0 9e d7 b9 bd b9 ef 7b bd 6c a3 f2 bd 5b c5 a5 3d
       -0.09074329 -0.061507914 -0.118475765 0.08094283
0001c0 1f 81 d6 bd 56 0e 95 bd 9b 50 ff 3c 65 08 a8 3a
       -0.10473847 -0.07278125 0.031166365 0.0012819885
0001d0 2f d8 ac 3d 96 bd 88 3d 81 1a 04 bd a6 ba 4a bd
       0.08439671 0.06676786 -0.03225184 -0.049494408
0001e0 03 51 2a bd 50 2e f0 3c 6b 7c bc bd ec ba 4a 3e
       -0.041581165 0.029318959 -0.09203418 0.19797868
0001f0 2b 60 b2 3d 2a 5f 86 3d e6 82 e7 bd b7 f8 8a bd
       0.08709749 0.0656112 -0.11304264 -0.0678572
000200 e4 87 d6 3c d7 3f 12 be ba fd 11 bd 8f 60 ea 3d
       0.026187845 -0.14282165 -0.035642363 0.11444198
000210 7e 05 63 bd 4e 72 3e 3b b1 24 96 bd cc d4 7b 3d
       -0.05542516 0.002905983 -0.07331217 0.061482236
000220 74 44 83 3d 9d c5 01 be 15 6a d9 3d 40 d3 85 bd
       0.06409541 -0.1267304 0.10615937 -0.06534433
000230 93 6e 51 bc 2f 53 ff 3c a5 41 88 3d 2c 07 8e bd
       -0.012782711 0.031167595 0.06653146 -0.06934962
000240 e8 3c 8e 3d db 27 e3 3d 47 19 f6 bd 02 af 80 3c
       0.06945211 0.11091586 -0.1201654 0.01570845
000250 7d 87 d4 bd 64 4f 55 bd be bb b0 bc 20 56 c0 3c
       -0.10377405 -0.052077666 -0.021573897 0.023478568
000260 46 ca af bd a8 05 64 bd 4c 97 5e 3d 23 22 50 bc
       -0.085835025 -0.055669457 0.054343507 -0.012703451
000270 80 f8 be 3c a5 b6 f3 bd 62 13 fd bc 3c db 9b 3c
       0.023311853 -0.11900071 -0.030893032 0.019025438
000280 f1 43 27 3d fa d5 01 3e da 17 26 bd 9a e5 c7 3d
       0.04083628 0.12679282 -0.04055009 0.0976059
000290 94 3d 99 bc 43 a5 a9 bc 14 78 55 bd fd ca 3f 3c
       -0.01870612 -0.020708686 -0.05211647 0.011706111
0002a0 54 93 2f bc 4f 8a f0 bd bd e9 e8 bd ba c6 fb bd
       -0.010716278 -0.1174513 -0.11372707 -0.122937635
0002b0 29 84 3d 3d ec 6b 0a 3e 04 2d 0c bd 27 a6 b5 3d
       0.046268616 0.13517731 -0.034222618 0.08869582
0002c0 b3 f9 91 bc 6a 98 85 bc bb f2 89 3d c9 4f 26 3d
       -0.017819261 -0.016308028 0.0673575 0.040603433
0002d0 a4 ae 61 3d e2 83 00 3e bf 24 b6 3d bb 5e 7a 3d
       0.05509819 0.1255031 0.088937275 0.0611255
0002e0 5c f6 fb 3c 16 34 30 3c a4 8f cc 3d d0 d1 a8 bd
       0.030757122 0.010754606 0.09988335 -0.082431436
0002f0 b0 a0 2f 3c 0c b2 85 3b d4 cd 42 3d f7 1f 55 3c
       0.010719463 0.0040800627 0.047559574 0.013008109
000300 14 e6 22 bd 99 2c 62 3d ba 83 99 bd d8 04 a7 bd
       -0.0397702 0.055218313 -0.07495828 -0.08155221
000310 3a eb 30 bd cb 80 f3 bb b5 48 d2 3d 9e 28 5b 3d
       -0.04319308 -0.007431125 0.10267774 0.053505532
000320 10 d2 b2 bb c4 0b a1 3d 24 9b f4 3d c4 42 b6 3d
       -0.0054571703 0.07863572 0.11943653 0.08899453
000330 24 04 95 3d 38 f9 af 3d 55 2f bd bc e5 39 59 bc
       0.072761804 0.085924566 -0.023093859 -0.013258432
000340 83 ef f2 3d 83 be 7e 3d 00 5c 67 3d 97 0e 38 3d
       0.118620895 0.062193405 0.056484222 0.04493579
000350 02 bf 26 3e 94 db 85 bd 35 e7 42 3e df 15 c7 3d
       0.16283801 -0.06536022 0.19033511 0.097209685
000360 0b fa 8c 3d 5b ec 39 3e 29 16 6c bd 00 09 16 3e
       0.068836294 0.18156569 -0.05763832 0.1465187
000370 4d 43 cc 3d 1a f0 0e 3e 51 39 9e 3b fc 50 80 bd
       0.09973774 0.13958779 0.00482861 -0.062654465
000380 e7 fb 94 3d 13 b9 d3 3c a3 f1 c4 bc 1d 66 82 bc
       0.07274609 0.025845086 -0.024041003 -0.015917832
000390 9f 29 a6 bc cc 4a 95 bd 72 79 73 3d 79 d2 ce 3d
       -0.020283518 -0.07289657 0.05944199 0.10098738
0003a0 fb 5d 4d ba 56 31 9a bd 0a 28 1b 3d 06 d1 c7 3c
       -0.00078341336 -0.07528941 0.03787998 0.024391662
0003b0 96 37 da bd 36 4b 85 3b 4a ca 69 be 91 3c 14 3c
       -0.106551334 0.0040678037 -0.22831073 0.009047643
0003c0 39 0a e1 bd f7 a9 45 bd d3 dc 9c bb 30 95 38 3d
       -0.10988278 -0.048257794 -0.0047870665 0.04506415
0003d0 ce 21 f1 bd f7 62 cb 3d 30 b9 9d 3d cb bc c7 bd
       -0.11774026 0.099309854 0.07701337 -0.09752806
0003e0 af 47 b4 3d cd 72 04 bd 3c 91 b4 bd 9b 09 17 3e
       0.08802735 -0.032336045 -0.08816764 0.14749758
0003f0 01 d8 c3 3d 01 60 98 3d 59 1e fa 3d 2a 9c bd 3d
       0.09562684 0.07440186 0.122128196 0.092583016

VAE_Encoder.layers.0.linear1.bias f4 [4]
000000 35 3e ce bc 4f b9 54 3d 31 52 e1 3d 84 80 c2 bd
       -0.025176147 0.051934537 0.11002005 -0.09497169

VAE_Encoder.layers.0.norm1.weight f4 [4]
000000 76 f8 88 3f e2 50 8b 3f 06 2b 89 3f 7c 2e 88 3f
       1.0700824 1.0884058 1.0716255 1.0639186

VAE_Encoder.layers.0.norm1.bias f4 [4]
000000 9c 52 6d 3d 86 46 53 3c 57 14 d2 3d ac 45 8e 3c
       0.05794011 0.012895232 0.10257786 0.017367207

VAE_Encoder.layers.1.attention.W_q.weight f4 [4, 4]
000000 3e 0c ae be 7f c5 b6 3e 7a 28 bf be d8 4e 67 be
       -0.33993715 0.35697553 -0.3733557 -0.2258867
000010 48 b1 00 bf f0 1c 22 3e fd ca 6a 3e 2c de ce 3e
       -0.5027051 0.15831351 0.22928996 0.4040388
000020 16 0e 1e be 4f 70 1a 3f 48 33 e9 bd d8 18 4e 3d
       -0.15435061 0.6032762 -0.11386734 0.05031666
000030 74 2d b6 be 6a eb dc 3d 36 a1 a0 be a4 d2 2a be
       -0.35581553 0.10787089 -0.31372994 -0.16681916

VAE_Encoder.layers.1.attention.W_q.bias f4 [4]
000000 0f d6 aa bc c4 3f 1e 3b ca 5b 0e bb 7b bc eb bc
       -0.020854024 0.0024146894 -0.002172219 -0.028776398

VAE_Encoder.layers.1.attention.W_k.weight f4 [4, 4]
000000 38 c5 de 3c 67 44 01 3f af 7f b5 be a0 dd a5 3d
       0.02719365 0.50495 -0.35448977 0.08098912
000010 0f a5 89 bd fb 4c a6 be 8d b7 73 3e f3 87 67 3e
       -0.067209356 -0.32480606 0.23800488 0.22610454
000020 2f 7c 43 bc 79 74 e8 3e 81 69 8e 3d be 86 49 be
       -0.011931463 0.45401362 0.06953717 -0.19680306
000030 be c5 b8 bd 39 47 69 3e ab fd 31 3e b8 45 9f 3e
       -0.09022091 0.22781076 0.17381923 0.3110788

VAE_Encoder.layers.1.attention.W_k.bias f4 [4]
000000 4b e9 eb 38 3f 6f b1 b7 3c 8b d6 38 3a 30 60 38
       0.000112491274 -2.1151847e-05 0.000102302496 5.3450676e-05

VAE_Encoder.layers.1.attention.W_v.weight f4 [4, 4]
000000 25 d7 1d be fa ee 09 be 24 a2 ac be c1 43 eb be
       -0.15414102 -0.13470069 -0.33717453 -0.4595013
000010 96 9d b6 bc ce 01 73 3e 62 89 d6 be 8a 8a ab be
       -0.02229194 0.23731157 -0.4190169 -0.33504134
000020 a3 bb 99 3d 07 25 a0 bd d1 e3 a6 3e 77 1c 3c be
       0.07506492 -0.078195624 0.32595685 -0.18370233
000030 80 60 ac be 8b 3b d6 be 9f 4c f3 3e f7 93 cf be
       -0.33667374 -0.41842303 0.47519395 -0.40542576

VAE_Encoder.layers.1.attention.W_v.bias f4 [4]
000000 2d ad 9e bb c4 54 5c bc fd b1 b7 3b ed 31 e4 39
       -0.0048424215 -0.013447944 0.0056059347 0.00043524746

VAE_Encoder.layers.1.linear0.weight f4 [128, 4]
000000 c3 2a d0 be cd 14 6d 3e 76 c0 83 be e3 c3 d4 be
       -0.40657625 0.23152466 -0.25732774 -0.415557
000010 a3 0a d9 be 7c 06 ff 3d f4 6b f3 3d 4b 87 eb be
       -0.42390928 0.12452409 0.11885825 -0.46001658
000020 59 3e 61 3e 4c 9b b9 be 74 66 ef 3e 48 0a b4 3e
       0.2199644 -0.36251295 0.46757853 0.35164094
000030 d0 5e 83 be 72 df 06 3f 98 35 8d be a6 02 5c 3e
       -0.25658274 0.526847 -0.2757995 0.21485385
000040 65 1c 10 3e 0e f6 0a 3e d8 6b 54 be b4 ca e1 bd
       0.14073332 0.13570425 -0.20744264 -0.11024991
000050 ce 2e 1f 3e f2 5d 73 3e 89 5d b1 be f4 89 01 bf
       0.15545198 0.23766306 -0.34641674 -0.50601125
000060 5d 86 54 3e be e9 cb 3e d0 ac a0 3d 78 b1 a4 3e
       0.2075438 0.3982677 0.07845461 0.32166648
000070 7e 3a b4 be 27 b1 c2 3e 15 70 08 bf 89 06 a0 be
       -0.35200876 0.38025782 -0.53296024 -0.31254986
000080 3a a8 7d 3e 4c 38 32 3e 88 4d 88 bd 6e 04 99 bd
       0.24771205 0.17404288 -0.06655413 -0.07471548
000090 36 4c 00 3f 01 9d 2a bd 3c c2 3b be c5 0a 39 3e
       0.5011629 -0.041653637 -0.18335813 0.18070515
0000a0 a0 3f 73 3e 13 ca 1c 3e e2 b5 e8 be 60 1f 92 3d
       0.2375474 0.1531146 -0.45451266 0.071348906
0000b0 8c 5b 6c be b5 6d 84 3e 15 3c c0 be 64 34 a7 bd
       -0.23081797 0.2586495 -0.3754584 -0.081642896
0000c0 20 b0 a3 3d b2 72 f2 3d 10 96 01 bf 00 bd c8 3d
       0.079925776 0.11838283 -0.506196 0.09801674
0000d0 f5 19 48 be 6d 01 32 3e 1c 5b 10 bf f9 11 09 be
       -0.19541152 0.17383356 -0.5638902 -0.13385762
0000e0 9b 5b b1 bd 44 54 fd bd d4 1a 5e 3c 5a 87 02 3f
       -0.086600505 -0.12369588 0.013556201 0.5098778
0000f0 9f a6 d1 be 1f fa 5f be 26 c9 b0 3e 3a 50 4a 3e
       -0.40947434 -0.21872757 0.34528464 0.19757167
000100 c9 5d 95 be 8e 1b ab 3e 40 91 03 bf 95 6d a9 3e
       -0.29173115 0.3341946 -0.5139351 0.33091417
000110 03 26 a5 3d 96 f2 ec be 84 c2 9e be c8 1f e9 be
       0.08063891 -0.46278828 -0.3100778 -0.4553206
000120 ed bc cb 3e de 53 d8 3e b9 0f 19 bc c7 ef 06 bd
       0.39792576 0.42251486 -0.0093421275 -0.032943513
000130 d1 72 f4 bd b4 6f 86 bd 39 c5 e7 be 5a 59 2e 3e
       -0.11935962 -0.065642744 -0.45267656 0.17026272
000140 31 42 36 be 7b 42 b7 3e 5b 85 ce be 05 c8 34 bd
       -0.17798688 0.35792908 -0.40336117 -0.044136066
000150 80 d8 02 3f 2a 46 32 3e c4 4d 2a be 7a 0d ad 3d
       0.511116 0.17409578 -0.16631228 0.08449836
000160 e8 60 62 bd 01 c7 f8 3e f0 b6 d8 be b0 c4 b2 be
       -0.0552682 0.48589328 -0.4232707 -0.34915686
000170 ae 6c b3 be a2 bf eb bd 9a 87 c0 3d 25 94 11 3e
       -0.35043854 -0.115111604 0.09400864 0.14216669
000180 fb 13 b7 3e 47 db 53 bc 09 21 84 3c 09 7f a5 3d
       0.3575743 -0.012930698 0.016129034 0.08080871
000190 75 73 f1 be 81 ca d7 3e 7c 2a 91 3d 1e 3e 69 be
       -0.471584 0.42146686 0.070881814 -0.22777602
0001a0 39 59 b5 3d 20 a5 c3 be a0 59 f4 bd d8 fd 6f be
       0.088549085 -0.38211918 -0.11931157 -0.23436677
0001b0 50 0b bc 3e d6 25 7b 3e b5 be 91 be 11 55 db be
       0.3672738 0.24526152 -0.2846581 -0.42838338
0001c0 0e 5a 06 3f 50 d9 ca 3d c3 c3 de be 0c 79 09 bf
       0.5248116 0.0990473 -0.4350873 -0.5370033
0001d0 b9 94 f2 be 3f 44 37 be 88 b4 b4 3e 71 ed 4c 3e
       -0.4737909 -0.17897128 0.35293984 0.20012452
0001e0 76 b4 b2 be cf ff e0 bd 8e 29 45 3e bc 35 02 bf
       -0.34903306 -0.109862916 0.19254133 -0.5086324
0001f0 5d ea 39 3e 57 ea ff be 85 16 2c 3e d3 c8 2e bd
       0.18155809 -0.49983475 0.16805466 -0.04267199
000200 2d 87 8f 3e d4 0f 1e be d4 79 b6 be 54 71 91 3c
       0.28032818 -0.15435725 -0.35639822 0.017754234
000210 39 d9 53 3e fc 42 c5 3d 78 7b b1 3e 24 6d ec 3e
       0.20688333 0.09631917 0.34664512 0.46177018
000220 8d 53 b8 3c 07 8d 00 3e 04 d6 bf 3e c6 75 6d 3e
       0.022500778 0.12553798 0.37467968 0.23189458
000230 82 ab 9d be 5a d9 c1 3d 06 7c fa 3e dd f5 66 be
       -0.30794913 0.09465285 0.48922747 -0.22554727
000240 a2 3c 22 bc 9c af 1c 3e fc 5d e2 3e 4d b7 e1 be
       -0.009902151 0.15301365 0.4421233 -0.4408516
000250 31 9f ba 3e f3 1b dd be 8d ab d3 be 94 3d 9d be
       0.36449578 -0.43185386 -0.4134182 -0.30711043
000260 47 dd 0c bf 6d dd a7 be 09 85 fd 3e 53 aa ad be
       -0.5502514 -0.32786122 0.4951556 -0.3391901
000270 ef 7c 15 bf f0 0d 81 be 2e b3 60 3e 37 62 d0 3e
       -0.5839376 -0.25205946 0.21943352 0.40699932
000280 76 21 10 bf 25 6d 83 3e 22 5d 30 bd 55 19 ab be
       -0.5630106 0.25669208 -0.04305757 -0.33417764
000290 a8 4d b8 be 99 b9 73 3e fa 04 38 3d 29 5a 9f be
       -0.35996747 0.23801269 0.04492662 -0.31123474
0002a0 9d 4a 1b be 48 66 86 bd 68 be 54 3e 55 76 dd 3e
       -0.15165181 -0.06562477 0.20775759 0.43254343
0002b0 17 72 63 be 4f b5 d1 3d 5d b8 4e bc 40 19 3d be
       -0.2221149 0.1023966 -0.012617198 -0.18466663
0002c0 ca 47 05 bf e7 d4 fd 3e c1 b1 03 3e 8b 91 e9 bd
       -0.52062666 0.49576494 0.12860776 -0.11404713
0002d0 d4 e8 a8 3e e9 4e e8 bd f2 79 2f bd a3 98 c7 3e
       0.32990134 -0.11343176 -0.042840905 0.3898364
0002e0 e8 bc f9 3e 41 8e d2 3e 21 fa a6 be c3 d9 96 be
       0.48776937 0.41124156 -0.32612708 -0.29463014
0002f0 3b 46 9a be 27 04 76 be 04 92 a5 3e b9 d6 a9 3d
       -0.30131707 -0.24025021 0.32337964 0.08292908
000300 0a 6d e2 be 03 1e 87 3e 90 aa ae 3e 8f 6e 5b be
       -0.44223815 0.26390085 0.34114504 -0.21428894
000310 a1 9a 0c 3f 6e 8d 1e 3e 09 2b ff 3e 4f 8e f6 be
       0.54923445 0.15483639 0.4983752 -0.48155448
000320 d5 55 df 3d 0a 5b ea bc 8a 71 ff bd 1d 73 97 3e
       0.10905043 -0.028607864 -0.12472828 0.29580012
000330 fe aa 55 bd de 5f 84 be 0a 20 7e 3e 60 02 3a be
       -0.052165024 -0.2585439 0.2481691 -0.18164968
000340 42 f5 8f bd 55 5c 6c 3e 2c 93 a4 3e 22 b5 17 be
       -0.07029201 0.23082097 0.32143533 -0.1481519
000350 18 90 04 be 8d 0d db 3e bf 7e 18 3f d9 3c e2 3e
       -0.12945592 0.42783776 0.595684 0.44187048
000360 57 ab ce be 5c 90 cc 3c 2b 5e a2 be ff fc 4b bd
       -0.40365097 0.02497118 -0.3171247 -0.049801823
000370 85 dd 20 be 14 45 1d be 0b d9 89 be b8 e6 fe 3e
       -0.15709503 -0.15358382 -0.26923403 0.497854
000380 54 ee 80 bd cc 73 03 3f b0 c1 2e be 02 80 4f 3e
       -0.062954575 0.51348567 -0.17066073 0.20263675
000390 7b d9 08 3f b2 f7 89 3e 51 7d 8f 3d 80 11 6b 3e
       0.5345685 0.2694679 0.07006324 0.22955894
0003a0 1a 02 3a 3e 93 0e 4a be bb f7 cc be fb 33 b6 be
       0.18164864 -0.19732122 -0.40032753 -0.35586533
0003b0 00 8d f8 3d 50 89 7f 3d 40 46 7b 3c 0c 0c 25 3e
       0.121362686 0.06238681 0.015336573 0.16117877
0003c0 41 9f 01 be aa c1 ce be 4f c2 17 3e 29 2b cd 3e
       -0.12658407 -0.4038213 0.14820217 0.4007199
0003d0 df f6 86 be db 7d f0 3d 7b 79 e1 be eb 8e 20 3d
       -0.26360223 0.11742755 -0.44037995 0.039198797
0003e0 e0 3e 82 3c 3d ec 9e 3e c4 79 83 be 71 c2 ef 3e
       0.015899122 0.3103961 -0.25678837 0.46828035
0003f0 bb 3c f9 3e 4d ca 9f be ce 21 df 3e 65 a0 27 3e
       0.48679146 -0.3120903 0.43580478 0.1636978

VAE_Encoder.layers.1.linear0.bias f4 [128]
000000 ff be 84 be b9 f4 59 3e 89 76 65 be ca 87 a5 3d
       -0.25926968 0.2128476 -0.22408499 0.0808254
000010 68 4e c8 3e 77 91 34 3e 24 8c a5 bc 54 b9 57 be
       0.3912232 0.17633615 -0.020208426 -0.21066791
000020 4e 48 e6 ba b7 46 4e ba cc 73 01 be 2a 74 6a 3e
       -0.0017569156 -0.00078688137 -0.12641829 0.22895876
000030 31 58 56 bd c6 ff cb bd 7d 97 46 be 28 d7 9c bd
       -0.0523302 -0.09960894 -0.19393726 -0.07658225
000040 28 f7 aa be f8 37 d0 be fb c9 1c 3e a1 5e f1 3e
       -0.3339169 -0.406677 0.15311424 0.4714251
000050 c8 a9 4f be 61 53 cc 3e 7d 54 be be 90 89 93 3e
       -0.2027961 0.39907363 -0.37173834 0.2881589
000060 b6 c3 c4 3e 55 86 00 3d 5e b6 93 be ba ec cd 3c
       0.38430566 0.03137811 -0.28850073 0.025137294
000070 d8 26 99 3e a0 aa 36 3e 3c 01 72 3e ea 60 69 3d
       0.29912448 0.17838526 0.23633283 0.05697719
000080 66 42 9d be 55 64 bd bd 0d b5 70 bd e4 24 09 3f
       -0.3071472 -0.092476524 -0.058766413 0.53571916
000090 b2 19 3e 3e ef 11 aa 3d 26 03 14 bf b4 0b fe 3e
       0.1856449 0.08304202 -0.57817304 0.49618304
0000a0 60 63 79 be fd ec 6a 3d 81 26 94 be a6 47 8c 3e
       -0.24354315 0.057354916 -0.28935626 0.27398413
0000b0 f0 61 09 be 98 b9 ff 3e d8 86 fa 3e 28 0a d6 3d
       -0.13416266 0.49946284 0.48931003 0.10451156
0000c0 13 bf 89 bd f3 ac 96 bd 48 fa 7a 3e 75 59 fa 3e
       -0.06725898 -0.07357206 0.24509537 0.48896375
0000d0 a6 f5 00 3e bd 6f 8a be 42 a5 ba 3e e4 db 37 3d
       0.12593707 -0.27038375 0.36454207 0.04488744
0000e0 31 ab a9 be bf 04 ce be 9d 5c da bc 14 ea 81 be
       -0.3313842 -0.40237996 -0.02665549 -0.253739
0000f0 33 40 0b 3f 44 58 62 3c 9a 8b 0c 3f 1a df 70 3e
       0.54394835 0.0138149895 0.54900515 0.23522606
000100 61 ae 89 3e 96 7e 91 3c f8 7a c0 bd f7 7f 8e be
       0.26890853 0.017760556 -0.093984544 -0.27832004
000110 3d e2 c2 3d fa df 45 be 16 dd b6 3b 47 77 09 3f
       0.09515808 -0.19323722 0.0055805547 0.5369763
000120 67 e4 e8 bd 85 01 e8 3e 08 f5 f7 be 39 49 f4 bd
       -0.11371689 0.4531366 -0.48429132 -0.119280286
000130 4f af 03 bf 89 88 d2 be 7a b7 8f 3e 3c 50 fc 3c
       -0.51439375 -0.41119793 0.2806967 0.030799977
000140 c5 b8 7a be b6 c0 e3 be e1 d2 14 be 78 53 98 be
       -0.24484546 -0.44482964 -0.14533569 -0.29751182
000150 10 f9 ad be eb 16 88 bd db cf 7c 3e 7c 0f 54 bd
       -0.33979082 -0.06644996 0.24688666 -0.05177258
000160 b5 a0 ad 3e 33 f7 ba be 22 45 a7 be fb 25 bf 3e
       0.33911672 -0.36516723 -0.32669932 0.37333664
000170 e0 61 2e be e6 41 02 3f 19 b6 49 3e ac d3 15 bd
       -0.17029524 0.50881803 0.19698371 -0.03657882
000180 f9 57 bf 3e e1 28 81 be 37 52 ac 3e 63 ef 02 bf
       0.37371805 -0.252265 0.33656475 -0.51146525
000190 b1 43 e6 bc bf 05 db bc 38 90 c0 3e d9 1b 9d be
       -0.02810845 -0.026736138 0.3761003 -0.3068531
0001a0 51 e6 ad 3d 8c d2 4f 3e bc 84 c8 be 32 13 b8 3e
       0.08491195 0.20295161 -0.39163768 0.35952145
0001b0 52 ef 89 be ea a3 f6 3e 55 6d f4 3e ca f5 07 3f
       -0.269404 0.48171932 0.47739664 0.5310942
0001c0 8e a5 ae 3e 20 10 18 3e 46 e2 a4 3e b9 95 d0 3e
       0.34110683 0.14849901 0.32203883 0.4073923
0001d0 c9 5c c1 bc 7a cc 4d 3e f8 f9 05 be d5 de 83 be
       -0.023603814 0.20097533 -0.13083637 -0.25755945
0001e0 5f 29 ae bb 66 f0 af be 79 11 12 be 84 9d 1a bd
       -0.0053149904 -0.34363097 -0.14264478 -0.037747875
0001f0 81 34 d7 be 75 ad 03 bd 7c 0f cf be c4 18 f1 bb
       -0.42032245 -0.032147843 -0.404415 -0.0073576886

VAE_Encoder.layers.1.linear1.weight f4 [4, 128]
000000 44 6d 79 bd fd fb d9 bd 1c b2 8a be 7d 39 71 3d
       -0.06089522 -0.10643766 -0.27089012 0.058892716
000010 f8 ca da 3c 97 54 d0 3d 69 b7 1b 3d 8e 7a 6b 3d
       0.026708111 0.10172384 0.03801671 0.057489924
000020 b3 76 d8 3c d6 59 91 3d 16 c7 80 3d 62 c5 19 bc
       0.026423788 0.07097213 0.06287973 -0.009385439
000030 4a 8a f3 3c fb a8 da 3d 59 c4 95 bd 82 49 e2 bd
       0.029729027 0.10676762 -0.07312841 -0.11049177
000040 3d 70 76 3d 50 77 8e 3e 2d 2c 92 3d 73 76 c2 3d
       0.060165633 0.27825403 0.07137332 0.09495249
000050 f1 fb 7f 3d a8 a0 e3 bb 61 15 fc bb 5f 1b 7d bd
       0.06249613 -0.006946642 -0.0076929783 -0.06179368
000060 1e 18 aa 3c b8 84 49 bd 13 8f 0d 3e b8 a4 51 bd
       0.020763453 -0.049198836 0.1382411 -0.05118248
000070 a5 69 1b bb bb f0 cf bd 2d 44 8a bd d4 c2 21 3d
       -0.0023714092 -0.101533376 -0.06751285 0.039492443
000080 37 12 97 ba a8 6a 34 3d b5 de 00 bd 5c 55 e3 bd
       -0.0011525814 0.044047028 -0.03146239 -0.111002654
000090 d0 06 0a be dd fd bf 3d 74 03 86 bd 57 0f ca bd
       -0.13479161 0.093745925 -0.065436274 -0.09866207
0000a0 46 03 05 be b6 75 4e 3b 5c e4 ac 3c 55 b0 62 bd
       -0.1298953 0.0031503267 0.021104984 -0.055343945
0000b0 40 49 29 bd 56 d8 9e 3d 0c db 0f 3d 16 8f 83 3b
       -0.041329622 0.077561066 0.03512101 0.00401486
0000c0 23 53 99 bd c7 8e 15 be 95 18 b1 3c 96 96 57 bd
       -0.0748656 -0.14605246 0.021618167 -0.052633844
0000d0 7d 52 c4 bd 3d d1 39 be d8 4c a7 3d b9 d8 9c bd
       -0.09586046 -0.18146224 0.08168954 -0.07658524
0000e0 f9 5e 84 3d 2b 7c 86 3c 23 df f2 3d 1a 1f a4 bd
       0.06463427 0.01641663 0.11858966 -0.08013745
0000f0 c1 35 c7 bd 47 5d c2 3d a0 7a 93 3d 1a 3a 63 3d
       -0.097270496 0.094904475 0.07201123 0.05547533
000100 d0 b4 36 3c 29 19 b7 3d 9b 32 b5 bd e4 8a 1e bd
       0.0111515075 0.08940346 -0.08847543 -0.038706675
000110 7e c0 b5 bd 74 33 1d 3e d3 21 10 3d b7 25 e5 bd
       -0.088746056 0.15351659 0.035188507 -0.11188834
000120 e8 7b 44 3e 93 33 46 bd e8 b6 3c 3d 3f 75 9c 3c
       0.19187891 -0.04838903 0.04607287 0.019098876
000130 4f 33 6a bd e3 35 14 3f b0 8f af bd 4d ef a8 3c
       -0.057177838 0.57894725 -0.08572328 0.02062192
000140 d8 db ce 3d 5d 57 1f bd bc b2 3b 3d 07 4c 4f bc
       0.101005256 -0.038901675 0.04582475 -0.012652404
000150 23 fb 14 bd 50 f8 76 3d bf fe c8 3d 97 b5 bb bc
       -0.036372315 0.060295403 0.09814214 -0.022913737
000160 10 2a 28 bc 8f 1d 45 bd 54 9b a1 3c aa 84 5e 3c
       -0.010263935 -0.048123892 0.019727387 0.013581434
000170 50 5e 88 3d df 6c dd 3d 6b 26 25 be ad 02 4a 3a
       0.06658614 0.10811781 -0.16127937 0.0007706087
000180 10 65 fc 3d cf 54 17 bc 8b 6d 76 bd 5c b0 d3 3d
       0.12323964 -0.009236529 -0.060163062 0.10336372
000190 dc 98 32 3d d7 a5 14 bc 44 79 9a 3d 8a 11 7d 3d
       0.04360281 -0.009072742 0.07542661 0.061784305
0001a0 50 1a 94 3d 96 db 0c 3d 70 35 f6 bd 5d f4 97 bd
       0.07231581 0.0343891 -0.12021911 -0.074196555
0001b0 a5 8e d5 3c 60 18 bf 3b 31 ea 8c bd 5d 35 e3 3d
       0.026068995 0.005831763 -0.06880606 0.110941626
0001c0 cb 06 26 bd 6c 00 24 3c 3e e7 cb bb 6b 8b 1f be
       -0.040533822 0.010009866 -0.0062226346 -0.15580527
0001d0 e7 45 eb 3c 6f c5 3f bd 09 53 12 3e 0f 7b a5 bb
       0.028719855 -0.046819147 0.14289488 -0.00505007
0001e0 0c ef e7 bc bd d9 01 3e be 80 9e 3b 2c 53 09 3f
       -0.028312229 0.12680717 0.0048371246 0.53642535
0001f0 53 ed a3 3c 95 28 fb bd 4f 4e 04 bd a3 e3 09 bd
       0.020010626 -0.122636 -0.032301243 -0.033664357
000200 0b 93 d0 bc 1c 27 a8 3d 42 62 62 be 04 60 c9 3d
       -0.02546074 0.082105845 -0.22107795 0.09832767
000210 a6 b3 bd 3c 7e 5f 6a bd a5 7c 4b 3d 27 36 37 3c
       0.023156952 -0.057219975 0.049679417 0.0111823445
000220 d4 5c 73 bd 61 f5 6b be 23 61 98 bd 35 99 cd 3c
       -0.0594147 -0.23042823 -0.07440402 0.025097469
000230 29 2c c1 3d 3b 02 74 3c 2e a7 38 bd 9b c5 6b 3c
       0.09432251 0.01489311 -0.04508131 0.0143903745
000240 ae 27 dc bc 4a 82 d9 bd 8f 7d c7 3c 65 94 c1 3b
       -0.02687439 -0.10620554 0.024351863 0.0059075826
000250 9b f1 06 3d de eb f1 bd f6 12 23 3d 61 23 67 3b
       0.032945257 -0.11812566 0.039813004 0.003526889
000260 ff 49 96 bd 56 4a 5e 3d 47 c0 0d be 73 98 dc bd
       -0.073383324 0.05427011 -0.13842879 -0.10771265
000270 37 02 0b be 6e 85 6f 3d 47 b5 a0 3d 0f 43 b0 bd
       -0.13575064 0.058476858 0.07847076 -0.086065404
000280 bc 6d 6b bd ec 82 21 be fa 31 d1 3a db cf a7 3c
       -0.057477698 -0.15772599 0.0015960329 0.020484855
000290 ed f2 61 3d 52 74 9d bd a5 4f ba 3d d0 af 36 3d
       0.055163313 -0.07688202 0.09097222 0.04460126
0002a0 90 d7 d7 3d 14 69 19 bc 49 02 f6 bc 56 02 b5 3d
       0.10539162 -0.0093634315 -0.030030387 0.08838336
0002b0 fa 4b dd 3d 18 88 32 be ad 07 70 bd b9 06 e1 3b
       0.10805507 -0.17434728 -0.05860107 0.0068672565
0002c0 e2 7e 9f 3b 3d 8e 29 be 86 d1 33 bd b9 bd 3b bd
       0.0048674205 -0.16558166 -0.04390099 -0.04583523
0002d0 d3 fb 66 3d dc c8 0d 3e 9d 44 84 bd 41 a9 e9 bd
       0.056392502 0.13846153 -0.064583994 -0.11409236
0002e0 10 2b e6 3d 00 45 27 be fc bf 6d bd 2b 1c 8c 3b
       0.11238682 -0.16334915 -0.05804442 0.004275819
0002f0 81 36 ad bd 4f 51 8a bc 34 95 58 bd b8 e0 40 bd
       -0.084576614 -0.016884474 -0.052876666 -0.04708931
000300 d7 39 22 be ea 20 10 be 2f ea 3d bc 90 c0 cb bd
       -0.15842377 -0.14075056 -0.011591478 -0.09948838
000310 b2 80 b3 bd ec 6f 41 be b5 74 31 3b 2b 2e 09 3a
       -0.08764781 -0.18890351 0.002707762 0.0005233015
000320 80 ab fb bd ce 23 8f 3d 74 82 98 3c eb 38 13 3e
       -0.122885704 0.06989251 0.018616892 0.14377181
000330 c3 6e 36 3d 22 7c 22 3c 1e d7 1b 3d c0 53 2d be
       0.044539224 0.009917291 0.03804695 -0.1692648
000340 6e 87 9a 3d 4c aa a1 3d 8a f4 7c bd 26 d8 2f bc
       0.075453624 0.0789381 -0.061756648 -0.010732686
000350 5c e4 07 3d 46 67 fe bd 65 f6 35 be b4 52 cc bc
       0.033176765 -0.124220416 -0.17769773 -0.02494178
000360 9a b6 8f bc 21 ec a1 3c 12 e3 15 3e 04 20 8e 3b
       -0.017543126 0.019765915 0.14637402 0.0043373127
000370 15 ee 14 bd d1 49 bd 3b 3d dd 31 bd 9f 32 12 bd
       -0.036359865 0.005776622 -0.04342388 -0.035692807
000380 4a 39 f9 bd fc de e5 bd 36 5c 81 bd 7a 5f 81 bd
       -0.1216913 -0.112241715 -0.06316416 -0.06317039
000390 8c d2 23 be 0f 0e 58 bd c6 61 23 bd cd fa 02 be
       -0.15998286 -0.052747782 -0.039888166 -0.12790985
0003a0 fb a2 e3 3d 78 00 4d bd 6d 2e 26 3e d1 db 44 bd
       0.111150704 -0.050049275 0.16228648 -0.048061196
0003b0 99 a6 31 be 5e aa 70 bc a9 c5 74 bd b1 3d b1 bd
       -0.17348708 -0.014689056 -0.059758816 -0.08654345
0003c0 3d 11 17 3d 9b be aa 3c 1a f9 ec 3d 79 bf 25 3e
       0.036881674 0.02084284 0.1157095 0.16186322
0003d0 77 15 e7 bd 14 a5 ca ba 03 a6 f2 bb 39 5f 0d 3c
       -0.11283391 -0.0015460574 -0.007405044 0.00862866
0003e0 f8 5f af be 90 ba 64 be 56 80 f3 bd a9 c0 df be
       -0.34252906 -0.22336793 -0.118897125 -0.43701676
0003f0 58 8c 0a bb 7a 80 0d bd 6a 06 31 3d f2 cf f1 bd
       -0.002114078 -0.034546353 0.043219008 -0.118072405

VAE_Encoder.layers.1.linear1.bias f4 [4]
000000 2e ce 59 bd ed 70 a9 bd 67 21 aa bb db 5f b2 3d
       -0.053175144 -0.08273492 -0.00519197 0.08709689

VAE_Encoder.layers.1.norm1.weight f4 [4]
000000 98 84 93 3f 87 58 87 3f 62 67 91 3f 9e 38 8f 3f
       1.1524839 1.0573891 1.1359675 1.1189153

VAE_Encoder.layers.1.norm1.bias f4 [4]
000000 60 66 81 3d bb 9d 8c 3b 50 e6 98 3c 69 bb a7 3d
       0.063183546 0.004291264 0.018664509 0.081900425

VAE_Encoder.layers.1.norm0.weight f4 [4]
000000 e8 27 88 3f 01 fe 84 3f be e9 7d 3f 6c 22 81 3f
       1.0637178 1.0390016 0.9918479 1.008863

VAE_Encoder.layers.1.norm0.bias f4 [4]
000000 03 72 8a 3c 16 c9 7d bc 24 66 57 3c 33 b2 8f 3c
       0.016900068 -0.015489837 0.013146911 0.017541027

VAE_Encoder.last_normalization.weight f4 [4]
000000 00 00 80 3f 00 00 80 3f 00 00 80 3f 00 00 80 3f
       1.0 1.0 1.0 1.0

VAE_Encoder.last_normalization.bias f4 [4]
000000 00 00 00 00 00 00 00 00 00 00 00 00 00 00 00 00
       0.0 0.0 0.0 0.0

VAE_Encoder.head.weight f4 [4, 4]
000000 26 87 90 be 94 9e 22 be fa c1 9f be 44 99 6f be
       -0.2822811 -0.15880805 -0.3120268 -0.2339831
000010 0c c4 70 be a4 b3 ef be ba d1 e4 3e c8 f1 6f be
       -0.23512286 -0.46816742 0.4469126 -0.23432076
000020 58 5e d4 be 70 12 6f bd a8 b6 a2 be 14 dd 2a 3e
       -0.4147823 -0.058367193 -0.3177998 0.16685897
000030 20 2c ea 3e 84 da 26 3e c8 1f f4 bd 0a 0c cd 3e
       0.4573679 0.16294295 -0.11920124 0.40048248

VAE_Encoder.head.bias f4 [4]
000000 ae a2 87 be e8 a0 d4 bd f0 e1 88 3e f0 65 97 be
       -0.26491302 -0.10382253 0.26734877 -0.2956996
