tabsyn/vae/ckpt/abalone/model.pt (torch, 62249 bytes, 96 tensors)

VAE.Tokenizer.weight f4 [9, 4]
00000000: 1bbc d03e cf7a ad3c a677 b63e 458a 42be
00000010: 58e6 413d 61fc 3b3c 06f3 d03d 9678 fb3e
00000020: 67bf 6dbe b16c 06bf 0757 8ebe 95df b03e
00000030: 3e44 e83e ba06 f0be 44fa 733d 3314 8dbe
00000040: d486 25bf 9daa 88be dd2c ba3e 1add cabe
00000050: a5d3 2f3e e5f2 b8be cae4 103f 263e 0b3e
00000060: 3762 02be 0e21 d8be e8e5 993b 4937 b53e
00000070: 367f a93d 6c7e 00bf b4d9 bf3e 60a8 803e
00000080: c478 fcbe de82 b6be 02f8 0a3d 6453 febe
0.40768513 0.021176724 0.3563816 -0.18998058 0.047338814 0.011473746 0.10202603 0.49115437
-0.23217545 -0.525096 -0.27800772 0.3454558 0.45364565 -0.46880132 0.059564844 -0.27554473
-0.64658856 -0.26692668 0.36362353 -0.39621812 0.1717058 -0.36122814 0.56599104 0.13597926
-0.12732778 -0.4221272 0.0046965964 0.35393742 0.08276217 -0.50192904 0.37470782 0.2512846
-0.49310887 -0.3564672 0.033927925 -0.49672997

VAE.Tokenizer.bias f4 [9, 4]
00000000: 4306 9c3e 5012 00bd f124 29be 3f05 2bbe
00000010: 8b55 363e 6088 e5be 99fc 7dbe 308e bfbe
00000020: 02dc 463e e963 7ebb e5d5 a7be d88f d1be
00000030: ee1f 143e 5789 09be 2a35 f63e aa81 c13b
00000040: a4b7 c43e 6f84 f0be c0e4 7b3d c195 53be
00000050: 15d8 9d3d 344d 3b3d 8b85 d6bd f494 463e
00000060: 6214 f6be 3677 fbbb 6180 6a3d b560 0cbe
00000070: 88ca a13e e0d9 c8be 0f3d 02be cde8 a3be
00000080: e428 823e 2950 703e 083e 5fbe 0701 5c3e
0.30473527 -0.031267464 -0.16517998 -0.1670122 0.1780607 -0.44830608 -0.2480339 -0.37413168
0.19419864 -0.0038816875 -0.32780376 -0.40930057 0.14465305 -0.13431297 0.48087436 0.0059053497
0.38421357 -0.4697604 0.06149745 -0.20662595 0.0770723 0.045727924 -0.1047469 0.19392759
-0.48062426 -0.007674123 0.057251338 -0.13708766 0.31599832 -0.39228725 -0.12718605 -0.3201355
0.25421822 0.23468079 -0.21801007 0.21484767

VAE.Tokenizer.category_embeddings.weight f4 [3, 4]
00000000: 40d8 07bf 5818 0a3e 0369 77be 261d 5cbe
00000010: e69e 01bf f52e 03be 1002 4cbe a3c9 503e
00000020: 2920 d63d 5867 dc3d a378 b33d 2c6b 00bf
-0.53064346 0.13485849 -0.24161153 -0.21495494 -0.50633085 -0.12810881 -0.19922662 0.20389418
0.10455353 0.10761899 0.08763244 -0.5016353

VAE.encoder_mu.layers.0.attention.W_q.weight f4 [4, 4]
00000000: 2e98 033f 7581 1abf 0e74 263f 2b5b 013e
00000010: 5617 42bf 4206 50bd e3b4 4a3f 7a0e bcbe
00000020: 984b 5bbe 3e08 5a3f 1fae 8cbd 7ed4 05bf
00000030: 1f07 b9be 0b71 20be 6834 04bf 8ba1 7f3c
0.5140408 -0.60353786 0.65020835 0.12632434 -0.7581686 -0.050787218 0.7918226 -0.36729795
-0.21415555 0.85168827 -0.068691485 -0.5227736 -0.36138245 -0.15668122 -0.51642466 0.01560248

VAE.encoder_mu.layers.0.attention.W_q.bias f4 [4]
00000000: adb0 223d 992d 14be afc8 6dbd b486 fdba
0.039719272 -0.14470519 -0.058052715 -0.0019342513

VAE.encoder_mu.layers.0.attention.W_k.weight f4 [4, 4]
00000000: 599d 303f 4388 653e 3ca5 0e3f 9733 f13d
00000010: eeee 2ebf 917f 6dbe 5f7e b73e 3a13 01bf
00000020: af69 e9be 70d8 fa3e 7971 3ebe d3c4 b63d
00000030: d46e 01be 9d68 aa3e 5ad8 f0be c751 b3bd
0.68990093 0.22415261 0.5572088 0.11777418 -0.6833333 -0.23193194 0.358386 -0.5041996
-0.45588443 0.48993254 -0.18597974 0.0892426 -0.12639934 0.3328294 -0.47040063 -0.08755832

VAE.encoder_mu.layers.0.attention.W_k.bias f4 [4]
00000000: 397c 9138 e33b cf38 1cdb 0536 da9f 7138
6.937277e-05 9.881684e-05 1.9946083e-06 5.760775e-05

VAE.encoder_mu.layers.0.attention.W_v.weight f4 [4, 4]
00000000: 6d82 8b3e 5589 be3d 5e99 55be 9039 b83b
00000010: 5a74 10be c316 bd3c 1545 c13d 5d2b d53c
00000020: fe05 c23e dedd f9be ea8b 103f 7c35 903d
00000030: e6ab c43e 10a6 533d d64b 1b3e b819 42be
0.27247944 0.09303538 -0.20859286 0.0056220964 -0.14106885 0.023082143 0.094370045 0.026021654
0.37895197 -0.48802084 0.5646349 0.07041451 0.38412398 0.05167204 0.15165648 -0.18955123

VAE.encoder_mu.layers.0.attention.W_v.bias f4 [4]
00000000: b95a ac3d f75f 90bd 4f79 213d 8782 57bd
0.084157415 -0.07049554 0.03942233 -0.052614715

VAE.encoder_mu.layers.0.linear0.weight f4 [128, 4]
00000000: 90f2 c2bc 4cba 903e 151a 6fbe 2e74 bb3e
00000010: 5f07 d9bd 004e 963e d590 243e cbb7 f9bc
00000020: 34e1 7dbe ccba 913e d16d 803e d0b0 023f
00000030: ef3a 9b3e 2b23 433e ded4 e43e 558f 4fbe
00000040: c6b3 ef3e a31d b7be b52f d53e 40cb 93bd
00000050: 95fb bbbe e72f 81bc 2370 45be 6bbd 213e
00000060: 46ae c1be a275 943e 60d8 29bd 7ab3 e03e
00000070: c2ee b33c a06d 063f f566 983e 3b5d f93c
00000080: 1e46 233d 00c4 96be f172 d03c cb9c b9be
00000090: 84af ffbe 0a4b 86be e948 eebe 5e5a c43e
000000a0: 70bc 8abe a23c a03e 3900 0cbe 768d ec3d
000000b0: f26d 8bbe e90d d6be 6132 efbe 758d 0abe
000000c0: 68fd 4bbb a0cb 58be c64f 953e da36 283e
000000d0: 3ae7 6abe 0ab5 d3bd 73e7 97be cf40 c93e
000000e0: 0c6f 3b3e ef10 c33c e7b3 90be 02ad febe
000000f0: f292 b2bd c86d e13d 2b09 4d3e 6e9c ce3e
00000100: 59b7 a7be a1c6 f4be 5447 c83e 5355 033e
00000110: 75cd dc3e 187b 98be 1375 09be d264 b1be
00000120: 4a40 c83e 757e 1bbd db36 a2be 68d9 a63e
00000130: 99ff b43d d272 c3bd c90c 96bd aa60 66be
00000140: 3de7 00be 746b 5dbe 3994 4f3e 5c21 cd3e
00000150: 004a 823e 732c 313e cfb5 ac3e f77f cbbe
00000160: 28fe df3d cb20 8fbe 8b62 613e 063c c03e
00000170: 6fd3 7dbe 056f bcbe 40db 96bd 52fe 11be
00000180: 386f 8fbe 0308 9c3d f29b b5bc 3acf 993e
00000190: 5205 443e a24f 9abd 8766 8ebe b170 013f
000001a0: 3d4c d9bd fc45 5e3e 599d 753d db81 adbd
000001b0: 4a91 c03e eadb d63e cfba c33d a285 633e
000001c0: fc48 a13e 3f1b c3be 1c58 d73e aa18 943e
000001d0: 2dee cc3e 21b5 1cbe 9a63 03bf 7792 bf3e
000001e0: 73a4 193c 063b 3d3e 07dc 863e d933 cd3e
000001f0: 291b e4be 5111 d33e e558 aebd 1026 a8be
00000200: 2ea0 f4be fc5c 05bd e606 8d3e 6fe9 94be
00000210: 2ac3 5bbe 263c ac3e ca82 dc3e 18f0 f8bd
00000220: 31b8 1f3e 8517 db3e e42c 63bd dcc7 fe3e
00000230: 4b4c 71be 3e83 58be 43f4 333e b475 45be
00000240: 2408 50be 7df0 83bb 51bf db3e a078 29be
00000250: 29c4 743e 9b2f 01be ede9 14be 19cb a33d
00000260: c14b e83e 3bf8 a0be b0f8 98be c91a bc3e
00000270: 8aae 47be d284 ae3e e535 8c3e 6ad6 0ebf
00000280: 7808 02be a909 023f 65fb 903e e6e1 59bd
00000290: 6924 b53e 3a4a c53e 0eab 743c badb b63e
000002a0: 3fa9 04bf 1249 d6bc 6c65 e93d 0cc3 4c3e
000002b0: 3367 1f3e 1992 34be 5b7b dbbe 9824 633e
000002c0: d12d cdbe 096e d93e 5b00 50be dac4 b23d
000002d0: 8c9e c3be 6a72 ffbe 4d8e 3ebe 8b39 e0be
000002e0: 8ec2 a53e 3738 e2be 7276 2f3d ca51 95be
000002f0: 1968 fe3e 458d d9be 7628 e7bd 9a45 58be
00000300: a033 00bf 5b29 763e 8efa 8ebe e272 273e
00000310: 8081 4fbe f57b 0f3e 5e41 d93e d652 823e
00000320: 4c1b e33e 6fa9 dd3e a161 be3e 58b2 a7be
00000330: 7f58 553d a906 8fbd c5e0 d8be 9ef7 b1bc
00000340: 8269 463e f743 b3be 5f8b ea3e 7aa4 c93d
00000350: 159c dcbe 945e 12bf 22a0 abbd 223e 96be
00000360: fd47 e1be 19ae 653e 02d4 943e 7fb1 4fbe
00000370: c164 e6bd aafd 803e d0b8 243e 9874 fdbe
00000380: 5077 893e 9192 2c3b 36f3 8cbe cb43 b6be
00000390: bb21 14bf b9e1 703e 0b63 ef3e 3d21 2bbe
000003a0: 7352 7a3e bf70 a63e ad23 dd3e 70d2 e7be
000003b0: e8b4 433e 883b 0abf db55 b5bd 4836 d0bc
000003c0: eef3 f03e 8877 573e 35ae 2dbe c381 64be
000003d0: 1a71 2d3c c5e7 c7be c895 403e d082 9e3e
000003e0: d87c ce3e 5f84 273e 6cb2 e23e e863 9a3e
000003f0: 27ae 073f b2ab d8be 514f e63e c0c9 b93e
-0.023797303 0.28267133 -0.23349793 0.36612076 -0.10597109 0.29356384 0.16070874 -0.030483147
-0.2479294 0.28462827 0.25083783 0.51051044 0.303184 0.19056384 0.44693655 -0.2026952
0.46816844 -0.357648 0.4163796 -0.07216501 -0.3671538 -0.015769912 -0.19281058 0.15794913
-0.37828273 0.28995997 -0.041466117 0.4388693 0.021964435 0.52511024 0.2976605 0.030439964
0.03986179 -0.2944641 0.025445433 -0.36252436 -0.49938595 -0.26229125 -0.4654 0.38350195
-0.2709689 0.3129626 -0.1367196 0.11550419 -0.2723232 -0.41807488 -0.46718124 -0.13530524
-0.0031126384 -0.21171427 0.29162425 0.16427174 -0.22939768 -0.10337265 -0.2966877 0.39307258
0.1830408 0.023811786 -0.28262255 -0.4974137 -0.08719434 0.11007267 0.20023029 0.4035372
-0.3275707 -0.47807792 0.3911692 0.12825517 0.431255 -0.29781413 -0.13423567 -0.34647232
0.3911155 -0.037962396 -0.31682476 0.32587743 0.08837814 -0.095433846 -0.07326657 -0.22497812
-0.1258821 -0.21623021 0.20271386 0.40064514 0.25447083 0.17302112 0.3373246 -0.39746067
0.10937148 -0.27954707 0.22010247 0.37545794 -0.24787687 -0.3680345 -0.07366037 -0.14257172
-0.2801454 0.076187156 -0.022169087 0.30040914 0.19142655 -0.0753472 -0.27812597 0.5056258
-0.106102444 0.21706384 0.05996451 -0.084720336 0.37610847 0.41964656 0.09557115 0.22218946
0.31500995 -0.38106725 0.4205941 0.28925067 0.40025464 -0.1530347 -0.51323855 0.3741643
0.009377587 0.18479547 0.26339743 0.4007862 -0.44551972 0.4122415 -0.08513049 -0.3284154
-0.47778457 -0.03255938 0.27544326 -0.29084346 -0.21461168 0.3363964 0.43068534 -0.12155169
0.15597607 0.4279138 -0.055462733 0.49761856 -0.2356426 -0.21143815 0.17573647 -0.19283181
-0.20315605 -0.004026471 0.429194 -0.16549921 0.23902954 -0.12615816 -0.1454236 0.07997722
0.45370296 -0.31439385 -0.29877234 0.36739185 -0.19500175 0.3408571 0.27384868 -0.5579592
-0.12698543 0.5079599 0.283168 -0.05319395 0.3537934 0.38533193 0.014933361 0.35714513
-0.5182075 -0.02615789 0.11396298 0.1999628 0.15566711 -0.17633857 -0.4286755 0.22181928
-0.40074018 0.42466763 -0.20312636 0.08728953 -0.382069 -0.49891979 -0.18608971 -0.43793902
0.32374996 -0.44183514 0.042837568 -0.29163963 0.49688795 -0.42490593 -0.11287014 -0.21120301
-0.50078773 0.24039213 -0.27925533 0.16352418 -0.20264244 0.1401213 0.42432684 0.25453824
0.44356763 0.4329333 0.3718386 -0.32753253 0.05208635 -0.06983692 -0.42358986 -0.021724518
0.19376186 -0.3501279 0.45809457 0.098458245 -0.4308783 -0.57175565 -0.08380152 -0.2934428
-0.44000235 0.22429694 0.29068 -0.20282553 -0.11249686 0.2519353 0.16086125 -0.49503016
0.2684884 0.0026332478 -0.27529305 -0.35598597 -0.5786397 0.23523606 0.4675525 -0.16711898
0.24445514 0.32507893 0.4319128 -0.4527774 0.19111979 -0.5399709 -0.08854266 -0.025416508
0.47061104 0.21041691 -0.16960986 -0.22315125 0.010586048 -0.39044014 0.18807137 0.30959177
0.40329623 0.1635909 0.4427675 0.30154347 0.5300011 -0.42318493 0.4498239 0.36286736

VAE.encoder_mu.layers.0.linear0.bias f4 [128]
00000000: c208 bbbe 8323 a6be a66f c83e b332 8bbe
00000010: 6d46 c8be 0ae3 813e 4c54 47be 3b62 8abd
00000020: 2e14 733e 6c4d dbbe 6e01 dabe 9a65 f93e
00000030: 92f6 92be 0a92 9a3d 3968 763e 1067 c33c
00000040: 39e8 e8bd bdd9 1e3e 60a4 dc3e eb58 fcbe
00000050: 7124 fb3e 2397 70be 9047 1c3e 9dea 5fbe
00000060: c9d7 4ebe 248e 1e3c e441 efbc a589 e4bd
00000070: 74e6 79bd d6ab ab3e c067 a73d dc2e 853d
00000080: 4c32 353e e89e ed3e ad24 433e 84b4 04be
00000090: 32aa 503e 7bfd ce3d c379 b8be 040b e53e
000000a0: e45f 4abd be30 8d3e 10a1 27be 52eb 23be
000000b0: 9148 1b3d 5e0e c9bc df2a f7be c843 34be
000000c0: 1239 f93e 411e eb3c cd98 d8be d71e 793c
000000d0: f42a f13e 8830 60bd 9b98 a03e b73c 623e
000000e0: f275 a1be b82f a8be 259b fd3e 759b 1bbe
000000f0: 781d 28be 5b14 e9be 2f52 61bd 07e1 ffbd
00000100: 01c3 52be ec77 ff3e f76c 983c 24a3 a13d
00000110: a4dc 943d 49fa acbc 44bc 8b3e 4463 47bd
00000120: 9de9 373e 7418 083e 79e9 673e 0a90 22be
00000130: 8ba0 09be eb5c 97bd 5057 90bc bcea dbbe
00000140: 6342 fa3e 3cb4 843c 5150 7dbe ac47 bfbe
00000150: 2c77 bfbd 06f4 c7be 7247 08bf 1c8e 7c3d
00000160: 3835 903e 1e52 e0bd 1f3e 483e 446e 013f
00000170: 1846 35be f605 c53e a677 f2bd 76cf abbe
00000180: c67c cabd da9f dabd e82a d23e 9d03 d8be
00000190: 8357 b43e 2a17 a93d 6b87 ba3d 9681 babe
000001a0: 3eb2 b93e 0599 01be ff2b 2c3e 4d3f d03e
000001b0: e57f 333e 2bbd 9dbe 4e20 c5be 0751 54be
000001c0: 0446 3c3e ef0d e33e 4ef2 203e 013c fbbe
000001d0: a6cb bcbd cd8b 8fbe 35b0 0c3f 4720 273d
000001e0: 8645 cdbc fad5 00be bfdc efbe 09cb 13be
000001f0: 7a57 95be 1ade b53e 45da c9be 2d09 35bd
-0.3653012 -0.32448968 0.3914768 -0.27187118 -0.3911623 0.2536853 -0.1946575 -0.06757017
0.23738167 -0.42832506 -0.42579216 0.48710328 -0.28703743 0.07547386 0.24063195 0.023852855
-0.11372418 0.15512748 0.43094158 -0.4928659 0.4905124 -0.23495154 0.15261674 -0.21866842
-0.20199503 0.009677444 -0.029206224 -0.11159066 -0.061010793 0.33529538 0.081740856 0.06503078
0.17694968 0.46410298 0.1905696 -0.12959486 0.20377424 0.10106941 -0.36030397 0.44734967
-0.049407855 0.2757625 -0.16370034 -0.16007736 0.037911 -0.024542984 -0.48274896 -0.17603981
0.48676354 0.02870095 -0.42304078 0.015205107 0.47103083 -0.054733783 0.3136643 0.22093473
-0.31535298 -0.32848907 0.49532428 -0.15196021 -0.16417491 -0.45523342 -0.055010017 -0.124940924
-0.205822 0.4989618 0.018606646 0.07892445 0.07268646 -0.021115439 0.27292073 -0.04867865
0.1796021 0.13290578 0.22647657 -0.15875259 -0.13440149 -0.073907696 -0.017619759 -0.42952526
0.48878774 0.016199224 -0.2473767 -0.3735937 -0.09348902 -0.39053363 -0.53234017 0.061658964
0.28165603 -0.109531626 0.19554947 0.50558877 -0.1770252 0.3848111 -0.118392274 -0.33556718
-0.0988708 -0.106750205 0.4104836 -0.42190257 0.35223016 0.08256371 0.0910786 -0.3642699
0.362688 -0.12656029 0.16813658 0.40673295 0.17529257 -0.30808386 -0.3850121 -0.20734034
0.18386084 0.44346568 0.15717432 -0.49069217 -0.0921853 -0.28036347 0.5495637 0.040802266
-0.025057565 -0.12581626 -0.46848103 -0.1443292 -0.29168302 0.35521013 -0.3942434 -0.044198204

VAE.encoder_mu.layers.0.linear1.weight f4 [4, 128]
00000000: 4e55 563c 9725 cc3c d196 c6ba 8c2a 1bbd
00000010: 17f7 b53d 705f 5bbd af94 eebd 0af3 03bd
00000020: 9f0e cb3d 34a5 30bd e0af b6bd 54de e03c
00000030: 1d2b fe3d e6a3 a3bd 3c56 c53b 0384 4e3d
00000040: 8403 68bd 4c31 9bba 71df d6ba 49ec 9dba
00000050: 5979 83bd e427 a43c 3ae8 46bd 6580 153c
00000060: c81c a93d 949c 43bc 8ce2 9abd 352c 143c
00000070: 7fa9 39bd 211a 1bbd 7b99 05bd 7b51 bbbd
00000080: d4a0 9ebd c243 9bbd 999d e5bd 449b e23c
00000090: 8804 8b3d 476a 70bd 3a40 14bd 8a89 953d
000000a0: a2b2 c0bd 095e 8cbd 2084 a33d e179 e03c
000000b0: bffb f1bd fbe5 96bd 4288 333d 41d2 70bb
000000c0: 6532 edbd 6394 3d3d 61da 833d 6ee2 233b
000000d0: 5151 77bc 8cc6 973d 7e59 f43c 7a06 743d
000000e0: e97e 703c 51d9 593d 87cc d83d 98b9 a7bd
000000f0: be00 b33d 1f64 33bb 1162 823d ecb5 523d
00000100: ead6 10be cd40 e43d e7ea abbb da94 713d
00000110: 11d4 eb3b bfc5 333d fe7d 923d 9578 473d
00000120: f701 743d d6c5 61bb 1fe5 7d3d 214d b23d
00000130: d5ae 4d3d bb63 c73c 6664 143e 358f 133c
00000140: 8dd3 fbbc e5b3 e73c 0011 f9bd 556a e7bd
00000150: 6374 d9bb b761 15bc 5919 45bd 6a1d 44ba
00000160: dfa2 323d db9e 643e ea81 d9bd 02c0 c43d
00000170: 3d08 a3bb ea37 37bc ee44 353d a356 9f3d
00000180: 63c0 993d 7626 b3bd 4fc1 24bd 9469 dc3c
00000190: aa54 563d 12da aebd 32f2 c3bd 5ede 91bc
000001a0: 996a 453d 872c 89bd 0657 99bd aa7b 4ebd
000001b0: 3bd6 b9bd a7f0 7bbd d594 f2bd 77c5 a53d
000001c0: 757f d6bd e40a 95bd f23f ff3c 80ef a73a
000001d0: 02de ac3d 90b2 883d c51e 04bd b5b4 4abd
000001e0: 3754 2abd 5228 f03c bb7a bcbd 51b9 4a3e
000001f0: ef5f b23d 575e 863d 147d e7bd 88fa 8abd
00000200: 2791 d63c 063d 12be ddfd 11bd 985b ea3d
00000210: 95f5 62bd f992 3e3b 3f20 96bd 12cd 7b3d
00000220: e543 833d 9dc5 01be a873 d93d b6d2 85bd
00000230: cfa2 51bc 7151 ff3c fa3f 883d a908 8ebd
00000240: 4833 8e3d a427 e33d 0819 f6bd 02af 803c
00000250: 2688 d4bd fc54 55bd 20bb b0bc 5b53 c03c
00000260: 09c2 afbd 7b09 64bd ee93 5e3d f72d 50bc
00000270: 0307 bf3c ffb5 f3bd fe16 fdbc e6da 9b3c
00000280: ef34 273d e5d0 013e b214 26bd 26e1 c73d
00000290: 3e51 99bc 8fa4 a9bc cc78 55bd 1cae 3f3c
000002a0: 2290 2fbc 0c88 f0bd 9bee e8bd 87ca fbbd
000002b0: 3698 3d3d 286a 0a3e 671e 0cbd e1a7 b53d
000002c0: 1def 91bc aea4 85bc 1aec 893d 7e4f 263d
000002d0: f3ad 613d 597d 003e 911b b63d d456 7a3d
000002e0: 4ff2 fb3c aea3 2f3c 9f8d cc3d c3cc a8bd
000002f0: 678f 2f3c d0be 853b 3ee0 423d f643 553c
00000300: 1ff7 22bd 662a 623d ff78 99bd ff04 a7bd
00000310: c6ea 30bd 3285 f3bb 1547 d23d a02d 5b3d
00000320: 34e2 b2bb 3109 a13d a59a f43d 0e3d b63d
00000330: f9ff 943d 5ef9 af3d d443 bdbc c239 59bc
00000340: 82ed f23d 9eb8 7e3d a96d 673d 970e 383d
00000350: cdbb 263e a0d5 85bd d4e0 423e 7b14 c73d
00000360: bff7 8c3d e1e7 393e 600f 6cbd 0f07 163e
00000370: e942 cc3d f6ef 0e3e 0d2b 9e3b 9d51 80bd
00000380: 33da 943d ecbd d33c f4f2 c4bc 466f 82bc
00000390: 0e3c a6bc f44a 95bd 4776 733d f6d2 ce3d
000003a0: 686e 4dba 982e 9abd 0e2f 1b3d edca c73c
000003b0: 9137 dabd 05ed 843b 88c6 69be 7137 143c
000003c0: b408 e1bd bdab 45bd b8fb 9cbb cc99 383d
000003d0: b224 f1bd 555b cb3d 88b7 9d3d 5abd c7bd
000003e0: ad47 b43d 2b63 04bd b28e b4bd b305 173e
000003f0: 80cc c33d 9d5e 983d e10d fa3d b79a bd3d
0.013081862 0.024920268 -0.0015151148 -0.037882373 0.08885019 -0.053557813 -0.11649453 -0.032214202
0.09914898 -0.0431263 -0.08920264 0.027449764 0.12410567 -0.079902455 0.006022243 0.050418865
-0.056643978 -0.0011840253 -0.0016393495 -0.0012048568 -0.064196296 0.020038553 -0.048561312 0.00912485
0.08257443 -0.011939187 -0.07562742 0.009043743 -0.04532766 -0.037866715 -0.032617074 -0.091464005
-0.07745519 -0.07581283 -0.112117 0.027661927 0.06787974 -0.058695104 -0.036194064 0.07301624
-0.094090715 -0.06853873 0.07984185 0.027401866 -0.11815595 -0.07368084 0.043831117 -0.0036746415
-0.115818776 0.04628409 0.06438137 0.0025006789 -0.015095071 0.07410917 0.02982783 0.05957649
0.014678695 0.053185765 0.105858855 -0.08189696 0.08740376 -0.002737291 0.06366361 0.051443025
-0.14144483 0.11145172 -0.0052465084 0.058979847 0.007196911 0.043889757 0.07152937 0.04869898
0.059572186 -0.0034450195 0.061986085 0.087061174 0.05021556 0.024339547 0.14491424 0.009006311
-0.030740524 0.028284023 -0.121614456 -0.11299578 -0.006636189 -0.009117535 -0.048119877 -0.00074811897
0.043612357 0.22326224 -0.10620482 0.09606935 -0.0049753473 -0.011182765 0.04425519 0.077801965
0.07507398 -0.0874757 -0.040223416 0.026905812 0.052326836 -0.08537687 -0.095676795 -0.017806228
0.048197363 -0.06697946 -0.074873015 -0.050410904 -0.09074064 -0.0615088 -0.11844794 0.08094304
-0.10473529 -0.07277468 0.031158421 0.0012812465 0.08440782 0.06674683 -0.032255907 -0.049488742
-0.04158422 0.029316101 -0.092030965 0.19797255 0.08709704 0.06560963 -0.11303154 -0.06786066
0.02619226 -0.14281091 -0.035642494 0.11443251 -0.055409987 0.0029079302 -0.07330369 0.061474867
0.06409434 -0.1267304 0.10617763 -0.065343305 -0.012795164 0.031166764 0.066528276 -0.069352455
0.06943375 0.11091545 -0.12016493 0.01570845 -0.10377531 -0.052083 -0.021573603 0.023477247
-0.08581931 -0.055673104 0.054340295 -0.012706271 0.023318773 -0.118999474 -0.030894753 0.019025277
0.040821966 0.12677343 -0.04054708 0.097597405 -0.018715497 -0.02070835 -0.052117154 0.011699226
-0.010715516 -0.11744699 -0.113736354 -0.122944884 0.046287738 0.13517058 -0.03420868 0.08869911
-0.017814213 -0.016313877 0.06734486 0.040603153 0.05509753 0.12547816 0.088919766 0.061117962
0.03075519 0.010720177 0.099879496 -0.0824218 0.010715342 0.0040815845 0.047577135 0.013016691
-0.039786454 0.055216216 -0.07493781 -0.0815525 -0.043192647 -0.0074316496 0.10267464 0.05351031
-0.0054590944 0.07863081 0.119435586 0.08898364 0.072753854 0.08592485 -0.023103632 -0.013258399
0.11861707 0.062187783 0.056501064 0.04493579 0.16282578 -0.06534886 0.19031078 0.09720703
0.06883191 0.18154861 -0.05763185 0.1465113 0.099736996 0.13958725 0.0048269094 -0.062655665
0.07268181 0.025847398 -0.02404163 -0.0159222 -0.020292308 -0.07289687 0.05943897 0.10098831
-0.0007836581 -0.07528418 0.03788667 0.024388755 -0.1065513 0.0040565752 -0.2282964 0.009046421
-0.10987988 -0.048259486 -0.0047907494 0.045068547 -0.11774577 0.099295296 0.077010214 -0.09752913
0.088027336 -0.032321136 -0.088162795 0.14748268 0.0956049 0.07439921 0.122096784 0.09258025

VAE.encoder_mu.layers.0.linear1.bias f4 [4]
00000000: 3646 cebc 50b5 543d f351 e13d 8e7c c2bd
-0.025179964 0.051930726 0.11001959 -0.09496413

VAE.encoder_mu.layers.0.norm1.weight f4 [4]
00000000: 76f8 883f e250 8b3f 7e2a 893f 7c2e 883f
1.0700824 1.0884058 1.0716093 1.0639186

VAE.encoder_mu.layers.0.norm1.bias f4 [4]
00000000: 293a 6d3d a3ae 533c 8e04 d23d e061 8e3c
0.057916794 0.012920055 0.10254775 0.017380655

VAE.encoder_mu.layers.1.attention.W_q.weight f4 [4, 4]
00000000: 3a0c aebe 20c4 b63e 7a28 bfbe f44d 67be
00000010: 48b1 00bf 931e 223e fdca 6a3e 2cde ce3e
00000020: fb0d 1ebe 4f70 1a3f c936 e9bd b920 4e3d
00000030: 742d b6be c4e9 dc3d 36a1 a0be a4d2 2abe
-0.33993703 0.35696507 -0.3733557 -0.2258833 -0.5027051 0.15831976 0.22928996 0.4040388
-0.1543502 0.6032762 -0.113874026 0.050324176 -0.35581553 0.10786775 -0.31372994 -0.16681916

VAE.encoder_mu.layers.1.attention.W_q.bias f4 [4]
00000000: 9ccf aabc 7609 1e3b 1856 0ebb efc5 ebbc
-0.020850949 0.0024114526 -0.0021718796 -0.028780906

VAE.encoder_mu.layers.1.attention.W_k.weight f4 [4, 4]
00000000: 4dcb de3c 6744 013f aa7f b5be 9cdd a53d
00000010: 94a5 89bd fb4c a6be 49b8 733e f387 673e
00000020: aa6b 43bc d372 e83e c26c 8e3d be86 49be
00000030: bec5 b8bd 9545 693e 51ff 313e b845 9f3e
0.02719655 0.50495 -0.35448962 0.08098909 -0.06721035 -0.32480606 0.23800768 0.22610454
-0.011927525 0.45400104 0.06954338 -0.19680306 -0.09022091 0.2278045 0.17382552 0.3110788

VAE.encoder_mu.layers.1.attention.W_k.bias f4 [4]
00000000: 1ee8 eb38 4374 b1b7 f189 d638 912d 6038
0.000112489084 -2.1154183e-05 0.00010230009 5.34482e-05

VAE.encoder_mu.layers.1.attention.W_v.weight f4 [4, 4]
00000000: 2ddb 1dbe e6eb 09be cfa2 acbe 9542 ebbe
00000010: 1c4f b6bc f607 733e 0c8d d6be 638b abbe
00000020: 6db3 993d 702b a0bd 3ae7 a63e 981f 3cbe
00000030: 4160 acbe 313d d6be 9f4c f33e 2a92 cfbe
-0.1541564 -0.13468894 -0.33717963 -0.45949236 -0.02225452 0.23733506 -0.41904485 -0.3350478
0.07504926 -0.07820785 0.32598287 -0.18371427 -0.33667186 -0.4184356 0.47519395 -0.40541202

VAE.encoder_mu.layers.1.attention.W_v.bias f4 [4]
00000000: beb2 9ebb ba61 5cbc 27c3 b73b 1a37 e339
-0.004843085 -0.013451034 0.005607981 0.00043337868

VAE.encoder_mu.layers.1.linear0.weight f4 [128, 4]
00000000: ec2a d0be cd14 6d3e 76c0 83be e3c3 d4be
00000010: 1c09 d9be 630b ff3d 5f61 f33d 3987 ebbe
00000020: 4c49 613e 1595 b9be c061 ef3e 4404 b43e
00000030: d05e 83be 72df 063f 9835 8dbe 5603 5c3e
00000040: 9f1e 103e d9f4 0a3e 916b 54be 70cb e1bd
00000050: 4b2c 1f3e fd5d 733e 0a5c b1be f289 01bf
00000060: 9683 543e cbe9 cb3e 92b5 a03d c8af a43e
00000070: 7e3a b4be 30b1 c23e 1570 08bf 0108 a0be
00000080: b1a6 7d3e 1338 323e 394f 88bd 02ff 98bd
00000090: 904a 003f e967 2abd 91cd 3bbe 3c06 393e
000000a0: 3e3e 733e e9cd 1c3e 3cb4 e8be 0b0f 923d
000000b0: bc5b 6cbe aa6d 843e 493c c0be 0c30 a7bd
000000c0: f8b9 a33d bb78 f23d 1096 01bf ffa1 c83d
000000d0: 1d1a 48be 6d01 323e 1c5b 10bf 3313 09be
000000e0: 675b b1bd e53f fdbd e609 5d3c b485 023f
000000f0: 9ea6 d1be 63f8 5fbe 16c9 b03e 704b 4a3e
00000100: c95d 95be 8e1b ab3e 4091 03bf 956d a93e
00000110: d210 a53d 50f0 ecbe 56bb 9ebe 2620 e9be
00000120: dcbe cb3e 3a53 d83e 7ef7 18bc 52f2 06bd
00000130: a574 f4bd 2875 86bd 93c3 e7be 245d 2e3e
00000140: 5940 36be 3044 b73e 4683 cebe 3ef4 34bd
00000150: ced6 023f 3d48 323e 2c4d 2abe be09 ad3d
00000160: 6361 62bd 9fc8 f83e 9ab2 d8be 1aca b2be
00000170: ae6c b3be 3ac1 ebbd 2b81 c03d 7c97 113e
00000180: c210 b73e 288d 53bc 6326 843c 6b7c a53d
00000190: 4375 f1be 81ca d73e ab25 913d fe37 69be
000001a0: 2743 b53d 7aa3 c3be 294e f4bd b300 70be
000001b0: 500b bc3e 7c27 7b3e 0fbd 91be 3c5a dbbe
000001c0: 6558 063f b9dc ca3d dec3 debe 0b79 09bf
000001d0: 6291 f2be f342 37be 9dae b43e 9bf1 4c3e
000001e0: beb2 b2be 8c06 e1bd be29 453e 8c35 02bf
000001f0: b6e2 393e 0de7 ffbe aa15 2c3e 9fd8 2ebd
00000200: 8785 8f3e d40f 1ebe d479 b6be a97d 913c
00000210: 46db 533e 9251 c53d 637c b13e 9168 ec3e
00000220: ae8c b83c bb89 003e 31d5 bf3e 7378 6d3e
00000230: e9a9 9dbe 29d7 c13d 237b fa3e 42f6 66be
00000240: 6dff 21bc 35ae 1c3e 485d e23e f7b7 e1be
00000250: 7f9d ba3e 2e1a ddbe c8aa d3be 2e40 9dbe
00000260: 9bdb 0cbf 71e0 a7be 0182 fd3e 63a8 adbe
00000270: ef7c 15bf f00d 81be 0aaf 603e 3064 d03e
00000280: 7621 10bf bf6b 833e 405e 30bd ad17 abbe
00000290: a84d b8be 99b9 733e 7706 383d 235a 9fbe
000002a0: 974a 1bbe 6955 86bd aeb5 543e af74 dd3e
000002b0: c26e 63be 6db1 d13d 06ed 4ebc 5a18 3dbe
000002c0: ca47 05bf 41d3 fd3e efb2 033e 4785 e9bd
000002d0: 2ee7 a83e 1c3f e8bd 3281 2fbd 6595 c73e
000002e0: 1abb f93e b58e d23e b4f9 a6be dbd8 96be
000002f0: 9544 9abe c407 76be aa91 a53e 6ede a93d
00000300: 646b e2be aa1f 873e 28a7 ae3e 1a72 5bbe
00000310: bd9a 0c3f f191 1e3e 442b ff3e 1091 f6be
00000320: 1750 df3d 5236 eabc 1276 ffbd 7771 973e
00000330: b0c1 55bd 5c5d 84be f920 7e3e 6104 3abe
00000340: 03ec 8fbd f95b 6c3e d290 a43e f6b5 17be
00000350: dc80 04be aa08 db3e 1a7c 183f 6f40 e23e
00000360: c6ab cebe c186 cc3c 2b5e a2be cee1 4bbd
00000370: dfdb 20be d83e 1dbe 26db 89be 12e5 fe3e
00000380: 17ee 80bd cc73 033f b0c1 2ebe 0280 4f3e
00000390: d8d7 083f daf8 893e e492 8f3d 4e0e 6b3e
000003a0: 2f00 3a3e 0810 4abe bbf7 ccbe f131 b6be
000003b0: 008d f83d 5089 7f3d 4046 7b3c 0c0c 253e
000003c0: 399c 01be 66bc cebe 39bb 173e f828 cd3e
000003d0: 01f7 86be 8077 f03d d577 e1be 27a2 203d
000003e0: 9a27 823c 3dec 9e3e 6a7b 83be c6c4 ef3e
000003f0: 6634 f93e 0fc9 9fbe 8e24 df3e 3da3 273e
-0.40657747 0.23152466 -0.25732774 -0.415557 -0.42389762 0.12453344 0.118838064 -0.46001604
0.22000617 -0.36246553 0.46754265 0.35159504 -0.25658274 0.526847 -0.2757995 0.21485648
0.14074181 0.13569964 -0.20744158 -0.11025131 0.1554424 0.23766322 -0.34640533 -0.5060111
0.20753321 0.39826807 0.07847132 0.3216536 -0.35200876 0.38025808 -0.53296024 -0.31256106
0.24770619 0.17404203 -0.066557355 -0.07470514 0.50113773 -0.041603003 -0.18340136 0.18068784
0.23754212 0.15312923 -0.45450008 0.071317755 -0.23081869 0.25864917 -0.37545994 -0.08163461
0.07994455 0.11839434 -0.506196 0.09796523 -0.19541211 0.17383356 -0.5638902 -0.1338623
-0.08660012 -0.123657025 0.0134911295 0.50985265 -0.4094743 -0.21872096 0.34528416 0.1975534
-0.29173115 0.3341946 -0.5139351 0.33091417 0.08059849 -0.46277094 -0.310023 -0.4553234
0.39794052 0.42250997 -0.0093363505 -0.03294594 -0.11936311 -0.065653145 -0.452664 0.17027718
-0.17797984 0.3579421 -0.4033453 -0.04417824 0.51109016 0.17410369 -0.16631001 0.08449124
-0.055268656 0.48590562 -0.42323762 -0.34919816 -0.35043854 -0.115114644 0.09399637 0.14217943
0.35754973 -0.012912072 0.016131585 0.080803715 -0.47159776 0.42146686 0.07087263 -0.22775266
0.08850699 -0.3821066 -0.1192897 -0.23437767 0.3672738 0.24526781 -0.28464553 -0.4284228
0.5247863 0.09905381 -0.4350881 -0.5370032 -0.47376543 -0.17896633 0.3528947 0.2001404
-0.34901994 -0.10987577 0.19254205 -0.50862956 0.1815289 -0.49980965 0.16805139 -0.042687055
0.2803156 -0.15435725 -0.35639822 0.017760115 0.20689115 0.09634699 0.34665212 0.46173528
0.022528019 0.1255254 0.3746734 0.23190479 -0.30793694 0.09464867 0.4892207 -0.22554877
-0.009887558 0.1530083 0.44211793 -0.44085667 0.36448285 -0.43184036 -0.41341233 -0.30713028
-0.5502259 -0.32788423 0.49513248 -0.3391753 -0.5839376 -0.25205946 0.21941772 0.40701437
-0.5630106 0.2566814 -0.043058634 -0.334165 -0.35996747 0.23801269 0.04492804 -0.31123456
-0.15165173 -0.065592594 0.2077243 0.43253085 -0.2221022 0.102389194 -0.012629753 -0.1846632
-0.52062666 0.49575236 0.12861226 -0.11402374 0.32988876 -0.11340162 -0.04284782 0.38981166
0.4877556 0.41124502 -0.32612383 -0.29462323 -0.3013045 -0.240264 0.32337695 0.08294378
-0.44222558 0.26391345 0.34111905 -0.21430245 0.5492361 0.1548536 0.49837697 -0.4815755
0.10903948 -0.028590355 -0.12473692 0.29578754 -0.052186668 -0.25852478 0.24817266 -0.18165733
-0.070274375 0.2308196 0.3214174 -0.14815506 -0.12939781 0.42780048 0.59564364 0.44189784
-0.40365428 0.0249666 -0.3171247 -0.04977589 -0.15708874 -0.15356004 -0.2692501 0.49784142
-0.06295412 0.51348567 -0.17066073 0.20263675 0.5345435 0.2694767 0.07010439 0.22954676
0.18164133 -0.19732678 -0.40032753 -0.35584977 0.121362686 0.06238681 0.015336573 0.16117877
-0.1265725 -0.40378112 0.14817514 0.4007032 -0.26360324 0.11741543 -0.44036737 0.03921714
0.015888024 0.3103961 -0.25680095 0.46829814 0.4867279 -0.31208083 0.43582577 0.16370864

VAE.encoder_mu.layers.1.linear0.bias f4 [128]
00000000: ffbe 84be deef 593e eb7e 65be fa87 a53d
00000010: 3f4e c83e 5691 343e 0b86 a5bc 64b8 57be
00000020: b92e e7ba 0555 4fba 7c70 01be 4f70 6a3e
00000030: bb3f 56bd 2200 ccbd 069d 46be 56d8 9cbd
00000040: 28f7 aabe 083a d0be 31ca 1c3e 685e f13e
00000050: 2ca3 4fbe 4453 cc3e e650 bebe 6d86 933e
00000060: 54c2 c43e c670 003d 16b8 93be 0809 ce3c
00000070: 8126 993e e5a2 363e cd02 723e 3a4e 693d
00000080: 6642 9dbe b66a bdbd e1b3 70bd e424 093f
00000090: fc1b 3e3e e816 aa3d 4a02 14bf 7009 fe3e
000000a0: 8d65 79be 02ef 6a3d cd29 94be 1f46 8c3e
000000b0: 6064 09be 99b7 ff3e 4686 fa3e 0c0a d63d
000000c0: 1fc2 89bd c1a5 96bd 66f6 7a3e f757 fa3e
000000d0: 01f5 003e 506b 8abe 70a2 ba3e 1ac7 373d
000000e0: 31ab a9be 2205 cebe a774 dabc 14ea 81be
000000f0: 9b3e 0b3f 4d26 623c f489 0c3f f1d9 703e
00000100: bbac 893e aca7 913c c58d c0bd f77f 8ebe
00000110: e3e2 c23d 7ee1 45be 8a83 b63b e375 093f
00000120: d8e5 e8bd 8101 e83e adf6 f7be e34e f4bd
00000130: 4faf 03bf cb90 d2be 61b7 8f3e 24ec fb3c
00000140: c5b8 7abe b6c0 e3be 38d4 14be 7853 98be
00000150: b6fa adbe 371a 88bd 9ccd 7c3e 4832 54bd
00000160: 17a3 ad3e caf8 babe 2345 a7be ad28 bf3e
00000170: 3a60 2ebe 9d40 023f 21a8 493e 36e0 15bd
00000180: cb57 bf3e a02a 81be 9150 ac3e 63ef 02bf
00000190: b446 e6bc daff dabc 3890 c03e 6e20 9dbe
000001a0: a6e6 ad3d 00d4 4f3e 4584 c8be c20f b83e
000001b0: e0f1 89be d4a3 f63e c56b f43e c5f5 073f
000001c0: 81a5 ae3e 5013 183e 8fe2 a43e 2594 d03e
000001d0: 3a55 c1bc 65c7 4d3e 5cf8 05be 6be0 83be
000001e0: 01ae adbb 0cf2 afbe 2d0e 12be d9e1 1abd
000001f0: 8134 d7be 3caf 03bd 910f cfbe ab0d f1bb
-0.25926968 0.21282908 -0.22411697 0.08082576 0.39122197 0.17633566 -0.020205518 -0.21066433
-0.0017637826 -0.0007909092 -0.12640566 0.22894405 -0.05230687 -0.09960963 -0.19395837 -0.0765845
-0.3339169 -0.40669274 0.15311505 0.4714234 -0.20277089 0.39907277 -0.37171096 0.28813496
0.3842951 0.03135755 -0.28851384 0.02515079 0.2991219 0.17835577 0.23633881 0.05695937
-0.3071472 -0.09248869 -0.058765296 0.53571916 0.18565363 0.0830515 -0.5781599 0.49616575
-0.24355145 0.05735684 -0.2893814 0.27397248 -0.13417196 0.4994476 0.48930568 0.10451135
-0.06726479 -0.07355834 0.24508056 0.48895237 0.12593462 -0.27034998 0.36452055 0.044867612
-0.3313842 -0.4023829 -0.026666952 -0.253739 0.54392403 0.013803077 0.54898 0.23520638
0.26889595 0.017780147 -0.094020404 -0.27832004 0.095159315 -0.193243 0.00556988 0.53695506
-0.11371964 0.45313647 -0.48430386 -0.11929109 -0.51439375 -0.41126093 0.28069595 0.030752249
-0.24484546 -0.44482964 -0.1453408 -0.29751182 -0.3398034 -0.06645625 0.24687809 -0.051805764
0.3391349 -0.36517936 -0.32669935 0.3733572 -0.17028895 0.5087984 0.19693042 -0.036590777
0.37371668 -0.25227833 0.33655217 -0.51146525 -0.028109886 -0.026733328 0.3761003 -0.30688804
0.08491258 0.20295715 -0.39163414 0.35949522 -0.26942348 0.48171866 0.47738472 0.5310939
0.34110644 0.14851117 0.322041 0.40738025 -0.02360021 0.20095594 -0.13083023 -0.25757155
-0.005300284 -0.34364355 -0.1426322 -0.03781304 -0.42032245 -0.03214954 -0.40441564 -0.0073563657

VAE.encoder_mu.layers.1.linear1.weight f4 [4, 128]
00000000: 0570 79bd e3fc d9bd 67aa 8abe 7d39 713d
00000010: 55c2 da3c 6251 d03d 67b7 1b3d 827a 6b3d
00000020: 8c6d d83c 5a56 913d 70c5 803d 33c8 19bc
00000030: 0887 f33c fba8 da3d f1bc 95bd ef45 e2bd
00000040: f06f 763d af71 8e3e 2929 923d cd74 c23d
00000050: f1fb 7f3d 9ebd e3bb b725 fcbb 3f14 7dbd
00000060: c810 aa3c 428a 49bd 648d 0d3e 6faa 51bd
00000070: 8bc5 1bbb f0eb cfbd f742 8abd f0cb 213d
00000080: 1170 98ba cb9d 343d c1d5 00bd ce53 e3bd
00000090: a406 0abe 3cfb bf3d b9fa 85bd 0b0c cabd
000000a0: 4603 05be 254a 4e3b 24eb ac3c 7db3 62bd
000000b0: 2649 29bd e5d6 9e3d aed5 0f3d d5cc 833b
000000c0: 3953 99bd 7991 15be c512 b13c dc91 57bd
000000d0: 7e52 c4bd 4fc5 39be 7e4e a73d 6dd5 9cbd
000000e0: 535d 843d 195a 863c bfdc f23d 1a1f a4bd
000000f0: 5432 c7bd a15b c23d 917a 933d 7b3f 633d
00000100: 23ab 363c c115 b73d 7026 b5bd 3e83 1ebd
00000110: fabc b5bd b131 1d3e 1c25 103d 6922 e5bd
00000120: 9875 443e 3d36 46bd 06b7 3c3d 7f87 9c3c
00000130: 4f33 6abd f030 143f f08f afbd aae7 a83c
00000140: 32da ce3d 5d57 1fbd ffae 3b3d 074c 4fbc
00000150: 21f4 14bd a3fb 763d f6fc c83d 679f bbbc
00000160: b32b 28bc 8f20 45bd 39ad a13c 6196 5e3c
00000170: f65f 883d 396b dd3d 4e24 25be 5549 4a3a
00000180: 0d62 fc3d 4d87 17bc 8b6d 76bd 9ea6 d33d
00000190: d890 323d 9aaf 14bc 9e77 9a3d 4510 7d3d
000001a0: 501a 943d b9d5 0c3d 552b f6bd f3f1 97bd
000001b0: e982 d53c 8ef8 be3b d1e6 8cbd a433 e33d
000001c0: 2504 26bd a61b 243c fad2 cbbb dc8a 1fbe
000001d0: 9233 eb3c 63bf 3fbd 0953 123e 377d a5bb
000001e0: 3e25 e8bc 71d6 013e 1899 9e3b c94e 093f
000001f0: eae8 a33c 6525 fbbd 024d 04bd e1df 09bd
00000200: 9996 d0bc f821 a83d 7052 62be 0e60 c93d
00000210: e8b1 bd3c f563 6abd 6078 4b3d 6135 373c
00000220: 6f5a 73bd 17ee 6bbe 9d5f 98bd 0294 cd3c
00000230: 292c c13d e1f1 733c 10a3 38bd 8adc 6b3c
00000240: 0f2a dcbc 206c d9bd 2e79 c73c 22a4 c13b
00000250: 11f0 063d 1ce8 f1bd 5a0e 233d 34e5 663b
00000260: ec42 96bd 6741 5e3d 81ba 0dbe 9b98 dcbd
00000270: 6001 0bbe b57b 6f3d 49b0 a03d f139 b0bd
00000280: 7a5a 6bbd 2381 21be 1605 cf3a dcbc a73c
00000290: 15e0 613d 9a6f 9dbd a749 ba3d 21b4 363d
000002a0: 27d4 d73d 9982 19bc 93fb f5bc 0dfc b43d
000002b0: 2049 dd3d 8483 32be 6208 70bd a8ab e03b
000002c0: d044 9f3b a98e 29be f7c8 33bd 25ba 3bbd
000002d0: 8cee 663d 8cbf 0d3e c744 84bd 9ba7 e9bd
000002e0: 4429 e63d 9b38 27be ecb7 6dbd 2b1c 8c3b
000002f0: 7f31 adbd c258 8abc a894 58bd 89cc 40bd
00000300: 3138 22be ff1c 10be c49f 3dbc eabe cbbd
00000310: b976 b3bd 1e6d 41be cb9a 313b 8fd0 093a
00000320: 3da2 fbbd db21 8f3d a387 983c 7935 133e
00000330: c36e 363d 32bb 233c e1cc 1b3d 6c50 2dbe
00000340: c387 9a3d 4caa a13d bff1 7cbd 26d8 2fbc
00000350: ede2 073d a065 febd 73f3 35be 2e1d ccbc
00000360: 33be 8fbc f1e2 a13c bcdd 153e b01d 8e3b
00000370: d3ea 14bd 2452 bd3b 17e0 31bd 7c1f 12bd
00000380: 9739 f9bd c6e3 e5bd ca5c 81bd 2b55 81bd
00000390: ebd1 23be 9f11 58bd 6d63 23bd 04f6 02be
000003a0: 45a1 e33d a605 4dbd 8227 263e 63cb 44bd
000003b0: 4da4 31be b7ca 70bc e1c7 74bd 6f3a b1bd
000003c0: b308 173d c1b9 aa3c 04f4 ec3d 34bd 253e
000003d0: d711 e7bd c308 c9ba 51cd f2bb de5b 0d3c
000003e0: 0c60 afbe 21ac 64be af7e f3bd 74b6 dfbe
000003f0: 2078 0abb ab86 0dbd 8204 313d 4cce f1bd
-0.060897846 -0.106439374 -0.27083132 0.058892716 0.026703993 0.101717725 0.038016703 0.05748988
0.026419424 0.070965484 0.06287658 -0.00938611 0.029727474 0.10676762 -0.07311428 -0.11048495
0.060165346 0.2782111 0.07136757 0.09494934 0.06249613 -0.0069500944 -0.0076949256 -0.061786886
0.020759955 -0.04920412 0.13823467 -0.05118793 -0.0023768868 -0.101524234 -0.06751054 0.03950113
-0.0011630078 0.044095796 -0.03145385 -0.11099969 -0.13479096 0.09374091 -0.06541962 -0.09865578
-0.1298953 0.00314773 0.021108218 -0.055346955 -0.041329525 0.07755832 0.03511589 0.0040222206
-0.074865766 -0.14606275 0.021615395 -0.052629337 -0.09586047 -0.18141674 0.08169268 -0.07657895
0.06463113 0.016400384 0.1185851 -0.08013745 -0.09726396 0.09490133 0.07201112 0.05548046
0.011149201 0.08939696 -0.08845222 -0.03869938 -0.08873935 0.15350987 0.03519164 -0.11188204
0.19185483 -0.04839157 0.046072982 0.019107578 -0.057177838 0.5788717 -0.08572376 0.020618279
0.10100211 -0.038901675 0.045821186 -0.012652404 -0.036365632 0.060298573 0.098138735 -0.022903157
-0.010264325 -0.048126753 0.01973592 0.013585658 0.06658928 0.10811467 -0.1612713 0.0007716616
0.12323389 -0.009248567 -0.060163062 0.10334514 0.043595165 -0.00907507 0.075423464 0.061783094
0.07231581 0.03438351 -0.12019984 -0.07419195 0.0260634 0.00582797 -0.06879962 0.11093834
-0.040531296 0.0100163575 -0.0062202187 -0.15580314 0.028711114 -0.04681338 0.14289488 -0.005050327
-0.028338071 0.12679459 0.0048400275 0.5363584 0.020008523 -0.12262992 -0.032300003 -0.033660773
-0.025462436 0.08209604 -0.2210176 0.09832774 0.023156121 -0.057224233 0.049675345 0.01118216
-0.059412416 -0.23040043 -0.07440112 0.02509499 0.09432251 0.014889211 -0.045077384 0.014395842
-0.026875524 -0.10616326 0.024349775 0.0059094587 0.03294379 -0.118118495 0.03980861 0.003523183
-0.07336983 0.05426159 -0.13840677 -0.10771295 -0.13574743 0.058467586 0.07846124 -0.086048014
-0.057459332 -0.15771918 0.0015794362 0.020475797 0.055145342 -0.07687302 0.09096079 0.044605378
0.10538512 -0.009369516 -0.030027186 0.08837137 0.10804963 -0.17432982 -0.058601744 0.0068564005
0.004860498 -0.16558327 -0.043892827 -0.045831818 0.05637984 0.138426 -0.06458431 -0.11408921
0.112383395 -0.16330187 -0.05803673 0.004275819 -0.08456706 -0.016888026 -0.052876145 -0.04707006
-0.15841748 -0.14073561 -0.011573736 -0.09948523 -0.08762879 -0.18889281 0.002710032 0.0005257213
-0.12286804 0.06988879 0.018619364 0.14375867 0.044539224 0.009993361 0.038037185 -0.1692521
0.07545426 0.0789381 -0.061753985 -0.010732686 0.033175398 -0.12421727 -0.1776865 -0.024916258
-0.017546749 0.019761534 0.14635366 0.004337035 -0.03635676 0.005777614 -0.0434266 -0.035674557
-0.121691875 -0.11225085 -0.06316526 -0.063150726 -0.15998046 -0.05275118 -0.03988974 -0.1278916
0.11114744 -0.050054215 0.16226009 -0.048045527 -0.17347832 -0.0146967685 -0.059760932 -0.086537234
0.03687353 0.020840527 0.1156998 0.16185457 -0.112826996 -0.0015337694 -0.0074097295 0.00862786
-0.34252965 -0.22331287 -0.11889397 -0.43693888 -0.002112873 -0.034552258 0.04321719 -0.11806926

VAE.encoder_mu.layers.1.linear1.bias f4 [4]
00000000: 02cd 59bd 6e70 a9bd 0b63 aabb f260 b23d
-0.053174026 -0.082733974 -0.005199795 0.08709897

VAE.encoder_mu.layers.1.norm1.weight f4 [4]
00000000: f282 933f 2a57 873f 5067 913f 9d38 8f3f
1.1524336 1.0573475 1.1359653 1.1189152

VAE.encoder_mu.layers.1.norm1.bias f4 [4]
00000000: eb59 813d cce5 8d3b 4bed 983c 44ad a73d
0.063159786 0.0043303724 0.018667838 0.08187345

VAE.encoder_mu.layers.1.norm0.weight f4 [4]
00000000: e827 883f 01fe 843f f9ea 7d3f 6c22 813f
1.0637178 1.0390016 0.99186665 1.008863

VAE.encoder_mu.layers.1.norm0.bias f4 [4]
00000000: 417a 8a3c b0c2 7dbc 0666 573c 0eb8 8f3c
0.016903998 -0.015488312 0.013146883 0.017543819

VAE.encoder_mu.last_normalization.weight f4 [4]
00000000: 0000 803f 0000 803f 0000 803f 0000 803f
1.0 1.0 1.0 1.0

VAE.encoder_mu.last_normalization.bias f4 [4]
00000000: 0000 0000 0000 0000 0000 0000 0000 0000
0.0 0.0 0.0 0.0

VAE.encoder_mu.head.weight f4 [4, 4]
00000000: 2687 90be 949e 22be fac1 9fbe 4499 6fbe
00000010: 0cc4 70be a4b3 efbe bad1 e43e c8f1 6fbe
00000020: 585e d4be 7012 6fbd a8b6 a2be 14dd 2a3e
00000030: 202c ea3e 84da 263e c81f f4bd 0a0c cd3e
-0.2822811 -0.15880805 -0.3120268 -0.2339831 -0.23512286 -0.46816742 0.4469126 -0.23432076
-0.4147823 -0.058367193 -0.3177998 0.16685897 0.4573679 0.16294295 -0.11920124 0.40048248

VAE.encoder_mu.head.bias f4 [4]
00000000: aea2 87be e8a0 d4bd f0e1 883e f065 97be
-0.26491302 -0.10382253 0.26734877 -0.2956996

VAE.encoder_logvar.layers.0.attention.W_q.weight f4 [4, 4]
00000000: 4475 95be 2035 a93e 414e f9bd 6bbc 463e
00000010: f420 843e 990a fa3e 6dea c1be 0924 81be
00000020: 9eeb b73e 9628 783e 6ed7 c0bd 9b71 0e3f
00000030: 26f6 aebd 4139 5e3d baa6 6dbd 65e4 2b3e
-0.2919103 0.33048344 -0.12173129 0.19407813 0.2580639 0.4883621 -0.37874165 -0.25222805
0.3592195 0.24234232 -0.0941609 0.556421 -0.08543043 0.05425382 -0.05802033 0.16786344

VAE.encoder_logvar.layers.0.attention.W_q.bias f4 [4]
00000000: dabf 34bd 6ac7 343d d6b8 2a3d 16b3 e8bc
-0.044128276 0.04413549 0.04168018 -0.028405707

VAE.encoder_logvar.layers.0.attention.W_k.weight f4 [4, 4]
00000000: d7a7 cebd 02a4 913d 3cd8 f93c c3e2 c93e
00000010: c030 e8bd df6d 76be 2d6f 05be 629f 00bf
00000020: 3249 983e 987c c2be f46a 1ebe 38df 05bf
00000030: 984d 023e 299d c33e efd3 a63d c479 163e
-0.10090607 0.0711136 0.030498616 0.39430818 -0.11337423 -0.2406535 -0.13030691 -0.502432
0.29743344 -0.37985682 -0.15470487 -0.5229373 0.12724912 0.3820584 0.08145892 0.14694887

VAE.encoder_logvar.layers.0.attention.W_k.bias f4 [4]
00000000: ee8f 7d36 05f7 2136 9688 dbb6 dc56 9036
3.7783716e-06 2.4134654e-06 -6.5426093e-06 4.301646e-06

VAE.encoder_logvar.layers.0.attention.W_v.weight f4 [4, 4]
00000000: a5e6 4abe a8ac 9a3e 35df 653e e1b8 0d3d
00000010: 585d 3f3e 3409 01bf c310 a1be d267 243e
00000020: 8996 5dbe 462f 9abd dbd9 99bd 9f99 efbe
00000030: 20d7 3ebe c1a9 783e ad1d 21be 7563 fe3e
-0.19814546 0.3020985 0.22448428 0.034600142 0.18687952 -0.5040467 -0.314581 0.1605523
-0.21639456 -0.07528548 -0.07512256 -0.4679689 -0.18636751 0.24283506 -0.15733977 0.49685255

VAE.encoder_logvar.layers.0.attention.W_v.bias f4 [4]
00000000: 35d8 00bd 9a61 10bd 488e bcbc 1a0e c9bc
-0.03145619 -0.03524933 -0.023017064 -0.024542857

VAE.encoder_logvar.layers.0.linear0.weight f4 [128, 4]
00000000: 1110 dd3e 3446 07be e69b 343d 6653 3bbd
00000010: 1686 7f3d d288 2bbe 4247 813e c232 8d3e
00000020: 6fc8 69be 6baf 81be 2437 e53e c70e e13e
00000030: f6fe 9d3e cd22 ca3e 1f93 c43e d4ed a3be
00000040: 3e1f df3e 4820 d4be d0ed 3dbe 5204 5dbe
00000050: 9f79 d43e 4d63 c2be c1ad 04bf a3cd e73e
00000060: fc6c 54be 3f7d 53be fa17 aa3d d9a0 e3be
00000070: b8f0 1fbe df59 b23e c855 dbbe 0ba1 f0bd
00000080: 48f4 1bbe 9384 62be 1dac d43d 12cd c3be
00000090: c8e1 123e fbb8 943e 7952 c4bb d55a 2e3d
000000a0: ca79 dc3e 7621 f73e 90ee d33e 90b1 eb3e
000000b0: 2115 f5be 54e6 f6be e847 bb3d cc4c 82be
000000c0: eada 2e3e bb80 35bd 290f 95be 5e6b c1bd
000000d0: 8345 e4be 24bf bbbe 50ac 02be 908e 75bd
000000e0: 9113 fb3c a935 ef3e 74c3 eb3e a154 853e
000000f0: 46d3 c6be 45f6 0a3f 40c3 a1bd 3c8e 053f
00000100: e083 8d3d 305a 023d d930 633e cb85 bf3e
00000110: 9b34 1fbe ca63 ab3e fd04 fbbe 659a a6be
00000120: b81f ee3e ffe1 043e 0fde 063e 5bae a6be
00000130: fa3b b5be 8538 02bf fa01 9bbb 62eb c7bd
00000140: be9a c93d d003 86be 85db efbe f693 36bd
00000150: 86c6 cc3e e1cb 813e d6f0 ffbd 057f 203d
00000160: 82b1 24be fd1f 00be 88a2 bc3e c383 613e
00000170: d9c8 083f 9008 b2be 18ac e23d 78da 77be
00000180: 485d b6be b02c a9bd a2ea d43e 4479 fdbe
00000190: e22d bc3e ec5e ee3e 9847 183e 9a73 b03e
000001a0: d3ac fd3c 1088 bebe d6da cfbd f17f 52bd
000001b0: 53c5 e8be d098 20bf 8550 603d ff85 e1be
000001c0: 3bdb fd3b 377a 8cbe 0c4f 423d b065 bc3e
000001d0: 3d20 82be b5e4 b9be e89f f5be 195a f8bd
000001e0: 1745 673e ce0d cebe 35f0 fdbd 93b3 8abe
000001f0: b5e7 b6be a9aa 9d3d 021a c7be 41dc dd3e
00000200: ccee d73e a0c5 65be 489d e2bd 9a82 b23e
00000210: 120b 6c3e ff02 0abd f304 9f3d 9bf8 b23d
00000220: ec93 3d3e 87ef ba3e 7157 b7be 8473 32be
00000230: 319b 073f 367f c0be 96a6 78be 98df 803c
00000240: 9ee7 e9be 3078 4abe 5b2e 9a3d 7d97 48be
00000250: f365 bbbe e5b4 653e 5514 2dbc c5a1 94be
00000260: e1f1 f03e f761 853d 4e16 33be 8659 99bd
00000270: 80a0 b63b 80ea 1ebc b06e 4dbd e039 a0bd
00000280: 0e4f d5be cad1 40be fbaf e83e efee 15bf
00000290: ae15 ea3e 6f47 75be bb59 96be 2b50 183d
000002a0: 0b7b c73e f6c6 8fbd 6b05 363d 1944 e5bc
000002b0: 9c8d 113e 9420 95be d6ae e8be 756e c43c
000002c0: c8bd c5be a9e4 b5be ff07 a7be 5eca afbe
000002d0: e667 8cbe a6a7 debe 5d25 2bbd b166 103e
000002e0: b223 873e 09de 0b3d 0bb6 db3c 3f61 c73d
000002f0: d35e 8cbe cb7c e2be 3360 cc3e 66e4 0abd
00000300: 2b01 dabe e976 333e b20b 853e ae93 e9be
00000310: d70a 363e 965f 853d 436c 813e f4c6 d5bc
00000320: a75f 6cbe 55f9 493e 8652 03be 0113 a2be
00000330: 0173 793e 32f3 c6be 8c25 c43d e5ca df3c
00000340: a9f1 c33e 5141 babe b850 ef3e 670b a2be
00000350: 3837 e03e c5a5 99be 0269 a6be ac3e 73be
00000360: d0d3 123e cce7 663d 2cb7 a1be 48ac 78be
00000370: 0e7e be3d 3e26 cd3e d8f4 d9be cf50 04be
00000380: 759c 1bbe 69e8 14be e2b5 af3d 2f36 adbe
00000390: 58d8 373d a806 b9be 2150 2d3e 27d1 a2be
000003a0: fcef 96be 6ec8 49be 46cd 933d 1a1f 83bd
000003b0: 6c21 c7bd c2d5 083f 5a14 cebe 32e7 863e
000003c0: 5f54 e6be 6c0f 0dbf a405 a33e 6ec4 d63e
000003d0: 1bd0 b63e f87d 4a3d c793 df3e 8ea4 c03d
000003e0: 02c3 d3be 8059 313c 6ca0 f43e 9d9e b03e
000003f0: 8a82 fd3e 305f e53e 613f 96be 5202 39be
0.4317632 -0.13210374 0.04409399 -0.04573383 0.062383734 -0.16751412 0.25249678 0.27577788
-0.22830366 -0.25329146 0.4476863 0.43956587 0.30858582 0.39479676 0.38393494 -0.32017386
0.43578523 -0.4143088 -0.1854775 -0.2158368 0.4149904 -0.37966385 -0.5182763 0.45274076
-0.20744699 -0.20653246 0.083053544 -0.44458655 -0.1561917 0.3483419 -0.42838883 -0.117494665
-0.15229905 -0.22120886 0.103843905 -0.38242394 0.14343941 0.2904738 -0.005991277 0.042567093
0.43061668 0.48267716 0.41392946 0.46033907 -0.47867683 -0.482226 0.091445744 -0.25449216
0.17075697 -0.04431222 -0.2911313 -0.09444307 -0.44584283 -0.36669266 -0.12761045 -0.05995041
0.030648978 0.46720627 0.46047556 0.2604113 -0.38833064 0.5428203 -0.07898569 0.5217016
0.06909919 0.03182429 0.22186603 0.37406763 -0.15547411 0.3347457 -0.49027243 -0.3253967
0.46508574 0.12976836 0.13170646 -0.32554898 -0.3539732 -0.5086749 -0.0047304602 -0.097616926
0.09843968 -0.26174784 -0.46847168 -0.0445747 0.3999521 0.2535086 -0.12497108 0.039183635
-0.16083339 -0.12512203 0.36842752 0.2202292 0.5343147 -0.34772158 0.110679805 -0.24204433
-0.35618043 -0.082604766 0.4158526 -0.4950658 0.36753756 0.46556795 0.14871061 0.34463197
0.030966198 -0.37213182 -0.101491615 -0.051391546 -0.45463046 -0.62733173 0.05476429 -0.44047543
0.0077470816 -0.27436993 0.047438666 0.3679633 -0.2541522 -0.36307302 -0.4797356 -0.1212656
0.2258495 -0.40244907 -0.123993315 -0.2709013 -0.35723653 0.076985665 -0.3888703 0.43332103
0.42174375 -0.22438669 -0.11065155 0.34865266 0.23051098 -0.033694264 0.07764616 0.08738824
0.18513459 0.3651087 -0.358089 -0.17426878 0.5297118 -0.37597054 -0.24282297 0.015731618
-0.45684522 -0.1977241 0.07528373 -0.19589038 -0.3660122 0.22432287 -0.01056393 -0.2902967
0.4705954 0.06512826 -0.17488977 -0.07487778 0.0055733323 -0.009699464 -0.050154388 -0.07823539
-0.41661876 -0.18830028 0.45446762 -0.5856771 0.45719665 -0.23953031 -0.29365334 0.03718583
0.38961062 -0.07020371 0.04443876 -0.027986573 0.14214176 -0.29126418 -0.4544589 0.023978451
-0.38621354 -0.35526016 -0.32623288 -0.3433408 -0.27423018 -0.4348728 -0.04178368 0.14101674
0.2639442 0.034147296 0.026820203 0.09735345 -0.27416095 -0.44235834 0.39917144 -0.033909224
-0.42579016 0.1752583 0.25985485 -0.45620483 0.17777573 0.06512372 0.2527791 -0.026095845
-0.23083363 0.19724019 -0.12824449 -0.31655124 0.24360277 -0.38857418 0.09577474 0.027318427
0.3827031 -0.36377957 0.4674127 -0.31649324 0.4379213 -0.30009285 -0.3250199 -0.23754376
0.14338613 0.056373402 -0.31585062 -0.2428447 0.09301387 0.4006824 -0.42569613 -0.12921451
-0.15196402 -0.14541782 0.08579613 -0.338304 0.044884056 -0.3613789 0.16925098 -0.31800196
-0.2947997 -0.19705364 0.07216887 -0.064024165 -0.097231716 0.5345117 -0.40249902 0.26348263
-0.44986245 -0.55101657 0.3184024 0.4194674 0.35705647 0.04943654 0.43667433 0.09406386
-0.41359717 0.010824561 0.47778642 0.34496012 0.49513656 0.44799185 -0.2934523 -0.18067291

VAE.encoder_logvar.layers.0.linear0.bias f4 [128]
00000000: 00d2 753c a079 bdbe 37f5 d5be 2fe5 a23e
00000010: 9704 963e c1bf a3bd c64c 93bd ce71 153d
00000020: 153b fe3e 3d68 f8be daf6 f2be 58a5 b9bc
00000030: cced a2bd 2b9f 853e 4c57 db3e 38c0 17be
00000040: 292b 2ebe f5a4 963e 1e78 db3e 8f39 a93d
00000050: dc9d 463e b8ca 98bd c4f2 753e c79e d5bd
00000060: ce57 633d c3b2 f9bd 2132 91be 65fb 52be
00000070: 04e7 eb3e 97f5 4e3e a706 bfbe 6bc0 be3e
00000080: a5ae e7be bb47 b63e bb9a a6be 9386 8fbb
00000090: 6727 933e 901b b4be a257 f83e f2e5 bcbe
000000a0: 30c7 adbd 823c 3abe 9467 df3e 1e0d e13e
000000b0: 9cd7 5cba 9767 1e3e 2779 92be 3405 6dbd
000000c0: ccbd d63e 524e 3f3e fc74 97bd 1402 2d3e
000000d0: a57e e5bd a8ee f13e c61e c3be 42cf ed3e
000000e0: a859 323e 4901 64be 8106 66bd d805 0c3e
000000f0: 6b9a 753e 21e3 963e 3ea4 0ebd 6773 98be
00000100: a8a8 363d cee1 e7bd 85f9 193e d553 703e
00000110: 91c7 c53e 0af0 0cbe bc3f 8cbd 7ca9 ac3e
00000120: 89b9 7a3e 8e0b 273d 2555 a13e bc6b 7cbe
00000130: 0cfe dabe a781 823e 979e edbe 2fdb 443e
00000140: 81a0 433d 7bf0 b9be 2032 6dbe c8f7 70be
00000150: b1f3 153e 70fe 09bd ad97 013f d052 4bbd
00000160: 9674 ab3e 6c8d aebe 811e 923e db3d 9d3e
00000170: 4d73 e1bc c314 72be 10b9 03bf 055f 823e
00000180: 88f5 0dbd de58 313e 7324 93be 6e01 26be
00000190: 41fd f23e 249f 62be a879 8fbe 1c3c b7be
000001a0: 0a47 3e3e 7915 c73e 3d20 cabe 668f 813e
000001b0: feec bdbe 3425 02be 80eb 32be 0b2b ce3e
000001c0: c8ef ecbd 26c3 8dbe 7b9f 0ebe 7329 e83e
000001d0: b44f 50be a4ed 67bd c35b e4be c180 ffbe
000001e0: 0962 12be 84b2 b23e 20b5 ce3e 92f9 8e3e
000001f0: 8c09 afbe 7621 abbe 725d 013d f1be c33e
0.015003681 -0.37006855 -0.41788647 0.31815478 0.29300377 -0.079955585 -0.07192378 0.036485486
0.4965445 -0.48517027 -0.47453958 -0.02266185 -0.079555124 0.26097998 0.4284004 -0.1481942
-0.17008652 0.29422727 0.4286508 0.082629316 0.19396156 -0.074605405 0.24018389 -0.10430675
0.05550366 -0.12192299 -0.28358558 -0.20603712 0.46074688 0.20210873 -0.37309763 0.37256178
-0.4525043 0.356016 -0.32539925 -0.004380056 0.28741 -0.3517728 0.4850436 -0.36894184
-0.084852576 -0.18187144 0.4363371 0.4395532 -0.0008424462 0.15469204 -0.28608057 -0.05786629
0.4194168 0.1868222 -0.0739536 0.16895324 -0.11205796 0.47252393 -0.38109416 0.46447188
0.17417014 -0.22266115 -0.056158546 0.13674104 0.23984687 0.2947016 -0.034824602 -0.29775545
0.044594437 -0.11322366 0.1503659 0.2346948 0.3862882 -0.13763443 -0.06848094 0.33723056
0.24484839 0.040782504 0.31510273 -0.24650472 -0.42771947 0.25489542 -0.46410057 0.19224237
0.04776049 -0.36316285 -0.23163652 -0.23532021 0.14643742 -0.033689916 0.50622064 -0.049639523
0.33487386 -0.3409227 0.28538898 0.30711254 -0.0275208 -0.23640732 -0.5145426 0.2546312
-0.034657985 0.17319056 -0.28738746 -0.16211483 0.47458842 -0.2213102 -0.28022504 -0.35788047
0.18581787 0.3888357 -0.3947772 0.25304717 -0.37094873 -0.12709504 -0.17472649 0.40267214
-0.11569172 -0.2768795 -0.13928024 0.45344123 -0.20342904 -0.056623116 -0.4460126 -0.4990292
-0.1429521 0.34901822 0.40372562 0.27924782 -0.3418697 -0.33423966 0.031583257 0.38231614
