tabsyn/vae/ckpt/abalone/model.pt (torch, 61820 bytes, 96 tensors)

VAE.Tokenizer.weight f4 [9, 4]
000000 6d 61 09 bf 08 b4 35 3d 62 cb 86 be be 0d 2d be
       -0.53664285 0.044361144 -0.26327044 -0.16899773
000010 e3 65 9f be 4b c7 75 3e 14 e2 01 be 99 fb 89 be
       -0.3113242 0.24001805 -0.12683898 -0.26949766
000020 a3 94 b3 3e 2f a0 b6 3d c7 14 e5 be 3b f3 3e 3e
       0.35074338 0.08917271 -0.44742414 0.18647473
000030 0e 9a 83 bd ba 08 84 be 7b c8 73 bd ee cd 11 bc
       -0.06425868 -0.25787908 -0.059517365 -0.008899195
000040 cd 6b 97 be 4f 23 89 3e 25 42 51 3e 21 21 a4 be
       -0.29574433 0.2678475 0.20435388 -0.32056525
000050 c4 a5 8c 3e ae 4d e3 be a9 64 a5 bd 47 ba 44 3e
       0.2747022 -0.44395202 -0.0807584 0.19211684
000060 8a 26 60 3d d7 c0 25 be 2c 3a 4d bd c5 c4 b7 3e
       0.054724254 -0.16186844 -0.050104305 0.3589231
000070 d9 ae 67 3e dd a9 97 be 22 03 44 3e 58 af 7a 3e
       0.22625293 -0.29621783 0.1914182 0.24480951
000080 1b 17 45 be 1e 2a f4 3d 76 be 23 bd a8 98 3d be
       -0.19247095 0.11922096 -0.03997656 -0.18515265

VAE.Tokenizer.bias f4 [9, 4]
000000 d3 a6 b4 3e e1 da e5 3e 0c 35 cd 3e 45 83 76 bd
       0.35283527 0.44893554 0.40079534 -0.060183782
000010 71 25 58 3e 42 ba 2e bf f0 7a 06 3f f9 4c b4 be
       0.21108033 -0.68252957 0.5253134 -0.35214975
000020 68 23 00 bf 0b b5 02 3f bd c3 e6 be 1c d5 0d bf
       -0.50054026 0.510575 -0.4507121 -0.55403304
000030 e4 c0 26 3e af ce a4 be 58 59 8a be 78 d8 bf be
       0.1628452 -0.32188937 -0.2702129 -0.3746984
000040 c9 5f d2 3e 79 c3 d0 3e 7d 5f 51 bd 1c 72 e9 3d
       0.41088703 0.40774134 -0.051116455 0.11398718
000050 f6 97 eb be a0 2d 94 3d 46 fe 00 bd 7e 5f b7 be
       -0.46014374 0.07235265 -0.031492494 -0.35815042
000060 af 15 3f 3e 12 8f 46 3e 96 e0 d4 be 88 4c bb be
       0.18660615 0.19390514 -0.41577595 -0.36581826
000070 89 7a 27 3e e5 5e 31 be 92 43 18 3f 49 99 a8 3e
       0.16355337 -0.17321356 0.59478104 0.32929447
000080 2d be 8e bd 05 16 78 bd e9 67 09 bf a1 95 8b 3e
       -0.06969867 -0.060567874 -0.5367418 0.27262595

VAE.Tokenizer.category_embeddings.weight f4 [3, 4]
000000 5c 0d 78 ba 50 5b a8 be f2 fe 3f be 92 71 06 3f
       -0.000946244 -0.32882166 -0.18749598 0.52517045
000010 12 d7 bb 3e 57 6a 90 be fa dc fe be 67 c4 46 3d
       0.36687523 -0.2820613 -0.49777967 0.048527148
000020 65 3e 16 3e b0 14 32 3e e5 ce 1f be 4d 43 7b 3e
       0.14672239 0.17390704 -0.15606268 0.24537392

VAE.encoder_mu.layers.0.attention.W_q.weight f4 [4, 4]
000000 2e cb df be 54 47 52 be 65 f2 b0 be a4 57 0c 3e
       -0.437097 -0.20535022 -0.34559932 0.13705307
000010 b6 2a 02 be 99 7b cd 3e 83 fd 33 be 78 85 f4 3e
       -0.12711605 0.4013336 -0.17577176 0.4775808
000020 4b 2b a8 3e 21 83 81 be e0 44 69 3e 3a 33 d9 bd
       0.3284553 -0.25295356 0.2278018 -0.10605474
000030 78 3e 4d 3e 72 b2 6d 3c 63 82 fc 3e 3e 63 fa be
       0.20043361 0.014507877 0.49318227 -0.4890384

VAE.encoder_mu.layers.0.attention.W_q.bias f4 [4]
000000 8c 4f 9b 3c 0b 7e 12 bd b0 aa 0e 3d 5a 5f 00 bd
       0.01895883 -0.035764735 0.03483075 -0.031340934

VAE.encoder_mu.layers.0.attention.W_k.weight f4 [4, 4]
000000 7b 17 a6 be a9 28 76 3d 75 99 10 bf 03 52 95 3d
       -0.3243979 0.06009737 -0.56484157 0.07291033
000010 6b 97 df 3e 26 56 1a bf 79 36 35 bd c4 57 54 3e
       0.4367021 -0.602877 -0.044241402 0.20736605
000020 61 7a ea be d8 d3 b2 3e a3 b3 d1 3e 7f a2 6f bd
       -0.45796493 0.3492725 0.40957364 -0.058504578
000030 fe 31 b1 3e 69 73 26 3f 01 d7 c1 3e 68 f2 3f 3e
       0.34608454 0.6501985 0.37859347 0.18744814

VAE.encoder_mu.layers.0.attention.W_k.bias f4 [4]
000000 d3 76 06 38 c7 9e 9b 38 18 37 0c 37 9c 8f e5 38
       3.2058753e-05 7.4205505e-05 8.357478e-06 0.0001094632

VAE.encoder_mu.layers.0.attention.W_v.weight f4 [4, 4]
000000 dc dd 83 bd 4f 6e 95 3d 7f 33 3c bc 34 a9 a8 bd
       -0.06438801 0.0729643 -0.011486887 -0.08235398
000010 bc 26 cb 38 b1 43 3e be 24 d7 16 be 3e d1 10 bf
       9.687009e-05 -0.1858051 -0.14730507 -0.5656928
000020 e2 40 b3 3d 96 72 8e 3e 7b 84 cd be 23 93 c9 be
       0.0875261 0.27821797 -0.40140137 -0.3937007
000030 1b 12 14 be 5c 0c 01 bc 3d 5c d2 3e b2 3a 62 3e
       -0.14460032 -0.007876482 0.41085997 0.22092703

VAE.encoder_mu.layers.0.attention.W_v.bias f4 [4]
000000 d5 33 2b bd ea e4 89 3d 52 7d 07 3c 5b 30 33 bd
       -0.041797478 0.06733115 0.008269625 -0.043747287

VAE.encoder_mu.layers.0.linear0.weight f4 [128, 4]
000000 9a 6a 1b 3e 84 c5 fe be 1f 1f 7f 3e 47 3e e3 bd
       0.15177384 -0.49760067 0.24914216 -0.11095863
000010 d2 e4 c2 3e 8c 4d fd 3e 20 8c 70 3e 0f c7 25 3e
       0.380652 0.49473226 0.23490953 0.16189216
000020 e6 43 ab bd 6d 54 bf be 99 8c 77 3e 59 a4 f6 3e
       -0.0836256 -0.373691 0.24174727 0.48172262
000030 ab 3b dc be cd 81 d3 3e aa 69 61 3e 11 b4 4e bd
       -0.43014273 0.41309968 0.22012964 -0.050464693
000040 3c 4d b5 3d f1 23 22 be 15 af 93 be b5 78 df 3e
       0.08852622 -0.15834023 -0.28844514 0.4364678
000050 3c 36 0f 3e 40 2a 04 bf 41 a1 6f 3e f5 b3 fa 3d
       0.13985533 -0.5162697 0.23401357 0.12241355
000060 fe 63 bd be 11 68 9f 3e ef 4a c8 3e bf 4a 47 3d
       -0.3699035 0.31134084 0.3911967 0.048655268
000070 25 80 e3 bd 44 16 09 3f 4c 7f 41 bd 2f ca 7d 3e
       -0.11108426 0.535496 -0.04724054 0.24784158
000080 60 66 63 3e f7 6d b3 3e a3 67 0a 3e 78 e4 27 3e
       0.22207022 0.35044834 0.13516097 0.16395748
000090 9f fc e5 3e 6a bc e9 bd 87 1e bf 3e 6d 51 ea be
       0.44919297 -0.1141289 0.37327978 -0.45765248
0000a0 1e 7f 4d 3e 86 3e 43 3e b1 28 e0 be 0b 0f 16 be
       0.20068023 0.1906682 -0.43781045 -0.14654176
0000b0 e6 ee 51 bd e7 68 98 be 39 ec a7 3d eb e1 d7 3e
       -0.051253222 -0.29767534 0.08199353 0.4216455
0000c0 c6 3e 04 3e aa 3c 9b be c4 0c 99 3d 5d 40 49 3e
       0.12914571 -0.3031972 0.07473138 0.19653459
0000d0 48 4a ea bd dc 2d 1a be 8a bd 45 bd 63 0e b3 be
       -0.11439949 -0.15056556 -0.04827646 -0.34971914
0000e0 7c c5 17 3c c0 f5 5a 3e 39 39 b9 be 5a 49 80 be
       0.009263393 0.21382809 -0.3617647 -0.25055963
0000f0 4d c7 49 3e ae ee db be ed 0d a8 bc 26 d0 07 3e
       0.19704933 -0.42955536 -0.020514453 0.13262996
000100 80 62 03 3e 3b f4 ef be 6c 0a f8 be 1a 92 22 be
       0.12830544 -0.4686602 -0.4844545 -0.15876046
000110 b7 7a bc 3e b6 e2 c1 3d 20 ac 4f 3e 9c fa 81 be
       0.36812374 0.0946707 0.20280504 -0.25386512
000120 a1 30 96 3e 89 54 ac be 81 6b f2 bc 50 92 77 3e
       0.29333976 -0.33658245 -0.029592277 0.24176908
000130 1e ef 02 be 1a 06 80 3e a7 f2 98 3e 53 d5 96 3e
       -0.12786528 0.25004655 0.2987263 0.29459628
000140 d4 ee 6b 3e e7 c0 04 bf ce a7 3f 3d f0 cd e4 3e
       0.23040324 -0.51856846 0.04679089 0.44688368
000150 bb d4 47 3e 31 5c c7 3e 15 fb ec 3e c0 fc ef be
       0.19514744 0.38937524 0.4628531 -0.4687252
000160 d5 26 45 3e 38 5f d2 3e ee be 09 be 8d 1d 0b 3f
       0.19253094 0.4108827 -0.1345174 0.54341966
000170 24 08 98 be a2 b0 da be 54 0b b6 3e b6 8f 57 3e
       -0.2969371 -0.42712885 0.35555518 0.21050915
000180 92 27 82 3e 6f 60 76 bc 6a c2 86 bd 76 68 ec be
       0.25420815 -0.01503764 -0.0658005 -0.46173447
000190 c2 9d b5 3d 97 5f d0 bd 96 5d 50 be 43 ab 5e bd
       0.088679805 -0.10174482 -0.203482 -0.054362547
0001a0 44 9a 03 3d 86 1c c7 bb 39 91 9b 3b 65 45 84 be
       0.03212954 -0.0060763983 0.0047475365 -0.25834194
0001b0 1b 13 25 be a6 f8 ac 3e 80 af f5 3e 8b 81 7f 3e
       -0.1612057 0.33783454 0.47985458 0.2495176
0001c0 e9 fe b8 be 81 48 b3 be 2d f7 ea bd 3a b4 bf be
       -0.3613198 -0.35016254 -0.11472926 -0.3744219
0001d0 8e 7d 6d be 82 9c eb be 34 30 cf 3e d2 b8 09 3f
       -0.23192427 -0.46017843 0.40466464 0.5379764
0001e0 82 44 cb 3d c5 ac ff be 44 e0 4d 3e 43 ef c9 be
       0.09925176 -0.499365 0.20105082 -0.39440355
0001f0 74 9a 2d 3e cf 3a c5 3e 8a 43 9a 3e 69 6f 69 3e
       0.1695345 0.3852143 0.30129653 0.22796406
000200 dd 39 e5 be 42 7e 97 bd fa 07 bb be c3 d1 5a be
       -0.4477071 -0.07397129 -0.36529523 -0.2136908
000210 6a 85 01 bf e3 40 14 be b1 bc 37 3e 5f e0 cf 3e
       -0.505942 -0.14477877 0.17943074 0.4060087
000220 bd 06 10 bf 53 c2 b9 be 18 34 5a be ab 5b cd be
       -0.5626028 -0.3628107 -0.21308935 -0.40109
000230 c4 17 2c be d6 be 33 3d 2f 22 c8 be dc d7 97 3e
       -0.16805941 0.043883167 -0.3908858 0.29656875
000240 8d 86 43 3e da fd e8 be 25 76 94 3e 55 31 5f 3e
       0.19094296 -0.45506173 0.28996387 0.21796162
000250 fd f8 b1 3e f0 ba ea 3d 7f 6f 7e bd 93 88 7a be
       0.34760275 0.11461437 -0.06211805 -0.24466161
000260 58 fa d3 3e 0c 35 b1 3d 34 33 db bd cd 06 c8 be
       0.41401935 0.08652696 -0.107031256 -0.3906769
000270 bc 1d 40 be 92 80 86 3d 78 88 60 be bd 02 9b be
       -0.18761343 0.065674916 -0.21927059 -0.30275527
000280 fa a8 1e be d4 b6 de 3e 1d 96 38 3e 18 19 a0 be
       -0.15494147 0.43498862 0.18026014 -0.31269145
000290 10 b0 39 be 2c 97 66 be 60 10 e1 be cc e0 bc be
       -0.18133569 -0.22518605 -0.43957806 -0.36890256
0002a0 10 cd 9b be d8 16 a9 be bf 52 3f 3e 5c 59 88 3d
       -0.30429888 -0.3302524 0.18683909 0.06657669
0002b0 5e 89 bb be ff b6 c6 be 25 33 04 3e 9c 24 2d be
       -0.3662824 -0.3881149 0.12910135 -0.16908497
0002c0 05 ea be 3e d0 ab d2 3e 3a 66 eb 3e ad 0e da be
       0.37287918 0.41146708 0.4597643 -0.42589322
0002d0 39 86 42 3e f3 92 6a be 3a 44 8a 3e 94 00 85 be
       0.18996514 -0.22907619 0.27005178 -0.25977004
0002e0 f5 e1 85 be 25 05 c7 3e 26 9b c9 bd 75 6b ff 3c
       -0.26148954 0.38871112 -0.09844045 0.03117917
0002f0 b4 1a a0 be 25 ec df be 4d d2 ef 3d a3 bb 63 3e
       -0.31270373 -0.4373485 0.117100336 0.22239546
000300 53 b6 04 bf 76 89 e7 3e cc 0a 3d be d5 80 05 bf
       -0.51840705 0.45222062 -0.1846115 -0.5214971
000310 41 3d 7d be e5 f7 98 3e 8a 98 af be fb 31 c5 bd
       -0.24730398 0.2987663 -0.34296066 -0.09628674
000320 d0 69 62 3e a1 74 74 be 1b 3b 74 3e 71 29 8b 3e
       0.22110677 -0.23872615 0.23850672 0.27180055
000330 8c b9 7b 3e db f5 23 3e 29 3a e8 3d 64 25 f5 be
       0.245825 0.16011755 0.11339218 -0.4788009
000340 d4 e6 fe be 88 09 4f bd 74 bc e2 3e 4f fc 8b 3c
       -0.49785483 -0.0505462 0.44284403 0.017088084
000350 32 de 86 be a5 bb f1 be b7 0a a8 3d 0b 4b b1 be
       -0.26341397 -0.47213474 0.08205169 -0.34627566
000360 e4 68 b5 be da 76 18 3e 43 9c 7b bc 5b f7 65 3e
       -0.35431588 0.14889088 -0.01535708 0.2245764
000370 f7 c4 9a 3d db 92 52 be 7b 4b b2 3d 25 88 f3 bd
       0.07557099 -0.20563833 0.08705803 -0.11891202
000380 51 a7 67 3e b8 91 a4 be 6f 5c 93 3e 26 df 9b 3e
       0.2262242 -0.32142425 0.2878146 0.30443686
000390 25 75 07 be 34 96 81 bd ff 75 c0 3e 75 4f cb 3e
       -0.13228281 -0.06327477 0.37590024 0.39709058
0003a0 fd 55 02 bf 2d 7b 82 3d 54 7b b5 3e d9 96 8d 3e
       -0.5091246 0.0637115 0.35445654 0.2765415
0003b0 54 90 c0 be 58 58 e9 be 64 47 82 be f9 d3 38 3e
       -0.37610114 -0.45575213 -0.25445092 0.18049611
0003c0 77 a1 13 bf 65 19 a0 3e 4e 34 9e be 8b 21 a8 3e
       -0.5766825 0.31269374 -0.3089928 0.3283809
0003d0 d1 1c 5e 3e 47 9e c3 3d c2 77 54 be 52 4c d6 3c
       0.2169068 0.095516734 -0.20748809 0.02615944
0003e0 af 26 1d be 0d 8d 8d be 60 b2 b2 bc ed 74 ed 3e
       -0.15346788 -0.27646676 -0.021813571 0.4637827
0003f0 68 ea a2 be 0d e8 f3 3e 59 7a 4c 3e 76 a9 c5 3e
       -0.31819463 0.47637978 0.19968547 0.3860585

VAE.encoder_mu.layers.0.linear0.bias f4 [128]
000000 22 5b 0f be 4c 05 e4 bd 1e 7b aa 3e 97 f8 3c be
       -0.13999608 -0.11133823 0.33297056 -0.18454204
000010 63 74 ba be c6 e9 8d 3e 85 7b e1 3e ea 0a d5 be
       -0.3641692 0.27717417 0.4403955 -0.4160989
000020 e2 62 0f 3e 09 d2 2e bd 25 63 8a be 53 1b 9b bd
       0.14002565 -0.042680774 -0.27028766 -0.07573571
000030 59 4d 43 3e e1 9d da bd a8 f5 bf 3e e6 da c1 be
       0.19072475 -0.10674644 0.37492108 -0.3786232
000040 2f e3 76 be 2b 3c a3 3d fd ad ff be b7 5e 01 3f
       -0.24110101 0.079704605 -0.4993743 0.5053515
000050 14 24 83 be 0a 58 71 be 2e a5 5d be 58 8f 9d be
       -0.25613463 -0.2356874 -0.21645042 -0.30773425
000060 b8 bf a8 bd b0 3e 20 be d8 5f 37 3a 60 af 55 be
       -0.082396924 -0.15648913 0.0006995178 -0.20867682
000070 d7 5b ec 3e 96 fe 41 3e 76 27 95 bd 2b c9 71 be
       0.46163818 0.18944773 -0.07282917 -0.23611896
000080 07 f6 c8 bd 9a e0 ce 3e c4 b5 62 bd 2e 91 b1 be
       -0.09812551 0.40405732 -0.055349126 -0.34681076
000090 bb 0a f5 3d 01 1f 7c be 30 82 95 be 4b 8f 00 be
       0.11964937 -0.24621202 -0.29200888 -0.12554662
0000a0 73 35 c7 be 67 b1 7c 3e 8d 38 bb be 2b b4 d7 be
       -0.38907966 0.24677049 -0.36566582 -0.42129645
0000b0 06 bf fb bd c6 56 50 3e e7 37 a0 be 13 e7 52 3d
       -0.12292294 0.20345601 -0.3129265 0.0514899
0000c0 10 78 0f 3e 86 dc 2f bc f3 c1 1d be 19 63 18 be
       0.14010644 -0.010733729 -0.15406017 -0.14881553
0000d0 57 67 32 3e 89 78 1b be e4 7a a9 be 09 ff 89 be
       0.17422234 -0.151827 -0.3310157 -0.2695239
0000e0 d0 5c 82 be d1 5a 99 be 02 7a ac 3e 9a 7a cb 3e
       -0.25461435 -0.299521 0.33686835 0.39741975
0000f0 ea 8d 99 3e 2a 55 8d 3e 4c 6f ba 3e 95 a8 d8 3e
       0.29991084 0.27604038 0.36413038 0.42316118
000100 1f fe a1 be d3 db fd 3d 12 ee cd 3e 97 f9 42 3d
       -0.31639192 0.12395444 0.40220696 0.04760131
000110 d7 cf 22 be 92 f4 9e be c3 a9 a0 be d9 19 c6 3d
       -0.15899597 -0.31045967 -0.31379518 0.09672899
000120 bb c5 66 3e 34 70 9d be 2c 7d 7c 3e 77 37 4d bd
       0.22536366 -0.30749667 0.24657124 -0.050101724
000130 41 1a 57 be 76 8e c1 3d 52 4f 98 3e 85 a7 23 bc
       -0.21006109 0.094510004 0.29748017 -0.00998867
000140 c9 5a 7c 3e 0e 5b 82 be a4 ec ab 3e 70 48 a7 3e
       0.24644007 -0.25460094 0.3357898 0.32672453
000150 14 98 9c be d2 55 12 be 06 b8 54 3e 0b 6d ea 3e
       -0.30584776 -0.1429055 0.20773324 0.45786318
000160 4c 02 f0 be 57 9c ed 3c c8 d1 29 3c 53 52 98 3e
       -0.46876752 0.029005213 0.010364957 0.29750308
000170 8a 1d 06 bf 7b 3a b5 3e 70 0b ed be 14 7d 44 3e
       -0.52388823 0.3539618 -0.4629779 0.19188339
000180 71 88 b7 be 51 56 8e 3e b3 78 be be ac 80 c1 3c
       -0.35846284 0.2780023 -0.3720146 0.023620926
000190 e0 6a 2f bc 9f 2e 85 be 26 88 9b 3e a3 61 cd be
       -0.010706633 -0.26012132 0.3037731 -0.40113553
0001a0 48 7f 07 bf 49 9b 13 be 6e 90 c4 be 81 4a 5e 3e
       -0.5292859 -0.14414705 -0.3839144 0.21708108
0001b0 99 e7 8b 3e 43 22 96 be 56 94 85 3e cb 0c 1c be
       0.27325132 -0.29323015 0.26089734 -0.15239255
0001c0 72 e9 5f 3e 26 4e bb 3e c9 ca e3 be 1e 8e a3 be
       0.21866396 0.3658306 -0.4449065 -0.31944364
0001d0 ff 9f cd be de ff 3d 3d 28 96 d1 be d1 c3 ac be
       -0.4016113 0.046386592 -0.40934873 -0.33743146
0001e0 2d c3 d7 3e d7 ec 8e 3e 85 56 96 be 1c 90 b7 be
       0.42141095 0.2791507 -0.29362884 -0.35852134
0001f0 04 bc 26 3d 18 6f ab 3d 3c 96 27 be 07 d4 58 3e
       0.04070665 0.08370799 -0.16365904 0.21174632

VAE.encoder_mu.layers.0.linear1.weight f4 [4, 128]
000000 0e 7f ff 3d dc cc 26 3e 16 f4 4d 3d 32 1c c2 3d
       0.12475406 0.16289085 0.050281607 0.09478034
000010 7d 13 92 bd 1b 90 05 bd f2 05 b9 3d 10 5b 68 3d
       -0.07132623 -0.032608133 0.09034337 0.05672747
000020 b8 af b8 3c 54 ce 41 bc f6 7a cf bb d2 85 84 3d
       0.022544727 -0.011828978 -0.0063317968 0.06470837
000030 6a a3 ba 3c 7e 79 68 bd 33 ca 3b 3d d8 46 03 3d
       0.022783 -0.05675649 0.04584713 0.032049984
000040 ac c7 69 bd 28 ff ca 3d c9 d0 75 bd 74 7a 50 bd
       -0.057075188 0.099119484 -0.060013566 -0.05089803
000050 f8 0d 16 3b 40 55 93 3d a8 da c8 bd c8 69 83 3c
       0.002289651 0.071939945 -0.0980733 0.016041651
000060 e3 91 31 bd a7 22 80 3d 63 e4 90 3d d5 f0 a5 bd
       -0.04335202 0.062566094 0.07074811 -0.08102576
000070 d7 c3 ac bc 84 80 6c 3c cf 5d df 3c 6c 34 18 bd
       -0.021089477 0.014434937 0.027266411 -0.03715937
000080 68 25 b0 3d 22 6d 85 bd 42 0c 52 3d e9 ed 32 3d
       0.08600885 -0.06514956 0.05128122 0.04368392
000090 81 43 12 bd 4d a2 53 bd 95 7d dc 3d a0 57 24 3e
       -0.035708908 -0.051668454 0.1076614 0.16049051
0000a0 64 e1 66 bd fa 4f e9 bc 8f 0a 37 3e 75 01 23 3e
       -0.056367293 -0.028480519 0.17875122 0.15918525
0000b0 7f f4 4a 3d 36 8a b9 3d f5 f3 29 3e c5 18 8b bd
       0.049549576 0.09059565 0.16596968 -0.06791834
0000c0 71 92 b3 bc fc 26 94 bb 8c ed ad 3d f2 e4 0f bd
       -0.021920415 -0.004521249 0.08492574 -0.03513045
0000d0 60 0d a0 3d 69 45 21 3d c1 c9 a2 3d 89 8e 7d bd
       0.07815051 0.039372835 0.07948638 -0.06190351
0000e0 cc d1 63 bd 31 fa 1a 3e db 01 5d 3d 96 99 2f 3c
       -0.05562 0.15134503 0.053956848 0.01071777
0000f0 84 bc 12 bd 0b b0 01 3d 7a fb b3 bb 58 d1 02 bd
       -0.035824314 0.03166203 -0.005492625 -0.031937927
000100 bf cd f4 bc 52 1e 41 3d 7d 7b f1 3c 31 ef f4 3b
       -0.029883264 0.047148056 0.02947783 0.007474803
000110 5e fd bf bb e0 05 ce 3d 72 8b 87 bc 2e 9f e7 bb
       -0.005859061 0.10059714 -0.016545985 -0.0070685362
000120 cf e3 85 bd 05 e7 9b 3c 08 db 27 3d 38 6e 17 3c
       -0.06537592 0.019031057 0.04098037 0.009242587
000130 ac 8c a1 bd 19 17 8e 3d 0a c5 a8 3d 56 93 81 3d
       -0.07888159 0.06937999 0.08240707 0.0632693
000140 6d 96 8d bd cc 67 8e 3c be fb a8 bc ca 1e ec 3c
       -0.06913457 0.017383479 -0.020627853 0.028823275
000150 03 1b b1 3d a4 bb 03 bd 0e eb 3b bd 9a 1c 80 bc
       0.0864773 -0.03216137 -0.045878462 -0.015638638
000160 ff 70 ea bc c2 73 96 3c 28 11 5a bd da ae d3 3d
       -0.028618334 0.018365745 -0.053239018 0.10336085
000170 5b 47 8c 3d 74 32 4b bd 9a 68 cb bc 42 28 fd 3d
       0.068495475 -0.049608663 -0.024830151 0.12361194
000180 29 0b 45 3d c8 4f 16 3d 1f b4 de 3d d3 ca 8a 3d
       0.048106346 0.03669718 0.10874199 0.06776967
000190 15 42 5a 3d 67 7f bb bc 31 2f 81 3d d0 3a 58 3d
       0.053285677 -0.022887899 0.06307829 0.052790463
0001a0 34 60 c9 3c fc 8f 56 bb 68 8c 41 bc b9 01 fc bb
       0.024582006 -0.003273963 -0.011813261 -0.007690635
0001b0 21 ae 2e 3d 0c a6 61 3d 32 c0 5f 3d 6a 8b 1f bc
       0.04264653 0.055089995 0.05462665 -0.009737829
0001c0 63 03 88 bb f0 17 d6 3d 9d 72 18 3d cc b6 b8 bc
       -0.0041507944 0.104537845 0.03721868 -0.022548102
0001d0 fc ba a1 3d 66 ab b8 3d bc c7 b2 bd 58 ac 80 bd
       0.078969926 0.09017067 -0.087295026 -0.06282872
0001e0 ca b4 9c bc bd 6d e7 bc 57 34 8d 3d 8f f3 94 bd
       -0.019129176 -0.02825057 0.06894749 -0.072730176
0001f0 6a f8 9b 3c a7 88 e5 3c c1 16 0c 3d 33 98 18 bd
       0.019039351 0.028019262 0.034201387 -0.037254523
000200 8f eb e5 3d fb 47 3b bd ef 68 a9 bc 59 9a 4f 3d
       0.1122657 -0.045722943 -0.020679919 0.050684307
000210 98 37 8d 3c e7 f5 2b 3c e9 6d 1e 3c 4e 29 fa 3d
       0.017238423 0.010495639 0.009669759 0.122149095
000220 8c 6b 93 bd 41 7d cc 3c 62 4e 17 3d c2 70 47 bd
       -0.07198247 0.02496207 0.036939986 -0.04869152
000230 2d e1 05 bd 4a 67 f9 bc 95 18 99 3c cb 80 cc 3c
       -0.032685447 -0.03044476 0.01868848 0.024963757
000240 f0 81 93 bd 2b e2 a2 bd 59 64 b7 3c de e5 81 3d
       -0.07202518 -0.07953294 0.022386717 0.06342672
000250 20 e9 73 3d 71 5a 05 3c a0 3e 7c bd 7b d3 8d 3d
       0.059548497 0.008139239 -0.06158316 0.06925102
000260 0f c4 71 3d a3 38 88 3c 29 a6 b3 3d a7 3e 05 be
       0.059024867 0.016628569 0.08771927 -0.13012181
000270 d0 54 ce 3c 5b f9 9d 3c 62 9a 46 3d fe b7 8f 3d
       0.025186926 0.019283941 0.048487075 0.070175156
000280 81 65 d6 3d be 43 c1 bd 7b 97 e0 bd 74 d2 c5 3d
       0.10468579 -0.09436749 -0.109663926 0.096592814
000290 54 b0 19 bd 15 5c e0 bd 45 c7 f7 bd 42 63 bb bc
       -0.037521675 -0.10955063 -0.120985545 -0.022874478
0002a0 88 2e 26 bd 6c ca 73 bd 51 5c dc 3d 68 e0 93 bd
       -0.04057172 -0.059519216 0.107597955 -0.072205365
0002b0 c4 79 31 bd d8 b7 61 bd e2 2c 37 3c 17 1a 1f 3d
       -0.043329015 -0.055106968 0.0111801345 0.03884324
0002c0 38 91 32 bd 63 cb b8 3d d0 28 ea 3d 27 83 26 3d
       -0.043595523 0.09023168 0.114335656 0.04065242
0002d0 0f 80 7d bd 8c dc 36 3d 5c d0 ad bd 86 2c 06 bd
       -0.061889704 0.044643924 -0.08487007 -0.032757305
0002e0 c0 cf f0 bb 65 9c 1e 3d 30 ba f8 bc 7e 2c 83 3d
       -0.0073489845 0.03872337 -0.030362219 0.064049706
0002f0 c0 5f b3 3c 79 56 46 3c 27 63 81 3d 81 6f 5f bd
       0.021896243 0.012105578 0.0631774 -0.054549698
000300 d4 ca d4 bd c7 7c 60 3d 45 c5 46 bd 77 e0 14 bc
       -0.10390249 0.054806497 -0.048527975 -0.00908672
000310 34 69 a5 3b 3b 85 9f bc 94 b7 ff 3c 3b 9e 08 3d
       0.0050479416 -0.019472709 0.031215467 0.033354025
000320 c9 3e 50 3d e5 2a a1 bd 5e b1 4c 3d ef f0 6c 3d
       0.050841127 -0.078695096 0.049973838 0.05784696
000330 c3 2f 97 3d e5 9d 61 bc 83 4e c8 bd 34 51 74 3d
       0.07382157 -0.013770555 -0.097806 0.059647754
000340 b7 64 63 bd 11 64 40 be fd e5 50 bd f5 dd eb bc
       -0.05551597 -0.18788172 -0.051000584 -0.02879236
000350 ef 5b 1f bd 2d 98 55 3c 6c e3 e8 bd 95 91 90 bd
       -0.038906034 0.01303677 -0.11371502 -0.070590176
000360 b5 2d 55 bd 43 83 54 bc e1 58 76 3c 28 ca b4 ba
       -0.052045543 -0.012970748 0.015035839 -0.0013793157
000370 7f 4d 48 bc 05 8c 15 3d 7a 44 3e 3d 5d 78 89 bd
       -0.012225508 0.036510486 0.046452023 -0.067124106
000380 44 67 ac 3d 12 fd ba 3a 92 9d d4 bd 4d c7 73 3d
       0.08418134 0.0014266095 -0.10381617 0.05951624
000390 03 6d c9 bd 48 9c a0 bb b7 ab b0 3c 13 0e 61 bc
       -0.098352455 -0.0049014427 0.021566255 -0.013736266
0003a0 80 25 49 3d 9e 68 48 bd 36 fc 75 bb 12 8d 1c bd
       0.04910803 -0.048927896 -0.0037534363 -0.038220473
0003b0 55 4d bc bd ba 4c ef bd 4a 42 b9 bd 43 ca 13 bc
       -0.091944374 -0.11684556 -0.09045847 -0.009020391
0003c0 1f 0d 05 bd ca 45 84 3d 6c 86 0d bd d1 ef 83 3d
       -0.032483216 0.06458624 -0.034552023 0.06442226
0003d0 b9 43 b1 bc a8 0a 82 3d d1 92 86 bc aa 6a 09 be
       -0.021638738 0.06349689 -0.01642743 -0.13419595
0003e0 ff 2c 88 bd 50 a2 01 bd 15 15 55 bd 0f 57 c1 3b
       -0.06649207 -0.031648934 -0.05202206 0.005900271
0003f0 95 65 41 3d 57 a3 b4 bc ad c6 56 3c ae 89 0c 3d
       0.047216017 -0.022050543 0.013108891 0.03431099

VAE.encoder_mu.layers.0.linear1.bias f4 [4]
000000 d1 0d 5b bc 5b 3a 15 bb be 09 89 bb 9f 9f 7d bd
       -0.013369993 -0.0022770378 -0.0041820696 -0.061919805

VAE.encoder_mu.layers.0.norm1.weight f4 [4]
000000 b5 c8 83 3f aa 6c 88 3f 28 b8 87 3f af 85 82 3f
       1.0295626 1.0658162 1.0603075 1.0197047

VAE.encoder_mu.layers.0.norm1.bias f4 [4]
000000 ab a1 e6 3b 23 11 54 bc 12 a4 28 3c 59 17 95 3c
       0.0070383153 -0.012943539 0.010293024 0.01819961

VAE.encoder_mu.layers.1.attention.W_q.weight f4 [4, 4]
000000 4c 55 12 3e 74 7d cd 3d ae 9c 0b 3f 4c 07 2f be
       0.1429035 0.10033694 0.5453595 -0.17092627
000010 b3 83 bf 3e 8c cf e4 be ec f4 fa 3c 2e fb d0 be
       0.37405166 -0.44689596 0.030634366 -0.40816635
000020 50 03 c4 be b4 ab c1 bd 92 25 71 3e f2 6b ab 3e
       -0.38283777 -0.09456578 0.23549488 0.33480793
000030 42 e5 99 3d fb ba 6b 3d 87 4f a0 bc 71 2e e7 3e
       0.075144306 0.057551365 -0.019569172 0.4515262

VAE.encoder_mu.layers.1.attention.W_q.bias f4 [4]
000000 36 7d c7 3a 22 b3 8a 3b 80 d7 dd 3b e7 cb 4b bb
       0.0015219811 0.00423278 0.0067700744 -0.0031096877

VAE.encoder_mu.layers.1.attention.W_k.weight f4 [4, 4]
000000 eb 5f 19 3e c1 79 87 be 70 04 28 be 7e 67 6e be
       0.14977996 -0.26460078 -0.16407943 -0.23281667
000010 18 c1 16 be fd 8f 69 bd 09 6f 22 3e 4b 32 e2 be
       -0.14722097 -0.057022084 0.15862669 -0.44178995
000020 d9 35 82 be 48 4a 9b 3e ae 03 81 3e 10 cb 17 3d
       -0.25431708 0.3033011 0.2519812 0.03705889
000030 fc 18 da 3e e8 50 11 3e 78 15 b9 be da 84 a0 3e
       0.42597187 0.1419102 -0.36149192 0.31351358

VAE.encoder_mu.layers.1.attention.W_k.bias f4 [4]
000000 71 fa a4 b7 5b 5e db b7 0d d7 81 39 f9 33 ad 39
       -1.9666944e-05 -2.6150772e-05 0.00024765023 0.00033035854

VAE.encoder_mu.layers.1.attention.W_v.weight f4 [4, 4]
000000 fc 6c 79 3e 13 05 c3 3e 79 74 8f 3e b8 a1 a6 3e
       0.2435798 0.3808981 0.2801855 0.32545257
000010 64 81 98 3d ec 32 15 be cd f3 5e be 13 ab 9b 3e
       0.07446554 -0.14570206 -0.2177269 0.30403957
000020 b8 30 60 bd c7 86 77 be 51 97 82 3e 5d 47 ac be
       -0.05473396 -0.24172507 0.2550607 -0.33648196
000030 22 41 6b 3e e0 64 7c 3e c2 ad c4 be 81 2f e7 3e
       0.22974065 0.24647856 -0.38413817 0.4515343

VAE.encoder_mu.layers.1.attention.W_v.bias f4 [4]
000000 b7 c3 0f 3d 6f db 52 3b 65 19 79 bc e2 a6 96 bc
       0.035098758 0.003217425 -0.015203808 -0.018390123

VAE.encoder_mu.layers.1.linear0.weight f4 [128, 4]
000000 91 ab 68 3d 3c e2 85 3e ee a5 10 3d ca 5f 81 3e
       0.056804243 0.26149166 0.035314493 0.25268394
000010 3c 6a 57 3d ff 34 19 be 3c 52 a5 be d0 c6 0e 3f
       0.052591547 -0.14961623 -0.32289302 0.55772114
000020 e1 32 0c bf 62 10 10 3f 71 c8 25 3e bb 42 9a be
       -0.54765135 0.56275 0.16189744 -0.30129036
000030 29 b9 85 b8 33 b4 08 3f ff d3 a2 be d3 ea 26 bd
       -6.376423e-05 0.5339996 -0.31802365 -0.04075129
000040 87 60 9e 3e 22 0b 9e be 5c 4b 8c 3e 30 6d 33 be
       0.3093302 -0.3086787 0.27401245 -0.1752212
000050 77 3b e4 3e 0a 24 79 3e 4c 15 fc be a8 86 c9 3e
       0.44576618 0.24330154 -0.49234998 0.39360547
000060 aa 71 ac bd ea f4 72 3e 36 2d 95 3e d2 a1 ee bd
       -0.08420117 0.2372624 0.29136056 -0.116519585
000070 2e c0 d3 be 6e 4d a3 be 3c 1e bb be 02 26 9e be
       -0.4135756 -0.31895012 -0.36546504 -0.30888373
000080 3a 93 a7 3d d1 1e c9 3e fb a0 26 3d af 5b 83 be
       0.08182378 0.39281324 0.040680867 -0.25655887
000090 d8 d5 89 3e b8 31 03 3f a9 77 bf 3e 2c 33 57 bd
       0.26920962 0.5124774 0.3739598 -0.052539036
0000a0 f0 e6 f3 3e 71 3c e6 bd 9e 25 df bb 50 ea 26 3e
       0.4763713 -0.11241997 -0.0068099042 0.1630032
0000b0 37 36 e9 3e 2a 0f bc 3e 96 a1 c3 3e f3 bb 56 be
       0.45549175 0.3673032 0.38209218 -0.20970134
0000c0 eb c9 8c be 81 e1 9f be 1e 77 45 bd 08 15 9b 3d
       -0.274978 -0.31226733 -0.048209302 0.07572371
0000d0 f2 0e 2d be 1c 2b dc 3e 2d 2d d2 be 47 23 88 be
       -0.16900232 0.4300164 -0.4105009 -0.26589414
0000e0 22 6e ae 3e c9 4e df 3c df ad 99 be 86 32 86 be
       0.340684 0.027259247 -0.30015466 -0.2621042
0000f0 25 5f c1 be 1a 79 78 3e 2f 29 79 3e d8 b6 7a 3e
       -0.37767902 0.24264947 0.24332117 0.24483812
000100 7e 2f 2f be ed 3c a0 3e e3 8e dd 3e f5 a0 f8 be
       -0.1710796 0.31296483 0.43273076 -0.485603
000110 67 6f e1 be dd 42 41 3d e3 aa ef be 67 eb 42 be
       -0.44030306 0.047182906 -0.46810064 -0.19035111
000120 42 1f d1 3e 1e 95 df bd 71 39 93 3d b0 1d 06 be
       0.4084416 -0.10917114 0.071886905 -0.13097262
000130 bd e0 86 3e 1f 4a 93 bd 3e f7 d2 3d 73 8c a4 3e
       0.26343337 -0.07191872 0.10301064 0.32138404
000140 37 38 df 3e c7 1b 92 bd 29 44 0f bf b9 28 bb bd
       0.43597576 -0.07134204 -0.5596338 -0.091386266
000150 5d 57 38 3e ed f5 f2 3e 01 69 c1 3d 6e 8a 8e 3e
       0.18002076 0.4745325 0.09443856 0.27839988
000160 ca da e3 3e 2a 7a fb bd 93 5d c0 3d 23 24 07 bf
       0.4450286 -0.1227916 0.09392848 -0.52789515
000170 99 fb 93 bc 72 83 ff be 26 2b 3c be 55 c4 37 be
       -0.018064307 -0.49904972 -0.18375835 -0.17945988
000180 a5 0f 37 3e a2 9a 3e 3e de 7a 1d be 80 99 e2 bd
       0.17877062 0.18613675 -0.15378901 -0.11064434
000190 6a b5 7e 3e c7 48 98 3d 59 ae f3 3e 62 ec 7f 3e
       0.24873891 0.07435756 0.47593954 0.24992517
0001a0 6f 71 dd be d4 5c aa be 73 bf a9 3d 92 a4 2b 3e
       -0.43250605 -0.33273947 0.08288469 0.16761997
0001b0 e5 ce e5 3d de e6 1f 3b 5a ce a8 3e c1 dd 00 bf
       0.112211026 0.0024399082 0.32969934 -0.5033837
0001c0 39 ba 25 be c3 c7 e4 bd 1c 33 e0 3e 8e a0 a1 3e
       -0.1618432 -0.11170914 0.43788993 0.31567806
0001d0 54 16 23 be 51 23 86 be 80 4e c3 be 4f 8d 69 be
       -0.15926486 -0.2619882 -0.38145828 -0.22807811
0001e0 ae 95 04 3f 50 14 19 3e e8 b4 c5 be ae b6 92 bc
       0.51790893 0.14949155 -0.38614583 -0.017909374
0001f0 4a 95 12 3e ce f8 5a 3e 4d bb 86 3e e0 ce 16 be
       0.14314762 0.21383974 0.26314774 -0.14727354
000200 dc 85 f5 3e 68 cd 78 3e 88 5f 62 3d 26 46 a5 be
       0.4795369 0.24297106 0.055266887 -0.32280082
000210 3b ee c4 3e ad ec ea be ae b0 d8 bd f3 f6 a5 3d
       0.38463005 -0.45883694 -0.10580574 0.081037425
000220 52 c7 ab 3e 5b 9a d0 bd 69 b1 09 3f 99 96 e0 be
       0.33550507 -0.10185691 0.5378633 -0.43864897
000230 1b cd 97 be 3c a1 2d bf 90 cc bb be ba 02 0a 3f
       -0.2964867 -0.6782415 -0.36679506 0.5391041
000240 01 52 77 bd 5b d8 bd be f1 d3 63 3e 8b 68 5f 3e
       -0.06038094 -0.3707913 0.22248818 0.21817224
000250 dc 70 90 3e 57 6c ad be cd f3 a2 be 83 55 01 3d
       0.28211105 -0.3387172 -0.3182663 0.03157569
000260 69 cb 09 be fd 6f e8 be 06 08 4f be 9a 42 8f 3e
       -0.13456501 -0.4539794 -0.20217904 0.279805
000270 74 67 f9 3e 8f a9 7f be ca 13 f7 3e 08 5a 80 be
       0.4871174 -0.24967025 0.48257285 -0.25068688
000280 ba 1b c6 3e 1b 3c ab 3e 81 10 c0 be c2 f2 79 be
       0.3869303 0.33444294 -0.3751259 -0.24409011
000290 42 db 70 be 64 fa 21 3d f6 4a f0 3e d4 9b de be
       -0.2352114 0.03954543 0.4693219 -0.43478262
0002a0 28 68 07 bf a3 43 19 3e ce 6a 3f 3e c0 91 95 3e
       -0.52893305 0.14967208 0.18693087 0.2921276
0002b0 ed 46 36 3e 37 0c 89 bc c9 af 8c be fd 03 68 bd
       0.17800494 -0.016729457 -0.27477863 -0.05664443
0002c0 5c 47 cb be bf f5 ca 3e e0 33 e9 3d e8 3a 06 bf
       -0.3970288 0.39640614 0.113868475 -0.52433634
0002d0 02 40 f5 3d d5 9f 9e 3e 82 d4 cc 3e de c7 69 3e
       0.11975099 0.30981317 0.4000588 0.2283015
0002e0 e8 75 19 3e 5c 57 e6 3e 11 77 87 be 28 23 7e bd
       0.14986384 0.44988525 -0.26458028 -0.062045246
0002f0 33 95 46 be d9 6d 38 be a3 fb 7a bc d1 4b c2 3e
       -0.19392852 -0.18010654 -0.015318784 0.37948468
000300 a9 cb 7a 3d 80 62 d6 be 3d 1c ec be 0e ed 89 be
       0.06122938 -0.41872025 -0.46115294 -0.2693867
000310 a7 88 27 3e 25 91 86 3e b5 77 f7 be 09 8a aa 3d
       0.16360722 0.2628261 -0.48333517 0.08327109
000320 e7 12 2b 3e ed b3 b1 3e 1f b5 df be 1e b5 1d 3e
       0.1670643 0.34707585 -0.43692872 0.15401122
000330 97 d8 a6 be 22 5e b0 3e 64 f7 be be 1d 14 8a bd
       -0.3258712 0.34446818 -0.3729812 -0.067421176
000340 e6 5d 1b be 9f 79 24 3e 61 f2 9d 3e e4 dc e4 be
       -0.15172538 0.1606202 0.30848983 -0.44699776
000350 17 d6 14 bf 63 5a 79 3e c8 2d dd 3e 64 b9 b6 3e
       -0.58139175 0.24350886 0.4319899 0.35688317
000360 46 30 07 3e cd bf 07 3f 94 e5 15 3d a4 57 bd 3e
       0.13202009 0.5302704 0.036595896 0.36980927
000370 7b 59 cb bd ed 02 e8 3d 28 96 bd be f4 08 4f 3e
       -0.099291764 0.11328683 -0.37028623 0.20218259
000380 e2 38 b0 bd f7 44 95 3e ae 15 e1 be 92 a5 c9 3e
       -0.086045995 0.29154179 -0.43961853 0.39384133
000390 84 bb 84 be 5d 49 da 3e 6e 26 f1 bd 90 85 d0 3e
       -0.25924313 0.42634097 -0.11774908 0.407269
0003a0 b0 96 b3 be b7 49 03 be 90 8c f6 3d f8 f6 a2 3e
       -0.35075903 -0.12821089 0.12038529 0.31829047
0003b0 c1 27 2c be a6 6a 84 be 68 ff 27 be b2 49 02 3e
       -0.1681204 -0.25862616 -0.16406024 0.12723425
0003c0 bc 95 6b 3e 45 73 a1 bc 28 6a ac bd 98 8e e0 3d
       0.23006338 -0.019708285 -0.08418685 0.109646976
0003d0 0d bb 13 bf f3 3b 86 bd 6a 7f 95 3d 02 b1 ec be
       -0.5770729 -0.06554403 0.07299693 -0.46228796
0003e0 ad 3d 89 bd a8 d2 78 3e 45 50 bc be 0b b3 3f be
       -0.06701217 0.24299109 -0.3677999 -0.18720643
0003f0 bc 9d f6 3e 48 c8 dd 3e 75 52 0c 3e f7 a0 ad bc
       0.48167217 0.43316865 0.1370333 -0.021194918

VAE.encoder_mu.layers.1.linear0.bias f4 [128]
000000 25 36 99 be 29 29 e3 3d 9a bf d6 be ac 97 2e 3b
       -0.29924121 0.11091835 -0.41943055 0.0026640696
000010 50 6a 08 3f a1 c0 82 3e 4e 40 5f 3e 5a f9 f2 be
       0.5328722 0.2553759 0.21801874 -0.47455865
000020 d3 73 a4 be ce e5 21 bd 06 64 b8 3e 87 61 d4 be
       -0.32119617 -0.0395258 0.36013812 -0.41480657
000030 0a 3d a3 bc 5e 40 6c 3d c7 b9 64 3e 44 87 14 3e
       -0.019926567 0.057678573 0.22336493 0.14504725
000040 61 e7 79 3e c8 e7 67 3e 7e b0 b8 be fb 7e b6 be
       0.2440467 0.22647011 -0.36072153 -0.35643753
000050 5f 4a cb 3e 7a e0 c4 3e ba e9 98 3d 3b 9b c9 3e
       0.39705178 0.38452512 0.07466455 0.39376244
000060 5b 10 1c 3e a1 be 8a bb 04 03 19 3c 3c c3 8b 3e
       0.15240614 -0.0042341505 0.009339098 0.2729739
000070 cf b1 e1 3e 2a b0 b3 be 18 7f bf be ba a4 c0 be
       0.4408097 -0.3509534 -0.37401652 -0.37625676
000080 a8 b3 9b bd 3a 70 60 be 84 06 90 bd 0c 03 fd 3c
       -0.07602626 -0.21917811 -0.07032493 0.030885242
000090 0a 29 b7 3d 9b 83 a9 3d 74 63 e2 bc 39 e9 21 3d
       0.089433745 0.08277055 -0.027635314 0.03952906
0000a0 bc 53 87 be a9 79 a9 3b 3b 88 b1 3e b8 a0 d6 bd
       -0.26431072 0.0051719737 0.34674248 -0.104798734
0000b0 c6 a4 02 3f 46 43 c1 3e 2e 00 08 be d6 0b 09 3e
       0.51032674 0.37746638 -0.13281319 0.13383421
0000c0 05 77 0f 3e e3 c7 04 3e 44 ac 2a be ac 0f 73 3d
       0.14010246 0.12966876 -0.16667277 0.059341118
0000d0 ca a6 33 be 14 dc 31 be ae 25 ea bd 1a a9 2a be
       -0.17544094 -0.1736911 -0.11432968 -0.1666607
0000e0 31 2a d9 be a8 e1 29 3e ae 60 e2 3d 57 47 2a 3a
       -0.42415002 0.16589987 0.110535964 0.0006495616
0000f0 33 a7 bc 3e 23 88 42 3d 2b 5f 34 be 4b 32 09 3f
       0.36846313 0.04749311 -0.17614429 0.53592366
000100 5f bd cc ba 8b 21 9b 3e 49 ba a7 bd 8d 8d 3f be
       -0.0015620402 0.3029903 -0.08189828 -0.18706341
000110 28 63 c1 3e 67 6e c7 bd 9a b2 b3 be ed 23 58 3e
       0.37770963 -0.097378545 -0.350972 0.21107455
000120 69 58 a0 be 0c 1c d1 be 1a 79 38 3e e1 98 93 be
       -0.31317452 -0.4084171 0.18014947 -0.28827575
000130 cd eb e4 be f0 2c f2 3c 58 d8 27 be 84 32 f1 be
       -0.44711152 0.029562443 -0.16391122 -0.47108853
000140 ce 35 82 3e b6 ef a9 be ea 13 06 3f 50 a3 a7 3e
       0.25431675 -0.33190697 0.52374136 0.32741785
000150 f0 2b 08 bf 55 b2 77 3e 56 f7 bf be 4a c3 b0 be
       -0.53192043 0.24189122 -0.3749339 -0.34523994
000160 ea ee 97 3e 54 7f 04 be 14 8b 3f be 2c 29 46 be
       0.29674464 -0.12939197 -0.18705398 -0.19351643
000170 36 d3 fc 3d a0 81 00 3f 3e d1 8c 3d 8d ea 34 be
       0.12344973 0.5019779 0.06875847 -0.17667599
000180 ef 1b dc be dd 66 e0 3e 52 a5 8c bd 65 c0 b6 be
       -0.42990062 0.43828478 -0.0686747 -0.3569366
000190 ec 09 3f 3e 82 ab 14 bd ae 47 5e 3e 58 51 98 bd
       0.18656129 -0.036296375 0.21707031 -0.0743739
0001a0 b2 1e 0d be cb 1a 8e be c3 5b 7e 3e 05 7e 48 be
       -0.1378124 -0.27754816 0.24839692 -0.19579323
0001b0 44 e4 15 3e 2d d9 f8 3e f4 3d a7 bd 7a 2e 68 be
       0.14637858 0.48603192 -0.081661135 -0.2267398
0001c0 36 79 c9 3e ab 10 bb ba 45 80 7a be 20 6f ce 3d
       0.3935029 -0.0014271935 -0.24462993 0.10079789
0001d0 21 14 a9 3e a2 c1 87 be 83 c3 19 be d8 55 d6 3e
       0.3302317 -0.26514918 -0.15015988 0.4186237
0001e0 e4 e8 00 3f 28 35 7c 3e 9a d0 b3 be 2b bc 60 be
       0.5035536 0.24629653 -0.35120088 -0.2194678
0001f0 89 18 97 3e 8c 69 65 be 62 8b 8e 3d da a2 bc 3d
       0.29510906 -0.22403544 0.06960179 0.09210749

VAE.encoder_mu.layers.1.linear1.weight f4 [4, 128]
000000 c2 eb e1 bd 0b 20 6f 3d 46 76 1d 3c 30 2e da 3d
       -0.11031295 0.058380168 0.009610718 0.10653341
000010 56 fe ce bd 6c d5 0d be 6c 39 75 3d 70 89 fe bc
       -0.101071045 -0.13850945 0.059869215 -0.031071395
000020 be 7c 36 3d 3c 42 d5 3d 5a ef d7 bd 66 22 ae 3c
       0.044552557 0.10413024 -0.105436996 0.021256637
000030 6b 6f 32 3e 9d f5 ed 3d 90 8d e4 bd 44 ff 81 3d
       0.17425315 0.11619113 -0.111598134 0.06347516
000040 40 fd 08 3c ec 3b df 3d 3b 62 21 bd 99 e9 19 bd
       0.008361161 0.10900101 -0.03940032 -0.03757629
000050 32 54 0b be d7 1e 88 bc ab be a3 bd 42 26 96 bd
       -0.13606337 -0.016616268 -0.079953514 -0.07331516
000060 50 e3 43 3b 1e 58 87 3d 8a 7b 75 3e d9 69 d5 3c
       0.0029890127 0.06608604 0.23972908 0.026051449
000070 70 5f 4c 3d 76 94 a1 bd 62 86 fa bd 2c 57 14 bd
       0.049895704 -0.07889645 -0.12232663 -0.036215946
000080 a8 09 e1 3d 38 a3 2e be 2a f5 ea bb e9 b7 a3 3d
       0.1098817 -0.1705445 -0.007170339 0.079940625
000090 19 2b 4b 3e d9 35 3a bd dd 69 02 3e 41 53 27 bb
       0.19840659 -0.04546151 0.12735696 -0.00255318
0000a0 bb 50 62 bd 89 1a 23 3d f3 4b 2c 3e ba 80 76 3b
       -0.05525277 0.039820228 0.16825847 0.0037613348
0000b0 4a ab 66 bd 0d a2 a9 3c eb ac 71 bc 88 dc ff 3d
       -0.056315698 0.020707155 -0.0147506995 0.12493235
0000c0 bd f4 a5 bd ea 61 da bd 0a e6 f5 bc 5d 7e 6b 3d
       -0.08103321 -0.10663207 -0.030016918 0.057493556
0000d0 aa 7a 7e bd b0 85 37 3e bb f5 b6 bd 6b f6 27 3d
       -0.0621287 0.17922091 -0.08933588 0.041006487
0000e0 f9 6d 88 3b ab c1 d3 3d 99 d9 c5 3d 24 21 aa 3d
       0.0041635004 0.103396736 0.09660644 0.08307102
0000f0 85 60 f4 bd d0 85 86 3d fe 27 5f bd c9 b9 1a be
       -0.11932472 0.065684915 -0.0544815 -0.15109934
000100 fb 61 45 3d af 84 e1 3d ae f8 17 3d ce 6c 98 bd
       0.048189145 0.110116355 0.037102394 -0.07442628
000110 4a 01 86 3c 47 83 35 3c 84 82 58 bd 86 1b a4 bc
       0.016358037 0.011078662 -0.052858844 -0.020032655
000120 bf 3c bc bc 17 20 44 bc 1a 5b 2d 3e 91 ca b9 bc
       -0.022978185 -0.011970541 0.16929284 -0.022679599
000130 26 b9 9a bc 62 c4 39 bd e1 b1 45 3e 77 62 c9 bd
       -0.018887114 -0.0453533 0.19306137 -0.09833234
000140 86 74 fb bd 5f 18 f4 3d ef 83 5e bd 17 94 69 bc
       -0.122780845 0.11918711 -0.05432504 -0.014256499
000150 20 4b e6 be e1 59 aa 3a a1 37 06 bd 45 61 3a 3d
       -0.4497919 0.0012996757 -0.032767896 0.04550292
000160 26 37 36 3e 75 ea c1 3d af 13 dc 3c cb 07 49 3e
       0.17794475 0.09468547 0.026864855 0.19631879
000170 e0 f0 9e bd 6e 15 6b 3d fc 1d 00 3e e9 04 7f b9
       -0.07760787 0.057393484 0.12511438 -0.00024320524
000180 33 2d 29 bd d2 1d 95 3c 43 7a 62 bd fa d2 2d bd
       -0.04130287 0.018202696 -0.05529238 -0.04243753
000190 bd 8f 93 3d 7f 0f 10 3e 18 0d df 3c a0 f4 8a 3c
       0.0720515 0.14068411 0.027227923 0.01696235
0001a0 d2 ca 2f 3d f9 92 90 3c cd 3a df 3d 0e f2 17 3e
       0.042918034 0.017648207 0.10899887 0.1483843
0001b0 04 f0 33 bc c9 85 19 bd 2c 89 b9 bd 26 5d dd 3c
       -0.010982517 -0.037481103 -0.090593666 0.027021956
0001c0 b4 f9 6c bd fb 68 d7 bd 6e f8 05 bd c2 4e 14 3d
       -0.057855323 -0.1051807 -0.032707624 0.03620792
0001d0 07 89 0f 3d eb 1e 1e be 07 fa 14 be 10 b4 e5 bb
       0.03504279 -0.15441482 -0.14548503 -0.0070099905
0001e0 31 a3 15 3e 62 dd 1b bd 08 6b 7b bb 7f 57 48 ba
       0.14613034 -0.038052924 -0.0038363356 -0.00076424325
0001f0 58 d5 1b 3c 1b 97 5e 3c 15 df 4f 3e 0b f0 a9 bd
       0.009511314 0.013585831 0.20299943 -0.08297738
000200 b4 9b 1f 3c 5b 56 8e bc b2 50 c0 3d 9d 8f e3 3d
       0.009741712 -0.017375162 0.093903914 0.111113764
000210 05 d2 c0 bd 3f 4f 56 3d 81 6d 2e bd 02 00 ad bd
       -0.09415058 0.05232167 -0.0425849 -0.08447267
000220 be 50 71 3d 71 9e e5 bc 64 f9 00 be b2 48 6e bd
       0.058914892 -0.028029652 -0.12595135 -0.058174796
000230 ec 76 17 3c c2 4a fc 3d f6 ef 50 bd c0 12 55 bd
       0.009244662 0.123189464 -0.051010095 -0.052019835
000240 c8 68 9e 3d 30 a5 3d 3d 69 3e a5 3b de a9 31 bd
       0.07734829 0.046300113 0.0050428403 -0.04337489
000250 9e 2f ea 3c 18 9c a0 3d b1 80 17 bd 30 98 97 bd
       0.028587159 0.078422725 -0.036987964 -0.07402074
000260 f7 8a e3 3c ae 0f 0c bd d7 ed 9f 3c b0 65 9a 3d
       0.027776225 -0.03419464 0.01952259 0.075389266
000270 5d 4c 53 bd 7c c4 34 3d 63 91 89 3c fe d1 ec bc
       -0.051586498 0.044132695 0.016792959 -0.028908726
000280 65 c2 f8 3c 8c a2 af bd 06 59 35 3d e6 c1 d0 bd
       0.030366132 -0.08575925 0.044274352 -0.10193233
000290 8f 8e f2 ba 29 5d d1 bd 40 97 02 be 8d 9a 03 3d
       -0.001850562 -0.10222847 -0.1275301 0.032129813
0002a0 97 a8 45 bd ff 70 9a 3d 4a c4 42 3c 9d 99 0d 3d
       -0.048256483 0.075410835 0.011887619 0.034570325
0002b0 9d ad bc 3d bc b3 24 bd cd b9 f7 3a 00 ea ac bc
       0.092128016 -0.04021047 0.0018899977 -0.021107674
0002c0 4e 70 ab 3c 1e 75 32 3c 8a ed 50 bd 73 a7 cf 3c
       0.020927574 0.010892181 -0.051007785 0.0253484
0002d0 f6 16 31 bd 90 69 fb bc c8 60 c0 3d b8 c9 70 bd
       -0.043234788 -0.030689985 0.093934596 -0.058786124
0002e0 6f 49 d7 bb 25 2e ad bc fb b8 f3 bd d4 1c 09 be
       -0.0065700333 -0.021140167 -0.119005166 -0.13389903
0002f0 05 1b 95 bd 52 de 97 3d f3 33 a0 3b 13 21 ce 3c
       -0.07280544 0.07415451 0.0048890053 0.025162255
000300 e2 47 8e 3d af b2 cf bd fc 13 9e bc c1 12 2a bd
       0.06947304 -0.10141503 -0.019296639 -0.04152179
000310 fd ca ad 3d cf 5a 8f bc be 05 15 be 93 ed a1 3d
       0.084859826 -0.017499356 -0.14552972 0.07906642
000320 af e4 02 3d a2 14 75 bc 49 e2 27 bd 35 e9 ea 3b
       0.03195637 -0.0149585325 -0.040987287 0.0071689137
000330 91 b5 3b bc 9e 01 87 3d 5c 03 23 bd 6d 04 85 bd
       -0.011456863 0.06592105 -0.039798126 -0.06494985
000340 a7 e4 12 3d d4 76 70 3d cc 96 ae bd 9e 0d b0 bb
       0.03586259 0.058707073 -0.08524856 -0.005372717
000350 74 fa e7 3c 63 d2 33 3d da 0e c2 3c 0f ac 08 3d
       0.028317668 0.043901812 0.023688722 0.033367213
000360 20 77 48 bc 1e 57 8e 3c e0 8a 60 bc 7e b4 2a be
       -0.012235433 0.017375525 -0.013704985 -0.16670415
000370 b4 2f 5d 3d c9 43 d2 3d b8 a6 e6 bd 54 5e b2 3c
       0.05400057 0.10266835 -0.11262268 0.021773495
000380 3e eb 2b bd 67 0f 75 bc bb e2 72 bd 90 d3 5b 3d
       -0.04197239 -0.0149572855 -0.05929826 0.05366856
000390 dd ba 6c bd cd 9a 35 bd 1b 55 d5 3c a8 5f d6 bd
       -0.057795394 -0.044337083 0.026041558 -0.10467464
0003a0 c3 f3 c2 3d 39 36 c5 3c dd 64 8a 3d 9a 55 95 bd
       0.0951915 0.024073707 0.067575194 -0.07291718
0003b0 77 1c 2f bd 8f 2f 61 3c ef 0b 1d 3d 65 f4 9e 3d
       -0.042751756 0.013744249 0.03834146 0.07761458
0003c0 52 d7 a0 bd 99 06 79 3d cf 63 85 bb 4f c0 99 3c
       -0.07853569 0.060797308 -0.004070736 0.018768458
0003d0 75 17 85 3d 77 29 05 be be e7 0d be 80 fe 39 3d
       0.06498615 -0.13004099 -0.13857934 0.045408726
0003e0 a5 80 9d bd 95 a6 a9 bc 32 a3 64 3d e7 48 a0 bc
       -0.076905526 -0.020709315 0.055819698 -0.019566013
0003f0 af c8 bf 3d 1b 83 0b 3d 7a 39 6f 3c b5 45 8b bd
       0.09364449 0.03406058 0.014601106 -0.06800405

VAE.encoder_mu.layers.1.linear1.bias f4 [4]
000000 e7 7a e2 3a cf c5 b5 bd 75 6e 98 3d 85 5c 9d 3d
       0.0017279059 -0.088756196 0.07442943 0.07683662

VAE.encoder_mu.layers.1.norm1.weight f4 [4]
000000 b7 f6 91 3f fd 87 91 3f 52 b5 8f 3f c7 ee 8f 3f
       1.1403416 1.1369625 1.122721 1.1244744

VAE.encoder_mu.layers.1.norm1.bias f4 [4]
000000 36 50 d0 bc 37 42 fc 3b fd 76 ed 3b 23 90 49 3d
       -0.025428873 0.007698323 0.0072468505 0.049209725

VAE.encoder_mu.layers.1.norm0.weight f4 [4]
000000 2a af 7d 3f 0c f0 76 3f f9 ff 75 3f d0 f2 7a 3f
       0.99095404 0.9646003 0.9609371 0.9802675

VAE.encoder_mu.layers.1.norm0.bias f4 [4]
000000 70 79 77 3c 0e 67 ce 3c 06 0b ef 3b 10 1e a1 3b
       0.015104637 0.025195625 0.0072950153 0.004916914

VAE.encoder_mu.last_normalization.weight f4 [4]
000000 00 00 80 3f 00 00 80 3f 00 00 80 3f 00 00 80 3f
       1.0 1.0 1.0 1.0

VAE.encoder_mu.last_normalization.bias f4 [4]
000000 00 00 00 00 00 00 00 00 00 00 00 00 00 00 00 00
       0.0 0.0 0.0 0.0

VAE.encoder_mu.head.weight f4 [4, 4]
000000 94 bb 22 3e 08 89 e8 3e 20 e0 55 bd a0 99 e5 bd
       0.15891868 0.45417047 -0.052215695 -0.11210942
000010 08 97 b4 bd f4 28 7a be b4 fc e6 3e f6 73 8c 3e
       -0.088178694 -0.24429685 0.45114672 0.2743222
000020 40 27 a8 3c 28 59 ad bd 26 c4 9b 3e f0 7f 26 be
       0.020526528 -0.08464271 0.30423087 -0.16259742
000030 2a 60 98 3e ce be df 3e ee 03 93 be d0 0c fb 3d
       0.29760867 0.4370026 -0.28713936 0.12258303

VAE.encoder_mu.head.bias f4 [4]
000000 5e ec f6 be d4 e0 4a be 9c c3 0c 3e 4c 2b 61 3e
       -0.4822721 -0.19812328 0.13746494 0.21989173

VAE.encoder_logvar.layers.0.attention.W_q.weight f4 [4, 4]
000000 42 d2 9d 3e a1 9f 56 3e 1d 47 bb 3e 2b 72 ee 3e
       0.30824476 0.20959331 0.36577693 0.46571478
000010 0a 6f ca 3d 21 da e0 3d 38 a7 8a be 82 e3 28 bd
       0.0988446 0.10979105 -0.27080703 -0.041232593
000020 55 3f ca bd 5d 31 c4 be 5d 1f 1e 3e 0f 0d 98 3e
       -0.09875361 -0.3831891 0.15441652 0.29697463
000030 fa 62 d0 be ca 88 70 3e 28 54 4b be 60 f4 88 bb
       -0.40700513 0.23489681 -0.19856322 -0.0041795224

VAE.encoder_logvar.layers.0.attention.W_q.bias f4 [4]
000000 eb 7f 84 3c e2 45 5a bd 80 9d bf 3c df fc 66 bb
       0.016174277 -0.0532893 0.023390532 -0.0035245938

VAE.encoder_logvar.layers.0.attention.W_k.weight f4 [4, 4]
000000 93 fe d1 bd b6 15 ce bd fe 9c 80 3d de ac b0 3e
       -0.10253634 -0.10062735 0.06279944 0.34506887
000010 0b 80 77 3e a0 a2 a5 3e d5 bb 21 3d 7b b6 23 3d
       0.24169938 0.32350636 0.03948577 0.03996895
000020 91 c4 b8 3e 79 de 40 be e3 c5 39 3e 85 ec 66 be
       0.36087468 -0.18834867 0.18141894 -0.22551163
000030 06 07 07 bd ac dc 87 3d 0f 9e 93 be 22 a6 8d 3e
       -0.032965682 0.06633887 -0.28831527 0.27665812

VAE.encoder_logvar.layers.0.attention.W_k.bias f4 [4]
000000 d4 4b 9c b7 c2 28 ec b6 28 87 7b 36 cc 70 65 37
       -1.863196e-05 -7.038093e-06 3.7480586e-06 1.3675726e-05

VAE.encoder_logvar.layers.0.attention.W_v.weight f4 [4, 4]
000000 6a 42 89 3e 6a 0e 4a 3c 52 41 b7 be cf d7 c2 be
       0.26808482 0.012332538 -0.35792023 -0.38055274
000010 e5 83 e4 3e 81 c2 ad 3e d0 f4 b9 3e 53 00 18 3e
       0.44631878 0.33937457 0.3631959 0.14843874
000020 84 3a 88 be 85 2c 82 be de a0 b5 be 30 89 a4 be
       -0.26607144 -0.2542459 -0.35474294 -0.32135916
000030 72 f6 8c 3d 35 86 db 3d e1 c5 54 be 0e 89 21 3e
       0.06882943 0.10718957 -0.2077861 0.15774938

VAE.encoder_logvar.layers.0.attention.W_v.bias f4 [4]
000000 73 37 8e bc db 90 50 bd 2d cc 77 bd 24 ea 85 ba
       -0.017360425 -0.050919395 -0.06049745 -0.0010216874
