tabsyn/vae/ckpt/news/decoder.pt (torch, 22460 bytes, 35 tensors)

VAE_Decoder.layers.0.attention.W_q.weight f4 [4, 4]
00000000: defa be3e efb4 b1bd 0c23 76be ac93 25be
00000010: 607d c2bd 548c 8a3e a8f0 2b3e a547 b33d
00000020: 09db cebe 79a2 8c3e 095a 6a3e 1877 b23d
00000030: 3dec 3b3e c5f9 973e b533 273d 65e2 7e3e
0.3730077 -0.086770885 -0.24036807 -0.16169614 -0.0949657 0.27060187 0.16791022 0.087538995
-0.40401486 0.27467707 0.22885908 0.087141216 0.18351837 0.29682747 0.040820796 0.2489105

VAE_Decoder.layers.0.attention.W_q.bias f4 [4]
00000000: 6c45 66be a8ba 28be e2ab 62be 06d0 373d
-0.2248742 -0.16477454 -0.2213588 0.04487612

VAE_Decoder.layers.0.attention.W_k.weight f4 [4, 4]
00000000: 021a 5dbe d0b2 db3d c6bc 113d 9643 a7be
00000010: 63d5 7e3e 0a45 d1bd 2ead a53e ddcd 28bd
00000020: bb11 a2be 2da1 933d 0153 bbbd e8ac 89be
00000030: 793d 81bc 03b5 ea3d ef68 3bbe f808 2c3e
-0.21591952 0.10727465 0.03558042 -0.3266875 0.24886088 -0.10218246 0.32358688 -0.04121195
-0.31654152 0.07208476 -0.09146691 -0.2688973 -0.015776383 0.114603065 -0.18301748 0.16800296

VAE_Decoder.layers.0.attention.W_k.bias f4 [4]
00000000: 6b27 72ba 322d 5c3a 9980 00ba e24e 9c3a
-0.0009237441 0.00083990686 -0.0004901975 0.0011925364

VAE_Decoder.layers.0.attention.W_v.weight f4 [4, 4]
00000000: a92f be3c 317d fabb e17e 09be 5274 bb3d
00000010: 6ea1 bd3c 13b1 e83b e654 06be 17c6 a83d
00000020: 7106 b63c 8580 093c 2382 07be 9487 aa3d
00000030: 74f6 b93c e9fc 4d3b ab23 09be 45c3 b13d
0.023216086 -0.0076443185 -0.13427307 0.09153046 0.023148265 0.007101187 -0.13118324 0.08240908
0.022219868 0.008392458 -0.13233237 0.08326641 0.022700526 0.0031431264 -0.13392513 0.08679823

VAE_Decoder.layers.0.attention.W_v.bias f4 [4]
00000000: b7ee a03e 1302 a8bd 9dc0 e4bd f4fa 9ebd
0.31432125 -0.082035206 -0.111695506 -0.07762709

VAE_Decoder.layers.0.linear0.weight f4 [128, 4]
00000000: 35e4 f7be dc14 183f 0b49 b0be 215b 063f
00000010: 9a9b 65bf 0559 c9be 5698 bb3e 2bd9 08bf
00000020: 2ee4 4bbf 334d 3f3f af95 2c3f 93b0 8abe
00000030: 6ec1 83be 6f49 bf3e 2de8 54be cecf b03e
00000040: a935 9abe 9115 bbbe 6bea 153d 2205 283f
00000050: 21e8 b5be 320e b4be 57ca 3f3e d3c5 073f
00000060: c6a8 663e ef78 13be c767 48be 566e 98be
00000070: a28b debe 59e4 71bd 569a 173e 24f1 d23e
00000080: 0734 e0be 11c9 00bd 99fc 95be 7aae 443f
00000090: 9960 933e f45e 62be 5422 103f ab05 873e
000000a0: 1b49 913d 28dd 093f 73a7 233e 3dd6 1a3e
000000b0: 0f2a 323e b966 75bd 4309 c5be c1a5 203f
000000c0: f7d2 09bf 8a6f ea3e 8d9f 85be 2e10 de3d
000000d0: 8cb7 dabd a042 93be 6484 94be 8d16 a8be
000000e0: eb26 893e aacd bebe 1b61 a6bd 8f87 133f
000000f0: c694 18ba d28f 8a3e 4d00 27bf fe74 473e
00000100: 5386 d7be c8de efbe 5402 1b3e d7a9 c6be
00000110: a048 41bf 542c 83bc 794c 323e 8ff5 89bd
00000120: 5595 94be eac6 83be 27af 453e 451e 073f
00000130: 20b4 84be af0d 393f 1730 803e 124d e53e
00000140: 1c5f fbbd cb65 b73e 2d60 2ebf c28e c43e
00000150: 7237 083f 040f 953e 484d 693e 0cf2 44bf
00000160: 4c90 f73e 820c bdbc d4bf 26bd d8e4 22bf
00000170: be63 bcbb cd49 ef3e 480e 333f 662f bd3e
00000180: ebfb 98be 9d91 3b3f 86a1 9f3d 4ad7 e1be
00000190: 8205 343c f1c9 04bf 19c5 823e 6b1c 133f
000001a0: f96d 02bd 953f 68bd c91a 45be f0b7 f43e
000001b0: d4de 99bd 8810 f03e ec3e da3e 598f 03be
000001c0: b731 a23c cb3f 193f 2796 55bf 304f 13bf
000001d0: 7b74 c43d e845 0fbf 5f42 d93e f084 303e
000001e0: 20f3 553d b01c 303d 9408 603e d03b 403d
000001f0: 5a99 fc3e 9faa efbe c26c 2b3e 65a3 fdbd
00000200: c45f 2bbe 6552 41bd c7bb 1ebf 1ef6 1f3a
00000210: abea 38bf 0f0c d83e 75a3 9e3e eb9b 493e
00000220: 7a12 ddbd 2ab2 a4be 5cf4 013f e982 03bf
00000230: ec21 89be 8c00 47be 280d 99be f221 c5be
00000240: a8da 38bf 903a 3c3f 1b7a e0be 4912 74be
00000250: 0758 c9be 42ce cbbd da82 26bf 0a09 dcbd
00000260: e58d 36be 1ed5 bf3e ba71 adbd 4c05 333e
00000270: bd29 f5be 749d 983e 6db5 1c3f f7c6 2b3e
00000280: 3423 1bbe 2ca7 a83e d441 f53e a54a cebe
00000290: 4b69 44ba 54be d3be 7d3f 383e 661c ccbe
000002a0: 5867 9bbe 30c7 8cbd 8717 4dbf 4c04 be3d
000002b0: 3f51 ebbc 1d4e c9bd 70f1 22bf a3e0 eeba
000002c0: 70c6 c3be 6a06 eb3e 643f a2be f703 903e
000002d0: 7d83 723e 6d02 7fbe 935d 073f ffc0 bcbd
000002e0: 2d0b a53e 0364 033f ec85 b2be 3c43 c03e
000002f0: 4a50 253e be81 91be 6327 2abe 326c 8ebe
00000300: 6906 3bbe a09c 98be db77 2dbf f5a1 d9be
00000310: a945 dabe 0c0f 783e 6209 0c3f 7b8d 113e
00000320: 901c 0bbf a362 0c3e cce8 ffbe 8af6 143d
00000330: 0ec9 ac3e 56e6 12be f38f a2be 2381 2ebd
00000340: cb92 1d3e 43c0 f4bd 2932 c03e 52b0 413d
00000350: 3abb 563e 3e96 b03e 2717 8ebe ef46 c93e
00000360: 42ed 26bf c5fd 9d3d 6b17 15bf aef9 813f
00000370: fab5 d83e 376d 50be c559 01bf 2f11 eabe
00000380: ec55 1c3e 62dd 053e 224a 0f3f cd91 f8be
00000390: 092c f83e 75b5 403e 23e6 533e 9a00 743e
000003a0: bdf3 b43e 5a5b 50be d2c6 543e 3c01 b3be
000003b0: 9371 16bf a359 36bd bfa9 a13e c6e0 b7bd
000003c0: e79d be3d fec7 e2be 41df 073f 8fd2 32be
000003d0: 7b74 15be caf3 f03e 57a3 8cbe c693 053f
000003e0: bffe 78be 8a6b 25be 7e4b 023f 6a9f 06be
000003f0: 492c 4fbe da77 c03e 0d43 0b3e 0b1f 04bf
-0.48416296 0.5940683 -0.34430727 0.524828 -0.89690554 -0.3932573 0.3663966 -0.5345637
-0.7964505 0.7472717 0.674159 -0.2708784 -0.25733513 0.37360713 -0.20791693 0.34533542
-0.30119064 -0.3653989 0.03660051 0.6563283 -0.35528663 -0.3516708 0.1872953 0.5303623
0.2252532 -0.14401601 -0.19570838 -0.2977168 -0.43465906 -0.05905566 0.14804968 0.411996
-0.43789694 -0.031441752 -0.2929428 0.7682873 0.28784636 -0.22106534 0.5630238 0.26371512
0.07094022 0.5385308 0.15981846 0.15120788 0.17398857 -0.059912417 -0.3848363 0.6275292
-0.5383753 0.45788223 -0.2609829 0.1084293 -0.1067954 -0.28761768 -0.29007256 -0.32829705
0.26787505 -0.37266284 -0.0812399 0.5762872 -0.0005820509 0.2706285 -0.65234834 0.19478223
-0.4209467 -0.46849656 0.15137607 -0.38801453 -0.7550144 -0.016012348 0.17411985 -0.0673629
-0.2902018 -0.25737697 0.19305097 0.5278056 -0.25918674 0.72286505 0.2503669 0.44785362
-0.12274 0.3581985 -0.681155 0.38390166 0.532096 0.2911302 0.22783387 -0.76931834
0.48352277 -0.023077253 -0.040710285 -0.6363044 -0.005749195 0.46735993 0.69943666 0.36950225
-0.29879698 0.73269063 0.0779448 -0.44109565 0.010987641 -0.5187064 0.25541 0.5746524
-0.03184316 -0.05670126 -0.19248499 0.47796583 -0.07513204 0.46887612 0.4262613 -0.12847652
0.019799097 0.59862965 -0.8343224 -0.57542706 0.095925294 -0.55966043 0.4243345 0.17238212
0.052233815 0.04299611 0.21878272 0.04693204 0.49335748 -0.4680986 0.16740707 -0.12384681
-0.1673575 -0.04719772 -0.62005275 0.0006102043 -0.72233075 0.421967 0.30984083 0.19688384
-0.1079454 -0.32167178 0.5076349 -0.5137163 -0.26783693 -0.19433802 -0.2989285 -0.3850246
-0.7220864 0.7352686 -0.4384316 -0.238351 -0.39324972 -0.0995145 -0.65043414 -0.107439116
-0.17827566 0.37467283 -0.08468957 0.1748249 -0.47883406 0.29807627 0.61214334 0.16775118
-0.15150148 0.32940042 0.47901785 -0.40291324 -0.00074924965 -0.41356146 0.17992969 -0.39865416
-0.30352283 -0.068739295 -0.80114025 0.09278163 -0.028725265 -0.09829352 -0.63649654 -0.0018224906
-0.38237333 0.4590333 -0.31688988 0.28128025 0.23682971 -0.24903269 0.5287716 -0.092164986
0.3223509 0.5132448 -0.348678 0.37551296 0.16143909 -0.28419298 -0.16616587 -0.2781692
-0.18264164 -0.29806995 -0.6776101 -0.42506376 -0.4263127 0.2422449 0.5470182 0.14214127
-0.5434046 0.13709502 -0.49982297 0.03636793 0.33747143 -0.14345679 -0.3175045 -0.042603623
0.15388028 -0.119507335 0.3753827 0.047287293 0.20969859 0.34489626 -0.2775204 0.3931193
-0.65205777 0.07714418 -0.5823886 1.0154321 0.42326337 -0.20354162 -0.505276 -0.45716235
0.15267152 0.13072732 0.5597249 -0.48548737 0.48471096 0.1881922 0.20693259 0.23828354
0.35342208 -0.20347348 0.20778969 -0.3496188 -0.5876705 -0.044519078 0.31574818 -0.08978419
0.09307461 -0.44293207 0.53075033 -0.17463134 -0.14595215 0.47060996 -0.27468368 0.5217861
-0.24315928 -0.16154304 0.5089644 -0.13146749 -0.20231737 0.3759144 0.13599797 -0.5160987

VAE_Decoder.layers.0.linear0.bias f4 [128]
00000000: e952 f6bd b063 843e 4fc9 84bf caa8 f93d
00000010: c3b0 cbbe f68e dabe 424a 0c3f 8c0b f5bd
00000020: c463 163f c812 bb3e 999a fe3e c7f7 e43e
00000030: baf3 5e3d aa0f af3e 85ef e6be e4f6 cebe
00000040: 434e 1a3e 48c7 f83d 83bd 463e 709b 173f
00000050: ff0b 0abf 4d86 cd3d 3cbf 273e c7bf 3c3e
00000060: a823 5b3e 6501 b0be 5b32 093f 8a00 34bf
00000070: 0f1a 14bf f8b5 013f 42be fcbe bd15 963e
00000080: 2031 9cbe 64ae a6be 9d2e 473d 9006 c0be
00000090: f00e 8c3d b2b0 0d3e d474 453e c42b a9be
000000a0: 724c b0be 2865 b03e 9ffc cabe ee5f efbe
000000b0: 177f 383e 9ff3 b93e 95b9 29be 1677 373e
000000c0: 875c 9abd 007d c23d 158d ce3e a984 acbe
000000d0: 1b36 293f 44c5 dfbd dc98 c63e bdb3 e3be
000000e0: 3602 a83e be3d 0e3f f9db 18bf 5ddf 73be
000000f0: c35c bd3e 358f cabe bac9 64be db9b 20bd
00000100: e4a8 a43e 02f4 c93e 4968 293d ec5b f43e
00000110: 4cc0 c53e 219f 8b3e b7fb d8bd 6ba3 4f3d
00000120: c0d1 a83e 395c b33e 08b2 903b 9fce b6be
00000130: 1a87 31be d776 02bf 81de 01bf 2a84 313f
00000140: 873b d03e 5ecb cf3e 7299 a23e bdc3 933e
00000150: cbbf 98bd f453 b43e c11e d1be cd4f 043f
00000160: 671c 133e 807b 4fbf 1343 dbbd 1f78 fa3e
00000170: 1208 70be 55a3 d53e 635d d03b e15f c6bd
00000180: e093 053f 9f4f 313f 5b1b a1be 0fd5 18be
00000190: f2bb 2b3e b821 923e 432b 853e bbe6 15be
000001a0: 94b2 293f 2b6b 043f 1fe2 d3be 467a e83c
000001b0: 35fd 0bbf 578d 27bf 3c3d fa3e ab9a 43bf
000001c0: 9462 c4bd cef4 68bd c0c5 f4be 855f 1b3f
000001d0: 13c7 803e 1eeb e23e 3a0c 453e 2204 693e
000001e0: 7f2d ff3e 4333 603e f7fe a0bd 96c0 023d
000001f0: bca7 5bbd 2bca 0ebf 6dd7 c2be 959d e63e
-0.120275326 0.25857306 -1.0373935 0.12190397 -0.39783296 -0.42687196 0.5480081 -0.11965093
0.5874598 0.36537766 0.49727324 0.4472029 0.054431655 0.34191638 -0.45104614 -0.40422738
0.15068917 0.12147385 0.1940823 0.59221554 -0.53924555 0.100353815 0.16381544 0.18432532
0.2140032 -0.34376064 0.5359246 -0.7031332 -0.5785226 0.5066829 -0.49363905 0.2931346
-0.3050623 -0.32554924 0.04862844 -0.37505007 0.068387866 0.13836935 0.19282848 -0.33041203
-0.34433323 0.34452176 -0.3964586 -0.46752876 0.18017231 0.3631868 -0.165747 0.17916521
-0.075371794 0.09496498 0.40342012 -0.33694962 0.66098183 -0.10926297 0.38788497 -0.44473067
0.32814187 0.5556296 -0.5971065 -0.23815675 0.36984834 -0.39562383 -0.22342578 -0.039211135
0.32160103 0.39443976 0.04135922 0.4772638 0.38623273 0.27269843 -0.10594886 0.050692957
0.32972527 0.35031298 0.004415754 -0.35704514 -0.17336693 -0.50962585 -0.5073014 0.6934229
0.40670416 0.40584844 0.31757694 0.28860274 -0.074584566 0.352203 -0.40843776 0.51684266
0.14366303 -0.8104782 -0.10706153 0.4891977 -0.23440579 0.41726175 0.006358789 -0.09686256
0.52178764 0.6926212 -0.31466183 -0.14925025 0.16770914 0.2854135 0.2600957 -0.14638798
0.66288114 0.51726025 -0.41383454 0.028378617 -0.5468324 -0.6545004 0.48874843 -0.7640788
-0.09589115 -0.05687409 -0.4780712 0.60692626 0.25151882 0.44320005 0.19242945 0.22755483
0.49839398 0.21894555 -0.07861131 0.031921946 -0.05362676 -0.55777234 -0.38054982 0.450421

VAE_Decoder.layers.0.linear1.weight f4 [4, 128]
00000000: 8990 68bd f268 23be 7a0e 7fbf d7b6 8f3d
00000010: fc16 233f f903 303e 3d21 943b 3785 e33c
00000020: 2202 14bb 7497 3bbd 2448 563d b427 30bd
00000030: 573c d43d 1302 a23d 1be9 623e a64f d1bd
00000040: 5b3a 17bd ae25 64be 23d6 8a3d dd9d 9bbe
00000050: b5fe eabe 721a 8c3e 3912 363e 3b4f 63be
00000060: 1dc2 6f3e c8ce 393e 5fe3 97bd b104 91be
00000070: 5f73 153f f5dc b33d 34c7 fd3c 96a1 c43c
00000080: 5b8c 50be 9e61 2dbe 8153 26be 1f49 133d
00000090: 99af ae3e 357b 16bd bd21 0e3e 3100 07bf
000000a0: 8f07 c8bd e7ba 1fbe 8730 efbe 341c f9be
000000b0: 64a1 f63c 5e6f 2cbe 6981 07be 136c 503d
000000c0: 9077 62be a635 65be 4785 0a3e 83c6 acbe
000000d0: 4778 0fbd 180c 98bc 0832 173c c9de 4cbe
000000e0: 58a1 d4bd 2ca2 b23c 9881 fd3d 1b5c 87be
000000f0: c095 1abe 44a6 68be ca31 93bd fe87 a53e
00000100: 549c edbd bc49 323e 5e22 0abe 8abd d0bd
00000110: cd21 553e 158b 913d 3ff1 38bc 54ca f0bc
00000120: fb3d 11be 95ca 543d 8fb5 cabd 2d19 53be
00000130: f861 1ebe 8f17 a83e d054 673e 812e c2bd
00000140: 8662 e53d 48ad 13be 747c 8ebd fcfe 9dbc
00000150: b196 9abd 30bb 96bd 7267 90be 64a0 b63d
00000160: 6649 4ebe dd04 84be bf80 623e 6f7c c73c
00000170: 15ba 94bd 5f1e 0cbe a516 ffbd b4f3 4fbd
00000180: 25df 39be 81e7 e43c 836e bf3d 5b0d a83e
00000190: 5846 e5bd 93ac c83d c883 34b9 ee84 243d
000001a0: 6aea 97bc 16b4 85bd d6c9 f8be cf74 7c3e
000001b0: 0768 89be 9553 f8bd c142 04be 5518 0dbe
000001c0: 2b1c 27be 58ff 95be 808b 11be 54f1 37be
000001d0: 5a5e 163d 1d6e 983d 43ce 3d3e d908 b53d
000001e0: d416 293d 835d 36be e0bb eb3c 5c07 58bd
000001f0: ed8d 16bd 60ec 693e 73f2 53be 6f94 1abe
00000200: d6ea 913e 7816 0fbd 578a f63e cefe 193e
00000210: 771d 77be 7056 6fbe 5b7a dfbd 56d9 b8bd
00000220: a85e 87bd 34ea 1dbe da47 663d 57dc c33d
00000230: b051 173d 5ff8 17be 11cd cdbe 0dde 313e
00000240: 7848 ae3d 6acd 73bd d810 8cbc 13cb 513e
00000250: 0399 d93d 6cdd 15be b71c b43d 87f0 d2bd
00000260: 482c 34be 4cfd 62bd aaaf 11be 9836 d2bc
00000270: aedd 7ebd 64c9 26be ead9 893d 5b6c cdbd
00000280: 621d 343e d740 493e ffd1 a6bd 7759 cb3b
00000290: 2e17 98bc 0282 ef3c 4c64 6d3e 11a9 e73c
000002a0: abc9 76bb 7d36 b83d 0cd5 943e bfcb 66be
000002b0: a512 2a3e ec7c a5bd e566 023e 44b2 d4bd
000002c0: 8fc0 37be 9404 a5bd be63 973d e9f0 3fbe
000002d0: 49b6 fdbd 1082 303e dd20 8a3e b88c 413d
000002e0: 7705 dcbc 1a2f 38bd 0e7f cdbc 7264 75bd
000002f0: ebf0 513c 554f 8f3e f054 d8bd f313 bbbd
00000300: 7e0e 47bd 18e9 013d e7a3 623b 4f2e 0fbe
00000310: 9c29 4cbd 0faf c43a 14d6 0f3d ecb3 7ebc
00000320: 4e15 883b 4add 95bd 0feb 4c3e 4a99 0cbc
00000330: 4965 863e fa7d b1be 3791 55bc 1c49 73bd
00000340: 47e5 1c3e 6974 20be 73af 4abd 4a36 eebd
00000350: 2faa 403d 087a d83d 0ace fd3e fe48 be3d
00000360: 8be7 f1bd e069 253c 8433 c1be e057 b4bd
00000370: cfa3 d43c 7eeb f6bd 47fa 0fbe dfe7 2a3d
00000380: 4937 e23d db66 273d b4af c7be 3412 ea3d
00000390: 3d37 c1bd 09f8 4abe db52 333e e538 013e
000003a0: 1034 5cbd f3bb 8a3d ee6d f1bd 9d70 f1bd
000003b0: 3e05 0fbe 5dca 34bb 2a46 b8bd 5ac9 01be
000003c0: 89af 01bd 757a 103d 0611 bfbd c613 cd3d
000003d0: 2ccc fdba ee31 dc3c 841e 383d 5133 8cbd
000003e0: ab99 f2bd cf3f 59bd b888 50bc 75b0 0f3d
000003f0: 9a50 e3bd 2571 3cbd 490f 383d bfd1 50bd
-0.056778464 -0.15958002 -0.99631464 0.07017296 0.63706946 0.17189015 0.004520564 0.027773483
-0.002258428 -0.045798734 0.052314892 -0.043006614 0.103630714 0.07910552 0.22159235 -0.1022027
-0.036920886 -0.22279999 0.067791246 -0.30393878 -0.4589745 0.27363926 0.17780389 -0.22198193
0.23413892 0.18145287 -0.074164145 -0.28323892 0.5837917 0.087823786 0.030978777 0.024002831
-0.20366041 -0.16931769 -0.16242792 0.035958406 0.34118345 -0.036738593 0.13880058 -0.5273467
-0.09767067 -0.15598641 -0.4671671 -0.4865433 0.030106254 -0.16839358 -0.1323296 0.050884318
-0.22115922 -0.22383747 0.13527404 -0.33745202 -0.035026815 -0.018560454 0.009228237 -0.20006861
-0.103823364 0.021805845 0.12378234 -0.26437458 -0.15096188 -0.22719675 -0.07187231 0.32330316
-0.11602083 0.1741094 -0.13489673 -0.10192402 0.20813675 0.07106606 -0.011287986 -0.029393353
-0.141838 0.05195101 -0.09897911 -0.20615073 -0.1546706 0.32830474 0.22590947 -0.09481526
0.112004325 -0.1442157 -0.06957331 -0.019286625 -0.07548273 -0.07359922 -0.28203923 0.08917311
-0.20145187 -0.2578496 0.22119425 0.024351327 -0.07262055 -0.1368346 -0.12455491 -0.050769523
-0.18151529 0.02794242 0.0934725 0.3282269 -0.11195058 0.09798541 -0.0001721523 0.040165834
-0.018544395 -0.06528489 -0.4859149 0.24653934 -0.2683718 -0.12125317 -0.1291609 -0.13778813
-0.16319339 -0.29296374 -0.14213371 -0.17963153 0.036711074 0.074428774 0.18535714 0.08839578
0.041281536 -0.1780911 0.02877611 -0.052741393 -0.036756445 0.22844076 -0.20697956 -0.15095685
0.28499478 -0.034933537 0.4815242 0.15038607 -0.24132334 -0.23372817 -0.10912009 -0.090258285
-0.06609851 -0.15421373 0.056220867 0.09563511 0.036943138 -0.1484084 -0.40195516 0.17369862
0.08509916 -0.05952207 -0.017097875 0.20487623 0.10624888 -0.14635247 0.087945394 -0.10299783
-0.17595017 -0.055417344 -0.14227167 -0.025660798 -0.06222313 -0.16287762 0.06731017 -0.10030433
0.17589334 0.1965364 -0.08145522 0.0062057334 -0.01856574 0.029236797 0.23182791 0.02827886
-0.0037656825 0.08994768 0.29068792 -0.2253866 0.16608675 -0.080804676 0.12734564 -0.10385564
-0.17944549 -0.08057514 0.07392071 -0.18744244 -0.12388284 0.17237115 0.26978198 0.04725334
-0.026858075 -0.044966795 -0.025084998 -0.059910245 0.012813787 0.27990213 -0.105630755 -0.091346644
-0.048597805 0.031716436 0.0034582557 -0.13982509 -0.04984437 0.0015005785 0.03511627 -0.015545826
0.0041529303 -0.07317598 0.20011543 -0.008581469 0.2624915 -0.34666425 -0.01303511 -0.059395894
0.15321837 -0.15669407 -0.049483728 -0.116314486 0.0470373 0.105701506 0.49571258 0.09291266
-0.118117414 0.010096043 -0.37734616 -0.08805823 0.025957016 -0.12056635 -0.14060317 0.041725036
0.11045701 0.040869575 -0.39001238 0.11429253 -0.09434364 -0.1982118 0.17512076 0.1261936
-0.05376059 0.0677413 -0.117885455 -0.117890574 -0.13966843 -0.0027586438 -0.08997758 -0.12674466
-0.031661544 0.035273034 -0.09329419 0.10013537 -0.0019363216 0.026879277 0.044950977 -0.06845725
-0.11845716 -0.05303937 -0.012727909 0.035080392 -0.11099358 -0.04600634 0.044936452 -0.05098128

VAE_Decoder.layers.0.linear1.bias f4 [4]
00000000: 644d d03c a9b7 dc3c 17e5 053d fa78 f53d
0.025427528 0.026943045 0.03268918 0.11985965

VAE_Decoder.layers.0.norm1.weight f4 [4]
00000000: 639f c23f 4585 a73f 9d64 a83f d7b7 ab3f
1.5204891 1.3087546 1.3155705 1.3415478

VAE_Decoder.layers.0.norm1.bias f4 [4]
00000000: 0c32 7dbb 5161 a5bd 236b e73d 29d3 163d
-0.0038634567 -0.08075202 0.112997316 0.03682247

VAE_Decoder.layers.1.attention.W_q.weight f4 [4, 4]
00000000: 0edd 70bd 481b 3b3e eeaa d63e 2690 a1be
00000010: 095e c93d f406 cd3e 7ae8 80be 2f7b cf3e
00000020: 798b 92be 1822 a93e f9fd 5ebe b888 61be
00000030: 254d bb3d 61f7 76be 810f 1f3e ad8b 3abe
-0.058804564 0.18272126 0.41927284 -0.3155529 0.09832389 0.40044367 -0.25177366 0.4052367
-0.28622034 0.33033824 -0.2177657 -0.2202481 0.091455735 -0.24117805 0.15533258 -0.18217345

VAE_Decoder.layers.1.attention.W_q.bias f4 [4]
00000000: 67c0 eabe bc4d 7abe 8501 2ebf e3d4 eabe
-0.45849916 -0.24443716 -0.6797107 -0.45865545

VAE_Decoder.layers.1.attention.W_k.weight f4 [4, 4]
00000000: 8631 963e c74e bfbd 7a99 da3e 97a7 c33d
00000010: 3863 ae3e 1a7e d8be a3e7 c43e 1e11 acbe
00000020: 621c e43e b049 13be 98db ea3e dff9 f03e
00000030: 54c6 013f 736b 40bf b6d3 d23e 73fd bbbe
0.29334658 -0.093411975 0.42695218 0.095534496 0.34060073 -0.42283708 0.38457975 -0.3360681
0.44552904 -0.14383578 0.45870662 0.47065637 0.5069325 -0.75163954 0.41177148 -0.36716804

VAE_Decoder.layers.1.attention.W_k.bias f4 [4]
00000000: ba72 73b8 f88f 8438 1a62 adb8 54f5 cf36
-5.8042562e-05 6.321067e-05 -8.267556e-05 6.1976407e-06

VAE_Decoder.layers.1.attention.W_v.weight f4 [4, 4]
00000000: abe4 b63d 45d1 523e ac72 293e f373 0a3d
00000010: a299 713d eefb 663e 9abe e13d 1caf 6abd
00000020: d791 febd 8919 27bb 49aa 2abe 23c9 b3be
00000030: 5a1a 863d c19a 713e 506a f33d 659f 5ebd
0.08930334 0.20587642 0.1654765 0.033801984 0.058984406 0.22557041 0.110226825 -0.057295904
-0.124301605 -0.0025497398 -0.16666521 -0.35114393 0.06547995 0.2359419 0.11885512 -0.05435123

VAE_Decoder.layers.1.attention.W_v.bias f4 [4]
00000000: 2360 16bd b575 f8bc 2581 c53b 1d5b 8b3d
-0.036712777 -0.030329565 0.006027358 0.06804488

VAE_Decoder.layers.1.linear0.weight f4 [128, 4]
00000000: e1b7 8ebd 659a 2ebf 8b90 dbbe de96 aa3e
00000010: 19cc 1e3e 2bb7 253e d65d 24bf 67f7 a7bd
00000020: db6a 89be 3862 1dbf 4efb 913e b5f9 bebe
00000030: f7ce 9b3e 8f73 00bf 042e 1bbe afbb cbbe
00000040: a9b8 2abe 8c8a e93d 9374 9bbd e737 3f3f
00000050: 59f5 fa3a 4b04 453f a830 cdbe 634f 3b3e
00000060: 7214 9bbe e432 273d 52bc 023f 555d 12bd
00000070: 8937 e43d 97e0 763f df52 43be 69d3 4fbf
00000080: 18f9 04bf e8ce 493e f4cd 8fbe 6098 eabe
00000090: b36f 8b3d e980 9d3c e2b7 2a3f 1ac1 d8be
000000a0: 42b7 1abe 6653 f8be bb5c 083f 6cf4 5bbe
000000b0: edcd c2bd 5536 46be 19fe af3b 5c49 d33e
000000c0: 1714 713d 37b1 763f d573 c8bc d26c 18bf
000000d0: 1b27 ac3e faf2 b5be 123c 86be 464d 61bf
000000e0: 0209 483e c4e1 603f a6ac ae3d 02b3 42bf
000000f0: 996a 443d ab62 5fbf 61f7 08bc 8eb9 4b3f
00000100: 96d7 cebe 269a 60bf 1acc e13e bbd9 b2be
00000110: 33b9 f93e 155d 223f 1908 2dbe 6fc2 33bf
00000120: 232e e53e 5f73 0e3f eb76 0e3e 1024 b1be
00000130: d0f1 e33e df03 14bf fb2e cabe af31 11be
00000140: 1c36 54bf bc63 133f a335 033e 7ead 59be
00000150: aa11 04bf a6e5 38bf bb33 1c3f 183a 2ebf
00000160: 3cac fb3e b582 ecbe 41dd f03d 5d2c 30bf
00000170: d9c3 e0bd d7f2 153f 259d 2b3e 9dc0 fdbe
00000180: 0e71 653e 63fa 293f 02f4 063e 2c8c 13bf
00000190: f143 d63e c1a4 53bf 055f b23d 3fa9 363f
000001a0: ba5c 7fbd fb86 acbe 1658 153f 2f2e 72be
000001b0: 8a66 f2be 6bc4 303d 73c3 bb3e 80e9 c7bd
000001c0: 45e9 d1be 233b b2be fdda ce3e fdcc d8be
000001d0: 7f0c a73e 7379 513e 8581 95be dffd 91bd
000001e0: ce51 11be 2cf8 1c3d 6bbc 453e 81a5 be3e
000001f0: bcab 1a3f 179f a3bd 054d 03bf c124 1abc
00000200: 1412 38be b2c3 f13e fd17 d8be d23f 57bf
00000210: 811c 693e 22cc 563e ba04 0a3d 9096 9d3e
00000220: a131 793e 28c6 13bf 171e 91be 8cd7 283e
00000230: c781 0c3f abbe 06be cd30 cfbc b285 78bf
00000240: 3cef 25bf 12ae a33d 0fbf ee3e 2de7 41be
00000250: 3fd2 333e c787 86be ca7a e3be de5b 873e
00000260: 6975 aebe a017 e13e a48d fe3d cb65 2e3e
00000270: 05ca 09bf 508c d33e 0545 52be a9af 44be
00000280: 4569 aebe f15b d4bc 18a1 97be 6d50 383f
00000290: ba0b 303d 84af 063f 1e55 d43d 0ee9 9ebe
000002a0: a64c b5be 8f7c cf3e 7d4b 273f 5c54 593e
000002b0: 23ae 9e3e 536d 613f 15e2 8dbe 7b69 cabe
000002c0: 59f2 8f3b dbf8 57bf f2e1 0dbe fdf0 0a3f
000002d0: 3ff1 59be 3de8 fe3e 93c2 c1be 0505 f63d
000002e0: 4d5b ac3e db4a 753f eee6 043e 044f a2be
000002f0: d13c c8be 0c79 5dbe 9f0f 573e 84be 143f
00000300: f6fe 0b3f ecd2 903e 5ef3 1ebf 0445 0dbf
00000310: 984d d13d d289 04bf 0e0a 9d3e 51ca 3b3e
00000320: c682 5cbe 2186 1b3e 99d5 ab3e 6927 2fbf
00000330: b782 2c3f f43e 8d3e 761c f2be 4da2 d7be
00000340: 0e78 8e3e 1b6e 7b3e 988b fdbd 6e70 643e
00000350: 84ed 1f3f b600 b8bd ccc4 9fbe ea97 033e
00000360: 40a0 1fbe b35b d3bc ef25 8f3e 105c d3be
00000370: 46ff 01bf 5b10 8f3f cc99 fcbe d894 05bd
00000380: c27f 7ebe e109 8abe d4c9 d0be 6c4b d73e
00000390: f1b3 15bd dbc6 2c3f 16eb 87bd 2266 d0be
000003a0: 23f6 723e 1f72 03bf 0150 9bbd 102a 653e
000003b0: 88d1 1dbf 5868 3e3e 5f5a 733e a64a fdbe
000003c0: d5b0 0d3f 3574 7ebe e48a 0dbf 6eb7 af3d
000003d0: df2e fb3e 33e1 bf3e 2627 11bf aa5c 89be
000003e0: d80b 0a3f 1e26 2a3f c560 36bf fb96 493e
000003f0: 7bc6 abbd 4a45 2e3f c159 9dbd cc26 42bf
-0.06968666 -0.6820434 -0.42883715 0.33318228 0.15507545 0.16183154 -0.6420568 -0.08201485
-0.26839337 -0.61477995 0.28512043 -0.37299886 0.3043134 -0.5017633 -0.15154272 -0.3979163
-0.16672005 0.11403379 -0.07590594 0.74694675 0.0019146606 0.76959676 -0.40076184 0.18292002
-0.30289036 0.040820017 0.51068604 -0.03573354 0.11143405 0.96436447 -0.19074582 -0.8118196
-0.51942587 0.19707835 -0.28086817 -0.45819378 0.06808414 0.019226508 0.6668683 -0.42334825
-0.1510897 -0.48501128 0.53266495 -0.21479958 -0.095119335 -0.19356664 0.005370867 0.41266906
0.05885705 0.9636416 -0.024469296 -0.59541047 0.33623585 -0.3553694 -0.26217705 -0.88008535
0.19534686 0.8784449 0.08529024 -0.76054394 0.047953222 -0.8725993 -0.008359761 0.7958001
-0.40398854 -0.8773521 0.4410103 -0.3493174 0.48774108 0.6342328 -0.1689762 -0.7021856
0.44761762 0.5564479 0.13912551 -0.34597826 0.44520426 -0.57818407 -0.39488968 -0.14179109
-0.82895064 0.5757406 0.1281343 -0.21257588 -0.51589453 -0.72225416 0.61016434 -0.68057394
0.49154842 -0.46193472 0.11760951 -0.68817693 -0.10974855 0.5857367 0.16759165 -0.49561015
0.22406408 0.66397685 0.13179019 -0.5763576 0.4184871 -0.8267327 0.0870953 0.71352
-0.06234429 -0.33696732 0.58337533 -0.2365043 -0.47343856 0.04315607 0.36672553 -0.097613335
-0.40998283 -0.34810743 0.4040145 -0.42343894 0.3262672 0.20456485 -0.29200378 -0.071285
-0.14191362 0.038322613 0.19310157 0.37235644 0.60418296 -0.07989328 -0.512894 -0.009408177
-0.17975646 0.47219616 -0.42205802 -0.8408176 0.2276478 0.20976308 0.033695914 0.30778933
0.24335338 -0.5772424 -0.2834327 0.16488475 0.54885525 -0.13158672 -0.025291825 -0.97079
-0.6481817 0.07992186 0.4663014 -0.18935843 0.17560671 -0.26275465 -0.44429618 0.26437277
-0.34073952 0.43963337 0.124293596 0.17031018 -0.5382388 0.41317987 -0.20534141 -0.19207634
-0.3406469 -0.025922747 -0.29615092 0.7199772 0.042979933 0.52611566 0.10367797 -0.31037182
-0.3541004 0.40524718 0.6534956 0.21223587 0.3099223 0.8805744 -0.2771155 -0.395336
0.0043929038 -0.843641 -0.13855723 0.5427397 -0.21283434 0.4978656 -0.3784376 0.12012676
0.33663407 0.95817345 0.12978718 -0.3170091 -0.391089 -0.21628207 0.21002053 0.58103204
0.54685915 0.2828592 -0.620901 -0.55183434 0.10219878 -0.517728 0.30671734 0.18338896
-0.21534261 0.15187885 0.335614 -0.6841951 0.67386955 0.27587092 -0.4728734 -0.42116013
0.2782597 0.2455372 -0.12380141 0.22308514 0.62471795 -0.089845106 -0.31204832 0.1285092
-0.15588474 -0.025800562 0.2795863 -0.41281176 -0.5078014 1.1176866 -0.49336088 -0.03261265
-0.24853423 -0.26960662 -0.40778983 0.4204973 -0.03654856 0.6749093 -0.06636636 -0.4070292
0.23726706 -0.5134601 -0.07583619 0.22379327 -0.61647844 0.18594491 0.23764943 -0.49471015
0.5534795 -0.24849017 -0.55290055 0.08579908 0.49059197 0.374765 -0.5670036 -0.2682851
0.5392432 0.6646441 -0.7124141 0.196865 -0.083874665 0.68074477 -0.07683135 -0.7584045

VAE_Decoder.layers.1.linear0.bias f4 [128]
00000000: 7845 d53c 970b 30be 16f1 ba3e ad7c 1abf
00000010: 8081 9d3c 4fe2 bc3e 2f24 a7be d935 70be
00000020: 11e7 cc3e 24fb 0c3f eee2 203c af44 0e3f
00000030: 187a a13e 9abb 923d 2eaa 7bbc 1098 5dbe
00000040: e0e1 26be ca5c ca3e f3d0 1b3f fc0a 26be
00000050: 9135 d93d 07eb a0be 420d 74be d7d8 4bbd
00000060: 89d8 24bd 6b7d 69bf 952e 023e 9707 873c
00000070: a407 ecbd c50e 02be af3d 0e3f 8ebd 2bbe
00000080: 955d b4bc 05d6 d23e 2b79 023f c0dc 083e
00000090: e19e 693e 76e1 5abf fd53 37be ab48 713e
000000a0: 6217 4e3e f144 933d e793 27bd cf47 efbe
000000b0: a021 8abe f3a1 b93d 7115 47be fb25 49bf
000000c0: 4b04 79bc eb3e e23e c345 d13e 5372 9a3d
000000d0: ebdc 21bf 4e23 3e3e c9c9 f73e 562a f63d
000000e0: 4b65 93bd a4a1 283e dccb 943e a68f 5fbe
000000f0: 98b1 953e 15e0 a83e 6bc8 e8be fe72 243e
00000100: fc8d 4bbe b2d0 263e 35da 0dbd bb3a 5f3e
00000110: 83c0 94bd 7fa6 a1be 7150 5c3e a916 febe
00000120: 7871 793d 7584 433e d872 fcbe 4975 d33e
00000130: e44f c73e 956c 68bf 62ad f13e 36dc 0d3f
00000140: 4812 633e 55a7 debe cf4a 36be 1a16 c0be
00000150: 72d2 b0be 14a8 f53d 5850 02be 5975 f83e
00000160: da80 073f 3bdd bfbd 11a2 e23e ac24 fdbe
00000170: a4e5 a3bd 5f78 4a3d abd0 bebe d470 b73e
00000180: 241b 033f 41ca 34bf be04 d23e b385 c33e
00000190: bbf3 ff3e 1108 ef3d 6a85 8a3e 4ea1 3bbe
000001a0: edc0 103d 31a0 e03e c17e 75bc b561 09be
000001b0: 980a cc3e d41d d53c 26bd 713e 787a bc3e
000001c0: 59cf c63e a068 303e f42b 893d 0bc4 233f
000001d0: ad29 f33e 490b 16bf a884 563e d486 103e
000001e0: 786c 3d3e 6c35 213f 42f0 46bf a762 c93e
000001f0: 7d8c 193d 434a 2f3f 5cdc 13be be19 f83e
0.026034102 -0.17191921 0.3651206 -0.6034649 0.01922679 0.3689141 -0.32644793 -0.23458041
0.4002004 0.5507071 0.009819729 0.5557355 0.31538463 0.071646884 -0.015360398 -0.21640038
-0.16297102 0.39523917 0.60865706 -0.16215128 0.1060592 -0.31429312 -0.23833182 -0.04976734
-0.040245567 -0.91207 0.12713082 0.016483111 -0.11524895 -0.12700947 0.5556287 -0.16771528
-0.02201728 0.4117891 0.5096614 0.1336546 0.22814514 -0.85500276 -0.17903133 0.23562877
0.20126107 0.07190884 -0.040912535 -0.46734473 -0.2697878 0.090640925 -0.19441773 -0.7857358
-0.015198777 0.44188628 0.40873536 0.07541337 -0.6322772 0.18568155 0.48396137 0.12019794
-0.071970545 0.16467911 0.29061782 -0.21832141 0.29237056 0.3298346 -0.45465407 0.16059491
-0.19878381 0.16290548 -0.034631927 0.21799748 -0.07263281 -0.3157234 0.21515061 -0.49626663
0.060899228 0.19093497 -0.4930637 0.4130042 0.3892814 -0.90790683 0.47202593 0.5541414
0.22174942 -0.4348704 -0.17801975 -0.37516862 -0.34535557 0.11994949 -0.12725961 0.4852703
0.52930987 -0.09368368 0.44264272 -0.4944204 -0.08002785 0.0494312 -0.37268576 0.3582827
0.5121329 -0.70621115 0.41019243 0.38187942 0.4999064 0.116714604 0.27054912 -0.18323252
0.03534024 0.43872216 -0.014983834 -0.13416179 0.39851832 0.0260152 0.2360731 0.36812186
0.3883007 0.17227411 0.066978365 0.6397101 0.47492734 -0.5861097 0.20949042 0.14113933
0.18498409 0.6297214 -0.77710354 0.39333078 0.037487496 0.6847269 -0.14439529 0.4845714

VAE_Decoder.layers.1.linear1.weight f4 [4, 128]
00000000: 03ef 34be 7cd2 b7bd 30c2 25be fe66 523e
00000010: 51b8 8a3e 9b8c 8abc 5177 d1bd 04d9 8b3e
00000020: da23 3ebe 6aaa 85be 5b9d babe 83b3 e0bd
00000030: f425 853e 73f0 3b3e b83a c43e a378 493e
00000040: 7ed0 12bf 388e 483e e08f 833e 33fd 64be
00000050: 9418 8bbe 1f42 babe 1508 a93e e793 e1bd
00000060: 81e0 c43e 5954 cabd e9d9 80be a217 76be
00000070: f843 78be dacd 18bd f8cb 7dbc e848 1dbe
00000080: 5bb4 213e 268b f43d 3762 e1bd 052d 4d3e
00000090: 0c59 71be 949d 8abe 5fa1 9fbd 9f9b 20be
000000a0: 72b4 d33d 2532 a43e aeb1 7dbe 342c 453e
000000b0: a80a d53e 2ca5 5fbd 0721 963e 13b8 d53e
000000c0: 8a86 603e aea8 39be d1ee 71be 8386 8b3e
000000d0: c063 16be 441d abbc 7d2d 70be ab64 2bbd
000000e0: 5a07 7abd b1ca 533e 64f8 23be 1bf6 5bbe
000000f0: 9ed9 30bd 5c43 313e 40ec f9bd 8a53 893e
00000100: e8c2 d0bd a4ef 08be 9a22 443d 8945 e4bd
00000110: e966 153e a4f5 da3e 4ce1 96bd a404 533d
00000120: d961 aabd d5d9 d83e 4bd6 f53c 4ef0 12be
00000130: 928e 99bd 91ae 87be ed62 673c c07d 0a3e
00000140: 82a9 62be 4f59 993d f5f0 fb3d cd6b bb3d
00000150: 5f8c 913e a69d a33e 0db3 27be 111d 0f3c
00000160: 1aad 893e eed0 8d3e 7de9 913e b1f3 56bc
00000170: e047 073d d3b7 1dbe 70d8 57be 6176 9d3c
00000180: 741f c6bc 285a 8c3e 46bf 483e 3e34 b2bd
00000190: 704f 9e3e d616 813d 4dfc 973e 7f5f 263e
000001a0: 79fb 89be 3b80 c2bd a3b1 d4bd 6688 c63d
000001b0: 13ef 413e a98e 85bd 3ff2 1f3e 5b0d 5ebe
000001c0: bc5b 7f3e f0b8 973e b624 25be 42d1 2abe
000001d0: ce78 5bbe 6cf5 b63e fd17 bf3d 8086 2a3e
000001e0: 4202 e63c 276b 943d 398e e63e af04 7cbe
000001f0: b1e3 7cbd 8a2a 70bd 0c74 c7be 9922 ddbc
00000200: ce66 88be 502b de3d 6af9 b93c 1079 6dbe
00000210: 1e32 31be 516c 883e 96ff ba3d 5b68 40be
00000220: 8dcc 793d 6e79 e0b9 4e82 2b3e 09bf 55be
00000230: f280 fabc dd63 c23e 86ef cfbd 426c b8be
00000240: bdd6 243e 5471 07bd 9299 a73d 6efd 79be
00000250: 0eb7 1dbd c963 babc 685e d73c 6b13 c93c
00000260: a85a 56be ad8f a6bf 1bca 0c3e a611 733c
00000270: 017e 233e b1de aa3d 4f7c cabd a6df 3cbe
00000280: d403 edbd 566d 1abc 4661 cebd 3593 4e3e
00000290: 8182 623c 61e7 b3be 77c3 9b3d 12e9 83bb
000002a0: d3b8 0dbe 43b7 79bd 4b26 e3ba 9f68 813c
000002b0: 02ca d8be 6d37 913e deaa ba3b ada0 13be
000002c0: 9995 7c3e 390d 7bbe 8c2a 293b 8e95 543e
000002d0: 47d6 9ebd 4d84 02be 411b 6cbd a3f1 a73e
000002e0: d334 38be 5f65 d93c e0d3 89be 53f8 073e
000002f0: 4ec5 973b 8b6e a43e bdbe 5c3e 8dea 15be
00000300: 2eff e8bb 9e59 3bbe 29e3 40bc 7e84 88be
00000310: 6f27 28bd 3f52 5cbd c552 92bd ad59 40be
00000320: 9d78 88bc 43a0 e53d 7a27 fabc 7641 d73d
00000330: 23ff 5dbe bfee b0be 9bad 6d3b 4b97 4b3e
00000340: 8847 783d 8ee4 05bd 87c2 b03d 40cc d43d
00000350: 2f8f b9bc 0004 e9bd 1adc 803e 67e8 293e
00000360: 673b f43d df7c 80bc b28a 6b3d 2898 df3c
00000370: c621 34be 96be 353b b45e c93d e27a 0cbd
00000380: 5d86 7fbe 44be b43d 3b5c c53d 2eb8 7a3c
00000390: b506 f3bc ee54 9bbd 3360 453d 8972 853e
000003a0: 51ab 60bd 5747 523d 0870 1cbe 1577 eb3c
000003b0: 92d1 e03c 5c7b 9bbc ae81 85bd fc0c fc3d
000003c0: dd8e 6a3c 3423 8dbc 4c90 86be 3a58 b4bd
000003d0: d4e1 563d d24a adbd dca0 313e 101e 94bd
000003e0: e412 9abe 07c1 b93e 4a71 15be cc7a 3e3d
000003f0: 1dc5 453e f2b7 96bd 9136 073e 840b a4bd
-0.176693 -0.089756936 -0.16187358 0.20547101 0.27093747 -0.016912749 -0.10227836 0.27314007
-0.18568364 -0.26106578 -0.36448178 -0.10971739 0.26005518 0.18353443 0.3832605 0.19674926
-0.57349384 0.19585502 0.25695705 -0.22362213 -0.2716719 -0.3637857 0.3301398 -0.11014538
0.38452533 -0.09879369 -0.25166252 -0.24032453 -0.24244678 -0.03730569 -0.0154905245 -0.15359843
0.15791456 0.11940603 -0.11005061 0.20036705 -0.23569125 -0.27073348 -0.07794451 -0.15684365
0.103371516 0.32069507 -0.2477481 0.19255143 0.41609693 -0.05460088 0.29322073 0.41742
0.21926323 -0.18130752 -0.23626257 0.27251062 -0.14686489 -0.020887978 -0.23454852 -0.04184405
-0.061042167 0.2068279 -0.16012722 -0.214806 -0.043176286 0.17310852 -0.12203264 0.26821548
-0.101934254 -0.13372666 0.04788456 -0.11146075 0.14590038 0.42765534 -0.07367191 0.051518098
-0.08319444 0.42353693 0.03000941 -0.14349481 -0.07497896 -0.2650037 0.014122707 0.13524532
-0.22134975 0.074877374 0.12301818 0.09151421 0.28427407 0.31956214 -0.16376896 0.008734957
0.2688988 0.27698463 0.2849845 -0.013119624 0.03302753 -0.15402155 -0.21078658 0.019221487
-0.02418492 0.27412534 0.19604215 -0.08701371 0.3091998 0.06303184 0.29684678 0.16247366
-0.2694967 -0.09497114 -0.10385444 0.09693985 0.18938856 -0.06521351 0.15619753 -0.21684782
0.24937338 0.29633284 -0.16127285 -0.16681388 -0.21432802 0.35734117 0.09330747 0.1665287
0.028077248 0.07247 0.45030382 -0.24611162 -0.06174058 -0.05863432 -0.38955724 -0.026994037
-0.26640934 0.10848105 0.022701938 -0.23190713 -0.17304274 0.2664514 0.091307804 -0.18789808
0.06098609 -0.00042815082 0.16748926 -0.20873655 -0.030579064 0.37966815 -0.10153107 -0.36020094
0.16097541 -0.033067062 0.08183588 -0.24413082 -0.038504653 -0.02275266 0.026290134 0.024545392
-0.2093302 -1.3012596 0.13748972 0.014835751 0.15966035 0.08343256 -0.09886991 -0.1844469
-0.11572996 -0.009425482 -0.10077147 0.20173343 0.01382506 -0.35137466 0.07605641 -0.004025587
-0.13840036 -0.060965788 -0.0017330138 0.015796958 -0.4234162 0.283626 0.0056966385 -0.14416762
0.24666442 -0.24516763 0.0025812713 0.20760176 -0.07755714 -0.12745781 -0.05764318 0.32801542
-0.17988901 0.026537595 -0.2691946 0.13278322 0.004631675 0.32115588 0.21557136 -0.14640255
-0.007110498 -0.18295905 -0.011772909 -0.26663584 -0.04105323 -0.053789373 -0.07144693 -0.18784209
-0.016659075 0.11212208 -0.030536402 0.105105326 -0.21679358 -0.3455715 0.0036266807 0.19881932
0.060615093 -0.03268867 0.08630853 0.1039052 -0.022651283 -0.11377716 0.25167924 0.1659256
0.119253926 -0.015684543 0.057505317 0.027294233 -0.17591009 0.0027732006 0.09832516 -0.034296878
-0.249536 0.08825353 0.09636732 0.015302701 -0.029666284 -0.075845584 0.048187446 0.26063946
-0.05485088 0.051337566 -0.15277112 0.028743306 0.02744368 -0.01897972 -0.06518875 0.12307164
0.014316288 -0.0172287 -0.26281965 -0.088058904 0.05246146 -0.084615365 0.17346519 -0.072322965
-0.30092537 0.3628008 -0.14593998 0.046503827 0.19313474 -0.073593035 0.13204409 -0.08010009

VAE_Decoder.layers.1.linear1.bias f4 [4]
00000000: b055 fe3c 6b78 fabc 44d4 4fbc b0f7 953d
0.031046718 -0.030574998 -0.012684885 0.07322633

VAE_Decoder.layers.1.norm1.weight f4 [4]
00000000: 24bd b23f 7fa6 c53f 4611 ae3f b118 b53f
1.3963971 1.5441436 1.3599021 1.414816

VAE_Decoder.layers.1.norm1.bias f4 [4]
00000000: 0f7f 25bd fc37 513e bd9b af3d 678d 42be
-0.040404376 0.20431513 0.085746266 -0.18999253

VAE_Decoder.layers.1.norm0.weight f4 [4]
00000000: f2ca 893f 050a 4f3f 0102 403f b68a 403f
1.0765059 0.80874664 0.7500306 0.75211656

VAE_Decoder.layers.1.norm0.bias f4 [4]
00000000: e83d 4f3d b7ca 113d bf7f fdbc ae6c 953b
0.050596148 0.035593715 -0.030944703 0.004560075

VAE_Decoder.last_normalization.weight f4 [4]
00000000: 0000 803f 0000 803f 0000 803f 0000 803f
1.0 1.0 1.0 1.0

VAE_Decoder.last_normalization.bias f4 [4]
00000000: 0000 0000 0000 0000 0000 0000 0000 0000
0.0 0.0 0.0 0.0

VAE_Decoder.head.weight f4 [4, 4]
00000000: 4c9c 1ebe e4e6 f8be ccfc d6be 6ca2 343e
00000010: 140c 793e 4057 863d f0a1 f53d fe34 97be
00000020: 4297 f13e 30d1 3ebe 7077 95be 5874 973d
00000030: 1c87 73be 709c 563e 6ccc 6ebe 684a 0ebe
-0.1548931 -0.48613656 -0.41989744 0.17640084 0.24321014 0.0655961 0.11993778 -0.29532617
0.47185713 -0.18634486 -0.29192686 0.07395238 -0.23782009 0.20958114 -0.23320168 -0.13895571

VAE_Decoder.head.bias f4 [4]
00000000: 9cd8 b83e d420 ec3e 8638 e43e 70d3 6b3d
0.3610276 0.46118796 0.44574374 0.05757469

Detokenizer.weight f4 [46, 4]
00000000: 6e4e 4cbe 5833 0abd 44f4 0d3e 98d1 223d
00000010: 5674 4abc f861 203d fe78 4f3e 402c 9d3e
00000020: e093 243d 81fa 843e 8a8a 103c 3e56 1fbe
00000030: a639 f9bd ab0e 91be 23b5 33be 211e 6c3d
00000040: 3f5c f23d 8800 983e c2be 9e3e 1a1a 0d3c
00000050: 01eb 963d b327 66be e21d 15be d795 7dbe
00000060: 4d7e 67be b643 ab3d 0a60 3e3e 3c0b 8d3d
00000070: 2f7c d4bc a154 01bf fdb7 83be 526a 9fbe
00000080: a0ac 8b3c e9c2 da3c 9176 21be 3b9b 81be
00000090: 4dc1 033e 5598 d0bd 7e4d 7f3d 70b2 49be
000000a0: f3f2 79be 6fb4 6bbd 2da9 db3d 9977 993d
000000b0: e360 55be dd46 12bd fda0 143e 1a99 2b3d
000000c0: cf30 2bbd 1c10 57be 6f00 b43c dbf6 2d3e
000000d0: b27e cc3d 640a bbbc 1982 af3d 8416 63be
000000e0: 2689 0abc 0691 c5bc aac5 143e a458 933e
000000f0: cea4 46be b4f5 9abd 9810 dc3d d8fb 9b3d
00000100: b297 2cbe 2622 4fbe 4735 95be 8530 3b3d
00000110: d9ea 1bbe 9a8a a63e 9f12 48ba 7e65 94be
00000120: eec5 03be a8d0 b7be 8e81 d3be 922f 45bc
00000130: 3ea1 113d d5d0 e4bb d4e1 e8bd 233f a4be
00000140: 1549 103e 2cde 37be 1c40 66be a2f1 1a3e
00000150: 4847 213e 5cb3 61bd e51d 7f3e 7866 d8bd
00000160: 8da6 d4bd e2a9 9cbe 26aa 9ebe cdd8 9abb
00000170: 4dfd 9a3c c7d4 b23a 2f90 19be 880f 8bbe
00000180: 48c3 193e 91f2 383d 9baa 0abe b057 51bd
00000190: 014d 803d 1035 bcbd 7761 a03e 9e80 aebd
000001a0: 5f53 bbbc 58d1 fd3c 8076 103e 2305 843e
000001b0: c807 8dbe 8205 8abd bd08 c13d 286c 65bc
000001c0: df0f c43c 9ba5 92bc 3a8f 1bbe 82c4 8abe
000001d0: 1ed7 95bc 4821 d8bc 69ae fd3d e23a 893e
000001e0: 62af 753e adea 683e 7dc0 813d 5997 0dbd
000001f0: 8c22 6b3d d8ce 67bd 1181 97bd eed3 98be
00000200: 9475 dbbc c480 f2be 7117 84be f4dd 9ebe
00000210: f7f0 6f3c 3e25 063d 79da 0dbe dace 75be
00000220: ea11 263e 5679 263e 8156 923e 3076 35bd
00000230: 506d f93d 1d95 9c3e 249e a33e 3c4e 323c
00000240: 16ab 2fbe 0baa fc3e 0c07 4c3d 0782 463d
00000250: 084b ad3c d62b d23c 1a54 0abe 1b5e 78be
00000260: 01b8 12be 4056 19be 5ab7 38be 5e77 5a3e
00000270: 1c5e 243e 0a8e 48bd 8c8c 793e 0b15 d7bd
00000280: f440 df3b c30a 9e3c 36d5 a7be f4c1 e6bd
00000290: 9178 873c 63b3 983c dddd 33be 88ce a1be
000002a0: ad1b 19be f872 723d 76d6 5cbe 2e02 f23d
000002b0: f3d6 773e e569 89bd 4b41 36be c6ce 55bd
000002c0: 6921 c73c 98de 513e 1c0b 8a3e 11e7 32bd
000002d0: ab4b bb3c ea48 3d3e fb4d 7dbd f240 23be
-0.19951794 -0.03374037 0.13862711 0.039750665 -0.012356838 0.03915593 0.20260999 0.30697823
0.040180087 0.2597237 0.008822093 -0.15560243 -0.12169199 -0.28331503 -0.17549567 0.05764592
0.11834001 0.29687905 0.31004912 0.00861218 0.07369042 -0.22476082 -0.1456218 -0.2476419
-0.22606774 0.08362524 0.18591323 0.068869084 -0.025938122 -0.5051976 -0.2572631 -0.31135803
0.017050087 0.026704269 -0.15767886 -0.25313744 0.12866707 -0.10185305 0.06232976 -0.19696975
-0.24409084 -0.05754512 0.10725627 0.074935146 -0.2083774 -0.03571211 0.14514537 0.041894056
-0.041794594 -0.21002239 0.021972863 0.16988699 0.09985103 -0.022832103 0.08569736 -0.22176558
-0.00845555 -0.024117004 0.14528528 0.28778565 -0.19398805 -0.075663954 0.107453525 0.07616395
-0.16854742 -0.2022787 -0.2914221 0.04570057 -0.15226306 0.3252762 -0.0007632169 -0.28983682
-0.12868473 -0.3590138 -0.4130978 -0.012035267 0.035554163 -0.0069829025 -0.11371198 -0.3207942
0.14090379 -0.17955846 -0.22485393 0.15131238 0.15749848 -0.05510269 0.24913748 -0.10566419
-0.103833295 -0.3059836 -0.30989188 -0.0047255517 0.018919611 0.0013643735 -0.14996408 -0.27160287
0.150159 0.045153204 -0.13541643 -0.051109016 0.06264687 -0.09189808 0.3132436 -0.085206255
-0.022866903 0.030983612 0.14107704 0.2578517 -0.27545 -0.06739332 0.09425495 -0.014002837
0.02393335 -0.017901232 -0.15191355 -0.2710305 -0.018291052 -0.026383057 0.12386782 0.26802737
0.23992684 0.22745772 0.06335542 -0.034568164 0.057405993 -0.056593746 -0.07397664 -0.2984919
-0.026789464 -0.47363865 -0.25799134 -0.31028712 0.014644853 0.03275036 -0.13852872 -0.24004689
0.16217771 0.16257223 0.28581622 -0.044302166 0.12179053 0.30582514 0.3195659 0.01088291
-0.17155108 0.49348482 0.049811408 0.048463847 0.021153942 0.025655668 -0.13508645 -0.24254648
-0.14328004 -0.14974308 -0.18038693 0.21334597 0.16051525 -0.048963584 0.2437002 -0.105020605
0.006813163 0.019292241 -0.32779855 -0.112674624 0.016536983 0.018640226 -0.17565103 -0.31602883
-0.14951964 0.059191674 -0.21566185 0.11816822 0.2420309 -0.06709651 -0.17798345 -0.052199148
0.024307923 0.20495069 0.269616 -0.043677393 0.02286323 0.18484846 -0.061841946 -0.15942743

Detokenizer.cat_recons.0.weight f4 [6, 4]
00000000: de45 e7be 3c18 3f3f 4058 d3be 0177 8e3f
00000010: 946b 763f 931e 3d3f 3364 40bf 1b0f 0bbf
00000020: 7e1e 383f a766 183f 0a3a 823f 0a86 07bf
00000030: 4826 a4bf 59a2 e63f 2d08 babe 23cf 5abf
00000040: 499d de3e 2460 87bf f321 abbe 62a6 ff3d
00000050: 5f66 1bbf 81c3 b6be ae14 353f 7546 7cbe
-0.45170492 0.74646354 -0.41278267 1.1130067 0.962579 0.7387478 -0.7515289 -0.54319924
0.7192153 0.59531635 1.0173962 -0.529389 -1.2824183 1.8018295 -0.36334363 -0.85472316
0.43479374 -1.0576215 -0.3342434 0.12482907 -0.6070308 -0.35696033 0.7073468 -0.24636252

Detokenizer.cat_recons.0.bias f4 [6]
00000000: 3036 cbbd a633 c83d a2a0 053f e103 a13e
00000010: 58d1 98ba dcd4 bfbe
-0.09922445 0.09775476 0.5219823 0.31448272 -0.0011659069 -0.37467086

Detokenizer.cat_recons.1.weight f4 [7, 4]
00000000: 10b1 d13e cb87 d43c c85b 883f 8088 873f
00000010: 0c79 fbbe 148a 65bf f993 32bf cd88 5cbe
00000020: 7143 873f 77ab 7dbe 0430 2b3f 5ad0 edbe
00000030: 9ec4 e8be 9247 a5be 393a 013f e882 77bf
00000040: 2ef4 fabe 7f30 8e3f 67a9 0cbf 6c12 043f
00000050: 113b 6f3f 9372 353f adb0 04bf 13bc c0bd
00000060: 6bad 99bf 0e6e a23e e943 303e 83f5 563d
0.409554 0.025943657 1.065301 1.0588531 -0.4911579 -0.89663815 -0.6975704 -0.2153656
1.0567456 -0.2477244 0.6687014 -0.46448022 -0.45462507 -0.32281166 0.50479466 -0.9668412
-0.4901442 1.110855 -0.5494599 0.5159061 0.93449503 0.7087795 -0.51832086 -0.09410872
-1.2006048 0.3172459 0.17213406 0.052480232

Detokenizer.cat_recons.1.bias f4 [7]
00000000: 9484 6a3e eb8c 723d c808 b33e 9cb0 b43e
00000010: 6914 2f3e 9614 88be c5e9 7cbe
0.22902137 0.05921642 0.34967637 0.35290992 0.1709763 -0.26578206 -0.24698551
