tabsyn/vae/ckpt/news/decoder.pt (torch, 22445 bytes, 35 tensors)

VAE_Decoder.layers.0.attention.W_q.weight f4 [4, 4]
-0.02929212 -0.13378505 -0.27641568 -0.39515266 -0.23086566 -0.5032107 -0.05949833 0.34937042
0.1469426 -0.5060657 -0.1606012 -0.022707999 0.039370496 -0.22666822 -0.2873885 0.3448609
00000000: 07f6 efbc f3fe 08be 5b86 8dbe 7351 cabe
00000010: 0c68 6cbe 6bd2 00bf 85b4 73bd aee0 b23e
00000020: 1f78 163e 868d 01bf a474 24be 2006 babc
00000030: f542 213d b71b 68be 9624 93be 9c91 b03e

VAE_Decoder.layers.0.attention.W_q.bias f4 [4]
0.005000764 0.112703964 0.012826356 -0.021789528
00000000: 73dd a33b 56d1 e63d a325 523c f47f b2bc

VAE_Decoder.layers.0.attention.W_k.weight f4 [4, 4]
0.1241191 0.06273197 0.25587314 0.08443752 -0.26535416 -0.45004413 0.12939763 -0.08694605
-0.0059440793 0.01385387 0.25002146 -0.026208604 -0.2541065 0.46201327 -0.36302543 -0.030559996
00000000: 2832 fe3d 9e79 803d ce01 833e 94ed ac3d
00000010: 80dc 87be 2f6c e6be d080 043e c510 b2bd
00000020: 8dc6 c2bb 58fb 623c d002 803e 6db3 d6bc
00000030: 3f1a 82be 018d ec3e 78de b9be f558 fabc

VAE_Decoder.layers.0.attention.W_k.bias f4 [4]
-0.0002578335 0.001183719 -0.0006811834 0.00044844238
00000000: d42d 87b9 0527 9b3a 7291 32ba eb1c eb39

VAE_Decoder.layers.0.attention.W_v.weight f4 [4, 4]
-0.3656405 0.19594358 -0.03128811 0.07738273 0.37730983 0.38191912 -0.41292098 0.2604511
0.19516715 -0.275795 0.0033770038 -0.14755845 -0.039058704 0.20795476 -0.38820222 0.012975664
00000000: 3b35 bbbe 6fa5 483e f627 00bd d67a 9e3d
00000010: c12e c13e e78a c33e 616a d3be d959 853e
00000020: e6d9 473e 0135 8dbe b950 5d3b 9019 17be
00000030: 05fc 1fbd 18f2 543e 71c2 c6be e197 543c

VAE_Decoder.layers.0.attention.W_v.bias f4 [4]
-0.10239813 0.061652023 -0.04270835 0.066962756
00000000: 1cb6 d1bd d586 7c3d f3ee 2ebd c523 893d

VAE_Decoder.layers.0.linear0.weight f4 [128, 4]
-0.4050412 -0.56944925 0.25990504 -0.44473436 -0.47940952 0.11630063 0.20821589 -0.21700533
0.5367963 -0.43547127 -0.114984706 -0.41339818 -0.58142114 -0.40666097 -0.2619001 0.09537342
0.43831006 -0.46387586 0.06559948 -0.22092079 0.11243532 0.40294018 -0.5140752 -0.45186788
-0.28276476 -0.47207102 -0.22515608 -0.7290841 0.48524225 0.19108607 -0.3209296 0.39748245
0.33326882 0.16105345 -0.33222464 -0.4114668 0.58582556 0.33322647 -0.33092538 -0.0016433825
-0.24188764 -0.020411583 -0.30925626 0.40191427 0.04808684 -0.4943986 -0.43108016 0.32611787
-0.2082482 0.41631132 -0.40177456 0.5242397 0.22690731 0.27893054 0.08119768 0.16158926
0.25673804 0.45053986 -0.20408401 0.23132719 -0.0012229016 0.45493633 -0.08447368 -0.58417195
-0.07962063 -0.27756315 -0.6254361 0.43083248 0.39985538 -0.62483156 -0.29685426 0.30697408
0.11099892 -0.3894687 -0.36934397 0.45942333 0.36651114 -0.47086385 0.008027814 -0.15734342
0.076741844 -0.4721602 0.23958386 0.2565838 0.0067993295 -0.11841423 -0.5546204 -0.59757113
-0.70479333 0.22293235 0.46001133 -0.02665193 0.13910344 -0.35529026 -0.14562999 0.2237811
0.3515877 -0.15932007 0.07296269 0.44220576 0.2916415 -0.3112229 -0.06333509 -0.40606472
0.17214109 0.43566304 -0.43183902 0.012254349 0.5433391 0.051609546 0.022532057 0.34707215
-0.04860067 -0.25266084 0.14794026 0.27679247 -0.07682647 -0.6119311 0.44076216 -0.36823097
-0.3650982 0.5015947 -0.4802698 -0.10951751 0.33357573 0.25776303 -0.31084326 -0.6671609
0.3703418 0.17754777 0.010254041 -0.57812566 -0.06422306 0.3030789 0.025324877 0.5308241
0.6350588 -0.50120664 -0.017090088 -0.5779569 0.28425455 0.6227723 -0.31783918 0.08252419
0.467893 0.09550633 -0.30389366 0.03709849 0.07005508 -0.2183277 0.41252878 -0.111416966
0.5410613 0.4034853 0.33343157 -0.45116726 -0.53551555 0.22908288 -0.46225798 0.14767793
-0.42384773 0.037937243 0.20988567 0.29909822 -0.1992958 -0.2939296 -0.2560561 0.2763815
0.48044035 0.51011425 -0.48925284 -0.027342593 0.101103 0.5465282 -0.6565771 -0.261633
-0.3051548 -0.40893048 0.15149409 0.54309225 0.28409028 -0.45279783 -0.118204355 0.6557264
-0.40740794 -0.6210842 -0.22989227 0.13924405 -0.55496657 -0.02327387 0.31965733 -0.48431757
-0.021062905 -0.3418953 0.3835954 -0.02446865 0.12850434 0.06920438 -0.72206813 -0.5157723
-0.11362383 -0.3857902 -0.60750175 0.34996468 -0.543342 -0.44834113 -0.008538274 0.2806169
0.43427664 -0.8431165 -0.33092824 -0.80416596 -0.25910467 -0.29444525 0.60822505 -0.32894298
-0.09996314 -0.47750562 0.39657292 -0.78515536 -0.6169294 0.09030042 0.30426258 0.27535358
0.38829437 0.06547645 0.14948477 0.247974 -0.51817495 0.045090277 0.1858623 -0.0232908
0.15635766 -0.20670977 -0.46198103 0.38773087 -0.62538254 0.23681565 0.2995332 -0.26893
-0.6189386 0.49136022 0.45536458 0.34637237 0.2718142 0.2080278 -0.3376859 0.22969592
-0.29692718 0.3680796 0.5224297 -0.42744473 -0.37389845 -0.5012832 -0.44542825 -0.26016802
00000000: 8f61 cfbe 6dc7 11bf 4612 853e 39b4 e3be
00000010: 2a75 f5be 062f ee3d 8c36 553e a536 5ebe
00000020: 7b6b 093f 17f6 debe 1a7d ebbd eda8 d3be
00000030: 04d8 14bf de35 d0be c517 86be 2453 c33d
00000040: 2d6a e03e 2381 edbe 0559 863d 0f39 62be
00000050: 7d44 e63d 2d4e ce3e 6f9a 03bf 3a5b e7be
00000060: 8bc6 90be 4bb3 f1be 518f 66be 41a5 3abf
00000070: ac71 f83e 11ac 433e e250 a4be d282 cb3e
00000080: 36a2 aa3e 32eb 243e 5919 aabe c7ab d2be
00000090: aaf8 153f a99c aa3e 0d6f a9be c466 d7ba
000000a0: 65b1 77be 3136 a7bc d656 9ebe b5c7 cd3e
000000b0: b5f6 443d d021 fdbe 8ab6 dcbe ecf8 a63e
000000c0: 043f 55be c226 d53e 65b5 cdbe 9334 063f
000000d0: 645a 683e fccf 8e3e f84a a63d a877 253e
000000e0: 2b73 833e 29ad e63e 66fb 50be 09e1 6c3e
000000f0: c549 a0ba 6aed e83e 8900 adbd 4b8c 15bf
00000100: 2410 a3bd c21c 8ebe 951c 20bf 1396 dc3e
00000110: d8b9 cc3e f6f4 1fbf 48fd 97be b52b 9d3e
00000120: 6753 e33d 7168 c7be a71a bdbe 8939 eb3e
00000130: 59a7 bb3e 1115 f1be 1887 033c a21e 21be
00000140: d42a 9d3d fbbe f1be 7955 753e f45e 833e
00000150: e9cc de3b 2983 f2bd 9afb 0dbf 6cfa 18bf
00000160: 566d 34bf 6148 643e 9b86 eb3e 2655 dabc
00000170: 2271 0e3e 9be8 b5be 0720 15be df26 653e
00000180: 4e03 b43e cd24 23be 766d 953d cb68 e23e
00000190: 0952 953e 9c58 9fbe d4b5 81bd b7e7 cfbe
000001a0: c145 303e 3a0f df3e 011a ddbe 77c6 483c
000001b0: 4518 0b3f 8864 533d 2695 b83c 71b3 b13e
000001c0: 7f11 47bd c35c 81be a77d 173e beb7 8d3e
000001d0: 3257 9dbd 84a7 1cbf 94ab e13e c588 bcbe
000001e0: 27ee babe 8368 003f ece5 f5be b74a e0bd
000001f0: 70ca aa3e 84f9 833e d926 9fbe 0fcb 2abf
00000200: 719d bd3e 15cf 353e 9100 283c 0b00 14bf
00000210: 6187 83bd 282d 9b3e 1e76 cf3c 17e4 073f
00000220: 3793 223f 144f 00bf 8300 8cbc fcf4 13bf
00000230: d089 913e 016e 1f3f d1bb a2be 7102 a93d
00000240: ac8f ef3e d398 c33d f397 9bbe 96f4 173d
00000250: 0a79 8f3d 4c91 5fbe f936 d33e 942e e4bd
00000260: fe82 0a3f a095 ce3e 8bb7 aa3e 65ff e6be
00000270: 8c17 09bf b494 6a3e 14ad ecbe e238 173e
00000280: 9202 d9be 1564 1b3d 45ec 563e 6723 993e
00000290: 3314 4cbe f17d 96be c919 83be e081 8d3e
000002a0: 47fc f53e d996 023f 597f fabe 93fd dfbc
000002b0: 170f cf3d 46e9 0b3f 7015 28bf c3f4 85be
000002c0: 403d 9cbe 565f d1be 4421 1b3e 1808 0b3f
000002d0: 4874 913e 1ed5 e7be 2015 f2bd afdd 273f
000002e0: c697 d0be 60ff 1ebf e168 6bbe fe95 0e3e
000002f0: 4a12 0ebf d8a8 bebc 20aa a33e 79f8 f7be
00000300: 1d8c acbc e70c afbe 9e66 c43e 7a72 c8bc
00000310: a496 033e 07bb 8d3d 75d9 38bf a709 04bf
00000320: 9cb3 e8bd 4b86 c5be 3c85 1bbf 922e b33e
00000330: 7618 0bbf f88c e5be 1ee4 0bbc 05ad 8f3e
00000340: 8259 de3e 7cd6 57bf 6d6f a9be d2dd 4dbf
00000350: 5ea9 84be 87c1 96be a3b4 1b3f 376b a8be
00000360: 7ab9 ccbd 9e7b f4be 9b0b cb3e f1ff 48bf
00000370: 16ef 1dbf 6def b83d 4ec8 9b3e 25fb 8c3e
00000380: 85ce c63e 8418 863d 8912 193e e5ec 7d3e
00000390: 1da7 04bf 95b0 383d b052 3e3e 59cc bebc
000003a0: 391c 203e baab 53be c788 ecbe a984 c63e
000003b0: 1219 20bf cd7f 723e 6a5c 993e 31b1 89be
000003c0: c372 1ebf 9193 fb3e 8c25 e93e b857 b13e
000003d0: 3b2b 8b3e 3d05 553e 2be5 acbe 6835 6b3e
000003e0: d706 98be ee74 bc3e f4bd 053f 09da dabe
000003f0: 9e6f bfbe 1954 00bf 2c0f e4be be34 85be

VAE_Decoder.layers.0.linear0.bias f4 [128]
0.017473863 -0.09103373 -0.049411204 -0.20951028 0.43405876 0.46487403 0.0077992654 -0.31131068
0.038954172 0.40795106 0.17301592 -0.31237295 0.02231959 -0.3815577 -0.5040791 -0.10561182
0.2796401 -0.28540003 -0.31044927 0.28457156 0.041566893 0.07477553 0.1317677 0.047686953
0.2643779 0.05608278 0.039786197 0.503599 0.0018139057 -0.3264331 -0.12152523 -0.10855158
0.36158133 -0.010773805 0.16526063 0.044461377 0.09441233 -0.090415284 0.36877728 0.4482194
-0.011497143 0.41794813 -0.281017 0.19158283 0.5798554 -0.08706766 -0.5763274 -0.44195274
-0.26054037 -0.09848573 0.37496132 0.016896497 0.08453151 0.39040938 0.18234792 0.09942551
0.528893 0.15747172 0.37542856 -0.11299481 0.45396873 -0.15179147 0.32817647 0.11870394
-0.2859839 -0.15016423 -0.3821512 0.0723391 -0.272235 0.38245937 -0.02846334 0.53544927
-0.12611462 -0.1599269 -0.022623645 0.22157758 -0.036327828 -0.27213082 0.1662081 0.20478201
-0.40787846 0.52956533 -0.36635512 -0.06290436 -0.24534903 -0.09630945 0.017823488 0.0953876
0.33531526 0.5459217 -0.29285836 -0.27505824 -0.0007371472 0.042519428 0.32345876 -0.098677464
0.3710393 0.16828041 0.19717845 -0.01177866 0.54981154 0.35890362 0.43217745 -0.375111
-0.058498576 0.48883978 -0.19049935 0.16550107 -0.3309055 -0.5129207 -0.07718055 0.17871846
-0.19175372 0.4106199 0.06335687 0.09776195 -0.18772724 -0.20337224 -0.14134094 -0.36380443
-0.18486826 0.36386028 0.20985404 -0.015058994 0.42198443 -0.48867372 0.21499018 0.28251034
00000000: 5925 8f3c e46f babd 6763 4abd dd89 56be
00000010: f33c de3e f803 ee3e fb90 ff3b 1d64 9fbe
00000020: 698e 1f3d f6de d03e 162b 313e 59ef 9fbe
00000030: 93d7 b63c 885b c3be 540b 01bf 034b d8bd
00000040: fd2c 8f3e f41f 92be 35f3 9ebe 5db3 913e
00000050: 0c42 2a3d ea23 993d 1dee 063e 6553 433d
00000060: 8a5c 873e 0fb7 653d daf6 223d ddeb 003f
00000070: 93c0 ed3a 3d22 a7be 38e2 f8bd 4a50 debd
00000080: 3021 b93e 9d84 30bc 153a 293e 221d 363d
00000090: 405b c13d a62b b9bd 60d0 bc3e 037d e53e
000000a0: 835e 3cbc 4cfd d53e 76e1 8fbe 4a2e 443e
000000b0: 6771 143f 8850 b2bd 318a 13bf a147 e2be
000000c0: 8c65 85be e3b2 c9bd eefa bf3e 866a 8a3c
000000d0: db1e ad3d bde3 c73e 6ab9 3a3e 9a9f cb3d
000000e0: 8865 073f 4440 213e 2c38 c03e d369 e7bd
000000f0: 976e e83e 396f 1bbe bf06 a83e 0d1b f33d
00000100: 7b6c 92be a7c4 19be 52a9 c3be 8626 943d
00000110: 6362 8bbe b7d1 c33e f32b e9bc 3413 093f
00000120: 3124 01be e1c3 23be 3955 b9bc 3ce5 623e
00000130: 7dcc 14bd bb54 8bbe 7532 2a3e 60b2 513e
00000140: 72d5 d0be 9891 073f e692 bbbe 00d4 80bd
00000150: c73c 7bbe e43d c5bd 9002 923c 935a c33d
00000160: 71ae ab3e 86c1 0b3f 88f1 95be 6fd4 8cbe
00000170: 1c3d 41ba da28 2e3d 639c a53e 6917 cabd
00000180: ddf8 bd3e b351 2c3e 26e9 493e 48fb 40bc
00000190: 73c0 0c3f 37c2 b73e 5d46 dd3e 8d0e c0be
000001a0: 349c 6fbd 3549 fa3e 4312 43be 1d79 293e
000001b0: 726c a9be c54e 03bf d610 9ebd f901 373e
000001c0: 165b 44be c63c d23e 3fc1 813d 6b37 c83d
000001d0: 923b 40be d040 50be aebb 10be 9344 babe
000001e0: 1b4e 3dbe e54b ba3e fae3 563e 00ba 76bc
000001f0: 580e d83e 7133 fabe 6326 5c3e 32a5 903e

VAE_Decoder.layers.0.linear1.weight f4 [4, 128]
-0.07672942 -0.30850133 0.19232127 0.032968946 0.051347528 0.008496196 0.13335903 -0.086569145
0.085480794 0.078559555 0.033173915 0.08480087 -0.02285589 -0.009707062 0.010962179 -0.0067968494
0.017706107 -0.017195214 -0.046281964 0.13064182 0.09720606 0.14402325 -0.13844845 0.024994569
-0.03788671 0.15099142 0.05637328 0.088143416 0.042180683 0.12453834 0.07129169 0.048689242
0.14352441 0.09352433 0.1729291 0.06056294 0.0942645 0.07665015 -0.057648085 -0.08970393
-0.09336483 -0.04628733 0.070258215 0.06730265 -0.022398885 -0.038269963 -0.06309208 -0.20571138
0.02614033 0.038509253 0.028599998 -0.065899774 0.6975186 -0.06398066 -0.04323283 -0.18836327
0.082470335 -0.21705805 0.01358483 -0.16336593 -0.10457529 0.11061156 -0.055312242 0.00776158
0.017714202 0.28531423 -0.08201839 0.20434904 0.070998915 0.051175535 0.22665414 0.15865882
0.17348509 0.001318125 0.051183872 -0.1753402 -0.024265608 0.0714073 0.04609417 0.023211591
0.0826778 -0.09830581 0.19825473 -0.07698234 -0.00012362482 0.272473 0.15670164 -0.07528393
0.0042642695 -0.107756235 0.013553631 0.07036004 0.083591536 -0.0059507163 -0.15261224 -0.0308605
-0.11539006 -0.17179105 -0.092741445 -0.11053734 -0.0427755 -0.092944615 0.046960194 -0.14363074
-0.0631922 0.06026134 -0.112246186 0.057037383 0.05755303 0.03883536 0.030722758 0.06147583
-0.07015694 0.005413271 -0.0077082966 0.068702966 0.047995906 -0.119384654 0.03538125 -0.03895287
-0.16143526 -0.09550542 -0.15749814 0.08118975 -0.18544646 0.88671166 0.0031089915 0.14900135
-0.19919054 0.06586595 0.14079113 -0.07663544 -0.06571386 0.11335739 -0.21467026 -0.06755457
0.11582375 0.09326305 -0.0039106305 -0.21226925 0.124367274 0.024128996 0.017059647 0.17009613
-0.14641419 -0.16684352 -0.13625076 -0.013504628 -0.17118858 0.15909173 0.011213594 -0.17879966
-0.10776617 -0.009948534 -0.0010981438 0.020048726 -0.010421674 -0.07051643 0.108557366 0.1840174
0.031757645 0.021132495 0.043791305 0.14233756 0.10182717 -0.09591914 0.028470118 0.15068237
-0.07504469 -0.16765222 0.111692764 0.07205767 -0.10995969 -0.09586408 -0.21320854 0.006771439
-0.120371416 0.18673441 -0.17175514 -0.073721796 0.3567106 -0.1560347 -0.20303497 -0.07440295
-0.09435322 0.05024094 -0.145091 0.018124675 0.102323174 0.018850673 -0.034397572 -0.14366342
-0.050419085 -0.07247979 -0.020617733 0.12172813 -0.08111473 0.118799426 0.046240672 -0.06691159
0.11019014 0.053564146 0.23262063 0.1550207 0.1661465 -0.1103238 -0.1725955 -0.16743247
0.011609244 -0.12777524 0.5114289 -0.22856958 -0.10601273 0.027484484 0.2036627 -0.037586857
0.026944963 0.08829474 -0.057074822 0.21469858 0.044464264 -0.10110625 -0.14162421 0.1542822
0.023394074 -0.006795476 -0.036764707 0.07172224 0.077900656 0.06708755 0.10096705 -0.21492244
0.12057777 -0.027452813 -0.039899707 -0.022230526 0.15380448 -0.08266307 -0.22273932 0.04081391
-0.039972525 -0.04410848 0.13829514 -0.10047274 -0.10021174 -0.24506931 -0.010384735 -0.0023372972
-0.15520447 0.071030825 -0.07175043 -0.148683 0.084280245 0.35623968 -0.13206178 0.035546344
00000000: 5024 9dbd e3f3 9dbe deef 443e 720a 073d
00000010: c951 523d a133 0b3c 458f 083e 2a4b b1bd
00000020: 8e10 af3d d5e3 a03d 5fe1 073d 14ac ad3d
00000030: 473c bbbc 5e0a 1fbc b69a 333c 1bb8 debb
00000040: 660c 913c fadc 8cbc 2892 3dbd f8c6 053e
00000050: f913 c73d d57a 133e 6ec5 0dbe 69c1 cc3c
00000060: 182f 1bbd 7f9d 1a3e abe7 663d 8984 b43d
00000070: a7c5 2c3d f50d ff3d 6101 923d 5f6e 473d
00000080: 10f8 123e af89 bf3d 5314 313e d810 783d
00000090: bf0d c13d c1fa 9c3d 6620 6cbd b2b6 b7bd
000000a0: 0f36 bfbd c997 3dbd 8ae3 8f3d f9d5 893d
000000b0: de7d b7bc f7c0 1cbd 6c36 81bd 01a6 52be
000000c0: 3f24 d63c e1bb 1d3d 8b4a ea3c 76f6 86bd
000000d0: 9490 323f 4b08 83bd e814 31bd 4de2 40be
000000e0: 35e6 a83d 7744 5ebe e892 5e3c 6649 27be
000000f0: 922b d6bd 5088 e23d 178f 62bd da54 fe3b
00000100: 601d 913c b514 923e 42f9 a7bd e040 513e
00000110: e167 913d 709d 513d 0618 683e 7577 223e
00000120: 13a6 313e f0c4 ac3a 2ea6 513d 628c 33be
00000130: abc8 c6bc fe3d 923d 3ecd 3c3d 3c26 be3c
00000140: fa52 a93d 8e54 c9bd 4a03 4b3e eba8 9dbd
00000150: 49a1 01b9 9581 8b3e 6576 203e 762e 9abd
00000160: 49bb 8b3b 4daf dcbd 0c10 5e3c ed18 903d
00000170: 0a32 ab3d 3afe c2bb 6246 1cbe 29cf fcbc
00000180: a051 ecbd fee9 2fbe 3aef bdbd 6761 e2bd
00000190: 5d35 2fbd bf59 bebd 5559 403d f013 13be
000001a0: ea6a 81bd 98d4 763d 54e1 e5bd 08a0 693d
000001b0: babc 6b3d d411 1f3d 4bae fb3c 14ce 7b3d
000001c0: 71ae 8fbd cf61 b13b e195 fcbb 24b4 8c3d
000001d0: 5b97 443d f17f f4bd eeeb 103d 0b8d 1fbd
000001e0: 494f 25be 5898 c3bd 3147 21be d046 a63d
000001f0: ade5 3dbe 89ff 623f 39c0 4b3b cf93 183e
00000200: 9bf8 4bbe bae4 863d 8d2b 103e 0bf3 9cbd
00000210: fd94 86bd eb27 e83d 85d2 5bbe 0d5a 8abd
00000220: 0135 ed3d b300 bf3d bf24 80bb 1c5d 59be
00000230: 45b4 fe3d 2caa c53c acc0 8b3c ae2d 2e3e
00000240: 9aed 15be 07d9 2abe 5285 0bbe 8442 5dbc
00000250: 0f4c 2fbe f1e8 223e 39b9 373c 4217 37be
00000260: 82b4 dcbd 2dff 22bc 97ef 8fba 3a3d a43c
00000270: abbf 2abc eb6a 90bd 5353 de3d 0f6f 3c3e
00000280: 4e14 023d 0e1e ad3c 835e 333d f0c0 113e
00000290: c38a d03d 4171 c4bd 2a3a e93c 7b4c 1a3e
000002a0: 08b1 99bd 06ad 2bbe 2dbf e43d f992 933d
000002b0: 8c32 e1bd 6354 c4bd 5753 5abe f3e2 dd3b
000002c0: 4a85 f6bd 4e37 3f3e 94e0 2fbe 74fb 96bd
000002d0: c6a2 b63e 8fc7 1fbe 66e8 4fbe 9360 98bd
000002e0: 433c c1bd 72c9 4d3d bc92 14be 337a 943c
000002f0: d08e d13d ba6c 9a3c 78e4 0cbd 811c 13be
00000300: 3e84 4ebd 4970 94bd 85e6 a8bc 994c f93d
00000310: 7b1f a6bd 1d4d f33d dc66 3d3d f208 89bd
00000320: 5eab e13d 1466 5b3d 1a34 6e3e bfbd 1e3e
00000330: 4f22 2a3e 72f1 e1bd e0bc 30be 6b73 2bbe
00000340: b334 3e3c 83d7 02be 01ed 023f 250e 6abe
00000350: 341d d9bd 2427 e13c f48c 503e adf4 19bd
00000360: afbb dc3c dfd3 b43d 4ac7 69bd f2d9 5b3e
00000370: 2920 363d cb10 cfbd f005 11be 27fc 1d3e
00000380: eea4 bf3c 96ac debb 9796 16bd 1ce3 923d
00000390: 618a 9f3d 3365 893d d0c7 ce3d a114 5cbe
000003a0: 7af1 f63d b9e4 e0bc e06d 23bd cb1c b6bc
000003b0: ec7e 1d3e 414b a9bd c715 64be 7d2c 273d
000003c0: 3bba 23bd 18ab 34bd 3e9d 0d3e a7c4 cdbd
000003d0: d03b cdbd 73f3 7abe bc24 2abc 572d 19bb
000003e0: eced 1ebe 9c78 913d e4f1 92bd 5b40 18be
000003f0: 1f9b ac3d 0c65 b63e 343b 07be 0b99 113d

VAE_Decoder.layers.0.linear1.bias f4 [4]
-0.036703046 0.09229033 0.050364364 0.067323476
00000000: ef55 16bd b602 bd3d dd4a 4e3d e4e0 893d

VAE_Decoder.layers.0.norm1.weight f4 [4]
1.3855041 1.1942282 1.2363985 1.2028787
00000000: 3358 b13f 78dc 983f 4e42 9e3f eef7 993f

VAE_Decoder.layers.0.norm1.bias f4 [4]
-0.10509816 0.07239521 -0.1754939 -0.014321914
00000000: b43d d7bd f143 943d acb4 33be 76a6 6abc

VAE_Decoder.layers.1.attention.W_q.weight f4 [4, 4]
0.28020564 0.07070918 0.12416613 -0.3774267 0.32529908 0.04545245 0.37617362 0.36051357
-0.31159166 0.06540664 -0.45942506 0.14215618 -0.4210419 0.07674589 -0.2588309 0.36524883
00000000: 1d77 8f3e f9cf 903d d04a fe3d 133e c1be
00000010: 9a8d a63e 592c 3a3d d499 c03e 3c95 b83e
00000020: f188 9fbe ebf3 853d c339 ebbe 6491 113e
00000030: ce92 d7be f32c 9d3d 7c85 84be e501 bb3e

VAE_Decoder.layers.1.attention.W_q.bias f4 [4]
-0.040320873 0.0002461804 0.060556173 -0.0028693555
00000000: 8027 25bd c611 8139 c009 783d cc0b 3cbb

VAE_Decoder.layers.1.attention.W_k.weight f4 [4, 4]
0.12869935 -0.29001984 0.12104491 -0.3631476 -0.3320495 -0.50493085 -0.033281974 0.18653129
-0.43287104 0.47888553 0.0407802 -0.20223105 -0.057020962 0.13213624 0.4234998 0.12670207
00000000: c3c9 033e 7b7d 94be 65e6 f73d 7bee b9be
00000010: 6402 aabe 2643 01bf ae52 08bd 0f02 3f3e
00000020: 46a1 ddbe 7c30 f53e 2409 273d a815 4fbe
00000030: d08e 69bd b94e 073e f7d4 d83e 30be 013e

VAE_Decoder.layers.1.attention.W_k.bias f4 [4]
-4.465637e-05 1.0523743e-05 2.481646e-05 6.064258e-05
00000000: 6a4d 3bb8 228f 3037 f12c d037 795a 7e38

VAE_Decoder.layers.1.attention.W_v.weight f4 [4, 4]
0.17474928 -0.008628258 -0.11311776 -0.115363576 0.3306402 0.23329452 0.41728222 -0.39647514
0.55976206 -0.0731382 -0.12877738 0.36532444 0.09854762 0.052975733 -0.17190665 0.037373193
00000000: 7af1 323e 895d 0dbc 49aa e7bd bd43 ecbd
00000010: ac49 a93e c2e4 6e3e 04a6 d53e cafe cabe
00000020: 914c 0f3f 7bc9 95bd 38de 03be ce0b bb3e
00000030: 56d3 c93d 15fd 583d 4c08 30be a214 193d

VAE_Decoder.layers.1.attention.W_v.bias f4 [4]
-0.0018039221 0.016961416 -0.02778681 0.050371017
00000000: 9571 ecba abf2 8a3c 2aa1 e3bc d751 4e3d

VAE_Decoder.layers.1.linear0.weight f4 [128, 4]
0.5270706 -0.18772623 -0.41207153 -0.22583185 -0.08293061 0.51115996 0.37169212 -0.5133863
-0.6432754 0.46545774 -0.345757 -0.2747834 0.20671272 -0.1344187 0.5613769 0.07466033
-0.47925058 -0.07587413 0.59459543 -0.66076815 -0.108744286 -0.04101199 -0.5537161 0.39772946
0.53688276 0.51015204 -0.45667392 0.34860906 -0.5847248 0.38905853 0.05981291 -0.10358169
-0.67078996 0.15182398 -0.12692668 0.189259 -0.69226754 0.41103634 0.48863965 -0.10399128
-0.5488658 0.08371037 0.19904464 0.47570434 0.4885597 0.04033684 0.037653994 -0.4227269
0.53163993 0.25477344 -0.4161085 -0.54880893 -0.081120804 -0.03430136 0.06659399 0.49799767
0.1950453 0.24342354 0.10891774 -0.30899715 0.38928917 0.07551779 0.061532177 0.41485623
0.26756236 0.5156133 -0.19608477 -0.41602784 0.34327948 0.576025 0.17285778 -0.43094087
0.06549155 0.4328192 0.1225267 -0.41464892 -0.08872204 0.37735394 -0.39629078 -0.028155625
-0.33551642 0.49056566 0.43107837 -0.18528372 0.30541 0.4460952 0.11500737 0.056372795
0.23300989 -0.053506706 0.54479355 -0.5968085 -0.3566749 0.44624007 0.104075365 -0.2194999
0.28312868 -0.038212337 -0.15172394 -0.46262243 -0.5064224 0.2458031 0.37114206 -0.21812528
-0.29052734 0.5640688 0.07122342 -0.034967724 0.14086002 -0.285535 0.4600181 0.15802847
-0.25345695 -0.32747632 -0.5031679 -0.4016963 0.17728141 0.42159796 0.25506982 -0.32380804
-0.42770633 0.08365961 0.4877434 -0.13316244 -0.57893664 0.0836092 0.22465302 -0.37235668
-0.1328864 -0.43971267 0.14508387 0.5252866 0.32701454 0.27011475 0.46439153 -0.24753779
-0.40917522 0.4733672 -0.24182896 -0.5117538 -0.0065873615 -0.11690719 -0.5017354 0.5554763
0.5429844 0.4500854 -0.012598625 -0.24039525 -0.30539784 0.4200459 0.340565 -0.42030883
0.18002105 -0.15212284 0.0603638 0.63902813 -0.045429874 -0.21094295 -0.24453247 0.49878564
-0.5797809 -0.13655882 0.10920085 -0.09699372 -0.10792439 0.25663498 0.34785408 -0.105845034
0.5479153 -0.5270337 0.30376536 -0.61048734 0.40978393 -0.08352277 -0.4940275 0.55654186
0.039778065 -0.55333334 -0.27190724 0.03301764 -0.16811778 -0.45638672 0.13290717 0.40575215
0.29869944 -0.5075152 0.046005595 0.36669683 0.20687336 0.2644297 -0.42135867 -0.06267271
0.5800939 -0.03345206 -0.37355816 0.49894756 0.69361407 -0.2620372 0.0792128 -0.23838146
-0.26526415 -0.21461551 0.026720926 0.35969797 -0.5202997 -0.28225452 -0.069052994 -0.37214503
-0.69110525 0.11409406 0.11098394 -0.13510482 0.24874754 -0.12985915 0.37942424 0.1944209
-0.14421634 0.43065184 -0.45652395 0.031237422 0.25402492 -0.27216405 0.37392095 0.17694713
0.2756706 0.013969596 -0.04792213 0.30169412 0.2674666 -0.297541 -0.45796207 0.6697539
-0.40871137 0.33405727 0.38033995 0.1290938 0.41735512 -0.5798259 0.22360861 0.22198147
0.07002448 0.2738696 -0.2324225 0.176979 0.5197918 0.083399236 0.28133827 0.49161083
0.3084522 -0.2147901 0.57423097 -0.712495 0.46594733 -0.052960694 0.36011207 -0.33828858
00000000: 19ee 063f 4e3b 40be 0afb d2be 7740 67be
00000010: 86d7 a9bd 61db 023f 6e4e be3e 496d 03bf
00000020: b2ad 24bf 7a50 ee3e 1007 b1be 69b0 8cbe
00000030: 80ac 533e 0ea5 09be 66b6 0f3f 84e7 983d
00000040: 5560 f5be e563 9bbd 6837 183f 1a28 29bf
00000050: 53b5 debd 30fc 27bd 57c0 0dbf 32a3 cb3e
00000060: 2671 093f 5399 023f 2ad1 e9be e37c b23e
00000070: 86b0 15bf ae32 c73e 62fe 743d a322 d4bd
00000080: e4b8 2bbf bf77 1b3e 11f9 01be 1ccd 413e
00000090: 7238 31bf 5b73 d23e fa2e fa3e 61f9 d4bd
000000a0: 7882 0cbf 5870 ab3d 5cd2 4b3e 858f f33e
000000b0: 7f24 fa3e 3e38 253d 133b 1a3d a96f d8be
000000c0: 8e19 083f aa71 823e 2c0c d5be be7e 0cbf
000000d0: aa22 a6bd 957f 0cbd 6e62 883d 8df9 fe3e
000000e0: f5b9 473e 0544 793e 4410 df3d e034 9ebe
000000f0: e950 c73e 12a9 9a3d 2a09 7c3d 0968 d43e
00000100: effd 883e 3cff 033f 72ca 48be 9a01 d5be
00000110: 54c2 af3e 6076 133f a101 313e 48a4 dcbe
00000120: 6f20 863d 7a9a dd3e 47ef fa3d dd4c d4be
00000130: e7b3 b5bd 8934 c13e a0e6 cabe a0a6 e6bc
00000140: cfc8 abbe 6c2b fb3e 4eb6 dc3e 04bb 3dbe
00000150: b35e 9c3e 9766 e43e fc88 eb3d 29e7 663d
00000160: 259a 6e3e d929 5bbd 9777 0b3f 71c8 18bf
00000170: 189e b6be 9479 e43e 7725 d53d 95c4 60be
00000180: 3ef6 903e 8a84 1cbd 855d 1bbe d9dc ecbe
00000190: e6a4 01bf cfb3 7b3e 5506 be3e 3c5c 5fbe
000001a0: 00c0 94be d066 103f 96dd 913d 513a 0fbd
000001b0: 9c3d 103e a531 92be 7e87 eb3e 37d2 213e
000001c0: 1cc5 81be faaa a7be 9dcf 00bf 23ab cdbe
000001d0: 4289 353e b0db d73e 8398 823e 2bca a5be
000001e0: 53fc dabe bb55 ab3d 81b9 f93e bc5b 08be
000001f0: 3135 14bf 4d3b ab3d 710b 663e 89a5 bebe
00000200: 5f13 08be 0522 e1be de90 143e 2f79 063f
00000210: 736e a73e 7b4c 8a3e bac4 ed3e 8c7a 7dbe
00000220: 6a7f d1be 305d f23e 03a2 77be 4c02 03bf
00000230: cbda d7bb 096d efbd bb71 00bf b233 0e3f
00000240: 0701 0b3f 9871 e63e 776a 4ebc 2c2a 76be
00000250: 1b5d 9cbe 4210 d73e 895e ae3e b832 d7be
00000260: 7057 383e 17c6 1bbe 0840 773d 5997 233f
00000270: ad14 3abd 6e01 58be b866 7abe d560 ff3e
00000280: 856c 14bf 13d6 0bbe b2a4 df3d a5a4 c6bd
00000290: 7607 ddbd a965 833e ee19 b23e 48c5 d8bd
000002a0: 2d44 0c3f aeeb 06bf 2287 9b3e e648 1cbf
000002b0: 33cf d13e fc0d abbd 2cf1 fcbe 8779 0e3f
000002c0: 53ee 223d 41a7 0dbf 6d37 8bbe 813d 073d
000002d0: 1127 2cbe 85ab e9be d118 083e bfbe cf3e
000002e0: 22ef 983e 84ec 01bf 5d70 3c3d b0bf bb3e
000002f0: 9cd6 533e 5463 873e 53bc d7be 8d5a 80bd
00000300: 0981 143f 0705 09bd 0443 bfbe 0e76 ff3e
00000310: b190 313f bd29 86be 523a a23d 451a 74be
00000320: b4d0 87be 2bc4 5bbe d8e5 da3c 552a b83e
00000330: 5c32 05bf aa83 90be a86b 8dbd cb89 bebe
00000340: 46ec 30bf 26aa e93d 8c4b e33d eb58 0abe
00000350: adb7 7e3e ccf9 04be e543 c23e 4616 473e
00000360: 73ad 13be 667e dc3e 82bd e9be 9fe5 ff3c
00000370: 8e0f 823e 1659 8bbe 9172 bf3e a131 353e
00000380: b224 8d3e bbe0 643c ff49 44bd a777 9a3e
00000390: 62f1 883e 4b57 98be 017a eabe fe74 2b3f
000003a0: 9e42 d1be 8e09 ab3e ebbb c23e 2a31 043e
000003b0: 92af d53e 786f 14bf a8f9 643e 1c4f 633e
000003c0: ff68 8f3d a338 8c3e 2a00 6ebe fc39 353e
000003d0: 1311 053f 38cd aa3d 920b 903e 6ab4 fb3e
000003e0: 72ed 9d3e f0f1 5bbe cd00 133f 1366 36bf
000003f0: a690 ee3e 50ed 58bd 9c60 b83e 2934 adbe

VAE_Decoder.layers.1.linear0.bias f4 [128]
0.10455963 -0.36672625 -0.3512738 0.44424906 -0.37288782 -0.21507086 0.070645556 0.35320368
0.022822948 -0.1372016 0.25900033 -0.4181506 -0.06919859 0.48887172 -0.46394062 0.42118692
0.51645553 -0.07070005 -0.38908312 0.16683601 -0.30049807 -0.49957967 0.2989325 0.07665973
-0.45230246 -0.098472424 -0.2833559 -0.27781484 0.47755373 0.1764609 0.55655646 0.051858865
0.105591916 0.47489917 -0.31658483 -0.32345954 0.43800092 -0.2591298 0.06478331 0.49782002
0.42601925 0.34291735 -0.19075331 -0.0024267167 0.49213848 -0.13375682 0.18938035 0.26557866
0.17169288 -0.0071284277 -0.05532284 0.31074527 -0.091725826 0.5847416 -0.14543651 0.4334403
0.2307418 0.32686102 -0.21937838 0.36000368 0.34714952 0.33242717 0.55246437 0.39605132
0.46907744 -0.16569017 0.15151931 -0.48373935 -0.11476215 0.32796025 0.5277422 -0.13979231
-0.02586509 -0.038509864 0.14604373 -0.36491698 -0.37656775 0.1854239 0.29953554 0.19324957
0.2575923 0.3777775 0.010283141 -0.19990584 0.5126509 -0.20902129 0.29425052 0.15588908
-0.28138027 0.07566675 0.26475534 -0.1083885 0.05115839 0.26253128 0.39439076 -0.41177508
0.43829417 0.57096404 0.20530266 -0.14638476 -0.20765704 -0.3248425 -0.28185233 -0.3347616
0.04681316 0.19759828 0.19565427 0.1914786 0.102305286 -0.21623546 0.4525525 0.2649549
0.46243167 0.37520784 0.4482928 -0.29430768 -0.2377952 0.26578075 0.22511716 0.5183874
0.53325176 0.017638909 0.1176109 -0.2164395 -0.37836134 -0.2268975 -0.20231183 0.068906486
00000000: 5c23 d63d 8bc3 bbbe 29da b3be 9d74 e33e
00000010: 27eb bebe 893b 5cbe 9eae 903d 1dd7 b43e
00000020: 31f7 ba3c 947e 0cbe b19b 843e d617 d6be
00000030: feb7 8dbd 654d fa3e a089 edbe d0a5 d73e
00000040: 6e36 043f 30cb 90bd e735 c7be 0fd7 2a3e
00000050: e2da 99be e8c8 ffbe ae0d 993e c7ff 9c3d
00000060: 3094 e7be e9ab c9bd 0614 91be bf3d 8ebe
00000070: ec81 f43e 2bb2 343e 7c7a 0e3f f669 543d
00000080: 9340 d83d fc25 f33e 6817 a2be 7d9c a5be
00000090: a841 e03e a9ac 84be 1dad 843d 44e2 fe3e
000000a0: 321f da3e dd92 af3e d654 43be 8d09 1fbb
000000b0: 93f9 fb3e 8cf7 08be ecec 413e edf9 873e
000000c0: 42d0 2f3e 9695 e9bb 349a 62bd 011a 9f3e
000000d0: c0da bbbd a0b1 153f 4fed 14be e3eb dd3e
000000e0: 9447 6c3e 545a a73e baa4 60be 6752 b83e
000000f0: 95bd b13e e533 aa3e 4e6e 0d3f 3dc7 ca3e
00000100: eb2a f03e afaa 29be e127 1b3e afac f7be
00000110: 6b08 ebbd 68ea a73e 1d1a 073f b725 0fbe
00000120: 06e3 d3bc 85bc 1dbd 7d8c 153e 66d6 babe
00000130: 7dcd c0be c3df 3d3e b95c 993e 37e3 453e
00000140: 23e3 833e 0d6c c13e 9f7a 283c 1eb4 4cbe
00000150: 173d 033f ad09 56be 01a8 963e 63a1 1f3e
00000160: 1311 90be 2bf7 9a3d 038e 873e cafa ddbd
00000170: 768b 513d 806a 863e 96ed c93e 2fd4 d2be
00000180: 1868 e03e b32a 123f dc3a 523e e3e5 15be
00000190: 0ca4 54be c251 a6be f34e 90be df65 abbe
000001a0: 28bf 3f3d 3457 4a3e 9859 483e f712 443e
000001b0: 6f85 d13d d46c 5dbe f6b4 e73e 2ba8 873e
000001c0: d8c3 ec3e 3e1b c03e a286 e53e 7faf 96be
000001d0: 9680 73be 6a14 883e 1d85 663e 09b5 043f
000001e0: 3083 083f 797f 903c fcdd f03d 51a2 5dbe
000001f0: 94b8 c1be d157 68be d52a 4fbe d81e 8d3d

VAE_Decoder.layers.1.linear1.weight f4 [4, 128]
0.10314899 -0.14604412 -0.08274561 -0.07915301 -0.21906897 0.033308648 0.06530003 -0.03677757
0.04584135 -0.18086205 -0.12954171 -0.0012889148 0.13059767 -0.0010713656 -0.07010427 -0.02951357
0.05491699 0.057039108 0.042174075 0.063323475 -0.32067063 0.033053763 -0.107463405 -0.10553246
0.14367415 -0.112873204 -0.07323785 0.07569512 0.13723202 -0.09666986 -0.1849409 -0.22791047
-0.0046180314 -0.09927239 -0.05901986 0.1091445 0.06720998 -0.07543578 -0.038281105 0.055063825
-0.16807514 -0.053707976 0.1971289 0.059797205 -0.024810407 0.08594072 0.000690149 0.06838199
0.019323228 0.6165154 -0.062355183 -0.1976304 -0.27296528 -0.041753706 0.12373573 0.06923617
0.12591822 0.050229687 -0.03041872 0.05110622 -0.010218785 0.057198837 0.013429315 0.17570288
0.12222297 0.10934875 0.08089143 0.0274592 0.033159018 0.07718039 -0.014896099 -0.027520295
-0.050453972 0.22230317 0.0651534 0.15881775 0.12369098 0.09959431 0.11298731 0.0856316
-0.030853312 -0.08553029 0.07909317 -0.26155904 0.04596699 0.092229284 -0.02657817 -0.02976788
-0.039107483 0.06944709 0.09974363 0.015239685 0.060634043 0.04738439 0.078320116 0.017679406
0.035257936 0.12051255 0.010217592 -0.05582379 0.059339747 0.057335064 -0.028972756 0.051621687
-0.10081588 -0.14098181 -0.015813362 -0.03785642 -0.17447086 -0.11981893 0.039053798 0.08513768
0.056124285 -0.093505114 -0.02053709 -0.17880118 0.114078045 0.024898004 -0.052354254 -0.15071039
-0.1496533 0.019691965 -0.2122445 0.024422772 -0.15375361 -0.22110881 0.06103473 0.12574805
0.110254854 0.1008044 0.18161282 -0.1528233 -0.18095557 -0.17822859 0.041719697 0.15506496
0.117402524 0.22517717 -0.10045141 0.043864187 0.1318344 -0.10671302 -0.025120448 -0.03546126
0.15146197 0.12537727 0.028708423 -0.0038941896 0.20217924 0.00048494124 -0.12477862 0.02181056
0.06106692 -0.021536915 0.12848608 -0.012157958 0.103173025 -0.023330169 -0.036693055 0.06876893
-0.11781276 0.05633223 0.030749049 -0.07914682 0.1235477 0.06964414 -0.1202966 -0.13192415
-0.06816647 -0.032492243 0.110410705 -0.06328961 -0.1489077 -0.053489998 -0.06459006 0.054837923
-0.04986052 0.21248086 -0.14702745 0.07347756 0.15534422 -0.14288922 0.1335096 -0.09194049
-0.044646185 -0.12055311 0.1744489 -0.14500913 -0.018979771 -0.1280086 -0.15308776 -0.013056256
0.054084536 0.08897691 -0.015560482 -0.036813997 0.0733663 -0.13810268 0.15654925 0.034146514
0.18264727 -0.07024165 0.16596703 -0.11463036 0.16995 0.20919842 -0.16506629 -0.15838505
-0.18145777 0.064215444 -0.042704407 0.0379915 0.03328939 0.028184062 -0.072913 -0.13589182
-0.037756693 0.14570794 -0.11834775 0.14316012 -0.22830234 -0.069753535 -0.005541612 0.009531905
-0.025369942 -0.12598011 -0.053136922 -0.23006967 -0.054674294 -0.0872146 -0.007521457 -0.0006946787
-0.08798631 0.10713951 -0.17286927 0.0907765 0.21024716 -0.14329593 0.02111044 0.04592626
0.034323458 0.034862775 0.10969545 -0.10836475 0.057691168 -0.1757199 0.037141636 -0.024945723
-0.013641774 0.12261143 0.029143881 0.023912916 -0.23176154 0.09979744 0.12216535 0.14138377
00000000: c73f d33d 978c 15be 8876 a9bd f91a a2bd
00000010: 9e53 60be a66e 083d 06bc 853d 14a4 16bd
00000020: 24c4 3b3d e733 39be 95a6 04be cef0 a8ba
00000030: 65bb 053e 106d 8cba d492 8fbd 71c6 f1bc
00000040: a3f0 603d d7a1 693d b9be 2c3d bdaf 813d
00000050: f12e a4be 6263 073d c615 dcbd 6721 d8bd
00000060: 511f 133e 112a e7bd bafd 95bd 0b06 9b3d
00000070: 8d86 0c3e d9fa c5bd 2661 3dbe 5d61 69be
00000080: db52 97bb 534f cbbd cfbe 71bd 2787 df3d
00000090: 63a5 893d 137e 9abd a6cc 1cbd 9b8a 613d
000000a0: e41b 2cbe e5fc 5bbd 29dc 493e eaed 743d
000000b0: 323f cbbc b001 b03d 1eeb 343a db0b 8c3d
000000c0: bf4b 9e3c f4d3 1d3f 2668 7fbd a05f 4abe
000000d0: 1bc2 8bbe ef05 2bbd 2969 fd3d b1cb 8d3d
000000e0: b5f0 003e a5bd 4d3d ae30 f9bc c154 513d
000000f0: b16c 27bc 5449 6a3d a106 5c3c 75eb 333e
00000100: 0950 fa3d 3df2 df3d 68aa a53d 1ef2 e03c
00000110: c0d1 073d c110 9e3d c50e 74bc 3e72 e1bc
00000120: d3a8 4ebd 71a3 633e 256f 853d 1fa1 223e
00000130: b251 fd3d 1af8 cb3d e465 e73d 9f5f af3d
00000140: 16c0 fcbc 812a afbd 9afb a13d 11eb 85be
00000150: e247 3c3d b5e2 bc3d 76ba d9bc c5db f3bc
00000160: 2b2f 20bd 473a 8e3d 6346 cc3d dfaf 793c
00000170: 675b 783d 2216 423d 4c66 a03d 67d4 903c
00000180: a06a 103d 49cf f63d b067 273c 7da7 64bd
00000190: 3c0e 733d 2cd8 6a3d 4658 edbc 4371 533d
000001a0: 8e78 cebd 895d 10be 068b 81bc 550f 1bbd
000001b0: 7da8 32be a163 f5bd e0f6 1f3d aa5c ae3d
000001c0: 94e2 653d 9c7f bfbd 663d a8bc a817 37be
000001d0: c0a1 e93d e6f6 cb3c 6a71 56bd d353 1abe
000001e0: b73e 19be 0b51 a13c 9f56 59be 4412 c83c
000001f0: 9671 1dbe 596a 62be 8eff 793d 19c4 003e
00000200: 4ccd e13d 8a72 ce3d b6f8 393e b67d 1cbe
00000210: 6b4c 39be 8e81 36be 46e2 2a3d 59c9 1e3e
00000220: bc70 f03d d894 663e 78b9 cdbd efaa 333d
00000230: 99ff 063e 5b8c dabd 66c9 cdbc d33f 11bd
00000240: d918 1b3e e662 003e ed2d eb3c a935 7fbb
00000250: 1308 4f3e b63f fe39 ef8b ffbd 0fac b23c
00000260: 4f21 7a3d 2f6e b0bc db91 033e 2c32 47bc
00000270: 614c d33d e91e bfbc 754b 16bd bad6 8c3d
00000280: d147 f1bd a0bc 663d 6ee5 fb3c ba17 a2bd
00000290: 9406 fd3d 96a1 8e3d 105e f6bd 2017 07be
000002a0: dd9a 8bbd 9616 05bd 021f e23d fc9d 81bd
000002b0: 437b 18be 5418 5bbd cb47 84bd bb9d 603d
000002c0: 8b3a 4cbd 9594 593e 5d8e 16be 677b 963d
000002d0: 8e12 1f3e 8d51 12be beb6 083e 4c4b bcbd
000002e0: ebde 36bd 8de4 f6bd bca2 323e 467d 14be
000002f0: 777b 9bbc b014 03be 0ac3 1cbe e8e9 55bc
00000300: bf87 5d3d 8739 b63d 64f1 7ebc 46ca 16bd
00000310: 1241 963d ca6a 0dbe 724e 203e 37dd 0b3d
00000320: e307 3b3e dbda 8fbd 43f3 293e 52c3 eabd
00000330: 5f07 2e3e 1c38 563e 2307 29be b12f 22be
00000340: 11d0 39be 6383 833d d1ea 2ebd fa9c 1b3d
00000350: 755a 083d 43e2 e63c 6953 95bd 3a27 0bbe
00000360: c3a6 1abd 7634 153e 4e60 f2bd 9198 123e
00000370: 17c8 69be f1da 8ebd 6996 b5bb b52b 1c3c
00000380: a0d4 cfbc ee00 01be 1aa6 59bd 6297 6bbe
00000390: 27f2 5fbd 919d b2bd 8e76 f6bb 191b 36ba
000003a0: 2b32 b4bd f66b db3d a404 31be 08e9 b93d
000003b0: 084b 573e 2bbc 12be cdef ac3c 2d1d 3c3d
000003c0: c196 0c3d 45cc 0e3d 02a8 e03d 57ee ddbd
000003d0: 934d 6c3d ebef 33be d421 183d f95a ccbc
000003e0: bf81 5fbc b41b fb3d 26bf ee3c 05e5 c33c
000003f0: e652 6dbe 9a62 cc3d d431 fa3d e8c6 103e

VAE_Decoder.layers.1.linear1.bias f4 [4]
-0.04167188 0.065694645 0.096292965 -0.020920811
00000000: 22b0 2abd ea8a 863d 3f35 c53d 1f62 abbc

VAE_Decoder.layers.1.norm1.weight f4 [4]
1.337766 1.1770704 1.1786352 1.1883367
00000000: eb3b ab3f 3eaa 963f 85dd 963f 6b1b 983f

VAE_Decoder.layers.1.norm1.bias f4 [4]
-0.06891173 0.07934252 -0.060814198 -0.012761215
00000000: 9821 8dbd 557e a23d 4f18 79bd 6a14 51bc

VAE_Decoder.layers.1.norm0.weight f4 [4]
0.9633114 1.0141766 1.0596703 0.9684155
00000000: 939b 763f 8ad0 813f 47a3 873f 14ea 773f

VAE_Decoder.layers.1.norm0.bias f4 [4]
0.003103734 0.023384532 -0.013550804 -0.0069863317
00000000: 0468 4b3b eb90 bf3c 3104 5ebc 99ed e4bb

VAE_Decoder.last_normalization.weight f4 [4]
1.0 1.0 1.0 1.0
00000000: 0000 803f 0000 803f 0000 803f 0000 803f

VAE_Decoder.last_normalization.bias f4 [4]
0.0 0.0 0.0 0.0
00000000: 0000 0000 0000 0000 0000 0000 0000 0000

VAE_Decoder.head.weight f4 [4, 4]
0.057661414 -0.12933809 0.32678032 0.07890451 0.34229553 -0.308708 -0.4899544 -0.41963667
-0.400773 0.3341359 -0.032563448 0.07146627 -0.435592 0.41709763 0.3777213 0.19293785
00000000: 602e 6c3d 3471 04be c04f a73e b098 a13d
00000010: 5c41 af3e fa0e 9ebe 4edb fabe 9eda d6be
00000020: 1e32 cdbe dc13 ab3e 4061 05bd e85c 923d
00000030: ea05 dfbe d28d d53e b064 c13e 8091 453e

VAE_Decoder.head.bias f4 [4]
0.42407668 0.41143125 0.28411257 0.17802346
00000000: 9420 d93e 1ea7 d23e 3477 913e c84b 363e

Detokenizer.weight f4 [46, 4]
-0.088143684 -0.179736 0.0632631 -0.08623661 -0.17824218 -0.24545196 -0.23053668 0.032010715
0.16845818 0.037463605 -0.09160756 0.05349116 0.02518537 0.3207575 0.14054109 -0.085439965
0.041971523 -0.3572687 -0.05835158 -0.095806755 0.08078447 0.31098783 0.12557967 -0.028515846
0.17869832 -0.011595273 -0.22294773 0.009863313 -0.069719605 0.21732979 0.06473813 -0.19137545
-0.035103235 -0.21905303 0.15457927 -0.12679763 -0.026917906 0.11366104 -0.05248777 -0.2679479
-0.21373466 -0.123377085 0.11583106 -0.27874714 -0.21605514 0.13390175 -0.02003088 -0.27438042
0.022545412 -0.18705371 -0.24245729 0.00784464 -0.016713593 0.22778675 0.1510066 -0.13122803
-0.13221562 -0.088563934 0.08670114 -0.32323685 0.1856335 0.054828286 -0.2837042 -0.18731491
0.30701727 -0.122037984 0.25305492 0.2457634 -3.347559e-07 0.16590449 -0.17812918 -0.039924107
-0.15485717 0.22636275 -0.003791143 -0.018822387 0.008766844 -0.09097335 0.039038885 0.1894002
0.17827329 0.11189815 -0.0524364 0.24486351 0.07912944 -0.21296112 -0.19348046 -0.1659813
0.15669914 0.14223239 -0.19044048 -0.11573962 0.1470851 0.0212118 -0.25194976 -0.109043784
-0.055480566 0.27522212 0.25630814 0.043814916 0.19208223 0.06566468 0.044604585 -0.1428095
0.13687767 0.033442456 -0.012616655 0.21262373 -0.14179315 -0.13759784 0.0937624 -0.10474624
-0.08929742 -0.14448494 0.11633879 -0.13049076 0.09493885 -0.06504182 0.036712356 -0.23736109
-0.14443935 0.20604455 0.0343602 -0.25390613 0.21315666 -0.11776377 0.06861234 -0.023983685
-0.23042534 0.06825763 -0.25119555 -0.19385436 0.19015859 -0.07164288 -0.17595361 0.043059446
0.20636468 -0.22312427 -0.047608066 0.073842146 0.37641627 -0.08749175 0.08995658 0.08454123
0.25758076 0.2188862 -0.18040805 -0.11378865 0.08208976 0.08168821 -0.12902161 0.26416332
0.14781135 0.1634584 -0.16980529 0.29310817 -0.1825137 -0.097254515 0.12228988 -0.32336366
-0.13973401 0.35729527 -0.15922326 0.1959403 0.25446793 0.1734794 -0.018160738 0.31995788
0.16832818 0.07782346 -0.24421707 -0.06681867 0.0016013527 -0.2603198 0.06059041 0.18571848
-0.16549714 0.14789979 0.08988892 -0.22010115 -0.22370139 -0.25984153 0.15880248 -0.09839631
00000000: ad84 b4bd b70c 38be 1690 813d d29c b0bd
00000010: 1e85 36be c257 7bbe cf11 6cbe ab1d 033d
00000020: 4d80 2c3e 7073 193d bf9c bbbd 8c19 5b3d
00000030: 8d51 ce3c 543a a43e 01ea 0f3e 26fb aebd
00000040: 55ea 2b3d eceb b6be 1102 6fbd 5536 c4bd
00000050: 5472 a53d cc39 9f3e f597 003e 109a e9bc
00000060: b1fc 363e 1afa 3dbc 694c 64be bc99 213c
00000070: 27c9 8ebd b38b 5e3e 6d95 843d edf7 43be
00000080: 69c8 0fbd 704f 60be 074a 1e3e 3dd7 01be
00000090: f182 dcbc 1fc7 e83d 6afd 56bd 7830 89be
000000a0: 42dd 5abe 20ad fcbd d638 ed3d f2b7 8ebe
000000b0: 8f3d 5dbe 8a1d 093e cd17 a4bc 977b 8cbe
000000c0: 28b1 b83c 028b 3fbe b946 78be ce86 003c
000000d0: f2ea 88bc ee40 693e 79a1 1a3e a460 06be
000000e0: 8863 07be 0261 b5bd 5e90 b13d 4d7f a5be
000000f0: b516 3e3e a093 603d ad41 91be 7bcf 3fbe
00000100: 5e31 9d3e 0def f9bd 6a90 813e 67a9 7b3e
00000110: 80b8 b3b4 dee2 293e 7f67 36be 7687 23bd
00000120: e192 1ebe a3cb 673e d374 78bb 6831 9abc
00000130: cfa2 0f3c 3c50 babd 3de7 1f3d 20f2 413e
00000140: 468d 363e db2a e53d 8dc7 56bd 80bd 7a3e
00000150: 9e0e a23d 7b12 5abe be1f 46be 00f7 29be
00000160: bd75 203e 5ea5 113e d402 43be e508 edbd
00000170: 7a9d 163e 5ec4 ad3c 8fff 80be 5952 dfbd
00000180: 973f 63bd eae9 8c3e d23a 833e 4577 333d
00000190: 34b1 443e 347b 863d 4cb3 363d a73c 12be
000001a0: a929 0c3e f5fa 083d 16b6 4ebc 09ba 593e
000001b0: 3932 11be 73e6 0cbe 8006 c03d 3285 d6bd
000001c0: 91e1 b6bd dcf3 13be 0843 ee3d 5f9f 05be
000001d0: 4d6f c23d a534 85bd b25f 163d c90e 73be
000001e0: e9e7 13be 58fd 523e 48bd 0c3d fcff 81be
000001f0: bd45 5a3e 222e f1bd a084 8c3d 6f79 c4bc
00000200: 9ff4 6bbe a8ca 8b3d b49c 80be c281 46be
00000210: efb8 423e 81b9 92bd 2f2d 34be 1a5f 303d
00000220: 4351 533e b07a 64be ad00 43bd 8d3a 973d
00000230: a2b9 c03e e02e b3bd 283b b83d f423 ad3d
00000240: a0e1 833e b423 603e e3bc 38be 060a e9bd
00000250: ad1e a83d 264c a73d 3e1e 04be 6a40 873e
00000260: dc5b 173e a461 273e 70e1 2dbe 4612 963e
00000270: dfe4 3abe 602d c7bd 1e73 fa3d ec8f a5be
00000280: 6f16 0fbe 68ef b63e 6c0b 23be 93a4 483e
00000290: 9f49 823e 95a4 313e d4c5 94bc 85d1 a33e
000002a0: 395e 2c3e e861 9f3d 0a14 7abe 3ad8 88bd
000002b0: 7be4 d13a a348 85be a62d 783d fc2c 3e3e
000002c0: 1578 29be 0b73 173e af17 b83d 3262 61be
000002d0: fa11 65be f309 85be 1e9d 223e 0184 c9bd

Detokenizer.cat_recons.0.weight f4 [6, 4]
-0.210038 0.701144 0.4016651 0.6785573 -0.10764967 0.3871079 -0.16396542 -0.14080808
0.26042005 -0.56825954 0.05539026 -0.47452575 0.3390529 -0.24397494 -0.45164692 0.044748053
-0.59634954 -0.19477436 0.26678944 0.08330787 0.36426234 -0.6618664 -0.11278141 0.5035491
00000000: 3414 57be 2c7e 333f 0ca7 cd3e eeb5 2d3f
00000010: 6e77 dcbd 0233 c63e 8de6 27be fe2f 10be
00000020: c755 853e 7579 11bf e6e0 623d 0af5 f2be
00000030: 5798 ad3e 91d4 79be 443e e7be bc49 373d
00000040: 5daa 18bf ee72 47be a098 883e 519d aa3d
00000050: 9880 ba3e 1470 29bf f1f9 e6bd 98e8 003f

Detokenizer.cat_recons.0.bias f4 [6]
0.3934811 0.11692534 0.5377187 -0.013797281 0.112708606 0.058005158
00000000: 5b76 c93e 8d76 ef3d efa7 093f fe0d 62bc
00000010: c5d3 e63d d196 6d3d

Detokenizer.cat_recons.1.weight f4 [7, 4]
0.42362025 0.22381747 0.6787924 0.18982309 -0.5340776 -0.54098034 -0.6133438 0.19358449
-0.5188866 0.18027271 0.59667736 -0.13985528 0.03773711 -0.7632849 0.20444648 0.6630248
-0.28056023 0.22323689 -0.4052091 -0.028436584 0.26794297 -0.15490417 -0.115662895 0.30086473
-0.018379688 0.24508397 0.23420668 -0.5022205
00000000: c1e4 d83e 6830 653e 57c5 2d3f fc60 423e
00000010: 4fb9 08bf b07d 0abf 1904 1dbf 033b 463e
00000020: c1d5 04bf 6999 383e d9bf 183f 3936 0fbe
00000030: 3a92 1a3d a466 43bf 6b5a 513e febb 293f
00000040: 97a5 8fbe 3698 643e 9177 cfbe d7f3 e8bc
00000050: d22f 893e 339f 1ebe abe0 ecbd f10a 9a3e
00000060: 0091 96bc 4bf7 7a3e e0d3 6f3e 8691 00bf

Detokenizer.cat_recons.1.bias f4 [7]
0.20094416 -0.4999403 0.35606775 -0.2275268 0.18296559 0.33321774 0.11573311
00000000: 4ec4 4d3e 2df8 ffbe 834e b63e c9fc 68be
00000010: 555b 3b3e 849b aa3e 7b05 ed3d
