tabsyn/vae/ckpt/news/encoder.pt (torch, 23103 bytes, 33 tensors)

Tokenizer.weight f4 [47, 4]
000000 2b c7 94 bd ff 35 3e 3b a8 5e 38 3e 89 08 9d 3e
       -0.07264551 0.0029023883 0.18004858 0.30670574
000010 af 13 b1 be a1 a7 a9 be 67 dd cb 3e d9 64 38 3a
       -0.3458533 -0.33135703 0.39817354 0.00070340704
000020 c9 64 43 3e 35 65 3b bd 25 11 cf 3e 9d 38 a8 3e
       0.19081415 -0.045750815 0.40442768 0.32855693
000030 36 93 d7 3e 8d 0c 1b 3f 41 a4 34 3f c5 10 88 be
       0.421045 0.60566026 0.7056313 -0.26575294
000040 bf e4 b8 be 3d cf 2a bf 25 65 c1 be 19 5e 1c be
       -0.3611202 -0.6672247 -0.3777248 -0.1527027
000050 85 f4 92 3e b2 93 df 3e b3 93 c2 3e 89 40 7b 3d
       0.2870218 0.4366737 0.3800331 0.061340842
000060 1b fc 4a be d1 23 8b be e4 d7 d6 be 54 be 1c bf
       -0.19822733 -0.27175763 -0.41961586 -0.6122792
000070 7e 56 80 3d 8a b9 55 be 12 c0 9e 3e eb f7 46 3e
       0.06266497 -0.20871559 0.31005913 0.1943051
000080 9d 7a 01 bf b4 ea 05 bf 88 56 94 be 33 8a 39 bf
       -0.5057772 -0.52311254 -0.28972268 -0.724765
000090 ad 83 89 3d d9 e3 2e 3e 5b 7a 8b be 88 be 93 be
       0.06714568 0.17079104 -0.27241787 -0.288563
0000a0 87 9c 7b 3e fa e8 02 be c3 18 8e 3d 9a fa a5 be
       0.24571429 -0.12784186 0.06938317 -0.32417756
0000b0 5d 6d 3f 3e c9 72 4d be 2e cc 5d 3e e5 67 22 3e
       0.18694063 -0.20063318 0.2165992 0.15859945
0000c0 6c 8e 93 be 2d b9 8a be d0 3b de 3e ef 22 60 3d
       -0.28819597 -0.27094403 0.43405008 0.054720815
0000d0 9a f0 f8 bd 08 44 d9 be 07 3f 39 3e 97 5f 2d 3e
       -0.12155266 -0.42434716 0.1809045 0.16930996
0000e0 04 1a ce 3d 4c 93 c8 bd 13 a7 80 3e 81 8a ba be
       0.10063556 -0.0979372 0.25127468 -0.36433795
0000f0 1c cc 86 3d 6c a0 8b 39 72 b2 23 3e 42 39 0b 3f
       0.065818995 0.0002663167 0.1598604 0.54384243
000100 b6 2b ad bc ec 77 ae be d8 1b 74 3e f3 13 81 bc
       -0.021139007 -0.34075868 0.23838747 -0.015756583
000110 da ff 88 be a0 18 89 be 9f ac a1 be 76 d0 34 3a
       -0.267577 -0.267766 -0.31577012 0.0006897518
000120 ea bc 9c be 17 9d 1e 3e 8a 51 72 3e 45 5d 87 be
       -0.3061288 0.15489613 0.23663917 -0.26438347
000130 33 5a f3 be e2 9a 4c be 06 5a da be 55 ae 60 be
       -0.47529754 -0.19980958 -0.42646807 -0.21941502
000140 01 ab 05 3e 63 6b eb 3e a9 06 0b 3e f4 8c 0c be
       0.13053514 0.45980367 0.1357676 -0.13725644
000150 8a 81 cf 3c 3a 8d 36 3e 4f 88 f9 bc 3e 19 09 3e
       0.025330324 0.17827311 -0.030460505 0.13388535
000160 f7 06 9f 3d 28 28 b2 bd e5 44 2a 3e 9b e8 8c be
       0.07765 -0.086990654 0.16627844 -0.27521214
000170 7a 95 cb be 2c 32 bc be b8 e6 c6 be 63 6b 0a be
       -0.3976248 -0.36757028 -0.388479 -0.13517527
000180 20 21 59 3e 10 a3 0f 3d 5a 66 13 be 52 38 02 bf
       0.21204042 0.035067618 -0.14394513 -0.5086719
000190 80 06 b4 bd 5d 09 74 3e 45 46 ba be f9 f0 0c 3d
       -0.08790302 0.23831697 -0.36381736 0.034409497
0001a0 9f 6a ec bd cc e5 83 be 53 3c 70 bd 4d 43 bc be
       -0.11543774 -0.2576126 -0.05865128 -0.36770096
0001b0 c7 c3 16 bd be fd 2a be 95 b8 a6 3e 78 4d 8e 3e
       -0.0368078 -0.16698357 0.325627 0.2779348
0001c0 d6 3a 84 be 48 07 55 be 92 2f 39 bd 29 da 7a be
       -0.25826138 -0.20803559 -0.045211382 -0.24497284
0001d0 9d 25 16 be 1c c9 a2 3d 94 f2 c1 be 9d 58 c3 be
       -0.14662786 0.07948515 -0.37880385 -0.38153544
0001e0 be a3 b4 3d 48 f6 01 be 54 60 35 3e 15 0a d8 3e
       0.08820294 -0.12691605 0.17712528 0.42195192
0001f0 3c 18 63 3e 87 d8 c2 3e 74 de 3f 3e 68 04 76 3e
       0.22177213 0.38055822 0.18737203 0.24025118
000200 68 ea b3 3d ee 84 97 bd 64 01 8a be a4 82 0b bf
       0.08784944 -0.07398401 -0.26954186 -0.54496217
000210 a5 c3 05 bf 2e be 27 bf 4f 06 be be a6 97 54 bf
       -0.52251655 -0.65524566 -0.37114188 -0.830439
000220 d9 df 81 3d 75 c9 fa 3d 62 04 61 be 87 b7 dd be
       0.06341524 0.12245456 -0.21974328 -0.43304083
000230 60 9c ae 3e 4c ee 89 3e fd a4 c6 3e cc cb 8a 3d
       0.3410368 0.2693962 0.3879775 0.067771524
000240 fb fe a6 3e 12 dd ee 3e e0 d6 d2 3e 3a 1c e5 3d
       0.3261641 0.46653038 0.41179562 0.111870244
000250 73 ca 23 be f3 99 1d 3f f1 4e 04 3f bd ef d3 3e
       -0.15995197 0.6156303 0.51682955 0.41393843
000260 a5 68 62 3d ef 91 0c 3e 41 ba 67 be a1 1e cf be
       0.055275578 0.13727544 -0.22629644 -0.40453056
000270 65 1d 88 bd 63 44 83 3c 7e 1a 32 bd e6 ec 16 3e
       -0.066462316 0.01602382 -0.043482296 0.14738807
000280 0b 6b 17 3e f2 62 8b bc d9 d4 71 3e bf 4d 4e be
       0.14786927 -0.017014954 0.23616351 -0.20146845
000290 10 9f e2 bd ca 31 07 3e 89 92 e0 be 7a 21 2c 3c
       -0.11065495 0.13202587 -0.43861797 0.010506028
0002a0 7f fb 13 be 49 82 0b 3d 8e 5d 5a be f8 59 e0 be
       -0.14451407 0.034059796 -0.21324751 -0.4381864
0002b0 23 24 75 be c9 35 13 3b bc b9 78 be 96 81 eb 3d
       -0.23939566 0.0022462478 -0.24289602 0.11499326
0002c0 f4 82 50 be 2e 5e 3f 3d 48 d1 e0 be 87 a3 a1 be
       -0.20362455 0.046720676 -0.4390967 -0.31570074
0002d0 80 5f 4d 3e a2 11 53 3e ff a1 80 3e d5 c2 d4 bc
       0.20055962 0.20612195 0.25123593 -0.02597181
0002e0 87 5d 71 3d 3b 4a b8 3e 48 c5 9d bd 49 cf b8 be
       0.058927085 0.35994133 -0.07703644 -0.36095646

Tokenizer.bias f4 [48, 4]
000000 20 ef 47 3e e3 2b 22 be e5 4f 1a be ed ef 31 3f
       0.19524813 -0.15837054 -0.1506954 0.6950672
000010 b9 9a da 3e 0b 98 9e 3e 90 ab e3 bd e4 54 d8 be
       0.4269617 0.30975375 -0.11116707 -0.42252266
000020 ac c6 fa 3e 8a 95 b1 3e cf 57 03 be 2d be d1 3e
       0.489797 0.34684402 -0.12826465 0.40965405
000030 19 c3 e6 3e fa d4 bd bd e3 f6 20 3f 19 ec 96 3d
       0.45070723 -0.09269138 0.6287672 0.07369251
000040 e8 ef ed be 0f 4b ee be e4 95 7e 3e 84 90 14 be
       -0.46472096 -0.4654164 0.24861866 -0.14508253
000050 22 08 1e 3f 5e 85 ca 3e cb 13 6c 3e 68 34 8d be
       0.6173116 0.39554876 0.23054425 -0.27579045
000060 46 a7 ed be 93 b2 8f be 01 25 30 be 01 30 57 3e
       -0.46416682 -0.2806593 -0.17201616 0.21014406
000070 7d 5b b7 be 06 39 0b 3f 43 65 18 bf 5e 29 b8 be
       -0.35811988 0.54383886 -0.59529513 -0.3596906
000080 9f 41 00 3e 8b 41 80 3e 84 8c 64 be 71 22 e5 be
       0.12525032 0.25050005 -0.22319227 -0.4475284
000090 fb 0a 0d 3e 77 6d 10 3c b8 41 49 be 29 71 1b bd
       0.1377372 0.008815161 -0.19653976 -0.037949715
0000a0 8c 70 82 3e 77 b7 38 3e d7 88 e6 bd 5c 13 24 3f
       0.2547649 0.18038736 -0.11256569 0.6409204
0000b0 c0 ca 59 3d 0f f1 9a be 70 32 9c be 76 7b 0d 3f
       0.053171873 -0.30262038 -0.3050723 0.5526651
0000c0 a4 95 ab be bb 70 cc 3e d7 29 11 bf 31 9f a9 3e
       -0.33512604 0.39929757 -0.5670447 0.33129266
0000d0 90 09 1c be 95 a3 33 3d c8 21 88 3f 36 16 48 be
       -0.15238023 0.043857176 1.0635309 -0.19539723
0000e0 d1 da f2 be 84 2f 88 3e 57 62 b2 be 9a 9e f8 be
       -0.4743257 0.26598752 -0.34840652 -0.48558503
0000f0 4b ea a3 be 35 09 41 3d 4c d4 6c be f3 b1 3d 3f
       -0.3201469 0.04712792 -0.2312786 0.74099654
000100 87 6d 95 3e e5 c4 16 bf 8e 3a ba 3e fe 8f ba 3b
       0.29185125 -0.5889419 0.363728 0.0056934347
000110 7a 9a 15 bd 67 39 e5 3e 3c 6d 3f be 1e e7 e3 3e
       -0.036524273 0.44770357 -0.18694013 0.44512266
000120 8b 2d 94 be d6 9d a4 be 18 b9 11 3f dd f7 32 3e
       -0.28940997 -0.3215167 0.56923056 0.17477365
000130 21 45 15 be 1e 0f 00 bc 4c 5f be bd 74 e2 a3 be
       -0.14577152 -0.007816104 -0.0929552 -0.32008708
000140 e0 c0 fb be 8d 0f a0 be d7 5b 2f 3f f2 84 e7 3d
       -0.4917059 -0.31261864 0.6849951 0.11304654
000150 b1 0a cb 3d 1e 94 3b bf 62 cd 3d be 00 2c 0f bd
       0.099141486 -0.73272884 -0.18535379 -0.03495407
000160 19 37 a9 bd 3c d7 89 be 0a f5 cb 3e e3 36 18 3e
       -0.08262462 -0.26922023 0.39835387 0.14864688
000170 52 02 01 3e 9e 4a d3 3e 4d 8c ed bd 9a 13 99 bd
       0.12598541 0.41267866 -0.11599026 -0.07474442
000180 ae 6c 86 be ed a4 bd 3e 4d 27 02 bd 83 d5 8f 3e
       -0.2625479 0.3703989 -0.03177576 0.28092584
000190 59 95 b0 3d e5 2b 0a bf 09 34 0f be 1b 99 ff 3e
       0.08622236 -0.5397323 -0.13984694 0.49921498
0001a0 70 37 97 3e 01 2b 1b 3f ef 9a 89 3e 26 90 66 be
       0.29534483 0.60612494 0.26876017 -0.22515926
0001b0 03 02 15 bf e5 e5 b2 3e 4e 45 a0 be 8f 0f 15 3e
       -0.58206195 0.3494102 -0.31302875 0.14556716
0001c0 98 6c 41 3f e8 b8 bb 3d 94 fd d5 3d 69 74 e6 be
       0.75556326 0.091661274 0.10448757 -0.4501069
0001d0 eb 3a 44 be 6f 2c 12 3f 04 09 74 bd 17 f3 5d be
       -0.191631 0.5709905 -0.05957891 -0.21674763
0001e0 7f 04 0a 3f 53 3f 28 3e a1 90 2b bf 59 b6 3f 3f
       0.5391311 0.16430406 -0.6701756 0.74887615
0001f0 52 05 83 3f 08 fb a4 be 07 46 21 be 31 50 0a 3d
       1.0235999 -0.32222772 -0.1574937 0.033767883
000200 a4 d3 1b 3f b1 7e be 3e c5 59 a6 be 44 1e c4 be
       0.6086981 0.37206033 -0.32490364 -0.3830434
000210 53 39 13 3f c9 18 cc 3e 43 e1 19 bd 18 70 76 be
       0.57509345 0.3986266 -0.037568342 -0.24066198
000220 49 45 89 3e 87 49 15 bf 6d 8c a0 3e be a6 8c 3c
       0.26810673 -0.5831532 0.31357136 0.017169353
000230 4a 7c 00 be f0 02 3a be 4e 53 0e 3f 07 cf 8b 3e
       -0.12547413 -0.18165183 0.5559586 0.27306387
000240 db d4 1f 3f 09 4b 87 be 3f 2e 80 bd 8e 74 2e bf
       0.62434167 -0.26424435 -0.06258821 -0.681466
000250 7f dc 22 3e a2 ae 19 3d 7b 76 ad be f5 ca e6 be
       0.15904425 0.03752006 -0.33879456 -0.4507672
000260 03 6f 05 bf 6a 1a 5f 3e fe f9 b4 3e 3a 97 b3 be
       -0.52122515 0.2178742 0.3534698 -0.35076314
000270 81 9c 37 3e 74 c6 26 bf 15 93 bb bd db 68 25 3b
       0.17930795 -0.65146565 -0.09158913 0.00252395
000280 88 46 29 3e 9a af 02 3e b5 2a a5 3e 0c d2 e4 3d
       0.16530812 0.12762299 0.32259145 0.11172876
000290 33 b5 17 3f 61 09 f6 3e 6a 6b c0 3d 3b f5 b1 bd
       0.59260863 0.4805403 0.093954876 -0.08689352
0002a0 47 ed 56 bd d9 c5 04 3f db 80 ef 3e b6 89 9b 3e
       -0.05247238 0.5186439 0.46777996 0.30378503
0002b0 04 d7 59 be 3d 5b a9 bd a6 c9 b9 3d 48 45 cf 3e
       -0.21273428 -0.082693554 0.090716645 0.40482545
0002c0 75 e3 46 3e 1b c1 45 be 22 29 d7 3e 6b 6e 06 3e
       0.19422705 -0.19311945 0.4202357 0.13128059
0002d0 cc f7 be bd ca 9d a7 3e f4 cb 89 be 1f ac e0 be
       -0.09324607 0.3273757 -0.26913416 -0.43881318
0002e0 5b ed ac be d9 47 44 be cb 44 ce be 28 51 4b be
       -0.33774838 -0.19168033 -0.4028686 -0.19855177
0002f0 95 43 14 3d cf 7b 92 3d 07 33 19 bd 18 ff 21 be
       0.036197264 0.07152521 -0.03740218 -0.15819967

Tokenizer.category_embeddings.weight f4 [13, 4]
000000 b6 c6 c7 3d 0f ae c5 3d 67 e6 86 3e 6b eb 00 3f
       0.09754698 0.0965234 0.26347658 0.5035922
000010 94 1b 1b 3e 5e 73 05 3f 27 d5 a5 be 9a 89 a8 3e
       0.15147239 0.5212916 -0.32389185 0.32917482
000020 91 e1 1b 3d f2 81 80 3f 88 25 ce 3c 15 3d 95 be
       0.038056914 1.0039656 0.02516438 -0.29148164
000030 c0 01 9c be 92 81 f8 be 1f 54 a5 3b ab 07 09 bf
       -0.30470085 -0.48536354 0.0050454284 -0.53527325
000040 4e 0d 72 be 54 83 5d 3e 3f 2e cf 3e c9 24 b0 3e
       -0.23637888 0.21632129 0.4046497 0.34403065
000050 0b ee cf be 00 4b 1b 3f 31 ff 60 3e 60 ab 62 be
       -0.406113 0.60661316 0.21972348 -0.22135687
000060 16 fb 43 3e c5 a3 79 be b6 e6 94 3e 55 64 0a 3f
       0.1913875 -0.2437888 0.29082268 0.54059345
000070 60 68 3f 3d 83 0b e1 be 67 02 2d bf a5 e1 a2 be
       0.0467304 -0.43954095 -0.6758179 -0.31812778
000080 95 b4 20 3f ac 10 12 3f d6 38 4a be ea 46 83 be
       0.62775546 0.5705669 -0.19748244 -0.2564004
000090 9b 97 f4 3d 8f a0 b5 3e a4 26 24 3f c2 79 04 bf
       0.11942979 0.3547406 0.6412146 -0.5174829
0000a0 83 d4 2d be 62 5e 33 be 74 94 12 3e 54 70 0b 3e
       -0.16975598 -0.17516473 0.14314443 0.13617069
0000b0 b2 96 5f 3e 80 86 b7 3e 0a 20 1f bf 23 6b d9 3e
       0.2183483 0.35844803 -0.6215826 0.4246455
0000c0 74 d9 0f bf 76 8d 9d be 5f a1 ee 3d f6 a6 82 be
       -0.5619118 -0.3077199 0.11651873 -0.25518006

VAE_Encoder.layers.0.attention.W_q.weight f4 [4, 4]
000000 c1 24 43 3c 3b 09 31 be de 76 ac bd d9 bf 49 3e
       0.011910618 -0.17288677 -0.084211096 0.1970209
000010 f9 45 e8 3d c0 41 41 be 25 d2 9f 3d 5e 19 cf bd
       0.11341471 -0.18872738 0.07803754 -0.1011226
000020 d9 ce c0 3d e7 7f 6e be f7 a7 04 3d 32 96 38 3d
       0.09414453 -0.23290978 0.032386746 0.045065112
000030 85 f7 18 bd 80 20 b2 3e be 8b 8c be ae fa be be
       -0.037345428 0.3479042 -0.27450365 -0.37300628

VAE_Encoder.layers.0.attention.W_q.bias f4 [4]
000000 0a f7 f3 be 03 cf 38 3d 6b 91 7c bd 69 a5 3c bc
       -0.47649413 0.045119297 -0.06166212 -0.011514046

VAE_Encoder.layers.0.attention.W_k.weight f4 [4, 4]
000000 8c 37 f2 be 46 1f c0 3e 51 a7 80 be cd 9a ab be
       -0.47308004 0.3752386 -0.25127652 -0.3351654
000010 3d 6d 8d 3e 03 75 61 bb 0c 77 84 3d 3e 25 e0 bd
       0.27622405 -0.003440202 0.06468019 -0.109446034
000020 9f 35 88 3e fd fb a2 3e d8 2f ab be c4 5b 8c 3d
       0.2660341 0.31832877 -0.3343494 0.068534404
000030 47 83 eb bb d9 d4 45 3e a6 fd de 3d 57 5a bf be
       -0.0071872803 0.19319476 0.10888223 -0.3737361

VAE_Encoder.layers.0.attention.W_k.bias f4 [4]
000000 03 07 58 b9 42 ec 1a b9 00 d4 7c b9 70 d0 12 b9
       -0.00020601977 -0.00014774597 -0.00024111569 -0.00014001294

VAE_Encoder.layers.0.attention.W_v.weight f4 [4, 4]
000000 b2 bc 13 bd ce ab 2c 3c 7c b1 aa 3d 5f e6 0e bd
       -0.036068626 0.010539008 0.08334634 -0.034887668
000010 8a 47 14 bd d7 c2 2b 3c bb 91 aa 3d c3 78 0e bd
       -0.036201037 0.010483465 0.08328577 -0.034783136
000020 6e 18 10 bd 4e 7d 36 3c 3f e7 aa 3d 82 8d 11 bd
       -0.035179548 0.011138273 0.08344888 -0.035535343
000030 2d 42 14 bd 99 c7 30 3c fb 0b ab 3d e0 e2 0f bd
       -0.036195923 0.010789775 0.083518945 -0.035128474

VAE_Encoder.layers.0.attention.W_v.bias f4 [4]
000000 29 eb 48 bd 58 3a 2a 3d f1 54 81 bd 8d 4c 88 3d
       -0.04905239 0.041559547 -0.063150294 0.06655226

VAE_Encoder.layers.0.linear0.weight f4 [128, 4]
000000 d4 d9 fc 3e 37 55 85 3d 58 56 19 3d d5 2f 94 3e
       0.4938494 0.06510394 0.03743586 0.28942743
000010 e7 28 9c be 3d fc ca bd fe 5d da 3e 68 ad a9 3e
       -0.30499956 -0.09911392 0.42649835 0.3314011
000020 9a 12 f6 bd 37 77 ee 3c 45 90 00 3f 6b c2 3b be
       -0.12015267 0.02910958 0.5022014 -0.18335883
000030 f9 ad ce be b0 f0 ef 3e a6 79 7e 3e 86 ef b3 be
       -0.40367106 0.46863317 0.24851093 -0.3514368
000040 c6 31 ab 3e 4a dd 8f 3e 8b 50 7d 3e 19 b1 b2 3e
       0.33436412 0.28098518 0.24737756 0.3490074
000050 67 2f 05 3f a4 8a 2c be f2 27 91 3e 27 82 42 3e
       0.52025455 -0.16849762 0.28350788 0.18994962
000060 c8 19 74 be 57 fb 94 3d 8b 33 a6 be ee 99 35 3e
       -0.2383796 0.07274502 -0.324612 0.17734501
000070 f5 b4 69 3e 4e b1 db be 2e 06 c4 bb 5e 71 ed 3e
       0.22822936 -0.4290871 -0.005982182 0.46375555
000080 25 6e ed 3e 43 fa e9 bd c8 0d f8 be 6e 00 35 3d
       0.46373096 -0.11424687 -0.48448014 0.044189863
000090 57 1b ab 3e 80 73 75 3d 81 db a5 be 34 b9 85 3e
       0.33419296 0.059924603 -0.3239403 0.2611786
0000a0 90 e7 f1 be 59 50 5c 3e 05 21 47 be eb ba 03 3e
       -0.4724698 0.21515025 -0.1944619 0.12864272
0000b0 59 c3 c8 3e 68 cb d1 be 06 a6 57 bb 13 6c 9e 3d
       0.39211538 -0.409755 -0.0032905354 0.07735457
0000c0 00 7b 63 3e 7f 0a ba 3e 7f f5 c3 3e 88 37 ad bc
       0.2221489 0.36336133 0.38273236 -0.021144643
0000d0 f3 16 80 3e ca 5b 9f 3e 9d 60 91 3e d7 46 48 be
       0.2501751 0.31124717 0.28394023 -0.19558273
0000e0 91 7d a3 be 40 ea ff 3e 74 9c b7 be ff 97 8e be
       -0.31931737 0.49983406 -0.35861552 -0.2785034
0000f0 42 e9 0f 3f 05 0a dd be 56 4d b6 be 4a b1 a4 3e
       0.562153 -0.43171707 -0.35605878 0.3216651
000100 f9 c3 0e 3e 9b fd 42 be c5 58 89 3e a0 7a 92 bd
       0.13941945 -0.19042055 0.26825538 -0.07152295
000110 36 ae 4e 3e 23 2d 08 bf d2 00 88 be 65 b7 98 3e
       0.20183644 -0.53193873 -0.26563126 0.2982742
000120 fc 3f 34 3d 2f b2 d4 3e 5e 1d 55 be 60 01 37 be
       0.044006333 0.41542193 -0.20811984 -0.17871618
000130 5f 30 ba 3e cd 9c ad 3c 67 3a 90 be 79 b8 e1 3e
       0.3636503 0.021192933 -0.28169557 0.44086054
000140 fb a2 60 3c a5 e5 80 be 69 a5 d6 3e 77 79 6e 3d
       0.013710733 -0.25175205 0.41923073 0.058221307
000150 90 f4 6b be 89 f4 10 3e 46 c0 eb 3d 73 28 01 3c
       -0.23042512 0.14155783 0.115112826 0.007883179
000160 72 ab 95 3e 15 e6 7f be 9e 7e d3 be fa 50 c3 bd
       0.29232365 -0.24990113 -0.4130754 -0.095369294
000170 8a 9c 8a be 64 c3 aa 3c 20 20 bf be 7d 2b 50 bc
       -0.27072555 0.020845123 -0.37329197 -0.012705681
000180 20 74 e8 3e 58 82 f3 3e 8c cd c7 3e e6 c7 cf 3e
       0.45401096 0.47560382 0.39024007 0.40582198
000190 e2 53 0e bf 38 7c d6 be ec 28 d0 3e 13 68 50 be
       -0.55596745 -0.41891646 0.4065622 -0.20352201
0001a0 ec 50 24 bf b1 f9 81 3e 26 9d 8e be 9c e2 cb 3d
       -0.64185977 0.25385812 -0.2785427 0.09955332
0001b0 48 fb c4 3d 10 37 e5 3e a4 cc 0b be c1 82 fe 3d
       0.096182406 0.44768572 -0.13652283 0.12427283
0001c0 5c af d0 be fa bf d0 3e e8 d6 08 3f 54 af 9f be
       -0.4075879 0.40771466 0.5345292 -0.31188452
0001d0 08 61 a5 3d fa 32 07 bf dd b8 a3 3e bc e5 eb bd
       0.08075148 -0.5281216 0.31976977 -0.11518428
0001e0 c6 82 7b 3f 52 f2 cd bd d1 9d 4a be 0b cb 95 be
       0.9824642 -0.100559846 -0.19786765 -0.29256472
0001f0 19 c4 ba 3e f2 cb 15 bf e5 1e d0 3e cc b8 da 3a
       0.36477736 -0.5851432 0.4064857 0.0016687154
000200 e1 61 ed 3e 6f da 23 bf 73 ac 09 3e 0d 10 ad be
       0.46363738 -0.6400518 0.1344469 -0.33801308
000210 96 b9 38 bd 89 df e7 3d 9c 5c 14 be 82 87 bd bd
       -0.045098864 0.11321933 -0.14488453 -0.09254362
000220 93 d8 e4 be fe 34 14 be 63 69 0f be 5a e1 96 3e
       -0.44696483 -0.1447334 -0.14005046 0.29468805
000230 de fe 1f 3e 95 61 c2 be d3 6b cd be 9e 35 3b be
       0.15624568 -0.37965074 -0.40121326 -0.18282172
000240 57 fd cb 3e c9 27 05 3e 61 e9 bd be 23 06 ed be
       0.3984172 0.13003458 -0.37092116 -0.46293744
000250 33 c4 d1 bc 0a 23 3f 3e c9 3c 91 3e 5d 97 90 be
       -0.02560625 0.1866571 0.28366688 -0.2824048
000260 6f 49 ba 3e 7c 8c c9 3e 0b a6 32 3e 6a 17 19 be
       0.3638415 0.39364994 0.17446153 -0.14950338
000270 b5 13 57 bd 91 30 f7 bc 2d 2c f1 3e 21 e0 14 3d
       -0.05250903 -0.030174525 0.47104016 0.03634656
000280 96 15 1a be cf 55 fe bd 3a 96 55 bd b2 a0 07 3f
       -0.15047297 -0.124187104 -0.05214522 0.52979577
000290 ac c3 8c bd 44 3f 07 3f a5 c7 27 be 73 04 99 3e
       -0.06873259 0.5283091 -0.16384752 0.29886207
0002a0 93 d8 e0 be 7b c9 c5 be 62 4f b5 3e ef ef e4 be
       -0.43915233 -0.3863028 0.35412127 -0.44714305
0002b0 21 2c 92 3e 98 56 9b 3e 31 5a 26 3e cd 64 ea bd
       0.28549293 0.30339503 0.16245343 -0.114450075
0002c0 d5 0a ab be c0 08 0e 3f c4 ed 51 3d 5e 8b 51 be
       -0.33406702 0.554821 0.05125214 -0.2046332
0002d0 f9 4f c0 be 94 28 a7 3e fb 85 45 be ca 88 96 be
       -0.37561014 0.32648146 -0.1928939 -0.29401237
0002e0 36 7d 91 3e c5 64 a3 be 08 83 0f 3e 08 aa 80 be
       0.2841584 -0.3191282 0.14014828 -0.25129724
0002f0 bd 07 7d 3e ce 8c 05 3e 91 1e 78 be 01 d4 c7 3e
       0.24709983 0.13041994 -0.2423041 0.39028934
000300 b3 e9 18 be 4f d0 e8 be 60 1a 48 be 9b bb c6 be
       -0.14932899 -0.45471427 -0.19541311 -0.38815007
000310 7a e2 17 be 51 ec 0c 3c 67 de a1 be ce 1b 2c 3e
       -0.14832488 0.008601264 -0.31614992 0.16807482
000320 ee c9 c1 be 54 9c 01 bf 00 c0 9e 3e ec 3f f1 bd
       -0.37849373 -0.5062916 0.3100586 -0.1177977
000330 85 db 9c 3e b1 26 cc bd e9 fa 25 3e 30 66 8b 3e
       0.3063623 -0.09968317 0.16208996 0.272264
000340 47 62 23 be 48 db fe 3e d8 45 be 3d 1f cb 8c 3e
       -0.15955459 0.49776673 0.092906654 0.2749872
000350 6a d0 0f bf be f0 1a 3e 3c 01 b2 3d 66 ff e5 bd
       -0.5617739 0.15130898 0.08691642 -0.11230354
000360 58 0c 4d 3d 73 12 06 bf 89 2f 8b 3e 4e 7c b2 3e
       0.0500606 -0.523719 0.27184704 0.34860462
000370 79 4b 00 bf bc 1f 01 bf cb 2e ce 3e bf d6 d0 3e
       -0.5011516 -0.5043905 0.40270075 0.40788838
000380 92 d8 34 3e 15 3a 6c be 6a 99 6e be 85 95 ed 3d
       0.1766074 -0.23069032 -0.2330071 0.11600784
000390 7c 18 02 bf 73 fa 53 3e ac a0 65 be 98 c2 87 be
       -0.5081861 0.20701008 -0.22424573 -0.2651565
0003a0 23 0d ef 3d 24 1c 6e bd eb 59 d0 3e fe 58 a1 be
       0.116724275 -0.058132306 0.40693602 -0.31513208
0003b0 d6 3b fa be 6c 21 ca 3e ad df a7 3e 7e 01 03 3f
       -0.48873776 0.39478624 0.3278784 0.5117415
0003c0 28 78 83 3d 97 96 55 3e 48 2b 3a be cb 40 e4 be
       0.06419402 0.20858227 -0.18180573 -0.44580683
0003d0 4c ac cc be ed 91 21 bf 5e 5b 51 3f 9b d0 b5 3d
       -0.39975202 -0.6311329 0.8178004 0.08877679
0003e0 50 08 cf be 8e 4c 9a 3e e6 b3 3f bd 99 68 41 3e
       -0.4043603 0.30136532 -0.046802424 0.18887557
0003f0 60 6a b3 bd 5f 80 a2 be 88 94 9b 3e 4a fa 7d be
       -0.08760524 -0.31738564 0.30386758 -0.24802509

VAE_Encoder.layers.0.linear0.bias f4 [128]
000000 75 0a 13 be 1d a7 f3 3e d8 f6 f3 be 3e 2a ca 3d
       -0.14359458 0.47588435 -0.47649264 0.09871338
000010 91 ac b0 be 5a f3 70 be 84 49 8f 3e c3 ff ab 3e
       -0.34506658 -0.23530331 0.27985775 0.33593568
000020 4e a9 8e be 20 36 07 3f 98 4e 8c 3e d6 54 b4 bd
       -0.27863544 0.52816963 0.27403712 -0.08805244
000030 fa bd 2b be 5b b0 86 3e 6f 62 1f be 13 f6 07 3e
       -0.16771689 0.26306424 -0.15564893 0.13277464
000040 c9 3b be be 81 1d 9d 3d bb a1 f3 3d 63 11 10 bf
       -0.37154987 0.07671643 0.11896082 -0.5627653
000050 f5 4c 13 bf ed 96 cb be 95 25 c7 be d7 e2 59 3d
       -0.575393 -0.39763585 -0.3889586 0.053194847
000060 e4 b1 fe be 4f ca 8b be ad e1 b4 3e 40 69 01 be
       -0.49745095 -0.27302787 0.35328427 -0.12637806
000070 eb 54 b5 bd c3 99 83 be f2 42 28 be 0b 7d 5c be
       -0.088540874 -0.25703248 -0.16431788 -0.21532075
000080 2a 70 78 3d 92 8c cd be 5e 76 60 be 32 fa 95 be
       0.060653843 -0.4014631 -0.21920153 -0.29292446
000090 29 a1 c4 be a0 f3 43 3c 9f 23 ae bc 43 b2 bf 3e
       -0.38404205 0.01195994 -0.02125722 0.3744069
0000a0 d2 f2 10 bf 80 b9 b8 3d b8 56 8c be 3c 6a fe 3e
       -0.56620514 0.09019756 -0.2740991 0.49690425
0000b0 5f 20 9f be b2 b5 8f 3b ba 0a 86 3d 2b 0a ab be
       -0.31079385 0.0043856734 0.06545015 -0.33406195
0000c0 ad a6 96 be 9c 09 73 3e db 58 3d be aa 45 b4 3e
       -0.2942404 0.23734134 -0.18490927 0.352094
0000d0 da 62 bd bd 4b f4 0c 3e e1 81 82 be a4 6c 14 bf
       -0.0924737 0.13765065 -0.25489715 -0.5797827
0000e0 ea 89 f6 3d df 49 b8 be 44 3d 62 be 31 7a d2 be
       0.12038024 -0.3599386 -0.22093683 -0.4110885
0000f0 27 f0 20 be d0 cd 66 be a2 06 00 bf 10 5e 18 3d
       -0.15716611 -0.22539449 -0.5001012 0.03719908
000100 f6 ff ce 3e 84 c4 08 bf b6 35 04 bf d4 ff 8b 3e
       0.40429658 -0.5342486 -0.51644456 0.2734362
000110 8a 99 7d be 45 46 c9 3e 92 77 e2 bd d4 9a 94 3d
       -0.24765602 0.39311424 -0.110579625 0.072560936
000120 ec 14 93 be 9c 1f a0 3e 60 87 94 be 99 48 67 be
       -0.287269 0.31274116 -0.29009533 -0.22586288
000130 fe 94 a5 3e 76 63 4a be 17 93 94 be d1 21 8b be
       0.32340235 -0.19764504 -0.2901847 -0.27174237
000140 e2 8e 39 be 26 5d 45 bd 01 47 9d be 51 d6 92 3e
       -0.18120912 -0.048184536 -0.30718234 0.28679135
000150 ab 2b 01 bf 46 5c 6e 3d ea 93 79 be 1e 4e 26 3e
       -0.5045726 0.058193468 -0.24372831 0.16240737
000160 85 6a b6 be 5a e1 38 3d 7d f0 a1 bd 01 60 e3 be
       -0.35628143 0.045136787 -0.079071976 -0.44409183
000170 aa 9d b1 bd 74 53 d6 bd 3e 02 b5 3e 4b 5d f6 be
       -0.0867265 -0.10465136 0.35353273 -0.48118052
000180 37 8a 93 be 3f f9 83 be dc cb b1 3c c2 77 81 3e
       -0.28816387 -0.25776097 0.021703653 0.2528668
000190 60 15 0f be 03 52 04 3f 85 6c a2 be 76 84 92 3e
       -0.13972998 0.5168764 -0.3172342 0.28616685
0001a0 74 a6 90 be da 5d 5b 3d d3 c0 4d 3e f1 7c cf be
       -0.28251994 0.0535563 0.20093088 -0.4052501
0001b0 5b d9 07 3e 5a 78 b8 3e 61 7e e4 be cf 80 cf be
       0.13266508 0.3602932 -0.4462767 -0.4052796
0001c0 aa d0 03 bf 92 59 12 3d 3f 62 a9 3e f9 cb 01 3f
       -0.5149027 0.035729952 0.33082768 0.5070186
0001d0 2a a2 e9 3e 56 06 a3 3c fd 46 d0 be 3a 69 2a bd
       0.45631534 0.019900482 -0.4067916 -0.041604258
0001e0 a2 0c 9a 3e a4 b1 e8 3e d7 8c 9f 3e 96 6f 0e 3e
       0.30087763 0.4544803 0.3116214 0.13909754
0001f0 87 ad b7 bc 3f dc 6c be 1e fb ed be ad 1a 38 bc
       -0.022421611 -0.23130892 -0.4648065 -0.011236829

VAE_Encoder.layers.0.linear1.weight f4 [4, 128]
000000 b8 7d ab 3d 01 2e 11 be c1 ce b2 bd 92 13 b3 bd
       0.08373588 -0.14177705 -0.087308414 -0.08743967
000010 92 af 9c 3c cc bc 6d bc 0e 0d b2 3c 66 ec c9 3d
       0.019126687 -0.014510345 0.02173474 0.098595425
000020 5a ba 91 3d d8 86 89 3d 51 69 41 3e cc 08 b9 bd
       0.07115622 0.067151725 0.18887831 -0.09034881
000030 ea 85 97 bd 30 be 18 bd 95 87 1f 3e ae cc ed bb
       -0.07398589 -0.037290752 0.15579064 -0.0072570657
000040 bb 08 c7 bd b8 01 98 bd ef 0a dd 3d d6 30 54 bd
       -0.09718462 -0.07422203 0.10793101 -0.051804386
000050 e5 48 08 3e bc e0 b4 be f4 c3 c7 3d 37 a3 54 3d
       0.13309057 -0.3532771 0.09754172 0.051913466
000060 e8 29 85 bd 4a 02 04 3e 90 c9 02 3e 74 a3 23 3e
       -0.065021336 0.12891498 0.12772202 0.15980321
000070 0f 44 b8 3c 00 89 81 be e0 f0 a7 3d 41 24 a7 bc
       0.02249339 -0.25299835 0.0820024 -0.02040303
000080 98 0e 30 bc 34 bc 27 bf 10 52 29 3e 90 8b 7a bd
       -0.010745667 -0.6552155 0.1653521 -0.061168253
000090 14 87 1d be 92 23 5f bd 29 43 1b 3c 2a 82 43 be
       -0.1538356 -0.054477282 0.009476461 -0.19092622
0000a0 09 7f fb 3d c3 02 0c 3e fe 0a 1a bd 77 c6 63 3d
       0.122800894 0.13672929 -0.03760814 0.055609193
0000b0 5e 09 98 3d 59 05 6e 3d 4e 12 1b 3d be 14 e9 3c
       0.07423662 0.05811057 0.037859254 0.028452273
0000c0 ef c7 ec 3d 44 ec 4f bc ac 9d 0c be c1 ad 10 3d
       0.11561572 -0.012690607 -0.13732022 0.035321955
0000d0 7e f5 15 bd 66 b4 c8 3c 41 42 e8 bb b4 bf 2d 3d
       -0.036611073 0.024500083 -0.007087976 0.04241915
0000e0 82 da f7 3c c0 74 80 bd 3d 3f a2 bd 00 e9 9a bd
       0.03025556 -0.06272268 -0.07922218 -0.075639725
0000f0 84 0a e8 3c ce db 91 bd 2f 90 91 bb 58 60 02 be
       0.028325327 -0.071220025 -0.004442237 -0.12732065
000100 65 49 77 bd 55 00 ec bd f9 2e 78 be 25 40 98 bd
       -0.06037273 -0.11523501 -0.24236669 -0.074341096
000110 72 36 d4 3d bc b1 81 bc 80 16 38 bd d7 c4 11 3d
       0.10361947 -0.01583182 -0.044943333 0.03558811
000120 a9 09 12 3e 73 21 2c be 93 65 c0 3e 9b 9f 47 be
       0.14261498 -0.16809635 0.37577495 -0.19494478
000130 f3 1d e5 3c 07 63 b6 3c e5 a0 a0 3d 0f 92 37 bc
       0.027968382 0.022264017 0.07843188 -0.011204257
000140 21 23 57 3c 8e 81 ad bc 35 ab 78 3d f4 3d f9 bd
       0.013130934 -0.02117994 0.06071015 -0.1217002
000150 ab 45 b3 3c 19 f0 9f 3d 73 af 28 3e d7 af 44 3d
       0.021883806 0.07809467 0.16473179 0.048019256
000160 db 6b 09 3e 42 6b d9 bd 2c 8a c0 bc 13 b5 ad be
       0.1342005 -0.10616161 -0.023503385 -0.3392721
000170 10 e5 b3 b6 ee 8c 3e 3d b2 dc 35 bd 21 4f b4 3d
       -5.361282e-06 0.04652112 -0.044399925 0.08804155
000180 f9 4c 93 3d 0d 76 d3 3c 5a 70 16 be 3f a1 10 be
       0.07192416 0.025813127 -0.14691296 -0.1412401
000190 0c d4 64 be b5 4c 9c bd 01 f5 17 be 54 aa 04 3e
       -0.22346514 -0.07631818 -0.14839555 0.129556
0001a0 98 0e 93 3d 55 0a b1 3d 4c 40 40 bd 61 e1 e3 bd
       0.07180518 0.08644549 -0.04693632 -0.11126972
0001b0 cb b0 a2 3d 75 5c 9f bd 39 af 53 3d 27 82 cf bd
       0.07943877 -0.07781307 0.051680777 -0.101322465
0001c0 48 9b 06 bd 93 3c b8 3d 15 1f 32 bd f5 35 b3 3d
       -0.03286293 0.089959286 -0.043486673 0.08750526
0001d0 88 f7 2e 3e df 03 04 3e 8e a2 cb 3d 21 00 0f 3c
       0.17086613 0.12892102 0.09943114 0.008728058
0001e0 d1 de 2a 3e a5 eb 0a be 31 fd 55 3c 6c 75 dc bd
       0.1668656 -0.13566454 0.013060854 -0.10764584
0001f0 93 2e 57 be 37 81 69 3d 8e 71 76 3e 75 9d 75 3d
       -0.2101386 0.057007995 0.24066755 0.059964616
000200 c2 1e 23 be f8 18 06 bd 83 c1 c2 3d 33 33 9b bd
       -0.15929702 -0.032738656 0.09509566 -0.07578125
000210 18 6d 35 bd f6 a2 56 3e 7f 05 14 3d 03 68 04 3d
       -0.044293493 0.20960602 0.036138054 0.032325756
000220 dc b4 7a 3d bf 52 44 3c 54 d4 39 bc d8 6c 54 3d
       0.061207637 0.011982619 -0.011342127 0.051861614
000230 48 26 f5 bd da 32 1a be cf ec ad bd c8 d6 24 3e
       -0.11970192 -0.15058461 -0.08492433 0.16097558
000240 9d c1 1f bd 3b dc 31 bd a8 ce 81 bc 5a be 8d 3d
       -0.039003003 -0.04342292 -0.015845612 0.06921072
000250 96 7e 33 be 20 7f 05 be 49 f0 a3 3c 65 f3 6a bd
       -0.17528757 -0.13036776 0.020012038 -0.057361025
000260 0e 3e a2 bd 79 d0 8d 3e b3 d7 59 bc 26 76 b4 3d
       -0.07921992 0.27698115 -0.013296056 0.088115975
000270 eb ad e2 3d bb 01 8d bd 56 ba 1a be 9e 33 13 3e
       0.110683285 -0.06885096 -0.15110144 0.14375159
000280 72 5f 9a bd 4c 12 9c bf 18 89 9b bc a1 c2 fe bd
       -0.07537736 -1.2193084 -0.01898627 -0.12439466
000290 fa 42 41 bc 32 85 39 3d b6 04 fa bd c1 cd 5a 3d
       -0.011795754 0.04529304 -0.1220793 0.05341888
0002a0 4e 38 07 3d a0 f2 84 bd 61 6f 37 3d 56 81 22 be
       0.03301268 -0.064915895 0.044783954 -0.1586965
0002b0 7e 37 10 be 11 9e 1a be e1 0d d7 3d 2c 05 ad bc
       -0.14083669 -0.1509936 0.10500694 -0.02112063
0002c0 4e c1 60 3d 91 dd 9b 3c 1e f0 6d 3e 99 45 55 bc
       0.05487185 0.01902655 0.23236129 -0.013017082
0002d0 e5 12 0a bd b6 68 af bd 82 3b 62 be 0c cd b2 3d
       -0.033709425 -0.08564894 -0.22093013 0.08730516
0002e0 d6 e0 d2 3d 87 6c 21 be fe dd ab bd 02 b7 22 bd
       0.1029679 -0.15764056 -0.08391951 -0.03972531
0002f0 67 e3 ab bd 83 0b 94 3e 8e 98 1b be 4d 26 64 bd
       -0.08392983 0.28915033 -0.15194914 -0.05570059
000300 ab 5f 42 be 9a 7c 8e 3c d4 78 87 bd 10 b6 16 be
       -0.18981807 0.017393399 -0.06614843 -0.14717889
000310 7b f7 ca bc 6f 60 e9 bd 06 23 ac bd e0 b3 e1 3c
       -0.024776211 -0.113953464 -0.08405118 0.027551591
000320 83 2e 96 3d 67 2a d8 3c 08 ea 6c bd 5a 2e c4 bd
       0.0733309 0.026387407 -0.057840377 -0.09579153
000330 1b d1 c5 bd 8e 26 ca bd 37 a5 00 bd 4d aa 65 3e
       -0.09659024 -0.09870635 -0.03140756 0.22428246
000340 ed d3 c1 bc 83 46 60 bd ea f5 3d 3e 8f a2 7c 3c
       -0.023660624 -0.054754745 0.1855084 0.015419616
000350 80 3f f8 bd 02 e9 af 3d d8 e2 6d 3d e9 55 11 bd
       -0.12121487 0.085893646 0.058077663 -0.03548232
000360 a4 28 bd 3c 6c f6 f7 bd 43 14 45 bc 63 d2 5d be
       0.023090668 -0.12107548 -0.012028757 -0.21662287
000370 8c 3d c6 3c db 34 28 3d 5d 65 72 be 79 af 3a be
       0.02419927 0.041066032 -0.2367148 -0.18231
000380 12 45 e7 bd 87 85 a2 3d 90 6e 3e 3d b4 a0 ea bb
       -0.11292471 0.079356246 0.04649216 -0.0071602706
000390 18 42 01 bc a1 52 31 be 0b 7e 5f bd 47 83 88 3d
       -0.007889293 -0.17316677 -0.054563563 0.06665664
0003a0 41 72 d3 bd e2 70 1b be d4 d6 1e bd 90 cb 23 be
       -0.103245266 -0.1517978 -0.038779095 -0.15995622
0003b0 48 13 bd bd 11 95 88 3d 9c f8 16 be 92 b9 28 bd
       -0.09232193 0.06669057 -0.14743274 -0.0411926
0003c0 86 39 df bd 41 e9 2b be 64 fd ae bb d6 35 33 bd
       -0.108996436 -0.16788198 -0.005340265 -0.043752514
0003d0 59 46 be 3a 76 3c 12 bd 80 38 17 be 83 6b 13 be
       0.0014516815 -0.03570219 -0.14767647 -0.14396481
0003e0 14 9e 34 3c 34 de ae 3d 4d 04 92 3b ef 4a 32 3e
       0.011024017 0.08538476 0.004456079 0.17411397
0003f0 26 27 64 bd 26 cd ea bd 12 df 81 be 0f 0b 0a be
       -0.055701397 -0.1146491 -0.25365502 -0.13480781

VAE_Encoder.layers.0.linear1.bias f4 [4]
000000 5e 17 0a 3d 34 7d 12 3c bb 1d ad bd e0 5e 4e 3c
       0.03371369 0.008940984 -0.08452936 0.012595862

VAE_Encoder.layers.0.norm1.weight f4 [4]
000000 6c e1 9f 3f 17 c1 90 3f 7c 14 89 3f dd 8d 82 3f
       1.2490668 1.1308926 1.0709376 1.0199543

VAE_Encoder.layers.0.norm1.bias f4 [4]
000000 c7 22 42 bd ee d7 17 3e 18 c9 52 3d 89 79 ac 3c
       -0.047396448 0.14828464 0.05146131 0.021054046

VAE_Encoder.layers.1.attention.W_q.weight f4 [4, 4]
000000 23 47 26 3e da 2c e4 bd ff 1c 9c be 07 04 b3 3e
       0.16238074 -0.11141367 -0.30490872 0.3496401
000010 42 9a bd 3d b4 64 61 3e 1e ef fc 3e 8a 4d e0 bc
       0.09257938 0.22011071 0.49401182 -0.027380724
000020 ad 1d 03 3f 7d 7b 88 3d 85 05 40 be 27 45 eb 3e
       0.51217157 0.066641785 -0.18752106 0.45951197
000030 d9 f2 97 be d3 b8 f1 be 33 2e f5 bd 18 e7 82 3e
       -0.29677466 -0.47211322 -0.119717024 0.25566936

VAE_Encoder.layers.1.attention.W_q.bias f4 [4]
000000 e1 11 12 be 6a 46 df 3d 12 7f 0b 3e a5 20 07 3e
       -0.14264633 0.10902102 0.13622692 0.13196047

VAE_Encoder.layers.1.attention.W_k.weight f4 [4, 4]
000000 8c 15 fd 3e 5f 85 cb be 06 ae b6 3d 26 c3 df be
       0.494305 -0.39750192 0.08919911 -0.43703574
000010 fb 71 89 3e 12 84 e2 be 5d 5d 63 3e c8 0b 02 3f
       0.26844773 -0.44241387 0.22203584 0.50799227
000020 ee 51 bb be 03 55 b4 39 f7 2a 8f be 94 1b c1 3e
       -0.36585945 0.00034395614 -0.27962467 0.37716353
000030 0b 30 e4 be c3 4e bb be dc c7 37 3e 5e 43 d5 bd
       -0.44567904 -0.36583528 0.17947334 -0.1041324

VAE_Encoder.layers.1.attention.W_k.bias f4 [4]
000000 e1 2e b7 b6 d3 72 2c 39 2b d5 88 b5 b7 04 67 38
       -5.4592824e-06 0.00016445974 -1.019483e-06 5.5079083e-05

VAE_Encoder.layers.1.attention.W_v.weight f4 [4, 4]
000000 5d 68 19 be 9b d8 54 be 46 0a 62 bd ed 58 0e be
       -0.14981218 -0.20785753 -0.05518558 -0.1390111
000010 ba 55 b8 bd 7c c2 53 be ea e0 0e 3d 52 48 ee bc
       -0.09000726 -0.20679659 0.034882464 -0.02908722
000020 50 7e 3c be cb 8f 99 be cf e6 84 bd 59 0d ec bd
       -0.1840756 -0.29992518 -0.06489336 -0.11525983
000030 87 5a 93 3d f1 89 2b bd 75 20 56 3e 09 b2 f5 3d
       0.07195001 -0.041879598 0.20910819 0.11996848

VAE_Encoder.layers.1.attention.W_v.bias f4 [4]
000000 2e 06 9f bc fd 84 11 bd a5 db d1 3c 23 ff 97 bb
       -0.019412126 -0.035527218 0.02561743 -0.004638569

VAE_Encoder.layers.1.linear0.weight f4 [128, 4]
000000 2e c3 13 3f 57 58 35 be c7 dd 8a be 95 79 d0 3e
       0.57719696 -0.1770948 -0.27122328 0.4071776
000010 05 1e ed bb 36 34 af 3d f3 59 67 3d 99 2e a4 3e
       -0.0072362446 0.0855488 0.056482267 0.320668
000020 c1 05 0f 3e d9 68 05 bd c4 b5 9e bc ca 78 1c bf
       0.13967039 -0.032570694 -0.019373782 -0.6112181
000030 e8 2c 9c 3e 67 8e 5c be 44 f4 d1 be 92 7c aa be
       0.3050301 -0.21538697 -0.41006672 -0.33298165
000040 a8 a5 f0 be 33 3b 45 3c 42 a1 70 3c bc ce 99 bd
       -0.47001386 0.01203804 0.014686884 -0.075101346
000050 a4 a8 98 be 38 2d 09 3f 64 3e 85 bd ea 50 f4 be
       -0.29816163 0.53584623 -0.06506041 -0.47717983
000060 16 cb 35 3e 8c bc c1 3e 50 4c a8 3e 0e 1f d8 be
       0.17753252 0.37839162 0.32870722 -0.42211193
000070 a3 14 82 be f3 6d 0c bf 54 05 36 be d7 71 c2 3e
       -0.2540637 -0.5485527 -0.1777547 0.37977478
000080 c9 94 d6 be 54 f8 83 be 0c 57 87 3e df ef 30 be
       -0.4191039 -0.25775397 0.264336 -0.17279004
000090 af fa 18 3f 5c 47 22 3f c0 a5 44 be 4d 3e 48 bd
       0.5975751 0.63390136 -0.19203854 -0.04888754
0000a0 0b 13 bf 3e 09 70 2a 3e e7 73 91 be 08 4e 23 3d
       0.37319216 0.166443 -0.2840874 0.03986934
0000b0 c7 85 56 be 75 e6 aa 3e bd 25 25 bf 3e ce e2 bb
       -0.2094947 0.3337895 -0.6451071 -0.0069215586
0000c0 43 1f d7 bd 31 b8 1b 3f c3 c5 2a 3d 8a 55 5a be
       -0.105040096 0.6082793 0.041692507 -0.21321693
0000d0 40 74 85 be b4 f3 d2 be ec 82 c0 be c5 d6 de 3d
       -0.26065254 -0.41201556 -0.37599885 0.10880808
0000e0 91 b0 bb 3e d7 ce 4b be 5f a9 ca be 11 de b2 3e
       0.36658147 -0.19903122 -0.39582345 0.34935048
0000f0 52 f3 95 3e 82 c6 04 3f 96 be 6b 3e 72 b9 f5 be
       0.292872 0.518654 0.23021922 -0.47993046
000100 8e a9 68 be cb 7d 0a 3e 80 1d b5 be a3 53 c6 be
       -0.2272093 0.13524549 -0.3537407 -0.38735685
000110 71 7a c2 3e 6d 1e bd 3e 0f 5e 05 3e da d8 e7 be
       0.3798404 0.36937276 0.13024162 -0.45282632
000120 b3 cb f8 3d 20 b9 c6 be 53 9f ad 3e 60 ab 5a 3e
       0.121482275 -0.38813114 0.33910617 0.21354437
000130 f3 9c cb bd 88 cf 76 3c ab 3a bc be bb c2 0b 3f
       -0.09942045 0.015064128 -0.3676351 0.5459401
000140 0f 3f bc be 7b 15 a3 3e 43 0b 17 3e 4a 2f 45 be
       -0.3676686 0.31852326 0.1475039 -0.1925632
000150 59 29 d7 be c3 1a 66 be 28 48 99 3e 15 31 e3 bd
       -0.42023733 -0.22471146 0.29937863 -0.11093346
000160 5a ef 9a be ef ce 32 be 9e 6f 50 be 3a 99 ef 3e
       -0.30260736 -0.17461751 -0.20355079 0.4679659
000170 3d f7 de 3e eb ea c7 bd 77 a9 ba 3d da c5 27 be
       0.43548003 -0.09761604 0.09114354 -0.16384068
000180 72 39 d5 3e bd 3c 1f 3f 03 cf 29 be a3 83 00 bf
       0.4164539 0.62202054 -0.16582875 -0.5020086
000190 03 67 ce 3d 3c 6f a4 3e 34 88 aa be 86 3a b8 bd
       0.10078242 0.32116115 -0.3330704 -0.089955375
0001a0 74 49 2f 3e 0b db 52 be 63 02 8e be e7 6c 08 bf
       0.17117864 -0.20591371 -0.27736196 -0.5329117
0001b0 2d aa 5a bb 45 5c ee be 85 f4 a4 be a3 09 6d bd
       -0.0033365593 -0.4655477 -0.32217804 -0.05787052
0001c0 61 b3 89 3e 20 30 11 bf 36 61 80 3e 77 64 1a 3e
       0.26894668 -0.5671406 0.25074166 0.15077387
0001d0 64 a0 86 be b7 fb 0a 3f cd 1b e1 3e 2f 28 88 be
       -0.26294243 0.54290336 0.43966523 -0.26593158
0001e0 96 f6 ac be 40 0c 40 bd c7 04 41 3e 29 45 52 3e
       -0.3378188 -0.046886683 0.18849479 0.20534195
0001f0 9b 3b 84 3e d1 94 0d bf 92 55 ac 3e bb f2 9c 3e
       0.25826725 -0.553052 0.33659035 0.3065394
000200 71 13 34 3d ba be ba be db 2b 94 3e 46 a7 16 3e
       0.043963853 -0.36473638 0.2893971 0.14712247
000210 b6 9d 5f 3e 68 ba da 3e 50 cb 0b 3f 1f 0c db be
       0.21837506 0.42720342 0.54607105 -0.42782685
000220 91 b4 e5 be 69 2f c3 3e db 45 48 3e 91 2e 5b 3e
       -0.44864324 0.3812211 0.19557898 0.21404482
000230 c8 b2 e6 be f8 49 d1 be b8 b7 b1 be 94 25 b0 be
       -0.45058274 -0.40876746 -0.3471048 -0.3440367
000240 5f 0b 17 3c 17 16 2d 3f a9 de 9f be 7e 58 17 bf
       0.00921902 0.6761183 -0.31224564 -0.59119403
000250 69 b9 a5 be 41 6a 2a 3e 20 11 ca bd 4b 3b 4b 3e
       -0.3236802 0.16642095 -0.098665476 0.19846837
000260 1e f8 c0 be 25 b4 1c 3e 33 6c 4b 3e 97 65 cb 3e
       -0.37689298 0.15303095 0.19865493 0.39725944
000270 f1 b9 47 3e a9 46 a7 3d 46 f6 cc 3e c7 ff d3 be
       0.19504525 0.08167774 0.40031642 -0.4140608
000280 c0 19 ff 3e 6c ab 9f be 37 5f 97 3e ba 5e 1e bf
       0.49824333 -0.31185472 0.2956483 -0.6186329
000290 73 20 b7 be 27 07 ee 3e 79 b9 1d bf 85 1e 20 3e
       -0.35766944 0.46489832 -0.61611134 0.15636642
0002a0 cf f8 ea 3e 63 7a c9 3c f9 17 c0 3e 7d d0 b1 bd
       0.4589295 0.024594491 0.3751829 -0.08682344
0002b0 cd 64 8d be 75 e8 55 3d 41 ef ce be 01 4a a4 3e
       -0.27615967 0.05222364 -0.4041691 0.3208771
0002c0 8f c3 10 bf de c1 8d be 23 11 ba be d5 e5 da 3d
       -0.565484 -0.2768697 -0.363412 0.10688368
0002d0 00 c8 25 bf 63 37 56 be 92 9e ff 3e 55 db a1 3e
       -0.647583 -0.20919566 0.49925667 0.3161265
0002e0 1d 87 fe be 7a 60 56 3e 72 3c 09 3e 67 b6 e2 3e
       -0.49712458 0.2093524 0.13401964 0.44279787
0002f0 dc db 29 3e 5b 1e 70 be c3 df 25 3f a5 fb 0e 3e
       0.16587776 -0.2344908 0.6479456 0.13963182
000300 69 6a 3a be b8 38 be be 47 28 e5 be 5f cc 22 be
       -0.18204655 -0.37152648 -0.44757292 -0.15898274
000310 78 d2 98 bd b2 6e 62 be 7a db 01 bd da 58 d0 bd
       -0.07462019 -0.2211254 -0.03170345 -0.10173197
000320 52 56 11 be 3c c2 a6 be 34 37 52 3e 23 4b 35 be
       -0.14193085 -0.32570064 0.20528871 -0.17704444
000330 20 f8 7c be 98 85 85 be 69 63 04 3e 74 11 da 3e
       -0.24704027 -0.26078486 0.12928547 0.4259144
000340 80 4e 05 be e1 f1 ae bc 98 45 51 be f3 be 16 bf
       -0.13018227 -0.021355571 -0.20436704 -0.58885115
000350 b5 d8 6d 3e 84 81 c1 be db 35 03 3e 71 74 25 3f
       0.23227198 -0.37794125 0.12813513 0.646308
000360 38 99 b3 be a5 b2 35 be 0c e4 ac 3e b3 24 4a be
       -0.35077834 -0.17743929 0.33767736 -0.19740562
000370 88 28 9f 3c 99 a1 a6 be 0e 33 85 3e 89 72 a0 be
       0.019428506 -0.32545164 0.26015514 -0.31337383
000380 5a 79 a8 3e e3 01 15 3f fa 6f 6f be 42 a4 b9 3e
       0.32905084 0.58206004 -0.2338256 0.3625813
000390 e4 02 3a bd 2f 6a 45 37 7f e2 e7 be 31 91 e7 3d
       -0.045412913 1.1766838e-05 -0.4528999 0.1130699
0003a0 98 5b c2 be 6a b4 dc 3b 56 2e 00 bd 5e aa b6 3e
       -0.37960505 0.006735374 -0.03129419 0.35676855
0003b0 8d 72 1b 3f 01 a7 f9 3e b3 a6 49 be 02 ee 27 bd
       0.60721666 0.48760226 -0.19692497 -0.040998466
0003c0 b1 94 3a 3e c2 9c 18 bf f2 94 52 bd 15 22 58 3d
       0.18220784 -0.59614193 -0.051411577 0.05276688
0003d0 46 a3 98 be 4f 7f 32 3f 07 b7 b7 3d 51 9d 00 3f
       -0.29812068 0.6972551 0.089704566 0.50240046
0003e0 5c 81 d3 bb 5b 75 c1 bd 2b e7 06 3f 6c bc c8 3e
       -0.00645463 -0.09446212 0.52696484 0.39206254
0003f0 ad 72 bc 3e 53 68 f2 3e 0e 0d b9 3c 6f 3f ef be
       0.3680624 0.47345218 0.022589233 -0.46728083

VAE_Encoder.layers.1.linear0.bias f4 [128]
000000 77 c5 a3 3d 84 cb ff 3b 5c cd 84 be 11 3c 41 3e
       0.07996648 0.0078062434 -0.25937927 0.1887057
000010 b3 ac 43 3e 1c dc a2 3e 65 a4 ba be df e9 d3 bd
       0.19108848 0.31808555 -0.36453548 -0.10347342
000020 74 21 5c bd ea ec 5d be 04 d6 85 be bd 6f 86 be
       -0.05374284 -0.21672407 -0.26139843 -0.26257125
000030 0f 2e 7d 3e 31 58 b2 3d b8 ae e1 3e a9 6a c6 3e
       0.24724601 0.087082274 0.44078612 0.3875325
000040 9d cd ec 3d d6 09 15 be da 66 e4 be a2 03 1c 3e
       0.11562655 -0.14554533 -0.4460972 0.15235761
000050 fb f6 80 be 87 c6 de 3d 62 d1 20 bc 88 70 cb 3e
       -0.2518843 0.1087771 -0.009815546 0.39734292
000060 21 1a 13 bf 48 e6 13 bd f6 12 e8 3e a6 c6 c1 be
       -0.57461745 -0.036108285 0.45326966 -0.3784687
000070 80 09 30 be bc 82 c7 3e d1 1f eb be 2e 49 f3 be
       -0.17191124 0.3896693 -0.45922711 -0.4751677
000080 4f 6d 04 bf 8a 87 6a 3e f8 35 9b 3d f2 39 f8 be
       -0.5172929 0.22903267 0.07578653 -0.4848171
000090 ba d0 40 be 54 d3 6c 3e 00 8f 23 be 1b b3 40 be
       -0.18829623 0.2312749 -0.15972519 -0.18818323
0000a0 02 64 87 be 21 d8 17 bf 5b c5 6a be 3c 4c be be
       -0.26443487 -0.5931416 -0.22926848 -0.37167537
0000b0 a5 7d 9f be d0 38 a9 3e f7 ff ae be 28 3c 97 be
       -0.31150547 0.33051157 -0.3417966 -0.29538083
0000c0 43 10 fc be a8 85 b5 3e a9 22 c8 bd 21 17 af be
       -0.49231157 0.35453534 -0.09772236 -0.34197333
0000d0 66 5c 93 bd 97 8a f0 3c 0f 3c c4 3d c6 68 14 3f
       -0.07195358 0.02936296 0.09581768 0.5797237
0000e0 19 21 82 bd be 95 d9 be 4a 0b dc 3e 48 c0 e5 3e
       -0.06353969 -0.42497057 0.42977363 0.4487326
0000f0 50 7d c4 be 02 5b ab be 9d 9f 3c 3c 3a ca 88 be
       -0.38376856 -0.3346787 0.011512664 -0.26716787
000100 6d ae 42 be 5a f3 fd be 47 64 ea be bf 9e 28 be
       -0.1901185 -0.49599725 -0.4577963 -0.16466807
000110 e4 5d 3e 3e b5 78 de be ef 1f 08 bf 4d de f5 3e
       0.18590504 -0.43451467 -0.53173727 0.48021165
000120 fa e4 fb bc 82 94 94 be 18 43 d7 3e f5 83 50 be
       -0.030748833 -0.29019552 0.42043376 -0.20362838
000130 3d 6b c2 3e f1 24 06 3e a1 09 09 bd 0c 8a 9d be
       0.3797244 0.1310003 -0.03345645 -0.30769384
000140 51 f0 c5 3e 17 92 c1 3e 67 8a 5c be 3e 55 87 be
       0.3865991 0.3780677 -0.21537171 -0.26432222
000150 1e b7 d3 be 20 46 63 be ea 27 90 be fa 08 8b 3e
       -0.41350645 -0.2219472 -0.28155452 0.27155286
000160 c3 53 f1 be 07 63 70 be 60 74 63 bc 1f d2 9a be
       -0.47134218 -0.23475276 -0.013882726 -0.30238435
000170 5a 44 4e be ec cd ca be 26 bc d7 3d 70 b4 05 3f
       -0.20143262 -0.3961023 0.10533933 0.5222845
000180 e6 8d 0f be 40 b0 b1 bd 04 16 85 3e 16 1d 17 bd
       -0.14018974 -0.08676195 0.2599336 -0.036892973
000190 9e fe 88 bc 69 27 c7 3e aa 14 c3 be 39 5e 5b 3e
       -0.016722973 0.38897255 -0.38101703 0.21422662
0001a0 14 8f b9 bd 89 3b 24 bf 8b 8a c7 be 3d c9 e5 3e
       -0.09060493 -0.64153343 -0.38972887 0.44880095
0001b0 26 89 65 be 2f 05 b1 be 03 47 5c 3e 82 3a db 3d
       -0.22415599 -0.34574267 0.21511464 0.10704519
0001c0 af 5f 02 3e 0e c7 81 be ff 92 eb 3c f8 ff 78 3b
       0.12731813 -0.2534718 0.028756617 0.0037994366
0001d0 6c 17 f6 bd 87 f0 f5 bd 3c 8f 01 be 05 2c 05 bf
       -0.12016186 -0.120087676 -0.12652296 -0.52020293
0001e0 1d cd e8 3d 62 3f 91 3e 52 21 cc bd 2f c5 99 3e
       0.11367247 0.2836867 -0.09967293 0.30033252
0001f0 d2 ff ee 3e 08 8b 57 be 4d ff 45 be cf d2 07 3f
       0.4667955 -0.2104913 -0.19335671 0.53056043

VAE_Encoder.layers.1.linear1.weight f4 [4, 128]
000000 b1 aa e0 bd 10 86 dc bd 6c 89 80 3c 62 53 ad bd
       -0.10970057 -0.10767758 0.015690528 -0.0846317
000010 5f 0b 04 bd 07 3d 1b 3e ce b9 36 3e 8b 6f 0c 3c
       -0.032237407 0.15159999 0.17844316 0.008571516
000020 ee 54 8d bd 2e 77 29 be 09 74 12 be c5 36 c1 be
       -0.06900965 -0.1654937 -0.14302076 -0.37737098
000030 5b 73 f2 3d 9a 14 aa bd 57 fe e8 bc d7 60 4f 3d
       0.118384086 -0.08304711 -0.028441591 0.050629463
000040 d7 44 cc 3d 80 72 15 3e 46 88 04 be 53 83 56 bd
       0.09974068 0.1459446 -0.12942609 -0.052371334
000050 0c 35 17 3d 50 a7 e1 bc 98 28 6b bd 8e 98 e2 3c
       0.036915824 -0.027545601 -0.05741176 0.027660634
000060 a2 ee a1 be 10 1d 90 bd 4d c9 06 bd 96 5b 8e 3e
       -0.31627375 -0.07036793 -0.03290682 0.2780425
000070 4f b1 bb 3d 04 08 8d 3b 88 41 9c bd 88 e4 58 3c
       0.09164678 0.004303934 -0.076296866 0.01323808
000080 34 e1 60 be e4 dd cd 3d ae e0 31 3d 00 a1 20 3c
       -0.21960908 0.10052088 0.043427162 0.00980401
000090 e2 a5 73 3e 94 f6 0d be e7 3b c1 bd c2 c7 01 3d
       0.23793748 -0.13863593 -0.094352536 0.031684645
0000a0 a0 e9 5c bd de 17 ea be c8 25 e8 bd 65 8a ce be
       -0.05393374 -0.45721334 -0.11335331 -0.40339962
0000b0 5b d1 84 bc b1 27 10 bd 2e 22 a4 bd 15 dc f1 bd
       -0.01621311 -0.035194103 -0.08014332 -0.118095554
0000c0 66 bf 41 3d 53 35 35 bd 17 01 1d be d1 e4 62 3e
       0.047301672 -0.044240307 -0.15332447 0.22157599
0000d0 da 26 21 3e de 0f c7 3d ce 42 24 3c 93 b9 bb 3d
       0.15737477 0.09719823 0.010025693 0.09166255
0000e0 ed 3c 2a be 61 40 d8 bd 24 ba cd bd c5 0e 94 3c
       -0.16624804 -0.10559154 -0.10045269 0.018073449
0000f0 5f 3d 5b 3d d8 be d9 ba b1 62 85 bd 50 f7 da bc
       0.053525325 -0.0016612662 -0.065129645 -0.026729256
000100 c8 28 05 3e d4 cf fc be f9 fc 01 3e 20 94 27 bd
       0.13003838 -0.4937731 0.12694158 -0.040912747
000110 d2 be 07 be 0d 22 75 be 5d f7 ab 3e a5 e6 f3 bd
       -0.13256386 -0.2393877 0.3358716 -0.11909226
000120 a0 a5 5d bc 62 dc 06 3c dd 30 06 3d 13 b2 dc 3a
       -0.013528258 0.008231254 0.032761443 0.0016837738
000130 1c 13 96 bd 83 cb 01 3a 2d de 61 bc a8 62 c4 3d
       -0.073278636 0.0004951285 -0.013785881 0.0958913
000140 02 3c 26 3e 32 7e c9 3d 48 8a 09 bd 27 0c 43 be
       0.16233829 0.09838523 -0.03357914 -0.19047605
000150 51 36 02 3d 18 7f 03 be c0 4d ac bd f4 a4 c7 bc
       0.03179008 -0.12841451 -0.08413267 -0.024370648
000160 f9 58 88 bd 62 81 66 be 9a 56 6a bc 42 b9 45 be
       -0.06657595 -0.22510293 -0.014302874 -0.19308951
000170 af c2 ca bd fd 17 d1 be 5d ab 1d be 9f 94 dd 3d
       -0.09900414 -0.40838614 -0.15397401 0.10819363
000180 24 a4 08 3e 1e e1 5f bd 36 52 31 bd e0 a7 09 3e
       0.13343865 -0.054658048 -0.043291293 0.13442945
000190 0d 3f 6a bd fc a3 0f 3c 73 bf 80 3e 25 c6 20 bd
       -0.057189036 0.008767124 0.25146064 -0.039251465
0001a0 4b bd aa 3d b3 6f 7b 3e 03 17 36 3c fb fd e2 3d
       0.08336886 0.24554329 0.011113885 0.11083599
0001b0 0e 89 80 3d 8b 08 17 3e 42 26 e2 3c d0 ab d0 bc
       0.06276141 0.14749353 0.027606133 -0.025472552
0001c0 8a ac 0b bd 1d bc 14 3e 05 27 a0 3d fd 5f dd bd
       -0.034100093 0.14524885 0.078199424 -0.10809324
0001d0 95 01 7c bd 11 01 24 be d8 00 db 3d ab 9f fa 3c
       -0.061524946 -0.16016032 0.1069352 0.030593714
0001e0 00 08 eb 3d 3e 32 fb 3d d9 63 86 bd e4 57 b0 bc
       0.11476135 0.12265442 -0.06562013 -0.021526285
0001f0 e0 7a 65 bd 6e e3 00 3e 8b 0c 01 3c 86 21 b1 3d
       -0.056025386 0.12586758 0.007876526 0.08648972
000200 de b7 ed 3c 5a c9 cd 3c a0 49 c3 3d 21 01 51 bd
       0.029018339 0.025120426 0.09535527 -0.051026467
000210 7b c1 12 3e 53 6b 5e 3d bb 14 c6 be d2 55 02 be
       0.1433162 0.05430157 -0.3868769 -0.1272805
000220 4d 71 d7 bd 6d 59 74 ba 54 e1 9f bd 86 46 09 3e
       -0.10519657 -0.0009321187 -0.0780665 0.13405809
000230 42 6d 3d 3e d4 a5 d3 bb f6 16 8c 3d c1 53 be 3c
       0.1849871 -0.0064589772 0.06840317 0.023233296
000240 34 6c 61 3e 2f 3c a5 39 00 b9 06 3e d1 72 39 bc
       0.22013932 0.00031516093 0.1315651 -0.011318878
000250 41 76 af 3d 2b 09 41 3e bb 19 64 bd aa ae 84 3d
       0.08567477 0.18851154 -0.0556886 0.06478627
000260 2a 44 1e 3e 39 82 1c 3e b1 fa ce 3d 89 1b 10 ba
       0.1545569 0.15284051 0.10106409 -0.0005497267
000270 e3 ff 47 3d c1 f7 58 3c 37 b7 81 3d 48 01 33 3e
       0.048828017 0.013242663 0.063337736 0.17480958
000280 7f 94 97 3e 35 57 90 3d 9e 54 fa bc 4b 99 1f 3c
       0.2960548 0.070478834 -0.030557927 0.009741138
000290 6a e4 58 3e f5 f9 91 3d 66 7a 01 bc 84 ed aa bc
       0.21180883 0.07127754 -0.007902717 -0.02086521
0002a0 54 98 de 3d ab bd 03 3e 20 0c 30 3d e7 6e f0 bd
       0.10868898 0.12865321 0.042980313 -0.11739903
0002b0 c4 b5 7c 3d 17 50 a6 bd f0 c7 4e 3b 75 ab a0 ba
       0.061696783 -0.08120745 0.0031552278 -0.001225813
0002c0 3d 51 6b bd 47 0b 96 bd 8d 89 8a bd 91 5a 6a bd
       -0.05745052 -0.0732637 -0.06764517 -0.057215277
0002d0 37 41 68 bd 83 5b f3 3c ba ab 75 bd 80 61 39 3d
       -0.05670282 0.029706722 -0.059978224 0.045259
0002e0 fa 2d 07 3e a6 82 54 3d 24 76 25 3d 0e a1 78 3e
       0.13201132 0.05188241 0.04039587 0.24280187
0002f0 37 8f 28 be 4c 22 c2 be 33 7e 2b be 96 d7 1c 3d
       -0.16460882 -0.3791679 -0.1674736 0.038291536
000300 44 43 da bd e4 f9 48 3e 08 bc 4e bd 9a c4 60 bc
       -0.10657361 0.19626576 -0.05047229 -0.013718748
000310 d2 81 3f bd c8 f3 ba 3e 3d 42 3e 3c ac 99 a7 3c
       -0.046754666 0.36514115 0.011612472 0.020459019
000320 df f8 87 3e 9e 6e 5a bd ef 82 93 bd 73 d3 bf bd
       0.2655706 -0.05332815 -0.07202708 -0.093665026
000330 e4 d9 bd bd 38 c5 d7 bb 92 f8 ba bd 63 fb b7 bd
       -0.09270075 -0.0065847896 -0.09129442 -0.08983495
000340 55 36 1f bd dd 34 84 3b 60 f3 f3 3c a6 2f 62 3e
       -0.038870174 0.004034622 0.029779136 0.22088489
000350 5d 1c b8 3d f1 bd 97 3d be b1 24 3e 4d ab fb 3d
       0.08989785 0.07409275 0.16083428 0.122885324
000360 1b d8 22 bc 7b ac a3 3c 11 f3 a9 3c e2 39 8c bd
       -0.009939219 0.019979706 0.020745786 -0.06846978
000370 c4 4c 50 3e 24 ae 4c 3f b7 98 09 3e f4 db d6 3d
       0.20341784 0.7995322 0.13437162 0.104911715
000380 20 a0 ba 3d 65 ad 16 3d 03 cc 3a 3e 51 05 02 3e
       0.09112573 0.036786456 0.18241887 0.1269734
000390 1e 72 e6 3d 27 a4 d8 bc 29 ef 1b 3d 8c b0 af 3e
       0.11252235 -0.026445461 0.038069878 0.34314382
0003a0 32 61 7a 3d ac 40 d8 3c 95 f3 b9 be 00 b5 89 bc
       0.06112785 0.026398025 -0.3631865 -0.01680994
0003b0 cd e2 8b bd 2a b8 0a 3d c7 13 d3 bc c5 6c 91 3e
       -0.06830368 0.03386704 -0.025766267 0.28403297
0003c0 67 7c ed 3d f7 8b cd bd e8 dd 6b 3d eb 09 18 be
       0.115959935 -0.10036462 0.057584673 -0.14847533
0003d0 43 58 ed 3c 66 0e 8f 3d 94 e3 0f be a8 e0 be be
       0.02897275 0.06985168 -0.14051658 -0.37280774
0003e0 a5 36 e3 3d 39 4c 44 3d d3 af a7 3c 9c 0f ee 3d
       0.11094407 0.047924254 0.020469582 0.11624071
0003f0 4a 6f 51 3d ed 4f 84 bd 1c ea 48 be 4f 9b 24 bc
       0.051131524 -0.06460557 -0.19620556 -0.010046794

VAE_Encoder.layers.1.linear1.bias f4 [4]
000000 3c 82 91 3d 8b 73 06 3e 9d 1f dc 3b 92 36 46 bc
       0.07104918 0.13130014 0.006717636 -0.0120979715
