tabsyn/vae/ckpt/news/model.pt (torch, 64626 bytes, 98 tensors)

VAE.Tokenizer.weight f4 [47, 4]
-0.072239146 0.0027807953 0.17989013 0.30667466 -0.3457942 -0.3313889 0.39818227 0.0007075666
0.19084235 -0.045692638 0.40442064 0.32853937 0.42106423 0.60571104 0.70559675 -0.265901
-0.36111376 -0.66728956 -0.3777002 -0.15267189 0.28696465 0.43666613 0.38004 0.06125053
-0.19821844 -0.27178973 -0.4196333 -0.6122447 0.06267421 -0.20886359 0.31008327 0.1943353
-0.50577086 -0.5230933 -0.2896315 -0.7246988 0.06719202 0.17088427 -0.2724839 -0.28866553
0.2458897 -0.12790838 0.06944518 -0.3241717 0.18704464 -0.20071505 0.21661201 0.15860404
-0.2881367 -0.27094707 0.43399546 0.05472184 -0.12146255 -0.42446068 0.18083213 0.16940837
0.100693956 -0.09798004 0.25131238 -0.3643748 0.065841734 5.241417e-05 0.1597649 0.5440333
-0.021121234 -0.3408238 0.23839554 -0.015705362 -0.2675442 -0.26769608 -0.31582174 0.00065236364
-0.306121 0.15489197 0.23659411 -0.26439515 -0.4752795 -0.19980928 -0.4264546 -0.21939015
0.13050957 0.45993742 0.13592182 -0.13738385 0.02518964 0.17827599 -0.030462213 0.1339468
0.07765556 -0.087025136 0.16632274 -0.27523637 -0.39765576 -0.36742964 -0.3884744 -0.13510688
0.21224691 0.03512708 -0.14386754 -0.5087829 -0.087941475 0.23833956 -0.36386296 0.034447737
-0.115373276 -0.257671 -0.0586752 -0.3676915 -0.036930326 -0.1671406 0.32587174 0.27795273
-0.25825232 -0.208021 -0.04519344 -0.24499393 -0.14658101 0.07985684 -0.37896627 -0.38159272
0.08828985 -0.12701122 0.17714335 0.42190152 0.22175886 0.38054574 0.18743241 0.24025874
0.08785017 -0.073941834 -0.26952383 -0.54501575 -0.52231747 -0.65526694 -0.37089264 -0.8304203
0.06342124 0.1224755 -0.219751 -0.4330866 0.34100956 0.2694245 0.38799468 0.0678144
0.3261273 0.4665318 0.4117972 0.11188592 -0.15998203 0.61570626 0.5167926 0.41393626
0.055329546 0.13729158 -0.22632457 -0.4045706 -0.06643659 0.016032845 -0.043413468 0.14736997
0.14782885 -0.017003592 0.23614448 -0.20145336 -0.11064801 0.13196224 -0.43858582 0.010534719
-0.14449885 0.033999793 -0.21324171 -0.43819073 -0.23949453 0.0022718513 -0.24293803 0.11505687
-0.20368712 0.04659723 -0.43905926 -0.31556642 0.20064077 0.20611413 0.25117695 -0.025918214
0.05895412 0.35999972 -0.07706132 -0.36099878
00000000: 1ef2 93bd 013e 363b 1e35 383e 7604 9d3e
00000010: f00b b1be ceab a9be 8cde cb3e fe7b 393a
00000020: 2d6c 433e 3428 3bbd 3910 cf3e 5036 a83e
00000030: bb95 d73e e10f 1b3f fda1 343f 2d24 88be
00000040: e7e3 b8be 7dd3 2abf ec61 c1be 0556 1cbe
00000050: 08ed 923e b492 df3e 9a94 c23e d6e1 7a3d
00000060: c6f9 4abe 0628 8bbe 2dda d6be 12bc 1cbf
00000070: 565b 803d 56e0 55be 3cc3 9e3e d5ff 463e
00000080: 337a 01bf 71e9 05bf 944a 94be dc85 39bf
00000090: f89b 893d 49fc 2e3e 0283 8bbe f8cb 93be
000000a0: 82ca 7b3e 6afa 02be 4639 8e3d d5f9 a5be
000000b0: a188 3f3e 3f88 4dbe 8acf 5d3e 1969 223e
000000c0: a786 93be 93b9 8abe a734 de3e 0224 603d
000000d0: 5bc1 f8bd e952 d9be 0f2c 393e 6379 2d3e
000000e0: a238 ce3d c2a9 c8bd 04ac 803e 558f babe
000000f0: 08d8 863d 49d7 5b38 6999 233e c445 0b3f
00000100: 7006 adbc 7580 aebe f61d 743e 88a8 80bc
00000110: 8efb 88be 760f 89be 63b3 a1be 6203 2b3a
00000120: e4bb 9cbe 009c 1e3e ba45 723e cd5e 87be
00000130: d657 f3be ce9a 4cbe 4258 dabe d0a7 60be
00000140: 4da4 053e eb7c eb3e 172f 0b3e 5aae 0cbe
00000150: 815a ce3c fb8d 363e e48b f9bc 5a29 093e
00000160: e109 9f3d 3c3a b2bd 8250 2a3e c8eb 8cbe
00000170: 8999 cbbe bd1f bcbe 1ee6 c6be 7559 0abe
00000180: 4157 593e 6ae1 0f3d 0352 13be 993f 02bf
00000190: a91a b4bd 490f 743e 3f4c babe 1219 0d3d
000001a0: d348 ecbd 74ed 83be 6855 70bd 0f42 bcbe
000001b0: 4144 17bd e826 2bbe a9d8 a63e d24f 8e3e
000001c0: a639 84be 7503 55be c21c 39bd b0df 7abe
000001d0: 5519 16be fc8b a33d de07 c2be 1f60 c3be
000001e0: 4fd1 b43d 3b0f 02be 1165 353e 7a03 d83e
000001f0: c114 633e e4d6 c23e 48ee 3f3e 6306 763e
00000200: caea b33d d16e 97bd 07ff 89be 2786 0bbf
00000210: 99b6 05bf 93bf 27bf a4e5 bdbe 6d96 54bf
00000220: ffe2 813d 6fd4 fa3d 6806 61be 87bd ddbe
00000230: ce98 ae3e 02f2 893e 3da7 c63e 47e2 8a3d
00000240: 28fa a63e 42dd ee3e 15d7 d23e 7224 e53d
00000250: 54d2 23be ed9e 1d3f 854c 043f 74ef d33e
00000260: 3ca1 623d 2a96 0c3e a1c1 67be e123 cfbe
00000270: e80f 88bd 5057 833c 52d2 31bd 27e8 163e
00000280: 7260 173e 1e4b 8bbc dccf 713e ca49 4ebe
00000290: 6d9b e2bd 1c21 073e 528e e0be d099 2c3c
000002a0: 82f7 13be 5e43 0b3d 095c 5abe 895a e0be
000002b0: 0e3e 75be 57e3 143b bfc4 78be f0a2 eb3d
000002c0: 5b93 50be bddc 3e3d 60cc e0be ec91 a1be
000002d0: c674 4d3e 950f 533e 449a 803e 6f52 d4bc
000002e0: e079 713d e251 b83e 53d2 9dbd d5d4 b8be

VAE.Tokenizer.bias f4 [48, 4]
0.19534595 -0.15832652 -0.15083376 0.6949164 0.42700854 0.30981812 -0.11126626 -0.42255327
0.48982286 0.3468104 -0.12827832 0.40979022 0.45069578 -0.09277301 0.6287386 0.07378019
-0.46467042 -0.4653527 0.24855557 -0.14511706 0.61731255 0.39550796 0.23053929 -0.27576017
-0.46410298 -0.280656 -0.17204547 0.21009839 -0.35803634 0.54371715 -0.59525174 -0.3597416
0.12532228 0.25059402 -0.22328387 -0.44753894 0.13775012 0.008793263 -0.1965389 -0.037915178
0.25465786 0.18047914 -0.11248447 0.6408041 0.053224646 -0.30261275 -0.3051043 0.55253583
-0.33511034 0.39925036 -0.5670155 0.3311631 -0.15231712 0.043898813 1.0633951 -0.19542778
-0.4743776 0.26603803 -0.348327 -0.48567638 -0.32007518 0.04706187 -0.23114665 0.74061936
0.2917855 -0.5891111 0.36382443 0.0056918906 -0.03643016 0.447666 -0.18689875 0.44499537
-0.28930932 -0.32157567 0.56921685 0.1747938 -0.14586774 -0.007892396 -0.0928986 -0.3198645
-0.4916574 -0.31253916 0.6849804 0.11303179 0.09919066 -0.7328061 -0.18538572 -0.03490881
-0.082559116 -0.2692376 0.39833522 0.14868923 0.12605383 0.41270486 -0.11594017 -0.07472866
-0.26253814 0.37036392 -0.03172926 0.28088722 0.08613078 -0.53966767 -0.13984397 0.49919745
0.2953309 0.6061796 0.2686578 -0.22515637 -0.58204246 0.34929028 -0.3129847 0.1455241
0.7553491 0.09149532 0.10443843 -0.44991335 -0.19170085 0.571068 -0.05956373 -0.21677266
0.53914803 0.16429317 -0.67011374 0.74873793 1.0235524 -0.32207546 -0.15742944 0.03348552
0.60871416 0.37200326 -0.32474905 -0.3831284 0.5750563 0.3986389 -0.037538312 -0.24066922
0.2681247 -0.5828353 0.31361434 0.017064665 -0.12541963 -0.18171781 0.55588377 0.27308708
0.6242632 -0.2643524 -0.06260815 -0.68126047 0.1590513 0.037599877 -0.33881283 -0.45080408
-0.5212023 0.21785043 0.35343343 -0.35076734 0.17931 -0.65136606 -0.09154805 0.0023831862
0.16528544 0.12761495 0.32257473 0.11174481 0.5926243 0.48044246 0.094017945 -0.08681902
-0.052441955 0.5186663 0.46783254 0.3037581 -0.21263957 -0.082681105 0.09064018 0.40482256
0.19433463 -0.19303262 0.42011753 0.13122681 -0.09327558 0.32744884 -0.26915982 -0.4389224
-0.33776838 -0.19149025 -0.40323323 -0.19867122 0.03617894 0.07153519 -0.037427466 -0.15820622
00000000: c508 483e 5920 22be 2a74 1abe 0be6 313f
00000010: dda0 da3e 7ba0 9e3e 91df e3bd e758 d8be
00000020: 10ca fa3e 2291 b13e 645b 03be 06d0 d13e
00000030: 99c1 e63e c7ff bdbd 03f5 203f 111a 973d
00000040: 48e9 edbe b642 eebe 5a85 7e3e 9199 14be
00000050: 3208 1e3f 0580 ca3e 7e12 6c3e 7030 8dbe
00000060: e89e edbe 25b2 8fbe b02c 30be 0824 573e
00000070: 8a50 b7be 0c31 0b3f 6b62 18bf 0d30 b8be
00000080: 7c54 003e dc4d 803e 87a4 64be d323 e5be
00000090: 5e0e 0d3e 9e11 103c 7e41 49be f24c 1bbd
000000a0: 8462 823e 86cf 383e 425e e6bd bd0b 243f
000000b0: 1602 5a3d 0ff0 9abe a136 9cbe fd72 0d3f
000000c0: 9593 abbe 8b6a cc3e ee27 11bf 368e a93e
000000d0: 05f9 1bbe 3ecf 333d 551d 883f 381e 48be
000000e0: 9fe1 f2be 2336 883e eb57 b2be 93aa f8be
000000f0: e5e0 a3be f3c3 403d b5b1 6cbe 3b99 3d3f
00000100: e964 953e fccf 16bf 3247 ba3e 0a83 ba3b
00000110: cb37 15bd 7a34 e53e 6362 3fbe 6fd6 e33e
00000120: 5a20 94be 91a5 a4be 32b8 113f 25fd 323e
00000130: 5a5e 15be 1c4f 01bc 9f41 bebd 48c5 a3be
00000140: 85ba fbbe 2205 a0be e05a 2f3f 367d e73d
00000150: 7924 cb3d 2e99 3bbf c1d5 3dbe 8afc 0ebd
00000160: c114 a9bd 83d9 89be 98f2 cb3e fd41 183e
00000170: 4114 013e 0d4e d33e 0a72 edbd 570b 99bd
00000180: 666b 86be 57a0 bd3e 8af6 01bd 73d0 8f3e
00000190: 5665 b03d a927 0abf 4233 0fbe cf96 ff3e
000001a0: 9d35 973e 962e 1b3f 848d 893e 648f 66be
000001b0: bc00 15bf 2dd6 b23e 883f a0be 4504 153e
000001c0: 8f5e 413f e661 bb3d d1e3 d53d 0b5b e6be
000001d0: 3a4d 44be 8331 123f 19f9 73bd a7f9 5dbe
000001e0: 9b05 0a3f 783c 283e 938c 2bbf 4aad 3f3f
000001f0: c403 833f 13e7 a4be 2f35 21be 1d28 093d
00000200: b1d4 1b3f 3677 be3e 8245 a6be 6829 c4be
00000210: e436 133f 661a cc3e c6c1 19bd fe71 76be
00000220: a447 893e b234 15bf 0f92 a03e 32cb 8b3c
00000230: 016e 00be 3c14 3abe 664e 0e3f 12d2 8b3e
00000240: b7cf 1f3f 3359 87be b438 80bd 1667 2ebf
00000250: 58de 223e 5402 1a3d e078 adbe cbcf e6be
00000260: 846d 05bf 2f14 5f3e 3af5 b43e c797 b3be
00000270: 0a9d 373e edbf 26bf 8b7d bbbd 3b2f 1c3b
00000280: 9640 293e 7ead 023e 8428 a53e 77da e43d
00000290: 3ab6 173f 8efc f53e 7b8c c03d 2cce b1bd
000002a0: 60cd 56bd 51c7 043f bf87 ef3e 2f86 9b3e
000002b0: 30be 59be b654 a9bd 8fa1 b93d e744 cf3e
000002c0: a8ff 463e 58aa 45be a519 d73e 5260 063e
000002d0: 4407 bfbd 60a7 a73e 51cf 89be 70ba e0be
000002e0: faef acbe 0516 44be 9674 cebe 7870 4bbe
000002f0: 5e30 143d 0b81 923d 8b4d 19bd d000 22be

VAE.Tokenizer.category_embeddings.weight f4 [13, 4]
0.09741492 0.09632772 0.26320755 0.5040182 0.1514903 0.5212978 -0.32415372 0.32903737
0.03861807 1.0034019 0.02509649 -0.2919065 -0.30481878 -0.4854074 0.0050291386 -0.53519267
-0.23637965 0.21652734 0.4043381 0.3439101 -0.40580383 0.6065117 0.21922997 -0.22144613
0.19128434 -0.24401727 0.29102007 0.54063344 0.046072777 -0.44023255 -0.67600304 -0.31831208
0.62761277 0.571431 -0.19789833 -0.25718063 0.11909638 0.3544448 0.64056456 -0.517596
-0.16976482 -0.17514993 0.14310928 0.13617533 0.21869215 0.3585231 -0.62203187 0.42442998
-0.5620493 -0.30760717 0.116593994 -0.25510395
00000000: 7981 c73d 7847 c53d 24c3 863e 5607 013f
00000010: 4620 1b3e c673 053f 7af7 a5be 9677 a83e
00000020: fb2d 1e3d 796f 803f 2797 cd3c c574 95be
00000030: 3511 9cbe 5287 f8be 79cb a43b 6302 09bf
00000040: 820d 72be 58b9 5d3e 6705 cf3e fc14 b03e
00000050: 85c5 cfbe 5a44 1b3f d27d 603e c6c2 62be
00000060: 0be0 433e aadf 79be 9500 953e f466 0a3f
00000070: cfb6 3c3d 2966 e1be 890e 2dbf cdf9 a2be
00000080: 3bab 203f 4d49 123f dca5 4abe 2ead 83be
00000090: cee8 f33d ca79 b53e 0afc 233f 2c81 04bf
000000a0: d4d6 2dbe 815a 33be 3d8b 123e 8c71 0b3e
000000b0: d6f0 5f3e 5790 b73e 7b3d 1fbf e34e d93e
000000c0: 77e2 0fbf b07e 9dbe d5c8 ee3d fc9c 82be

VAE.encoder_mu.layers.0.attention.W_q.weight f4 [4, 4]
0.01179275 -0.1730821 -0.08460658 0.19759451 0.11316583 -0.1889001 0.07753997 -0.101726055
0.094237916 -0.23338185 0.032888234 0.04518635 -0.037810594 0.34764284 -0.2754025 -0.37346536
00000000: 6136 413c 6f3c 31be 3746 adbd 3756 4a3e
00000010: 7dc3 e73d 076f 41be 47cd 9e3d c055 d0bd
00000020: cfff c03d a7fb 6ebe d0b5 063d 5215 393d
00000030: 48df 1abd 3efe b13e 8e01 8dbe da36 bfbe

VAE.encoder_mu.layers.0.attention.W_q.bias f4 [4]
-0.4763613 0.044767354 -0.061643325 -0.011630441
00000000: a1e5 f3be f95d 373d b67d 7cbd 9b8d 3ebc

VAE.encoder_mu.layers.0.attention.W_k.weight f4 [4, 4]
-0.47272986 0.37496692 -0.2513988 -0.33572024 0.2766462 -0.0028548858 0.06466561 -0.10881921
0.26636222 0.31877103 -0.3345629 0.06883817 -0.006838176 0.1936707 0.109606214 -0.37444586
00000000: a609 f2be aafb bf3e 58b7 80be 86e3 abbe
00000010: 92a4 8d3e 0919 3bbb 676f 843d 9bdc debd
00000020: a160 883e f535 a33e d44b abbe 07fb 8c3d
00000030: c712 e0bb 9d51 463e 3979 e03d 5eb7 bfbe

VAE.encoder_mu.layers.0.attention.W_k.bias f4 [4]
-0.00020601977 -0.00014774597 -0.00024111569 -0.00014001294
00000000: 0307 58b9 42ec 1ab9 00d4 7cb9 70d0 12b9

VAE.encoder_mu.layers.0.attention.W_v.weight f4 [4, 4]
-0.036181312 0.010567251 0.0835234 -0.035001922 -0.036320128 0.010514805 0.08346701 -0.034895457
-0.035278432 0.011179426 0.08362978 -0.03565717 -0.03631027 0.010828474 0.08370738 -0.035249382
00000000: db32 14bd 4322 2d3c 510e ab3d 2d5e 0fbd
00000010: 6ac4 14bd 4a46 2c3c c0f0 aa3d 8aee 0ebd
00000020: 1e80 10bd e929 373c 1746 ab3d 410d 12bd
00000030: 14ba 14bd e969 313c c66e ab3d a861 10bd

VAE.encoder_mu.layers.0.attention.W_v.bias f4 [4]
-0.049049858 0.041557748 -0.06313111 0.0665358
00000000: 81e8 48bd 7538 2a3d e24a 81bd ec43 883d

VAE.encoder_mu.layers.0.linear0.weight f4 [128, 4]
0.49380544 0.06514417 0.037464615 0.28938383 -0.30484602 -0.09921378 0.4265351 0.33137384
-0.12017268 0.02904425 0.50218767 -0.18322256 -0.4035918 0.46863663 0.24847262 -0.3514309
0.33436412 0.28098518 0.24737756 0.3490074 0.5202884 -0.16844685 0.28343332 0.18990678
-0.23839621 0.072570436 -0.32450283 0.1774404 0.22821318 -0.42920548 -0.0058526024 0.46374208
0.46371844 -0.114307545 -0.48447782 0.044236246 0.33415136 0.059921604 -0.3238994 0.26118866
-0.47220832 0.21474762 -0.1945886 0.12889685 0.39211357 -0.409796 -0.0032837493 0.0774271
0.22221693 0.36331156 0.38260108 -0.021039214 0.25018266 0.31120288 0.28388077 -0.19540466
-0.31928512 0.49984995 -0.35851356 -0.2786183 0.56235963 -0.4318209 -0.3557865 0.32145396
0.13933511 -0.19027773 0.26825643 -0.071593374 0.20192349 -0.531819 -0.26573274 0.29821014
0.043896634 0.4154719 -0.20821296 -0.17865087 0.363272 0.021335362 -0.28161445 0.44078815
0.013737638 -0.25180453 0.41936344 0.05805252 -0.23048185 0.14156903 0.11516701 0.007860213
0.29225534 -0.24996966 -0.41309965 -0.09525031 -0.27072862 0.020844242 -0.37328643 -0.01272396
0.45401096 0.47560382 0.39024007 0.40582198 -0.55602115 -0.4189138 0.40651727 -0.20346668
-0.64180446 0.25383517 -0.27835327 0.09947678 0.09611161 0.4476352 -0.13650955 0.12434645
-0.40751922 0.40766877 0.53449243 -0.31188887 0.08080176 -0.5280539 0.31976303 -0.11530512
0.98249406 -0.10060362 -0.19780995 -0.29260164 0.36473578 -0.585139 0.40644035 0.0017311769
0.46366674 -0.6401126 0.13430947 -0.3379015 -0.04503876 0.11320825 -0.14488825 -0.09256376
-0.44703457 -0.14469093 -0.1400596 0.29473916 0.15623824 -0.37966025 -0.40116212 -0.18284212
0.3985564 0.13006192 -0.3709804 -0.4630119 -0.025516564 0.18662927 0.28365096 -0.28253734
0.36401188 0.39355436 0.1745219 -0.14950757 -0.052565306 -0.030085962 0.47102752 0.0363196
-0.15044928 -0.12427955 -0.05208017 0.52983594 -0.06875638 0.52828455 -0.16384518 0.29889438
-0.43913674 -0.3865609 0.3541905 -0.44697592 0.28550634 0.3035036 0.16228633 -0.114340454
-0.33414644 0.5547164 0.05141103 -0.20459421 -0.37574235 0.32644898 -0.19284023 -0.29394722
0.2842481 -0.31912628 0.14008816 -0.25137287 0.24677488 0.13065068 -0.2423676 0.39026096
-0.14933644 -0.45461378 -0.1953947 -0.3882077 -0.14832415 0.0085257925 -0.31609678 0.16809939
-0.37851337 -0.5062477 0.3099888 -0.117786914 0.30621222 -0.099545844 0.16216937 0.27225298
-0.15953769 0.4977653 0.09293913 0.27497235 -0.5617793 0.15134186 0.08678893 -0.11222013
0.049990106 -0.52370095 0.2719081 0.34860885 -0.5009698 -0.5044917 0.40268016 0.40785244
0.17662114 -0.2306826 -0.23297146 0.11597601 -0.5082098 0.20698342 -0.22417098 -0.2651806
0.11692376 -0.05815492 0.4066782 -0.3150986 -0.48871246 0.39489007 0.3278327 0.5116274
0.06392762 0.20868151 -0.18191257 -0.4456207 -0.39974564 -0.6310977 0.81774056 0.08876899
-0.4042349 0.30140838 -0.046874736 0.18875046 -0.08758637 -0.31742206 0.3038089 -0.24796516
00000000: 11d4 fc3e 4e6a 853d 7f74 193d 1e2a 943e
00000010: c714 9cbe 9830 cbbd cf62 da3e d5a9 a93e
00000020: 181d f6bd 35ee ed3c 5f8f 003f b29e 3bbe
00000030: 96a3 cebe 24f1 ef3e 9b6f 7e3e c0ee b3be
00000040: c631 ab3e 4add 8f3e 8b50 7d3e 19b1 b23e
00000050: 9f31 053f 557d 2cbe 2c1e 913e ec76 423e
00000060: 231e 74be cf9f 943d 3c25 a6be f0b2 353e
00000070: b7b0 693e d2c0 dbbe 30c7 bfbb 9a6f ed3e
00000080: 816c ed3e 131a eabd 7a0d f8be 1131 353d
00000090: e315 ab3e 5b70 753d 24d6 a5be 85ba 853e
000000a0: 4ac5 f1be cde6 5b3e 3c42 47be 89fd 033e
000000b0: 1cc3 c83e c8d0 d1be 2c34 57bb 1992 9e3d
000000c0: d68c 633e f903 ba3e 4ae4 c33e 6e5a acbc
000000d0: f117 803e fc55 9f3e d258 913e 2918 48be
000000e0: 5779 a3be 55ec ff3e 178f b7be 0fa7 8ebe
000000f0: cdf6 0f3f a117 ddbe a629 b6be 9d95 a43e
00000100: ddad 0e3e 2ad8 42be e858 893e 8c9f 92bd
00000110: 08c5 4e3e 4a25 08bf 1f0e 88be 00af 983e
00000120: f5cc 333d bcb8 d43e c735 55be 41f0 36be
00000130: cafe b93e 7fc7 ae3c c52f 90be fcae e13e
00000140: d413 613c 86ec 80be ceb6 d63e 7bc8 6d3d
00000150: 6f03 6cbe 79f7 103e aedc eb3d 1fc8 003c
00000160: 7ea2 953e 0cf8 7fbe cc81 d3be 9812 c3bd
00000170: f19c 8abe 8bc1 aa3c 661f bfbe 2878 50bc
00000180: 2074 e83e 5882 f33e 8ccd c73e e6c7 cf3e
00000190: 6757 0ebf df7b d6be 0823 d03e 9259 50be
000001a0: 4c4d 24bf aff6 813e 5284 8ebe 7bba cb3d
000001b0: 2ad6 c43d 7130 e53e 29c9 0bbe 5aa9 fe3d
000001c0: 5ca6 d0be f6b9 d03e 7fd4 083f e6af 9fbe
000001d0: 657b a53d 8a2e 07bf fbb7 a33e 1725 ecbd
000001e0: bb84 7b3f 4509 cebd b18e 4abe e2cf 95be
000001f0: a6be ba3e abcb 15bf f318 d03e a8e8 e23a
00000200: ba65 ed3e 6bde 23bf 6c88 093e 6d01 adbe
00000210: 907a 38bd bad9 e73d 965d 14be 1292 bdbd
00000220: b7e1 e4be dc29 14be c96b 0fbe 0de8 963e
00000230: ebfc 1f3e d462 c2be 1f65 cdbe f73a 3bbe
00000240: 960f cc3e f42e 053e 25f1 bdbe e50f edbe
00000250: 1d08 d1bc be1b 3f3e b33a 913e bca8 90be
00000260: c45f ba3e f57f c93e deb5 323e 8318 19be
00000270: b84e 57bd d676 f6bc 852a f13e dcc3 143d
00000280: 600f 1abe 4786 febd 0452 55bd 54a3 073f
00000290: 25d0 8cbd a83d 073f 08c7 27be af08 993e
000002a0: 88d6 e0be 4feb c5be 7558 b53e 07da e4be
000002b0: e32d 923e d364 9b3e 632e 263e 542b eabd
000002c0: 3e15 abbe e501 0e3f 5f94 523d 2581 51be
000002d0: 4d61 c0be 5224 a73e e977 45be 4080 96be
000002e0: f888 913e 8564 a3be 4573 0f3e f2b3 80be
000002f0: 8eb2 7c3e 4bc9 053e 362f 78be 49d0 c73e
00000300: a7eb 18be 23c3 e8be 8c15 48be 29c3 c6be
00000310: 49e2 17be c4af 0b3c 70d7 a1be 3f22 2c3e
00000320: 81cc c1be 7399 01bf dab6 9e3e 443a f1bd
00000330: d9c7 9c3e b1de cbbd ba0f 263e be64 8b3e
00000340: d95d 23be 18db fe3e df56 be3d 2dc9 8c3e
00000350: c5d0 0fbf 5cf9 1a3e 65be b13d abd3 e5bd
00000360: 6dc2 4c3d 4411 06bf 8a37 8b3e dc7c b23e
00000370: 8f3f 00bf 5e26 01bf 182c ce3e 09d2 d03e
00000380: 2cdc 343e 0f38 6cbe 1290 6ebe d584 ed3d
00000390: 0a1a 02bf 76f3 533e 148d 65be c0c5 87be
000003a0: b975 ef3d da33 6ebd 2038 d03e 9b54 a1be
000003b0: 8538 fabe 082f ca3e b0d9 a73e 03fa 023f
000003c0: 7cec 823d 9bb0 553e 4a47 3abe 6528 e4be
000003d0: 76ab ccbe 9e8f 21bf 7257 513f 84cc b53d
000003e0: e0f7 cebe 3352 9a3e b9ff 3fbd cd47 413e
000003f0: 7c60 b3bd 2585 a2be d78c 9b3e 94ea 7dbe

VAE.encoder_mu.layers.0.linear0.bias f4 [128]
-0.14369941 0.47593245 -0.4765784 0.09888073 -0.34506658 -0.23534052 0.27996543 0.33579937
-0.2786969 0.5282248 0.2744957 -0.087859474 -0.16778538 0.26315615 -0.15564902 0.13261205
-0.37164417 0.076709166 0.118807115 -0.56303686 -0.5751759 -0.3977152 -0.388993 0.053073965
-0.49745095 -0.2731053 0.35336328 -0.1264614 -0.08886118 -0.2571867 -0.16438429 -0.21538877
0.06076732 -0.40146562 -0.21898375 -0.2928881 -0.38386464 0.011832539 -0.021049947 0.37437055
-0.56619644 0.09017343 -0.27393708 0.49691474 -0.31096166 0.004264663 0.0652231 -0.3340348
-0.29419112 0.23738354 -0.18490241 0.35223743 -0.0923224 0.1377204 -0.25488746 -0.5799261
0.12045807 -0.35999152 -0.22122693 -0.41116625 -0.1572448 -0.2254306 -0.500226 0.037091408
0.40423518 -0.53417534 -0.5164234 0.27340147 -0.24714845 0.39317724 -0.11076838 0.07264775
-0.2871726 0.31279618 -0.29010317 -0.22572966 0.32341093 -0.19751039 -0.29006714 -0.27185106
-0.18140434 -0.048356436 -0.3073305 0.2866576 -0.50455636 0.05794344 -0.24360387 0.16249768
-0.35621616 0.045133803 -0.07883538 -0.4440734 -0.0868147 -0.10467479 0.35356566 -0.48126537
-0.2882927 -0.25775078 0.02156182 0.25300997 -0.13959013 0.5169047 -0.3173358 0.28631607
-0.28263313 0.053498186 0.20089872 -0.40514317 0.13249026 0.36029345 -0.44620502 -0.40526164
-0.51484334 0.03573091 0.33091465 0.5071386 0.4563281 0.019905616 -0.4067294 -0.041675065
0.30085042 0.4544926 0.311507 0.13900259 -0.022706637 -0.23117198 -0.46471447 -0.011384439
00000000: f025 13be 6bad f33e 1602 f4be fb81 ca3d
00000010: 91ac b0be 1bfd 70be a157 8f3e e5ed ab3e
00000020: 5cb1 8ebe be39 073f b38a 8c3e abef b3bd
00000030: eecf 2bbe 67bc 863e 7562 1fbe 74cb 073e
00000040: 2548 bebe b219 9d3d 2551 f33d 2f23 10bf
00000050: ba3e 13bf 54a1 cbbe 172a c7be 1664 593d
00000060: e4b1 febe 75d4 8bbe 08ec b43e 197f 01be
00000070: dafc b5bd faad 83be 5b54 28be e08e 5cbe
00000080: 27e7 783d e78c cdbe 473d 60be 6ef5 95be
00000090: e889 c4be 44dd 413c f070 acbc 7fad bf3e
000000a0: 40f2 10bf d9ac b83d 7b41 8cbe 9c6b fe3e
000000b0: 5e36 9fbe 96be 8b3b b093 853d 9c06 abbe
000000c0: 38a0 96be ac14 733e 0f57 3dbe 7758 b43e
000000d0: 8713 bdbd 9406 0d3e 9c80 82be 0976 14bf
000000e0: b8b2 f63d cf50 b8be 5089 62be 6284 d2be
000000f0: c804 21be 47d7 66be d00e 00bf 29ed 173d
00000100: eaf7 ce3e b7bf 08bf 5334 04bf 47fb 8b3e
00000110: 7c14 7dbe 874e c93e 88da e2bd 58c8 943d
00000120: 4908 93be d226 a03e 6788 94be ad25 67be
00000130: 1e96 a53e 2a40 4abe ae83 94be 1030 8bbe
00000140: 0fc2 39be 6611 46bd 6c5a 9dbe c9c4 923e
00000150: 9b2a 01bf 1a56 6d3d 4b73 79be cb65 263e
00000160: f761 b6be 39de 383d 7274 a1bd 975d e3be
00000170: e8cb b1bd bc5f d6bd 8f06 b53e 6a68 f6be
00000180: 1a9b 93be e9f7 83be 6aa2 b03c 868a 813e
00000190: b7f0 0ebe de53 043f d779 a2be 0598 923e
000001a0: 4ab5 90be ea20 5b3d 65b8 4d3e ed6e cfbe
000001b0: 87ab 073e 6278 b83e fc74 e4be 747e cfbe
000001c0: c6cc 03bf 935a 123d a56d a93e d6d3 013f
000001d0: d6a3 e93e 1a11 a33c d63e d0be 79b3 2abd
000001e0: 1109 9a3e 41b3 e83e d87d 9f3e b256 0e3e
000001f0: 4503 babc 59b8 6cbe 0eef edbe cc85 3abc

VAE.encoder_mu.layers.0.linear1.weight f4 [4, 128]
0.08375041 -0.14176294 -0.08740054 -0.0874152 0.019126687 -0.014496223 0.021724189 0.09859108
0.07121132 0.06715648 0.1888543 -0.0903208 -0.073855184 -0.037280798 0.15578626 -0.00725061
-0.097133055 -0.074213155 0.107949115 -0.05204644 0.13299145 -0.35354328 0.09746914 0.05191812
-0.065021336 0.12889834 0.127686 0.15978391 0.022454912 -0.25301397 0.082016446 -0.020434482
-0.010720033 -0.6556089 0.16538228 -0.06112684 -0.15387747 -0.05443764 0.0095011825 -0.19090974
0.12274905 0.13670179 -0.037654884 0.05563193 0.074151576 0.05811565 0.03793012 0.0283506
0.11545147 -0.012693363 -0.13725011 0.03530429 -0.036574267 0.024536347 -0.007085514 0.042474184
0.030237464 -0.06277644 -0.079249874 -0.07558506 0.02834768 -0.07116807 -0.004237948 -0.12724563
-0.060378574 -0.11517508 -0.24231724 -0.07429716 0.10362824 -0.015867379 -0.04490692 0.03552339
0.14257243 -0.16804694 0.3757609 -0.19477767 0.028005222 0.022258531 0.07836373 -0.011234924
0.013213457 -0.021178192 0.060706157 -0.12163953 0.021715982 0.07810605 0.16476975 0.048074882
0.13403785 -0.106194444 -0.02349644 -0.33918872 9.4192554e-05 0.04653078 -0.0444414 0.087951496
0.07198862 0.025842758 -0.14689712 -0.14120355 -0.2234255 -0.07627423 -0.14842908 0.12958187
0.071770445 0.086458206 -0.046931453 -0.11120462 0.07942805 -0.07781226 0.05152602 -0.10133915
-0.03286277 0.08998953 -0.043447416 0.087488845 0.17087588 0.1289706 0.099462435 0.008771936
0.16686966 -0.13565312 0.013067128 -0.10764697 -0.21011114 0.056987617 0.24069595 0.059971813
-0.15927753 -0.03273418 0.095017485 -0.07577289 -0.044293493 0.2096671 0.036152255 0.032361485
0.061214603 0.011988807 -0.011326475 0.051816314 -0.11959851 -0.15055451 -0.084923394 0.16091383
-0.03919962 -0.0433733 -0.015844785 0.069282465 -0.17515783 -0.13052796 0.019966513 -0.05737129
-0.07921992 0.27700016 -0.013284074 0.08807798 0.11061941 -0.06900297 -0.15108709 0.14369579
-0.07542582 -1.2185154 -0.01894821 -0.124304466 -0.011848995 0.045364458 -0.12206421 0.05340365
0.03309226 -0.064926654 0.044926237 -0.1586832 -0.1408465 -0.15099178 0.10500072 -0.0210949
0.054522064 0.019051882 0.23236275 -0.012997755 -0.03370061 -0.08562398 -0.22092368 0.08732533
0.10295391 -0.15765281 -0.08380705 -0.03971665 -0.08390018 0.28913364 -0.15199347 -0.05566121
-0.18981716 0.017247563 -0.06617444 -0.14712727 -0.024701566 -0.113937244 -0.08405912 0.027547693
0.07334299 0.026398731 -0.05786079 -0.09576568 -0.09656813 -0.098712094 -0.03136187 0.2242595
-0.023682844 -0.054713484 0.18548115 0.015450694 -0.12119042 0.08587939 0.058048442 -0.035497226
0.02315016 -0.12106365 -0.012100625 -0.21654359 0.024239965 0.04107947 -0.23674428 -0.18227105
-0.11296816 0.07936495 0.04648912 -0.0071730544 -0.007842555 -0.17316371 -0.054695297 0.06666844
-0.10320904 -0.15174283 -0.038741324 -0.16002545 -0.09229449 0.066708885 -0.14743833 -0.04122189
-0.1089959 -0.16785252 -0.00533889 -0.043734353 0.0014733615 -0.035705544 -0.14765559 -0.14393827
0.011043163 0.08540376 0.0044675306 0.17411199 -0.05572428 -0.114612274 -0.25359762 -0.13478264
00000000: 5685 ab3d 4e2a 11be 0eff b2bd be06 b3bd
00000010: 92af 9c3c 9181 6dbc edf6 b13c 1fea c93d
00000020: 3ed7 913d 5689 893d 0663 413e 1dfa b8bd
00000030: 6341 97bd c0b3 18bd 6f86 1f3e 8696 edbb
00000040: b2ed c6bd 11fd 97bd 6d14 dd3d a62e 55bd
00000050: e92e 083e a003 b5be e79d c73d 18a8 543d
00000060: e829 85bd edfd 033e 1ec0 023e 659e 233e
00000070: 5df3 b73c 0c8b 81be 3df8 a73d 3766 a7bc
00000080: 14a3 2fbc fcd5 27bf f959 293e 2360 7abd
00000090: 0e92 1dbe 01fa 5ebd d9aa 1b3c d87d 43be
000000a0: db63 fb3d 8efb 0b3e 023c 1abd 4ede 633d
000000b0: c8dc 973d ad0a 6e3d 9d5c 1b3d 843f e83c
000000c0: d271 ec3d d3f7 4fbc 4b8b 0cbe 3b9b 103d
000000d0: e6ce 15bd 7300 c93c 992d e8bb 69f9 2d3d
000000e0: 8fb4 f73c ef90 80bd c24d a2bd 57cc 9abd
000000f0: 6539 e83c 91c0 91bd 7cde 8abb ae4c 02be
00000100: 864f 77bd eae0 ebbd 0322 78be 1c29 98bd
00000110: 0b3b d43d 4efc 81bc 52f0 37bd f980 113d
00000120: 82fe 113e 7f14 2cbe bc63 c03e cc73 47be
00000130: 356b e53c 8657 b63c 2a7d a03d b012 38bc
00000140: 417d 583c e37d adbc 05a7 783d 251e f9bd
00000150: b7e5 b13c 11f6 9f3d 67b9 283e 2bea 443d
00000160: 3841 093e 797c d9bd 9b7b c0bc 25aa adbe
00000170: 3e89 c538 0f97 3e3d 2f08 36bd ea1f b43d
00000180: c56e 933d 31b4 d33c 336c 16be aa97 10be
00000190: a7c9 64be aa35 9cbd cbfd 17be 1cb1 043e
000001a0: 62fc 923d 0011 b13d 323b 40bd 3fbf e3bd
000001b0: 2cab a23d 095c 9fbd f30c 533d e68a cfbd
000001c0: 1d9b 06bd 6e4c b83d ebf5 31bd 5a2d b33d
000001d0: 16fa 2e3e de10 043e f6b2 cb3d 2bb8 0f3c
000001e0: e1df 2a3e a7e8 0abe 8217 563c 0476 dcbd
000001f0: 6027 57be d96b 693d 0079 763e 01a5 753d
00000200: a619 23be 4714 06bd 8798 c23d d12e 9bbd
00000210: 186d 35bd f9b2 563e 6314 143d 7a8d 043d
00000220: 2abc 7a3d b36c 443c ae92 39bc 583d 543d
00000230: 10f0 f4bd f62a 1abe 51ec adbd 98c6 243e
00000240: c88f 20bd 34a8 31bd eccc 81bc f7e3 8d3d
00000250: 935c 33be 1fa9 05be d090 a33c 28fe 6abd
00000260: 0e3e a2bd f7d2 8d3e 72a5 59bc 3a62 b43d
00000270: 6e8c e23d 6e51 8dbd 93b6 1abe fd24 133e
00000280: da78 9abd 50f8 9bbf 4739 9bbc 5793 febd
00000290: 4a22 42bc 15d0 393d cdfc f9bd c9bd 5a3d
000002a0: c08b 073d 44f8 84bd 9304 383d d97d 22be
000002b0: 113a 10be 979d 1abe 9e0a d73d 36cf acbc
000002c0: 8752 5f3d b112 9c3c 80f0 6d3e 89f4 54bc
000002d0: a709 0abd a05b afbd d139 62be 9fd7 b23d
000002e0: 80d9 d23d bd6f 21be 08a3 abbd edad 22bd
000002f0: dcd3 abbd 5309 943e 2da4 1bbe 02fd 63bd
00000300: 6e5f 42be c34a 8d3c 7786 87bd 88a8 16be
00000310: f05a cabc ee57 e9bd 3027 acbd b3ab e13c
00000320: d934 963d 2742 d83c 70ff 6cbd cc20 c4bd
00000330: 83c5 c5bd 9129 cabd 4e75 00bd 48a4 653e
00000340: 8602 c2bc 3f1b 60bd c5ee 3d3e e824 7d3c
00000350: af32 f8bd 89e1 af3d 34c4 6d3d 8a65 11bd
00000360: 68a5 bd3c 38f0 f7bd b341 46bc 9abd 5dbe
00000370: e492 c63c f242 283d 186d 72be 43a5 3abe
00000380: da5b e7bd 178a a23d 606b 3e3d f10b ebbb
00000390: 0f7e 00bc d451 31be 2d08 60bd 7789 883d
000003a0: 435f d3bd 7962 1bbe 39af 1ebd b6dd 23be
000003b0: e504 bdbd ab9e 883d 13fa 16be 49d8 28bd
000003c0: 3e39 dfbd 88e1 2bbe dbf1 aebb cb22 33bd
000003d0: cf1d c13a fa3f 12bd 0733 17be 8e64 13be
000003e0: 62ee 343c 2be8 ae3d 5d64 923b 6a4a 323e
000003f0: 253f 64bd d7b9 eabd 8cd7 81be 7604 0abe

VAE.encoder_mu.layers.0.linear1.bias f4 [4]
0.033736233 0.008960937 -0.0845394 0.012579318
00000000: 012f 0a3d e5d0 123c fe22 adbd 7c19 4e3c

VAE.encoder_mu.layers.0.norm1.weight f4 [4]
1.2490281 1.1308764 1.0708575 1.0199441
00000000: 27e0 9f3f 8fc0 903f dc11 893f 878d 823f

VAE.encoder_mu.layers.0.norm1.bias f4 [4]
-0.047405973 0.14833713 0.051358685 0.021035908
00000000: c42c 42bd b0e5 173e 7c5d 523d 7f53 ac3c

VAE.encoder_mu.layers.1.attention.W_q.weight f4 [4, 4]
0.16252223 -0.11128867 -0.30494064 0.349335 0.09288516 0.2197238 0.49438784 -0.02743748
0.5125149 0.06634636 -0.18748151 0.4594056 -0.29717025 -0.4722617 -0.11940561 0.256122
00000000: 3a6c 263e 50eb e3bd 2e21 9cbe 0adc b23e
00000010: 933a be3d 47ff 603e 6720 fd3e 91c4 e0bc
00000020: 2d34 033f 9ae0 873d 27fb 3fbe 3637 eb3e
00000030: b326 98be 49cc f1be ee8a f4bd 6c22 833e

VAE.encoder_mu.layers.1.attention.W_q.bias f4 [4]
-0.14191976 0.108911164 0.1356517 0.13175197
00000000: 6a53 11be d10c df3d 47e8 0a3e fde9 063e

VAE.encoder_mu.layers.1.attention.W_k.weight f4 [4, 4]
0.49388537 -0.3974667 0.089197166 -0.4366601 0.26873547 -0.44253457 0.2220839 0.5077207
-0.36533004 0.00039108444 -0.27989146 0.37721536 -0.44608527 -0.36598 0.17976369 -0.10422069
00000000: 8bde fc3e c180 cbbe 01ad b63d ea91 dfbe
00000010: b297 893e e493 e2be f669 633e fcf9 013f
00000020: 8a0c bbbe 770a cd39 ef4d 8fbe 5f22 c13e
00000030: 4a65 e4be bb61 bbbe f913 383e a871 d5bd

VAE.encoder_mu.layers.1.attention.W_k.bias f4 [4]
-5.459339e-06 0.00016445974 -1.0194548e-06 5.507909e-05
00000000: 5d2f b7b6 d372 2c39 33d4 88b5 b904 6738

VAE.encoder_mu.layers.1.attention.W_v.weight f4 [4, 4]
-0.14997187 -0.20725395 -0.05554516 -0.1398194 -0.08994546 -0.20697264 0.0352827 -0.028969828
-0.18405497 -0.30013427 -0.06449278 -0.1151128 0.07199747 -0.041977607 0.20940115 0.11999787
00000000: 3a92 19be 613a 54be 5283 63bd d12c 0fbe
00000010: 5335 b8bd a3f0 53be 9884 103d 2252 edbc
00000020: e878 3cbe 33ab 99be ca14 84bd 42c0 ebbd
00000030: 6973 933d b6f0 2bbd 416d 563e 71c1 f53d

VAE.encoder_mu.layers.1.attention.W_v.bias f4 [4]
-0.019384816 -0.03552854 0.025630925 -0.0046542077
00000000: e8cc 9ebc 6086 11bd f2f7 d13c 5382 98bb

VAE.encoder_mu.layers.1.linear0.weight f4 [128, 4]
0.57702863 -0.17698164 -0.27144396 0.40723085 -0.007246085 0.085565746 0.056519445 0.32062617
0.13973206 -0.03266358 -0.019286696 -0.6112424 0.30501902 -0.21541256 -0.41014495 -0.33280495
-0.46997356 0.012090013 0.014598197 -0.07509141 -0.298033 0.53575003 -0.065097675 -0.47733864
0.17738086 0.37816978 0.3288181 -0.42202014 -0.2541305 -0.5483058 -0.17800148 0.37986088
-0.41913587 -0.25771448 0.2643046 -0.1727003 0.5975723 0.633847 -0.19190991 -0.04916071
0.37328628 0.16634122 -0.28416294 0.03993698 -0.20950422 0.33393863 -0.64509684 -0.006988684
-0.10507697 0.60839933 0.041696507 -0.21321864 -0.260541 -0.41206467 -0.37596387 0.108769014
0.3665576 -0.19895715 -0.3959071 0.34936514 0.292915 0.5186666 0.23018183 -0.4799993
-0.22726387 0.1350904 -0.35357678 -0.38753334 0.37997892 0.36929077 0.12996633 -0.45261726
0.1215581 -0.38817868 0.33895522 0.21364383 -0.09948446 0.01506366 -0.36755323 0.5459323
-0.3676352 0.31859103 0.14745976 -0.19262604 -0.42026746 -0.22467244 0.2993465 -0.11091311
-0.30260447 -0.17465517 -0.20351472 0.467927 0.435417 -0.09767863 0.09118057 -0.1637335
0.4163898 0.62195003 -0.16577473 -0.5019471 0.100648336 0.32125887 -0.33307523 -0.089768015
0.17121291 -0.20599097 -0.27729583 -0.53295785 -0.003270539 -0.4655794 -0.32191622 -0.05796194
0.26897705 -0.5671164 0.25068352 0.15079136 -0.2629196 0.54290944 0.43965933 -0.26599964
-0.33777276 -0.046940852 0.18832718 0.20545183 0.25824735 -0.5530595 0.33655718 0.306593
0.04389636 -0.3647307 0.28944358 0.14712097 0.21835206 0.42738086 0.54601026 -0.42790678
-0.448618 0.38123176 0.19558102 0.21397966 -0.45058274 -0.40876746 -0.3471048 -0.3440367
0.009199747 0.6762156 -0.31232673 -0.59101415 -0.3236 0.1664748 -0.098729685 0.19843283
-0.3769058 0.15310295 0.19874243 0.39713818 0.19481073 0.081943795 0.4002804 -0.41410202
0.4982395 -0.31181905 0.29564425 -0.618705 -0.35757348 0.4647046 -0.6160396 0.15631106
0.4588683 0.0245773 0.3752317 -0.08667773 -0.27622232 0.05230023 -0.40395918 0.32077497
-0.5654903 -0.27656412 -0.3635986 0.10683137 -0.6477613 -0.20907089 0.49941576 0.31593752
-0.49710736 0.209252 0.1339975 0.44289595 0.16586651 -0.2344755 0.64789677 0.13968638
-0.18204655 -0.37152648 -0.44757292 -0.15898274 -0.0745936 -0.22118168 -0.031691305 -0.10172482
-0.14204559 -0.325549 0.20534296 -0.17725082 -0.24707033 -0.26071396 0.12932819 0.425842
-0.13022329 -0.021522278 -0.20433454 -0.58875287 0.23240417 -0.3779968 0.12808098 0.6462431
-0.35068703 -0.17744444 0.33768708 -0.19757532 0.019362783 -0.32543468 0.26018238 -0.3133069
0.32927176 0.5819721 -0.23387566 0.3625188 -0.045867033 -2.9371673e-05 -0.45276457 0.11324575
-0.3796177 0.006958386 -0.031380966 0.3567174 0.6072681 0.48731568 -0.19667096 -0.041142218
0.18224758 -0.5961973 -0.051468644 0.05283286 -0.2980074 0.69726187 0.08956612 0.50236523
-0.006547054 -0.09441556 0.52690804 0.39213136 0.368001 0.47333077 0.022580815 -0.46704033
00000000: 26b8 133f ad3a 35be b4fa 8abe 9080 d03e
00000010: 9170 edbb 183d af3d ef80 673d 1d29 a43e
00000020: ec15 0f3e 3fca 05bd 22ff 9dbc 627a 1cbf
00000030: 742b 9c3e 1c95 5cbe 85fe d1be 6965 aabe
00000040: 60a0 f0be 3115 463c 472d 6f3c 86c9 99bd
00000050: c897 98be ea26 093f ee51 85bd bb65 f4be
00000060: 54a3 353e 789f c13e d95a a83e 0613 d8be
00000070: 651d 82be c55d 0cbf 0546 36be 207d c23e
00000080: fa98 d6be 27f3 83be ef52 873e 59d8 30be
00000090: 80fa 183f cc43 223f 0884 44be be5c 49bd
000000a0: 611f bf3e 5a55 2a3e ce7d 91be f594 233d
000000b0: 4688 56be 01fa aa3e 1125 25bf 5501 e5bb
000000c0: 9832 d7bd 0fc0 1b3f f5c9 2a3d fd55 5abe
000000d0: a165 85be 24fa d2be 567e c0be 4ac2 de3d
000000e0: 70ad bb3e 6cbb 4bbe 56b4 cabe fddf b23e
000000f0: f4f8 953e 56c7 043f c9b4 6b3e 78c2 f5be
00000100: dcb7 68be 2355 0a3e 0408 b5be c56a c6be
00000110: 998c c23e ae13 bd3e e515 053e 73bd e7be
00000120: 74f3 f83d 5bbf c6be 8a8b ad3e 73c5 5a3e
00000130: 82be cbbd 92cd 763c f02f bcbe 38c2 0b3f
00000140: ae3a bcbe 5d1e a33e b1ff 163e c33f 45be
00000150: 4c2d d7be 8810 66be f243 993e 6a26 e3bd
00000160: f9ee 9abe ced8 32be 2a66 50be 2194 ef3e
00000170: faee de3e bc0b c8bd e1bc ba3d c1a9 27be
00000180: 0b31 d53e 1e38 1f3f dac0 29be 9b7f 00bf
00000190: b720 ce3d 0b7c a43e d688 aabe 4bd8 b7bd
000001a0: 7052 2f3e 4cef 52be b8f9 8dbe ed6f 08bf
000001b0: 8a56 56bb 6c60 eebe 34d2 a4be 8069 6dbd
000001c0: 5cb7 893e 8a2e 11bf 9759 803e 0d69 1a3e
000001d0: 669d 86be 1dfc 0a3f 071b e13e 1b31 88be
000001e0: 8df0 acbe 0d45 40bd d7d8 403e f761 523e
000001f0: ff38 843e 4f95 0dbf 3951 ac3e c2f9 9c3e
00000200: abcc 333d fbbd babe f331 943e e1a6 163e
00000210: af97 5f3e aad1 da3e 54c7 0b3f 9916 dbbe
00000220: 42b1 e5be cf30 c33e 6446 483e 7c1d 5b3e
00000230: c8b2 e6be f849 d1be b8b7 b1be 9425 b0be
00000240: 89ba 163c 771c 2d3f 4ae9 9fbe b44c 17bf
00000250: e6ae a5be 5f78 2a3e ca32 cabd fa31 4b3e
00000260: ccf9 c0be 05c7 1c3e 2383 4b3e b255 cb3e
00000270: 777c 473e 26d2 a73d 8df1 cc3e 2e05 d4be
00000280: 3f19 ff3e bfa6 9fbe af5e 973e 7363 1ebf
00000290: df13 b7be c3ed ed3e c5b4 1dbf 0210 203e
000002a0: c9f0 ea3e 5556 c93c 5f1e c03e 1884 b1bd
000002b0: 036d 8dbe c438 563d bdd3 cebe 9e3c a43e
000002c0: f9c3 10bf d099 8dbe 9829 babe 68ca da3d
000002d0: afd3 25bf ae16 56be 6cb3 ff3e 90c2 a13e
000002e0: db84 febe 2846 563e a436 093e 42c3 e23e
000002f0: e9d8 293e 581a 70be 90dc 253f f209 0f3e
00000300: 696a 3abe b838 bebe 4728 e5be 5fcc 22be
00000310: 88c4 98bd 737d 62be bece 01bd 1a55 d0bd
00000320: 6674 11be 5cae a6be 6d45 523e 3d81 35be
00000330: 0100 7dbe 4d7c 85be 9c6e 043e f607 da3e
00000340: 4159 05be 7d4f b0bc 133d 51be 82b8 16bf
00000350: 5cfb 6d3e cc88 c1be a927 033e 3070 253f
00000360: 408d b3be ffb3 35be 52e5 ac3e 2f51 4abe
00000370: b39e 9e3c 609f a6be a036 853e c369 a0be
00000380: 4f96 a83e 20fc 143f 1a7d 6fbe 109c b93e
00000390: 12df 3bbd 3063 f6b7 c2d0 e7be 63ed e73d
000003a0: 405d c2be 2c03 e43b 5489 00bd aaa3 b63e
000003b0: ec75 1b3f 7181 f93e 1d64 49be be84 28bd
000003c0: 1c9f 3a3e 63a0 18bf c9d0 52bd 4567 583d
000003d0: 6d94 98be c17f 323f 716e b73d 029b 003f
000003e0: ab88 d6bb f25c c1bd 72e3 063f 71c5 c83e
000003f0: a16a bc3e 6958 f23e 67fb b83c e91f efbe

VAE.encoder_mu.layers.1.linear0.bias f4 [128]
0.07987994 0.007819928 -0.2593015 0.18871967 0.1911388 0.3181592 -0.36470857 -0.103637286
-0.05378487 -0.2167221 -0.26121435 -0.26255774 0.24718913 0.08704706 0.44076976 0.38744345
0.115726374 -0.14546862 -0.44603875 0.15249647 -0.25188875 0.10881912 -0.009892555 0.39739996
-0.5746491 -0.036219206 0.45324376 -0.3784363 -0.17180188 0.3896584 -0.45924833 -0.47508898
-0.5172781 0.22893763 0.07576721 -0.4848171 -0.18824954 0.23126449 -0.15983236 -0.18837829
-0.26438656 -0.59331375 -0.2293012 -0.3716818 -0.31146905 0.330414 -0.3416579 -0.29547113
-0.49231157 0.3545347 -0.097817406 -0.3420557 -0.072018236 0.029377205 0.095835775 0.5797225
-0.06349767 -0.42490122 0.4297054 0.44895387 -0.3836365 -0.33476958 0.011496095 -0.26723105
-0.19000117 -0.4959018 -0.45787543 -0.16461986 0.1857585 -0.43462783 -0.53190947 0.48020872
-0.030741805 -0.29020616 0.420459 -0.20355676 0.37971443 0.13102092 -0.03347586 -0.30755827
0.38652027 0.37825033 -0.21553116 -0.2643548 -0.4136014 -0.22198729 -0.2816572 0.27157572
-0.47130895 -0.23487449 -0.013869039 -0.30228382 -0.20155025 -0.39610007 0.1053978 0.52226853
-0.14020948 -0.08655591 0.25974557 -0.03675947 -0.016688507 0.38894278 -0.38102007 0.21424982
-0.09060209 -0.64159536 -0.38978645 0.44879544 -0.22404483 -0.34586287 0.21502464 0.10700049
0.12720975 -0.25334674 0.028721467 0.003832742 -0.11999287 -0.11994849 -0.12666167 -0.5199289
0.113656536 0.283566 -0.09960538 0.30031422 0.4668309 -0.21054724 -0.19330606 0.53043365
00000000: 1898 a33d 281f 003c 2bc3 84be bb3f 413e
00000010: e4b9 433e c3e5 a23e 15bb babe c93f d4bd
00000020: 864d 5cbd 66ec 5dbe e3bd 85be f86d 86be
00000030: 261f 7d3e bb45 b23d 93ac e13e fd5e c63e
00000040: f301 ed3d baf5 14be 315f e4be 0928 1c3e
00000050: 90f7 80be 8fdc de3d 6214 22bc 0278 cb3e
00000060: 341c 13bf 975a 14bd 910f e83e 67c2 c1be
00000070: d5ec 2fbe 4e81 c73e 9922 ebbe dd3e f3be
00000080: 566c 04bf a06e 6a3e d72b 9b3d f239 f8be
00000090: 7dc4 40be 99d0 6c3e 18ab 23be 3de6 40be
000000a0: ad5d 87be 69e3 17bf efcd 6abe 144d bebe
000000b0: df78 9fbe 062c a93e c9ed aebe fe47 97be
000000c0: 4310 fcbe 9285 b53e 7e54 c8bd ed21 afbe
000000d0: 4c7e 93bd 77a8 f03c 8c45 c43d b268 143f
000000e0: 110b 82bd a78c d9be 5902 dc3e 48dd e53e
000000f0: 016c c4be eb66 abbe 1e5a 3c3c 82d2 88be
00000100: ab8f 42be d7e6 fdbe a66e eabe 1c92 28be
00000110: 7a37 3e3e 8a87 debe 382b 08bf ebdd f53e
00000120: 3dd6 fbbc e795 94be 6746 d73e 2f71 50be
00000130: ee69 c23e 592a 063e fc1d 09bd 4778 9dbe
00000140: fce5 c53e 07aa c13e 33b4 5cbe 8359 87be
00000150: 90c3 d3be a350 63be 5f35 90be f90b 8b3e
00000160: 684f f1be f082 70be f73a 63bc f2c4 9abe
00000170: 3063 4ebe a1cd cabe cdda d73d 64b3 053f
00000180: 1393 0fbe 3a44 b1bd 5ffd 843e 1991 16bd
00000190: 56b6 88bc 8223 c73e 1015 c3be 4e64 5b3e
000001a0: 978d b9bd 983f 24bf 1792 c7be 84c8 e53e
000001b0: 026c 65be f014 b1be 6b2f 5c3e 1323 db3d
000001c0: 4643 023e aab6 81be 4849 eb3c be2e 7b3b
000001d0: d2be f5bd 8ea7 f5bd 99b3 01be 0f1a 05bf
000001e0: c2c4 e83d 902f 913e e8fd cbbd c9c2 993e
000001f0: 7604 ef3e b299 57be 06f2 45be 80ca 073f

VAE.encoder_mu.layers.1.linear1.weight f4 [4, 128]
-0.109710276 -0.107636854 0.015799211 -0.08470561 -0.032229412 0.15155993 0.17850594 0.008567735
-0.06899454 -0.16540301 -0.14304207 -0.37753186 0.118340306 -0.0830276 -0.028443292 0.05066357
0.099568106 0.14590283 -0.12950316 -0.052341703 0.036762703 -0.027529443 -0.0573793 0.027640378
-0.31630066 -0.070556454 -0.032825325 0.2778469 0.09162965 0.004288325 -0.076229185 0.013187345
-0.21960877 0.1004918 0.04339831 0.00980401 0.23790944 -0.13860096 -0.09431785 0.031679947
-0.053803906 -0.4573882 -0.11327564 -0.40325516 -0.016176196 -0.03519455 -0.08011537 -0.11810274
0.047301672 -0.044238735 -0.15334482 0.22157395 0.15720852 0.09718942 0.010020262 0.09164343
-0.1661906 -0.10533704 -0.10044095 0.018112333 0.05352412 -0.001774319 -0.06514609 -0.026678788
0.12995286 -0.49392253 0.12694499 -0.04092105 -0.13258861 -0.23923035 0.33603007 -0.11906803
-0.013253925 0.008293573 0.032746736 0.0016240791 -0.07328171 0.00049488654 -0.013783222 0.09588431
0.16238047 0.09841831 -0.033506684 -0.19083495 0.031685207 -0.12837884 -0.084356874 -0.024273278
-0.06639363 -0.22484925 -0.014282537 -0.19292974 -0.0991242 -0.4082985 -0.15397698 0.10819481
0.13340448 -0.05453102 -0.043249454 0.13440005 -0.05700996 0.008771149 0.2513642 -0.03922093
0.083333 0.24557456 0.011232735 0.110830896 0.06276877 0.14745374 0.027572062 -0.025338592
-0.03406349 0.14522098 0.07822062 -0.10806896 -0.06138947 -0.16006348 0.10696585 0.030528355
0.114774555 0.12263731 -0.065643184 -0.021500643 -0.05602302 0.12586889 0.007861856 0.08647593
0.029024754 0.025103757 0.09541343 -0.051055282 0.14332578 0.054428272 -0.3868846 -0.12728415
-0.10518433 -0.0009602775 -0.07806989 0.13404143 0.18515144 -0.0064832075 0.068394125 0.023219075
0.22002587 0.00026638544 0.13139099 -0.011308669 0.085767895 0.18849175 -0.055694465 0.0647799
0.15455173 0.15281914 0.101070635 -0.0005059847 0.04874985 0.013236406 0.06320329 0.17468202
0.29571196 0.07050949 -0.030578606 0.009741138 0.21178927 0.07125601 -0.007897149 -0.020791218
0.108638994 0.12840673 0.04298193 -0.11735727 0.061655078 -0.08124926 0.0032229589 -0.0013189099
-0.05745052 -0.07328336 -0.067717746 -0.057257187 -0.056457642 0.029685242 -0.059899937 0.045228533
0.13202 0.051918816 0.040379852 0.24277255 -0.16448516 -0.379102 -0.16748834 0.038410526
-0.106597275 0.19595519 -0.050506573 -0.01373291 -0.04679729 0.36513853 0.011785148 0.020455386
0.2654848 -0.05335664 -0.07203589 -0.0936505 -0.09272781 -0.006581539 -0.0911867 -0.08989516
-0.038964786 0.0040082014 0.029748606 0.22082171 0.09002204 0.07406072 0.16073704 0.12288876
-0.009959598 0.019978223 0.020700822 -0.0685037 0.20337948 0.7993451 0.13440257 0.1049024
0.09109207 0.03682144 0.18243352 0.1269667 0.11252609 -0.026468165 0.03785033 0.34313866
0.06105293 0.026377551 -0.36316192 -0.016809592 -0.06822904 0.033874918 -0.025741303 0.28406072
0.11590787 -0.100432344 0.057615023 -0.14849398 0.028957566 0.069855995 -0.14048672 -0.37262473
0.1108953 0.047895387 0.020438485 0.116236456 0.051112194 -0.06449857 -0.19623546 -0.009914976
00000000: c8af e0bd b670 dcbd 596d 813c 237a adbd
00000010: fd02 04bd 8732 1b3e 43ca 363e af5f 0c3c
00000020: 024d 8dbd 685f 29be 9f79 12be db4b c1be
00000030: 675c f23d 600a aabd e801 e9bc 9b84 4f3d
00000040: 5dea cb3d 8d67 153e 7a9c 04be 4164 56bd
00000050: 7d94 163d 6d85 e1bc 8f06 6bbd 136e e23c
00000060: 29f2 a1be e77f 90bd d973 06bd f341 8e3e
00000070: 53a8 bb3d 1485 8c3b 0c1e 9cbd bc0f 583c
00000080: 1fe1 60be a5ce cd3d 6dc2 313d 00a1 203c
00000090: 889e 733e 69ed 0dbe b829 c1bd d5c2 013d
000000a0: 7c61 5cbd c92e eabe 0ffd e7bd 7677 cebe
000000b0: f183 84bc 2928 10bd 8713 a4bd d9df f1bd
000000c0: 66bf 413d ad33 35bd 6d06 1dbe 48e4 623e
000000d0: 45fb 203e 3f0b c73d 062c 243c 8daf bb3d
000000e0: de2d 2abe f2ba d7bd fcb3 cdbd 5160 943c
000000f0: 1c3c 5b3d 4490 e8ba 506b 85bd 798d dabc
00000100: 5d12 053e 6ae3 fcbe defd 013e d59c 27bd
00000110: 4fc5 07be cdf8 74be 220c ac3e f0d9 f3bd
00000120: fe26 59bc c4e1 073c 7121 063d 0ddf d43a
00000130: b914 96bd 46bb 013a 06d3 61bc fe5e c43d
00000140: 1147 263e 8a8f c93d 4e3e 09bd 3d6a 43be
00000150: 59c8 013d be75 03be 4cc3 acbd c1d8 c6bc
00000160: 62f9 87bd e23e 66be 4d01 6abc 608f 45be
00000170: a101 cbbd 800c d1be 24ac 1dbe 3e95 dd3d
00000180: 2f9b 083e eb5b 5fbd 5726 31bd 2ba0 093e
00000190: 4783 69bd deb4 0f3c cfb2 803e 20a6 20bd
000001a0: 7eaa aa3d e677 7b3e 8109 383c 4ffb e23d
000001b0: ea8c 803d 1dfe 163e cede e13c e192 cfbc
000001c0: 2886 0bbd cfb4 143e 2232 a03d 4253 ddbd
000001d0: 8673 7bbd aee7 23be e910 db3d 9a16 fa3c
000001e0: ec0e eb3d 4529 fb3d ef6f 86bd 1e22 b0bc
000001f0: 6578 65bd c6e3 003e 04cf 003c 4b1a b13d
00000200: 52c5 ed3c 65a6 cd3c 1e68 c33d 581f 51bd
00000210: fec3 123e 2ef0 5e3d bd15 c6be c756 02be
00000220: e26a d7bd 22bb 7bba 1be3 9fbd 2842 093e
00000230: 5798 3d3e 1671 d4bb 3812 8c3d ee35 be3c
00000240: 764e 613e a6a9 8b39 5c8b 063e ff47 39bc
00000250: 14a7 af3d fb03 413e e11f 64bd 53ab 843d
00000260: cf42 1e3e 9f7c 1c3e 1ffe ce3d 0fa4 04ba
00000270: ecad 473d 83dd 583c ba70 813d d8df 323e
00000280: 8f67 973e 4867 903d fc7f fabc 4b99 1f3c
00000290: 49df 583e acee 913d 0b63 01bc 5852 aabc
000002a0: 1f7e de3d 0e7d 033e d20d 303d 0259 f0bd
000002b0: 098a 7c3d 0366 a6bd 4738 533b 46df acba
000002c0: 3d51 6bbd 9615 96bd 9aaf 8abd 8386 6abd
000002d0: 2140 67bd 772e f33c a359 75bd 8e41 393d
000002e0: 4030 073e d3a8 543d 5865 253d 5e99 783e
000002f0: cc6e 28be a819 c2be 1082 2bbe 5b54 1d3d
00000300: ac4f dabd 7aa8 483e fbdf 4ebd 0000 61bc
00000310: 84ae 3fbd 70f3 ba3e 7e16 413c 0e92 a73c
00000320: a0ed 873e 7e8c 5abd 8d87 93bd d5cb bfbd
00000330: 14e8 bdbd f3a9 d7bb 18c0 babd f41a b8bd
00000340: 8a99 1fbd 3b57 833b 59b3 f33c 161f 623e
00000350: 7a5d b83d 26ad 973d 4098 243e 1aad fb3d
00000360: 952d 23bc 5fa9 a33c c594 a93c ab4b 8cbd
00000370: b642 503e e1a1 4c3f d4a0 093e 12d7 d63d
00000380: 7b8e ba3d 14d2 163d dacf 3a3e 8f03 023e
00000390: 1474 e63d c4d3 d8bc f308 1b3d dfaf af3e
000003a0: a312 7a3d bc15 d83c 5cf0 b9be 45b4 89bc
000003b0: abbb 8bbd 6dc0 0a3d 6ddf d2bc 6870 913e
000003c0: 1b61 ed3d 79af cdbd bbfd 6b3d ce0e 18be
000003d0: 6b38 ed3c a910 8f3d c0db 0fbe abc8 bebe
000003e0: 131d e33d f42d 443d 9c6e a73c 610d ee3d
000003f0: 055b 513d d417 84bd f3f1 48be 6c72 22bc

VAE.encoder_mu.layers.1.linear1.bias f4 [4]
0.07106105 0.13129129 0.0067139287 -0.012088611
00000000: 7588 913d 3971 063e 8400 dc3b 4f0f 46bc

VAE.encoder_mu.layers.1.norm1.weight f4 [4]
1.0640755 1.1595802 1.0972106 1.2413145
00000000: a033 883f 206d 943f 6671 8c3f 65e3 9e3f

VAE.encoder_mu.layers.1.norm1.bias f4 [4]
-0.04389854 0.2101527 0.02230781 -0.123499505
00000000: f5ce 33bd 4532 573e debe b63c 4fed fcbd

VAE.encoder_mu.layers.1.norm0.weight f4 [4]
0.84644943 0.9103355 0.76366657 0.8520048
00000000: e9b0 583f bf0b 693f a77f 433f fd1c 5a3f

VAE.encoder_mu.layers.1.norm0.bias f4 [4]
0.0064335307 0.0053020217 -0.0076522566 0.010321225
00000000: 5ed0 d23b 95bc ad3b c8bf fabb 5b1a 293c

VAE.encoder_mu.last_normalization.weight f4 [4]
1.0 1.0 1.0 1.0
00000000: 0000 803f 0000 803f 0000 803f 0000 803f

VAE.encoder_mu.last_normalization.bias f4 [4]
0.0 0.0 0.0 0.0
00000000: 0000 0000 0000 0000 0000 0000 0000 0000

VAE.encoder_mu.head.weight f4 [4, 4]
-0.215527 -0.15594453 -0.30236393 0.3880409 0.18493015 -0.33558112 -0.22885638 0.48405194
-0.44301003 0.26385015 -0.13030684 -0.054178774 0.077147245 0.406968 -0.14094448 -0.16713941
00000000: 1cb3 5cbe ecaf 1fbe 72cf 9abe 4cad c63e
00000010: 545e 3d3e 4ad1 abbe 5459 6abe a8d5 f73e
00000020: 36d2 e2be 5e17 873e 286f 05be 90ea 5dbd
00000030: 60ff 9d3d 1c5e d03e c053 10be 9826 2bbe

VAE.encoder_mu.head.bias f4 [4]
-0.13904262 -0.07949567 0.25448328 0.027391374
00000000: 3061 0ebe a0ce a2bd a24b 823e e063 e03c

VAE.encoder_logvar.layers.0.attention.W_q.weight f4 [4, 4]
0.7515145 0.6363925 -0.1207316 0.96934354 -0.67399544 -0.8518167 -0.13659945 -0.7822469
-0.44209653 0.09907939 -0.17575254 -0.4307098 0.8505048 0.008009916 0.46496624 -0.53689665
00000000: 4163 403f 9eea 223f 2142 f7bd e626 783f
00000010: f78a 2cbf a910 5abf bae0 0bbe 5541 48bf
00000020: 7a5a e2be 23ea ca3d 79f8 33be ff85 dcbe
00000030: afba 593f 063c 033c 0e10 ee3e 0f72 09bf

VAE.encoder_logvar.layers.0.attention.W_q.bias f4 [4]
-0.093603015 0.15026255 -0.12946436 -0.24833332
00000000: f0b2 bfbd 6dde 193e 4e92 04be 174b 7ebe

VAE.encoder_logvar.layers.0.attention.W_k.weight f4 [4, 4]
0.95959085 -0.3037047 0.09284524 0.26084954 -1.2389718 0.5716347 -0.7697239 -0.2591672
-0.36269653 0.08341512 0.7119112 0.25155056 -0.0873399 -0.44123313 0.5426795 0.45923802
00000000: bfa7 753f 2f7f 9bbe a525 be3d 128e 853e
00000010: a196 9ebf a756 123f a00c 45bf 90b1 84be
00000020: 5cb3 b9be 8cd5 aa3d d03f 363f 3ccb 803e
00000030: 43df b2bd 4fe9 e1be 0bed 0a3f 3f21 eb3e

VAE.encoder_logvar.layers.0.attention.W_k.bias f4 [4]
-0.00010134003 0.00012086981 -1.19676415e-05 -1.8182998e-05
00000000: 8486 d4b8 7c7b fd38 a1c8 48b7 b187 98b7

VAE.encoder_logvar.layers.0.attention.W_v.weight f4 [4, 4]
-0.16534989 -0.004594723 -0.34750435 -0.18105426 -0.20714942 -0.04515236 -0.34518838 -0.19406725
-0.21919926 0.0070170113 -0.3394438 -0.18639246 -0.27853316 0.0031244727 -0.3303013 -0.19856292
00000000: 7b51 29be 558f 96bb 17ec b1be 4a66 39be
00000010: fa1e 54be aef1 38bd 88bc b0be 91b9 46be
00000020: c575 60be f5ee e53b 94cb adbe aadd 3ebe
00000030: e69b 8ebe f4c3 4c3b 411d a9be 1454 4bbe

VAE.encoder_logvar.layers.0.attention.W_v.bias f4 [4]
-0.0082319435 -0.04214813 -0.0055300905 -0.10103478
00000000: 46df 06bc 84a3 2cbd c335 b5bb 53eb cebd
