tabsyn/vae/ckpt/news/model.pt (torch, 63647 bytes, 98 tensors)

VAE.Tokenizer.weight f4 [47, 4]
0	0x3e02df33	0.12780456
1	0xbef08fa6	-0.46984595
2	0x3ec3145e	0.38101476
3	0x3e2c6140	0.16833973
4	0xbe903edd	-0.2817296
5	0xbe0e3e4b	-0.1389095
6	0x3ebd9991	0.37031224
7	0x3e95ff2a	0.29296237
8	0x3f073452	0.5281421
9	0x3e7a216f	0.24426816
10	0x3d3789d8	0.044809192
11	0xbb34c021	-0.0027580338
12	0xbd895cf2	-0.06707181
13	0xbd7ef824	-0.062248364
14	0xbecdeeeb	-0.40221342
15	0xbd9aafa5	-0.07553033
16	0xbe8ccef4	-0.27501643
17	0x3f2a3374	0.6648476
18	0x3e7c97be	0.2466726
19	0x3de6be83	0.11266806
20	0x3e8087cf	0.25103614
21	0x3e95ddc8	0.29270768
22	0x3f0dbad3	0.55363196
23	0x3e2c9c4b	0.16856496
24	0x3e0434db	0.12910788
25	0x3c054979	0.008135193
26	0xbea3da9b	-0.3200272
27	0x3e2166be	0.1576185
28	0xbd134552	-0.03595478
29	0xbed70931	-0.419992
30	0xbe7ab318	-0.24482381
31	0xbe5c668f	-0.21523498
32	0x3d423c4b	0.04742078
33	0x3e8a5bf6	0.27023286
34	0xbf1d58e3	-0.61463755
35	0xbe95867e	-0.29204172
36	0xbef47d9c	-0.47752082
37	0x3e973d03	0.29538736
38	0xbe2a2683	-0.16616254
39	0xbe9061ae	-0.28199524
40	0xbe1b645f	-0.15175007
41	0xbf0c1a46	-0.5472759
42	0xbf029084	-0.51001763
43	0x3ca07292	0.019585881
44	0x3eae0fd9	0.33996466
45	0xbe8cb218	-0.27479625
46	0xbe13134a	-0.14362827
47	0x3e8794f8	0.26480842
48	0xbee72359	-0.45144156
49	0xbbbcde2f	-0.005763791
50	0xbdb0c2ca	-0.08630903
51	0x3e1978e6	0.14987525
52	0x3d2cf75e	0.042228095
53	0x3edb7646	0.42863673
54	0x3c11f844	0.008909289
55	0xbdc061c6	-0.09393649
56	0xbea83d56	-0.32859296
57	0xbe52c006	-0.20581064
58	0x3e9f69e3	0.31135473
59	0xbe06d714	-0.13167983
60	0xbf0edc13	-0.55804557
61	0xbebc9a54	-0.36836493
62	0xbc0e487d	-0.008684275
63	0xbc97a6d8	-0.018512174
64	0xbda31929	-0.07963783
65	0x3ea0f05c	0.3143338
66	0xbd9c95ff	-0.07645797
67	0xbf162c70	-0.58661556
68	0xbd0799d3	-0.033105683
69	0xbd874d27	-0.066065125
70	0xbe6a93f0	-0.22907996
71	0x3eadef48	0.3397162
72	0x3f10f36d	0.5662144
73	0x3d7f613a	0.06234858
74	0xbd8bf81a	-0.06834431
75	0xbec82eef	-0.39098307
76	0xbdbe58ee	-0.09294306
77	0xbe3e23ae	-0.18568298
78	0xbea74169	-0.3266709
79	0xbe472e05	-0.19451149
80	0x3f2c3627	0.6727013
81	0xbe97da08	-0.29658532
82	0xbdafc88a	-0.08583172
83	0xbd7e858d	-0.062139083
84	0xbb651462	-0.0034954776
85	0x3ef6db39	0.4821413
86	0x3e86bb49	0.26314762
87	0x3ceab2e8	0.028649762
88	0xbdeba65a	-0.115063384
89	0xbe874ccf	-0.26425788
90	0xbeb53a4d	-0.35396042
91	0xbdf7761f	-0.12083077
92	0xbe80cc9a	-0.251561
93	0xbd20f9f4	-0.039300874
94	0xbd0f9b60	-0.035060287
95	0xbdef6c0a	-0.11690529
96	0xbeed57a2	-0.4635592
97	0xbeb26939	-0.34845904
98	0xbda5e8a6	-0.08101015
99	0xbefa1758	-0.48845935
100	0x3e54a79e	0.20767066
101	0xbebe5557	-0.37174484
102	0x3d890812	0.066909924
103	0x3e9c40d8	0.30518222
104	0x3ed4382a	0.414491
105	0xbd876a47	-0.06612068
106	0xbe3ccd0f	-0.18437599
107	0x3e47731a	0.19477502
108	0xbce4a767	-0.027911855
109	0x3ea0be02	0.31394964
110	0x3e60002d	0.21875067
111	0xbe7e37c7	-0.24825965
112	0x3eb947a2	0.36187464
113	0xbd4a1952	-0.049340554
114	0xbd8ab684	-0.06773093
115	0x3dce2fee	0.100677356
116	0xbb9e0dd0	-0.004823424
117	0x3cee2de7	0.029074622
118	0xbed15b60	-0.40890026
119	0x3e8aa8d1	0.27081922
120	0xbd196eac	-0.03745906
121	0x3ea39448	0.31949067
122	0x3e6e4cc9	0.23271479
123	0x3dbabd3d	0.091181256
124	0xbf04d6e3	-0.5189039
125	0xbd32f309	-0.043688808
126	0xbd232b5e	-0.03983628
127	0x3e53e3e4	0.20692402
128	0x3df8a16b	0.12140163
129	0xbf080895	-0.53138095
130	0xbe764999	-0.24051513
131	0xbcd37cfa	-0.02581643
132	0xbee2c807	-0.44293234
133	0xbe2ddf38	-0.16979682
134	0x3e8f1bde	0.27950948
135	0x3e873fe3	0.2641593
136	0x3ec0c1ca	0.3764785
137	0xbe5d013c	-0.21582502
138	0x3d057e4b	0.032591145
139	0x3ed3c004	0.41357434
140	0x3e1c316c	0.15253228
141	0xbe15161f	-0.1455922
142	0xbe06ab61	-0.13151313
143	0xbd92dbbc	-0.07170817
144	0x3ebd0e73	0.36925086
145	0xbe3f4094	-0.18676978
146	0xbcacd6cf	-0.021098522
147	0xbea23718	-0.31682658
148	0xbe9486be	-0.2900905
149	0x3ea2c32d	0.31789532
150	0x3d5d03d9	0.053958748
151	0xbea281a2	-0.31739527
152	0x3e80631d	0.25075617
153	0xbef606ad	-0.48051968
154	0x3f1d67ff	0.6148681
155	0xbc084dd0	-0.008319333
156	0x3c5ce33a	0.013481909
157	0x3ebda078	0.3703649
158	0x3dddc182	0.10827924
159	0x3d56d974	0.052453473
160	0x3cb93164	0.02260656
161	0x3de706d4	0.11280599
162	0x3ebb00ac	0.3652395
163	0x3e512368	0.20423663
164	0xbefe8f34	-0.4971863
165	0x3ecb1219	0.39662245
166	0x3cb98380	0.022645712
167	0x3e36fc94	0.17869788
168	0x3f040355	0.51567584
169	0x3e51522b	0.20441501
170	0xbcfcea5f	-0.030873476
171	0xbdd7ed54	-0.105433136
172	0x3ed395fe	0.41325372
173	0xbee19533	-0.44059142
174	0x3e0d23ee	0.13783237
175	0xbe224771	-0.15847565
176	0x3d2fa6a1	0.04288352
177	0xbbf732ae	-0.0075438833
178	0xbed8d52a	-0.4235013
179	0xbe80cf31	-0.25158074
180	0xbe821172	-0.25403935
181	0x3f113b75	0.5673135
182	0xbda54704	-0.08070186
183	0x3d33724a	0.043810166
184	0xbe8ca06a	-0.27466136
185	0x3e458561	0.19289161
186	0x3e1a96a2	0.15096524
187	0x3eb82cde	0.3597173

VAE.Tokenizer.bias f4 [48, 4]
0	0x3e90044b	0.28128275
1	0x3f0a87e0	0.5411358
2	0x3d436990	0.047708094
3	0xbea64e01	-0.32481387
4	0x3eb73320	0.35781193
5	0x3ed03f29	0.40673187
6	0x3e97c963	0.29645833
7	0xbe30b7e2	-0.17257646
8	0xbe710dbb	-0.23540394
9	0xbe092aef	-0.13395284
10	0x3e7cfb59	0.24705257
11	0x3e272f82	0.16326717
12	0x3e48e8cc	0.19620055
13	0xbe125fe4	-0.14294392
14	0x3efd81c8	0.49513078
15	0x3e30794b	0.1723377
16	0xbea74169	-0.3266709
17	0x3d57ebf8	0.05271527
18	0xbe777cfa	-0.24168769
19	0x3ef898cf	0.48554084
20	0xbed4ed99	-0.41587523
21	0x3e750591	0.23927905
22	0x3eae4f2d	0.3404478
23	0x3e83c974	0.25739634
24	0xbb551203	-0.0032511957
25	0xbdba65c8	-0.091014445
26	0xbe1e160f	-0.15438102
27	0x3f1a1072	0.60181344
28	0x3ea469ec	0.32112062
29	0x3dc9ffe6	0.09863262
30	0x3e98d742	0.2985173
31	0xbec41d12	-0.3830343
32	0x3ec6985d	0.3878812
33	0xbebcae3c	-0.3685168
34	0x3e29bcfb	0.16575997
35	0xbe5bf3fe	-0.21479794
36	0x3e527651	0.20552947
37	0x3f16abd1	0.5885592
38	0x3cc59d57	0.024122877
39	0xbd148ef5	-0.036269147
40	0x3d7dade3	0.06193341
41	0xbf205195	-0.62624484
42	0x3ea0070a	0.3125537
43	0xbea65cff	-0.32492825
44	0x3e9f5201	0.31117252
45	0xbf06f2d5	-0.5271428
46	0x3e8db13a	0.27674276
47	0x3dd6e35e	0.104925856
48	0x3f140929	0.5782648
49	0x3de666e4	0.112500936
50	0x3ea95608	0.3307345
51	0xbef2c02e	-0.47412246
52	0xbe86e116	-0.26343602
53	0xbe164f3a	-0.1467866
54	0xbd8150a1	-0.06314207
55	0xbb56ba8e	-0.0032765004
56	0x3f032630	0.51230145
57	0xbf04ded3	-0.519025
58	0x3e9b2693	0.30302867
59	0x3e1041a6	0.14087543
60	0xbefe5e7e	-0.49681467
61	0x3eaedd0a	0.34153014
62	0x3f05cb27	0.5226311
63	0xbef1730d	-0.4715809
64	0xbf27edea	-0.65597403
65	0xbeac5231	-0.33656457
66	0x3eabaef8	0.33531928
67	0x3ea83d17	0.32859108
68	0xbdd616b8	-0.10453552
69	0x3eb05844	0.3444234
70	0x3ebab94c	0.36469495
71	0xbe1008f3	-0.14065914
72	0xbe316346	-0.17323026
73	0xbf25e45e	-0.64801586
74	0xbe53e5e6	-0.20693168
75	0x3e391916	0.18075976
76	0x3e6884ac	0.2270686
77	0xbe455f22	-0.19274572
78	0xbe508396	-0.20362696
79	0x3df293d3	0.118446015
80	0xbe7bc16f	-0.24585508
81	0x3f0124f3	0.50447005
82	0xbe90d640	-0.2828846
83	0x3ea998e8	0.3312447
84	0xbf07329b	-0.5281159
85	0xbcc4ebf0	-0.024038285
86	0x3e914a05	0.28376785
87	0x3e09f942	0.1347399
88	0xbec85196	-0.39124745
89	0x3cf39e85	0.029738674
90	0x3e01ed5e	0.12688205
91	0xbec53f22	-0.3852473
92	0x3e211628	0.15731108
93	0x3ebf6ee9	0.37389305
94	0xbeafd126	-0.34339255
95	0xbf07f762	-0.5311185
96	0x3d43ea29	0.047830734
97	0x3f01f2bf	0.50761026
98	0x3e71f882	0.23629954
99	0x3e96c38c	0.29446065
100	0xbeb1018c	-0.34571493
101	0x3eea4252	0.45753723
102	0xbe702188	-0.23450291
103	0x3ead3ddf	0.33836266
104	0xbf09d0d2	-0.5383426
105	0xbdd9f950	-0.10643256
106	0x3e505e8e	0.2034857
107	0xbd457ac7	-0.048212793
108	0xbde8cfda	-0.113677695
109	0x3d2a2427	0.041538384
110	0xbe9837d4	-0.29730093
111	0xbeea2da7	-0.45737955
112	0x3de8196d	0.113329746
113	0x3f0f2fb8	0.5593219
114	0xbf090e49	-0.5353742
115	0xbd890205	-0.06689838
116	0x3ea0b341	0.3138676
117	0x3c96bc5a	0.01840036
118	0x3e547b65	0.20750196
119	0xbe4c58bc	-0.19955724
120	0xbe8034ef	-0.25040385
121	0xbc60a620	-0.013711482
122	0xbe490e5c	-0.19634384
123	0xbe963e75	-0.29344526
124	0xbd18ba52	-0.037287064
125	0x3d606a70	0.054789007
126	0xbe20bc13	-0.15696745
127	0x3d36ec53	0.04465897
128	0x3e5de5b5	0.21669658
129	0x3ef926e7	0.48662493
130	0xbd43123c	-0.04762481
131	0x3e64c36b	0.22340171
132	0xbe90b48f	-0.28262755
133	0x3eb04c32	0.34433132
134	0xbed3ea86	-0.41389865
135	0x3ebeccc9	0.37265614
136	0xbd593cb3	-0.053036403
137	0x3f087c7f	0.53314966
138	0x3e757921	0.23971988
139	0x3d9183d9	0.07105226
140	0x3e1a76b7	0.15084349
141	0x3e2ca833	0.16861038
142	0xbe7217ca	-0.23641887
143	0xbece6f6e	-0.4031939
144	0xbf44f7c9	-0.7694059
145	0x3df1b071	0.11801232
146	0x3ef36a74	0.47542155
147	0x3e6ec2ed	0.23316546
148	0xbd8fbeb7	-0.07018798
149	0x3e7277c2	0.23678496
150	0xbee36d28	-0.44419217
151	0xbe69405d	-0.22778459
152	0xbe873457	-0.2640712
153	0xbf078af0	-0.52946377
154	0x3eee7a58	0.46577716
155	0xbea107fb	-0.314514
156	0xbed16130	-0.4089446
157	0xbe81851e	-0.25296873
158	0xbecf461e	-0.40483183
159	0xbf153afd	-0.58293134
160	0x3e86f7b2	0.26360852
161	0x3e9a3670	0.30119658
162	0xbcb7677d	-0.022388214
163	0x3ebec766	0.37261504
164	0x3f0b8fb0	0.54516125
165	0x3ebadf91	0.36498693
166	0xbeda1ba4	-0.42599213
167	0xbe99e4ae	-0.3005728
168	0xbeb41654	-0.35173285
169	0xbf077e71	-0.5292731
170	0xbdbf8938	-0.09352344
171	0x3ead4107	0.33838674
172	0x3e4ef4bc	0.20210546
173	0xbe94984f	-0.29022452
174	0x3d11d28e	0.03560119
175	0xbeebc483	-0.46048364
176	0x3cae0d56	0.021246593
177	0x3ee19230	0.44056845
178	0x3ead03d9	0.33791998
179	0xbeab0912	-0.33405358
180	0xbea39028	-0.3194592
181	0xbe3ba81e	-0.1832585
182	0xbe153057	-0.14569221
183	0x3edd128a	0.43178207
184	0x3dbb3091	0.09140123
185	0xbdae1646	-0.08500342
186	0x3e4a7b9d	0.19773717
187	0xbf1ae39b	-0.6050355
188	0x3ec695b0	0.38786077
189	0xbe233186	-0.1593686
190	0x3f0a1e94	0.5395291
191	0x3e427d57	0.18993126

VAE.Tokenizer.category_embeddings.weight f4 [13, 4]
0	0xbd941ba5	-0.07231835
1	0xbea88b35	-0.32918707
2	0xbefd9f98	-0.49535823
3	0x3eb7c342	0.35891157
4	0xbcc748d8	-0.024326727
5	0x3e885a26	0.26631278
6	0x3ed61360	0.41811657
7	0xbecae7af	-0.39629886
8	0xbeae3109	-0.34021786
9	0xbc61b15e	-0.013775198
10	0x3f142639	0.57870823
11	0x3e149d41	0.14513113
12	0x3ee8d4b4	0.4547478
13	0xbf0f3cc0	-0.5595207
14	0x3ea76eda	0.3270176
15	0x3e6d4b70	0.23173308
16	0xbeb46ed1	-0.35240796
17	0x3ebd13db	0.3692921
18	0xbf13ef96	-0.57787454
19	0xbe86d4d0	-0.26334238
20	0xbe272fec	-0.16326874
21	0xbec7ebc7	-0.3904707
22	0x3e178d7d	0.14800067
23	0x3d621a12	0.055200644
24	0x3e782dc0	0.24236202
25	0xbf054221	-0.5205403
26	0xbe8dc361	-0.27688125
27	0xbec05c26	-0.37570304
28	0xbefffa5b	-0.49995694
29	0x3c8f19b3	0.017468309
30	0xbbd0f327	-0.0063766423
31	0xbc1c7d06	-0.009551292
32	0xbe841db5	-0.25803915
33	0x3e278cdc	0.16362327
34	0xbd74021c	-0.059572324
35	0x3efbb968	0.4916489
36	0xbdfc5317	-0.12320536
37	0xbe3f3e31	-0.18676068
38	0x3eb2e006	0.3493654
39	0xbefb7f9a	-0.4912079
40	0x3ea8affb	0.32946762
41	0x3e3a9fab	0.18224971
42	0xbedd1d5e	-0.43186468
43	0x3ea90d0b	0.33017763
44	0xbdcb5fd4	-0.09930387
45	0x3ecdd640	0.40202522
46	0x3ed4b9dc	0.4154805
47	0xbd8d6bbb	-0.069053136
48	0xbce90a70	-0.02844736
49	0xbe66cc24	-0.22538811
50	0x3e9aa0ea	0.30200893
51	0x3e7cd2f5	0.24689849

VAE.encoder_mu.layers.0.attention.W_q.weight f4 [4, 4]
0	0xbef9e643	-0.48808488
1	0xbeb7c4b8	-0.35892272
2	0x3f0f7c8d	0.56049424
3	0xbe6cc05d	-0.23120256
4	0xbed418f3	-0.41425285
5	0x3eb7044d	0.3574547
6	0xbd2532e8	-0.04033175
7	0x3e36caf2	0.17850855
8	0xbeb4f240	-0.35341072
9	0x3f13ca23	0.5773031
10	0x3e930be6	0.28720015
11	0x3e029ee0	0.12755919
12	0xbd4d739f	-0.050159093
13	0x3ebfad30	0.3743682
14	0xbec31478	-0.38101554
15	0x3ed6de3d	0.4196643

VAE.encoder_mu.layers.0.attention.W_q.bias f4 [4]
0	0x3cf95cbc	0.030439727
1	0xbe7388c2	-0.23782638
2	0x3e32feef	0.17480062
3	0xbdf9383a	-0.121689275

VAE.encoder_mu.layers.0.attention.W_k.weight f4 [4, 4]
0	0x3db25ebb	0.08709475
1	0x3e5b36a5	0.21407564
2	0x3e97b527	0.29630396
3	0xbe49dc05	-0.19712837
4	0x3ef3c187	0.47608587
5	0x3f2d3d32	0.676715
6	0x3e56a1d6	0.20960173
7	0x3ec968a9	0.39337662
8	0x3e9961cf	0.29957435
9	0xbe9cbdfb	-0.30613694
10	0x3f08c671	0.534278
11	0xbeb2c0d3	-0.34912738
12	0xbce96a68	-0.028493121
13	0x3eb0ef3e	0.34557527
14	0x3e0a7439	0.13520898
15	0xbe77fafd	-0.24216838

VAE.encoder_mu.layers.0.attention.W_k.bias f4 [4]
0	0xb88db4b5	-6.757063e-05
1	0x38936698	7.028616e-05
2	0xb93dd861	-0.00018105052
3	0x391dcd82	0.00015049244

VAE.encoder_mu.layers.0.attention.W_v.weight f4 [4, 4]
0	0x3e69b0b3	0.22821312
1	0x3d9baa28	0.07600814
2	0xbe538912	-0.20657757
3	0xbd7a20e9	-0.06106654
4	0x3ee14dee	0.44004768
5	0xbce70d0d	-0.028204465
6	0xbce045be	-0.027377006
7	0xbda72b1e	-0.08162521
8	0x3e4607eb	0.19338958
9	0xbd66e024	-0.0563661
10	0xbe1ae4be	-0.1512632
11	0xbd87bb0c	-0.06627473
12	0x3e93f984	0.28901303
13	0xbcfee5a3	-0.031115359
14	0xbe0e89cb	-0.13919751
15	0xbd1a9e9d	-0.03774892

VAE.encoder_mu.layers.0.attention.W_v.bias f4 [4]
0	0xbd6a7e1b	-0.05724917
1	0x3df9f825	0.12205533
2	0xbdc3bf3a	-0.09557958
3	0x3bb35f58	0.0054740123

VAE.encoder_mu.layers.0.linear0.weight f4 [128, 4]
0	0x3efce614	0.49394286
1	0xbf0b26db	-0.54356164
2	0xbdc1ea29	-0.09468491
3	0xbe7eb34e	-0.24873087
4	0xbed6d371	-0.41958192
5	0x3e4497b1	0.1919849
6	0x3c1d01be	0.009582935
7	0xbebcbe97	-0.3686416
8	0xbd9c424b	-0.07629832
9	0x3da40270	0.080082774
10	0x3ef9c480	0.4878273
11	0xbf02ede2	-0.5114423
12	0xbdf38162	-0.11889912
13	0x3c9c6462	0.019090835
14	0xbe518623	-0.20461325
15	0xbec61e32	-0.38694912
16	0x3e89b070	0.26892424
17	0x3ed44a58	0.4146297
18	0x3ef560e1	0.47925475
19	0x3ef92537	0.48661205
20	0x3dc3b064	0.09555128
21	0x3dfb7d32	0.122797385
22	0xbf152fc9	-0.5827604
23	0x3e95adb5	0.2923409
24	0xbec43a5f	-0.38325784
25	0xbeb83919	-0.35981062
26	0x3d9285ee	0.07154451
27	0x3eec4aae	0.46150726
28	0xbe775d0c	-0.24156588
29	0x3d9f6ae1	0.077840574
30	0x3cb70170	0.022339553
31	0xbee79552	-0.4523111
32	0xbd5dea8d	-0.054178763
33	0xbe3ff98f	-0.18747543
34	0xbf21de35	-0.63229686
35	0x3eeeaa46	0.46614283
36	0xbde5d220	-0.11221719
37	0x3eb12eae	0.34605926
38	0xbe854acd	-0.2603363
39	0x3e4593e8	0.19294703
40	0xbe04875c	-0.1294226
41	0xbdfc19cb	-0.12309607
42	0x3f04c968	0.5186982
43	0xbe57a29a	-0.21058121
44	0xbedb8c89	-0.42880657
45	0x3eaf05a6	0.34183997
46	0xbe554f8e	-0.20831129
47	0xbdda35da	-0.106548026
48	0xbeb8acad	-0.3606924
49	0xbede48f6	-0.4341504
50	0x3e4be6b0	0.19912219
51	0xbd37077a	-0.044684865
52	0x3ef3d87e	0.47626108
53	0xbe75bc23	-0.2399755
54	0xbef7d647	-0.48405668
55	0xbe3fd420	-0.18733263
56	0xbe26e214	-0.1629718
57	0xbdd64754	-0.104628235
58	0xbec940a8	-0.3930714
59	0xbecfea09	-0.40608242
60	0xbd9201aa	-0.07129224
61	0x3e27b175	0.16376288
62	0x3d9ad212	0.07559599
63	0x3e9b3e34	0.30320895
64	0x3e7412be	0.23835275
65	0xbf096177	-0.53664345
66	0xbe4d3be2	-0.20042375
67	0x3e652d77	0.22380625
68	0x3c49fc28	0.012328185
69	0xbdd330b2	-0.10312022
70	0x3ef38b37	0.4756715
71	0xbe9a7403	-0.30166635
72	0x3eeb33be	0.45937914
73	0xbd9a17a3	-0.075240396
74	0x3ebb8262	0.36622912
75	0x3ede31e4	0.4339744
76	0x3da9d47e	0.08292483
77	0x3e8a3840	0.2699604
78	0x3d78ef26	0.060774945
79	0xbe84f901	-0.25971225
80	0x3e372439	0.17884912
81	0xbe5b06fc	-0.21389383
82	0x3eabb2e0	0.33534908
83	0x3eaa3b71	0.33248475
84	0xbe66e82d	-0.22549506
85	0xbed186c7	-0.4092314
86	0x3ea01fee	0.3127436
87	0xbe854deb	-0.2603601
88	0x3e80ff3d	0.2519473
89	0x3f127f85	0.5722583
90	0xbde725a5	-0.11286477
91	0xbeb1bc3d	-0.34713927
92	0xbe6333c3	-0.22187714
93	0xbe4c17cf	-0.19930957
94	0x3eb22156	0.34791058
95	0xbda030f6	-0.078218386
96	0x3eae1dec	0.34007204
97	0x3ede8fac	0.43468988
98	0xbe859363	-0.2608901
99	0xbf0cf88f	-0.5506677
100	0x3e716dce	0.23577043
101	0x3e948e7c	0.29014957
102	0x3ecf4592	0.40482765
103	0xbe7a754e	-0.2445881
104	0xbefa1657	-0.4884517
105	0x3c586aa5	0.01320902
106	0xbd06f221	-0.032945756
107	0x3e29d6d3	0.16585855
108	0xbea5d4b4	-0.32388842
109	0xbea8a71f	-0.32940003
110	0xbe07863d	-0.13234802
111	0xbe5b677e	-0.21426198
112	0xbec84536	-0.39115304
113	0xbe7bb819	-0.24581946
114	0xbbdf4d11	-0.006814607
115	0x3e9ed090	0.31018496
116	0xbe8d0534	-0.27543032
117	0xbeb59407	-0.35464498
118	0x3e52d167	0.20587693
119	0xbecd989b	-0.4015549
120	0xbd9f2447	-0.07770591
121	0xbe6266f7	-0.2210959
122	0xbe3a9e0e	-0.18224356
123	0x3e253d63	0.16136698
124	0xbe2bdb6c	-0.16782922
125	0xbd881ea0	-0.06646466
126	0xbe07f6d4	-0.13277751
127	0x3d37b5b0	0.044851005
128	0x3e8a44c8	0.270056
129	0xbdc73bfe	-0.097282395
130	0xbd6c4bf1	-0.05768961
131	0x3c2b5be2	0.010458918
132	0x3f073cf4	0.5282738
133	0x3ea9cca2	0.33163935
134	0x3e1a56fc	0.15072244
135	0xbe2b61d3	-0.16736536
136	0x3e1e6a3c	0.15470213
137	0x3e912b95	0.28353563
138	0x3efb4653	0.4907709
139	0x3e267bba	0.16258135
140	0xbef8ad68	-0.48569798
141	0x3ea5a985	0.32355896
142	0xbdda4ba8	-0.106589615
143	0x3d550276	0.0520043
144	0x3e540da4	0.20708328
145	0x3e4620a5	0.1934839
146	0xbe97b73d	-0.29631987
147	0xbea2cd82	-0.31797415
148	0xbdb736fa	-0.08946033
149	0xbd7fbf91	-0.06243855
150	0x3df978e5	0.12181262
151	0xbf045d6e	-0.5170506
152	0x3ec46466	0.38357848
153	0xbe5da2f6	-0.21644196
154	0xbf0c2cbb	-0.54755753
155	0x3e453ff3	0.19262676
156	0x3e2f8926	0.17142162
157	0x3e98598e	0.29755825
158	0x3eb28786	0.3486902
159	0xbcb9321a	-0.022606898
160	0xbee119ab	-0.43964896
161	0x3f1ca01f	0.61181825
162	0x3d8d044e	0.06885587
163	0x3d58a63a	0.0528929
164	0x3cf02d3a	0.02931844
165	0xbf08b16f	-0.5339574
166	0xbf17e29c	-0.59330153
167	0x3e72f6ff	0.23727034
168	0xbeb15830	-0.34637594
169	0xbeda05c4	-0.42582524
170	0x3eeafa1a	0.45893937
171	0xbe5ddee6	-0.2166706
172	0xbe85a50b	-0.2610248
173	0x3dbfdbf1	0.09368122
174	0x3f037b7d	0.51360303
175	0xbea2f5ad	-0.3182806
176	0xbef8de4f	-0.48607108
177	0x3ed38e4f	0.4131951
178	0xbe56eb47	-0.20988189
179	0x3ed99796	0.42498463
180	0xbf0dbd0f	-0.55366606
181	0x3ebac62b	0.36479315
182	0x3ee4f359	0.4471691
183	0xbefe5f6f	-0.49682185
184	0x3e1b22d4	0.15150005
185	0xbe91dcb6	-0.28488702
186	0xbdb0bfef	-0.086303584
187	0xbebe1a8c	-0.3712963
188	0x3d81639e	0.063178286
189	0xbedbfa2e	-0.4296431
190	0x3ea8e756	0.32988995
191	0x3e649bfd	0.2232513
192	0xbe51fdc4	-0.2050696
193	0xbe727f88	-0.23681462
194	0x3da1352b	0.07871469
195	0x3e981050	0.29699945
196	0x3edbb32c	0.42910135
197	0xbede419a	-0.43409425
198	0x3ebe7fd5	0.37206903
199	0xbe70add3	-0.23503809
200	0x3e3a188d	0.18173428
201	0x3ed0d35b	0.4078625
202	0x3ea99fe1	0.3312979
203	0xbebfd0e2	-0.37464052
204	0x3f10fe57	0.5663809
205	0x3e356db0	0.17717624
206	0xbe80e41e	-0.2517404
207	0xbefcb613	-0.49357662
208	0x3ea37962	0.31928545
209	0x3ecb8421	0.39749244
210	0xba473603	-0.0007599296
211	0x3cd93be1	0.02651781
212	0xbc2091fc	-0.00980043
213	0x3ee09501	0.4386368
214	0xbd8101e8	-0.06299192
215	0xbeb5e5aa	-0.35526782
216	0x3e34c2de	0.17652461
217	0xbe95094e	-0.2910866
218	0xbdf8b692	-0.121441975
219	0xbe0effc8	-0.1396476
220	0x3d8c0d6d	0.06838498
221	0x3d935a4e	0.071949586
222	0xbe0a1ae1	-0.13486816
223	0xbf0038d2	-0.500867
224	0x3e89ea3b	0.26936516
225	0xbdeed3a8	-0.11661464
226	0x3ec6b120	0.3880701
227	0x3e982ae0	0.2972021
228	0xbec02b2b	-0.37532935
229	0x3e83d035	0.25744787
230	0x3e50f2c1	0.20405103
231	0x3d15509f	0.03645384
232	0x3c4b02c8	0.0123908
233	0x3ee8534e	0.45376056
234	0x3ec4b9bc	0.38422954
235	0xbe3c4320	-0.18384981
236	0x3d624342	0.055239923
237	0xbe578546	-0.21046934
238	0x3f01a93e	0.5064887
239	0xbe3bbc4e	-0.18333551
240	0x3f1bdb98	0.6088195
241	0xbeb85c56	-0.36007947
242	0xbea73d07	-0.32663748
243	0x3ee2815b	0.44239315
244	0xbf10a827	-0.5650658
245	0x3e468fb5	0.19390757
246	0xbe44b80a	-0.1921083
247	0x3e468331	0.19385983
248	0xbec72146	-0.38892573
249	0x3ec3bc41	0.38229564
250	0x3e1d2a37	0.15348135
251	0x3ea0d486	0.31412143
252	0x3e857046	0.2606222
253	0xbde0723f	-0.10959291
254	0xbd94a0aa	-0.07257207
255	0x3e7c1a43	0.24619393

VAE.encoder_mu.layers.0.linear0.bias f4 [128]
0	0x3edda0f3	0.43286857
1	0xbdde3174	-0.10849276
2	0xbd0c4a92	-0.034250803
3	0xbeec65ae	-0.46171325
4	0x3f00fa71	0.50382143
5	0x3e07dd5a	0.13268033
6	0xbdb133fb	-0.086524926
7	0xbed48e00	-0.41514587
8	0xbbf266fc	-0.0073975306
9	0xbc9dec55	-0.019277731
10	0xb9fc6949	-0.0004814363
11	0x3ae88264	0.0017739055
12	0x3e1316e8	0.14364207
13	0x3e2ebcb2	0.17064169
14	0x3e39a221	0.18128254
15	0x3f03f3c4	0.5154383
16	0xbeaa64cb	-0.33280024
17	0xbe8500dd	-0.2597722
18	0x3ed7c64a	0.4214347
19	0x3eace9f3	0.3377224
20	0xbe485637	-0.19564138
21	0xbd339459	-0.043842647
22	0x3db37cbb	0.08764025
23	0xbe61d293	-0.22052984
24	0x3cd76a09	0.026295679
25	0x3d9068bd	0.07051227
26	0x3eb14718	0.34624553
27	0x3ef79733	0.48357543
28	0x3eda33d9	0.42617682
29	0xbe731ee5	-0.23742254
30	0x3e747d74	0.23875982
31	0xbeedbaf6	-0.46431702
32	0x3ea4454f	0.32084128
33	0xbd741213	-0.05958755
34	0xbed48c36	-0.41513222
35	0x3b3004b4	0.0026858272
36	0xbeb22e88	-0.34801126
37	0xbee61f3f	-0.44945714
38	0x3e33b7a6	0.17550525
39	0xbe98dd62	-0.29856402
40	0xbea1f81b	-0.31634602
41	0xbecebc84	-0.403782
42	0xbed9d203	-0.4254304
43	0x3e9cf606	0.3065645
44	0x3e0412a1	0.12897731
45	0x3eaa332d	0.3324217
46	0xbeb09fe2	-0.3449698
47	0x3eb09270	0.34486723
48	0xbe953c60	-0.29147625
49	0x3da2a2d5	0.07941214
50	0x3e9978d3	0.29974994
51	0x3eb178a8	0.34662366
52	0xbe2bfda2	-0.16795972
53	0x3e5b8a4b	0.21439473
54	0x3eecf61b	0.46281514
55	0x3e812cac	0.25229394
56	0x3edc0952	0.4297586
57	0x3d46d102	0.04853917
58	0x3e39f794	0.1816085
59	0xbead988a	-0.3390544
60	0xbf15754b	-0.583821
61	0x3daf6870	0.08564842
62	0xbe74237f	-0.23841666
63	0xbee3560a	-0.4440158
64	0x3d7848d4	0.06061633
65	0x3ed9d616	0.42546147
66	0x3ea19d1d	0.3156518
67	0x3ecbac3b	0.3977984
68	0xbe69fff7	-0.22851549
69	0x3f05c763	0.52257365
70	0x3dcbc243	0.09949162
71	0x3dbbad27	0.091638856
72	0xbde25330	-0.11051023
73	0x3dade9ae	0.084918365
74	0xbce223e8	-0.027605012
75	0xbec1271e	-0.37725157
76	0xbe41c28a	-0.18921867
77	0xbe77aaf5	-0.24186309
78	0x3e7fa2bd	0.24964423
79	0x3c9763ee	0.018480267
80	0xbed29d6a	-0.41135722
81	0xbdbe43c7	-0.09290271
82	0x3e8ea5b3	0.27860793
83	0x3eda6e33	0.426622
84	0x3c1e1e29	0.009650745
85	0x3e87dcd7	0.26535675
86	0x3ecc49d2	0.3990007
87	0xbea51733	-0.32244262
88	0x3ed96b88	0.42464852
89	0x3f159137	0.58424705
90	0xbdecdb43	-0.11565258
91	0x3e4ea9f0	0.20182014
92	0x3ec4e000	0.38452148
93	0x3e5ca7a9	0.21548332
94	0xbe95997e	-0.29218668
95	0x3e7cce97	0.24688183
96	0xbcd00375	-0.025392273
97	0xbd1458e8	-0.0362176
98	0x3eb61b99	0.3556793
99	0x3e3ca8dd	0.18423791
100	0x3ee949f5	0.45564237
101	0x3eafd6d4	0.34343588
102	0x3ef53407	0.47891256
103	0x3e9ffd04	0.31247723
104	0xbeb2566b	-0.34831557
105	0xbea049ef	-0.31306407
106	0xbe6a9b40	-0.22910786
107	0x3e11f25f	0.14252613
108	0x3d9581d8	0.07300156
109	0x3d71b442	0.059009798
110	0xbc4967eb	-0.012292842
111	0xbef57559	-0.47941092
112	0x3ec71f23	0.38890943
113	0xbe938e3a	-0.28819448
114	0xbe868976	-0.2627675
115	0xbef4445c	-0.47708404
116	0x3eaf03fe	0.34182733
117	0x3e8aa232	0.2707687
118	0xbe25821d	-0.16162916
119	0xbd67731d	-0.056506265
120	0x3e58c7ac	0.21169919
121	0xbe102748	-0.14077485
122	0x3b12bb1d	0.002238936
123	0xbd92484a	-0.07142694
124	0xbc30bfef	-0.010787948
125	0xbe551504	-0.20808798
126	0x3e0ca04b	0.13733022
127	0x3e791577	0.24324594

VAE.encoder_mu.layers.0.linear1.weight f4 [4, 128]
0	0x3d745982	0.059655674
1	0x3cea1349	0.028573649
2	0x3ddbdc6d	0.10735402
3	0xbe372593	-0.17885427
4	0xbd943007	-0.07235723
5	0x3e1928db	0.14956991
6	0xbdedbc85	-0.11608223
7	0xbd80a9b6	-0.0628237
8	0x3e28322f	0.16425394
9	0x3d7e8fc4	0.062148824
10	0x3dc880d1	0.09790195
11	0xbd81f36f	-0.063452594
12	0xbce9e57f	-0.028551815
13	0x3d247aa5	0.040156025
14	0xbdd4a9f7	-0.10383981
15	0x3d0cab56	0.034343086
16	0x3ce2bac1	0.027676942
17	0x3dac7a06	0.084217116
18	0x3ce71f60	0.028213203
19	0x3dc9f35c	0.0986087
20	0xbe1a39c4	-0.15061098
21	0x3c521e84	0.012824658
22	0x3d1b0744	0.037848726
23	0x3d73c118	0.05951032
24	0xbd8cd811	-0.06877149
25	0xba9779d8	-0.0011556698
26	0x3cac7fc3	0.021057015
27	0xbd8b7ab9	-0.06810517
28	0xbd57c84c	-0.052681252
29	0x3e024619	0.12722053
30	0xbcb7f9fa	-0.022458065
31	0xbca03042	-0.019554261
32	0xbdf3a306	-0.11896329
33	0xbcd549b5	-0.026036123
34	0x3e3897ef	0.18026708
35	0xbdcadbb9	-0.0990519
36	0x3e15c7f6	0.1462706
37	0x3d2c79de	0.04210841
38	0x3d918639	0.07105679
39	0x3d942751	0.072340615
40	0x3d3cd154	0.04609807
41	0x3e430128	0.1904341
42	0x3da9bb81	0.08287717
43	0x3dec2744	0.11530927
44	0xbe086a9c	-0.13321918
45	0xbd034de5	-0.032056708
46	0xbde598ed	-0.11210809
47	0xbdaeb65b	-0.08530875
48	0xbe1f9b5c	-0.15586609
49	0x3db5cab7	0.088765554
50	0x3dd6803e	0.10473679
51	0xbde2593a	-0.11052175
52	0x3d82856d	0.06373105
53	0x3c029ee1	0.00797245
54	0x3c26f7bc	0.0101909
55	0xbd2fcf0c	-0.042922065
56	0xbd752c75	-0.05985685
57	0xbd562f73	-0.052291345
58	0x3d7ef1c7	0.062242296
59	0x3d5e759c	0.05431138
60	0x3e2d5c21	0.16929676
61	0xbd2caace	-0.04215508
62	0x3b291f25	0.0025805917
63	0xbe9b9138	-0.3038423
64	0x3dd71d4d	0.105036356
65	0xbcfa747b	-0.03057312
66	0xbdbe1b8a	-0.092825964
67	0x3d06d088	0.032913715
68	0x3e04d7a6	0.12972888
69	0x3be1efdd	0.006895049
70	0xbc3ab120	-0.011394769
71	0x3e043399	0.12910308
72	0xbdb6c68b	-0.08924588
73	0xbd8fcd99	-0.070216365
74	0x3d936e83	0.07198813
75	0x3d0b5571	0.03401703
76	0xbe2b6591	-0.16737963
77	0x3cae98b7	0.021313054
78	0x3c8ebbe3	0.017423576
79	0xbce87ebf	-0.02838075
80	0x3d927209	0.07150657
81	0xbc8cca60	-0.017186344
82	0xbcc8d1c6	-0.02451409
83	0xbc81c325	-0.015840122
84	0xbdf98007	-0.121826224
85	0xbcff0407	-0.03112985
86	0xbd7f6e3a	-0.06236098
87	0xbda2113c	-0.079134434
88	0xbe0fe3a2	-0.14051679
89	0xbd6c4bd7	-0.057689514
90	0x3cb4e676	0.022082549
91	0x3da41f1c	0.08013746
92	0x3d20d378	0.039264172
93	0xbdf9fe7c	-0.12206742
94	0x3e86d0a0	0.26331043
95	0xbd78708d	-0.06065421
96	0xbcabfeca	-0.020995516
97	0x3dbbb423	0.09165218
98	0x3e14f96d	0.14548273
99	0x3dcf1501	0.10111428
100	0xbd32ac12	-0.04362113
101	0xbb6daf66	-0.0036267876
102	0xbd90c25d	-0.07068322
103	0xbd9b45aa	-0.07581647
104	0xbbd6944e	-0.006548441
105	0xbd0ff883	-0.03514911
106	0xbe09738e	-0.13422987
107	0x3de9335f	0.113867514
108	0x3cdf0c59	0.027227568
109	0xbda4dfd2	-0.08050503
110	0x3db87cf9	0.09008212
111	0xbd616857	-0.055031147
112	0x3d6e6754	0.05820401
113	0xbe15044f	-0.14552425
114	0x3cabf614	0.020991363
115	0x3d55773c	0.052115664
116	0xbe152cee	-0.1456792
117	0xbda401aa	-0.0800813
118	0x3bc304bc	0.005951492
119	0xbde11bf1	-0.109916575
120	0x3d152fc4	0.036422506
121	0x3d5d30b9	0.054001544
122	0x3c7f886a	0.0155964885
123	0x3d943c1a	0.07238026
124	0x3db3ffb7	0.08789008
125	0x3e5205a9	0.20509972
126	0xbe187903	-0.14889912
127	0xbcc91abc	-0.02454888
128	0xbd98fcf7	-0.07470124
129	0x3d6900d4	0.056885555
130	0x3d1b3502	0.03789235
131	0xbcc84f8b	-0.024451992
132	0xbd584984	-0.052804485
133	0x3dff2f5a	0.124602035
134	0xbc91e2d9	-0.017808365
135	0x3d7c2630	0.061559856
136	0x3dca10fd	0.098665215
137	0x3d8ea2ac	0.06964621
138	0x3dbc02fe	0.09180258
139	0xbdbe8012	-0.09301771
140	0x3ce0f7e4	0.027461953
141	0xbb0ae5a8	-0.0021194015
142	0x3d7d0d6d	0.061780382
143	0x3dae7685	0.085186996
144	0xbbfe9dde	-0.007770284
145	0x3c0d4591	0.008622543
146	0x3ceca4f7	0.028887255
147	0xbb555ba2	-0.0032555838
148	0x3d208359	0.039187763
149	0x3de572c1	0.11203528
150	0x3d394de1	0.045240287
151	0x3d870da5	0.06594399
152	0x3c200a3d	0.009768066
153	0xbd64d103	-0.05586339
154	0xbd90cd09	-0.07070357
155	0xbd233cfe	-0.03985309
156	0xbd9866e0	-0.07441497
157	0x3dc85f73	0.097838305
158	0x3e12977e	0.14315602
159	0xbd94ce98	-0.07265967
160	0x3c01a26f	0.007912262
161	0xbca700e6	-0.02038617
162	0xbe35dda4	-0.1776033
163	0xbd4af664	-0.049551383
164	0x3b867fc7	0.0041045877
165	0x3e103035	0.1408089
166	0x3d53d257	0.051714268
167	0x3dcb9c9c	0.0994198
168	0x3ba3cc22	0.0049986998
169	0xbbcd6dab	-0.006269177
170	0x3ca878d3	0.020565426
171	0x3dcfe88b	0.10151776
172	0xbd9e6666	-0.07734375
173	0x3d902f9c	0.07040331
174	0xb958b922	-0.00020668333
175	0xbd5cfc0a	-0.0539513
176	0x3dba26c6	0.09089427
177	0xbda628ce	-0.081132516
178	0xbdca16a5	-0.098676
179	0xbcfffa56	-0.0312473
180	0xbd8d5860	-0.06901622
181	0x3db670e6	0.089082524
182	0x3d9473c7	0.07248645
183	0x3d6a246c	0.05716364
184	0x3db47318	0.08811015
185	0x3dd8f69e	0.105939135
186	0xbcdd8985	-0.027043113
187	0x3d849cdc	0.06475231
188	0x3e3b212d	0.18274374
189	0xbd8202c5	-0.063481845
190	0x3bfada7e	0.007655441
191	0x3e6f1393	0.2334731
192	0x3dfbe0f0	0.12298763
193	0x3d693b42	0.05694128
194	0xbd11ff2e	-0.03564375
195	0xbd1c68f7	-0.03818604
196	0xbbfdb548	-0.0077425577
197	0x3e00b2b4	0.1256817
198	0xbdbba2c0	-0.091619015
199	0xbb6d8c78	-0.0036247056
200	0x3dad8875	0.08473293
201	0xbd487ef2	-0.04894919
202	0x3d8fec3a	0.070274785
203	0x3dbaa0e1	0.091127165
204	0xbccd778b	-0.025081417
205	0xbc43074b	-0.011903594
206	0x3d4f6a49	0.05063847
207	0xbb246ef4	-0.0025090547
208	0xbd1a39ad	-0.03765266
209	0xbda0d979	-0.078539796
210	0x3d4ac2bd	0.049502123
211	0x3d4974cb	0.049183648
212	0xbd6f1192	-0.058366366
213	0xbd978cd6	-0.07399909
214	0xbb5dbc6d	-0.0033834234
215	0x3e06f462	0.13179162
216	0x3b764e8c	0.0037583439
217	0x3ca8fd71	0.020628663
218	0x3d57b325	0.05266108
219	0xbda52a52	-0.080647126
220	0xbc0e9cef	-0.008704408
221	0x3c0011e1	0.007816763
222	0x3dbaf94d	0.091295816
223	0xbd3d426f	-0.046205934
224	0x3d13d725	0.03609385
225	0x3d485cfd	0.048916806
226	0xbcc222a2	-0.023698155
227	0x3b9be7a3	0.004757838
228	0x3b1a48d5	0.0023541946
229	0xbda6b4a6	-0.08139925
230	0xbce577f8	-0.028011307
231	0xbd8c99ad	-0.06865249
232	0x3cac5b74	0.021039702
233	0x3d1067c4	0.03525521
234	0xbc9f4f5f	-0.019447027
235	0x3d12119d	0.03566133
236	0xbdb26d0c	-0.08712205
237	0xbd39a417	-0.045322504
238	0x3d574fca	0.052566327
239	0xbc5ee0e4	-0.013603423
240	0x3d262a8d	0.040567923
241	0xbe1434b4	-0.1447323
242	0x3d46635d	0.048434604
243	0xbd415a5e	-0.04720532
244	0x3d25932c	0.040423557
245	0x3ce46f60	0.027885139
246	0x3da90bfd	0.0825424
247	0xbc891bd8	-0.01673691
248	0xbd6d22d7	-0.057894554
249	0x3cba2574	0.022722937
250	0xbd4cec4d	-0.05003004
251	0xbd214f77	-0.039382424
252	0xbd70d2c9	-0.05879477
253	0xbd8774dd	-0.06614087
254	0xbda1de83	-0.07903769
255	0x3d864d0e	0.06557666

VAE.encoder_mu.layers.0.linear1.bias f4 [4]
0	0xbdcba5cf	-0.09943735
1	0xbd46f4c6	-0.048573278
2	0x3b67ef83	0.0035390563
3	0x3d7c1c62	0.061550505

VAE.encoder_mu.layers.0.norm1.weight f4 [4]
0	0x3f8cd06f	1.1001109
1	0x3f95c6f7	1.1701344
2	0x3f8c3f80	1.0956879
3	0x3f8691d3	1.0513252

VAE.encoder_mu.layers.0.norm1.bias f4 [4]
0	0x3c33a77f	0.010965227
1	0xbd3c6319	-0.045992944
2	0xbd796939	-0.060891364
3	0x3d822e50	0.0635649

VAE.encoder_mu.layers.1.attention.W_q.weight f4 [4, 4]
0	0x3c40ed19	0.0117752785
1	0x3eba618f	0.36402556
2	0xbe440cde	-0.19145533
3	0x3db52b10	0.08846104
4	0xbe849941	-0.25898173
5	0xbef5949b	-0.4796494
6	0x3dee2d9d	0.11629794
7	0x3eab43d3	0.33450183
8	0xbeaf4fac	-0.34240472
9	0x3ec4033c	0.38283718
10	0xbea5e5e8	-0.32401967
11	0xbeeed2c9	-0.4664519
12	0x3ed82919	0.42218855
13	0xbeaa6672	-0.33281285
14	0x3f0be7ed	0.54650766
15	0xbea10ce1	-0.31455138

VAE.encoder_mu.layers.1.attention.W_q.bias f4 [4]
0	0x3dea6fa4	0.11447075
1	0xbc8a6506	-0.016893875
2	0xbe074b8f	-0.13212417
3	0xbd81c3f0	-0.063362

VAE.encoder_mu.layers.1.attention.W_k.weight f4 [4, 4]
0	0xbd5d9e66	-0.05410614
1	0x3efe52aa	0.49672443
2	0xbec636f5	-0.38713804
3	0x3dc78eab	0.09744009
4	0x3edb9fd9	0.42895392
5	0xbf007187	-0.5017323
6	0xbe9e1383	-0.3087426
7	0xbe4ad32d	-0.1980712
8	0x3cee57ab	0.029094538
9	0xbeaa2b10	-0.3323598
10	0xbda180e4	-0.07885912
11	0xbefb7918	-0.49115825
12	0x3efc8f59	0.49328116
13	0x3ecde25e	0.40211767
14	0xbca9dc6a	-0.020734984
15	0xbf02351d	-0.50862294

VAE.encoder_mu.layers.1.attention.W_k.bias f4 [4]
0	0xb8ba89fa	-8.894871e-05
1	0x3892aac9	6.993634e-05
2	0xb9b50a60	-0.0003453074
3	0x39229e29	0.00015508443

VAE.encoder_mu.layers.1.attention.W_v.weight f4 [4, 4]
0	0x3d44ef74	0.048079923
1	0x3d87e213	0.06634917
2	0xbcdd090d	-0.026981855
3	0x3d4c3ab1	0.04986066
4	0xbe808669	-0.25102547
5	0x3e9f9944	0.3117162
6	0xbd972bec	-0.07381424
7	0xbea3974a	-0.31951362
8	0x3e6b876e	0.23000881
9	0xbe97261a	-0.29521257
10	0xbeeb6eda	-0.4598301
11	0x3dd6f6d5	0.10496298
12	0xbe5200a0	-0.20508051
13	0x3ed1b411	0.40957692
14	0xbe0513e6	-0.12995872
15	0xbdaa6625	-0.08320264

VAE.encoder_mu.layers.1.attention.W_v.bias f4 [4]
0	0x3c006831	0.007837341
1	0xbadb2d5e	-0.0016721894
2	0xbd0a6609	-0.033788715
3	0x3cd41eda	0.025893617

VAE.encoder_mu.layers.1.linear0.weight f4 [128, 4]
0	0x3ec8de5a	0.3923214
1	0xbebd0c4d	-0.36923447
2	0xbed15f40	-0.40892982
3	0xbb1cee42	-0.0023945724
4	0x3b09b8d9	0.0021014719
5	0x3f091e62	0.53561985
6	0x3ea0d9f0	0.31416273
7	0x3d434e38	0.047682017
8	0xbeaa7020	-0.3328867
9	0xbecae9bc	-0.3963145
10	0xbe9e383d	-0.3090228
11	0x3ea9dba2	0.3317538
12	0x3edb2d1a	0.42807847
13	0x3f143e87	0.5790791
14	0x3cf149db	0.029454162
15	0xbecacef1	-0.3961101
16	0x3e74cfef	0.23907445
17	0x3eb135a0	0.34611225
18	0xbee45075	-0.44592634
19	0x3e5f8afb	0.2183036
20	0x3e829658	0.25505328
21	0xbf2d764c	-0.6775863
22	0xbe4a84c7	-0.19777213
23	0xbec4c8e7	-0.38434526
24	0xbe8345be	-0.25639147
25	0xbe7747a5	-0.24148424
26	0x3f0f02a2	0.5586339
27	0xbeec26c2	-0.4612332
28	0xbe087948	-0.13327515
29	0xbea92de7	-0.33042833
30	0xbed64f81	-0.41857532
31	0xbe385d7d	-0.18004413
32	0x3ec8304d	0.3909935
33	0xbef659d8	-0.4811542
34	0x3e9031bb	0.2816294
35	0x3e63c667	0.22243653
36	0xbde2c7b9	-0.1107325
37	0xbeaae401	-0.33377078
38	0x3ebd51a7	0.36976358
39	0xbdca0019	-0.098633
40	0x3e6882a0	0.2270608
41	0xbbc05668	-0.0058696754
42	0x3e9f39e2	0.3109885
43	0x3f043056	0.51636255
44	0x3daa32ad	0.08310447
45	0xbce5537d	-0.027993912
46	0x3ed19903	0.4093705
47	0xbe40748a	-0.18794456
48	0xbedda88b	-0.4329265
49	0xbeb644cc	-0.35599363
50	0xbc8391f6	-0.01606081
51	0x3daba166	0.08380394
52	0xbec56945	-0.38556877
53	0x3ee5f542	0.4491368
54	0x3ea830c8	0.32849717
55	0x3d63a2cb	0.055575173
56	0x3e213f86	0.15746889
57	0x3e2f81ba	0.1713933
58	0xbe9fe25f	-0.31227395
59	0x3e955f08	0.29174066
60	0x3dda92b7	0.10672515
61	0xbd29e576	-0.041478597
62	0xbf022e2b	-0.50851697
63	0x3d959a83	0.073048614
64	0x3f05916d	0.5217503
65	0xbec0826f	-0.37599513
66	0xbd0431f3	-0.032274198
67	0x3eae7d6d	0.34080067
68	0x3d723e9c	0.05914174
69	0xbe094655	-0.13405736
70	0x3ed7fb0f	0.4218373
71	0x3d603cdf	0.05474555
72	0xbe6c85f7	-0.23097979
73	0x3e603f5e	0.21899173
74	0x3ef2cd42	0.47422224
75	0x3db39197	0.087680034
76	0x3ec363bf	0.38162038
77	0xbf019643	-0.50619906
78	0xbe61081c	-0.2197575
79	0x3db650b5	0.089021124
80	0xbdd15acc	-0.10222396
81	0x3f175033	0.5910675
82	0x3e41c905	0.18924339
83	0xbee6c137	-0.45069286
84	0xbf15fc1b	-0.5858781
85	0xbec401da	-0.38282663
86	0x3f096a49	0.53677803
87	0xbecd9e13	-0.40159664
88	0xbec17564	-0.37784874
89	0x3e829612	0.2550512
90	0xbe9eef98	-0.3104217
91	0x3ea005fe	0.31254572
92	0x3f011843	0.50427645
93	0xbe92da1d	-0.28682032
94	0xbcc34970	-0.023838729
95	0x3ee165b2	0.440229
96	0xbee9dcbe	-0.45676225
97	0x3ef63d3d	0.48093596
98	0x3e4d17d0	0.20028615
99	0x3d683d08	0.05669883
100	0xbe069c8f	-0.1314566
101	0x3f09ad1b	0.53779763
102	0xbd3d343e	-0.0461924
103	0xbeb95467	-0.36197206
104	0xbe7233d3	-0.23652582
105	0xbe35edd0	-0.177665
106	0x3ee06d76	0.43833512
107	0x3eb2cade	0.349204
108	0x3eb57d51	0.3544717
109	0xbe3b317f	-0.182806
110	0xbe336bfa	-0.17521659
111	0xbd1300ac	-0.035889313
112	0xbec132a3	-0.37733945
113	0x3da7ecbb	0.0819945
114	0xbe76d576	-0.24104866
115	0x3e94c7c1	0.2905865
116	0x3ea3e073	0.3200718
117	0x3ea8db6c	0.32979906
118	0xbec68456	-0.3877284
119	0x3ed4798b	0.4149898
120	0x3eba298c	0.36359823
121	0xbe853b61	-0.26021865
122	0x3e026970	0.12735534
123	0xbef20846	-0.47271937
124	0xbe3edc7d	-0.18638797
125	0x3dfb01ff	0.1225624
126	0xbd13e1e6	-0.036104105
127	0x3edd0c2b	0.43173346
128	0xbe9d337a	-0.30703336
129	0xbf06d7bd	-0.5267294
130	0xbd5c3fda	-0.05377183
131	0xbd40effb	-0.047103863
132	0xbdb4973f	-0.088179104
133	0x3ebe3dba	0.3715647
134	0x3d4ae602	0.04953576
135	0xbee01ca2	-0.43771845
136	0x3eeaee32	0.45884854
137	0xbdcfca4a	-0.101460055
138	0x3e9f4fb6	0.31115502
139	0x3e3536f3	0.17696743
140	0x3e4caae1	0.1998706
141	0xbb7eda36	-0.0038887388
142	0x3edc58a7	0.43036386
143	0xbcb29bfc	-0.021802895
144	0xbee3cdc0	-0.44492912
145	0xbe63373c	-0.22189039
146	0x3cea59d2	0.028607283
147	0x3e3b6ba6	0.18302783
148	0xbeaa5014	-0.3326422
149	0x3ebfadf8	0.37437415
150	0x3e330686	0.17482957
151	0x3f03a6be	0.51426303
152	0xbd5a8c33	-0.05335636
153	0xbed43e46	-0.4145376
154	0xbe94f3fe	-0.290924
155	0x3d507aa4	0.05089821
156	0xbcbb731d	-0.022882039
157	0x3eaf830d	0.3427967
158	0xbe9b642d	-0.30349866
159	0x3e2b3af1	0.16721703
160	0xbebfd368	-0.37465978
161	0xbec1a144	-0.37818348
162	0xbebf8b81	-0.3741112
163	0x3d65375f	0.05596101
164	0xbe47b706	-0.19503412
165	0xbedce104	-0.43140423
166	0x3e29b5ca	0.16573253
167	0x3f072398	0.52788687
168	0x3ea9cae6	0.33162612
169	0xbe0d9854	-0.1382764
170	0xbd041135	-0.032242972
171	0xbe16a7cb	-0.14712445
172	0xbebc2769	-0.36748818
173	0xbe17f851	-0.14840819
174	0x3ed64553	0.41849765
175	0xb9e4f845	-0.00043672524
176	0xbcec42bb	-0.028840413
177	0x3eae9b58	0.34102893
178	0xbe8751bd	-0.2642955
179	0xbe674db8	-0.22588241
180	0x3e748801	0.23880006
181	0xbf0c7b88	-0.54875994
182	0x3ee250d1	0.44202283
183	0xbdf22804	-0.118240386
184	0xbe6af37f	-0.22944449
185	0xbea407fd	-0.32037345
186	0x3efa99f9	0.48945597
187	0xbef8608d	-0.48511162
188	0x3ebe09db	0.37116894
189	0xbe6447fb	-0.22293083
190	0xbe1f8622	-0.15578511
191	0x3e74bbc7	0.23899756
192	0xbed676f6	-0.41887635
193	0xbefe7172	-0.49695927
194	0xbe0ed3c8	-0.13947976
195	0x3ec82763	0.3909255
196	0xbe996be6	-0.29965132
197	0xbd7a444c	-0.06110029
198	0x3ea06b59	0.313319
199	0xbea6189b	-0.32440647
200	0x3f01a062	0.5063535
201	0x3d0cba7e	0.03435754
202	0xbe6d39a1	-0.23166515
203	0xbec33107	-0.38123342
204	0xbe11d835	-0.14242633
205	0xbee19fa1	-0.440671
206	0x3ed13584	0.40861142
207	0x3eab0709	0.33403805
208	0xbd3877e2	-0.045036204
209	0xbe66f124	-0.22552925
210	0xbe739309	-0.23786558
211	0xbd8a0054	-0.06738344
212	0xbdd0c1d4	-0.1019322
213	0xbd8961fe	-0.06708144
214	0xbeb56713	-0.35430202
215	0x3d339f07	0.043852832
216	0xbe21b06a	-0.15789953
217	0xbe9deff1	-0.30847123
218	0x3d9f8216	0.07788484
219	0xbdf588dd	-0.11988995
220	0xbf0b6577	-0.544517
221	0x3f0ebb77	0.557548
222	0x3ed1b142	0.4095555
223	0xbe35ec3e	-0.177659
224	0xbeaa1a43	-0.3322316
225	0x3ed92eda	0.42418557
226	0x3cc5cc07	0.02414514
227	0xbdf23068	-0.11825639
228	0x3e141065	0.14459379
229	0x3f0b2d00	0.5436554
230	0x3dee3699	0.116315074
231	0xbc2968d5	-0.010339935
232	0xbe43bc6a	-0.19114843
233	0x3da56c7e	0.08077334
234	0xbf05fc59	-0.52338177
235	0xbea23bbc	-0.316862
236	0xbea004fd	-0.31253806
237	0x3f10b8b0	0.5653181
238	0x3ec74c99	0.38925627
239	0x3c1e7277	0.009670845
240	0xbedcc9bd	-0.43122664
241	0x3f1452fe	0.57939136
242	0x3cc0e1ea	0.023545224
243	0xbe372bcc	-0.17887801
244	0x3f0a1e11	0.5395213
245	0xbe9337f4	-0.28753626
246	0xbd5b708c	-0.05357413
247	0x3ed7974c	0.42107618
248	0xbeb6ef0f	-0.35729262
249	0x3c4d88d9	0.012544834
250	0xbf1e9520	-0.61946297
251	0xbed0b4b5	-0.4076287
252	0x3d61e66d	0.05515139
253	0xbf0000c2	-0.50001156
254	0xbf076c9e	-0.5290011
255	0xbefd3754	-0.49456275

VAE.encoder_mu.layers.1.linear0.bias f4 [128]
0	0xbee394ff	-0.44449612
1	0x3bd8336b	0.0065979264
2	0xbd7bb016	-0.061447226
3	0x3e7c4e10	0.24639153
4	0xbedfaada	-0.43685037
5	0xbd907f5b	-0.07055541
6	0xbe275cea	-0.16344038
7	0x3ecbcdb1	0.39805368
8	0x3da28ef0	0.079374194
9	0x3f048e5c	0.51779723
10	0x3ed166e8	0.40898824
11	0xbd757c2a	-0.059932865
12	0x3e8f8dca	0.28037864
13	0x3e9cee68	0.3065064
14	0xbe72726d	-0.23676462
15	0xbb9f697b	-0.004864869
16	0xbd6f51ab	-0.058427494
17	0xbeefe74e	-0.4685616
18	0xbda26d20	-0.0793097
19	0xbe3126a3	-0.17299895
20	0x3e3ec8a3	0.18631224
21	0xbdc43302	-0.095800415
22	0xbe519ea4	-0.20470673
23	0xbea40268	-0.32033086
24	0x3f060cc3	0.5236322
25	0xbc7ce289	-0.01543487
26	0x3e9c2302	0.3049546
27	0xbdac163a	-0.08402677
28	0x3e18cd49	0.1492206
29	0xbe326f9a	-0.17425385
30	0x3d9ea858	0.07746953
31	0x3e912da7	0.28355142
32	0x3df030bd	0.11728046
33	0xbde832a2	-0.113377824
34	0xbe8dd482	-0.27701193
35	0x3d994be5	0.07485179
36	0x3e6cf053	0.23138551
37	0xbec57d9d	-0.38572398
38	0x3ef2f349	0.47451237
39	0x3e1a87c1	0.15090849
40	0x3d091828	0.033470303
41	0xbede6b68	-0.4344132
42	0xbd8b9c7d	-0.06816957
43	0x3d7bc8dc	0.06147085
44	0xbed8737d	-0.4227561
45	0xbe0b31c1	-0.13593198
46	0xbec726a1	-0.3889666
47	0xbe98ada9	-0.29819992
48	0x3c4c30f4	0.012462843
49	0x3ebb6252	0.3659845
50	0x3ecd0510	0.40042925
51	0x3ddc82fb	0.1076717
52	0x3e7f482d	0.24929877
53	0x3e56e166	0.2098442
54	0xbeeb3e04	-0.45945752
55	0xbec321f2	-0.38111836
56	0x3dbca2db	0.0921075
57	0x3dc5c2f6	0.096563265
58	0x3efea88e	0.49737972
59	0xbeb2e587	-0.3494074
60	0x3e3664e6	0.17811927
61	0xbe96556c	-0.29362047
62	0xbed43c90	-0.41452456
63	0x3efcd6f4	0.49382746
64	0xbdd3774b	-0.10325488
65	0x3e8896d7	0.26677582
66	0xbe4bf04f	-0.19915889
67	0xbe5d9f66	-0.21642837
68	0x3e24faf2	0.16111353
69	0x3e6a0b1d	0.22855802
70	0x3efa4677	0.48881885
71	0xbeb4d2e4	-0.35317147
72	0xbe1158ab	-0.1419398
73	0xbd762137	-0.06009027
74	0x3e7a3bfe	0.24436948
75	0xbe6172b3	-0.2201641
76	0x3f161a5b	0.58633965
77	0x3dd3cdd8	0.10341996
78	0xbe9ef5e4	-0.31046975
79	0xbf02613d	-0.50929624
80	0x3f065239	0.5246921
81	0x3e325e2a	0.17418733
82	0x3e38b2ce	0.18036959
83	0x3ccff290	0.025384218
84	0x3e5248c6	0.20535573
85	0x3ceb6316	0.028733771
86	0x3e8c8ddc	0.2745198
87	0x3c90979a	0.017650414
88	0x3e0d42eb	0.13795058
89	0x3e05c077	0.13061701
90	0xbede0252	-0.43361145
91	0x3dbf99fa	0.093555406
92	0xbe259467	-0.16169892
93	0x3edfd49b	0.43716893
94	0xbe8ba98a	-0.27277786
95	0x3db75387	0.089514785
96	0xbe51de16	-0.20494875
97	0x3edc0da2	0.4297915
98	0x3de59b67	0.11211281
99	0xbe45a639	-0.1930169
100	0x3e0fe5d6	0.14052519
101	0x3eadd43a	0.3395098
102	0xbdab8d44	-0.08376554
103	0xbe753727	-0.2394682
104	0x3e902819	0.28155592
105	0x3e88cf6c	0.2672075
106	0xbe1dc470	-0.15406966
107	0xbe3bf327	-0.18354474
108	0xbd3b9951	-0.04580051
109	0x3e975d62	0.29563433
110	0xbd773c66	-0.060360335
111	0x3e11d2a6	0.14240512
112	0x3ec63e5a	0.38719445
113	0x3ec84052	0.39111573
114	0x3f06eed6	0.52708185
115	0x3e576dfe	0.21038052
116	0x3eed08bf	0.46295735
117	0x3e8c3c6c	0.27389848
118	0xbea5582e	-0.32293838
119	0x3ea0f79d	0.31438914
120	0x3ed1dbca	0.40987998
121	0x3eb912ee	0.36147255
122	0xbe96f1af	-0.29481265
123	0xbe78cfe5	-0.24298055
124	0x3d933a43	0.07188847
125	0x3e6670bb	0.22503941
126	0xbeaf8af0	-0.34285688
127	0x3ee76042	0.45190626

VAE.encoder_mu.layers.1.linear1.weight f4 [4, 128]
0	0xbd59a97c	-0.05314015
1	0xbde943ae	-0.11389862
2	0xbd94ae5f	-0.07259821
3	0xbe2621b5	-0.16223796
4	0xbd10bd88	-0.035337
5	0x3e1e2af6	0.15446076
6	0x3de94c4d	0.11391506
7	0x3d2e277a	0.042518117
8	0x3d8014e3	0.06253984
9	0x3d7daabf	0.061930414
10	0x3e0fc0c1	0.14038374
11	0x3bd66697	0.0065429914
12	0x3d8bf096	0.068329975
13	0xbdd793c6	-0.105262324
14	0x3cb51204	0.022103317
15	0xbc97bb5f	-0.018521963
16	0xbc1fbe50	-0.009749964
17	0x3db7f746	0.089827105
18	0xbd701a1f	-0.05861866
19	0x3e1abaed	0.15110369
20	0xbe26f3da	-0.1630396
21	0x3d7d8c93	0.06190164
22	0xbb2b3350	-0.0026123114
23	0xbdc681ab	-0.09692701
24	0xbda33cd0	-0.079705834
25	0xbddc8d0a	-0.107690886
26	0x3de36278	0.11102766
27	0xbd767229	-0.060167465
28	0xbd8f3e12	-0.06994261
29	0xbd501c93	-0.0508085
30	0x3cf76a6a	0.03020211
31	0xbdc69ee7	-0.09698277
32	0x3e2466b4	0.16054803
33	0xbc90cdcc	-0.017676257
34	0x3e5a97f2	0.21347025
35	0x3dbc8357	0.092047386
36	0x3d7921cc	0.060823247
37	0xbd958b0d	-0.073019125
38	0x3df419fb	0.11919018
39	0x3c187cbb	0.009307082
40	0xbd8ebbd1	-0.06969417
41	0xbc8c561d	-0.017130906
42	0x3e33ffc1	0.17578031
43	0x3da777c4	0.0817714
44	0xbe9b5fbc	-0.30346477
45	0x3e2afd22	0.16698125
46	0x3e12d995	0.14340813
47	0xbd61bf2b	-0.055113953
48	0xbd66d05b	-0.056351047
49	0x3bf14feb	0.0073642633
50	0x3d85394d	0.0650507
51	0x3e1251a2	0.14288953
52	0x3d8b7fc1	0.068114765
53	0xbb9db1b4	-0.0048124436
54	0x3ca0db98	0.01963596
55	0xbdbb59c2	-0.09147979
56	0xbe37f23b	-0.17963497
57	0xbd8e4bb2	-0.069480315
58	0xbdd89f6b	-0.105772816
59	0xbe188eba	-0.14898196
60	0xbe112120	-0.14172792
61	0xbd41a32a	-0.047274746
62	0xbd177f77	-0.036986794
63	0x3dc50fa0	0.09622121
64	0x3dde7564	0.10862234
65	0xbdff22d9	-0.124578185
66	0xbd9628a1	-0.07331968
67	0xbdfb5166	-0.12271385
68	0x3d4e9117	0.050431337
69	0x3e05b862	0.13058618
70	0x3de9a8d2	0.11409153
71	0x3e0baa6f	0.13639234
72	0xbe02051c	-0.12697262
73	0xbd6e3e2a	-0.058164753
74	0xbc95b146	-0.018273007
75	0x3d84127d	0.06448839
76	0x3e0422a0	0.12903833
77	0xbdcf1717	-0.10111826
78	0x3d0ee0f9	0.03488252
79	0x3da4faf6	0.080556795
80	0xbe23ee6a	-0.16008916
81	0xbd1f7c25	-0.038936753
82	0x3d17009d	0.03686582
83	0xbd854c2e	-0.06508671
84	0x3d8edf9e	0.06976245
85	0x3c3ba1b2	0.011452125
86	0x3da76226	0.08173017
87	0x3dca3c3c	0.0987477
88	0x3e1eb4ac	0.15498608
89	0x3e0f9d7d	0.14024921
90	0xbe0a3158	-0.13495386
91	0x3e316d3c	0.17326826
92	0x3a8ee3e0	0.0010901652
93	0xbdaf45fa	-0.08558269
94	0x3ca285f4	0.019839264
95	0xbdd94874	-0.106095225
96	0x3cc9b951	0.024624499
97	0x3cbae390	0.022813588
98	0x3d2d1204	0.04225351
99	0x3d350f5c	0.0442041
100	0xbdcc23a1	-0.09967733
101	0x3cf71e74	0.030165888
102	0xbe1ec0b0	-0.15503192
103	0x3dd0b2a8	0.10190326
104	0xbd2eb98e	-0.042657427
105	0x3e3c2c48	0.18376267
106	0xbde6b268	-0.11264497
107	0xbdb71f9e	-0.089415774
108	0xbda02c11	-0.07820905
109	0xbd9e713f	-0.07736444
110	0x3e2ee6d6	0.17080244
111	0xbdb01e9c	-0.08599588
112	0x3e2c2fa1	0.16815044
113	0x3dc28a80	0.09499073
114	0x3d55cb48	0.052195817
115	0xbe2bd5e9	-0.16780819
116	0x3c166e6d	0.009181601
117	0xbc3a3977	-0.01136624
118	0x3d8c1938	0.068407476
119	0x3e28e882	0.16494945
120	0xbd84165e	-0.06449579
121	0xbe034452	-0.12819031
122	0xbbc745cf	-0.00608132
123	0xbd3224b7	-0.043492045
124	0xbdf24db8	-0.1183123
125	0xbcbd7c62	-0.0231306
126	0xbd418528	-0.04724613
127	0xbdcc38e7	-0.09971791
128	0xbe17c770	-0.14822173
129	0x3debd495	0.11515156
130	0x3bce9fff	0.006305694
131	0x3e071c54	0.131944
132	0xbd5e3586	-0.054250263
133	0xbe37b530	-0.17940211
134	0x3df6403a	0.12023969
135	0xbddc5d05	-0.107599296
136	0x3d307ab8	0.043085784
137	0x3e14707a	0.14496031
138	0xbb952b47	-0.004552278
139	0x3d3d8169	0.046265993
140	0x3d8f5957	0.06999462
141	0xbb6c19eb	-0.003602619
142	0xbcd66ada	-0.026173998
143	0xbe21b220	-0.15790606
144	0x3c458257	0.012055001
145	0x3d1adde4	0.037809268
146	0x3e3ac2a6	0.18238315
147	0xbe3a6b95	-0.18205102
148	0x3e0121d2	0.12610558
149	0x3dfa0d81	0.12209607
150	0xbe4d8e8a	-0.20073906
151	0xbdb0b369	-0.0862797
152	0x3d8bb80b	0.06822213
153	0x3dcb0850	0.09913695
154	0x3cdcd696	0.026957791
155	0xbdc0235c	-0.09381744
156	0xbe3b753f	-0.18306445
157	0xbe1ecc16	-0.1550754
158	0x3bcefed9	0.0063170013
159	0xbd5e4556	-0.054265343
160	0x3c9ccd08	0.019140735
161	0x3e328e19	0.17437018
162	0xbe091049	-0.13385119
163	0x3ae04c74	0.0017112629
164	0x3df63a6c	0.12022862
165	0xbe371114	-0.17877609
166	0x3ba05d3d	0.0048939274
167	0x36061dc0	1.9984873e-06
168	0xba6460f9	-0.000871196
169	0x3e6680f0	0.22510123
170	0xbc915839	-0.017742263
171	0x3d42315e	0.04741036
172	0xbc9d549b	-0.019205382
173	0xbcf2b043	-0.029625064
174	0x3dc6ed10	0.09713185
175	0xbe8d52cb	-0.2760223
176	0x3d15b5a1	0.036550168
177	0x3df61b78	0.12016958
178	0xbe030b7c	-0.1279735
179	0x3d178069	0.036987696
180	0xbdbd93fb	-0.09256741
181	0xbe06bc94	-0.13157874
182	0x3c72868d	0.014802587
183	0x3e36d64e	0.17855188
184	0x3c84a6df	0.016192852
185	0x3de0e6b6	0.109815046
186	0xbddb4d36	-0.10708086
187	0x3e41f75a	0.18942013
188	0xbcecc13d	-0.028900737
189	0xbdee0086	-0.116211936
190	0x3c8bf7c2	0.017085914
191	0xbe1c3003	-0.1525269
192	0x3c98d5b4	0.01865659
193	0x3e29c053	0.16577272
194	0xbe3b9a77	-0.18320642
195	0xbdd5f2ce	-0.10446702
196	0xbd994468	-0.074837506
197	0xbe1b56cf	-0.15169834
198	0x3d83d280	0.06436634
199	0xbe001318	-0.12507284
200	0xbd43a702	-0.047766693
201	0x3e1ae852	0.15127686
202	0x3e25ab0d	0.16178532
203	0xbe51c9b7	-0.20487104
204	0xbd310245	-0.043215055
205	0x3e03b91a	0.1286358
206	0x3e50f9c2	0.20407775
207	0xbd5db7a9	-0.05413023
208	0x3dc74591	0.097300656
209	0xbd195a5b	-0.037439685
210	0xbda7f264	-0.08200529
211	0xbe43f1b2	-0.19135168
212	0x3e28ede1	0.16496994
213	0xbdc448f2	-0.09584226
214	0xbd82e44b	-0.063912
215	0x3e16baa4	0.14719635
216	0xbb8f3f94	-0.004371593
217	0x3ddc707b	0.107636414
218	0x3dace828	0.08442718
219	0xbda8bbba	-0.08238931
220	0xbd55570e	-0.052084975
221	0xbd4cec6c	-0.050030157
222	0xbd4f48c3	-0.0506065
223	0x3e37efaa	0.17962518
224	0x3d92ec73	0.07174005
225	0xbe244bdb	-0.16044562
226	0x3bc47199	0.005994987
227	0xbd528c24	-0.05140318
228	0x3db4f909	0.08836562
229	0x3bc9b941	0.006156117
230	0xbd890928	-0.066911995
231	0xbe07055e	-0.13185641
232	0xbc20e563	-0.009820315
233	0xbd0d0eeb	-0.034438055
234	0xbd2f52f7	-0.04280373
235	0xbdf114c6	-0.1177154
236	0xbc6f14dd	-0.014592377
237	0xbd115ff3	-0.035491895
238	0xbe2c951a	-0.16853753
239	0x3e1f4369	0.15553059
240	0x3db74c2b	0.08950075
241	0xbc0c2999	-0.0085548395
242	0xbe1c538f	-0.1526625
243	0x3c147cf3	0.009062993
244	0xbd229604	-0.039693847
245	0x3cf44e5d	0.029822523
246	0x3d0b7c5a	0.034054138
247	0xbdb6f4fc	-0.08933446
248	0xbcc545a3	-0.024081057
249	0x3dc707fe	0.09718321
250	0xbe50f86c	-0.20407265
251	0xbcd8215c	-0.026383094
252	0xbce465c9	-0.027880566
253	0xbe0c2aa0	-0.13688135
254	0xbd5c5348	-0.05379036
255	0xbe0a8c79	-0.13530149

VAE.encoder_mu.layers.1.linear1.bias f4 [4]
0	0xbd2f3b62	-0.04278124
1	0x3d5b7f3d	0.05358814
2	0x3db51073	0.08841028
3	0xbd1c41f0	-0.03814882

VAE.encoder_mu.layers.1.norm1.weight f4 [4]
0	0x3f8db450	1.1070652
1	0x3f94a6f5	1.1613451
2	0x3f8a0ce0	1.0785179
3	0x3f886f2d	1.0658928

VAE.encoder_mu.layers.1.norm1.bias f4 [4]
0	0xbd453894	-0.04814966
1	0x3d811535	0.06302873
2	0x3e3708ad	0.17874403
3	0xbdb7beee	-0.08971964

VAE.encoder_mu.layers.1.norm0.weight f4 [4]
0	0x3f77bee4	0.9677565
1	0x3f58edaa	0.84737647
2	0x3f810856	1.0080669
3	0x3f76a671	0.9634772

VAE.encoder_mu.layers.1.norm0.bias f4 [4]
0	0xbcbca48d	-0.023027683
1	0x3d1bf4c3	0.03807522
2	0x3c9588c8	0.018253699
3	0xbb92487b	-0.0044642068

VAE.encoder_mu.last_normalization.weight f4 [4]
0	0x3f800000	1.0
1	0x3f800000	1.0
2	0x3f800000	1.0
3	0x3f800000	1.0

VAE.encoder_mu.last_normalization.bias f4 [4]
0	0x00000000	0.0
1	0x00000000	0.0
2	0x00000000	0.0
3	0x00000000	0.0

VAE.encoder_mu.head.weight f4 [4, 4]
0	0x3eb34f78	0.35021567
1	0xbdde7898	-0.10862845
2	0x3ec28248	0.37990022
3	0xbd6bbcb0	-0.057552993
4	0xbed2d3d2	-0.4117723
5	0x3ee5bc5c	0.4487027
6	0x3eb87162	0.36024004
7	0xbd024f50	-0.03181392
8	0xbe91909c	-0.2843064
9	0x3e5cb7ac	0.2155444
10	0xbe7b97c0	-0.24569607
11	0xbe0b61c8	-0.1361152
12	0xbe1cd4b0	-0.15315509
13	0x3dfe8610	0.12427914
14	0xbd872ab8	-0.06599945
15	0x3ed6e9c8	0.41975236

VAE.encoder_mu.head.bias f4 [4]
0	0xbea79d9a	-0.32737428
1	0xbe36e868	-0.17862093
2	0x3eb2bedc	0.3491124
3	0xb9689000	-0.00022178888

VAE.encoder_logvar.layers.0.attention.W_q.weight f4 [4, 4]
0	0xbe388250	-0.1801846
1	0xbe8ba481	-0.27273944
2	0x3d046237	0.032320227
3	0x3e6f920e	0.23395559
4	0x3d1b74a9	0.037953053
5	0xbef79dd0	-0.4836259
6	0xbd627b06	-0.055293106
7	0x3edb321a	0.42811662
8	0x3ef0c345	0.4702398
9	0xbea00176	-0.31251115
10	0xbe615aed	-0.22007342
11	0x3d3fc27f	0.046816345
12	0xbe551d9c	-0.20812076
13	0xbe566efb	-0.20940773
14	0x3e4f1f3e	0.20226762
15	0x3e124a0d	0.1428606

VAE.encoder_logvar.layers.0.attention.W_q.bias f4 [4]
0	0xbd433709	-0.047659907
1	0xbd074b42	-0.033030756
2	0x3cb1971d	0.021678502
3	0xbdcd1f56	-0.100157425

VAE.encoder_logvar.layers.0.attention.W_k.weight f4 [4, 4]
0	0xbf0c471c	-0.54796004
1	0x3ea1b396	0.31582326
2	0x3ecb960f	0.39762923
3	0x3ee29adf	0.44258782
4	0x3e995984	0.29951108
5	0x3ec03c75	0.37546125
6	0x3ee1e1c7	0.44117567
7	0x3f01dd6e	0.507285
8	0xbe8b8692	-0.27251107
9	0x3e70fa26	0.23532924
10	0x3e5d5941	0.21616079
11	0xbf10cd79	-0.56563526
12	0xbf29c703	-0.6631929
13	0x3dc92877	0.09822171
14	0x3dbd17e9	0.09233076
15	0x3e6193f6	0.22029099

VAE.encoder_logvar.layers.0.attention.W_k.bias f4 [4]
0	0xb77f27b0	-1.5208425e-05
1	0xb86eaab5	-5.6902605e-05
2	0xb759992e	-1.2969873e-05
3	0xb54ac821	-7.554209e-07
