tabsyn/vae/ckpt/news/model.pt (torch, 63647 bytes, 98 tensors)

VAE.Tokenizer.weight f4 [47, 4]
0.06401476 0.062061585 -0.0655809 0.2626394 -0.30466077 -0.309335 -0.05362704 -0.23212022
-0.5752175 -0.19051194 -0.0090376595 0.35837325 0.24813892 -0.0065134834 -0.07166504 0.16439399
0.4787773 0.20178029 0.06650785 -0.17787446 0.08524448 -0.25670615 0.0009251399 0.16612372
0.19987221 0.2286455 0.10137581 -0.0756413 -0.055693123 -0.12038563 -0.024772782 0.25562668
-0.1517651 0.39891788 -0.008703434 -0.10222238 -0.16320693 -0.30825275 0.27264732 -0.122534744
-0.0148827415 0.53619975 0.09526314 -0.52528965 -0.17117947 -0.14432225 0.059154447 -0.34312132
-0.7119509 0.20716639 0.44782555 -0.38243818 -0.17703883 -0.18585661 -0.0670837 0.010942296
0.31495723 0.36374617 0.17556545 0.04622633 -0.3522112 0.08406148 0.072281055 -0.43240017
0.34550962 0.047013544 -0.17786057 0.3045328 -0.07612496 -0.15206811 0.44590077 0.11881858
0.44561216 0.29012403 -0.19464166 0.2563006 -0.035610065 0.34889105 0.074490376 -0.03966426
0.026558418 0.007602419 0.20240434 0.24335872 0.39844453 0.1947555 0.08076818 0.41017526
-0.055943698 -0.1940367 -0.17358147 -0.013352816 0.28165942 -0.22112964 -0.39207593 0.2858304
-0.32153454 -0.35111064 -0.509216 -0.39120802 0.095527045 0.23954973 0.090415515 -0.096974425
0.5031094 0.40020648 0.1991871 0.09393238 -0.23962794 -0.036571864 -0.09152087 0.38528326
-0.19708188 -0.048985053 0.051222768 -0.1876531 -0.22754106 -0.24331318 0.17270738 -0.04074921
0.12148755 0.015797649 0.19185667 0.11258747 -0.18983448 0.39661098 0.019053485 0.005590341
0.35981703 -0.4751267 0.31398064 0.3604187 -0.29006162 0.0954621 -0.42176893 -0.30891022
-0.28426427 -0.31904843 -0.103541546 0.06680421 0.45355138 -0.17084771 0.20400408 0.26766446
0.30599314 -0.2832993 0.3860694 0.7373843 0.15095548 -0.25569382 -0.38908252 -0.26596707
-0.10368246 0.10431661 -0.011501571 0.55939204 0.42145887 0.39350292 0.2705148 0.45299515
0.08707775 -0.024473952 0.2279919 -0.2669055 -0.14973229 0.5868386 0.20010734 0.54094267
0.37485445 0.2661176 0.17159073 0.47578862 0.17320718 -0.060358126 -0.385115 -0.12648176
-0.07264725 -0.51784134 -0.24080335 0.14265117 0.29918855 0.26371366 0.14162712 -0.1192944
-0.28399882 0.04806953 0.03968741 -0.32193884
00000000: 2c1a 833d 4a34 7e3d 474f 86bd ac78 863e
00000010: 7ffc 9bbe 2861 9ebe 07a8 5bbd ecb0 6dbe
00000020: 7441 13bf 9015 43be b112 14bc b37c b73e
00000030: 2118 7e3e 0f6f d5bb 1fc5 92bd e656 283e
00000040: 4c22 f53e 7e9f 4e3e 4535 883d b924 36be
00000050: a894 ae3d fd6e 83be 1685 723a 561c 2a3e
00000060: 4dab 4c3e 0c22 6a3e 1f9e cf3d d3e9 9abd
00000070: 791e 64bd be8c f6bd 4af0 cabc 80e1 823e
00000080: 4f68 1bbe f73e cc3e d998 0ebc f859 d1bd
00000090: b81f 27be 4ed3 9dbe 6e98 8b3e 7ff3 fabd
000000a0: bed6 73bc 6344 093f 5219 c33d 6279 06bf
000000b0: ac49 2fbe 36c9 13be ef4b 723d 99ad afbe
000000c0: 6a42 36bf 6d23 543e 6449 e53e f0ce c3be
000000d0: ab49 35be 3251 3ebe 2e63 89bd 5147 333c
000000e0: 1342 a13e f03c ba3e 6ec7 333e d257 3d3d
000000f0: 0755 b4be 6d28 ac3d 1708 943d 8e63 ddbe
00000100: a3e6 b03e 4691 403d 1521 36be b9eb 9b3e
00000110: 67e7 9bbd beb7 1bbe 1b4d e43e 2857 f33d
00000120: 4727 e43e 238b 943e 2550 47be d539 833e
00000130: dcdb 11bd d9a1 b23e 698e 983d fe76 22bd
00000140: 0a91 d93c b61d f93b 1543 4f3e 0733 793e
00000150: ec00 cc3e fc6d 473e ca69 a53d 7e02 d23e
00000160: 3825 65bd 8fb1 46be 57bf 31be c5c5 5abc
00000170: aa35 903e cf6f 62be 2dbe c8be 5d58 923e
00000180: 2da0 a4be c6c4 b3be fb5b 02bf 6b4c c8be
00000190: afa3 c33d 864c 753e c52b b93d 879a c6bd
000001a0: c7cb 003f dde7 cc3e b4f7 4b3e 9f5f c03d
000001b0: 0761 75be 61cc 15bd 4b6f bbbd d943 c53e
000001c0: d5cf 49be 8da4 48bd f7ce 513d 2228 40be
000001d0: 8600 69be 1727 79be 34da 303e a5e8 26bd
000001e0: 77ce f83d 126a 813c 1376 443e 4294 e63d
000001f0: f863 42be 9810 cb3e 0e16 9c3c 2e2f b73b
00000200: f039 b83e cf43 f3be 12c2 a03e cd88 b83e
00000210: f582 94be a281 c33d 19f2 d7be 7b29 9ebe
00000220: 168b 91be 515a a3be 970d d4bd a5d0 883d
00000230: e337 e83e b4f2 2ebe 72e6 503e 510b 893e
00000240: 22ab 9c3e 9b0c 91be e3aa c53e 38c5 3c3f
00000250: 1394 1a3e 4dea 82be d335 c7be d62c 88be
00000260: 7857 d4bd f2a3 d53d 1671 3cbc 5134 0f3f
00000270: 75c9 d73e 3779 c93e ea80 8a3e fbee e73e
00000280: d255 b23d 997d c8bc b576 693e d6a7 88be
00000290: 6c53 19be 0e3b 163f f0e8 4c3e 387b 0a3f
000002a0: ecec bf3e 9140 883e 7bb5 2f3e 919a f33e
000002b0: 395d 313e 153a 77bd cb2d c5be 6f84 01be
000002c0: 15c8 94bd 4091 04bf 2795 76be 2613 123e
000002d0: 3e2f 993e 7a05 873e b306 113e 9f50 f4bd
000002e0: 4b68 91be 8ee4 443d 448f 223d 2bd5 a4be

VAE.Tokenizer.bias f4 [48, 4]
-0.5252695 0.06435207 -0.3673861 -0.22161265 0.17423446 0.15057957 0.40733302 -0.47845653
-0.3370674 -0.40798077 0.3928541 -0.034466676 0.1353367 -0.09428465 0.055011358 -0.5348214
-0.16600884 0.26828837 -0.4073825 0.657077 -0.18099491 0.45838565 0.36425507 0.24794954
0.19122638 -0.36598656 0.5067815 0.01439342 -0.56785166 0.17988692 0.23677675 -0.15604672
-0.42048442 -0.6381289 0.085732795 0.38079527 -0.24537627 0.07733428 -0.48881122 0.1678663
-0.4603496 0.55686444 -0.0013868012 0.3735328 0.65280974 0.21647449 0.45020652 0.0742567
0.22519834 0.27467784 -0.5361799 -0.30562654 -0.06457053 -0.20781165 -0.016650919 -0.35915723
-0.17422101 0.44000462 -0.1891571 -0.6871342 0.14956659 -0.31468529 0.2972297 0.6520273
-0.55948806 0.050008442 0.18373227 -0.46263924 0.4692519 -0.37913382 -0.46569937 0.10042489
0.071615785 0.44302133 -0.14999281 0.69343007 -0.034232344 0.112335764 -0.32924026 0.4411752
0.050506122 0.5666675 0.12938501 -0.29202518 0.46552017 -0.36998892 -0.60666466 -0.16233638
0.18974955 -0.43782327 -0.22601745 0.49777177 0.124717474 0.29161063 -0.38571808 -0.4787987
-0.5798267 -0.3131961 0.24703316 -0.1173057 0.12086547 0.09813241 -0.44312802 0.4419692
-0.16490689 -0.23383348 0.28785774 -0.061763182 -0.62539613 -0.3098544 -0.088995904 0.35752153
-0.64837795 0.3719926 -0.26237783 -0.2533168 0.28536984 0.24311402 0.413038 -0.36371538
-0.017324753 0.3299081 0.46818778 0.10008689 -0.192088 -0.15063107 -0.3079192 0.64682513
-0.35964346 0.35018802 0.10342493 0.6902448 -0.13685687 -0.17218009 0.5877641 0.13963331
0.008157442 0.2169026 -0.7333708 0.028157583 0.16619325 0.36314955 -0.6328865 0.45114118
0.14165278 -0.54506505 0.4741064 0.3810551 -0.3345777 0.5877631 0.37723815 0.13588051
-0.55828756 0.18442443 -0.27013728 -0.26573637 -0.45751745 0.6686533 0.15851524 0.24123006
-0.45214123 -0.43802038 -0.22792798 0.5435603 -0.18307658 0.3729139 -0.006843429 -0.050463803
0.2020146 0.37225324 -0.20418729 -0.35096562 -0.353307 0.4264132 -0.26227707 0.46541357
0.15321188 0.40719223 -0.3868183 -0.13178152 -0.0780461 0.5191073 -0.0039544487 -0.3225613
0.34599426 0.106690004 -0.10084553 -0.12983207 0.21892738 -0.42050338 -0.41876653 0.044008464
00000000: 1078 06bf 05cb 833d 081a bcbe 6dee 62be
00000010: 856a 323e 8831 1a3e f48d d03e 41f8 f4be
00000020: 1994 acbe dbe2 d0be 2c24 c93e ee2c 0dbd
00000030: b495 0a3e 5018 c1bd 9753 613d 0eea 08bf
00000040: 39fe 29be 185d 893e 7094 d0be 3336 283f
00000050: bb56 39be 86b1 ea3e a47f ba3e 7ce6 7d3e
00000060: d9d0 433e 9762 bbbe 6fbc 013f 61d2 6b3c
00000070: ba5e 11bf 4734 383e 9b75 723e b6ca 1fbe
00000080: bc49 d7be 6a5c 23bf ad94 af3d 99f7 c23e
00000090: eb43 7bbe 6f61 9e3d 7745 fabe 25e5 2b3e
000000a0: f1b2 ebbe ab8e 0e3f 54c5 b5ba b13f bf3e
000000b0: 8a1e 273f 7dab 5d3e 7881 e63e e613 983d
000000c0: 659a 663e 93a2 8c3e 1643 09bf 157b 9cbe
000000d0: 8e3d 84bd 94cc 54be 8267 88bc 75e3 b7be
000000e0: fe66 32be 4948 e13e 66b2 41be 07e8 2fbf
000000f0: fc27 193e 6e1e a1be 7e2e 983e 43eb 263f
00000100: 9c3a 0fbf a7d5 4c3d 5024 3c3e 0ddf ecbe
00000110: c941 f03e d41d c2be 2670 eebe 91ab cd3d
00000120: 4cab 923d b1d3 e23e b797 19be a284 313f
00000130: 3737 0cbd 4b10 e63d 2e92 a8be b7e1 e13e
00000140: 82df 4e3d 1f11 113f 817d 043e 5384 95be
00000150: a958 ee3e 306f bdbe 604e 1bbf 823b 26be
00000160: b54d 423e 5f2a e0be 1e71 67be f1db fe3e
00000170: e06b ff3d fd4d 953e d77c c5be 1a25 f5be
00000180: 866f 14bf 3d5b a0be 43f6 7c3e f93d f0bd
00000190: 5188 f73d a5f9 c83d ade1 e2be c949 e23e
000001a0: 5add 28be 0b72 6fbe 1762 933e 64fb 7cbd
000001b0: f619 20bf 3ca5 9ebe 7c43 b6bd 100d b73e
000001c0: 19fc 25bf d075 be3e 6356 86be bdb2 81be
000001d0: ff1b 923e e2f2 783e b779 d33e e738 babe
000001e0: a4ec 8dbc b7e9 a83e 4fb6 ef3e 5bfa cc3d
000001f0: b7b2 44be 083f 1abe 96a7 9dbe 5596 253f
00000200: 3023 b8be d84b b33e 73d0 d33d e2b3 303f
00000210: 3524 0cbe fa4f 30be b577 163f 09fc 0e3e
00000220: cba6 053c b71b 5e3e 30be 3bbf bbaa e63c
00000230: 902e 2a3e bdee b93e da04 22bf fafb e63e
00000240: 6d0d 113e 6289 0bbf 13be f23e a719 c33e
00000250: c54d abbe a477 163f 5c25 c13e 4324 0b3e
00000260: efeb 0ebf c2d9 3c3e 6f4f 8abe 990e 88be
00000270: ba3f eabe dd2c 2b3f d251 223e 0305 773e
00000280: 0e7f e7be 3544 e0be f465 69be c526 0b3f
00000290: 6d78 3bbe 92ee be3e d83e e0bb 22b3 4ebd
000002a0: eadc 4e3e fa97 be3e 7916 51be c4b1 b3be
000002b0: a8e4 b4be d552 da3e 2e49 86be b04a ee3e
000002c0: 93e3 1c3e 807b d03e 0c0d c6be bcf1 06be
000002d0: a2d6 9fbd 37e4 043f 5294 81bb c126 a5be
000002e0: 2926 b13e 4a80 da3d 1a88 cebd b3f2 04be
000002f0: 802e 603e 384c d7be 9168 d6be 3842 343d

VAE.Tokenizer.category_embeddings.weight f4 [13, 4]
0.15072143 0.48226827 0.22491573 -0.029291816 0.19443028 -0.04071434 -0.3975426 0.15995869
-0.24563241 -0.4234312 0.29207557 -0.3410645 -0.281496 -0.24306217 -0.3175105 0.16214712
-0.52545094 -0.22450611 0.14681974 -0.57675564 -0.013183409 -0.05267687 0.29114032 0.4857975
0.0029542586 -0.12065403 0.28505126 -0.30272543 -0.20865221 -0.27426398 -0.47706082 0.09892698
0.36424005 0.4005757 -0.011984146 -0.33542854 0.016133355 -0.21442974 0.18599626 0.25115976
0.17463945 0.3743321 -0.36046112 -0.04067191 0.10883938 -0.2844172 -0.22224954 -0.15711981
0.060018986 0.30709875 -0.19648209 -0.2393014
00000000: b856 1a3e deeb f63e 4f50 663e 64f5 efbc
00000010: bb18 473e 14c4 26bd b48a cbbe 36cc 233e
00000020: 1087 7bbe f9cb d8be ee8a 953e 02a0 aebe
00000030: 3e20 90be 4ae5 78be bc90 a2be e509 263e
00000040: f483 06bf eee4 65be ea57 163e 42a6 13bf
00000050: 3aff 57bc b4c3 57bd 5810 953e 73ba f83e
00000060: 3c9c 413b 7619 f7bd 3df2 913e d4fe 9abe
00000070: eda8 55be 546c 8cbe 5141 f4be 3a9a ca3d
00000080: ac7d ba3e 4218 cd3e 2759 44bc 4abd abbe
00000090: 192a 843c 7893 5bbe ce75 3e3e 0398 803e
000000a0: afd4 323e 75a8 bf3e 5c8e b8be 9797 26bd
000000b0: 2ee7 de3d 229f 91be 6295 63be 04e4 20be
000000c0: 78d6 753d 0c3c 9d3e 9a32 49be 6d0b 75be

VAE.encoder_mu.layers.0.attention.W_q.weight f4 [4, 4]
-0.034107503 -0.037543602 -0.18099709 0.4984249 0.4774552 -0.55465424 0.5480927 0.37746418
-0.27627936 -0.012701538 0.013615177 -0.07642521 -0.34281084 0.36804536 0.04914061 0.47574657
00000000: 4fb4 0bbd 52c7 19bd 4d57 39be 8c31 ff3e
00000010: 0275 f43e d2fd 0dbf ce4f 0c3f fc42 c13e
00000020: 7d74 8dbe 1d1a 50bc 3112 5f3c d284 9cbd
00000030: e784 afbe 7170 bc3e aa47 493d 0e95 f33e

VAE.encoder_mu.layers.0.attention.W_q.bias f4 [4]
-0.13346355 -0.10187287 -0.07996968 -0.022823488
00000000: abaa 08be b9a2 d0bd 25c7 a3bd 53f8 babc

VAE.encoder_mu.layers.0.attention.W_k.weight f4 [4, 4]
-0.46121198 0.2830819 0.56778944 -0.27732217 0.31413838 -0.2193898 0.3970576 0.36742535
0.23310679 -0.21324626 0.3465305 0.084935375 -0.40867049 0.33677217 -0.17803021 -0.291977
00000000: fa23 ecbe 1cf0 903e a65a 113f 2cfd 8dbe
00000010: bfd6 a03e b8a7 60be 224b cb3e 2d1f bc3e
00000020: 8cb3 6e3e 3a5d 5abe 726c b13e 99f2 ad3d
00000030: 423d d1be 676d ac3e 8d4d 36be 027e 95be

VAE.encoder_mu.layers.0.attention.W_k.bias f4 [4]
-7.202339e-05 -0.000102114944 -6.828485e-06 4.899336e-05
00000000: 430b 97b8 8b26 d6b8 3d20 e5b6 387e 4d38

VAE.encoder_mu.layers.0.attention.W_v.weight f4 [4, 4]
-0.10316103 0.10214455 0.18103184 -0.04855664 -0.10352323 0.26772755 0.030367022 -0.03638364
0.051834304 0.35155284 -0.03814573 -0.0105451085 -0.022341102 0.1730631 0.1644924 0.003144132
00000000: 1746 d3bd 2931 d13d 6960 393e 54e3 46bd
00000010: fd03 d4bd 9613 893e 43c4 f83c 0307 15bd
00000020: 3550 543d bcfe b33e b23e 1cbd 64c5 2cbc
00000030: b004 b7bc 7437 313e b270 283e c80d 4e3b

VAE.encoder_mu.layers.0.attention.W_v.bias f4 [4]
-0.14097267 0.016987475 0.08698988 0.04921476
00000000: 245b 10be 5129 8b3c c027 b23d 6b95 493d

VAE.encoder_mu.layers.0.linear0.weight f4 [128, 4]
-0.18332851 0.25027993 0.36400995 -0.112322584 0.26061615 -0.19743384 0.16134147 0.12122453
-0.5089199 -0.022049764 -0.22451809 -0.09196879 0.46485984 0.37777072 -0.1892859 -0.4621197
-0.4476274 0.08633601 -0.43997893 0.0723828 -0.39700943 0.39222306 -0.25482798 0.280132
-0.33864138 0.20738558 0.11266967 -0.5132515 -0.4674735 0.2893622 -0.05920495 -0.41805398
-0.123678856 0.4122153 -0.28767297 -0.2621562 -0.3184859 -0.23428296 0.27214906 -0.5033633
0.25060257 0.20742877 -0.3998578 0.08358985 -0.5226021 0.22818345 -0.3587905 0.10937247
0.338787 0.25427192 -0.37959734 -0.60420936 -0.09647604 0.24273425 0.36887065 -0.04528723
-0.08639914 0.12140377 0.39017692 -0.511372 -0.21412656 -0.24479955 -0.21919502 0.0020561782
0.022777045 -0.049032904 0.25148162 0.1167605 -0.4445424 0.42467412 0.25879678 0.55063266
-0.26718166 0.13152537 0.38285634 0.082810625 0.38311094 0.027665732 0.3079574 0.431176
-0.17150107 0.23982716 -0.43497807 -0.23423477 0.42429507 -0.3004443 -0.07885115 -0.168646
-0.37586093 0.48638242 -0.07030124 -0.17764527 0.15400827 -0.2183408 0.35376808 -0.40335122
0.16920987 0.15048741 -0.33963138 0.3555569 0.41659525 0.14678426 -0.2862035 -0.46226645
0.16465323 -0.29892614 0.14208339 0.012799457 -0.27887774 0.22754323 -0.20217389 0.04946172
0.23709127 -0.08866262 0.3955415 -0.35851347 0.034078427 0.13758698 0.13497251 -0.5000677
0.2683996 -0.16837353 -0.2708969 0.28798443 -0.026302397 0.04733467 0.07229501 0.023035944
-0.3508143 0.1504739 0.07650899 0.46915334 -0.36369583 0.15967292 0.21792032 0.23096915
0.28217933 -0.10698096 -0.20226383 -0.0075460584 -0.049232036 -0.57937914 0.49568275 -0.013059737
0.49100295 -0.23141658 -0.27284226 -0.09494365 0.5314895 -0.38959146 0.24741445 0.02015311
0.033435922 -0.06905796 0.011236419 0.021838257 -0.05454035 0.10138935 -0.08600762 -0.501183
-0.41224915 -0.25671065 -0.49409828 0.09419975 0.45129618 0.51562226 0.12339148 0.11123419
-0.19945683 0.39092627 0.11304283 -0.06161388 -0.5687769 0.13271712 0.55917 -0.06337357
0.50594515 0.22658022 -0.2978031 -0.5383235 0.47070202 -0.12252088 0.007524382 0.23160884
0.37752932 -0.29014704 -0.61841094 0.098621875 -0.058759246 0.12008494 -0.3247468 -0.2525049
-0.008501581 0.14821115 -0.1196557 -0.42112005 0.33165264 -0.24568433 0.086801365 0.36614358
0.058248896 -0.047923572 0.09544468 0.41090012 0.23735346 0.17732795 -0.2111852 0.4100186
-0.046632055 -0.37057298 -0.28752017 0.1006437 0.15848424 0.3480286 -0.384763 0.27597412
-0.40619248 -0.3420981 0.08927398 0.44731674 0.3701862 -0.1805075 -0.20586495 0.3954075
0.12575664 -0.067203514 -0.0065395427 0.38368866 0.037193503 -0.2792424 0.26323032 -0.38745576
0.082267314 0.2718361 0.3846861 -0.2077533 -0.04576052 -0.27397364 -0.07902082 0.3197182
-0.2237696 -0.38614509 0.3089529 0.46208897 -0.22306174 0.3664752 -0.043585274 -0.17582355
-0.39584512 0.44507012 -0.28792733 0.264569 0.17145218 0.5282143 -0.11132843 0.16933312
00000000: 78ba 3bbe b124 803e 835f ba3e 6209 e6bd
00000010: 7b6f 853e 192c 4abe b336 253e 9144 f83d
00000020: 9348 02bf b5a1 b4bc 12e8 65be 225a bcbd
00000030: 1c02 ee3e 2a6b c13e 2ad4 41be f49a ecbe
00000040: 6b2f e5be efd0 b03d eb44 e1be 6f3d 943d
00000050: d244 cbbe 76d1 c83e d078 82be 766d 8f3e
00000060: 6762 adbe e35c 543e 5bbf e63d 7364 03bf
00000070: b058 efbe 4827 943e e480 72bd 2c0b d6be
00000080: 574b fdbd e20d d33e df49 93be 5639 86be
00000090: 9510 a3be dfe7 6fbe 1f57 8b3e 6bdc 00bf
000000a0: fb4e 803e 3568 543e 29ba ccbe 2831 ab3d
000000b0: 40c9 05bf eca8 693e 63b3 b7be acfe df3d
000000c0: 7d75 ad3e ee2f 823e 955a c2be 77ad 1abf
000000d0: 3b95 c5bd 548f 783e 9ddc bc3e 1a7f 39bd
000000e0: 08f2 b0bd 8aa2 f83d 45c5 c73e 47e9 02bf
000000f0: fe43 5bbe bcac 7abe a974 60be f2c0 063b
00000100: ed96 ba3c bad6 48bd 33c2 803e 2120 ef3d
00000110: 109b e3be e36e d93e 0381 843e 43f6 0c3f
00000120: 09cc 88be 96ae 063e bf05 c43e 9e98 a93d
00000130: 1e27 c43e 3fa3 e23c 98ac 9d3e 1ac3 dc3e
00000140: fa9d 2fbe 4095 753e 72b5 debe 3ddb 6fbe
00000150: 343d d93e d6d3 99be b67c a1bd 89b1 2cbe
00000160: d870 c0be 1e07 f93e 19fa 8fbd a4e8 35be
00000170: 58b4 1d3e bb94 5fbe 1721 b53e 0d84 cebe
00000180: 5a45 2d3e 5f19 1a3e 2ae4 adbe 8e0b b63e
00000190: f94b d53e 9d4e 163e 4489 92be 30ae ecbe
000001a0: db9a 283e d90c 99be 4f7e 113e d0b4 513c
000001b0: 10c9 8ebe 1801 693e ac06 4fbe 5f98 4a3d
000001c0: 0ec8 723e bf94 b5bd 6a84 ca3e 148f b7be
000001d0: d295 0b3d 9ae3 0c3e 3c36 0a3e 7004 00bf
000001e0: ac6b 893e 1c6a 2cbe 00b3 8abe b272 933e
000001f0: 2078 d7bc 00e2 413d 680f 943d e0b5 bc3c
00000200: ef9d b3be d415 1a3e bfb0 9c3d de34 f03e
00000210: 5736 babe 4c81 233e 8126 5f3e 2d83 6c3e
00000220: cf79 903e d518 dbbd 401e 4fbe ed44 f7bb
00000230: 88a7 49bd 3152 14bf 21ca fd3e 82f8 55bc
00000240: bd64 fb3e 78f8 6cbe fbb1 8bbe d171 c2bd
00000250: b20f 083f 8878 c7be 375a 7d3e 2318 a53c
00000260: 1bf4 083d 426e 8dbd f518 383c 25e6 b23c
00000270: b465 5fbd 38a5 cf3d c324 b0bd 874d 00bf
00000280: 5212 d3be 946f 83be 73fa fcbe cceb c03d
00000290: 4b10 e73e d2ff 033f acb4 fc3d c0ce e33d
000002a0: 693e 4cbe 7d27 c83e 0083 e73d d65e 7cbd
000002b0: 5d9b 11bf ffe6 073e c425 0f3f 01ca 81bd
000002c0: 9f85 013f a504 683e a679 98be 92cf 09bf
000002d0: dbff f03e 3aec fabd 178f f63b de2a 6d3e
000002e0: 864b c13e 278e 94be 2e50 1ebf 44fa c93d
000002f0: 89ad 70bd 18ef f53d 3645 a6be 5248 81be
00000300: 374a 0bbc aac4 173e 0c0e f5bd 0c9d d7be
00000310: 60ce a93e ac94 7bbe eac4 b13d 2c77 bb3e
00000320: 6596 6e3d 824b 44bd 8078 c33d 8061 d23e
00000330: c90c 733e 7595 353e ef40 58be f5ed d13e
00000340: 4101 3fbd bebb bdbe d835 93be 491e ce3d
00000350: b149 223e ce30 b23e a8ff c4be 7b4c 8d3e
00000360: 76f8 cfbe 7b27 afbe 47d5 b63d b306 e53e
00000370: 0c89 bd3e f5d6 38be 43ce 52be da72 ca3e
00000380: 59c6 003e ffa1 89bd a949 d6bb d772 c43e
00000390: 3758 183d dcf8 8ebe 20c6 863e 9a60 c6be
000003a0: c47b a83d 1a2e 8b3e 94f5 c43e 48bd 54be
000003b0: 626f 3bbd 4646 8cbe abd5 a1bd 1bb2 a33e
000003c0: dc23 65be cfb4 c5be 132f 9e3e ed96 ec3e
000003d0: 4c6a 64be a3a2 bb3e 7986 32bd 170b 34be
000003e0: 36ac cabe 3be0 e33e 366b 93be 9775 873e
000003f0: 2991 2f3e 0d39 073f 2900 e4bd a965 2d3e

VAE.encoder_mu.layers.0.linear0.bias f4 [128]
-0.17629671 0.46329698 -0.4081159 0.12711611 0.1454717 0.39579716 -0.01834389 -0.18222007
-0.17038523 -0.3320132 -0.2737455 -0.40838328 0.20728697 0.35890183 0.049448013 0.4420484
0.41610566 -0.44715258 -0.009286196 0.22837202 0.13345736 0.45427364 0.26390517 0.0626776
-0.36114818 0.25888425 -0.3877176 0.368062 -0.39230475 -0.0779271 -0.13820113 -0.3293237
-0.10941957 -0.28881598 -0.46933848 0.07760286 -0.6148913 -0.38350442 -0.1805507 0.10392083
-0.19549562 -0.0430859 0.2825572 0.15812434 -0.19988358 -0.3827439 -0.47018772 -0.06362653
0.18349262 -0.3760267 -0.3873077 -0.34653574 -0.32364827 -0.26972786 -0.0996232 0.44072092
-0.31590533 -0.2798293 -0.1945093 -0.040775076 -0.22006722 -0.41453198 -0.016460797 0.47613373
0.24297717 0.21773775 0.07066331 0.28768775 0.24029392 0.30972782 -0.1838302 0.089921586
0.539149 -0.29269448 0.3561622 0.4723037 -0.03702285 -0.08702588 -0.46953422 0.0886617
-0.30156428 0.4104538 0.19693115 -0.068863675 0.29976922 0.22989535 -0.2692195 0.091758676
0.34156266 0.0814587 0.28761706 -0.38169563 -0.08046656 0.17858027 0.3039938 0.43513086
-0.06981309 0.5381959 0.3378522 -0.16729558 0.14501494 0.50119966 0.007466724 0.2486508
-0.022608723 -0.34979203 0.47940555 0.20751879 -0.4654357 0.2636122 -0.51829785 0.41201255
-0.45477933 -0.39790586 -0.13159803 -0.10044649 0.14403977 -0.2411116 0.30268657 -0.25416076
-0.05379345 0.17172886 0.13986975 0.0029345718 -0.14558128 0.38811493 -0.19420265 -0.17235067
00000000: 2087 34be 4335 ed3e 91f4 d0be ba2a 023e
00000010: 89f6 143e eda5 ca3e ed45 96bc e697 3abe
00000020: 7779 2ebe a2fd a9be 5f28 8cbe 9d17 d1be
00000030: 0943 543e fbc1 b73e 008a 4a3d 2b54 e23e
00000040: cd0b d53e 2ff1 e4be 2125 18bc 5bda 693e
00000050: 0ca9 083e 8e96 e83e 941e 873e 1d5d 803d
00000060: 6ae8 b8be 7a8c 843e ec82 c6be 9f72 bc3e
00000070: 2bdc c8be 3e98 9fbd 9984 0dbe 1e9d a8be
00000080: 5e17 e0bd b0df 93be 224d f0be 40ee 9e3d
00000090: 8469 1dbf b15a c4be 48e2 38be 72d4 d43d
000000a0: 0130 48be d77a 30bd 56ab 903e 59eb 213e
000000b0: 48ae 4cbe 02f7 c3be 72bc f0be a04e 82bd
000000c0: 7de5 3b3e 9286 c0be 324d c6be 226d b1be
000000d0: 3ab5 a5be c519 8abe 4007 ccbd 2ca6 e13e
000000e0: 58be a1be c945 8fbe 722d 47be c403 27bd
000000f0: 4d59 61be 893d d4be cbd8 86bc cdc7 f33e
00000100: 02cf 783e a5f6 5e3e edb7 903d cf4b 933e
00000110: 9c0f 763e a594 9e3e fc3d 3cbe cf28 b83d
00000120: ab05 0a3f 0ddc 95be e45a b63e cad1 f13e
00000130: 46a5 17bd a03a b2bd ca66 f0be 4494 b53d
00000140: a266 9abe 0027 d23e 52a8 493e 6608 8dbd
00000150: 5a7b 993e b069 6b3e 23d7 89be f9eb bb3d
00000160: 4de1 ae3e d2d3 a63d 8b42 933e 9c6d c3be
00000170: a7cb a4bd bfdd 363e 13a5 9b3e 79c9 de3e
00000180: 2afa 8ebd 35c7 093f f7fa ac3e 884f 2bbe
00000190: cc7e 143e 9f4e 003f 6cab f43b 519e 7e3e
000001a0: ee35 b9bc f117 b3be a574 f53e ce7f 543e
000001b0: 974d eebe 2ef8 863e 2baf 04bf 4ff3 d23e
000001c0: d6d8 e8be 51ba cbbe a2c1 06be e4b6 cdbd
000001d0: 297f 133e f6e5 76be bcf9 9a3e 5c21 82be
000001e0: 8556 5cbd b1d9 2f3e 043a 0f3e f251 403b
000001f0: 4213 15be 00b7 c63e 0fdd 46be b27c 30be

VAE.encoder_mu.layers.0.linear1.weight f4 [4, 128]
-0.03195612 0.041230317 -0.14343669 -0.074809164 0.007460945 -0.08000131 -0.06459384 -0.07812152
0.0036946554 -0.027305031 -0.052184653 -0.0689114 -0.08306644 -0.09073704 -0.07301031 0.00049445726
0.029976208 -0.01040436 -0.0025226115 0.12539513 -0.03563177 0.0100531615 -0.014057785 0.041056767
0.060350705 0.045626827 0.009812437 0.018673427 0.059292283 -0.08352138 -0.049887277 -0.034033
0.019283371 -0.12228017 0.24411522 0.12512758 0.08883437 0.16251956 0.031792745 -0.045114778
-0.114096224 0.012605886 -0.12738161 -0.13328557 -0.144198 -0.04784635 -0.045674667 0.054610617
-0.011238428 0.025921948 -0.0978926 0.06974879 -0.23872507 -0.07719075 -0.065512806 -0.023124931
-0.203078 0.028324615 -0.09047899 -0.075351305 0.06627321 -0.27249724 -0.019181455 -0.07859764
0.011838086 -0.0076387217 0.004819615 -0.1082497 -0.10334377 -0.14360657 -0.04929792 -0.0060013146
0.027777363 -0.033090733 -0.04966157 0.07125183 -0.10731016 -0.029190598 0.08032591 0.06377837
-0.004250144 -0.03061533 0.15601264 0.027819479 -0.11604474 -0.03784387 -0.11715907 0.012389181
0.032706954 0.051184855 -0.08286176 -0.10627594 -0.08752492 -0.045990035 -0.03298685 0.06764479
-0.022894284 -0.010790612 0.03794201 0.0565573 -0.058486167 0.015630534 -0.032533832 0.11349121
0.081615664 0.017434482 -0.116709 0.009653633 0.0562279 -0.009865037 -0.020773603 -0.047699455
-0.02336651 0.11994678 -0.020358823 -0.008738042 0.0717295 -0.06884014 0.077743135 0.12778692
-0.048999984 0.012020505 -0.089745484 -0.09647574 -0.04861179 0.1198987 0.041260384 -0.1341149
-0.009175371 -0.09300559 -0.024331396 0.12650555 0.062266093 0.066487454 0.02620939 0.0767144
0.024182752 -0.1308141 0.0259492 -0.10940734 0.076119676 -0.059457213 0.09321528 -0.111772016
-0.057414416 0.059384223 -0.12765008 0.064513415 -0.012744792 0.03652101 0.0692163 -0.04270435
0.05653841 -0.01616628 0.0193916 0.09934197 -0.04933113 0.041309778 -0.012691204 0.057952642
0.117310345 0.029209489 0.14511155 -0.079358466 0.05456743 0.05315879 -0.042558294 0.0062314114
-0.084588446 -0.0005999998 -0.029052408 -0.08571724 -0.035604574 -0.12149494 -0.19548357 0.023365455
-0.022587301 -0.005117682 -0.058245957 0.065967314 -0.100472555 0.0026044166 0.09036207 0.041261908
-0.006727783 0.03766071 0.05178451 -0.010710566 0.10453266 -0.0011966078 0.06916649 0.07558451
0.021460457 -0.04779454 0.07486514 0.025536634 0.10376257 0.0942154 0.08228957 0.057963975
-0.14988734 0.03571494 0.11577806 -0.042554375 0.010759051 0.016779806 0.03908308 0.05145168
-0.026758894 0.077828966 -0.111876704 0.05699923 -0.058476266 -0.08182229 -0.1406832 0.097577035
0.09694721 -0.059295557 0.05730018 -0.15148935 -0.0062906295 -0.098665595 -0.022662202 -0.06417491
-0.08987329 0.042959213 0.10008597 0.10842371 0.002809743 0.07513832 0.022336598 -0.086081766
-0.052894615 -0.052798364 -0.020551184 0.050518427 -0.07245268 -0.033177357 -0.019221727 -0.038844544
-0.10714681 -0.012429117 -0.0062885056 -0.052881252 -0.039249916 0.008600334 -0.06558751 -0.1074228
-0.06273865 0.022053754 -0.06486763 -0.05676916 -0.07732328 -0.08748076 -0.0739651 -0.008771554
00000000: 6ce4 02bd 1fe1 283d 11e1 12be 8c35 99bd
00000010: f17a f43b bad7 a3bd c649 84bd 2dfe 9fbd
00000020: 0822 723b cdae dfbc 93bf 55bd 6c21 8dbd
00000030: bd1e aabd 57d4 b9bd 6e86 95bd 779e 013a
00000040: aa90 f53c 0c77 2abc 6652 25bb 9567 003e
00000050: 9ef2 11bd 04b6 243c a052 66bc 242b 283d
00000060: 4d32 773d 32e3 3a3d 58c4 203c 04f9 983c
00000070: 77dc 723d 420d abbd 9a56 4cbd 3066 0bbd
00000080: 29f8 9d3c 076e fabd 57f9 793e 7221 003e
00000090: cbee b53d 876b 263e 1c39 023d 46ca 38bd
000000a0: 48ab e9bd eb88 4e3c 5370 02be 037c 08be
000000b0: a4a8 13be 89fa 43bd 5c15 3bbd 62af 5f3d
000000c0: 6221 38bc 445a d43c ea7b c8bd 74d8 8e3d
000000d0: 5874 74be 2f16 9ebd 942b 86bd 7f70 bdbc
000000e0: aef3 4fbe 0609 e83c 0c4d b9bd c951 9abd
000000f0: 40ba 873d c284 8bbe 6d22 9dbc cdf7 a0bd
00000100: 88f4 413c 3e4e fabb dced 9d3b 05b2 ddbd
00000110: e6a5 d3bd 9a0d 13be 9eec 49bd ada6 c4bb
00000120: 5a8d e33c 268a 07bd ee69 4bbd 7bec 913d
00000130: 6ec5 dbbd 1f21 efbc e981 a43d 3c9e 823d
00000140: cb44 8bbb 00cd fabc c7c1 1f3e ade5 e33c
00000150: dda8 edbd 2d02 1bbd 18f1 efbd fefb 4a3c
00000160: baf7 053d 36a7 513d 6db3 a9bd 33a7 d9bd
00000170: 4440 b3bd 0c60 3cbd 381d 07bd 5a89 8a3d
00000180: cb8c bbbc 1bcb 30bc 1569 1b3d a1a8 673d
00000190: 318f 6fbd 9b0b 803c 3242 05bd 146e e83d
000001a0: 1d26 a73d c2d2 8e3c 2105 efbd 462a 1e3c
000001b0: 3a4f 663d f7a0 21bc 672d aabc 8160 43bd
000001c0: 206b bfbc a8a6 f53d 8cc7 a6bc 012a 0fbc
000001d0: ebe6 923d 0ffc 8cbd cb37 9f3d 93da 023e
000001e0: 35b4 48bd a7f1 443c 7bcc b7bd 1395 c5bd
000001f0: 281d 47bd 738d f53d a600 293d 6b55 09be
00000200: 4c54 16bc b779 bebd a352 c7bc ac8a 013e
00000210: bb0a 7f3d 932a 883d 13b5 d63c 701c 9d3d
00000220: e81a c63c 22f4 05be 6b93 d43c f510 e0bd
00000230: a2e4 9b3d 6889 73bd a7e7 be3d bae8 e4bd
00000240: 612b 6bbd df3c 733d b4b6 02be 9c1f 843d
00000250: 88cf 50bc 0e97 153d 47c1 8d3d c2ea 2ebd
00000260: d294 673d 256f 84bc 22db 9e3c ce73 cb3d
00000270: 700f 4abd 7134 293d c5ee 4fbc c05f 6d3d
00000280: 6840 f03d bd48 ef3c 1f98 143e b186 a2bd
00000290: 1982 5f3d 08bd 593d 9b51 2ebd de30 cc3b
000002a0: b53c adbd 4e49 1dba 51ff edbc 858c afbd
000002b0: 1ad6 11bd 57d2 f8bd d82c 48be e968 bf3c
000002c0: 0109 b9bc 3ab2 a7bb 5093 6ebd df19 873d
000002d0: 8ec4 cdbd dcae 2a3b c00f b93d 3f02 293d
000002e0: bc74 dcbb 1e42 1a3d ff1b 543d 5f7b 2fbc
000002f0: 3815 d63d 7fd7 9cba 29a7 8d3d 0dcc 9a3d
00000300: d7cd af3c 35c4 43bd e552 993d 3432 d13c
00000310: 7881 d43d 01f4 c03d 6f87 a83d a26b 6d3d
00000320: 117c 19be d449 123d 0c1d ed3d 7f4d 2ebd
00000330: bb46 303c ce75 893c 9415 203d ffbe 523d
00000340: 7835 dbbc cb64 9f3d 9d1f e5bd 0678 693d
00000350: cf84 6fbd 7292 a7bd 420f 10be 78d6 c73d
00000360: 428c c63d e6df 72bd 98b3 6a3d 0620 1bbe
00000370: a021 cebb 3011 cabd 15a6 b9bc 236e 83bd
00000380: 7d0f b8bd 00f6 2f3d dff9 cc3d 400d de3d
00000390: aa23 383b 1fe2 993d 3efb b63c a34b b0bd
000003a0: 06a8 58bd 1943 58bd f55a a8bc 69ec 4e3d
000003b0: 1262 94bd fbe4 07bd e276 9dbc 751b 1fbd
000003c0: c96f dbbd 7fa3 4bbc cf0f cebb 039a 58bd
000003d0: 85c4 20bd 6ae8 0c3c bf52 86bd 7c00 dcbd
000003e0: 1f7d 80bd 13aa b43c 52d9 84bd c786 68bd
000003f0: ab5b 9ebd 1d29 b3bd 047b 97bd 90b6 0fbc

VAE.encoder_mu.layers.0.linear1.bias f4 [4]
0.014115939 -0.020992521 -0.03656203 0.08413258
00000000: 8a46 673c 82f8 abbc 11c2 15bd b44d ac3d

VAE.encoder_mu.layers.0.norm1.weight f4 [4]
1.0929133 1.1040893 1.0380946 1.0843074
00000000: 95e4 8b3f cc52 8d3f 49e0 843f 96ca 8a3f

VAE.encoder_mu.layers.0.norm1.bias f4 [4]
-0.09283518 0.014348995 -0.04433055 0.07659248
00000000: 5f20 bebd 0c18 6b3c f393 35bd 85dc 9c3d

VAE.encoder_mu.layers.1.attention.W_q.weight f4 [4, 4]
-0.3165364 -0.33461338 0.23789148 -0.44469807 0.29649752 -0.4060026 -0.4389122 -0.39003187
0.18166657 0.011037725 -0.058145486 0.31732872 0.21052763 -0.29127428 -0.27743322 -0.18024988
00000000: 0f11 a2be 7252 abbe d399 733e 77af e3be
00000010: 86ce 973e 93df cfbe 1ab9 e0be 42b2 c7be
00000020: cd06 3a3e 93d7 343c f629 6ebd e978 a23e
00000030: 8e94 573e e721 95be ba0b 8ebe 6d93 38be

VAE.encoder_mu.layers.1.attention.W_q.bias f4 [4]
0.028821105 -0.054181755 0.006337169 -0.06901793
00000000: 3d1a ec3c b0ed 5dbd 07a8 cf3b 4659 8dbd

VAE.encoder_mu.layers.1.attention.W_k.weight f4 [4, 4]
0.019117432 0.17271805 0.5046478 -0.2636778 -0.13201465 -0.06677655 -0.2949725 -0.47895607
-0.004071661 0.14460216 -0.41845733 0.27782762 0.3830416 0.0768195 0.18670253 0.32142198
00000000: 299c 9c3c 00dd 303e 9930 013f c700 87be
00000010: d92e 07be 25c2 88bd a306 97be bb39 f5be
00000020: 916b 85bb 9712 143e 0a40 d6be 6c3f 8e3e
00000030: 071e c43e 8b53 9d3d f32e 3f3e 6c91 a43e

VAE.encoder_mu.layers.1.attention.W_k.bias f4 [4]
1.3625874e-05 0.0001654122 1.8397192e-05 5.8014306e-05
00000000: af9a 6437 8072 2d39 ab53 9a37 6354 7338

VAE.encoder_mu.layers.1.attention.W_v.weight f4 [4, 4]
0.27307573 0.46631262 0.16330007 0.016426723 0.30644736 0.1732112 0.060270406 -0.031937853
-0.2804188 -0.035024654 -0.38122478 -0.3909809 0.38313085 0.08896547 -0.27216 -0.39538062
00000000: 95d0 8b3e 87c0 ee3e 2238 273e 5691 863c
00000010: abe6 9c3e 475e 313e 1ade 763d 44d1 02bd
00000020: 0e93 8fbe 0376 0fbd e52f c3be a62e c8be
00000030: ba29 c43e 8733 b63d 8e58 8bbe 546f cabe

VAE.encoder_mu.layers.1.attention.W_v.bias f4 [4]
-0.016524788 0.0009306138 0.030038618 -0.00382396
00000000: fe5e 87bc 6ff4 733a 8c13 f63c 679b 7abb

VAE.encoder_mu.layers.1.linear0.weight f4 [128, 4]
0.3815001 0.22191381 -0.26338255 0.03832611 0.40564805 0.2461799 -0.24746239 0.23721533
-0.4215304 0.10734362 0.47309348 0.36212733 0.03919552 0.5669311 -0.17052568 -0.5272721
0.23157977 -0.5028578 0.5096386 0.16829719 0.11200321 0.24955195 0.48094243 0.3554546
-0.34559464 0.18304901 0.31134716 -0.21103512 -0.02687495 -0.29002917 0.25961226 0.06611578
-0.32146242 0.35275355 -0.17654143 -0.56398517 0.50044465 -0.21810025 -0.18957438 0.31663576
-0.30396405 0.37874413 -0.03643239 -0.03834236 0.44254014 0.4713647 0.4033144 -0.50021505
-0.41837278 0.31008974 -0.46341825 -0.1434732 0.17744952 -0.29457855 -0.28065646 -0.08128722
0.06401175 0.01289022 -0.033628464 0.09259927 0.3040801 0.17175496 -0.20247692 0.046472974
0.40700516 0.03720324 -0.20184982 0.12245325 0.18845862 -0.03960742 0.51121795 0.32221392
0.28036407 0.16059671 -0.38362402 0.42285225 0.47015288 0.33923107 -0.36114976 -0.10427396
0.1177404 0.4495952 -0.26670113 0.5317892 -0.07665511 0.02104254 0.37395206 -0.12376634
0.5562686 -0.31279132 0.49272287 0.43231955 0.11991584 -0.15752901 -0.44016695 0.16145536
-0.34853503 -0.47920683 -0.43407828 0.53858876 -0.17385396 -0.31382722 0.17733759 -0.17644982
0.44004968 0.12874883 -0.05699505 0.37930825 -0.38620323 -0.4617312 -0.032937065 0.4616304
0.13947405 -0.30412948 0.47646344 0.32545006 -0.18625312 -0.47469202 0.4500015 -0.42317766
-0.34356022 -0.2937363 -0.37285593 -0.40208042 -0.43619126 0.055037927 0.10024108 -0.25402594
0.28624424 -0.2931921 0.25084886 0.0054956223 0.33930576 0.53920704 0.13927245 -0.1364978
0.16773869 -0.53507423 -0.26903903 -0.30977783 0.06660303 -0.2615337 -0.18194017 0.10653368
0.42723557 -0.3879435 -0.20790043 -0.3126273 0.19440542 0.45252693 0.30741322 -0.2784664
0.044668287 -0.4496995 0.14746329 -0.0032928544 -0.21570326 -0.06185845 -0.4422645 -0.027635612
0.21565321 -0.31843552 0.29942554 0.34337595 0.19751358 0.51797855 0.35960674 0.38387206
-0.22346129 -0.4012537 0.5216687 -0.021500584 0.24123806 0.14370228 -0.08676233 -0.25855672
-0.46785378 0.08946549 0.17914675 -0.40610772 0.35780776 0.24868871 -0.523725 -0.39203987
-0.50941825 0.18381757 0.2932514 -0.10017587 0.30564627 -0.276471 0.091534644 0.35825053
0.440911 -0.23340662 0.18127912 -0.28457224 0.15716107 0.2079544 -0.13500623 -0.10428344
-0.3199878 -0.2909271 0.41289452 -0.32349563 -0.06482985 0.06018677 -0.44681817 0.43464792
-0.04330607 -0.07156125 0.55044943 0.21196109 0.044096768 0.27133176 -0.51053476 0.35349157
0.04641127 -0.2737423 -0.5357764 -0.5347899 -0.37164155 -0.08238621 0.25903562 0.05341233
-0.18977565 0.517596 0.05015901 0.21132761 0.096710116 0.55675006 -0.03301748 -0.45306745
-0.25330886 -0.42640886 0.44603717 -0.31503937 0.40229392 -0.15549873 -0.07120836 0.2248546
0.21448879 0.4791811 0.085546724 -0.09757472 0.43565252 -0.017512096 -0.021218516 0.1775912
-0.30677357 -0.5632737 -0.10505421 0.037950575 0.18226622 0.5364338 -0.33831984 -0.24853182
00000000: fb53 c33e 603d 633e 14da 86be d7fb 1c3d
00000010: 1ab1 cf3e 9516 7c3e c866 7dbe 93e8 723e
00000020: d5d2 d7be f9d6 db3d 4f39 f23e c168 b93e
00000030: 7b8b 203d 6622 113f 499e 2ebe 4efb 06bf
00000040: 3f23 6d3e 4abb 00bf ad77 023f 1956 2c3e
00000050: f061 e53d 8c8a 7f3e 163e f63e 25fe b53e
00000060: c8f1 b0be 3371 3b3e e568 9f3e 9719 58be
00000070: db28 dcbc b47e 94be e6eb 843e b667 873d
00000080: b996 a4be 1d9c b43e 47c7 34be 5561 10bf
00000090: 241d 003f ac55 5fbe c91f 42be 151e a23e
000000a0: 2da1 9bbe c0ea c13e 213a 15bd e10c 1dbd
000000b0: 9f94 e23e b756 f13e 3a7f ce3e 180e 00bf
000000c0: f534 d6be 15c4 9e3e 2845 edbe a3ea 12be
000000d0: 54b5 353e 00d3 96be 34b2 8fbe ea79 a6bd
000000e0: 9818 833d 8031 533c 00be 09bd b0a4 bd3d
000000f0: 63b0 9b3e 88e0 2f3e 1c56 4fbe 725a 3e3d
00000100: fb62 d03e 6d62 183d b8b1 4ebe c5c8 fa3d
00000110: 4cfb 403e 643b 22bd 2edf 023f 39f9 a43e
00000120: e18b 8f3e 7773 243e 5e6a c4be 1780 d83e
00000130: e1b7 f03e b2af ad3e 9fe8 b8be 968d d5bd
00000140: e121 f13d 5831 e63e 0d8d 88be 5623 083f
00000150: 5bfd 9cbd 6861 ac3c a576 bf3e 3579 fdbd
00000160: 9e67 0e3f 2f26 a0be 2c46 fc3e fd58 dd3e
00000170: 7096 f53d 494f 21be 905d e1be 8e54 253e
00000180: 2f73 b2be 995a f5be 823f debe f4e0 093f
00000190: c606 32be f6ad a0be fc97 353e 43af 34be
000001a0: 314e e13e bcd6 033e a473 69bd b134 c23e
000001b0: 6ebc c5be 0868 ecbe 04e9 06bd d25a ec3e
000001c0: 49d2 0e3e dcb6 9bbe 04f3 f33e 64a1 a63e
000001d0: 23b9 3ebe d50a f3be 9966 e63e beaa d8be
000001e0: 20e7 afbe 9b64 96be f9e6 bebe 7cdd cdbe
000001f0: 7654 dfbe 736f 613d 324b cd3d b00f 82be
00000200: 9b8e 923e 461d 96be 436f 803e 9f14 b43b
00000210: 7cb9 ad3e 7909 0a3f 709d 0e3e 14c6 0bbe
00000220: b1c3 2b3e a0fa 08bf 7cbf 89be 339b 9ebe
00000230: 2b67 883d bfe7 85be 864e 3abe 542e da3d
00000240: 9fbe da3e 88a0 c6be dae3 54be af10 a0be
00000250: 3712 473e 9cb1 e73e 4465 9d3e 2693 8ebe
00000260: 18f6 363d 033f e6be 9e00 173e eecc 57bb
00000270: 51e1 5cbe 495f 7dbd 7e70 e2be 1464 e2bc
00000280: 32d4 5c3e fb09 a3be 4e4e 993e f9ce af3e
00000290: 0041 4a3e 3e9a 043f 601e b83e e18a c43e
000002a0: 09d3 64be 2071 cdbe 148c 053f fe21 b0bc
000002b0: 1c07 773e b126 133e 73b0 b1bd 8c61 84be
000002c0: 888a efbe af39 b73d 3f72 373e 5aed cfbe
000002d0: 9432 b73e 41a8 7e3e d712 06bf 73b9 c8be
000002e0: 3c69 02bf ac3a 3c3e 0c25 963e 0229 cdbd
000002f0: ab7d 9c3e 9b8d 8dbe 8476 bb3d 9d6c b73e
00000300: 16bf e13e 2502 6fbe 3ca1 393e 74b3 91be
00000310: d5ee 203e 00f2 543e 133f 0abe 8e92 d5bd
00000320: 71d5 a3be 66f4 94be e966 d33e 38a1 a5be
00000330: 83c5 84bd 6786 763d 5ac5 e4be 2c8a de3e
00000340: b561 31bd b48e 92bd 41ea 0c3f 540c 593e
00000350: d09e 343d ffeb 8a3e 68b2 02bf d9fc b43e
00000360: be19 3e3d f327 8cbe a428 09bf fee7 08bf
00000370: cd47 bebe 1aba a8bd 51a0 843e e3c6 5a3d
00000380: 8c54 42be 2c81 043f 8973 4d3d 4466 583e
00000390: f40f c63d 2c87 0e3f 563d 07bd 75f8 e7be
000003a0: b3b1 81be 4352 dabe fc5e e43e d74c a1be
000003b0: 78f9 cd3e 0f3b 1fbe b0d5 91bd 4940 663e
000003c0: f3a2 5b3e 3a57 f53e 1f33 af3d 41d5 c7bd
000003d0: d90d df3e 8775 8fbc 74d2 adbc 78da 353e
000003e0: 6d11 9dbe b532 10bf a926 d7bd 1072 1b3d
000003f0: ffa3 3a3e ba53 093f 4238 adbe 207f 7ebe

VAE.encoder_mu.layers.1.linear0.bias f4 [128]
0.40980253 0.37988025 -0.1630425 -0.12955703 -0.027645187 0.52562904 -0.3227324 -0.23251966
-0.41941714 -0.6373253 0.10323438 0.33348426 0.21491036 0.45697218 -0.25666738 -0.08782349
0.15631185 0.3367538 -0.33502144 0.4295693 0.21076305 0.37450993 -0.32456523 0.25920773
-0.006966479 0.5428982 0.2591128 0.2950586 0.02618642 0.4517826 0.336603 0.2665984
0.18269467 0.077020496 0.15142947 0.17996855 -0.104840435 0.41840217 0.3661523 -0.21563248
-0.28659794 0.023055512 -0.28377378 -0.11145169 -0.14726824 0.38992977 -0.18188849 0.52624315
0.38257992 0.4034635 -0.3742445 -0.48122767 -0.15536651 0.26815596 -0.07252837 0.010219225
-0.16992564 -0.23511186 0.27456552 0.28379682 -0.09578931 -0.47323862 -0.3107623 -0.21490037
0.01284732 -0.13102062 -0.034104053 0.105372906 -0.41008225 0.27487314 0.2919669 -0.17449152
0.15788265 0.17503472 0.51109374 -0.24090528 -0.21079367 0.20062438 -0.516096 0.289779
0.51426697 0.07475083 -0.34383464 0.113965556 -0.2927537 -0.11621797 0.17162725 0.3988287
0.42433122 0.076158956 0.34249738 0.030387517 -0.10229425 0.063725255 0.19618206 -0.31615317
0.31586632 -0.1183953 0.43255237 0.402758 0.32343897 0.3376792 0.16654016 -0.09976435
0.1418559 0.3301464 0.41340566 0.046475146 -0.2751193 -0.019293481 0.060243 0.22418654
0.063415766 -0.10658463 -0.14754431 0.15508673 -0.22435302 0.29494303 0.21436208 0.46346042
0.30141592 0.23192464 -0.23436235 0.11847278 0.48425823 0.24361868 -0.3158632 -0.25419763
00000000: a3d1 d13e aa7f c23e 9df4 26be 99aa 04be
00000010: 2978 e2bc a08f 063f 2e3d a5be a219 6ebe
00000020: d8bd d6be c027 23bf 8c6c d33d 73be aa3e
00000030: 7611 5c3e 42f8 e93e e869 83be cddc b3bd
00000040: 3710 203e fe6a ac3e ee87 abbe 82f0 db3e
00000050: 45d2 573e c4bf bf3e 6a2d a6be e0b6 843e
00000060: 1047 e4bb 60fb 0a3f 6faa 843e ec11 973e
00000070: e784 d63c 0d50 e73e 3a57 ac3e 967f 883e
00000080: 5014 3b3e ecbc 9d3d 5410 1b3e ad49 383e
00000090: 95b6 d6bd cf38 d63e 5078 bb3e c3ce 5cbe
000000a0: f7bc 92be eade bc3c cc4a 91be c940 e4bd
000000b0: 7ccd 16be e0a4 c73e fa40 3abe dfb7 063f
000000c0: 84e1 c33e c592 ce3e fa9c bfbe 7963 f6be
000000d0: 6618 1fbe bd4b 893e c189 94bd 896e 273c
000000e0: fd00 2ebe 2ac1 70be da93 8c3e d14d 913e
000000f0: 302d c4bd 554c f2be 3c1c 9fbe d80e 5cbe
00000100: 917d 523c 452a 06be b1b0 0bbd c0cd d73d
00000110: 4df6 d1be 2cbc 8c3e af7c 953e e8ad 32be
00000120: fdab 213e 4d3c 333e 0ad7 023f e0af 76be
00000130: 4cda 57be 7a70 4d3e de1e 04bf ea5d 943e
00000140: 00a7 033f f716 993d 180b b0be c666 e93d
00000150: d0e3 95be b003 eebd 0ebf 2f3e 4633 cc3e
00000160: f141 d93e 3af9 9b3d d15b af3e 3eef f83c
00000170: a67f d1bd 6382 823d f3e3 483e d4de a1be
00000180: 3bb9 a13e 3c79 f2bd 8177 dd3e 4c36 ce3e
00000190: cb99 a53e 4ae4 ac3e 8189 2a3e 4051 ccbd
000001a0: ac42 113e f308 a93e e8a9 d33e b95c 3e3d
000001b0: 70dc 8cbe 5d0d 9ebc 5dc1 763d 2891 653e
000001c0: 20e0 813d 0b49 dabd db15 17be 0ecf 1e3e
000001d0: ccbc 65be c602 973e bc81 5b3e af4a ed3e
000001e0: 3053 9a3e a77d 6d3e affc 6fbe dba1 f23d
000001f0: b2f0 f73e 2d77 793e d2b8 a1be 3126 82be

VAE.encoder_mu.layers.1.linear1.weight f4 [4, 128]
0.060727753 0.029267488 -0.016738612 0.07084622 0.08772975 0.032149762 -0.12388682 0.11992875
-0.030666972 0.5037027 0.055499267 -0.12643366 0.12910493 -0.017907053 -0.05397162 -0.09870379
-0.023932582 2.5813524e-05 -0.27116668 0.048145656 0.002468574 0.0048776506 0.020723999 0.043755382
-0.093421526 0.02370593 0.0072937026 -0.05146506 0.09864361 0.07501964 -0.09956813 0.0021728138
0.0049317973 -0.024247115 0.10048964 0.034416422 0.093175165 -0.088379614 0.0146346595 0.044410028
0.012457958 0.19927259 -0.039656144 -0.1460029 0.047183838 0.0317089 0.009349817 0.02151885
0.087613545 0.0031889803 -0.0847047 0.00020116016 0.024991369 0.084840536 -0.073740035 -0.06379679
0.3170467 -0.097043745 0.065908484 0.057062007 -0.03021273 0.1617452 -0.20782456 0.027018772
-0.022303184 -0.04363042 -0.08113666 0.14053124 -0.02522966 0.08813411 -0.06572939 0.12680678
0.07468013 0.08103003 0.017486364 0.040861405 0.24106239 -0.08968332 -0.03037528 0.087800875
0.011154175 0.13558726 -0.18648885 -0.0044653798 -0.019295515 -0.07278633 -0.025971046 -0.059582114
0.05693682 0.0897464 0.10927167 -0.055122554 -0.07931164 -0.06525547 -0.014536523 0.002811007
-0.0021900644 -0.040149134 0.0912994 0.041420203 -0.05141525 -0.025946949 0.09628582 0.10457684
0.08733553 0.05510165 0.010879397 -0.05097048 0.027598398 -0.108493336 -0.06885353 -0.030975802
0.2223792 -0.07409232 0.05497047 0.027901182 -0.042913686 -0.046503372 0.10321593 0.017125422
0.09479903 0.011279017 -0.10668526 -0.053891867 -0.01249565 0.027546626 -0.04162721 0.059876416
0.02885862 0.10960355 -0.011167791 0.044519853 0.0501908 -0.064413555 -0.031890694 0.08548428
-0.030091712 0.29294744 -0.036956124 0.05422746 0.061358087 0.005731395 0.033727616 0.10404803
0.055866737 -0.03721061 0.021573002 0.06596611 -0.05097089 -0.029310606 0.09667662 0.014881857
-0.07891167 -0.09267289 -0.00060457655 -0.10543719 -0.0072260294 -0.010444521 -0.021654975 0.049781464
0.07556467 0.0027295973 -0.007347384 0.026063653 0.11500201 0.07519026 -0.09000848 -0.025194138
0.03886482 0.091711685 0.011377569 -0.0029634933 0.060115933 0.118671946 -0.036464203 -0.08283375
0.10464633 0.08250479 -0.09078321 0.080226324 0.011532433 0.0041926373 0.1455571 0.041868024
0.04725415 0.09274913 0.057434943 -0.027367545 0.005251694 0.048908144 -0.10756149 0.048498437
0.07812069 0.00019938161 0.029599145 0.0857085 -0.058719598 0.027054647 -0.09646243 -0.07711678
-0.07435107 -0.061054815 -0.011055487 0.04333385 0.0022633378 -0.10762283 -0.07148252 0.029873898
0.046829987 -0.0122840535 -0.008118618 0.08111362 0.042795397 -0.07669143 0.04315328 0.096039176
-0.105323225 0.114929564 -0.07511446 0.07612684 -0.05628436 -0.06389695 0.037076607 0.092690155
0.06990279 -0.07319791 0.0062026614 0.110326685 -0.020288559 0.062348507 0.12649508 -0.0666743
0.08926382 0.05423426 -0.045348827 0.024913078 0.009044442 0.008132085 -0.041436408 -0.03013349
0.044985235 0.050545484 0.062341455 0.10055876 -0.17074704 0.028108805 0.055152964 -0.058854684
0.04709175 0.10921362 0.05419353 -0.090221494 0.006496234 -0.0027874832 9.859092e-05 -0.12429594
00000000: aabd 783d 5fc2 ef3c 6a1f 89bc d317 913d
00000010: a8ab b33d 78af 033d 60b8 fdbd 349d f53d
00000020: 4d39 fbbc a9f2 003f 3353 633d d377 01be
00000030: 1534 043e d0b1 92bc 5811 5dbd 3625 cabd
00000040: 430e c4bc 1f8a d837 5cd6 8abe 6134 453d
00000050: cdc7 213b b3d4 9f3b 60c5 a93c d838 333d
00000060: c953 bfbd f032 c23c 0300 ef3b 07cd 52bd
00000070: a905 ca3d e6a3 993d 60ea cbbd c465 0e3b
00000080: ea9a a13b e3a1 c6bc 83cd cd3d 3cf8 0c3d
00000090: 9fd2 be3d 5f00 b5bd 36c6 6f3c 4ae7 353d
000000a0: 771c 4c3c 1d0e 4c3e 7b6e 22bd c981 15be
000000b0: d743 413d 31e1 013d fa2f 193c 4d48 b03c
000000c0: bb6e b33d 36fe 503b a879 adbd 85ee 5239
000000d0: b3ba cc3c e0c0 ad3d 0405 97bd e4a7 82bd
000000e0: f253 a23e dfbe c6bd 07fb 863d dab9 693d
000000f0: b080 f7bc 89a0 253e f6cf 54be 7956 dd3c
00000100: 2bb5 b6bc d0b5 32bd fa2a a6bd 6ce7 0f3e
00000110: 6fae cebc a87f b43d 219d 86bd a3d9 013e
00000120: e5f1 983d 13f3 a53d 903f 8f3c 4a5e 273d
00000130: 0fd9 763e e3ab b7bd 94d5 f8bc f2d0 b33d
00000140: 00c0 363c 63d7 0a3e eff6 3ebe 5252 92bb
00000150: a111 9ebc 0011 95bd 3bc1 d4bc 600c 74bd
00000160: 9536 693d f6cc b73d d3c9 df3d 30c8 61bd
00000170: 246e a2bd a9a4 85bd 992a 6ebc df38 383b
00000180: 2f87 0fbb 6b73 24bd 2efb ba3d 3ba8 293d
00000190: cc98 52bd b28e d4bc 8031 c53d 622c d63d
000001a0: f8dc b23d 45b2 613d 803f 323c 6cc6 50bd
000001b0: 0916 e23c c131 debd 1403 8dbd f7c0 fdbc
000001c0: 5fb7 633e b7bd 97bd b728 613d 0591 e43c
000001d0: 43c6 2fbd 527a 3ebd e062 d33d 9d4a 8c3c
000001e0: fe25 c23d a0cb 383c cd7d dabd b8bd 5cbd
000001f0: 8eba 4cbc 76a9 e13c 4b81 2abd f940 753d
00000200: ea68 ec3c d377 e03d 1cf9 36bc 735a 363d
00000210: de94 4d3d 41eb 83bd d19f 02bd 6212 af3d
00000220: e582 f6bc 35fd 953e 4e5f 17bd 9d1d 5e3d
00000230: 9e52 7b3d 6dce bb3b f825 0a3d 2217 d53d
00000240: 85d4 643d 276a 18bd ddb9 b03c 3d19 873d
00000250: dac6 50bd cc1c f0bc 64fe c53d 08d3 733c
00000260: 719c a1bd 49cb bdbd 727c 1eba 74ef d7bd
00000270: 54c8 ecbb 7f1f 2bbc c665 b1bc a6e7 4b3d
00000280: a6c1 9a3d 0be3 323b 53c2 f0bb 7183 d53c
00000290: 2c86 eb3d 5afd 993d 5e56 b8bd f063 cebc
000002a0: b830 1f3d 56d3 bb3d fc68 3a3c 2b37 42bb
000002b0: 203c 763d 470a f33d 7d5b 15bd bea4 a9bd
000002c0: d150 d63d 45f8 a83d 8cec b9bd b34d a43d
000002d0: 88f2 3c3c 6462 893b ec0c 153e ce7d 2b3d
000002e0: 918d 413d 42f3 bd3d e740 6b3d e731 e0bc
000002f0: 6716 ac3b e853 483d 3349 dcbd 4ca6 463d
00000300: befd 9f3d 1811 5139 e879 f23c f087 af3d
00000310: f683 70bd b5a1 dd3c 188e c5bd 67ef 9dbd
00000320: 6045 98bd 9d14 7abd 1322 35bc d67e 313d
00000330: 8254 143b 5c69 dcbd 6d65 92bd 1bba f43c
00000340: cdd0 3f3d 0e43 49bc f403 05bc e61e a63d
00000350: 3a4a 2f3d 6510 9dbd 7ec1 303d 30b0 c43d
00000360: b4b3 d7bd 3160 eb3d 9cd5 99bd 64e8 9b3d
00000370: 6e8a 66bd 67dc 82bd a4dd 173d 56d4 bd3d
00000380: 3229 8f3d c9e8 95bd b23f cb3b f5f2 e13d
00000390: 3134 a6bc 2661 7f3d ed87 013e 898c 88bd
000003a0: f3cf b63d be24 5e3d b1bf 39bd 8316 cc3c
000003b0: 242f 143c 703c 053c 39b9 29bd 82da f6bc
000003c0: 7042 383d c808 4f3d c159 7f3d c0f1 cd3d
000003d0: 50d8 2ebe 7044 e63c 13e8 613d 9c11 71bd
000003e0: 47e3 403d 64ab df3d 09fa 5d3d 0cc6 b8bd
000003f0: 5cde d43b 35ae 36bb 99c2 ce38 df8e febd

VAE.encoder_mu.layers.1.linear1.bias f4 [4]
0.007263583 0.048662324 -0.13784519 0.10500994
00000000: 5a03 ee3b 2552 473d 4a27 0dbe 740f d73d

VAE.encoder_mu.layers.1.norm1.weight f4 [4]
1.059033 1.1339389 1.0458583 1.042577
00000000: 658e 873f e924 913f afde 853f 2a73 853f

VAE.encoder_mu.layers.1.norm1.bias f4 [4]
0.03887819 0.069831856 -0.123584434 -0.019906305
00000000: bd3e 1f3d 0104 8f3d d619 fdbd 8c12 a3bc

VAE.encoder_mu.layers.1.norm0.weight f4 [4]
0.86947364 0.99604374 0.9439351 1.0369419
00000000: d395 5e3f b9fc 7e3f bba5 713f 83ba 843f

VAE.encoder_mu.layers.1.norm0.bias f4 [4]
-0.026207654 -0.018146446 -0.010574908 -0.015713587
00000000: 6fb1 d6bc dba7 94bc 6142 2dbc c8b9 80bc

VAE.encoder_mu.last_normalization.weight f4 [4]
1.0 1.0 1.0 1.0
00000000: 0000 803f 0000 803f 0000 803f 0000 803f

VAE.encoder_mu.last_normalization.bias f4 [4]
0.0 0.0 0.0 0.0
00000000: 0000 0000 0000 0000 0000 0000 0000 0000

VAE.encoder_mu.head.weight f4 [4, 4]
0.19175488 -0.32795358 0.37904274 0.49919343 -0.19265759 0.10139042 0.4358583 0.38272542
0.10341668 0.48610157 0.39626372 0.19970751 0.060894072 0.43653208 0.40295058 0.19163811
00000000: 645b 443e 88e9 a7be e411 c23e 4896 ff3e
00000010: 0848 45be c8a5 cf3d d228 df3e 96f4 c33e
00000020: 20cc d33d 4ee2 f83e 14e3 ca3e 2080 4c3e
00000030: 106c 793d 2281 df3e 8a4f ce3e c83c 443e

VAE.encoder_mu.head.bias f4 [4]
-0.041982055 -0.36360174 0.37114137 0.35829294
00000000: 60f5 2bbd 022a babe 3e06 be3e 2c72 b73e

VAE.encoder_logvar.layers.0.attention.W_q.weight f4 [4, 4]
-0.04925398 0.21329303 -0.4002129 0.03831808 -0.21620925 -0.44453716 -0.16083564 -0.27092496
0.37898478 -0.14748259 0.09019528 0.37713975 0.42161915 0.0414043 -0.50683206 -0.1311078
00000000: 8bbe 49bd 7d69 5a3e b5e8 ccbe 6bf3 1c3d
00000010: f565 5dbe 609a e3be 19b2 24be adb6 8abe
00000020: 4b0a c23e ad05 17be 4eb8 b83d 7618 c13e
00000030: 77de d73e 8e97 293d bfbf 01bf 2041 06be

VAE.encoder_logvar.layers.0.attention.W_q.bias f4 [4]
0.0017785261 0.0063286573 -0.032701656 -0.043442044
00000000: 6f1d e93a a060 cf3b 2cf2 05bd 49f0 31bd

VAE.encoder_logvar.layers.0.attention.W_k.weight f4 [4, 4]
0.13367988 0.16674699 -0.3963857 0.024904232 0.15264559 0.09496893 -0.23341334 -0.09166109
0.3995703 0.31014252 -0.26933655 0.32972267 0.11850986 -0.14872876 0.36313307 -0.18665025
00000000: 61e3 083e b9bf 2a3e 11f3 cabe f603 cc3c
00000010: 204f 1c3e 127f c23d e803 6fbe cfb8 bbbd
00000020: 7a94 cc3e 00cb 9e3e 7be6 89be 69d1 a83e
00000030: 4cb5 f23d 5a4c 18be 94ec b93e 3e21 3fbe

VAE.encoder_logvar.layers.0.attention.W_k.bias f4 [4]
4.3982054e-05 -7.539889e-05 -1.1315956e-05 -5.9500933e-05
00000000: 5f79 3838 791f 9eb8 a9d9 3db7 a490 79b8

VAE.encoder_logvar.layers.0.attention.W_v.weight f4 [4, 4]
0.44098452 -0.21111737 -0.054437842 0.15181153 0.3645516 -0.2413155 0.3761368 -0.16843775
-0.3804718 -0.26483145 0.22498322 0.19647847 0.19550268 -0.1862062 0.31728232 -0.09409516
00000000: b9c8 e13e 272f 58be 37fa 5ebd 7b74 1b3e
00000010: 82a6 ba3e 691b 77be 0195 c03e f27a 2cbe
00000020: 33cd c2be fd97 87be 0062 663e a731 493e
00000030: db31 483e d7ac 3ebe d472 a23e f7b4 c0bd

VAE.encoder_logvar.layers.0.attention.W_v.bias f4 [4]
0.025144162 -0.043722287 0.012434697 -0.047916617
00000000: 21fb cd3c 2416 33bd e6ba 4b3c 3744 44bd
