tabsyn/vae/ckpt/default/decoder.pt (torch, 28236 bytes, 51 tensors)

VAE_Decoder.layers.0.attention.W_q.weight f4 [4, 4]
000000 5d ed c4 be 7a ee 01 bf a0 27 ce be 04 67 f4 39
       -0.38462344 -0.5075451 -0.40264606 0.0004661606
000010 1a f9 63 be 97 0c 32 3e a8 84 5a 3e 88 2f 3b be
       -0.22262993 0.17387615 0.21339667 -0.1827985
000020 47 e7 2d 3e 9d d6 3e 3e 9d 46 1a 3e de a6 60 3e
       0.16982757 0.18636556 0.15066 0.21938655
000030 15 d9 ed be b6 58 7e be fa dd 94 bd 55 26 34 be
       -0.46454683 -0.24838528 -0.07268901 -0.17592748

VAE_Decoder.layers.0.attention.W_q.bias f4 [4]
000000 8e ef 68 be 6c 35 ea bd 63 80 dd 3e 44 f8 ef bd
       -0.22747633 -0.11435971 0.43262014 -0.11717275

VAE_Decoder.layers.0.attention.W_k.weight f4 [4, 4]
000000 1a 05 87 3e 73 fe be be 5a f4 9f bd 95 40 c8 3e
       0.2637108 -0.37303504 -0.07810278 0.39111772
000010 d5 55 a1 be d4 ad 04 be ff c2 2a be 2a 55 be 3e
       -0.31510797 -0.12956935 -0.16675948 0.3717435
000020 60 e9 04 3e dd 98 70 be 19 6b 53 3d a5 28 e1 bd
       0.1297965 -0.23495813 0.05161581 -0.109940805
000030 e0 f3 72 3d 73 56 41 3e b1 98 31 3e 14 de 74 be
       0.05931461 0.18880634 0.17343403 -0.23912841

VAE_Decoder.layers.0.attention.W_k.bias f4 [4]
000000 aa 40 33 b9 25 3f 86 39 02 22 8d 39 70 12 7e 38
       -0.0001709486 0.00025605518 0.00026918954 6.057549e-05

VAE_Decoder.layers.0.attention.W_v.weight f4 [4, 4]
000000 24 39 a7 bd 01 10 4b 3b 7f 4d d5 3a 05 56 5c bc
       -0.081651956 0.003098488 0.0016273706 -0.013448243
000010 23 2b 8b bd 1c 94 1e bc 12 0b 4a 3b 93 9b 27 bc
       -0.06795337 -0.009678867 0.0030829352 -0.010229963
000020 7e e3 87 bd 84 89 0b 3b a4 b7 a6 3b 0a 15 2c bc
       -0.066351876 0.0021291682 0.0050878096 -0.010503063
000030 21 a8 30 bd 90 3e 7b bc 8f ec 11 b9 bb 0d 72 bb
       -0.04312909 -0.01533474 -0.00013916403 -0.0036934454

VAE_Decoder.layers.0.attention.W_v.bias f4 [4]
000000 86 44 96 3d 0b 66 f0 be ff 43 b1 3d 31 b4 12 3d
       0.073372886 -0.46952853 0.08655547 0.035816375

VAE_Decoder.layers.0.linear0.weight f4 [128, 4]
000000 e5 d2 71 be 7f 87 fb 3e f2 f5 87 3e 55 61 80 3e
       -0.23615606 0.49126813 0.2655483 0.25074258
000010 ad 7b 85 be 04 5a 00 3f 74 a2 d0 be 44 31 b4 3e
       -0.2607092 0.5013735 -0.40748942 0.35193837
000020 82 ac cc be ba 00 93 3d 4b 24 cb bd e0 73 28 3f
       -0.39975363 0.07177873 -0.09919032 0.6580181
000030 76 73 09 3f 10 14 f0 3e 66 f6 41 be b9 fb 79 bd
       0.53691804 0.46890306 -0.1894165 -0.061031077
000040 b5 d9 e6 be ce 47 86 3e a2 70 06 3f 95 96 f8 be
       -0.45087972 0.26226658 0.52515614 -0.48552385
000050 c8 90 fa 3e a1 a2 83 be 59 98 2d bf e1 e1 c0 3e
       0.48938584 -0.25710014 -0.6781059 0.37672332
000060 7f 51 17 3e f5 55 28 bf ba d2 8a bd 44 1d fd 3e
       0.14777182 -0.6575616 -0.06778474 0.4943639
000070 29 a0 08 bd 51 fc 68 be b2 ed f0 be cc e6 30 3f
       -0.033355866 -0.22752501 -0.47056347 0.6910217
000080 ad 70 80 be 48 b3 0d bf 4a 0a f4 be 05 b4 dc 3c
       -0.25085965 -0.55351686 -0.476641 0.026941309
000090 5c 65 c7 3e f6 16 23 3e e2 6f 54 bd 14 64 da 3e
       0.3894452 0.15926728 -0.051864512 0.4265448
0000a0 05 47 d7 3e 7f 10 80 3f c5 b9 0f be 9e 58 7f be
       0.4204637 1.0005034 -0.14035709 -0.24936149
0000b0 12 c9 bb bd ea 70 02 bf 46 74 94 be 03 44 0b 3f
       -0.091692105 -0.50953543 -0.2899496 0.5440065
0000c0 ba 28 4d be 0d 25 22 3f e0 12 3c be 22 40 0a 3f
       -0.20035067 0.63337785 -0.18366575 0.5400411
0000d0 29 1d b9 3e 89 54 00 bf 25 46 cf 3e d4 fa d5 bd
       0.3615506 -0.5012899 0.40483204 -0.10448232
0000e0 33 dd 07 be 18 74 30 3e af d1 12 bf e3 16 29 3f
       -0.13267975 0.17231786 -0.573512 0.6605055
0000f0 4f 5c d4 3e d6 6e c9 3d 54 db 9d 3d 81 b2 34 bf
       0.41476676 0.098355934 0.07707849 -0.70584875
000100 ca 2c 5c be 25 1c 21 be fc ea c0 be de e3 d5 be
       -0.2150146 -0.15733393 -0.3767928 -0.4177541
000110 95 5b 04 3f a1 da fd 3e 3e d8 75 3d 60 71 19 be
       0.51702243 0.49580863 0.060020678 -0.14984655
000120 8e 62 9c be 4d 04 ff 3e 0c fc 13 bf f4 c5 08 bf
       -0.3054394 0.4980797 -0.5780647 -0.5342705
000130 5e 3d 07 3e e1 6e 59 be 6b 6d a6 3e dc 72 e7 3e
       0.13207003 -0.21233703 0.32505354 0.45204818
000140 27 30 9d 3e 05 d5 0f 3c c1 68 f8 3d cc 14 1f 3d
       0.307008 0.008778815 0.12129355 0.038838193
000150 c3 41 0c 3f 16 f5 d4 3e 74 fa f2 be a6 a7 90 3e
       0.54787844 0.41593236 -0.47456706 0.28252906
000160 8c b8 09 bf dc bd 53 3f 40 31 13 bf 19 83 7d 3d
       -0.5379722 0.8271158 -0.57497025 0.061892603
000170 be ac f9 be 26 44 8b bc 47 3d 20 3f 55 89 a7 be
       -0.48764604 -0.01700027 0.625935 -0.32721964
000180 dc 26 d3 be ef da cc bc 02 00 a2 3e 35 9e 75 3e
       -0.41240585 -0.02500674 0.3164063 0.23986132
000190 6c da b5 3e e9 0a ff 3e 65 dd 45 3c 49 26 25 3e
       0.35518205 0.4981301 0.01207671 0.16127886
0001a0 1d a3 44 3f 25 7c 75 bf 10 25 24 3f 3e 2c 2d be
       0.7681139 -0.95892555 0.6411905 -0.16911408
0001b0 18 8d bc be 89 0c 7b be a5 45 bd bd 42 27 12 bf
       -0.36826396 -0.245165 -0.09241799 -0.5709115
0001c0 fb 8b 02 3f 93 41 fe be 3b 05 f6 3e e7 17 17 bd
       0.50994843 -0.49659404 0.48050866 -0.03688803
0001d0 97 95 bc 3e be 42 87 bd 7e c3 2c bf dd 8a a8 3d
       0.36832878 -0.06604527 -0.674858 0.08229611
0001e0 64 12 c3 bd 2e 3e 03 3f d9 cc 42 3f 35 c4 e8 be
       -0.09524992 0.51266754 0.7609382 -0.45462194
0001f0 ae 44 16 3d 1e c3 83 bd 4c f1 93 3e 98 c5 ca bd
       0.03668659 -0.064337 0.28895032 -0.09900969
000200 23 d4 cc 3e 7e ca 1d be 0b 28 30 be 15 0a a6 3e
       0.40005597 -0.15409276 -0.17202775 0.32429567
000210 ef f1 bc be 26 f4 c0 3d 6d e9 ca bd 13 88 f1 be
       -0.3690333 0.094215676 -0.09907804 -0.4717413
000220 b5 e2 19 bf ee a0 e3 be 5b 3e ef 3e 44 7f ee be
       -0.6011155 -0.44458717 0.4672726 -0.4658147
000230 97 04 a5 3d 6b 7f 82 3e 07 b8 8e 3c e2 2d fb 3e
       0.08057516 0.25487837 0.017421735 0.49058443
000240 57 ea 23 bf 79 3a c2 3e be c3 ff 3e 63 95 0b bf
       -0.6402945 0.37935236 0.49954027 -0.5452482
000250 cd d4 ab be 7c fc 2d be 99 d5 bc 3e ff b4 04 3d
       -0.33560792 -0.16990846 0.36881712 0.032399174
000260 b3 8e 2b be 32 d4 ce 3e b3 6e 38 bf a6 0c 11 bf
       -0.16753654 0.40396267 -0.72043914 -0.56659925
000270 60 f0 d3 3e 92 73 2d bf 44 87 73 3e ad f5 25 be
       0.4139433 -0.6775447 0.23782068 -0.16206999
000280 d0 22 c1 be e7 ba e3 3e b0 24 05 be 8e 59 ed be
       -0.37721872 0.44478533 -0.13002276 -0.46357387
000290 26 ab fe 3e a4 e7 3d be a4 6f 03 3f 29 1f 7a be
       0.4973995 -0.18545395 0.51342225 -0.24425949
0002a0 99 59 29 be 71 c5 04 3e 8f 8c a0 be df 59 8e be
       -0.16538085 0.12965943 -0.31357238 -0.2780294
0002b0 06 b4 89 3d d5 cc a7 3e f4 f1 0f bf 72 0c 24 be
       0.0672379 0.32773462 -0.56228566 -0.16020373
0002c0 c0 ec da 3e 20 a8 90 be 65 5c 2b 3d c4 35 9c be
       0.4275875 -0.2825327 0.04183616 -0.3050977
0002d0 74 2e 11 bf 69 a3 ab 3e e6 f0 e2 3d 3f a2 f3 3e
       -0.56711507 0.3352311 0.11081104 0.4758472
0002e0 08 6e c7 3e 99 16 b2 bd e3 b3 06 bf c3 15 34 3e
       0.38951135 -0.086957164 -0.52618235 0.17586426
0002f0 75 ad 1c bf 54 31 c4 3e d0 5e 15 bf 48 cc 6d 3f
       -0.61202174 0.38318884 -0.583478 0.92889833
000300 d9 ea 9d 3e aa fe 87 be f3 67 af be d4 5c ba 3e
       0.30843237 -0.2656148 -0.34258994 0.36398947
000310 f4 a5 c4 3d b0 da 03 3f a9 24 2f be a6 79 03 be
       0.096019655 0.51505566 -0.17103828 -0.12839374
000320 27 b8 a2 3e 36 6b 8f 3e c9 9b 07 bf 5e 8f 0b bf
       0.31781122 0.28011483 -0.52972084 -0.54515636
000330 a0 8f d4 3d 89 4d d6 be c2 af 83 3e 92 01 03 be
       0.10378957 -0.4185603 0.2572003 -0.12793568
000340 26 5a d1 be 60 15 c5 be 50 51 af be e6 b4 bc be
       -0.4088909 -0.3849287 -0.34241724 -0.36856765
000350 79 b3 db 3e 10 92 f5 be ea bc d5 3e 10 a4 f4 be
       0.42910364 -0.47963 0.41745692 -0.4778142
000360 84 68 92 be 30 6d 22 3e 77 f8 35 3f 80 28 0a bf
       -0.28595364 0.15861964 0.7108225 -0.5396805
000370 06 82 2c bf a6 56 cc 3e f6 66 91 3e 79 f5 bc bc
       -0.673859 0.39909858 0.28398865 -0.02306627
000380 c2 85 ec 3e a5 54 f8 be e3 79 87 3e e7 62 9f 3e
       0.461958 -0.4850208 0.2646018 0.31130144
000390 31 29 fe 3e a3 54 bd bd 5e ad 04 3f ec 80 a1 bd
       0.49640802 -0.09244659 0.5182704 -0.07885918
0003a0 31 4b 60 be c0 b5 c4 be 44 4e 5f 3e 2e a3 a5 3e
       -0.21903683 -0.38419914 0.218072 0.3235106
0003b0 82 1a f8 3e 73 d2 c4 3d 4c 6c 6c be fc 78 2b 3e
       0.48457724 0.096104525 -0.23088187 0.1674537
0003c0 bc d9 53 ba ea 8e 8e bd 80 52 05 bf f6 3e 24 be
       -0.0008081456 -0.069608524 -0.5207901 -0.16039643
0003d0 81 c2 db 3e 90 97 12 3f 4d 82 de bb 75 18 9b bd
       0.42921832 0.57262516 -0.0067904354 -0.07573024
0003e0 3f 32 06 3f 1f 32 80 be 64 59 c8 3e eb a2 14 3f
       0.5242042 -0.2503824 0.391307 0.58061093
0003f0 ac 16 95 bd 88 de 75 be 7b 20 c6 3e ec c5 d5 bd
       -0.07279715 -0.2401067 0.38696656 -0.10438141

VAE_Decoder.layers.0.linear0.bias f4 [128]
000000 35 8a 1f be e1 02 a7 be 7c 2d 01 3f 31 89 14 be
       -0.15580066 -0.32619384 0.5046003 -0.1450546
000010 1e 56 72 be 4c 1b 81 be d2 b3 98 3e 46 93 02 3f
       -0.23665664 -0.25216138 0.29824692 0.5100597
000020 82 a1 af 3e dd 7d f0 3e 0c 18 24 3d 59 f1 97 bc
       0.34302908 0.46971026 0.040061995 -0.0185477
000030 2b 08 77 3c 52 10 90 3e 27 ba 13 3f d2 cb 05 3f
       0.015077631 0.2813745 0.5770592 0.5226413
000040 1a 5b 11 3f 84 9b 37 3f a7 cc 96 3d c5 e3 d1 3e
       0.56779635 0.71721673 0.07363253 0.40994087
000050 44 4d b8 bd 24 63 69 3d a2 87 a8 be a7 44 19 3f
       -0.08999112 0.056979313 -0.3291598 0.5987038
000060 e2 00 4e 3e 48 d8 58 3e 54 78 78 3d b4 b0 31 be
       0.20117524 0.21176255 0.06066163 -0.17352563
000070 da 5e 0b 3d ec f6 a6 3e 5d 6f 64 bc 92 1c 04 3f
       0.034026004 0.3261026 -0.013942567 0.51606095
000080 ac 47 f9 3e a9 1a 08 bf 1b 3a b3 3e 11 24 13 3f
       0.48687494 -0.5316568 0.35005268 0.5747691
000090 8e 8c ad 3e 66 de 05 3f e8 7a 10 3e 9b 89 c9 3e
       0.33896297 0.5229248 0.14109385 0.39362797
0000a0 da 62 c6 be 39 bf 30 3e c3 65 73 3e d5 73 38 3f
       -0.38747293 0.17260446 0.23769288 0.72051746
0000b0 b6 54 e1 be 13 db 16 bf 67 3c 14 3e 1a 4c 1e bf
       -0.44009942 -0.5892803 0.14476167 -0.6183487
0000c0 c9 c4 29 3f 84 fc 38 3e 3e 58 ab be 44 4e dd 3d
       0.66315895 0.18065077 -0.3346576 0.108059436
0000d0 8e a6 8f be 23 46 08 3f 3b 57 ed be 86 4f 8f 3e
       -0.2805676 0.5323202 -0.46355614 0.2799036
0000e0 34 01 02 be c3 36 da 3e fe a4 b7 bd 2c 28 11 3f
       -0.12695771 0.42619905 -0.08967017 0.5670192
0000f0 64 e1 12 3f d0 4a bd 3e 9b c5 e7 3d 3f ff 70 3e
       0.5737517 0.3697114 0.11316987 0.23534869
000100 87 76 b3 be 16 41 d7 be a7 9f 4b be 7a 71 29 3e
       -0.35051367 -0.42041844 -0.19885121 0.16547194
000110 fa 36 90 be f8 d5 51 3d 02 99 b3 3d 8e 2f a1 be
       -0.28166944 0.051229447 0.08769418 -0.31481594
000120 2a 84 d1 3e 6d 4d 08 bf a6 8d 84 3e a5 2b f0 3e
       0.40921146 -0.5324314 0.2588932 0.46908298
000130 75 0e 94 3e e1 72 16 bf 2a b9 f3 be a3 dd 12 3c
       0.2891728 -0.5876904 -0.47602206 0.008963975
000140 2b 32 89 bd 4f 17 ab 3e 91 97 f6 be 11 ce 8a 3e
       -0.06699022 0.3341622 -0.4816251 0.2711034
000150 bf a1 b2 3e 5a 1b ba 3e ac ae 04 3f d6 09 a7 be
       0.34889027 0.36348993 0.5182903 -0.32624692
000160 6c 65 32 bf c0 36 b7 3e a1 c9 e7 bd 3f c1 a9 be
       -0.6968601 0.35783958 -0.113177545 -0.33155248
000170 9e 68 f8 3c 99 15 a3 bd 1e 9d e2 be ee 87 3b 3e
       0.030323323 -0.07963104 -0.44260496 0.18313572
000180 82 6f 21 3e 84 6e 9e be ed b4 00 be f3 33 9e 3e
       0.15765193 -0.30943692 -0.12569018 0.3089901
000190 33 ff a4 be 8e 75 16 3f 65 82 ae bc 21 32 4a 3e
       -0.32225952 0.58773124 -0.021302411 0.19745685
0001a0 cf 35 db 3c 6b 88 7d be 81 57 b1 3e c8 f8 69 3e
       0.026759056 -0.2475907 0.34637073 0.22848809
0001b0 17 19 b0 3e 03 17 14 3f 91 1a 82 be 55 bb 19 bf
       0.34394142 0.57847613 -0.25410894 -0.6005147
0001c0 86 9d 8b 3e 1f aa e9 be 0c 8a 13 be 6a 0d e7 3e
       0.27268618 -0.45637605 -0.1440813 0.45127422
0001d0 a9 da 9c be 5e 3c df 3d a1 b2 d4 3e 5d 85 20 be
       -0.30635574 0.10900186 0.41542533 -0.15675874
0001e0 20 c5 b0 3d 7e 9a b2 3e 34 68 11 bf a7 83 f3 bd
       0.086313486 0.34883493 -0.56799626 -0.11890345
0001f0 27 64 28 bf b4 40 df 3e cc a3 03 3e a8 41 bf be
       -0.6577782 0.43604052 0.12855452 -0.3735478

VAE_Decoder.layers.0.linear1.weight f4 [4, 128]
000000 2e 3f 9c be b6 86 4d 3e 57 1d c2 bc 87 22 b5 3d
       -0.30516952 0.2007092 -0.023695631 0.08844476
000010 8e 15 94 be 12 4b 9b 3d 16 88 c4 3d 14 37 b2 3c
       -0.28922695 0.07582678 0.09596269 0.021754779
000020 e6 4a 48 3e b9 84 5a 3e 6f 9d 1d 3e de 71 ca 3d
       0.19559821 0.21339692 0.15392087 0.09885
000030 f4 56 c2 3d cd 48 3b 3e 65 21 3a 3c dc d1 3a 3e
       0.09489241 0.1828949 0.011360501 0.18244117
000040 cb 87 52 3d 57 3a ce 3d b4 80 39 bd 8a 72 22 3d
       0.051399034 0.10069721 -0.045288756 0.039660014
000050 ed b0 22 3d bc 46 e7 3d 59 bb cf 3e c4 d5 31 be
       0.03971951 0.112927884 0.40572622 -0.17366701
000060 0d 8c 10 be d2 c8 52 bd ef 1c 4e 3e e6 80 99 3c
       -0.14115925 -0.05146105 0.20128225 0.018738221
000070 c4 7b b3 3e c0 20 24 3e fe a3 30 be 15 74 99 bc
       0.35055363 0.16028118 -0.17250058 -0.01873211
000080 e0 df 33 3e 85 63 82 be a1 c7 09 bd 6f 0e bc bd
       0.1756587 -0.25466552 -0.033637647 -0.091824405
000090 6e 0c 14 be 8c 5c 3c be c0 1e 4e bd 6b a0 24 3e
       -0.14457867 -0.18394679 -0.050322294 0.1607682
0000a0 6c 2b 90 bd 5b aa 3b 3e 6a df 48 3e 41 8a 25 3e
       -0.07039532 0.18326704 0.19616476 0.16166021
0000b0 8f f9 44 3e 03 97 c4 bd 2c 6a 36 3d f3 38 c6 3d
       0.19235824 -0.09599116 0.044534847 0.09678831
0000c0 1b 92 31 3e 18 3d e7 bd 23 00 dd bb 89 18 77 3d
       0.17340891 -0.112909496 -0.006744401 0.060326133
0000d0 2e c2 92 3d 44 b1 e4 3d 33 8d ed bd 49 a0 22 be
       0.07165943 0.11166623 -0.11599197 -0.15881456
0000e0 db 91 4f 3e 77 ed 0c 3e e6 2a 3d 3b 51 63 50 3e
       0.20270483 0.1376246 0.002886468 0.20350386
0000f0 c0 23 df 3d cd ce 50 bc ce d1 27 3e 1e d5 a7 3b
       0.10895491 -0.012744618 0.16388628 0.005121841
000100 dc 4f 0a be 4b 0b 7d 3e b0 a3 49 3d 83 9a ec bd
       -0.13507026 0.24711339 0.04922837 -0.11552908
000110 b4 ea 91 bd d0 de de be 4f c6 17 be a9 60 32 bb
       -0.07124844 -0.43529367 -0.14821742 -0.0027218258
000120 ab f6 28 bd c0 42 84 3e c9 88 26 3e 0a 04 2e bc
       -0.041250866 0.25832176 0.16263117 -0.01062108
000130 d5 8b 85 be b2 bd 48 3d 68 d7 ff 3d 20 7f 8f be
       -0.26083246 0.049009033 0.12492257 -0.28026676
000140 d9 7d 4c 3e 14 23 12 be 53 84 f4 bd 36 d0 43 3d
       0.19969882 -0.14271194 -0.11939301 0.047805987
000150 a7 b0 3b 3e 8e cc e1 3c 85 92 20 3e fd 8d d9 3d
       0.18329106 0.02756336 0.15680893 0.10622785
000160 67 07 07 bd 2c 3a 9d 3d be 1c 3f 3e bd ed 17 3e
       -0.032966044 0.07677111 0.18663308 0.14836784
000170 b3 fb 0e 3d fe a0 09 3c 35 11 38 3d 47 a6 d9 3c
       0.034908008 0.0084002 0.044938285 0.026568545
000180 ca b8 97 3b 0d 85 63 3d d2 81 3d 3c 0a 33 6d be
       0.004630183 0.05554681 0.011566596 -0.23164001
000190 6b a9 8e 3e d7 60 1a bd 63 f4 f1 3d ff 2f 52 bd
       0.2786363 -0.03769001 0.11814191 -0.051315304
0001a0 9e 73 02 3e 91 e0 64 be 5f 3b 4d be 50 83 97 3d
       0.12739417 -0.2235129 -0.2004218 0.07398093
0001b0 d2 d7 09 3e 8b 67 14 3e 06 ad 3e 3e d2 18 c6 3d
       0.13461235 0.14492624 0.1862069 0.09672703
0001c0 2b 02 3f 3e ed 84 a9 bd d6 47 7b 3e d4 86 8f bd
       0.18653171 -0.08277307 0.24539122 -0.07008138
0001d0 14 eb bf bc 33 e5 4c 3e 15 67 bf 3d a0 b1 56 3e
       -0.023427524 0.20009308 0.09345833 0.20966196
0001e0 96 b0 0c 3e 47 87 37 3e c1 d0 0e be c3 ec 68 3e
       0.13739237 0.17922698 -0.13946821 0.22746567
0001f0 8e eb 24 3c 48 56 39 3e 5f 1b 5a 3d 44 88 a2 bc
       0.010065926 0.1809932 0.05324876 -0.019840367
000200 4b cd 3c 3b ae f0 e2 3c ae f4 11 be e5 96 45 3e
       0.0028808888 0.027702656 -0.14253494 0.19295843
000210 37 12 b5 bc 92 b7 33 3e c6 05 0a be 4e a3 21 3d
       -0.022103412 0.17550495 -0.13478765 0.03946238
000220 47 ef ec bc 07 ef f0 3d 9f 83 c5 3e 5f 40 fe bd
       -0.02892269 0.11764341 0.3857698 -0.124146216
000230 c2 b0 bd 3c c6 d5 3d be 4f 60 42 3e 2e 4b f7 3d
       0.023155574 -0.1853858 0.18982051 0.12074886
000240 85 aa 16 3e 3e 28 55 3e 48 0f 03 3e bb 89 3e be
       0.14713486 0.20816132 0.12798798 -0.18607228
000250 f9 8b 14 bd 21 66 aa 3e e4 e7 48 3e ba 69 99 bd
       -0.0362663 0.33281043 0.19619709 -0.07490869
000260 cd 86 23 be f3 f4 a5 3e a8 2b 6f be 1e 16 a6 3d
       -0.15969391 0.32413444 -0.23356497 0.08109687
000270 45 7f b2 be e6 58 23 3e 50 fd 04 be c6 a0 33 be
       -0.34862724 0.15951881 -0.12987256 -0.17541799
000280 b9 8e be 3c 7d 2b e0 3d 73 e5 0a be c6 51 b1 3c
       0.023261415 0.10945795 -0.1356409 0.021645438
000290 7c 38 fb 3c b5 53 42 be 7f 30 47 3e 31 b5 0e be
       0.030666582 -0.18977244 0.19452094 -0.13936307
0002a0 23 e8 36 bd bc be a8 be 6a 4a b1 3d 00 a5 54 3e
       -0.044654977 -0.3295802 0.086567715 0.20766068
0002b0 16 92 a6 bd 9f ec c1 be 2a 17 19 3e 70 35 d3 be
       -0.081333324 -0.3787584 0.14950243 -0.41251707
0002c0 06 d0 29 3d 86 56 44 3e 06 e4 20 3e 87 d3 74 bd
       0.041458152 0.19173631 0.15711984 -0.05977204
0002d0 7f be 6e bd 50 d9 2b be 96 31 a9 be 0c 0d d3 bd
       -0.05828714 -0.16782117 -0.33045644 -0.10305223
0002e0 71 2d 8f bd f0 53 1d be 19 c9 e1 3c b4 8d 3a 3e
       -0.06991089 -0.15364051 0.027561711 0.18218118
0002f0 0e bf 54 3e 01 c8 73 3e 44 4c 3c be a8 f3 25 be
       0.20776007 0.23806764 -0.18388468 -0.16206229
000300 4d da 1b bd 3b 3d cd be 78 b5 94 3e 2b 40 86 be
       -0.038049985 -0.40085778 0.290447 -0.2622083
000310 30 ff 2c 3d 0d 6e f2 be 63 26 26 be 78 9b 56 be
       0.042235553 -0.47349587 -0.16225581 -0.20957744
000320 b0 44 e8 bd 88 b2 93 be c9 ee 6e 3d 89 0c f3 3d
       -0.11341226 -0.28847146 0.058333192 0.11867625
000330 8f e3 92 3b 18 fe 24 3d 54 7f bc 3b 1f 4b 51 be
       0.0044826935 0.040281385 0.0057524834 -0.20438813
000340 41 e7 00 be 80 9c 2e be d8 73 ed bc 58 60 52 3d
       -0.12588216 -0.17051888 -0.028985903 0.05136141
000350 22 e9 87 bc 97 15 06 bd 1d 79 8c 3e 12 b8 d3 be
       -0.016590659 -0.032735433 0.27436152 -0.41351372
000360 d7 95 18 bf c0 85 cb 3d 80 bc b2 bd 59 32 1f be
       -0.5960364 0.0993762 -0.0872736 -0.1554655
000370 9a 17 82 bb 2d 71 31 3b d4 bb 0c 3e b6 cb 00 3e
       -0.0039700987 0.0027075515 0.13743526 0.1257771
000380 fc 7e 28 bd d9 af bb 3d 46 0c 87 3e ac 9d 27 be
       -0.041136727 0.091644 0.2637655 -0.16368741
000390 0e eb a1 3b f2 45 50 3d 49 28 8e bd eb 4e 09 be
       0.004941351 0.050847955 -0.069412775 -0.13409011
0003a0 b8 99 91 be 28 35 c0 be 7b 56 61 bb d7 42 ca 3d
       -0.2843759 -0.37540555 -0.0034383822 0.0987603
0003b0 9e 03 64 3e 71 e6 68 3e 15 69 0f be 9d 7a 10 bf
       0.22267005 0.22744156 -0.1400493 -0.56437093
0003c0 f6 de 36 be b7 4b a1 bc 6a 3f 9a 3c 3e e8 50 3e
       -0.1785849 -0.019689424 0.018829066 0.20401093
0003d0 7b 82 ec bd d7 0d 16 be a2 d7 31 be 4e 02 8d be
       -0.11548325 -0.14653717 -0.17367414 -0.2754082
0003e0 5f ca f7 3d b1 ed 83 be a7 fb 90 bc 67 81 85 bd
       0.12099146 -0.25767282 -0.017698122 -0.06518822
0003f0 ed 87 8a bc c7 79 44 bd 3f 15 e8 3b 3f 9a a2 ba
       -0.016910518 -0.0479677 0.007082611 -0.0012405588

VAE_Decoder.layers.0.linear1.bias f4 [4]
000000 7b d5 e2 3d ce b9 9d bc b0 a7 4d 3d b2 22 14 bc
       0.110758744 -0.019253638 0.050208747 -0.009041475

VAE_Decoder.layers.0.norm1.weight f4 [4]
000000 6d c2 b3 3f 1d 0c b0 3f e9 26 c0 3f 81 ea c7 3f
       1.4043709 1.3753697 1.5011874 1.561844

VAE_Decoder.layers.0.norm1.bias f4 [4]
000000 24 da 49 3e 5d 6b bb bd 8b b2 ec 3d b9 dd 45 3d
       0.1971212 -0.09151337 0.11557492 0.048307154

VAE_Decoder.layers.1.attention.W_q.weight f4 [4, 4]
000000 05 a6 1b bf 1d 85 e3 bd 6e 2c 5e 3b 57 b2 8c bb
       -0.608002 -0.11109374 0.0033900994 -0.0042937207
000010 6d 82 a5 3e cf 6f fc be 8d eb a4 bc 38 8b 8e 3e
       0.3232607 -0.49304053 -0.02013185 0.2784059
000020 90 8f 81 bd bd f5 de be 54 d6 7a be 30 27 01 bf
       -0.063262105 -0.43546858 -0.24495822 -0.5045042
000030 c4 2b eb 3e ad 06 91 be bf d4 23 bf e3 8d 2e 3f
       0.45931828 -0.28325406 -0.639965 0.6818525

VAE_Decoder.layers.1.attention.W_q.bias f4 [4]
000000 c5 93 d9 be 0c a5 dd 3e a4 81 34 be 0d f1 d2 3e
       -0.42495552 0.43289983 -0.17627579 0.41199532

VAE_Decoder.layers.1.attention.W_k.weight f4 [4, 4]
000000 f0 a2 2d bf 1a dd 06 3d 17 77 c4 3e 25 69 af be
       -0.6782675 0.032925703 0.38372108 -0.34259906
000010 87 e9 7d 3e ac 3e a7 be 42 fd b4 be 5b b3 e6 be
       0.24796115 -0.32665002 -0.3534947 -0.45058712
000020 34 a2 72 be 85 71 9b be 7e e8 a9 3d 92 6b 04 bf
       -0.23694688 -0.30360046 0.082962975 -0.5172664
000030 f8 4c 17 3f 8a 04 c2 bd b4 ca 53 be aa 1a f9 3e
       0.5910182 -0.09473522 -0.20682794 0.48653156

VAE_Decoder.layers.1.attention.W_k.bias f4 [4]
000000 46 cc 9a 39 14 19 08 ba ee f6 2a b9 c3 85 62 3a
       0.00029525365 -0.0005191725 -0.00016304452 0.0008641148

VAE_Decoder.layers.1.attention.W_v.weight f4 [4, 4]
000000 f5 35 92 3d 62 2e 35 be 5b e6 30 be 39 6c 93 bd
       0.07139198 -0.17693475 -0.17275374 -0.07198376
000010 d6 c7 80 3d 63 02 8e 3e 95 81 ba 3e 9f 67 3b 3e
       0.06288116 0.27736196 0.36426988 0.18301247
000020 83 ad 93 3e e3 12 d0 3d a4 c5 2d 3e 50 c5 0f 3e
       0.28843316 0.10159852 0.16969925 0.14040112
000030 26 e3 1b be 7e ab bc 3c 60 05 8d 3d 4d 6f be bb
       -0.15223369 0.023030993 0.06885791 -0.005811608

VAE_Decoder.layers.1.attention.W_v.bias f4 [4]
000000 6b c0 d6 3c 51 32 b6 3d 25 7b b3 bb f4 24 4a bd
       0.026214799 0.08896316 -0.0054773265 -0.049351647

VAE_Decoder.layers.1.linear0.weight f4 [128, 4]
000000 57 03 1f bf ff 3e 89 3e 1e c6 ba 3e 46 75 83 3d
       -0.6211447 0.26805875 0.36479276 0.064188525
000010 22 f0 12 3f bc 4c 59 3e ef d0 8d be 3d c6 c9 be
       0.57397664 0.21220678 -0.27698466 -0.39409056
000020 66 c1 69 3e 4e d0 a6 3e 5c c6 34 bf 7a 34 2b 3f
       0.22827682 0.325808 -0.7061517 0.6687695
000030 b2 58 14 bf b9 7b 5c bd f2 c5 92 3f 7c 56 44 bf
       -0.5794784 -0.05382893 1.1466658 -0.76694465
000040 a3 de bb 3e a5 d9 6f 3e a4 81 19 be 52 a1 69 3d
       0.36693296 0.23422869 -0.1499086 0.057038613
000050 a8 35 1e be bc e3 f5 be 1d 0e 29 3f 16 a3 92 3d
       -0.15450156 -0.4802531 0.6603716 0.071600124
000060 81 22 dd be 70 a6 0b 3f 17 3d 62 bc b7 69 1d 3e
       -0.43190387 0.5455084 -0.01380851 0.15372358
000070 ab ec 98 3e 14 8a 31 3f 7e d5 04 bf 52 47 8f be
       0.29868063 0.69351315 -0.51888263 -0.279841
000080 0d 7e 36 3f 0c 30 d3 be 22 e8 74 3e ae e7 c2 be
       0.7128609 -0.41247594 0.23916677 -0.38067383
000090 74 f6 ee 3d 95 12 bf be d6 4d f9 be 34 e2 7b bc
       0.11668101 -0.37318864 -0.48692197 -0.015373755
0000a0 b2 cd 3f bf e1 48 90 be b0 d5 ca 3e 98 6d f0 3e
       -0.7492324 -0.28180602 0.39616156 0.46958613
0000b0 ff 86 24 3f a1 cc ce be d8 c8 87 3e 50 ca cc be
       0.6426849 -0.40390494 0.2652042 -0.39998102
0000c0 0d 53 1f 3f e3 78 f6 be ed a7 c7 bd 65 8c 17 3d
       0.622361 -0.48139104 -0.09748826 0.036999125
0000d0 7d ca 49 3e 39 89 0a be 1d 62 85 3e 2b 63 73 be
       0.1970615 -0.13528909 0.26051417 -0.23768298
0000e0 ca 39 37 be dd 70 18 3f d3 0b 3e be 04 3f 7a bd
       -0.17893139 0.59547216 -0.18559198 -0.061095253
0000f0 d9 01 32 3f 32 41 44 be fc be f3 3e 97 d7 7a bf
       0.6953407 -0.19165495 0.47606647 -0.97985214
000100 37 2a 18 3f 06 cd ea 3e ce 62 4c 3e a9 cc 4f bf
       0.59439415 0.45859545 0.19959566 -0.8117166
000110 f5 4a c6 bb 4a df e3 be ef f6 d3 be a7 29 ac 3e
       -0.006051416 -0.44506294 -0.41399333 0.33625528
000120 51 1d 1e bf 8c 68 5a 3e 1b fd 20 bd cf 6c 07 3c
       -0.61763483 0.21328944 -0.03930388 0.008265688
000130 63 24 67 bf 87 92 1a 3c ec 6f c7 3e a9 ae 74 3e
       -0.90289897 0.009434349 0.38952577 0.23894753
000140 64 0f e8 3e 58 2e 10 3f f7 e6 91 be 03 3d 12 3c
       0.45324242 0.56320715 -0.28496525 0.008925679
000150 53 2b d9 be ff f5 38 3d ff 8b 48 3f cf e1 ee be
       -0.42415866 0.045156475 0.7833862 -0.46656653
000160 d0 75 63 be 8a 0b c2 3e 81 5a fc 3a dd 64 8a 3e
       -0.2221291 0.3789943 0.0019253046 0.27030078
000170 8a f4 3f 3f 71 05 95 bd 49 4e 1e 3f e9 8c 56 bf
       0.7498251 -0.072764285 0.61838204 -0.8380876
000180 33 db 99 bc c5 83 e6 be 72 9e 72 3e d2 32 7b bd
       -0.01878128 -0.45022407 0.23693255 -0.061327763
000190 ee 22 93 3e e2 94 2b 3d d9 14 17 bf 0a 7f ad bd
       0.28737587 0.041890033 -0.59016186 -0.084714964
0001a0 41 5f 1f bf 70 6b 89 bd 64 80 df ba b2 58 3b 3d
       -0.6225472 -0.06709945 -0.0017051813 0.045738883
0001b0 6d f6 2f bf 29 02 46 be e9 88 2d 3f 26 05 fb 3e
       -0.6873539 -0.19336762 0.67787033 0.49027365
0001c0 4c d7 10 bf 45 c3 87 3e 2a 62 1d be f7 53 39 3e
       -0.56578517 0.26516166 -0.15369478 0.18098436
0001d0 fc 3a 18 bf bf 5f 9f 3e 2f 64 57 3f 47 71 1e 3e
       -0.59465003 0.31127736 0.84137243 0.154729
0001e0 cf d6 65 3e 6c 8a 9a 3c e9 38 7d bd 39 1f 72 be
       0.22445224 0.018864833 -0.061821852 -0.23644723
0001f0 a1 11 07 bf 31 e7 f5 be 21 9d ad be 10 1e 94 3e
       -0.52761275 -0.48027948 -0.33908942 0.28929186
000200 83 6e 37 be 61 5b 0a 3f 5d 5c 2c be 35 42 05 3f
       -0.1791325 0.54045683 -0.16832109 0.5205415
000210 60 37 93 3e b7 3a b9 be 0a f0 cc 3e e9 cd 8e bf
       0.28753185 -0.36177608 0.40026885 -1.1156589
000220 78 ac 96 3c 18 65 f9 3e 61 7d 15 bf e9 06 12 3f
       0.018392786 0.4870994 -0.5839444 0.57041794
000230 27 fc 52 bf 57 8f 4b be e3 c6 f7 3e 37 2c a4 3e
       -0.82416004 -0.19878899 0.48393926 0.32064983
000240 38 68 24 3f c8 a4 be 3c d5 60 cf be 6e 88 1a 3e
       0.64221525 0.023271933 -0.40503564 0.15091106
000250 8b 07 0c 3f d6 0e c8 be 83 d4 a9 3e 07 8e 00 bf
       0.5469901 -0.3907382 0.33169946 -0.50216717
000260 c4 fa fa be 75 0e 9f be 84 05 c4 3e 21 77 9d 3d
       -0.49019444 -0.31065717 0.38285458 0.07688738
000270 95 0d 1d bf 15 2f 90 bc 45 81 cd 3e d9 a9 17 bf
       -0.6134885 -0.017600575 0.40137687 -0.5924354
000280 50 e2 eb be 23 98 87 be a1 52 09 3f 56 e5 44 3f
       -0.460711 -0.2648326 0.53641707 0.7691244
000290 bb d6 af 3e 2f e3 14 3f ab de 11 bf 7c c8 1e bf
       0.34343514 0.58159155 -0.5698039 -0.62024665
0002a0 32 08 4d bf ff bf ef be 81 df 65 3f fc 9c 62 be
       -0.8009063 -0.4682617 0.89794165 -0.22130197
0002b0 54 0a fe 3c 18 73 00 3f 14 9c ca bd e1 e0 94 be
       0.031010784 0.5017562 -0.09893051 -0.2907782
0002c0 31 ad ed 3e 44 cb 2e 3f 17 0d a5 be da 4a ec be
       0.46421197 0.6827891 -0.3223655 -0.46150857
0002d0 57 5c 2b be eb 70 17 3f 2e 36 a7 be 1b 65 fa be
       -0.16734444 0.59156674 -0.32658523 -0.48905262
0002e0 77 9a b8 bc cc b1 08 bf 55 61 e6 be 34 10 d0 be
       -0.022534592 -0.53396297 -0.44996133 -0.40637362
0002f0 0c 06 43 3e 07 f9 d6 3e ba 6c 1c bf 27 9d b3 bd
       0.19045275 0.41986868 -0.61103404 -0.08770209
000300 d8 ab 4a bf 23 b5 7c 3d a0 f9 9a 3e 94 d8 9e bb
       -0.7916846 0.061696183 0.30268574 -0.0048475955
000310 ce c7 e1 be 5a 98 8b be 22 58 59 3e 70 42 c1 bc
       -0.4409775 -0.27264673 0.21225026 -0.02359125
000320 ad 1c 6f 3e 56 2a 26 be 15 90 b7 be 6d 5d 29 3e
       0.23350783 -0.16227087 -0.35852113 0.16539545
000330 86 6b 43 be c1 98 e9 3e bf 23 df bd e5 9c 66 3c
       -0.19083986 0.45624354 -0.1089549 0.0140754925
000340 01 5c e7 be b9 fc c8 be 07 27 3b 3f c6 b8 00 3e
       -0.4518738 -0.39255312 0.73106426 0.12570485
000350 13 e5 6a 3e 6a 26 32 3f 3c 8b bf be c0 c6 b2 3e
       0.22938947 0.69589865 -0.37410915 0.3491726
000360 16 49 64 be f2 cc a1 3e 1c e5 4b be 8c 04 ed 3e
       -0.22293505 0.31601673 -0.19911617 0.46292531
000370 25 cb 0c bf ba 90 e7 be a8 aa 99 bd c4 a9 b3 3e
       -0.54997474 -0.45227605 -0.07503253 0.35090458
000380 d8 87 99 be 24 ad 11 be 6d c4 03 3f 49 31 a5 3e
       -0.29986453 -0.14226204 0.51471597 0.32264164
000390 72 71 4a 3d d2 2b 1e 3f 7a 29 78 be a7 7a ec be
       0.049424596 0.61785614 -0.24234572 -0.46187326
0003a0 4e f1 67 3e 48 b1 1b bf 70 c7 29 bf 43 72 84 bd
       0.22650644 -0.60817385 -0.6631994 -0.06467106
0003b0 2a a4 dd 3e f2 66 d7 be 4f 71 24 bf 5d ac b1 be
       0.4328931 -0.4207073 -0.64235395 -0.34701815
0003c0 23 09 d8 3e c9 04 be bd 8c a1 d0 be 0c 73 96 bd
       0.4219447 -0.092782564 -0.4074825 -0.07346162
0003d0 ba bf d3 3e 15 b2 a1 be b6 de ca 3e 35 47 10 bf
       0.41357213 -0.31581178 0.3962304 -0.56358653
0003e0 d1 54 80 3e aa 69 82 3b 74 95 e5 be b6 49 f4 bd
       0.2506471 0.0039798813 -0.44840586 -0.11928122
0003f0 bd 7e 04 3f 42 9e 3b 3f d2 44 fb be 39 37 2b be
       0.5175589 0.7328836 -0.49075943 -0.16720285

VAE_Decoder.layers.1.linear0.bias f4 [128]
000000 6f 99 b0 3e 8c 8b bb be 1a 4d 3b 3e 1c 3a d9 be
       0.3449206 -0.36629903 0.1829113 -0.42427146
000010 4d 6a a0 3d dd 26 d2 3e 4a 09 52 3e 6b e6 d9 3e
       0.07832775 0.41045275 0.20511356 0.42558607
000020 ce a8 80 3e 4c 43 6f 3d 30 b9 53 be 95 db 7d 3e
       0.25128788 0.05841379 -0.20676112 0.24790795
000030 1d bc f1 3c d3 0b cd 3e 0b bc c5 3e f5 4f 88 bd
       0.029508645 0.40048084 0.38620028 -0.066558756
000040 da 3d 23 3e 69 79 59 3e 36 f5 7c be ab 69 d4 3e
       0.15941563 0.2123772 -0.24702916 0.41486868
000050 1a 46 04 3e c6 9b 98 3a 14 3e ad be 60 ca 82 3b
       0.12917367 0.0011643104 -0.33836424 0.00399141
000060 bb 0b bd 3e 2d 62 94 be 0a 32 8a 3e bb 1b 88 3e
       0.36923012 -0.28981152 0.26991302 0.26583657
000070 07 2b 93 be ab 03 c5 3e 5b af b3 3e bb e8 ae 3e
       -0.28743765 0.3847936 0.35094723 0.34161934
000080 a0 8f cc be 31 75 e7 3d 94 8a 2f 3e 78 c0 a1 bc
       -0.39953327 0.11301649 0.17142707 -0.019745097
000090 aa 09 8f 3d 4e b3 e1 3e 16 ed f1 3e e1 90 d6 3e
       0.06984265 0.4408211 0.47251195 0.4190741
0000a0 5b 1f 03 3f 72 82 c5 bd 3d 52 81 bd 4f f1 ad 3e
       0.5121972 -0.09644021 -0.06314514 0.33973166
0000b0 85 a5 93 be 19 da 93 3e e4 c5 96 3e 20 b8 a6 3e
       -0.2883722 0.28877333 0.29447854 0.3256235
0000c0 71 0f ba 3c 33 ce ee 3e ea 08 f9 be 1d 61 d0 3e
       0.022712441 0.46641693 -0.48639613 0.40699092
0000d0 1a aa 44 bd 17 1c 5f be 2a b7 03 3f 4d 40 d8 3e
       -0.048013784 -0.21788059 0.5145136 0.42236558
0000e0 a9 46 0e 3e 42 72 4e 3e dc 85 49 3e 6e 07 a4 3e
       0.13894142 0.20160773 0.1967997 0.32036918
0000f0 b3 ba 00 bc dc c1 9c bb e1 9f 95 3d 2d fa b8 bd
       -0.007857013 -0.004783852 0.07305885 -0.09032092
000100 42 57 fd 3e a7 c6 e6 3e fa 31 84 bd 4c 90 1c 3f
       0.49480635 0.45073435 -0.06454845 0.6115768
000110 a9 3e dc 3e fc 5e b7 be 61 f5 92 3e 20 45 84 bd
       0.43016556 -0.35814655 0.28702834 -0.06458497
000120 1a e9 af 3e 09 c7 db be 08 41 b6 3e c9 bc fa 3c
       0.3435753 -0.4292529 0.3559649 0.030607598
000130 a9 64 d7 3e 41 e1 09 be d5 14 1c 3f 1c 93 e1 3e
       0.42068985 -0.13464834 0.6096929 0.44057548
000140 ce 3b ef 3e 82 4a 03 3f af f6 ec bd 74 d8 4e 3e
       0.46725315 0.51285565 -0.11570489 0.20199758
000150 cc 62 0e 3f c0 87 e1 3e e0 e3 55 3e 2d 63 64 3c
       0.556195 0.44048882 0.20887709 0.013939661
000160 3d 34 b2 3d 7e a9 a1 3e 50 32 9b 3e 2a ff 9f 3e
       0.0870137 0.31574625 0.30311823 0.31249362
000170 b0 9a 50 be fa 9f 81 3d 35 d7 ee 3c ca 7d 24 3f
       -0.20371509 0.06329341 0.029155353 0.6425444
000180 fa da 9e 3e f0 4b b3 3d 16 a4 c0 3d b2 db 54 be
       0.3102644 0.08754718 0.09406297 -0.20786932
000190 0e 50 91 3e f7 8e 63 be 3b 06 48 3e 70 21 03 3e
       0.2838139 -0.22222506 0.19533627 0.12805724
0001a0 60 97 b0 be 75 95 bd be 64 23 31 be 88 5f 9a be
       -0.3449049 -0.3702809 -0.17298657 -0.3015101
0001b0 2e 2c da 3e 80 a1 59 3e 2d a6 02 3e c6 85 22 3e
       0.4261183 0.21253014 0.12758704 0.15871343
0001c0 c3 9e 39 be a8 49 f6 3e b3 a3 25 3f 8b 9b e2 3e
       -0.18126969 0.4810307 0.6470291 0.44259295
0001d0 5f fb f1 3e 1f cb 04 be 1a ac cf bd 8f c0 29 3e
       0.47262093 -0.1296811 -0.10140248 0.16577362
0001e0 fa 09 d7 be b8 2d f6 3e f6 c6 8d bd 66 12 b1 be
       -0.419998 0.48081756 -0.069227144 -0.3458435
0001f0 40 bc ae 3e d8 cf 56 3e 8a bd 8c 3e ba 02 8f 3e
       0.34127998 0.20977724 0.27488357 0.27931768

VAE_Decoder.layers.1.linear1.weight f4 [4, 128]
000000 41 0e d2 be d8 b8 e3 3c b8 e3 38 3e e6 16 46 bf
       -0.410265 0.027798101 0.18055618 -0.7737869
000010 c1 67 0c 3e 0b 40 25 be 51 b0 1f be 67 5c 87 3d
       0.13711454 -0.16137712 -0.15594603 0.06609421
000020 a4 80 1d 3e 3e f9 35 3e 42 ad ee be 40 05 0a 3e
       0.15381104 0.1777086 -0.4661656 0.13478565
000030 6e 46 2c 3e 4c ff 72 bc bf 40 47 be 4e b9 94 3e
       0.16823742 -0.014831375 -0.19458292 0.29047626
000040 60 cc fa 3d 94 d7 13 3e 3d df 19 be 50 21 c1 be
       0.12246013 0.14437705 -0.15026565 -0.37720728
000050 87 02 aa 3d 2b 8d 34 bf 50 b8 cf bc 9d f4 61 3e
       0.08301263 -0.70527905 -0.025356442 0.22065969
000060 7b 31 cd ba 58 86 21 3e 04 a6 a0 be 70 00 b2 be
       -0.0015655005 0.15773904 -0.3137666 -0.3476596
000070 25 2b 0f be b8 7f d8 be 1e 4c 03 3e c4 c7 38 be
       -0.13981302 -0.42284942 0.12822005 -0.18044955
000080 a1 db 57 3e 88 40 67 3e 16 57 2f 3e 2d 75 1c bf
       0.21079876 0.2258321 0.17123064 -0.61116296
000090 fc 63 30 3e e4 a8 b4 3d ce d1 8d be b6 1b b5 be
       0.17225641 0.08821276 -0.2769913 -0.35372704
0000a0 1e e6 89 be 9f 10 bb bd 1e de 47 bf 1d 28 34 be
       -0.26933378 -0.091340296 -0.780733 -0.17593427
0000b0 6f 4d 52 be e0 a0 52 be f8 26 1f 3e a6 31 f9 bc
       -0.20537351 -0.20569181 0.15542209 -0.030419182
0000c0 f4 45 95 be 17 f1 64 be 59 78 15 3e 80 b5 47 bd
       -0.29154932 -0.22357593 0.1459669 -0.048757076
0000d0 a5 f9 74 be 3d 5d ea 3d 62 e6 df 3d 92 0d a9 be
       -0.23923357 0.11443565 0.10932614 -0.33018166
0000e0 fa 17 33 be a8 89 2d be bc b7 40 3e d8 43 07 3e
       -0.17489615 -0.16947043 0.18820089 0.13209474
0000f0 a4 67 7b 3d 60 7b 22 3d 04 3b 0a 3d 76 40 15 3d
       0.061378136 0.03966844 0.033747688 0.036438428
000100 76 cf de be 46 86 ce 3d e2 6e 0a 3d 27 e6 19 be
       -0.43517655 0.100842044 0.033797152 -0.15029202
000110 e7 ef 24 39 c2 6f 0a be 73 82 51 3d d7 4b 96 3d
       0.0001572963 -0.13519195 0.051149797 0.07338684
000120 1b bf 9e be 83 ad da 3d b5 b7 51 be 6d 02 ef be
       -0.31005177 0.10677626 -0.20480235 -0.46681538
000130 11 7c 12 3e bc 3f 09 bf c2 97 cd bd d5 46 8c be
       0.1430514 -0.53612876 -0.10038711 -0.2739779
000140 13 12 7e bd b4 6e 92 3d f7 0c 53 bf d0 a3 de be
       -0.062028956 0.07150021 -0.8244166 -0.43484354
000150 96 31 47 be 1e 48 a2 be ef f1 1a 3e 9a 6c d9 bd
       -0.1945251 -0.31695646 0.15131353 -0.10616417
000160 c4 03 bf be b7 8f 8c 3d a5 d4 53 3d 8f 68 cc 3d
       -0.3730756 0.06863349 0.051716466 0.099808805
000170 22 cb 9f bb c8 3a ac 3e 6e 0b 22 bd 9f 49 93 3d
       -0.0048765102 0.33638597 -0.03956168 0.071917765
000180 56 88 8c bb 3c 9b 04 3e f2 b4 08 3d a2 5d be be
       -0.0042887134 0.12949842 0.033375688 -0.3718081
000190 bb 24 49 3d 3a a0 93 be a0 8c 71 3e d0 6d b4 be
       0.049107295 -0.2883318 0.235888 -0.3524003
0001a0 19 f0 56 3e c4 10 11 be 41 8d c0 3d bf 99 15 3d
       0.20990027 -0.14166552 0.09401942 0.036523577
0001b0 c8 de bd 3d 8a 64 42 be fb 89 df bc 13 85 82 be
       0.09271008 -0.18983665 -0.027287474 -0.25492153
0001c0 3d 24 99 3d a9 d1 72 3e 52 d7 9a be 6d a2 3a 3d
       0.07477615 0.23712792 -0.302424 0.045565058
0001d0 ed 16 e6 bc 3b fa e9 bd a0 f0 04 bf 59 d7 84 3e
       -0.028087104 -0.11424681 -0.51929665 0.25945547
0001e0 e7 d8 b5 3d 83 eb 02 3e f5 a4 80 bd f2 b5 7e be
       0.088792615 0.12785153 -0.06281463 -0.24874094
0001f0 76 1f 22 3c 35 c1 20 be 57 a2 11 be ce da 57 3e
       0.009895196 -0.15698703 -0.14222084 0.21079561
000200 8c 1e 92 3d e8 66 9c 3d 56 fc f2 3d 15 ca 87 be
       0.071347326 0.07636815 0.118645355 -0.26521364
000210 cf fa af 3d f3 df 10 bd a2 81 6a 3e ee 29 74 3e
       0.0859276 -0.035369825 0.22901013 0.2384412
000220 82 d5 e7 bd e8 a5 82 bd ce 13 0d 3e 62 83 c4 bd
       -0.1132002 -0.063793 0.13777086 -0.09595372
000230 ab 3a a1 bd 83 d9 ed bb 54 dd 79 3e 29 eb 97 be
       -0.07872518 -0.0072585954 0.24400836 -0.296716
000240 26 64 07 3e 57 93 d1 bd 33 18 5e 3e 38 da 85 3d
       0.13221797 -0.10233181 0.21688919 0.065357625
000250 53 f7 9e 3e e0 f4 f9 3b 0f f4 19 bc c1 62 49 be
       0.31048068 0.0076280683 -0.009396567 -0.19666578
000260 d7 57 1f be 4c 75 2b 3e 89 ee 9f bb 01 e0 be 3d
       -0.15560852 0.16743964 -0.0048807305 0.09320069
000270 20 19 5a 3e ad 05 1d 3e a4 fc fc 3d 4c 4e fa bc
       0.21298647 0.15334196 0.12352875 -0.030554913
000280 f2 6f 81 3e 80 e8 a8 be be e6 1b 3e c4 0d 02 3f
       0.2528072 -0.32989883 0.1522474 0.50802255
000290 9b 49 2c 3d a2 3c b5 bc f3 67 44 bc 0c 3b 1b 3d
       0.042062383 -0.022123639 -0.011987674 0.03789811
0002a0 57 30 04 3d 91 ff 52 3e e5 5c a9 3e e6 42 19 3e
       0.032272663 0.20605303 0.33078685 0.14966926
0002b0 f4 89 e9 3e 3a 39 57 3e 31 a1 c2 bd 5b 69 99 3e
       0.45613062 0.21017924 -0.09503401 0.29963192
0002c0 96 b2 bf bd 89 47 28 3c c8 a0 34 bd 17 36 60 3e
       -0.093602344 0.010270962 -0.044098645 0.21895634
0002d0 1e 18 01 3e 56 2a 83 3e 85 03 44 3e 40 9e fa bd
       0.12606856 0.25618237 0.19141968 -0.12237215
0002e0 9f 4b 8f 3d 01 bf 72 3e d6 02 bb bd d2 24 f6 3c
       0.069968455 0.23705675 -0.091314 0.030046854
0002f0 28 eb b8 3d 3e e5 65 be 84 0b de 3d 82 3b ba 3e
       0.090292275 -0.2245073 0.1084204 0.36373526
000300 1c 6a 26 3d dd 33 1f bd 01 aa 96 3e c1 eb 7e 3e
       0.040628538 -0.03886782 0.29426578 0.2489462
000310 d5 66 6a 3e 39 73 c0 3d f4 d5 74 3e 82 ce e0 3c
       0.2289079 0.09396977 0.23909742 0.02744222
000320 78 a7 83 bb 02 1f d6 bc 14 7a c7 bd 41 9e 02 3f
       -0.0040177666 -0.026137833 -0.097400814 0.51022726
000330 41 86 90 bd d4 9f 50 3d 1a 15 86 bd ea dc 54 3c
       -0.07056857 0.050933674 -0.065469936 0.012992123
000340 33 63 9b 3d 0f e5 3f 3d d2 bc 18 3e f7 fe 57 3e
       0.0758728 0.046849307 0.14915779 0.21093355
000350 99 55 3c 3d b2 ae 78 3d 02 03 91 3e 74 e5 07 be
       0.04598007 0.060713477 0.28322607 -0.13271123
000360 1b a3 95 3d 56 8f e4 3d 81 84 8c 3e 46 d3 66 3e
       0.073065005 0.11160152 0.27444842 0.22541532
000370 03 2f e8 3e 13 8d cb be af 8e 81 bd 13 68 6c 3e
       0.45348367 -0.3975607 -0.06326043 0.23086576
000380 19 3b 87 3e bf 01 c9 bd 2e f4 1b be 05 cb 1b 3e
       0.26412275 -0.09814786 -0.15229866 0.15214165
000390 93 f0 2e be c8 b6 54 3e 4e d0 43 bd 63 70 51 bd
       -0.1708396 0.2077285 -0.047806077 -0.05113257
0003a0 25 be d7 3e 0a 2c ab 3e 41 a1 e9 3e 0d a2 6b be
       0.42137256 0.33432037 0.4563084 -0.23011036
0003b0 dc 44 0e 3e 8a 52 9c 3d 38 b3 a3 3e 73 62 b6 bc
       0.13893455 0.076329306 0.3197267 -0.022263741
0003c0 19 f7 a0 bc 63 ca e0 bc ec a7 88 bc 02 76 27 be
       -0.019649075 -0.027440256 -0.016681634 -0.1635361
0003d0 0a 08 3e 3e 3d 03 bf 3e 9e b1 85 bc 84 0d ce bd
       0.18557754 0.37307158 -0.016320046 -0.10061172
0003e0 0c ab ae be 6d 93 bf bd fc e5 0a bd 3b 83 70 be
       -0.34114873 -0.09354291 -0.033910736 -0.2348756
0003f0 17 5c db bd a5 a0 ed bd 78 cc 86 bd 44 35 8f bd
       -0.10710924 -0.11602906 -0.06581968 -0.069925815

VAE_Decoder.layers.1.linear1.bias f4 [4]
000000 04 2f 98 3d ec fe bf 3d 99 2b a1 3a b1 b9 93 bd
       0.074308425 0.09374794 0.0012296318 -0.07213152

VAE_Decoder.layers.1.norm1.weight f4 [4]
000000 7b 06 ad 3f de 26 be 3f 48 38 c5 3f bc 98 b6 3f
       1.3517603 1.4855611 1.5407801 1.4265361

VAE_Decoder.layers.1.norm1.bias f4 [4]
000000 ef 55 fa bc b9 4c fb bb 32 93 98 bc 82 5b 5e be
       -0.030558554 -0.007669058 -0.018624876 -0.21714595

VAE_Decoder.layers.1.norm0.weight f4 [4]
000000 55 4a 26 3f 6e ce 3a 3f 7c cb fa 3e 69 cd 42 3f
       0.6495717 0.72971237 0.4898337 0.7609468

VAE_Decoder.layers.1.norm0.bias f4 [4]
000000 0a 0d 7c 3d 84 cc 0a 3d fa 9c 2d bd fc d4 7b 3d
       0.061535873 0.033886448 -0.042386033 0.061482415

VAE_Decoder.last_normalization.weight f4 [4]
000000 00 00 80 3f 00 00 80 3f 00 00 80 3f 00 00 80 3f
       1.0 1.0 1.0 1.0

VAE_Decoder.last_normalization.bias f4 [4]
000000 00 00 00 00 00 00 00 00 00 00 00 00 00 00 00 00
       0.0 0.0 0.0 0.0

VAE_Decoder.head.weight f4 [4, 4]
000000 28 85 51 be 00 c9 0a bc 88 bd ae bd 06 7e a8 3e
       -0.20460951 -0.008470774 -0.08532244 0.32908648
000010 d0 0c 62 3e 36 4d a4 3e 18 d4 d1 be 14 12 6b 3e
       0.220752 0.32090157 -0.40982127 0.22956115
000020 80 81 82 bb c8 57 9d be 62 f6 e7 be 86 2d 8a be
       -0.0039827228 -0.30731034 -0.45305163 -0.26987857
000030 e8 26 2f 3e bc be ab 3e a0 40 07 3e 70 41 9c 3d
       0.17104685 0.33543956 0.13208246 0.07629669

VAE_Decoder.head.bias f4 [4]
000000 30 b1 11 be 7c 09 0a 3e 1c 24 c1 3e 88 f7 c8 3e
       -0.14227748 0.1348018 0.37722862 0.3925135

Detokenizer.weight f4 [14, 4]
000000 91 bd e7 3c 34 54 90 bd a0 5d cd 3e 34 56 7c 3e
       0.028288634 -0.070473105 0.40110493 0.24642259
000010 39 87 ce bd b7 a7 ab 3b 0f a6 1a 3e 22 e5 2a 3e
       -0.100843854 0.005238499 0.15102409 0.1668897
000020 48 d5 1a 3d 1e b4 bf 3c de fa c6 3e 14 76 a4 3e
       0.037801057 0.023401316 0.3886327 0.32121336
000030 57 c7 e5 3d a8 70 49 3d 8e 6b 00 3f 71 d5 9f 3e
       0.11219662 0.049179703 0.50164115 0.3121753
000040 10 7f c5 bb e9 31 9c bc 0c f2 b9 3e 31 a5 93 3e
       -0.00602711 -0.019066768 0.3631748 0.2883697
000050 7e 6d 1f be 8c d7 dd bd 1a 8b 86 3d 53 0c 7c bd
       -0.15569112 -0.10832128 0.065695 -0.06153519
000060 06 c3 b0 39 84 27 c2 bc 75 81 b9 3e 9c 08 97 3e
       0.0003371464 -0.023700483 0.3623158 0.29498756
000070 cc 7d 05 be 50 7f bc bd ff 54 08 bf 9b a2 ad be
       -0.13036269 -0.092039704 -0.53254694 -0.3391312
000080 78 1e 2c be 34 fa c7 bd 6b 61 18 be b2 5f 41 3d
       -0.16808498 -0.09764519 -0.14880912 0.047210403
000090 3d 39 38 3d f1 30 fa 3b 72 ea cb 3e dc 6d b4 3e
       0.04497646 0.007635229 0.39827305 0.35240066
0000a0 ca 20 62 3e 08 7e 8b bc 03 85 37 3e 50 a9 d6 bd
       0.2208282 -0.01702787 0.17921834 -0.104815125
0000b0 5b 68 14 bd 91 92 89 bd 55 0a ab 3e 39 30 79 3e
       -0.036232334 -0.067174084 0.3340632 0.24334802
0000c0 15 04 54 be 16 b8 ff bd b3 00 8c bd 90 52 a3 be
       -0.20704682 -0.124862835 -0.06836071 -0.31898928
0000d0 d1 19 27 be c3 eb 0b be 3c 5f 83 3c 14 a5 fe bd
       -0.16318442 -0.13664155 0.016036622 -0.1243383

Detokenizer.cat_recons.0.weight f4 [2, 4]
000000 df 9e d1 3e 31 90 b4 be 6c d3 b8 be b0 d7 c0 be
       0.40941522 -0.3526626 -0.36098802 -0.37664557
000010 e5 03 36 3f 79 96 0e 3f 23 c7 bf bd d5 c6 dd 3e
       0.7109969 0.55698353 -0.09364154 0.4331576

Detokenizer.cat_recons.0.bias f4 [2]
000000 bf 9a e1 3e fe a3 0b 3e
       0.44063374 0.13636777

Detokenizer.cat_recons.1.weight f4 [2, 4]
000000 af 7f a4 3e 79 3c 7e 3f 60 b9 dd bd 17 e5 8f be
       0.32128665 0.99311024 -0.10826373 -0.2810447
000010 00 4b 3c bf 69 9a 9d be a2 d2 92 be 3f 21 d4 bc
       -0.7355194 -0.30781868 -0.28676325 -0.02589476

Detokenizer.cat_recons.1.bias f4 [2]
000000 39 ee 00 bf 24 a3 b9 be
       -0.503635 -0.3625728

Detokenizer.cat_recons.2.weight f4 [7, 4]
000000 e5 f8 25 bf 96 b4 99 3e 2b be 38 bf 2b ba 8c bd
       -0.6483291 0.3002059 -0.72165173 -0.06871446
000010 5d 0e 17 3f d1 07 3f bf 85 8b 21 3f 86 57 37 3e
       0.5900629 -0.746213 0.63103515 0.17904481
000020 ea dc 31 bd 69 9f 36 3f e1 fd 30 bf 75 7f 12 bc
       -0.04342357 0.7133699 -0.6913739 -0.008941521
000030 2e 40 8c 3e fe e2 da 3d 2c 45 b4 be 62 e2 8b bf
       0.27392715 0.106878266 -0.35209024 -1.0928462
000040 5e 3c 00 3d b8 49 08 bf 5d 02 1d bf 23 d0 31 3e
       0.03130757 -0.53237486 -0.6133173 0.17364554
000050 46 99 b1 be c3 a1 96 3e 37 05 b0 3f 23 a1 a7 3e
       -0.3468725 0.2942029 1.3751591 0.32740125
000060 5f 59 26 be 34 d3 cb be ce a4 0b 3f ac f3 04 bf
       -0.1624503 -0.39809573 0.54548347 -0.51934314

Detokenizer.cat_recons.2.bias f4 [7]
000000 3d c1 52 be d9 18 5d 3d 9d dd d1 3e f4 53 5e be
       -0.20581527 0.053978775 0.4098939 -0.21711713
000010 fc d8 4a be cd b9 88 be f6 c6 b1 be
       -0.19809335 -0.26704255 -0.34722108

Detokenizer.cat_recons.3.weight f4 [4, 4]
000000 fe 18 e9 3b 87 53 a2 be 78 f7 97 3f d3 f4 1f 3e
       0.007113575 -0.3170435 1.1872396 0.15620737
000010 cf 83 11 bf fd fb 43 bf b4 ba 51 bf 2a f9 06 bf
       -0.5684175 -0.7655638 -0.8192551 -0.52723944
000020 7d d3 4c 3e d8 31 c0 3e fd e1 d2 3e e3 11 bd 3e
       0.20002551 0.37538028 0.4118804 0.3692771
000030 d7 d3 ba 3e 8e 47 fa be 86 5a ba 3c 68 9f 28 bf
       0.36489746 -0.48882717 0.022748243 -0.65868235

Detokenizer.cat_recons.3.bias f4 [4]
000000 56 0f 0c bf 83 9b e8 bc f2 cc 5d 3e 4c f7 70 3e
       -0.547109 -0.028394466 0.21660212 0.23531836

Detokenizer.cat_recons.4.weight f4 [11, 4]
000000 07 da 19 3f 46 d7 e7 be e8 ed 03 bf 2e 57 6f bf
       0.6009831 -0.45281428 -0.5153489 -0.934924
000010 15 57 08 be 5b 1c 90 3f 7e df fe be a9 48 12 3e
       -0.13314469 1.1258653 -0.49779886 0.1428553
000020 20 0c 36 bf 01 b3 4d be 76 b2 25 3f 83 1b 26 bc
       -0.7111225 -0.20087816 0.64725435 -0.010138395
000030 fc 76 89 3e c1 c1 4f bd 8f 2c 69 bf c8 32 56 3f
       0.2684859 -0.050721887 -0.91083616 0.83671236
000040 b3 d9 8d 3c 2a 8f da be 35 46 b4 3f 79 ca 48 be
       0.017315721 -0.4268735 1.4083925 -0.19608487
000050 3e dd 6a be 21 89 24 3f d0 0d 7a 3f 37 31 0a bf
       -0.2293596 0.6427174 0.97677326 -0.53981346
000060 37 e1 0c bf 1b f1 00 be d4 ed 1e be 83 66 54 3f
       -0.5503115 -0.12591974 -0.15520412 0.8296892
000070 92 ad 81 3f c8 74 ba 3e 2c b9 dc 3d ec 41 ec 3e
       1.0131094 0.36417222 0.10777506 0.46144044
000080 53 f1 45 3f c4 25 d5 be e9 03 27 3f d3 3e 19 3f
       0.77321357 -0.41630375 0.6524034 0.5986149
000090 cf 6e 64 be 11 2b 6a bf 22 07 39 be 75 59 93 bd
       -0.22307895 -0.91471964 -0.18069127 -0.07194797
0000a0 03 6f 2d 3f cd 9f f7 3e d6 db b1 3e 0a a7 e8 be
       0.67747515 0.48364106 0.34738034 -0.4543994

Detokenizer.cat_recons.4.bias f4 [11]
000000 55 44 03 bf ce ab a8 3e 52 da fb bd 18 a6 12 be
       -0.5127614 0.32943577 -0.12297501 -0.14321172
000010 53 92 85 bf f6 21 1f bf 95 88 4d be d4 90 8f 3e
       -1.043528 -0.62161195 -0.20071633 0.28040183
000020 6b 8e df 3e 94 ea 80 be 0d 6b 0b bf
       0.43663344 -0.2517897 -0.5446022

Detokenizer.cat_recons.5.weight f4 [11, 4]
000000 0d ce 15 3f 04 13 f0 3e ec 00 b3 bd e4 bf 82 bd
       0.58517534 0.46889508 -0.0874041 -0.063842565
000010 19 7e a2 3e 76 db 23 bf 32 19 30 3f 1f 69 22 bf
       0.3173683 -0.64006746 0.68788445 -0.6344165
000020 c1 71 2e bf 49 18 18 3e 41 d8 6e 3f 73 67 5b be
       -0.68142325 0.14853014 0.9329873 -0.21426181
000030 fb 9b 4f be 75 b8 71 3e 12 45 de 3d 38 58 81 bf
       -0.20274346 0.23605521 0.10853018 -1.0105047
000040 5b 58 65 3f 9f bc 6e be 87 0f 3b bf 28 7f ff 3e
       0.89587945 -0.2331414 -0.7307057 0.499017
000050 82 59 e0 be 46 17 8f bf 05 a2 aa bf fe 28 55 bf
       -0.4381829 -1.1178977 -1.3330694 -0.83265674
000060 71 6a 50 be 22 74 e2 be 06 87 a3 be 19 20 6c 3f
       -0.20353104 -0.44229227 -0.31938952 0.9223648
000070 61 ac dd 3e da b4 65 bf 6b 4a 63 3f a0 fa 52 3f
       0.43295577 -0.8972908 0.8878543 0.82413673
000080 b1 7c 0e 3f e6 09 81 be ca 39 17 bf 0b 6a 78 bf
       0.55659014 -0.25202864 -0.59072554 -0.9703681
000090 46 88 5f bf 19 a2 6c 3e 36 8b 26 bf 24 01 8b 3e
       -0.8731731 0.2310871 -0.6505617 0.27149308
0000a0 6f 53 5b 3f 9a ba 3e bf 5d 5e 83 be c6 03 73 bd
       0.85674185 -0.7450348 -0.2565793 -0.05932977

Detokenizer.cat_recons.5.bias f4 [11]
000000 6f 2c e8 3d 5d 61 15 3e 51 70 1c 3f eb 9b d9 bd
       0.113366 0.14587922 0.6110888 -0.10625442
000010 fa 67 00 3f 63 c3 b0 be 3f 6e 1f bd a5 c0 cf be
       0.50158656 -0.34524068 -0.0389235 -0.40576664
000020 42 d3 c2 3d 16 89 e8 be 97 ef 91 be
       0.095129505 -0.45417088 -0.28503105

Detokenizer.cat_recons.6.weight f4 [11, 4]
000000 fc 68 eb 3e 4e 90 01 3f dc d3 04 3f 36 35 3d bf
       0.45978534 0.50610816 0.5188577 -0.7390932
000010 b6 1f 00 bf d8 e5 26 bf fd ed a6 bf 8a fe 0f 3f
       -0.5004839 -0.65194464 -1.3041378 0.5624777
000020 2c d9 21 3e cd d6 1c bf 29 e6 1b 3f e2 79 32 bf
       0.15805501 -0.6126526 0.6089807 -0.6971723
000030 e0 1d eb be a9 fc 92 3e c1 6d ff 3e 7a ba b2 3f
       -0.4592123 0.2870839 0.49888423 1.3963158
000040 f7 ea 6a bf 11 d3 ba 3e 52 38 a8 bc 6a da 5d 3e
       -0.9176478 0.36489156 -0.020534668 0.2166535
000050 5e e3 7c 3f c6 d0 99 be dc 80 d4 bd e7 14 86 3e
       0.98784435 -0.30042094 -0.103761405 0.26187822
000060 e2 63 cb be b7 6d 90 3f b9 d0 ac be 13 0c ae 3e
       -0.39724642 1.1283482 -0.33752993 0.33993587
000070 dd 54 da bd db f5 38 be b9 e4 c7 3f 68 d2 f2 3e
       -0.10660718 -0.18062536 1.5616676 0.47426152
000080 b9 6c 30 3f 5c f0 f8 3e 43 e0 55 bf a2 b5 0f 3e
       0.689159 0.4862088 -0.8354532 0.14034131
000090 9e 93 91 3e fc 5c 8a 3e 17 cb 23 bf 22 79 8a 3f
       0.28432935 0.27024066 -0.63981766 1.0818217
0000a0 d1 5a b2 3e e3 70 15 bf fe eb 8f 3e 46 6f 78 3f
       0.34834912 -0.58375376 0.28109735 0.9704479

Detokenizer.cat_recons.6.bias f4 [11]
000000 ab b7 fb 3d e5 08 8a be 1c 28 df bd 67 63 60 3e
       0.12290891 -0.2695991 -0.10896322 0.21912919
000010 ba cc 83 3e 0f 0d e2 3d 94 7e cf 3e b7 be b2 be
       0.2574213 0.11037647 0.4052626 -0.3491113
000020 e7 6c ca be 3d 44 f9 be 34 2f 8a 3e
       -0.3953621 -0.48684874 0.26989138

Detokenizer.cat_recons.7.weight f4 [11, 4]
000000 b3 ff 99 3e e8 cb 3f be ce 24 6b bf 6a 94 ed 3e
       0.30077896 -0.18730128 -0.91853034 0.46402293
000010 08 68 04 3f 22 0d 2c 3f 46 ca 34 be 31 37 7f 3e
       0.5172124 0.6720754 -0.17655286 0.24923398
000020 68 5f 2d 3f c7 46 2d bf 30 0a c1 3d b1 d6 e9 be
       0.67723703 -0.6768612 0.09425771 -0.4567161
000030 71 41 35 bf 95 31 6a 3f f2 fc 33 3f 87 78 0b bf
       -0.7080298 0.91481906 0.7030784 -0.54480785
000040 8a 83 ac 3e 59 af 97 3e 36 0e 85 be 97 40 93 bf
       0.33694106 0.29625967 -0.25987405 -1.1504086
000050 a2 f2 38 bf 5d 59 2a bd 78 3d 0e bf 80 82 c0 3e
       -0.7224523 -0.04158913 -0.55562544 0.37599564
000060 6a da 82 bf 00 11 d7 3e 19 ab c4 bd 93 1c 4f bf
       -1.0222905 0.42005157 -0.09602947 -0.80902976
000070 bc 59 1c bf 5b ec 77 3f 23 09 08 40 d2 62 d3 3e
       -0.61074424 0.96845025 2.1255577 0.4128633
000080 02 da 55 be 53 ca f6 be 5c 84 1f 3f 65 a4 0d bf
       -0.20883945 -0.48201236 0.6231134 -0.5532897
000090 db f9 7b 3e b8 65 2e bf 80 31 1a 3f e0 d1 50 3f
       0.24607031 -0.6812396 0.6023178 0.81570244
0000a0 60 eb e0 be ff f4 bb be 80 db 91 3f 77 b2 80 3e
       -0.43929577 -0.36710355 1.1395111 0.25136158

Detokenizer.cat_recons.7.bias f4 [11]
000000 6d 50 c4 3e cd 4c a6 be 24 d9 ca be ba 82 dc be
       0.3834261 -0.3248047 -0.3961879 -0.43068486
000010 b5 5a f6 be a5 a8 9f 3d e5 a6 82 3e 9e 25 84 bd
       -0.4811608 0.07795838 0.25517955 -0.064524874
000020 f1 a1 c4 3e b5 80 93 3d ae 55 a3 3e
       0.384048 0.07202283 0.31901306

Detokenizer.cat_recons.8.weight f4 [10, 4]
000000 b5 d4 e0 bd 28 9b 20 3f 30 1e 87 bd 95 31 3a bf
       -0.10978071 0.6273675 -0.06597555 -0.72731906
000010 98 26 18 bf 48 d1 fc be ec 6f 5c 3e f7 29 5e bf
       -0.5943389 -0.4937842 0.2152707 -0.86782783
000020 f8 42 10 3f 65 66 e2 be cb e4 bd bd be 0b 0d bf
       0.56352186 -0.44218746 -0.092721544 -0.5509604
000030 01 99 a0 be 51 42 8e 3d 76 93 1d bf 72 df 93 3f
       -0.31366733 0.069462426 -0.6155313 1.1552565
000040 11 49 93 3e 21 3b b1 be ca c1 e5 3f d7 fa 72 3f
       0.28766683 -0.34615424 1.7949765 0.94914
000050 d9 c1 83 bf bc 90 cf 3e 25 a7 6b bf 0f f6 f6 3e
       -1.0293533 0.4054011 -0.9205192 0.48234603
000060 d1 10 0c bf 0e 3c 0e 3e 45 ba 92 3f 00 e2 60 3f
       -0.5471316 0.13890097 1.1463095 0.8784485
000070 d6 4f c8 3d de 3a 36 bf d7 0b 93 be 27 42 88 3e
       0.097808525 -0.71183574 -0.2871997 0.2661297
000080 44 db e7 3e b8 94 c7 3e c0 0b c4 3d a6 a4 09 3f
       0.45284474 0.3898065 0.09572554 0.5376686
000090 95 15 6c bf f7 18 0e 3f 67 af 86 3e cb 9d 78 be
       -0.9222043 0.55506843 0.26305696 -0.24278943
