tabsyn/vae/ckpt/default/encoder.pt (torch, 23295 bytes, 33 tensors)

Tokenizer.weight f4 [15, 4]
00000000: 05dc e83d 10dc 9ebe 7c12 59be 6394 e1bd
00000010: 12f7 2b3d d715 0a3e 17d9 843e fcb6 793e
00000020: c9fa 8dbe b42f 073e d37f 623e d535 753c
00000030: 2aeb 04b9 ea8c 6f3e 3519 a03e ff22 dd3e
00000040: 644e c83d ea5a f53e 18e6 033f 6f15 373f
00000050: 8674 efbd b372 223d fd4d 3b3e 70b0 263e
00000060: 2ebd ddbd 24e8 44be ca47 613e a722 523d
00000070: 9bcf 1ebd 2926 d83d 255d c93e b7ff b13e
00000080: ba4b d5be b96b fbbe f7d2 c2be 9f71 0cbf
00000090: 003f 4dbe 3e9e a1be fc54 853d 2ff6 bdbd
000000a0: 4660 18be cb2d c93d 707d 4e3e f080 9e3e
000000b0: fed8 c63e 4eec a6be 58f5 dcbd c3a0 e2bd
000000c0: d4bc e23d 382c 64bc 5be6 a53e 9627 a13e
000000d0: 568d 343d 3b7c debe 288a 3b3e c1ec 63be
000000e0: c191 9ebe 5581 eabb e38e 833e 9008 c63c
0.113700904 -0.3102727 -0.21198457 -0.11014631 0.04198367 0.13484894 0.25946876 0.24386209
-0.27730396 0.13201791 0.22119074 0.014966448 -0.00012676106 0.23393598 0.3126923 0.43190762
0.09780577 0.47920924 0.5152297 0.7151708 -0.11692147 0.039660167 0.18291469 0.16278243
-0.10827099 -0.1922918 0.22000042 0.05130258 -0.038772207 0.105541535 0.39328876 0.34765407
-0.41659337 -0.49105623 -0.38051578 -0.5486087 -0.20043564 -0.31566042 0.0651035 -0.092754714
-0.14880475 0.098231874 0.20165038 0.30957747 0.38837427 -0.3260216 -0.10788983 -0.11065819
0.11071172 -0.013926558 0.3240231 0.31475514 0.0440801 -0.43454155 0.18314421 -0.22258283
-0.30970576 -0.007156531 0.2569495 0.024174005

Tokenizer.bias f4 [24, 4]
00000000: 8b07 8e3e 3104 f9be f07d d83e 6642 ec3e
00000010: b6af abbe 5121 b73e 7ee0 ca3d d43d 06bf
00000020: a307 e9bd 77db 493e 3b32 063f 0906 c3be
00000030: 8c6e 1a3e 0df8 123f f98d d4be aa31 81be
00000040: 0afb 7abe 5f16 25bf 0faf 643e 5863 87be
00000050: fe25 b4be dc8a e43e 8bb0 8ebe cc2b e73e
00000060: 25a6 76be 0713 92be e9e4 29bf 3eac 113f
00000070: 798b 243f a9a6 ffbc 8ce0 abbe 12e4 993e
00000080: 2324 12bf 7c5b 94be 449f eebe dfd8 863e
00000090: 3d0a ae3d dab8 833e c085 b83e c7ce a0be
000000a0: 6e05 64be 817a 133f 41bb 9fbe cce8 07bf
000000b0: d561 423e 718a bebe 5cbd a23e 84e8 63be
000000c0: ad26 1a3f 1004 a43e d0ef c3be 38d2 0e3d
000000d0: 34e2 89be 4d95 103f 14d6 d8be 53a6 f33e
000000e0: fbe9 97bd 413f ad3e bb29 6abd eead 0ebe
000000f0: d297 fabe a714 683e a642 debd ded9 e1be
00000100: ca60 bf3d c5a9 f83e 8e9a 973e d91c cb3e
00000110: a82f 20be 3a86 c83e 0fa9 613e 7ad3 bb3d
00000120: 683b bb3d 2705 a5be b597 b23e f246 8dbd
00000130: e4fd 69be 2299 32be 4032 b33e 4b55 7bbe
00000140: ed9d 903d 3806 dc3d b1e3 f13e f444 033e
00000150: 08fe d0be b325 9bbe fe21 afbe b58e b9be
00000160: 8964 333d 8353 353e aab5 733d 7a3f 833e
00000170: 000c 3ebd 0152 b6be 1ac6 453e d22d f93d
0.2774013 -0.4863601 0.42283583 0.46144408 -0.33532494 0.35767606 0.099061 -0.5243809
-0.1137841 0.19712625 0.52420396 -0.38090542 0.15081233 0.57409745 -0.41514567 -0.25233203
-0.24509826 -0.6448726 0.22332405 -0.2644298 -0.35185236 0.4463719 -0.27869067 0.45150602
-0.24086817 -0.28530142 -0.66364914 0.56903446 0.6427532 -0.0312074 -0.33569753 0.30056816
-0.5708639 -0.28976047 -0.46605885 0.26337335 0.084980465 0.25726968 0.36039543 -0.3140776
-0.22267696 0.576088 -0.3119755 -0.53089595 0.18982632 -0.37214997 0.31785095 -0.22256666
0.60215265 0.3203435 -0.382689 0.03486845 -0.26930392 0.56477815 -0.4235083 0.47587833
-0.07417675 0.3383732 -0.057168704 -0.13933536 -0.48943955 0.22664128 -0.10852556 -0.44111532
0.09344633 0.48567024 0.29610103 0.39670447 -0.1564318 0.39164907 0.22037147 0.09171195
0.0914219 -0.32230493 0.34881368 -0.06898297 -0.22850758 -0.17441228 0.34999275 -0.24544255
0.07061372 0.10743374 0.47244027 0.12819272 -0.4081881 -0.303022 -0.3420562 -0.3624169
0.04379705 0.17707638 0.05949942 0.25634366 -0.046398163 -0.3560944 0.19313851 0.12166943

Tokenizer.category_embeddings.weight f4 [79, 4]
00000000: abdc 9c3e a909 38be b49b 113f f379 26bd
00000010: 882f 1cbd a6d3 5e3e a06a 3d3e c0a4 2f3e
00000020: e69e a23e b236 43bd 27dc 253c ba82 ba3e
00000030: 8140 adbe 62d7 43be 54d4 07be 18af 223e
00000040: 847d 7fbf a6ca a43e c073 443f 42b1 8abf
00000050: c0e3 ac3d d707 20be 90c6 adbe ca25 84bd
00000060: 46ff 533d 3923 8f3e 773d 01be 0fe3 f9bd
00000070: b7a0 5b3e fb83 6e3e e841 e5be 5fd5 13be
00000080: 5bda 46bf 59df 7bbe 49f4 9bbe 2998 1cbf
00000090: c569 2cbf 5a5d 98bd 846c 763f bf68 0f3f
000000a0: f016 57bf 1b93 a0bf 51b7 3abe 2240 b1bf
000000b0: d297 5b3f 9f20 da3e 1959 1f3f bd47 613f
000000c0: af69 2c3e 697f 5bbe 3443 e93b a398 f7bc
000000d0: 5538 cd3d 0b8d 963d cbb9 2dbe ac31 d4bd
000000e0: 7770 833e 4051 e13d e0f7 80be 36b4 833e
000000f0: 4f22 003f cba5 c4be 25bb a3be a0e7 a7bf
00000100: 5470 923e 0724 99bc 83e3 c5be f1b8 6e3e
00000110: b35d f4be caa9 5a3e 3175 8abc 1900 3bbe
00000120: 6fde b1be 7792 8f3e 91c0 debe 566c 5fbe
00000130: de54 2dbd 5736 5ebe 9245 3e3f 6549 b5bd
00000140: 81b6 0b3e 6d41 e23e 5b07 8bbe f51d 103e
00000150: 4e33 aebe b450 e13d 7f3d 89be 5f5f 573e
00000160: 3f81 3a3f 8019 ac3e 370a 1f3e 5b96 143f
00000170: 8d0c f03e e67e 833f b431 bb3e cfb3 813f
00000180: 7583 e2bd 610c 273f cd40 d43d 9936 41bf
00000190: 3564 963f 48dc c83e 7907 48bf 0d1d 393d
000001a0: b8d4 b33e aef5 dd3e 6b2d f7be eb54 27b9
000001b0: 846c d83e 1ab9 943d 863a 003f b1a4 56be
000001c0: b7c8 6b3e 6eb1 b03e 1d73 b63e 9171 ea3e
000001d0: ac8b 193f 9c28 a9bd f3d6 d9be e990 843e
000001e0: 5224 9abd 3dce 223f 06de a7be d0f3 fc3d
000001f0: 1824 16bf b48e 87be bc80 21bf 812e afbf
00000200: 36de acbe 786d e83e ad76 babd e07d 0a3e
00000210: 14d1 f9be 65be 44bd d9af c1be 707b 173f
00000220: a60a 693f 1735 79bf 7c1b 03bf f417 733c
00000230: 30eb 57be 8802 0cbf 9a34 93be b08c 6e3e
00000240: 1e92 0f3f b9e0 93be bd29 00be 4452 ab3e
00000250: bf07 343e bddd a5be 8f16 06bf 78f6 ba3c
00000260: 1823 34be 3509 e33c 0686 8bbe 2e6b 80be
00000270: 8c80 9b3e 214d 013e a2e3 543e bc78 9dbd
00000280: 589d f7bf f8f4 4bbf 0aee 4b3f 4f33 0740
00000290: 9121 4abe f4f7 4f3e b17c b93e cb00 0abd
000002a0: 93bc d93e 7d98 89be 7f95 0dbd 799d 5f3f
000002b0: 4ffe 293f 0f1b b33f c29c bfbf d5c2 35bf
000002c0: 2c7c 013f d097 243f 2177 983e 7a68 453f
000002d0: e38d d33e 7d72 693e 30d0 88be 30f1 03bf
000002e0: ebe4 683d 8dc7 6a3f 62f8 273e 8860 cd3d
000002f0: 7d62 87be 05f5 933e 225c 813d 0b65 913f
00000300: 8501 233d 3716 4abe 4c7e 6e3d 7fef 3f3e
00000310: 68b2 a13b dab2 323e 3a2c 05be dec4 3fbe
00000320: 10b2 40bc 2346 ed3d 5de8 fbbd 087b f03d
00000330: b415 ce3e 19c3 373e 47aa 8d3d a359 2f3c
00000340: 5b86 013f 786b dfbe 4ddc 1bbe c188 ba3e
00000350: a92a a3be 8f28 d3bd 0530 c03d 1daa adbd
00000360: 91a3 c2be 7bbe 03be 2412 4e3e 1651 2dbf
00000370: 8f83 06bf 7fe4 b23d bbd7 d93f 734d 903f
00000380: 2f72 b93e b307 243c f977 393d cc37 ab3d
00000390: 1150 873e e27a 8c3f 7e68 8c3f 614d 1540
000003a0: de90 07bf 5e19 29be 7219 a3bc d4ce 113e
000003b0: ecd8 183f 8296 fc3e 7dc1 e23d 9a8b 4fbd
000003c0: 7700 053e b494 583d d0cb 113f 8015 f6bd
000003d0: a49f 9c3d 62da dcbe c13c 9bbe a452 54be
000003e0: ff69 65be 6988 bc3e ef1b 933e a165 efbd
000003f0: 1f83 ba3e 18e2 ad3e 9e52 f63e 2266 d43e
0.30637106 -0.17972435 0.5687821 -0.040643644 -0.038131267 0.21760425 0.18497705 0.17152691
0.31761855 -0.047659583 0.010123289 0.3642786 -0.33838275 -0.19125131 -0.1326459 0.15887105
-0.99800897 0.32185858 0.7673912 -1.0835345 0.08441877 -0.1562799 -0.33940554 -0.0645252
0.05175712 0.2795656 -0.12621103 -0.12201511 0.21448027 0.23292534 -0.44776845 -0.14436863
-0.77676934 -0.24596919 -0.30459812 -0.6116968 -0.6734889 -0.074396804 0.9625933 0.56019205
-0.84019375 -1.2544893 -0.18233992 -1.3847697 0.85778534 0.42603013 0.6224533 0.8800009
0.1683719 -0.21435322 0.007118607 -0.03022415 0.1002051 0.073511206 -0.16965406 -0.10361037
0.2567174 0.11001825 -0.25189114 0.25723428 0.5005235 -0.3840774 -0.31978717 -1.3117561
0.28601325 -0.018693937 -0.3865014 0.23312737 -0.47727737 0.21353832 -0.016901584 -0.18261756
-0.34740016 0.2804143 -0.43506292 -0.2181867 -0.042317264 -0.21700417 0.74324906 -0.088518895
0.13643838 0.4419054 -0.2715405 0.14073928 -0.34023517 0.11001721 -0.2680473 0.21032475
0.72853464 0.33613205 0.1553124 0.58041924 0.46884575 1.0273101 0.36561358 1.0132998
-0.1106023 0.65253264 0.10363922 -0.75473934 1.1749331 0.3923056 -0.781364 0.04519372
0.3512323 0.433515 -0.4827684 -0.00015957995 0.4227029 0.07261868 0.500893 -0.20961262
0.23025785 0.34510368 0.356347 0.4578977 0.5997875 -0.08259699 -0.42546806 0.25891808
-0.07526459 0.63595945 -0.32786578 0.12351191 -0.58648825 -0.2647606 -0.6308706 -1.3686067
-0.33763283 0.45396018 -0.09104667 0.1352458 -0.48792326 -0.048033137 -0.37829474 0.59172726
0.91031873 -0.97346634 -0.5121381 0.014837254 -0.2108581 -0.5469136 -0.2875107 0.23295856
0.5608233 -0.28882387 -0.12515922 0.334612 0.1758108 -0.32395735 -0.5237817 0.022822604
-0.17591512 0.027714351 -0.2725069 -0.25081772 0.3037151 0.12627079 0.2078996 -0.07689044
-1.9344893 -0.7967067 0.79660094 2.1125066 -0.19739367 0.2030943 0.36227944 -0.033692162
0.42526683 -0.26874152 -0.0345664 0.8734966 0.6640367 1.3992633 -1.4969714 -0.71000415
0.50580096 0.6429415 0.29778388 0.77112544 0.41319188 0.2279758 -0.26721334 -0.515399
0.05685894 0.9171074 0.16403344 0.100281775 -0.26442328 0.28897873 0.06316401 1.1358961
0.03979637 -0.19735037 0.058225915 0.18743704 0.0049345978 0.17451039 -0.13005152 -0.18727443
-0.011761203 0.11585643 -0.12300179 0.11742216 0.40250933 0.17945518 0.069172435 0.010702523
0.50595635 -0.4363668 -0.15220757 0.3643246 -0.31868485 -0.1031047 0.09384159 -0.08479712
-0.38015416 -0.12865631 0.20124108 -0.6770185 -0.5254449 0.087349884 1.7018961 1.1273636
0.36219928 0.010011601 0.04528043 0.08360252 0.26428273 1.0975001 1.0969388 2.3328478
-0.52955425 -0.16513583 -0.019909594 0.14239055 0.59705997 0.49333578 0.11072061 -0.050670244
0.12988459 0.05287619 0.5695162 -0.120158195 0.076476365 -0.43135363 -0.3031979 -0.2073465
-0.22403716 0.36822823 0.2873225 -0.11689306 0.36428162 0.33961558 0.48109907 0.4148417

VAE_Encoder.layers.0.attention.W_q.weight f4 [4, 4]
00000000: 537e 0b3e 8d0e ac3d e9b7 e7be c9fd 6dbd
00000010: c110 0bbe 96e2 09be d9dc 51bf b12b 393d
00000020: afad a8bc 3d5a 143f 976e d73e d0ad debd
00000030: d011 b43e 71af 883b 1012 11be 6875 9a3e
0.13622408 0.08401213 -0.452575 -0.058103357 -0.1358061 -0.13465342 -0.8197761 0.045207683
-0.020590631 0.5795019 0.4207656 -0.10872996 0.3516984 0.004171305 -0.14167047 0.301677

VAE_Encoder.layers.0.attention.W_q.bias f4 [4]
00000000: 543c 413f 70f6 9abe e941 623e 69fe 32bd
0.7548268 -0.30266142 0.22095455 -0.043699656

VAE_Encoder.layers.0.attention.W_k.weight f4 [4, 4]
00000000: 6ece fb3e 17a1 2bbf 5f31 a33e e2c7 2abe
00000010: a232 cfbd 8993 e2bc 2568 e8be 712e c4be
00000020: f31a 7e3e d9f7 9b3e 639e e73e ecec 0dbf
00000030: 7db7 5f3e eeed 7f3e 4604 b53e a1ff 3bbc
0.4918093 -0.6704268 0.31873605 -0.16677812 -0.10117079 -0.02765824 -0.45391956 -0.38316682
0.24814968 0.3046253 0.45238027 -0.5543964 0.21847339 0.24993107 0.35354823 -0.011474521

VAE_Encoder.layers.0.attention.W_k.bias f4 [4]
00000000: 833a c038 4e7f 1db9 8d70 9fb8 f173 33b8
9.166172e-05 -0.00015020111 -7.602675e-05 -4.2784905e-05

VAE_Encoder.layers.0.attention.W_v.weight f4 [4, 4]
00000000: 5f11 873d 86b9 603e 4620 093e e9e2 f7bd
00000010: 1e5e 613d 37e5 2d3e 301b cd3d 98dd acbd
00000020: 80fb 773d 3fe2 493e 330c f13d bdc2 dabd
00000030: 07f5 6e3d 79e4 373e 0af1 db3d 8ba7 bfbd
0.0659511 0.21945772 0.13391218 -0.121038266 0.055021398 0.1698197 0.10014951 -0.08440703
0.060542583 0.19715212 0.11769905 -0.10681675 0.058339145 0.17958249 0.10739334 -0.09358128

VAE_Encoder.layers.0.attention.W_v.bias f4 [4]
00000000: 6047 d93d 6c0e b23c 9e55 d7bb 97df 03be
0.10609317 0.021735393 -0.0065714857 -0.12878262

VAE_Encoder.layers.0.linear0.weight f4 [128, 4]
00000000: 1941 c5be b1ac cdbe f5bd 2a3e a753 823e
00000010: 2778 09bf e2f5 cd3e 3777 b5be fdcf eb3c
00000020: 7fd3 7a3e 04d4 9e3d 9c11 e5be 2134 ad3d
00000030: 4017 9f3e 9d53 17be d409 143f 2d32 473e
00000040: 00dc 4a3c e077 ffbd c04d 64be c014 3bbe
00000050: 28d3 c0bc 63df 11be 1fa8 d6bc 0728 55bd
00000060: 7077 bd3e 8d93 8f3b 1bcb babe de12 a0bd
00000070: a690 e23e 1cf2 7d3e 36ee 973e 8022 443e
00000080: f3c9 abbe a697 39be 630d febe bd57 013f
00000090: da68 79be a39d 0a3f 5aef 06bd ee96 083f
000000a0: 1a89 8bbe d627 dd3e 1ffb f5bc cadd e3be
000000b0: 62ff 20be 7c10 723e 3586 dd3e 10b8 8f3e
000000c0: 59de 34bd 316b e2be 65c7 a13c ec49 a1be
000000d0: 3e27 81be 5304 14bf 9d8c 16bf 48c6 023c
000000e0: 7cf8 e33e 8b40 ed3e 023e 44be e021 373e
000000f0: ab25 c53e 6a99 6b3d 7385 ba3e caee 613e
00000100: 3958 e3be 45e8 a4be 5452 8cbe 60c4 823e
00000110: 317c 95bd 4690 6f3d d852 a43e 2d7a fabe
00000120: 0829 a63e 85de d8be 5e67 10bf e949 cebe
00000130: 2910 06bd 4f25 eebe 43ff c1be ab12 d3ba
00000140: 720a c23c 77da 073f 0ec1 9739 0b89 d2bd
00000150: e135 b3be 3f40 a13e 565a 4d3e f77b 96be
00000160: 191a 8abe 0975 bebe 9e99 b3bd 8a54 023f
00000170: 9f94 8b3e c7e9 81be 63fa 0f3e 895c 30be
00000180: 9fff cbbe 3044 a33e 0071 8dbe 4b0a 1a3e
00000190: 26ee d1be a5b5 6f3d 35cb 093e 9463 49be
000001a0: 6259 19bf 49dc ae3c 60f9 cebe c009 b33e
000001b0: 2f67 0ebf 3164 d53e 4df7 a7be 18e9 cb3e
000001c0: cc49 1abf 4c86 f9bd f98f e13c fb11 883e
000001d0: f3e8 703e c21d a2be 605e b1be 4aaf b63e
000001e0: 717f 18be 7697 6cbe 81de 8e3e 11ff 39be
000001f0: 64e8 1bbe 3105 3d3d a82a 85be a94c b23c
00000200: ae5a a13e a8ae 09bf dbfc 673e 4366 2e3d
00000210: de38 b03e f861 1abe adf4 503b 8d99 66be
00000220: d072 4ebe 2aa3 3cbe b893 a5be ccb8 623e
00000230: 9587 b93d 32a1 e3be 1aa3 85be 6906 313f
00000240: 3158 a43c 7ca3 bcbe acf0 4f3e 50f6 e43d
00000250: 5cdb 863e bc2b b53e b063 60be 7522 9c3e
00000260: 4161 bbbe beaa 9f3e 894f 563e 14c7 babe
00000270: 0a49 f5bd f5c3 7f3e 0fb8 38be 643e b63e
00000280: 0d02 1fbe 89f3 533d 111a 29be d1a7 c6bd
00000290: 2338 703e 5add ce3e 87c0 d9be 59ab 203e
000002a0: 9c2f dd3e 8ce1 0d3f 2f7f 5b3e 53ef f03d
000002b0: 2d73 61be 7b63 4bbd 02c6 81be 1b26 533e
000002c0: d46b d73e a9f8 94be 70d8 ffbd e440 063f
000002d0: 2536 5b3e db37 a53e 2981 183f 2600 98be
000002e0: 7085 f73e a961 02bf 1505 e63b b6a5 e63e
000002f0: 096d 5c3e ced4 b3bd 7b56 01be acae 52be
00000300: 52bf 03bf a146 1bbe 1ded 9fbd dcc2 eebe
00000310: bcbc 8dbd effc febe 3d2e acbe 9e0e ce3e
00000320: 318a cbbe 66f9 1bbf beb8 b4bc a460 c4be
00000330: a9b0 d53e 73ff a2be 9db0 353e 3231 93be
00000340: e2f5 11bf 4d8b 7e3e 5fbb d7be 26eb c73d
00000350: 0874 583d 4d36 df3e 532d c8be faa6 cf3d
00000360: 8d22 45be 40fc af3e b6dc 16bf 48cb d0be
00000370: 8c94 ccbe d807 173d 7cc2 96be 6f02 d7be
00000380: b31b 2cbe 6d35 71bd 46f2 7abe 3430 09bf
00000390: e3a9 38be e9b6 eb3e ee1b 7abe 40e5 ebbe
000003a0: 3937 fdbd 26cb adbe 3d0c d43e 880c 4d3d
000003b0: 87e4 8cbe 09ea 99be 493e e63e a2d7 993d
000003c0: 4189 e3be 18a2 ad3e 9843 073e a879 c5be
000003d0: 6ef0 733e 303c da3e e7cd 49be 17eb 563e
000003e0: af07 863e a57e c33d 7a6c e1be 9f57 6cbe
000003f0: 6958 b53e 8e54 ed3e 70c2 a9be b1ca dfbe
-0.38526228 -0.40170816 0.16674025 0.25454447 -0.5369896 0.40226656 -0.35442516 0.0287857
0.24494742 0.077552825 -0.44739997 0.084572084 0.31072426 -0.1477799 0.57827497 0.19452734
0.012381554 -0.12474036 -0.22295284 -0.18269634 -0.023538187 -0.14245372 -0.026203213 -0.052040126
0.37005186 0.004381603 -0.36483082 -0.07816099 0.44250983 0.24799389 0.29673928 0.19153786
-0.33552513 -0.18124256 -0.49619588 0.50524503 -0.24356404 0.54146785 -0.032943107 0.533553
-0.27253038 0.43194455 -0.03002697 -0.4450515 -0.15722421 0.23639101 0.43266454 0.28070116
-0.04415736 -0.44222406 0.019748399 -0.3150171 -0.25225252 -0.578191 -0.5880831 0.007981844
0.44525516 0.46338305 -0.19164279 0.17884016 0.385053 0.057519354 0.3642994 0.22063747
-0.44403246 -0.32208458 -0.2740656 0.25540447 -0.07299078 0.0584872 0.32094455 -0.48921338
0.3245318 -0.4235727 -0.56407726 -0.40290764 -0.032730255 -0.4651284 -0.37890062 -0.0016103586
0.023686621 0.53067726 0.000289448 -0.10280045 -0.35002044 0.31494328 0.20053992 -0.29391453
-0.26973036 -0.37198666 -0.087695345 0.50910246 0.27261826 -0.2537367 0.14060359 -0.172228
-0.3984346 0.3188796 -0.27625275 0.15042989 -0.41002005 0.05852284 0.13456424 -0.19666892
-0.5990201 0.021345275 -0.40424633 0.34968376 -0.55626196 0.41678002 -0.32805863 0.39826274
-0.60268855 -0.12183818 0.027534472 0.26576218 0.23526363 -0.31663328 -0.34642315 0.3568061
-0.14892365 -0.23104653 0.27904132 -0.18163706 -0.15225369 0.04614753 -0.26009107 0.02176507
0.31514496 -0.5378213 0.2265505 0.042577993 0.34418386 -0.15076435 0.003188412 -0.22519512
-0.20160985 -0.18421617 -0.32339263 0.22140807 0.09059063 -0.4445892 -0.26101 0.69150406
0.020061584 -0.3684348 0.20306653 0.11179793 0.26339233 0.3538493 -0.21913028 0.3049504
-0.36597636 0.31184953 0.20928778 -0.3648001 -0.11976822 0.24977095 -0.18038963 0.35594475
-0.15528126 0.051745925 -0.1651385 -0.09699977 0.23458914 0.40403253 -0.425297 0.15690364
0.43200386 0.5542228 0.21435235 0.117643975 -0.22016592 -0.04965542 -0.2534638 0.20620005
0.42074454 -0.29095963 -0.12492454 0.52442765 0.21407373 0.32269177 0.5957208 -0.29687613
0.48343992 -0.5093027 0.007019649 0.45048302 0.21525969 -0.08780824 -0.12630646 -0.20574445
-0.51463807 -0.15163662 -0.07808898 -0.4663304 -0.06920764 -0.49802348 -0.33629027 0.40245527
-0.3975387 -0.60927427 -0.022060748 -0.3835498 0.41736344 -0.31835517 0.17743154 -0.2874847
-0.5701581 0.24857827 -0.4213514 0.09761648 0.05284503 0.43596116 -0.3909708 0.1013927
-0.19251461 0.3437214 -0.5893053 -0.4078009 -0.39957082 0.036872715 -0.29445255 -0.41994044
-0.16807441 -0.05888884 -0.24506482 -0.5358918 -0.18033557 0.46037987 -0.24424717 -0.4607334
-0.123640485 -0.33944052 0.41415587 0.05006078 -0.27518103 -0.30061367 0.44969395 0.07511832
-0.44440654 0.3391273 0.13209379 -0.3856938 0.23822185 0.42624044 -0.19707452 0.20988117
0.26177737 0.0954564 -0.44028074 -0.230803 0.35419014 0.46353573 -0.33156157 -0.4370933

VAE_Encoder.layers.0.linear0.bias f4 [128]
00000000: c2bb 77bc bc4e 203e 5183 64be 1f21 b63e
00000010: 727d d7be 607b 81be 1248 51bd 42ef e4be
00000020: c12b 3e3e 56d3 cbbe 5400 ae3e 77c4 2cbf
00000030: 023a 0a3e 29b1 b9be 27ac 21be e559 3bbe
00000040: 87dc f3bd 86f5 933d edef 1fbe 9a1e a83d
00000050: 3cb1 37be c955 f4be 6868 08bf 2beb 903d
00000060: 0d13 7a3c e2be b93e e300 f23d 7635 e9be
00000070: 9fdb 2cbf ace9 d43e 051a 17bd 2d10 9b3e
00000080: c50c 24be 7045 ba3e 7e53 893d cf66 94be
00000090: ac9b 3d3e 45a0 a43e fac5 43be a11f b23e
000000a0: 4a56 0c3e 170b ba3e da92 a8bd 6a19 5b3e
000000b0: f108 053e 584f 29bf c97e c23e a974 613e
000000c0: d09f 9c3e 1c6c 18be a062 02bc 14dc 593e
000000d0: 56f0 54be d42b 713e fa4f 083f 7862 20bd
000000e0: 1a28 2fbe 43ea 973e 1a6f e63d 05ce 893e
000000f0: 2ce2 84bc 7265 bebe 3ea1 4e3e eb7c da3e
00000100: 3267 c63d dada 9f3d 6a7d 70be 58b7 ba3e
00000110: 4c3b a1be 7a31 353e f3f7 ff3e d335 b3bd
00000120: 462e b03e d587 843e 7d3a 8e3e 56ed debe
00000130: e08b 9b3e cec1 c33d a4ec a63e 20e5 35be
00000140: dec9 8abe 163f c13e 8615 06bf 91fe f43e
00000150: db71 f3bd 179a e4be 4fac f73e 3614 0f3e
00000160: adf1 aabe 833e f13d cac7 0ebe f22d 76bd
00000170: 2246 e33e b93a 67be 7633 99be 2088 aabe
00000180: 96a2 633e aad8 1fbc e730 0ebf 7bcd bb3e
00000190: 06a7 84be 9a26 efbc 0fb7 7f3d d62f 353e
000001a0: a49d ba3b bebd b93e e993 c1be a544 9f3e
000001b0: 5999 93be 70e7 b9be e31b 64be 23f3 5fbe
000001c0: ae6b 20be f4e5 c93e bc94 b73e a345 e13e
000001d0: c88f 21be a03e f23c ccf2 ba3e 8744 8d3e
000001e0: 024d b7be 64bd 3c3e 1b15 58bd 74b5 74be
000001f0: d306 a4bd 89c8 8e3e d4c1 1b3e 10a0 5bbe
-0.015120449 0.15655035 -0.22315718 0.35572144 -0.42087895 -0.2528944 -0.051094122 -0.4471379
0.18571378 -0.39809674 0.33984625 -0.6748728 0.1349869 -0.36267975 -0.15788327 -0.18296011
-0.11907297 0.07224564 -0.15618868 0.08208962 -0.17938703 -0.477217 -0.5328431 0.07076105
0.015263331 0.36278445 0.118165754 -0.455486 -0.67522615 0.41584527 -0.03689005 0.3028578
-0.16020496 0.36381102 0.06705378 -0.28984687 0.18516415 0.32153526 -0.19118491 0.34789756
0.13704792 0.36336586 -0.08231135 0.21396413 0.12991692 -0.66136694 0.37987354 0.22017159
0.30590677 -0.1488499 -0.007958084 0.2127536 -0.20794806 0.23551875 0.53247035 -0.039156407
-0.17105141 0.29670915 0.1125166 0.26914993 -0.016221128 -0.37186772 0.20178697 0.4267343
0.09687652 0.078054145 -0.23485342 0.36468005 -0.31490552 0.17694655 0.49993858 -0.087505005
0.34410304 0.25884882 0.27778998 -0.43540448 0.30380154 0.0955845 0.32602417 -0.17763186
-0.27107137 0.37743443 -0.5237659 0.4785047 -0.118869506 -0.4464881 0.4837365 0.13972554
-0.3338751 0.11779501 -0.13943401 -0.06010241 0.44389445 -0.22580995 -0.29922074 -0.3330698
0.2222999 -0.009756247 -0.5554337 0.36680207 -0.2590868 -0.029193211 0.062430438 0.17694029
0.0056950618 0.36277574 -0.3780816 0.3110706 -0.28827932 -0.36309385 -0.22276263 -0.21870093
-0.15666077 0.39433253 0.35855663 0.4399844 -0.15777504 0.029570878 0.36513364 0.27591345
-0.3580094 0.18431622 -0.052754503 -0.23897344 -0.08009114 0.2788737 0.15210658 -0.21447778

VAE_Encoder.layers.0.linear1.weight f4 [4, 128]
00000000: 72cf d3bd ba74 ef3d 93b5 10bd 939d 6dbd
00000010: b25f 43bc e938 49bd 831e 11bd 7e0f 82bd
00000020: b02c 0c3e 88b8 ac3d e0fd 5ebd a4d6 b6bc
00000030: 8543 ae3c f0a3 2a3e 7317 7c38 1f20 263e
00000040: c9a6 993d 2063 083d dd01 74bd e050 e1bd
00000050: 731c 96bd e54a f33c 6ead ffbd c7a8 5d3d
00000060: d9b6 99bc cbcf dc3c a591 bb3d adc0 4d3d
00000070: ac1d a23d f5ed c9bd d983 b5bd 07e9 bbbc
00000080: 75aa 22bc 025e 993d 282d 803d 9ff0 ecbd
00000090: 2f10 653d e2d3 adbd 7ccd d3bd 8b4d 12bd
000000a0: 1bad a9bc 03bb 89bd 8f7e 453d 1231 313d
000000b0: 34f0 78bd 9fc0 9dbd d800 9bbd d2fb 7abc
000000c0: 653d cb3c 5263 b7bd 04a3 dabd eff4 bd3c
000000d0: 2fbf 9abc bf2e 913d 03ca 99bd 3dc3 5fbd
000000e0: b6f2 d13c 0e9b a3bd 3885 013d 6a1b dbbd
000000f0: 4042 b0bd e7d6 69bb 5e40 983a a277 f2ba
00000100: 3ee9 b9bd c6b2 923c 4f83 a9bd 0cf6 2bbc
00000110: 3dd6 22bd 64cf 9bbb d0f3 12bd 2f70 aa3d
00000120: a939 a63c b5fb abbd 8706 8cbd a66e 023e
00000130: e297 5b3d e0ad cabd 6876 fcbc bcd9 45bd
00000140: f29a b039 3969 9c3d e1bc 1cbd 3a26 22bd
00000150: 7260 db3d 807a 84bd 5370 f3bd ac1f 1abc
00000160: 6563 a83c 5f25 853c fc05 bfbc 283f d4bd
00000170: 385f f23a d5e3 a23d 9c0e 533e e741 b03d
00000180: a619 a23d 044c f4bd 9757 04be aa1d 1e3d
00000190: f2d7 f8bd d725 91bc cb3c dc3d f143 0cbc
000001a0: 0f45 00bc 1727 a8bd 5bfb 81bd 66b7 803c
000001b0: ce08 c7bb e6b1 c73d 43d9 4d3d 7782 29be
000001c0: 4d6b 103e ed67 203d 226a c4bd 9f13 91bd
000001d0: 0b60 893d ab2c ed3d 560d 36bd b87b 723d
000001e0: b64a a4bd ba84 c33c 0425 22bd b465 1b3e
000001f0: 5101 0b3c 0369 f73c 53f9 95bd 0240 55bd
00000200: 0612 93bd 8b5b 4fbc 5912 8ebd c209 e93d
00000210: 653d a0bd a60c 9dbd 1f63 ae3d 1e8b af3d
00000220: 5f8f 00bd e93a 48be 3ad7 e73d 267c 98bc
00000230: be9e 22be e755 7c3e 9cd4 ef3d 338c a53d
00000240: a2df 84bd 10ad 873d f730 6bbd f277 bdbc
00000250: 2c28 983c 6ef9 613e 5eb1 313d 3773 35be
00000260: 59ae aabd 6839 493d 74b3 86bd c67e 26be
00000270: 8706 27bd a96e 78bb 8c28 bd3d f8ff 003e
00000280: d437 2e3b 2ecb 18bd 2cb7 673e 86d1 1f3e
00000290: acb5 1d3d 2943 523d 13e7 7abd 0d28 d73c
000002a0: 118a 2dbd f6cc 15bb af4a 7b3d 9838 b1bd
000002b0: 0d72 163e 540c 26be a968 5bbd 7062 84bd
000002c0: 833f b93d b46f 143e d285 093e 209d 73bd
000002d0: cac6 f9bd a509 bb3d c4f6 963b a37b 68bc
000002e0: 939f bb3d 3440 ba3d dd8b 083e 5473 233e
000002f0: 2544 883d 197d 353d 0a1e 45bd 8b2f cfbd
00000300: 39b4 c2bd f66a 493e c486 c83c 8cb2 68bc
00000310: 8f26 b539 2ae2 c7bb 07e0 18bd d7aa dfbd
00000320: 7ac3 633c 4228 613d 1173 1c3e 6f07 32be
00000330: 01d4 a2bd 9380 f63c 2d1b fdbb 0ed2 303d
00000340: 8e44 babd eae7 303d 0d6d e8be 9e1f 103d
00000350: 8140 963d cea1 263d 0227 2ebd edbb 21bd
00000360: 12e3 fe3c 8098 ebbd 24d9 813c b600 49bc
00000370: 7030 593d 866a ad3c 2407 473e 10ab 2cbe
00000380: 55b3 63bd 1d5e 363d eacc ccbd cea0 603d
00000390: e97d 84be 80b8 363c 813c 1b3d 9d60 fdbd
000003a0: 01fb 0cbd fb5c 8cbd f8eb ccbd 3806 1ebd
000003b0: aaa5 70bd 170a 8c3c c197 e53d 29a0 163e
000003c0: 8dd2 48bc 3312 923d 5c97 85bd f30f 5abd
000003d0: bb3a d23d 2377 d03c a352 453c da4a 5cba
000003e0: 9a6c debd 14b1 b9bd 5561 b23d 94c9 5f3e
000003f0: 9176 ea39 a7bf 2cbd fcf4 1f3d ed62 083d
-0.103423014 0.11692186 -0.035329413 -0.058011603 -0.011924671 -0.04912654 -0.03542949 -0.06350611
0.13688922 0.08433634 -0.054441333 -0.022319146 0.02127243 0.166641 6.010332e-05 0.1622319
0.07502515 0.033297658 -0.05957209 -0.11001754 -0.07329645 0.029698798 -0.12484251 0.054116037
-0.018763946 0.026954552 0.09158639 0.050232578 0.07915816 -0.0985984 -0.088630386 -0.022938265
-0.009928335 0.07488634 0.06258613 -0.11569332 0.055923637 -0.08487679 -0.103419274 -0.035718482
-0.020712426 -0.06725123 0.0482164 0.043259688 -0.06077595 -0.07702755 -0.0756852 -0.015318828
0.024809549 -0.08954491 -0.10675624 0.023188083 -0.018889992 0.07088994 -0.07509234 -0.054629553
0.025628429 -0.07988559 0.031621188 -0.10698588 -0.08606386 -0.003568107 0.0011615863 -0.0018498788
-0.090776905 0.017907511 -0.08276998 -0.010495674 -0.039755095 -0.0047549475 -0.03587705 0.083221786
0.020291166 -0.08397619 -0.068371825 0.12737522 0.053611644 -0.09896445 -0.03081818 -0.04830335
0.0003368478 0.07637257 -0.038266066 -0.039587237 0.10711755 -0.064686775 -0.118866585 -0.009406965
0.020555208 0.016253171 -0.023318283 -0.103636086 0.0018491512 0.07953612 0.20611042 0.0860632
0.07915048 -0.11928561 -0.12924038 0.03860251 -0.12150563 -0.017718239 0.10753783 -0.00856112
-0.007828965 -0.08210581 -0.063467704 0.015712451 -0.0060740476 0.09750728 0.050256025 -0.16553675
0.14103432 0.03916161 -0.09590556 -0.070838206 0.06707772 0.11580785 -0.044446312 0.05920002
-0.080220625 0.023867 -0.039586082 0.15175515 0.008484201 0.03020144 -0.073229454 -0.052062996
-0.07181172 -0.012656103 -0.06937093 0.11378814 -0.0782421 -0.07668428 0.085149996 0.085714564
-0.03138673 -0.19553722 0.11320348 -0.018613886 -0.15880868 0.24642144 0.11710474 0.080833815
-0.06487967 0.06624806 -0.057419743 -0.023128483 0.018573843 0.22067806 0.04338204 -0.17719732
-0.083340354 0.049127012 -0.06577197 -0.16259298 -0.04077771 -0.0037907755 0.09236249 0.12597644
0.002658357 -0.037303142 0.22628468 0.1560727 0.038503334 0.05133358 -0.061255526 0.026264215
-0.042368 -0.0022857762 0.06135052 -0.086533725 0.14691944 -0.1621564 -0.05356661 -0.06464088
0.09045317 0.14495736 0.13429955 -0.059476018 -0.12196119 0.09132699 0.0046070535 -0.014189634
0.09161296 0.09094277 0.13334604 0.15961963 0.066536225 0.044308756 -0.04812435 -0.1011649
-0.09507031 0.19669709 0.024478324 -0.014202725 0.0003455174 -0.006099959 -0.037323024 -0.10921257
0.013901586 0.054970033 0.1527827 -0.17385648 -0.07950593 0.030090606 -0.007724187 0.043169074
-0.09095107 0.04318992 -0.453957 0.035186402 0.07336522 0.040681653 -0.04251767 -0.03948586
0.031114135 -0.115036964 0.015850611 -0.012268236 0.05302471 0.021168958 0.19436318 -0.1686213
-0.055590946 0.044523347 -0.10000022 0.054840855 -0.25877312 0.011152387 0.037899498 -0.12371943
-0.034419063 -0.06853672 -0.10005945 -0.03858015 -0.05875174 0.017094655 0.112105854 0.14709534
-0.0122572305 0.071323775 -0.0652301 -0.053237867 0.10265108 0.025447434 0.012043628 -0.0008403488
-0.10860558 -0.09066978 0.08709971 0.2185424 0.00044720297 -0.04217496 0.039051995 0.033297468

VAE_Encoder.layers.0.linear1.bias f4 [4]
00000000: 8d19 87bd 9b06 8cbd 4e1b 84bc 68d9 a63c
-0.0659667 -0.068371974 -0.016126301 0.02036734

VAE_Encoder.layers.0.norm1.weight f4 [4]
00000000: c507 8a3f 4a88 a13f 49ef 8c3f 9269 933f
1.0783621 1.2619717 1.1010524 1.1516593

VAE_Encoder.layers.0.norm1.bias f4 [4]
00000000: b09b f03d 2440 7fbd 9ed8 9d3d 7ea8 283d
0.11748445 -0.06231703 0.07707332 0.04117631

VAE_Encoder.layers.1.attention.W_q.weight f4 [4, 4]
00000000: aac7 6b3d 56db debe 6093 ef3e 4d31 9a3d
00000010: 2750 f93c 4042 89be cb44 6fbd 8514 9b3e
00000020: 334d 19be a156 c7be fce1 303c bf42 a73a
00000030: 15dd 883d f4f9 e43d 328a 973e 7170 f73d
0.05756346 -0.43526715 0.46792126 0.07528935 0.030433727 -0.26808357 -0.058415215 0.30289093
-0.14970855 -0.3893328 0.010796066 0.0012760981 0.06682793 0.11180487 0.29597622 0.12081993

VAE_Encoder.layers.1.attention.W_q.bias f4 [4]
00000000: 2b78 f83d 414f 36bb 31a4 a0bd 4bee e7be
0.12132295 -0.0027818235 -0.07843817 -0.4529899

VAE_Encoder.layers.1.attention.W_k.weight f4 [4, 4]
00000000: 1909 52bf 3b33 38be 6715 453e b8af 13be
00000010: d48d fa3d 37a1 f6be 9fe5 a53c 9a5d 683e
00000020: 52a0 4cbe 121f c33e 02b8 0cbf 69d3 203d
00000030: 89ba adb8 439d adbd e81f ddbe da8d a6be
-0.8204513 -0.17988293 0.19246446 -0.144225 0.12234083 -0.48169872 0.020251093 0.22691956
-0.19983032 0.38109642 -0.54968274 0.039264116 -8.284028e-05 -0.08477261 -0.43188405 -0.325301

VAE_Encoder.layers.1.attention.W_k.bias f4 [4]
00000000: cdfd 32b8 943e 1137 d8aa a4b7 d166 4437
-4.2674877e-05 8.657244e-06 -1.9629879e-05 1.1706449e-05

VAE_Encoder.layers.1.attention.W_v.weight f4 [4, 4]
00000000: 9115 0bbe 44cd c9bd 9bad 31be 17a1 11be
00000010: f6f6 623d 24b9 843d b549 29bc b21a 793d
00000020: 90da 523d 393b 8b3d 245e 32bc 8776 843d
00000030: 70cf e43d b426 fb3d 40c7 1d3d ded8 023e
-0.13582446 -0.098536044 -0.17351381 -0.14221607 0.0554113 0.06480625 -0.0103325145 0.060816474
0.05147797 0.06798405 -0.010886703 0.0646792 0.11172378 0.122632414 0.038520098 0.12778041

VAE_Encoder.layers.1.attention.W_v.bias f4 [4]
00000000: be4b 60bd 2622 713d 16ee 8ebc 16f1 86ba
-0.054759733 0.058870457 -0.017447513 -0.0010295238

VAE_Encoder.layers.1.linear0.weight f4 [128, 4]
00000000: 1d2f fbbe 52af 6cbd 9e52 1ebe 982a 00bf
00000010: 850c 2a3e 817c c53e 6393 0cbe 5ad6 a8be
00000020: d971 5a3e df38 a5be 57e1 19bf 9b19 663e
00000030: 31f7 133f 3e4b 9fbe 8efd 09bf 7689 903e
00000040: c497 d63e 4f4c ba3e 8901 d93e c98f e7be
00000050: d0bc a0be cecd ca3d 55a9 b93d 4574 433e
00000060: b340 053f 6f3a 823e 6eca 30bd 49d6 cd3e
00000070: 01cd 1d3e 1c5b abbe c655 bcbd 0e27 adbd
00000080: 255f 86be 0a8e e8be b8ea 75be 43d7 e5be
00000090: 3d55 f63e e3a0 e1be dcb5 f43e 4a87 963c
000000a0: 5b1a a0be 133b 58bd dbc0 cf3e 962a cb3e
000000b0: 5523 de3e 6eef 91be 6e80 9cbe 8115 aebe
000000c0: 5a61 bb3e c7dc 243e ce2f c0be 22af 253e
000000d0: 6ac7 583e 1fa2 e63d 110c d53e 4ce8 57be
000000e0: 3cd1 803d ee46 253e a155 ddbe cf28 213f
000000f0: 4bf5 45bd b480 e8be 97e1 a13e 5200 03be
00000100: a673 053f b1b1 c03d 864d bb3d 957e 373d
00000110: 3143 29be e566 083f 2b7e 4bbe c550 813e
00000120: ab82 43be 0343 523e 7bc4 97be f3e0 13bf
00000130: 893d cfbe 62e8 8c3e 2d04 11bf 215d 3e3e
00000140: cb8d 8c3d eadc d23e 9602 dcbe 40a2 bcbd
00000150: 1082 f83d 46b6 6bbe 5e8e 023e 4548 42be
00000160: 941d 0c3f a2dd d13e 58ab 7bbe 0bae 9fbe
00000170: 457e 9a3e f989 d3be d83a 74be 513d 353e
00000180: bb21 79be 7afb 173e 599f b8bd b73f b2be
00000190: 656b b8be 090a d63e a9f9 babe 13f4 6d3e
000001a0: d13e e7be d63d a43e f9bc 81be 7120 12bf
000001b0: 8eb2 fabd d1ba be3e 9f7a f4be f9cc c63e
000001c0: 008d f33e 47fe 993e 601c 80be 8288 3d3e
000001d0: 0b82 53be 433d c53d 738e f13e 6334 d63d
000001e0: b450 07bf c6f5 6dbe 5ceb 2bbe 0226 1e3e
000001f0: f99e f9be 4d97 1ebf 7f9b a93e 2eb5 7e3e
00000200: 7a10 d8be fb59 08bf 2a9f 46be dd02 8e3c
00000210: 2e7d 59be dc96 0ebf cbd6 0b3e f5f3 fb3e
00000220: 917b 8fbd b24a 9abd 58ac 063f b68e 703e
00000230: 3771 75bd b509 273d 1522 44be 7723 8d3e
00000240: 890a 873d a70b 88bd 7a42 f2be 892e 3b3d
00000250: 52e0 d7be 6054 c1bb f2c3 fbbe 18db 173f
00000260: 7a41 69be d399 5fbe 0d57 73be bc2b abbe
00000270: 53d3 6dbe bfb4 cebe bf70 2abe 3a6b 3d3e
00000280: 4462 15bf 9554 abbe 838d b5be cb81 16bf
00000290: c2fe 3cbc 3be7 09be 306a dfbe b4ad 0a3f
000002a0: 8afa d53e 0260 e6be a33d d3bd fbb1 b2be
000002b0: 3093 22bf bc2e 31be a6a4 8ebe 0453 133e
000002c0: d085 05be ecbf f33e e25e 9fbe 2d18 0ebf
000002d0: d3c1 663e 88aa 5f3e ea55 11bf cafb b9bd
000002e0: 2939 71be c9b0 a93e 708a 693c d9ac 5cbd
000002f0: b2af 21bd 3d1d cdbe 1ea6 e2be 9337 ebbd
00000300: 3f15 c8be 2adb 15bf 3dcf da3e 26f6 7b3e
00000310: e391 e43e dbb3 8e3e 0c2c 11bd 725a 103e
00000320: e89c a6be 9701 65bd 4daa 62be bb18 933e
00000330: 7b84 e93e 7374 ac3e 054a ee3e 670a dfbb
00000340: 2684 eb3e eaae 71bd a396 573e 818f f3be
00000350: f88f a9be 327b b03e e200 163e 2866 8ebe
00000360: 7181 8e3d 9127 0c3f 497e b9be bad4 30be
00000370: da85 243e 8c8c b43e 96dc 60bd 8a8b dabe
00000380: ef5d a0bd af82 a1be f099 ee3e 8b1e 87be
00000390: 81b4 9a3e 2362 553e 06ec 5a3e 63fb 47be
000003a0: c7c7 8cbe 6a72 ea3e 69fe 6d3e 074d a5bd
000003b0: 8dc7 c7be abf0 13be 99cb bf3e e2c2 65bd
000003c0: df2d 3dbe a95e 6abe 111f 983e 2d39 113e
000003d0: 82b9 04bf 3a8b 83be ec09 ebbe cbda 0e3f
000003e0: a017 c73e ea69 b33e 910f 7abe df0e 3a3e
000003f0: e858 7ebd 5cfe bc3e d06a 28be ab8c cb3e
-0.49059382 -0.057784386 -0.15461203 -0.5006499 0.16606338 0.3857155 -0.13728099 -0.32976037
0.21332492 -0.32269952 -0.60109466 0.22470705 0.5779906 -0.31112093 -0.5390252 0.28229874
0.41912663 0.36386344 0.42383984 -0.45226887 -0.31394053 0.099025354 0.09065501 0.19087322
0.5205185 0.25435206 -0.043161802 0.4020255 0.15410234 -0.33467948 -0.091960475 -0.08454715
-0.26244465 -0.45420867 -0.2401532 -0.44890794 0.48111907 -0.4406806 0.47794998 0.018375058
-0.31270108 -0.052790713 0.40576825 0.39680928 0.4338633 -0.28502983 -0.30566734 -0.3400078
0.3659771 0.16099845 -0.37536472 0.16180089 0.2116982 0.11261391 0.41610768 -0.21084708
0.06289908 0.16140339 -0.43229392 0.62952894 -0.048329633 -0.45410693 0.31617424 -0.12793091
0.5212959 0.09408892 0.09145646 0.044798452 -0.16529538 0.53282005 -0.19872348 0.25256935
-0.19092815 0.20533375 -0.2964209 -0.5776512 -0.40476635 0.27521044 -0.56646997 0.18590213
0.06862982 0.4118417 -0.42970723 -0.09210634 0.121341825 -0.2301875 0.12749621 -0.18972881
0.5473263 0.40989405 -0.24577081 -0.31187472 0.3017446 -0.41316202 -0.23850572 0.17699172
-0.24329273 0.14842024 -0.09014768 -0.34814236 -0.36019436 0.4180453 -0.365186 0.23237638
-0.45165113 0.32078427 -0.25339487 -0.5708075 -0.12241088 0.37251905 -0.47749802 0.38828257
0.47568512 0.3007681 -0.25021648 0.18509105 -0.20655076 0.09630825 0.47178993 0.10459211
-0.5285752 -0.23238286 -0.16789001 0.15444186 -0.487541 -0.61949617 0.33126447 0.24873802
-0.4220007 -0.532623 -0.19396654 0.01733535 -0.21239159 -0.55698943 0.13656156 0.49209562
-0.0700599 -0.07533778 0.52606726 0.2349194 -0.059922423 0.04078074 -0.19153626 0.2756612
0.06593806 -0.066428475 -0.47316343 0.045698676 -0.4216333 -0.005899951 -0.49172932 0.59318686
-0.22778884 -0.21836023 -0.23763676 -0.33431804 -0.23225145 -0.40372273 -0.16644572 0.18497935
-0.58353066 -0.33462968 -0.35459527 -0.587918 -0.011535348 -0.13467114 -0.43635702 0.541713
0.4179271 -0.44995123 -0.10314491 -0.34901413 -0.6350584 -0.17302984 -0.27859992 0.14387137
-0.13039327 0.47607362 -0.31127077 -0.5550564 0.22534876 0.21842396 -0.5677172 -0.09081228
-0.23556961 0.3314269 0.0142541975 -0.053875778 -0.039474197 -0.4006137 -0.44267362 -0.11485209
-0.3907871 -0.5853754 0.42736235 0.24605617 0.44642553 0.27871594 -0.035442397 0.14097002
-0.32541585 -0.05590972 -0.22135277 0.28729805 0.45608887 0.33682594 0.46540847 -0.00680666
0.4599926 -0.0590047 0.21053557 -0.47570422 -0.33117652 0.3446899 0.14648774 -0.27812314
0.06958283 0.54747874 -0.3622916 -0.17268649 0.16066685 0.3526348 -0.054897867 -0.42684585
-0.078304164 -0.31545016 0.4660182 -0.2639049 0.3021584 0.20838217 0.21379098 -0.1952949
-0.27496168 0.45790416 0.23241581 -0.080713324 -0.39019433 -0.14447276 0.3746002 -0.056094058
-0.1847453 -0.22887672 0.29711202 0.14181967 -0.5184556 -0.2569216 -0.45906007 0.558026
0.38885212 0.35041744 -0.2442 0.18169735 -0.062096506 0.3691281 -0.16446996 0.3975576

VAE_Encoder.layers.1.linear0.bias f4 [128]
00000000: e7bd b5be fb7a 55be 7ec6 63be 54b2 ac3e
00000010: 1917 d1be 0b71 aeba 2671 8f3e 84a1 a83d
00000020: 0152 e0be 3e04 76be b469 a8be 3476 053f
00000030: 4cb4 3d3e 3a4e c5bc 2ed9 52be a8b1 f03d
00000040: 60ef a93e 33fe 883e 61f2 5bbe 1e45 0b3e
00000050: b66a b6be 250e 3e3d 1345 84be 5e09 093f
00000060: 2271 6ebd cd1d 643d 390e 3fbe a76b cfbe
00000070: 106f e43e e3c8 acbe 4bdd 41be 3353 e63e
00000080: bcb2 13bc 11ad 9e3e 1ec7 953e 9339 673e
00000090: c263 b33e c048 553d 311d b43e aaab 42be
000000a0: d024 bd3e b59b 2dbd 163b cabd 16fd c3be
000000b0: 887b 2d3e ce8c d93e 6b41 b13e 49e7 813d
000000c0: 9d01 dd3e a2ba 0f3e d194 43be 1a68 50be
000000d0: 2c61 8f3e a50a 083e a151 0ebe a9a3 f0be
000000e0: 9ec9 7abe 40f8 063d f688 ccbe ce34 e13e
000000f0: ad23 b0be 7144 abbb 77e1 a53d da36 e73e
00000100: 5116 433d 2cc5 f9be 401d e4be cc3c e93e
00000110: caff cfbd ec79 1ebc 8bac be3e 6805 b1bc
00000120: 510a 45be e3a8 c6bd 2994 44bc e94b 90be
00000130: 33e4 9e3e 5ca4 45bd e71c af3e 3a59 bbbd
00000140: 8502 2c3d 7439 c73e 5eb8 5c3e c7e9 c4bd
00000150: b9ac be3e b62f f0bc a0df 55be 3c95 90be
00000160: 5ea3 d0be df99 e5bd 28dc c8be f017 003e
00000170: 1adb 9bbe c465 eabe fd5b 83be 2dee 9bbe
00000180: b32b 9e3e 539d 75bd 8486 c3be e2af 19be
00000190: ca0d 7cbe 3216 c73e c013 c93c a753 d33e
000001a0: 4916 a3be f713 a03e 87cd b33e f0f5 c53e
000001b0: ad60 d4be b6ad 943e 7cc6 8cbe 6f2a 043f
000001c0: bf40 a9bd 5a81 96bd 3b37 c1be c7df cbbc
000001d0: 0213 9a3d a6ad a93e 1611 c73e 5be3 a53e
000001e0: 9e01 f83e 1e01 5c3e 0174 babd 69c4 093e
000001f0: 8b39 73bd e492 eebe 17d0 5fbd 5050 d03b
-0.35496446 -0.20847695 -0.22243688 0.33729804 -0.40837935 -0.0013308836 0.28016013 0.08233932
-0.43812564 -0.24025056 -0.32893145 0.5213349 0.18525809 -0.024085153 -0.2059066 0.11752635
0.3319044 0.2675644 -0.21479179 0.13600585 -0.3562829 0.046400208 -0.2583395 0.5352992
-0.05821336 0.055692483 -0.1865777 -0.4051182 0.44615984 -0.33747014 -0.18932073 0.4498535
-0.009014782 0.30991414 0.29253477 0.22580557 0.35037047 0.052071333 0.3517852 -0.19010797
0.36942148 -0.042384822 -0.09874551 -0.38279027 0.16941655 0.42490238 0.34620222 0.06342942
0.43165293 0.14036039 -0.19099738 -0.20352212 0.28003824 0.1328531 -0.13898326 -0.46999863
-0.24490973 0.032951593 -0.39948243 0.439856 -0.34402218 -0.0052266647 0.08099645 0.45159036
0.047628704 -0.48783243 -0.44553566 0.45554197 -0.1015621 -0.009672623 0.37241015 -0.021609023
-0.19242217 -0.09700181 -0.011998215 -0.28182915 0.31033477 -0.04825245 0.34201738 -0.09147878
0.04199459 0.3891102 0.21554706 -0.09614902 0.37241152 -0.029319625 -0.20886087 -0.28238857
-0.4074964 -0.11210989 -0.39230466 0.12509131 -0.304406 -0.45780766 -0.2565612 -0.3045515
0.30892715 -0.05996449 -0.38188565 -0.150085 -0.24614635 0.3888412 0.02454555 0.4127476
-0.3185294 0.31265232 0.35117742 0.38664198 -0.41480008 0.2903878 -0.27495182 0.5162725
-0.082643025 -0.073488906 -0.3773745 -0.024886979 0.07523157 0.33140296 0.38880223 0.3240002
0.48438734 0.21484801 -0.09104157 0.13453831 -0.05938105 -0.46596444 -0.05464181 0.0063572302

VAE_Encoder.layers.1.linear1.weight f4 [4, 128]
00000000: 5345 04be 1359 13bc a1a5 99be 262e 4c3d
00000010: 6fa6 cb3c 4323 563d e23c b3bc 90d8 c73c
00000020: 21a3 dbbc 0fa3 4e3c 5841 abbd 492b d43d
00000030: 16b5 b5bc 652f 9fbc 5e10 8fbe fb61 3bbd
00000040: 8419 f23c 606b 8a3d d3b7 ab3d 642c 703d
00000050: 3244 b03d e2bd 473c f4ea babe 3b75 a13d
00000060: 10b6 90bd cb98 e43c cac6 30bd 79fd 713d
00000070: 912d 9abd e3ef 5fbd bbfe 033e d60b b9bc
00000080: 2d5d 823d c29e d63b f921 04be 173c e43d
00000090: 0d2b 263d 13f7 8a3d c6ab 803b 7795 573d
000000a0: 4b05 b0bc 53c8 be3d e24e a9bd 4317 5f3e
000000b0: 6990 8e3d 8c4c 8c3d 0b80 30bd 845b 723d
000000c0: 2665 15bb be87 cdbc 52ab 703c 0227 a83d
000000d0: 6c27 963d 28f3 433c 5b01 db3d 755f e6bd
000000e0: a6f0 11be 2c37 9e3b 526d 91bd f98a 12bd
000000f0: 497b 56bc d02e f43c 93b5 333c 3a70 a43d
00000100: c42e c33b d358 363d b6c5 29bd 685b 6c3d
00000110: d230 09be a1e1 713c cbf2 a43d 61f9 a8bd
00000120: 3dc8 773c 7911 94bd 246f cf3c 6d33 05bd
00000130: 6259 92bd 2412 87bd 8d34 1bbd ab57 97bc
00000140: 33d3 fcbd 1163 873d 55f9 083e 9489 92bc
00000150: ff20 5b3c 948d b3bd b00a 943b 2035 fc3d
00000160: 6ce1 fb3d e65e 763d f944 253d f8e4 d23d
00000170: f4da 1d3d 7f1e 29be f16e 8fbc 6b50 853c
00000180: 4214 ef3c bdb7 24bd 9b6a 1bbd 1b14 91bd
00000190: 94f4 d93c fd8b ea3d ee2f e23c ee8c 8e3d
000001a0: 080f d53c d59c a43d 6fff 993c 79c8 75bd
000001b0: f41d dbbc 280c cbbd aa5d 87be dd7c d1bc
000001c0: ac12 8a3d afcc 96bc e952 b83d 9513 a03c
000001d0: 63d0 d53d 9857 90bc e36b 803d 286b cc3d
000001e0: 9c33 683d 7ed4 1f3d dd94 c53d 805c de3d
000001f0: 514b 0abd df4e 33bd 66a5 b9bc 006a 5aba
00000200: 64e6 433e 5aac cc3c f9ab 033e a499 333d
00000210: 51ff 6ebe b767 973d 32b6 8a3b 81ea a6bc
00000220: b962 82bd 19de ce3d edec d1bd ea01 613d
00000230: ecd7 fa3d c480 f83b 91fc 033e 6b5c d43d
00000240: 27e6 b1bd ca8e aabb 0021 913d 9a96 b1bd
00000250: eab0 cdbc 82f2 363b 9acf d83d 3166 0f3d
00000260: 1a72 383d 1cb6 edbc a44a 9fbd 6918 f43c
00000270: edea c23d 2f60 173d bf7b 28be 3cbe 2d3e
00000280: 63e4 1abe 84e4 92bd 155d f8bc 3626 08bd
00000290: 7348 ea3d 22d7 28be c375 953b cf8d ea3b
000002a0: ebaa bbbd 245c eebd e573 bd3d 58f0 37be
000002b0: 6aa8 3dbc b797 b73c fbc3 2cbc 2e79 4a3b
000002c0: e788 9a3d a8f1 a83d a6b8 07be 7c0a c5bd
000002d0: 518e 8abd 3f33 b33d 0045 f33d 30af 2dbe
000002e0: ff4d fabc 84b3 38be 12a0 443d 3638 9bbd
000002f0: f39c e53c 42a2 45be e258 2c3e ec6b ab3c
00000300: 4ac4 a13d 370f 98bd 6ed3 01bd 2a7f 523d
00000310: ca84 6fbd 0c8c 9a3d 1b6b f8bc ca00 debd
00000320: dd31 1d3d 66f8 38bd e9a9 33be 227d c83d
00000330: 8b31 b7ba d63a 8d3c 6f99 c1bc eb3e 0a3e
00000340: 01fd 433d 016c 1cbe ef95 cbbd 8ffe 13be
00000350: c448 93bc 8b8b d23d 2734 5f3c ce59 acbd
00000360: 8b3f 7cbe 6d24 923c bb5d bebc 386e 30be
00000370: fdb6 6b3d 6834 b03e 67ad 003e 9f2c 62bd
00000380: fa76 62bd 8e8b 813d 219b bbbd 5328 0ebe
00000390: 7361 8f3d fd80 e1bc c173 91bd 3fe1 00be
000003a0: d3a9 693d 56f8 ed3b 0d0a a83d 5d59 3e3e
000003b0: de82 4abe 8e43 813d f278 173e 1dbc bd3d
000003c0: 2386 103d 28b1 a33b 100d 6cbd 388c ccbd
000003d0: 4eed 1a3d 2ee6 a73d 5cc7 2b3a 2e0f 2ebd
000003e0: e290 b2bd fc17 f83d fcde 62bd 59fe 173e
000003f0: 0200 bd3d 2e94 483b 814e 913d 785f 26be
-0.1291707 -0.008993405 -0.30009177 0.049848698 0.024859635 0.052279722 -0.021879617 0.024395257
-0.026811184 0.012612118 -0.08362073 0.103598185 -0.022181075 -0.01943178 -0.27942175 -0.04574774
0.029553182 0.067587614 0.08384671 0.058636084 0.08606757 0.012191268 -0.3650738 0.07883688
-0.07065976 0.027904889 -0.04315833 0.05907962 -0.07528222 -0.054672133 0.1289014 -0.022588652
0.06365428 0.006549687 -0.12903585 0.11144274 0.0405684 0.06785407 0.003926727 0.052632775
-0.021486899 0.093155526 -0.08266999 0.21786217 0.06961138 0.06850538 -0.04309086 0.059169307
-0.0022795885 -0.025089141 0.014689283 0.08210565 0.07331738 0.011959828 0.10693618 -0.11248676
-0.14251956 0.0048283543 -0.07100929 -0.035777066 -0.013090917 0.029807478 0.010968584 0.08029218
0.0059565026 0.044518303 -0.041448317 0.05770436 -0.1339753 0.014763267 0.080541216 -0.0825069
0.015123424 -0.07229895 0.02532155 -0.032519747 -0.07145955 -0.06595257 -0.037891913 -0.01847442
-0.123449706 0.06610692 0.13376363 -0.017887868 0.013374566 -0.08767238 0.0045178756 0.1231482
0.12298855 0.060149096 0.04034898 0.102975786 0.038538888 -0.1651554 -0.017508956 0.016273698
0.029184464 -0.04021429 -0.037943464 -0.07083913 0.026605882 0.11452482 0.027610745 0.06960474
0.026008144 0.08037726 0.018798558 -0.06000564 -0.026747681 -0.09914428 -0.26438648 -0.025572235
0.06741843 -0.018408148 0.09000189 0.019540587 0.10440137 -0.017619893 0.06270578 0.09981376
0.056689844 0.039021008 0.09647534 0.10857487 -0.033763234 -0.04377639 -0.022661876 -0.0008331835
0.19130856 0.024984527 0.12858571 0.043847695 -0.23339583 0.07392829 0.004233145 -0.020375492
-0.06366486 0.101009555 -0.10250268 0.054933466 0.12248215 0.0075837094 0.12889315 0.1036919
-0.08686476 -0.00520501 0.070863724 -0.08671303 -0.025108773 0.0027915542 0.10586472 0.035009567
0.04503069 -0.0290175 -0.077779084 0.029796796 0.09517465 0.036956962 -0.16453455 0.169671
-0.15126185 -0.07172492 -0.030317822 -0.033239566 0.114396 -0.16488317 0.0045611574 0.007158018
-0.091634594 -0.11638668 0.09250621 -0.17962778 -0.011575798 0.02241121 -0.010544772 0.0030894983
0.07545643 0.08249217 -0.13254032 -0.0962114 -0.06765426 0.08750009 0.11878395 -0.1696136
-0.03055477 -0.1803723 0.048004217 -0.07579081 0.02802894 -0.19300178 0.16830781 0.020925485
0.07898767 -0.07424777 -0.031695776 0.051390804 -0.058476247 0.07546243 -0.03032451 -0.10839994
0.03837763 -0.045158766 -0.17545284 0.09789492 -0.0013976557 0.01723997 -0.023632733 0.13500564
0.047848705 -0.15275575 -0.09940707 -0.14452575 -0.017979033 0.10280522 0.013623274 -0.084155664
-0.24633615 0.017839635 -0.023238054 -0.17229545 0.057547558 0.34414983 0.12566148 -0.055218335
-0.055289246 0.06325446 -0.09160448 -0.1388257 0.07001009 -0.027527327 -0.071021564 -0.12585925
0.057046723 0.00726227 0.08205042 0.18588777 -0.19776484 0.06311713 0.1479223 0.092643954
0.035284173 0.004995484 -0.057629645 -0.09987682 0.037823968 0.081982 0.0006552839 -0.042494945
-0.087190405 0.1211395 -0.055388436 0.1484312 0.09228517 0.00306059 0.070950516 -0.16247356

VAE_Encoder.layers.1.linear1.bias f4 [4]
00000000: 4e19 813d 2569 36bd ccc3 183d 9757 063d
0.063036546 -0.044533867 0.0372961 0.032798376

VAE_Encoder.layers.1.norm1.weight f4 [4]
00000000: c3af 9e3f 0812 953f e61c 883f e874 953f
1.2397388 1.1646128 1.0633819 1.1676302

VAE_Encoder.layers.1.norm1.bias f4 [4]
00000000: ad27 01bb b2a2 8c3d 0649 35ba 587e 3dbc
-0.0019707486 0.06866969 -0.00069154834 -0.011565767

VAE_Encoder.layers.1.norm0.weight f4 [4]
00000000: 448c 4c3f 2ba4 603f 354d 763f 1842 323f
0.7990153 0.877505 0.9621156 0.696321

VAE_Encoder.layers.1.norm0.bias f4 [4]
00000000: ec65 383d f17f 20bd 8931 b3bc 5c1d c63d
0.045019075 -0.039184514 -0.021874206 0.096735686

VAE_Encoder.last_normalization.weight f4 [4]
00000000: 0000 803f 0000 803f 0000 803f 0000 803f
1.0 1.0 1.0 1.0

VAE_Encoder.last_normalization.bias f4 [4]
00000000: 0000 0000 0000 0000 0000 0000 0000 0000
0.0 0.0 0.0 0.0

VAE_Encoder.head.weight f4 [4, 4]
00000000: e6d2 febe 80ee 913d f861 bc3e c0b0 e0bc
00000010: 4428 5cbe 308c cd3e dcaa 70be e061 a33d
00000020: 4069 c9bd 100a ac3e 8066 a33b 20d0 b03d
00000030: 806f 8abb c805 dc3d 204d f53c 000f bb3b
-0.49770278 0.071255684 0.36793494 -0.027428031 -0.21499735 0.40146017 -0.23502678 0.079776525
-0.09834528 0.33601427 0.004986584 0.08633447 -0.0042247176 0.1074329 0.029944003 0.0057085752

VAE_Encoder.head.bias f4 [4]
00000000: 44ab c03e e671 bebe e279 c2be b83f a13e
0.37630665 -0.37196273 -0.37983614 0.31493926
